robot_state_berkeley_training/robot_state_epoch_16.pth (torch, 838065 bytes, 24 tensors)

policy_network.0.weight f4 [128, 15]
000000 75 90 54 bd 94 79 f9 bc 75 d0 64 3e 20 f4 06 3e
       -0.051895577 -0.03045348 0.22345145 0.13179064
000010 69 3c f3 3d f1 29 ab 3b d6 0f da 3d 22 79 89 bd
       0.11876757 0.0052235057 0.10647552 -0.067125574
000020 65 7a 5c 3e 73 fd 53 3e ae 60 10 be 7c ea 25 3f
       0.21531065 0.20702152 -0.1409938 0.6481092
000030 28 f0 00 3e ef 82 a4 3e 44 f5 af 3e bd ab e6 3d
       0.12591612 0.32131144 0.3436681 0.11263225
000040 c3 1e 45 3e c4 d4 ea bd 8c a7 42 be b7 c2 3e bd
       0.19250016 -0.11466363 -0.19009227 -0.046572413
000050 9c fb dd 3d 71 3c d2 3d d6 14 07 be b3 e2 16 bf
       0.10839006 0.102654345 -0.13191542 -0.58939666
000060 ee b3 3a bd 9b 9c 14 be d4 e1 11 3e 59 df 90 be
       -0.04558175 -0.14512865 0.14246303 -0.282954
000070 95 b3 62 3e 16 bc 29 bc 68 08 b6 3c 06 ee 8b bd
       0.22138818 -0.010359785 0.022220805 -0.06832509
000080 23 1d 7f be de 80 a1 3d 7e b0 da bc e8 82 01 3e
       -0.24913459 0.078859076 -0.026695486 0.12647593
000090 01 e2 34 3e 3a 66 7d 3e ad 26 a2 3e 12 25 27 be
       0.17664339 0.24746028 0.31670132 -0.16322735
0000a0 90 a6 7f 3e d8 1b 31 be a5 46 fe bc c8 ee 48 3e
       0.24965882 -0.17295778 -0.031039545 0.19622338
0000b0 86 89 4e be 7d ca 45 3e cc 0a 05 be 5d 2d 54 bd
       -0.20169649 0.19315524 -0.129924 -0.051801074
0000c0 5a a1 c3 bd c9 78 04 be 00 89 41 be c9 32 07 3c
       -0.0955226 -0.12936701 -0.18899918 0.008251854
0000d0 b0 85 38 3e eb c2 6f 3e 31 cb 73 bd fa 5c 7c bd
       0.18019748 0.23414199 -0.05951995 -0.061612107
0000e0 ee 07 12 3e 91 8d 85 bd 91 ce 90 3d 18 6a d1 bb
       0.14260837 -0.06521142 0.070706494 -0.006390821
0000f0 a4 b6 ae 3d 8d 67 f7 3b 3d a9 3b 3e d2 ca 64 be
       0.0853093 0.007550186 0.18326278 -0.22342995
000100 8d 28 33 3c e6 2f 8c be 69 e4 50 3d 8f 94 11 bd
       0.010934961 -0.27380294 0.05099908 -0.035542067
000110 99 be 7e be 45 9b ac 3d 8e aa 02 be c5 89 2c 3f
       -0.24877395 0.08428053 -0.12760374 0.6739772
000120 f9 f1 c8 be 8a 5c b0 3e 89 11 ac 3e d1 a6 80 3c
       -0.3924711 0.34445602 0.33607128 0.015704544
000130 92 f1 98 3d 39 bf 5e 3c ef 91 e7 bd e7 6c 51 3d
       0.07467951 0.013595396 -0.113071315 0.051129248
000140 62 73 a9 bd ae a0 44 be 9f 65 43 be 3b b2 74 3e
       -0.08273961 -0.1920192 -0.19081734 0.23896115
000150 c0 4a 58 bc 76 a9 16 be ea b8 de 3d 64 b4 6a be
       -0.013201416 -0.14713082 0.10875113 -0.22920376
000160 35 92 80 be bc 4d 50 be 8c 56 40 bd c3 ae 96 3e
       -0.25111547 -0.20342153 -0.046957538 0.29430208
000170 13 37 b3 3d 71 2a 56 3e af d9 f9 bd 9e 0f cb 3d
       0.08750739 0.20914628 -0.12199723 0.09915088
000180 94 8f 51 be 3c 21 8b be d7 8b 00 3e ed a3 b4 bc
       -0.20464927 -0.27173793 0.12553345 -0.022050822
000190 77 1d 17 be e3 5e f3 3c 76 69 64 be 16 5f 02 3c
       -0.14757334 0.029708331 -0.22305855 0.007957241
0001a0 1c 23 d9 3d c5 38 38 3d d0 e5 bc bb d4 7f 58 be
       0.106024 0.044976015 -0.0057647005 -0.21142513
0001b0 a3 d0 26 3e 4e 20 49 3e ee 7c 22 3e 72 19 d3 3d
       0.16290526 0.1964123 0.1586797 0.10307588
0001c0 60 91 61 3d 1b c9 c8 bd 02 4e ee 3d 05 0c b0 bd
       0.05507028 -0.09803983 0.116359726 -0.085960425
0001d0 8f 97 02 3d 77 08 1e be 5a 29 1a be da 2d 34 be
       0.03188282 -0.15432917 -0.15054837 -0.17595616
0001e0 a6 27 2d bd 04 c5 1c 3e 19 91 51 be b9 83 ed 3d
       -0.04227414 0.1530953 -0.20465507 0.1159739
0001f0 df c8 65 3e c1 79 64 be 5f c3 28 3e 12 a7 42 be
       0.22439907 -0.2231207 0.16480778 -0.19009045
000200 78 ff 40 3e 56 9b 30 be 21 d9 bc 3d c2 18 80 3e
       0.18847454 -0.17246756 0.092211016 0.2501889
000210 ca 1b 50 3d fc 4d 14 be b7 da ae bd 96 9f dc bd
       0.05080775 -0.14482874 -0.0853781 -0.10772626
000220 f1 18 3b be 73 a1 5e be 43 00 82 3e e3 1a dc bd
       -0.18271233 -0.21741275 0.25390825 -0.10747316
000230 c3 ef e9 bd d2 40 82 3e 89 f1 27 3e 13 44 78 3e
       -0.11422684 0.2544008 0.16400732 0.24244718
000240 29 3f 21 3e 6b 25 cb bd 63 e1 bb 3d a0 6c 4d 3e
       0.1574675 -0.09919246 0.091738485 0.20060968
000250 84 65 24 3e e0 c8 53 be cb f4 42 be 51 8f 6b 3d
       0.1605435 -0.20682096 -0.19038694 0.057509724
000260 1f 4f 25 be 24 12 a5 bd b1 c4 21 be 3c d0 15 be
       -0.16143464 -0.08060101 -0.15797688 -0.14630216
000270 b6 d6 5b be 2a a4 a1 bd 2a b2 89 be ac b7 12 3b
       -0.21468624 -0.0789264 -0.2689374 0.002238731
000280 4a fe 7f be ea 2e 1e be 2b 0c 83 3b 50 72 62 3e
       -0.24999347 -0.15447584 0.0039992533 0.2211392
000290 b3 34 78 bd 32 c9 6b 3e 81 45 5b 3d f0 a8 0d 3e
       -0.060597133 0.23025969 0.05353308 0.13833976
0002a0 24 0b 23 3d ac 02 c2 bd b4 81 4f be 9c ba 66 bb
       0.039805546 -0.09473166 -0.20264322 -0.0035206443
0002b0 14 21 1d be 43 f4 72 be 84 3a eb 3d ab 71 66 3c
       -0.1534465 -0.23725991 0.1148577 0.0140651865
0002c0 6b 03 80 3e 43 99 36 3e 74 97 04 be c0 ec 15 3e
       0.25002608 0.17831902 -0.129484 0.14641094
0002d0 fc 25 51 3e 39 39 2b be d9 05 6c be d4 2a 4a 3e
       0.20424646 -0.16721047 -0.23049106 0.197429
0002e0 70 fb 20 be 46 08 da 3d 50 ce 6f be 5b ed 78 bd
       -0.15720916 0.10646109 -0.23418546 -0.060773235
0002f0 a6 2a 06 b9 f8 2a 43 be 43 e2 2f 3e b7 d5 27 bc
       -0.00012795124 -0.1905936 0.17176156 -0.010243825
000300 06 23 62 3e 2d 9f 3d 3e 2f cd 4b bd 6d 4c 7f 3e
       0.22083673 0.18517752 -0.049756225 0.24931498
000310 2e 18 84 3d c1 79 4f 3e e5 49 46 3e 08 ac 08 3e
       0.064499244 0.20261289 0.19364126 0.13346875
000320 50 ad 2e be e8 1d 2e 3e 2c dd 81 be 13 c1 0e be
       -0.17058301 0.17003596 -0.25364053 -0.1394084
000330 5b 79 37 be f8 f2 07 be ab 27 6f 3e 31 cb 97 3b
       -0.17917387 -0.13276279 0.23354976 0.0046323766
000340 94 3a 67 bd 3e 2e 81 3e 1d f2 3c be 41 41 63 be
       -0.05645235 0.25230592 -0.18451734 -0.22192861
000350 88 c4 97 be f6 2f b7 bd 54 e0 dc bd 2a ea 42 3d
       -0.2964213 -0.08944695 -0.10784975 0.047586598
000360 d0 c0 f5 3c 7b 72 5e 3e 65 ee 04 3f e0 c8 a1 be
       0.029999167 0.21723358 0.5192626 -0.31598568
000370 9b 40 9b be 68 16 a9 be c5 b0 b7 3e 96 10 c8 bd
       -0.30322728 -0.33024907 0.35877052 -0.097687885
000380 2a d9 a5 3d 0c 31 7b bd ec b4 34 3e 44 3a 76 be
       0.080980614 -0.06132607 0.17647141 -0.24045664
000390 fd 6b 28 3e 2d 14 51 3e 1a be 67 bc 61 e4 13 be
       0.16447444 0.20417853 -0.014144445 -0.14442588
0003a0 21 91 f3 bd bf 5d 45 bd 61 26 c9 3d 2a e4 e2 3d
       -0.118929155 -0.048185106 0.09821773 0.11078675
0003b0 6e d2 53 be c2 c9 44 be 8a ef b7 3d 95 c8 07 be
       -0.20685741 -0.1921759 0.08981235 -0.1326011
0003c0 e0 38 37 be 66 2f 9d 3e 05 a9 1b 3e 25 cb f9 3d
       -0.1789279 0.30700225 0.15201195 0.1219695
0003d0 e5 c4 66 3e d8 7a 02 3e 76 6b dc bd 86 bd df ba
       0.22536047 0.12742174 -0.10762684 -0.0017070032
0003e0 40 b7 ef 3d a0 b1 80 be 4c ee d7 bd 54 b3 81 be
       0.11704874 -0.25135517 -0.105434984 -0.2533213
0003f0 3b 69 55 be 65 b4 ba be 7f 65 9f be 1a 5c 0e bd
       -0.20840923 -0.36465755 -0.31132123 -0.034755804

policy_network.0.bias f4 [128]
000000 4f 07 80 be 80 69 12 3e 4f 71 a0 bd 86 38 95 3b
       -0.25005576 0.14298058 -0.07834112 0.0045538573
000010 48 c2 5a 3d d1 32 bc bd f3 cd da 3d 68 df a5 3d
       0.053407937 -0.0918938 0.10683813 0.08099252
000020 75 92 4c 3e 27 e6 1a 3d b2 45 ea bd da 87 cd 3d
       0.19977744 0.037817147 -0.114390746 0.10035677
000030 a2 46 35 3e cf a4 30 3e 07 ca cb bd 0c 4a 7e 3e
       0.17702726 0.1725037 -0.09950643 0.24832934
000040 d8 90 04 3e 0f 19 4c be b3 d5 85 3b 52 2b d7 bd
       0.12945879 -0.19931434 0.004084313 -0.105063096
000050 fc e8 42 3e eb 11 d9 bd 12 1a 2f be 62 18 86 be
       0.19034189 -0.10599121 -0.17099789 -0.26190478
000060 bc 4c 25 3e 9a 00 4f be 28 36 c8 3d 4d 25 87 be
       0.16142553 -0.20215073 0.097759545 -0.26395646
000070 20 fb 5f be a6 ee 14 3d 33 bc 51 3d bc dc 05 3e
       -0.2187314 0.036360405 0.05120487 0.13072485
000080 43 b7 66 be 63 84 d9 bc 66 7f 7e be df 4c 44 be
       -0.22530846 -0.026552385 -0.24853286 -0.19169949
000090 87 65 32 be 72 69 ce 3d 11 70 91 be 08 2c e7 3b
       -0.17421542 0.10078706 -0.28405812 0.0070548095
0000a0 03 3b a5 3d fb 38 cd bc b1 be 34 3d ae 09 36 3e
       0.08067896 -0.025051584 0.04412717 0.1777713
0000b0 92 7f 00 bd 4f 78 26 be b1 1f 5e bd 77 f0 1c 3b
       -0.03137166 -0.16256832 -0.054229442 0.002394704
0000c0 15 5e 41 be b0 84 08 be 15 87 54 3d 8e bf 04 be
       -0.18883546 -0.13331866 0.051886637 -0.12963697
0000d0 8e ee 30 be b2 c3 34 3e a4 5e 33 3d 6a b0 1c 3e
       -0.17278501 0.17652777 0.04379143 0.15301672
0000e0 3a b9 0a be ad a8 1a be 45 fd 3a 3e be 98 cc bc
       -0.13547221 -0.15103407 0.18260677 -0.024975177
0000f0 ce 4e 59 be 9b 91 74 be 27 bb a4 bd 07 ba 03 3e
       -0.21221468 -0.23883669 -0.08043509 0.12863933
000100 42 fa 2d 3e be 67 ab 3d 88 16 49 3d 66 a1 00 3e
       0.16989997 0.083693966 0.049093753 0.12561569
000110 c5 b6 b2 bd 5f 5d 15 be 77 53 16 be 17 43 ef bc
       -0.08726267 -0.145864 -0.14680277 -0.029206796
000120 03 53 07 be ef a9 72 3e 6c 3f c5 bd eb bd 83 be
       -0.1321526 0.23697637 -0.096312374 -0.25730833
000130 8e 09 0c be d6 99 c6 3d 18 2b 73 be bf 3f 8b bd
       -0.1367552 0.096973106 -0.23746908 -0.06799268
000140 51 aa 6b 3e e9 72 00 be ec 31 a4 3d 3a cc 27 3e
       0.2301419 -0.12543835 0.08017334 0.163865
000150 0b 2b 64 bd c9 3b 1d 3d 69 85 31 bd 29 f1 e7 bc
       -0.05570511 0.038387094 -0.04334012 -0.028313236
000160 15 7d 3e 3d 2a e6 1a 3e f2 2e 2f be 77 fb 70 3e
       0.046506006 0.15126863 -0.17107752 0.23533426
000170 31 52 80 be ba 22 20 bd f1 d4 0c be 41 ec f9 bc
       -0.25062707 -0.039095618 -0.13753106 -0.030508162
000180 32 56 aa 3d 3c 44 68 3d c9 2a 0a 3e 69 d4 36 be
       0.08317222 0.0567057 0.13492884 -0.17854466
000190 65 3f ca 3c de 37 8e be db 51 68 3e eb 42 2f bd
       0.024688432 -0.27776998 0.22687475 -0.042788427
0001a0 1f ec 6e be 61 a8 8b 3d 41 98 51 be 83 d0 8a 3d
       -0.2333226 0.06819225 -0.20468237 0.06778052
0001b0 d5 3d 38 be 07 1b 15 3e c9 c4 9f 3d 4d c9 f3 bd
       -0.17992337 0.14561091 0.07801206 -0.119036295
0001c0 63 25 59 be 99 3a 93 be c0 6b 57 3e c5 f4 45 bd
       -0.21205668 -0.28755644 0.21037197 -0.048329134
0001d0 82 c3 64 3e 5d 4c a2 bd c6 1a ad bd d1 00 b3 3d
       0.22340205 -0.079247214 -0.08452372 0.0874039
0001e0 52 d8 42 be d8 1f 00 3d c9 83 0a 3e d8 68 0e be
       -0.19027832 0.03128037 0.13526835 -0.13907182
0001f0 b2 ff 26 3e 0c 90 84 bc 86 62 08 be a2 15 39 be
       0.16308478 -0.016181968 -0.13318834 -0.18074659

policy_network.3.weight f4 [256, 128]
000000 68 93 d2 bc 38 f7 64 bd 73 c2 4b 3c 7f 54 b0 bd
       -0.025705054 -0.05589983 0.012436497 -0.08609866
000010 23 2d e4 bd 09 20 94 3d 5f 3a c0 bd f7 53 91 3d
       -0.11141422 0.07232673 -0.093861334 0.07096093
000020 73 f5 ba bc c7 b7 f9 bc cd 46 b9 bd 71 5b a1 bd
       -0.022822117 -0.03048314 -0.09046707 -0.07878769
000030 8d 88 bf 3a b0 94 80 bd d7 92 35 3d 59 c0 95 3d
       0.0014612839 -0.0627836 0.04432949 0.07312078
000040 51 3a 4b 3d de 06 aa bd 65 42 81 3d ed f1 dc 3c
       0.04961616 -0.08302091 0.06311492 0.026970828
000050 3d 39 0c 3d 1e a5 a5 bd 6c 0c 8c 3d e9 57 b1 3d
       0.034234274 -0.08088134 0.06838307 0.08659346
000060 48 4b f0 3c b7 ba 03 bd cc 0f 8b 3d 02 16 3d bd
       0.029332772 -0.032160487 0.067901224 -0.046163566
000070 79 5d 9e bc 61 27 7a bd 92 54 cd bc e9 00 87 bb
       -0.01933168 -0.06107271 -0.02506474 -0.0041199815
000080 9d 94 85 3c 10 fb 65 3d 7f 9e 6e 3d 5b b9 a4 bd
       0.016306216 0.056147635 0.058256622 -0.08043166
000090 bd 90 13 b9 49 fd 4d bb 01 85 9f 3d e5 17 81 bd
       -0.00014072932 -0.0031431487 0.0778904 -0.06303386
0000a0 c4 dd 09 bd 22 d4 59 3d fd 9e 0b bd ab a7 a5 bd
       -0.033658758 0.05318082 -0.03408717 -0.08088621
0000b0 54 52 ba bc e4 c2 64 3d 7a 60 ac bc 8b d8 18 bd
       -0.022744335 0.055849925 -0.021042097 -0.037315886
0000c0 94 1d 8e bd 1a 20 ba 3c ec ca ae bd f4 c7 75 3c
       -0.06939235 0.022720385 -0.08534798 0.015001286
0000d0 1a a8 68 bd 52 1f 6a 3d ef f6 8b 3c a4 bf 6d bc
       -0.05680094 0.057158776 0.01708552 -0.014511023
0000e0 7e 86 c1 bd 5a c1 8f bd c4 b1 34 bd 2d 68 7f bd
       -0.094494805 -0.07019301 -0.044114843 -0.06235521
0000f0 1a 10 5e bd 8e 60 0b 3c f9 ed b4 bc 0d 64 02 3c
       -0.054214574 0.008506907 -0.02208613 0.007958424
000100 97 02 34 3d ec 30 8f bb 4b 52 3d 3d 83 f5 0c 3d
       0.043947782 -0.0043698456 0.04622106 0.034413826
000110 ae cb a5 bd 7d 0b 83 bb 08 fe 52 3d ad a4 59 bd
       -0.080954894 -0.0039991722 0.051511794 -0.053135563
000120 38 e0 e3 bb 0c b5 34 3c 95 bc a6 bd 48 27 96 3c
       -0.006954219 0.011029493 -0.08141438 0.018329278
000130 4f fc 05 bd 7d ff 9d bc ee 9c 06 3d 16 e1 30 3d
       -0.032711323 -0.019286865 0.032864504 0.04318341
000140 57 05 52 bd f7 9b c0 bd 09 de b4 3c 13 99 1a bd
       -0.051274624 -0.09404748 0.02207853 -0.03774364
000150 d2 e4 0e 3d e5 d9 a7 3d f3 b8 82 3d 06 54 f6 bc
       0.03488619 0.08195857 0.063829325 -0.030069362
000160 16 6a 14 3c 93 7a fd bc 80 ae 24 bc c7 d5 99 bd
       0.009058496 -0.030942237 -0.01005137 -0.07511478
000170 d6 40 aa bd a0 66 b1 bd 0c c4 ab bd 3c 3b 96 3c
       -0.08313148 -0.08662152 -0.08387002 0.018338792
000180 c8 11 05 3c 05 7c d0 3c 54 c6 80 bd a9 45 a3 3c
       0.008121915 0.025449762 -0.06287828 0.019930677
000190 47 d7 b1 bd bc 3a ae 3c a7 61 66 bd b3 3a 43 3d
       -0.08683639 0.021268241 -0.056245472 0.0476634
0001a0 ea 4d 76 bc a2 55 98 3d 6f d8 58 3c d2 37 41 3d
       -0.015033225 0.07438208 0.013235196 0.047172375
0001b0 02 31 b0 3d 15 13 7c 3d e6 2a 35 3b ac ed a2 3d
       0.086030975 0.061541636 0.0027643978 0.079554886
0001c0 81 3d 0c 3c 3b 48 7d bc 5e 4f 07 3c b1 27 26 bd
       0.008559586 -0.015459116 0.008258669 -0.040565196
0001d0 92 ed 1f bc e9 ed 97 bb eb 67 64 bd c1 3e 1b 3c
       -0.009761231 -0.0046365154 -0.055763166 0.009475411
0001e0 18 4a 41 bc 55 18 47 bd 8e c5 95 bd b0 b9 0c be
       -0.0117974505 -0.04860719 -0.07313071 -0.13742709
0001f0 02 29 d6 3c 87 22 7a bd d3 2a f4 bc 9d 44 39 bd
       0.0261426 -0.061068084 -0.029805576 -0.04523145
000200 54 8c 83 bd e7 69 30 3d 9f 55 29 3d ce a3 98 bd
       -0.0642325 0.043069746 0.04134142 -0.07453118
000210 e1 9a d6 3c ac c5 ed bc 39 12 1c 3d 08 f0 5f 3d
       0.026196899 -0.029024921 0.038103316 0.05467227
000220 3f 9d 45 3c cb f0 90 bd a0 2c 4d bd 22 95 9d bd
       0.012061416 -0.070771776 -0.050091386 -0.076944605
000230 f9 1a fa 3c 5a 53 81 3d 31 c0 ba 3d 92 11 1f bb
       0.03053044 0.06314726 0.09118689 -0.0024271947
000240 0c 01 51 bc f2 60 45 bd cd 14 01 3e 07 c6 d7 bb
       -0.012756597 -0.048188157 0.12605591 -0.006584886
000250 d9 76 c0 3b c1 e6 89 bd 71 b1 fd bc 64 e4 22 bd
       0.0058735427 -0.06733466 -0.0309684 -0.03976859
000260 d7 9f 21 3d fe bb 46 3c f1 c5 29 bd aa 29 5c bd
       0.039459076 0.012129782 -0.041448537 -0.05375067
000270 78 45 e2 3c cc d9 d9 bc 5d 97 83 bc e6 89 72 3d
       0.027621016 -0.026593111 -0.016063387 0.05921354
000280 e2 6b 1d 3d bd c6 89 3d c0 80 8c 3d 96 7a 9b bd
       0.038432963 0.067273594 0.068604946 -0.07591741
000290 18 99 33 bd e6 31 7c 3d 53 59 73 bd c7 48 1e bd
       -0.043847173 0.061571024 -0.059411358 -0.038643625
0002a0 f9 ae 7d 3d 51 91 3e bd 28 45 d4 39 73 01 1b bd
       0.061934445 -0.046525303 0.00040487316 -0.03784318
0002b0 0b 59 54 bd ce 55 d2 bc a0 38 a7 bd 7c e1 65 3d
       -0.05184273 -0.02567568 -0.08165097 0.05612324
0002c0 23 fb aa 3d 54 26 3d bd 41 18 f3 bd 83 08 8b bd
       0.08348682 -0.04617913 -0.118698604 -0.06788733
0002d0 83 ea c3 bc c4 ef 50 3c 49 c4 50 3c 73 ca 38 3d
       -0.023915535 0.012752477 0.0127421105 0.045114946
0002e0 50 ef 80 bb 64 0d 0b bc df fd d2 3c da 76 94 bd
       -0.0039347783 -0.008487079 0.02575582 -0.07249232
0002f0 b4 c4 85 3d 10 de 03 bc 74 5f 9d bd 4d 8e 04 3d
       0.06531659 -0.008048549 -0.07684222 0.03236227
000300 8c 07 4d bd d9 a8 99 3c 8c 59 ea 3c 15 3f b5 bd
       -0.050056025 0.01875727 0.028607152 -0.088499226
000310 ab e9 96 bb b7 86 8f 3d 4d 24 ac 3d bc 3e 82 3d
       -0.004605492 0.07008117 0.08405361 0.06359622
000320 ca fe 4c 3d b3 c4 65 3d 6b 23 90 bc 11 f5 99 bd
       0.050047673 0.05609579 -0.017595014 -0.07517446
000330 d0 df d4 3d cb de 22 3d 3f 8f 91 3b ef d1 5b 3d
       0.10394251 0.039763253 0.004442125 0.053667005
000340 cc f1 48 3d ff d2 3d 3d 0b ad 1e 3d e5 d5 75 3d
       0.04905872 0.0463438 0.038739245 0.06001844
000350 c8 50 b1 bd 60 77 7d bd 00 02 41 bc 41 da 84 bd
       -0.08657986 -0.061881423 -0.011780262 -0.06486941
000360 84 0a 23 3d bc 07 92 3d 74 80 00 3d 56 9b e8 3b
       0.03980495 0.071303815 0.031372502 0.0070985956
000370 25 10 04 bd 98 ea 29 3d 7a fa a5 bd 4d f7 56 bd
       -0.03224196 0.04148349 -0.08104415 -0.05248194
000380 ed e7 2f 3d 2b 6e 81 bd 9e d6 06 3d 45 c5 b6 bd
       0.04294579 -0.06319841 0.03291952 -0.08924345
000390 68 56 96 ba 70 3d b6 bd a8 8c 9b bd 4d 24 a5 3d
       -0.0011469843 -0.08898437 -0.075951874 0.080635644
0003a0 25 02 af bd 3a 62 56 3d b5 49 95 3d 5d 21 64 ba
       -0.08545331 0.05233977 0.07289449 -0.0008702481
0003b0 9b 32 d8 3d 30 ce 27 3d c0 fd 8f 3d 94 f4 86 3d
       0.10556527 0.04096812 0.07030821 0.06589618
0003c0 a3 ad a6 bd 51 46 8c 3c 53 68 94 bc f0 a0 c1 3c
       -0.08138587 0.017123373 -0.018116152 0.023636311
0003d0 99 7f 31 3d c8 1d b2 bd 82 e2 17 3d 87 27 46 bd
       0.043334577 -0.086970866 0.03708125 -0.04837754
0003e0 72 a1 5c 3d 6c 97 86 3d a2 04 95 bd 58 55 17 be
       0.053864904 0.0657185 -0.07276274 -0.1477865
0003f0 30 68 48 bc 15 c5 1c 3c 16 d7 a2 3d bf e1 7c bd
       -0.0122318715 0.009568472 0.07951181 -0.061738726

policy_network.3.bias f4 [256]
000000 07 97 a6 bc 7e e9 17 3d fb 28 5b 3d f9 90 b5 bd
       -0.020335687 0.03708791 0.05350588 -0.08865542
000010 ec 64 69 ba 30 71 cb bd 96 ea c3 bd f5 aa 58 3d
       -0.0008903283 -0.09933698 -0.09566228 0.052897412
000020 dd 79 0c 3d 14 8b 8a bd 8c 8a 66 3d e4 eb 71 bc
       0.034295905 -0.06764808 0.056284472 -0.014765713
000030 09 ae 08 3c 90 3b 08 3d e4 2a 55 3d 0a 97 75 3c
       0.008342274 0.03325993 0.052042857 0.014989624
000040 a6 d4 72 3d 68 8f 77 bd 4a 59 a6 bc b9 08 18 3d
       0.05928483 -0.060439497 -0.020306248 0.037117694
000050 8f 31 29 ba 30 bd 93 bc e7 20 b5 bc 9b 3b 2a bc
       -0.0006454223 -0.018034548 -0.022110416 -0.010390188
000060 36 97 2c bd bb 16 97 bd 27 ba 0f bd 04 6c 2f bd
       -0.042136393 -0.07377382 -0.035089638 -0.04282762
000070 57 de 81 bd 3a 9f 3d 3c 71 9f 07 3d cd 4a 8f 3d
       -0.06341236 0.011573607 0.03311104 0.06996689
000080 4e 94 85 bd bf b1 bc bd 31 92 06 bc 23 74 3a 3c
       -0.065224275 -0.0921359 -0.008213566 0.011380228
000090 26 ea 15 3d 54 77 5f bc cc 71 28 3d d0 57 15 bd
       0.036600254 -0.01363929 0.04112415 -0.036460698
0000a0 ef a2 3e bc a3 80 51 3d 6d 6f a5 bd 00 9f a6 3c
       -0.011635526 0.05114807 -0.080778934 0.020339489
0000b0 0a 92 33 bd 1f 0c 8d bd 64 98 26 bd 34 d2 ce bb
       -0.043840446 -0.068870775 -0.040672675 -0.0063116793
0000c0 cc 48 ba 3c c3 c8 5e bd 30 6b 83 3c a5 6c 37 bc
       0.02273979 -0.05439068 0.016042322 -0.0111953365
0000d0 3b be 2d 3d 31 f2 44 3d e3 d6 3e 3d f7 f8 93 bd
       0.042417746 0.048082534 0.04659165 -0.07225221
0000e0 3c b9 9f bd 4c e8 00 3d ae 9b b3 bd b6 c3 21 bd
       -0.077990025 0.031471536 -0.08769928 -0.039493285
0000f0 9e f4 1f 3c 45 94 61 3c 73 63 c1 bd e7 4b 46 3d
       0.009762911 0.01376826 -0.094427966 0.04841223
000100 84 22 94 bd 6a ff 17 bb f7 ad 07 bd 49 74 b3 bd
       -0.07233146 -0.002319301 -0.03312489 -0.08762414
000110 35 fe 14 3d 5e 06 02 3d 95 0b bf 3c 67 d7 1c bd
       0.036375243 0.031744353 0.023320952 -0.03829136
000120 34 03 83 3d 03 1b 48 3d 49 25 66 3d 4a 71 83 bd
       0.06397095 0.048853885 0.0561879 -0.064180925
000130 42 b6 c0 bc 59 bd 97 bc 3a 35 a8 3c b8 b4 63 3d
       -0.023524407 -0.018522905 0.020533193 0.05559227
000140 7c d2 9a 3c dc 82 9c 3c 7b 78 19 3d dc 28 2a 3c
       0.018899195 0.019105367 0.037468415 0.010385718
000150 39 0b 8a 3c f5 4a a9 bc f8 04 83 bd f6 1f db bd
       0.016851055 -0.020665625 -0.06397432 -0.106994554
000160 a5 ba 4c bd 48 45 b8 3c 9d 3b 76 bd ee 0a 86 bd
       -0.049982686 0.022493973 -0.060115445 -0.065450534
000170 3b e8 62 bd 3d 02 21 3d 77 5f 29 3c a7 f2 1b bd
       -0.055397253 0.039308775 0.010337702 -0.03807321
000180 72 4c ae 3b 3c fe 9d bc 69 3e 8d bc f4 be 18 bd
       0.0053191716 -0.019286267 -0.017241674 -0.037291482
000190 bc 85 60 bd eb 22 94 3b 8e 18 42 bd 04 04 80 3d
       -0.05481504 0.004520764 -0.0473867 0.06250766
0001a0 6e 16 18 3b 82 84 8e 3d 86 52 91 bd 7a da 83 3d
       0.0023206729 0.069588676 -0.07095818 0.064381555
0001b0 bf 67 01 bc e8 d2 83 3d 34 e8 bb 3c 43 ff 28 3d
       -0.00789827 0.064367115 0.022937872 0.04125906
0001c0 28 d3 62 3d 04 b3 a4 bd 91 88 cb bd 33 e2 a1 3d
       0.055377156 -0.08041957 -0.09938157 0.07904472
0001d0 be 38 47 3c c3 08 f7 3c 9d 7a 5b 3d 9d 2e ce bd
       0.0121595245 0.030155545 0.05358373 -0.100674845
0001e0 48 d8 08 bc 49 5a 37 3d 06 21 d8 3b f8 f1 c8 bd
       -0.008352347 0.044763837 0.0065957336 -0.09811777
0001f0 cd 08 16 3d a8 ff 63 bc 09 9e ad bb 35 5a 8a bd
       0.036629487 -0.013915934 -0.0052983803 -0.06755487
000200 f0 82 a5 3c 6e c3 8f bd 89 a5 0b bd a0 d6 db bc
       0.020204037 -0.07019697 -0.034093414 -0.02683574
000210 9a e3 65 bd 96 62 65 bd cf 70 1a 3d 9a 54 30 bd
       -0.05612526 -0.056002222 0.03770524 -0.043049432
000220 66 60 3a bd 47 f7 81 bd 57 41 5f 3d ab f4 97 bd
       -0.04550209 -0.063459925 0.054505672 -0.074197136
000230 c7 ce 6f 3d 3e eb 4c 3c 0f 7b 64 bd 4b e3 98 bc
       0.058546808 0.012507258 -0.05578142 -0.01866307
000240 09 ee 29 3c 4d 46 27 ba 9c 19 05 bd ce c7 5a bd
       0.010371693 -0.000638102 -0.032495126 -0.053413205
000250 2c 9e b5 bd 9e 49 8f bc 53 80 e8 3c 6c e6 bb bd
       -0.088680595 -0.017491158 0.028381502 -0.09174809
000260 a1 6d e4 3c ef 02 98 bd 1d bb 2c 3d 91 20 53 bb
       0.027884306 -0.074224345 0.042170633 -0.0032215456
000270 85 89 84 3d d7 d3 1d bd 5c 57 5c 3d 72 35 af 3c
       0.06471542 -0.038532104 0.05379425 0.02138779
000280 62 9c 6a 3d 56 01 9c 3c bb fc c3 ba e5 f8 84 bd
       0.057278045 0.019043606 -0.0014952639 -0.06492785
000290 2f f3 85 bd 77 c6 48 bd 7d e9 5a bd 27 42 1f bd
       -0.06540524 -0.049017396 -0.053445328 -0.038881447
0002a0 39 cd 71 bb 1a 6c f3 bc ee 77 bb 3c 9e 73 98 3c
       -0.0036896004 -0.029714633 0.022884335 0.018609818
0002b0 ef 08 97 3c 16 e0 2e 3d eb 33 93 bd 12 83 2a 3d
       0.018436877 0.042694174 -0.07187637 0.041628905
0002c0 cd 3e a9 3c d8 82 76 bd 36 5f ea 3c 04 39 b2 bd
       0.020659829 -0.060183376 0.028609853 -0.08702281
0002d0 00 33 7d 3b 22 9a 98 bd 40 4c 8c bc b8 09 ac bd
       0.0038635135 -0.074512735 -0.017126203 -0.08400291
0002e0 28 f8 81 3b 73 7f aa bd e7 6d 79 3d 59 17 c5 bd
       0.00396635 -0.0832509 0.060895827 -0.09623594
0002f0 b9 81 98 3c 92 85 54 3d 58 c1 be 3b 45 f3 a7 3c
       0.018616544 0.051885195 0.005821388 0.020501742
000300 f1 ce 08 3d e5 17 81 bd ae 43 6b bd da 35 65 3c
       0.03340048 -0.06303386 -0.05743759 0.01398989
000310 2d 1c 5c bc 92 41 2f bd e6 04 aa 39 4c bb 72 3d
       -0.013434452 -0.042787142 0.00032428576 0.05926065
000320 23 57 cc bd 97 71 82 bd 48 03 b3 bd 3e ef cb 3c
       -0.099775575 -0.06369322 -0.0874086 0.024894353
000330 85 a3 f6 bb ce 75 2f bc 42 7f b6 bd f6 3a b2 bc
       -0.0075268173 -0.010709239 -0.08910991 -0.02175663
000340 57 ad 4f bd 60 91 ae bd 09 73 8a bd fe b8 8a bd
       -0.05070242 -0.08523822 -0.067602225 -0.06773566
000350 e2 3b 78 3d 15 1c 6d 3d a6 a5 ad bc 5d c8 ce bd
       0.060603984 0.05788811 -0.021197151 -0.1009681
000360 9a ac 42 3c d0 d0 4c bd d6 1d 2d bd 91 d7 cc bd
       0.011881972 -0.050003827 -0.042264782 -0.100020535
000370 e7 a0 9b bd 38 f6 06 3d 06 fe 38 3d 56 1c 15 3d
       -0.07599049 0.032949656 0.04516413 0.036403976
000380 c3 5b 13 bd b6 e7 c6 bd 4d d8 41 3d 84 b7 5c 3d
       -0.035976183 -0.09712164 0.04732542 0.05388595
000390 b1 4d 39 3b 7d 54 b1 bc 62 e9 87 bd 9b ba 13 3d
       0.0028275067 -0.021646732 -0.06636311 0.036066633
0003a0 c4 68 2c 3d 1c 39 c7 bd 15 f0 a5 bc fd aa b0 bd
       0.0420921 -0.097276896 -0.020256082 -0.086263634
0003b0 80 30 0f ba d4 b3 9f bc e8 af 35 3c 91 6c 28 bd
       -0.0005462244 -0.019494928 0.011089303 -0.041119162
0003c0 b7 91 0e bd d5 97 4a 3c fd 91 5d 3d 4b da 29 3d
       -0.034806933 0.012365301 0.054094303 0.041467946
0003d0 17 0f ad bc e9 54 a6 bd 3f fb 9d 3d 9f dd f1 bb
       -0.02112536 -0.08121664 0.07713937 -0.0073811556
0003e0 f3 46 e5 3c a3 50 58 3d f7 12 e3 bc c1 5c 7a bc
       0.027987933 0.052811276 -0.027719004 -0.015280903
0003f0 c7 0c 55 3d 6c 94 88 bd 0c 5d 9f 3b ad 73 b3 bc
       0.05201414 -0.06668934 0.004863387 -0.021905744

policy_network.6.weight f4 [128, 256]
000000 da d2 48 bb e3 6b 42 bd 26 97 8c 3d 44 60 62 3c
       -0.0030643255 -0.04746617 0.06864767 0.013816897
000010 13 1a 85 bd d5 30 09 bd 21 c2 94 3d b0 cd d7 bb
       -0.06499114 -0.033493835 0.0726359 -0.006585799
000020 0a d2 b4 bd 2b b4 94 3c 75 9b 95 3d c6 3a 4e 3d
       -0.08829124 0.018152317 0.07305042 0.05034902
000030 6e 32 b5 bd ae 4b 7e 3d d3 0c 93 3d 5f 0e 95 3d
       -0.08847509 0.062083893 0.071801804 0.07278132
000040 be 90 d0 3c 80 52 7f 3b 4b 91 2e 3d 4b bf 0b 3d
       0.025459643 0.0038959086 0.04261903 0.034117978
000050 22 f7 4e bd 94 84 dd 3b ea 2e b4 bd 81 c3 1a bd
       -0.050528653 0.0067601893 -0.08798011 -0.037784103
000060 7b 7c 82 3b e0 ce c0 bb b6 02 f0 bd ec 8a 7d 3d
       0.0039821244 -0.0058840364 -0.11719267 0.061900064
000070 c1 e6 ff bc d6 85 4a 3d 1b 2b 22 bd 76 10 a0 bd
       -0.031237962 0.049444042 -0.03959189 -0.0781564
000080 11 83 83 3b 97 e2 86 3d 36 c2 04 39 ea 6b 22 3c
       0.004013427 0.06586187 0.0001266085 0.009913424
000090 68 f9 70 bd 1a 64 86 bd ad 42 b7 bb 19 9d 4f bd
       -0.058831602 -0.065620616 -0.005592665 -0.05068693
0000a0 4f d9 45 bd da 84 1c bd a8 8a 08 3d 6f 77 03 bc
       -0.048302945 -0.038212635 0.033335358 -0.008024081
0000b0 c8 4a 37 bc b2 22 14 3d 40 71 b7 3b 00 63 71 3d
       -0.011187263 0.0361659 0.0055982172 0.058932304
0000c0 d8 f1 8c 3d 83 ee e0 bc b6 41 8e 3c cf 82 e9 3d
       0.068820655 -0.027457481 0.017365318 0.11401903
0000d0 b0 4f 80 bc 16 b3 5a bc 56 ed 4b 3c a9 c9 b9 bb
       -0.015662998 -0.0133483615 0.012446722 -0.0056697917
0000e0 d8 71 03 bc a6 89 8b 3d 4c 51 9b bc 90 38 e3 bc
       -0.008022748 0.06813364 -0.018959664 -0.027736932
0000f0 f9 59 ed bc 70 b7 18 3d 69 3b 9b bc b4 52 9b bc
       -0.028973566 0.037284315 -0.018949227 -0.018960334
000100 fb 94 d5 3c 33 19 b6 bb 61 2e 19 3d 02 75 be 3d
       0.026072016 -0.005557203 0.037397746 0.09299661
000110 88 75 c3 3d 49 98 7d 3d 04 e4 21 3d 29 4e da bb
       0.09543902 0.06191281 0.039524093 -0.0066621494
000120 9a ea 0a 3b 30 a3 39 bd 76 b3 fa 3b c1 3a 7d bd
       0.0021196962 -0.045321643 0.007650788 -0.06182361
000130 be d2 82 bc 9b 9e 7c bd ea 86 05 3c 76 47 9a bc
       -0.01596963 -0.061674695 0.008149842 -0.018832903
000140 6e bb eb 3b 5d 21 19 bc 70 ca 05 3d 4c 13 7c bc
       0.007193974 -0.009346333 0.032663763 -0.01538546
000150 fb ad 8f 3d eb e0 22 3c 0d 39 ce bb d8 74 87 3d
       0.07015606 0.00994132 -0.006293422 0.06614083
000160 eb f4 92 3d 41 d9 79 bd 7a 1f 30 bd 1e 3e 54 bd
       0.07175621 -0.060998205 -0.04299877 -0.051817052
000170 73 5c 28 bd 76 47 58 bd a0 e2 4c bc 82 94 1f 3d
       -0.04110379 -0.052802525 -0.0125052035 0.038959987
000180 c6 70 12 bd e8 52 dc bc e3 05 86 3d 1c 2b c1 3d
       -0.03575208 -0.026895002 0.065440916 0.094320506
000190 6e e5 57 bd ce ac 0d bd 28 ee 3f 3d 2c ca 4c 3c
       -0.052709036 -0.034588628 0.046857983 0.012499373
0001a0 78 9b aa 3d 4b 08 f6 bc fb 03 f0 3c c8 a3 9b bb
       0.083304346 -0.030033251 0.029298773 -0.004749749
0001b0 18 82 44 bc d7 be 4b bc e3 64 96 bc 98 0a ed 3c
       -0.011993907 -0.0124356365 -0.018358653 0.028935716
0001c0 ba 06 86 3d 78 c3 d3 3c 82 2d b4 bc 66 2b 0f 3d
       0.06544252 0.025850043 -0.021994356 0.034953497
0001d0 cc 58 aa 3d 1f e9 c4 bc eb 48 2f 3d 47 4d 9b bb
       0.08317718 -0.024036942 0.04279415 -0.004739437
0001e0 10 e0 23 bb c0 62 2c bd 7c be 96 bd 18 2b 90 3c
       -0.0025005378 -0.042086363 -0.07360551 0.017598674
0001f0 26 7e 1e 3c 91 8c 42 3c fc c3 28 3c ce eb 9f 3c
       0.009673631 0.011874334 0.010300633 0.01952162
000200 1c 57 ef 3c 5c dc ad bd 11 a0 b1 bc 3f 15 1c 3d
       0.029216342 -0.08489296 -0.02168277 0.0381062
000210 b6 1f 12 3c e5 a6 45 3d 6d 1c 56 3d b6 03 5d 3b
       0.008918693 0.048254866 0.052273203 0.0033724136
000220 04 d4 d9 3d ec bf be 3d c5 eb af bb 72 6a 79 bd
       0.10636142 0.0931395 -0.005368682 -0.06089253
000230 44 7f 9f bb 23 52 c8 3c 68 e6 fa ba 38 d9 78 3d
       -0.004867466 0.024453228 -0.0019142153 0.06075403
000240 c1 42 aa 3b 4b 14 ab bc 9c a5 3a bd a7 72 18 3d
       0.005195946 -0.0208837 -0.045568094 0.037218716
000250 9b 40 7d 3c 10 34 bb 3c 2b 65 55 3b b0 d1 77 bc
       0.015457298 0.022851974 0.0032561522 -0.015125677
000260 ab 98 69 bd 7e 6c 27 bd f3 04 48 3d c4 d4 04 3d
       -0.05703036 -0.04087495 0.048832845 0.03242947
000270 7b b7 9b bd 20 f3 92 3c f3 cd c5 3b a0 4d 11 bd
       -0.076033555 0.017938197 0.006036514 -0.03547442
000280 64 56 77 3b f8 0f 8d bc e7 63 e4 bb 6e 24 0c 3d
       0.0037740702 -0.017219529 -0.006969917 0.03421443
000290 9b 56 00 bd 88 d7 16 bd 24 ca 34 bd 88 58 97 3d
       -0.031332593 -0.03682664 -0.04413809 0.07389933
0002a0 2d 25 03 3d fa 1a 83 bd 22 83 37 3c c6 b3 06 bc
       0.032017875 -0.0640163 0.011200698 -0.008221572
0002b0 e5 c1 d2 bc c4 33 04 bd 35 2b 24 3d e6 78 8c 3d
       -0.025727222 -0.03227593 0.040080268 0.06858997
0002c0 49 8d 43 3c ae b0 65 bd 10 ca 2f 3d 9a e7 a3 bc
       0.0119355405 -0.056076698 0.04291731 -0.020007897
0002d0 71 24 c9 3b 1d 3f 53 bd 7d bf 06 bd 75 71 2a bd
       0.0061383774 -0.05157386 -0.03289746 -0.041612107
0002e0 e7 0f 4f bc 60 fd b2 bb 56 59 0b 3e a0 cb 98 bc
       -0.012638069 -0.0054623336 0.13608298 -0.018651783
0002f0 bc ef 29 3d 04 aa 87 bd 30 c7 ea 3b 47 78 67 bd
       0.041488394 -0.06624225 0.0071648583 -0.05651119
000300 30 48 33 3e df 4d 3c 3d d5 14 06 3d 23 df 9f bb
       0.17508006 0.0459727 0.03273471 -0.004878895
000310 c7 d8 92 3c 02 a7 2e bd b4 77 16 bd 5b 78 3c 3c
       0.017925633 -0.04263974 -0.03673525 0.011503304
000320 a6 e5 b9 3d 1b 8a af 3d e8 75 5f 3c e7 69 7c bd
       0.09077005 0.085712634 0.013638951 -0.061624434
000330 76 04 12 3d 7c 0e 88 bc a0 12 b8 3b 28 04 a0 3c
       0.035648786 -0.01660847 0.0056174546 0.019533232
000340 39 8f 2f 3d 18 c1 ec bc 1f 9a b3 bc 28 10 b1 bd
       0.042861197 -0.028900668 -0.021924077 -0.0864566
000350 f9 f3 73 3d e8 f4 2d bd cd a9 11 3d 35 0f 81 3d
       0.059558842 -0.04246989 0.035562325 0.06301729
000360 cb ba c9 3c f3 8b a0 bc c3 00 83 bd 20 5a 24 3c
       0.024625203 -0.019597983 -0.0639663 0.010031253
000370 12 f2 3c 3d 8e 8e 4a 3d 4e 1b 98 bc af ea 95 bc
       0.046129294 0.049452357 -0.018567707 -0.018300382
000380 58 0a 5b bb c9 66 80 bd 5f 54 11 bd c1 cc 82 bc
       -0.0033422913 -0.06269605 -0.035480853 -0.015966775
000390 3e 45 5b 3d 5d 47 ca bd 66 83 1e bd 84 86 30 3d
       0.05353283 -0.09876893 -0.03869953 0.043097034
0003a0 52 bf 08 3d c0 ce 4e 3d 4c d6 d0 3a 22 51 8f bc
       0.033385582 0.05049014 0.0015933006 -0.017494742
0003b0 dd 0b 95 3c 18 27 d6 3c 93 01 d1 3c 7a 1f 1b bd
       0.018194133 0.026141688 0.025513446 -0.037871815
0003c0 f1 20 7c 3c 50 4f 8f bd 7d 21 c0 3d 13 0d ad 3c
       0.015388713 -0.069975495 0.093813874 0.021124398
0003d0 cb a2 60 3d 36 c4 27 3d 2d 87 c4 bc 61 0f 8e 3c
       0.05484275 0.040958606 -0.023990238 0.017341318
0003e0 5a 8f 38 bc 8d 0e 7f bd c1 5a 0f 3d 84 7d d0 bb
       -0.011264646 -0.062269736 0.03499866 -0.006362619
0003f0 b6 bd 22 3c 43 08 20 3d 18 eb 76 3c 6d 40 39 3d
       0.009932926 0.03907038 0.015070699 0.045227457

policy_network.6.bias f4 [128]
000000 0c fe 4a bd 9c 4d 9b bd c3 6c 53 bc 9c 15 ab bc
       -0.049558684 -0.07583162 -0.012904349 -0.020884328
000010 6e b3 8e 3d 91 cf 95 bd bf 2a 51 bd 13 58 61 3c
       0.06967817 -0.07314981 -0.051066156 0.013753909
000020 87 d0 a7 3a a0 5e 28 3c e6 be a8 3c f0 fe 87 3d
       0.0012803235 0.010276467 0.02059884 0.06640422
000030 16 1a 59 bd 4b 84 cd bc 27 b0 46 3b a3 5f 40 bd
       -0.053003393 -0.025087496 0.0030317397 -0.046966206
000040 db 48 24 3c 05 09 7b bd e3 94 10 bd c4 37 8b bd
       0.010027136 -0.0612879 -0.03529824 -0.06797746
000050 93 d5 1f bd ac 5e 28 bd b2 04 69 bd 1a c3 bd bc
       -0.03902204 -0.04110591 -0.056889243 -0.02316432
000060 f2 d6 e7 3c 8b 61 b8 3c 3f bf 43 bd bd b6 86 3c
       0.028300736 0.02250745 -0.04778981 0.016444558
000070 92 b7 1e bd 45 37 2e 3b 2d db ad 3c 95 ef 80 bd
       -0.038749285 0.0026583236 0.021222675 -0.06295697
000080 b4 b9 33 bd 26 26 50 3d 3d 0c 79 bd 95 20 77 3c
       -0.043878272 0.05081763 -0.060802687 0.015083452
000090 65 63 5f bd 83 c6 5b 3d 39 8f 90 3c bf b5 5f bd
       -0.05453815 0.053656112 0.017646419 -0.054616686
0000a0 02 9d cf ba fa a1 3f bc 62 f2 ac bd c2 0d d8 bb
       -0.0015839639 -0.011696333 -0.08444668 -0.006593437
0000b0 42 49 93 bc 9d 73 21 bd 33 4c 59 bd 94 3f d4 bb
       -0.017979268 -0.039416898 -0.053051185 -0.0064773057
0000c0 ba 46 2b bd df 63 08 bd 86 f2 80 bd 28 66 3e bb
       -0.041815497 -0.03329837 -0.06296258 -0.002905259
0000d0 58 8a 0c bb 03 94 6d bd 3a 51 3e bb 25 2d 9e 3d
       -0.0021444764 -0.058002483 -0.0029040114 0.077234544
0000e0 09 cc c6 3b 04 6b 1e 3c 72 70 d0 bb 62 df b6 ba
       0.0060668034 0.009669069 -0.006361061 -0.0013952071
0000f0 8b 20 e6 bc 70 6b a8 3c f2 99 8a bd df 61 88 bd
       -0.02809169 0.020559043 -0.06767644 -0.066592924
000100 2c 1f 4c bd 39 21 8a 3d c5 ca 27 bd 22 93 7a bd
       -0.049834415 0.06744618 -0.04096486 -0.061175473
000110 a1 9f 4b bd ea 54 52 bd b5 3c 1d bd 6a 63 c5 bb
       -0.04971278 -0.05135051 -0.038387973 -0.006023814
000120 4e a5 05 3c 70 79 99 3d 0c bf a6 bc df 5a 8d bd
       0.0081570875 0.074938655 -0.02035477 -0.06902098
000130 cc 3b c9 3a 05 a4 7e bd 1a db 8a 3d 69 dc 9b 3c
       0.0015352904 -0.06216814 0.067800716 0.019025998
000140 31 0e d1 bc 62 9c cc bc 3a 81 00 3c 44 44 74 bd
       -0.025519462 -0.024976913 0.00784331 -0.059635416
000150 d2 8b 91 bc cd a4 3f bd 8f be be bc 1e df cd 3c
       -0.017766867 -0.046788026 -0.023284225 0.025130805
000160 06 7c f6 bc cf d6 03 bd 5c b9 b2 3c b1 41 40 bc
       -0.030088436 -0.03218728 0.021816902 -0.011734412
000170 d3 ce ca 3b b1 f6 9f 3c 45 12 f8 3b 47 af cf bc
       0.006189206 0.019526811 0.0075705373 -0.025352133
000180 13 80 2f bd 25 f2 3c bd 25 a7 b4 bc 69 f7 22 bd
       -0.04284675 -0.046129365 -0.022052357 -0.03978673
000190 67 ac 07 bd c5 ae 81 bd 4b 92 3f 3d 59 7a 93 3d
       -0.0331234 -0.06332163 0.046770375 0.0720107
0001a0 c3 a8 93 bd 73 d5 b4 3c 57 07 42 3d cf 14 11 3d
       -0.07209923 0.022074437 0.04737028 0.035420235
0001b0 f9 9f ec ba 3f d3 9c bc 93 0d 88 bd 27 27 96 bd
       -0.0018053047 -0.019143699 -0.06643214 -0.073316865
0001c0 7e 60 d2 bc d7 10 27 3b bf 07 00 3a 74 b2 2d bd
       -0.025680777 0.0025492215 0.0004883967 -0.042406514
0001d0 8f 49 e7 bc 4f c5 91 bc 6d 52 cb 3c 44 72 89 bd
       -0.028233318 -0.01779428 0.024819577 -0.067112476
0001e0 26 bf 05 3d fb bd 01 3b ea 6f 05 bd 75 a3 0b 3d
       0.032652996 0.0019797075 -0.032577433 0.03409143
0001f0 eb 22 b1 bc 5d fa a1 3a c5 d9 b5 3c d8 6d 99 3c
       -0.021623095 0.0012357939 0.022198567 0.018729135

policy_network.9.weight f4 [7, 128]
000000 92 05 1d 3d 66 5c 03 bd 17 f4 8a 3d 6e e5 9a 3d
       0.03833539 -0.03207054 0.06784838 0.075632915
000010 f1 bf ae 3b 48 5c 96 bd 6c e4 86 3c 8f 85 a9 bd
       0.00533294 -0.0734182 0.016466342 -0.082774274
000020 9e e0 1d bd 6a ba 43 bd 15 4a d5 bc 0b 5a 1b bd
       -0.03854429 -0.0477852 -0.026036302 -0.03792767
000030 ed 46 01 3b 0b c6 97 bd e2 62 af bd 09 2f d8 3c
       0.0019726113 -0.074108206 -0.08563782 0.026389616
000040 88 2e 38 bc cb 89 86 3c c7 77 a2 bd 45 4d 63 3d
       -0.011241563 0.016423127 -0.07933002 0.05549361
000050 26 2e f6 bc 18 16 dc 3c 49 ef 9c bd f5 68 96 bd
       -0.030051302 0.026866004 -0.076628275 -0.07344238
000060 97 6d b1 3c ac 7e d0 3c 8e ce 99 bc 75 74 2c 3c
       0.021658702 0.025451027 -0.01877525 0.010525812
000070 7d 9d 9a bd 58 37 02 bd 76 ba c5 bc 45 1d b4 3d
       -0.0754957 -0.03179106 -0.024136763 0.08794645
000080 2b 42 9d bd a8 d2 3c bd 03 2a 61 bc c7 8c 55 bd
       -0.07678636 -0.046099335 -0.0137429265 -0.05213621
000090 1c 38 8a 3d af 1e 87 bd 73 9c 08 3d 9e 49 a2 bd
       0.06748983 -0.06597649 0.033352327 -0.079241976
0000a0 7f d8 56 3c 72 81 06 bd 6e 82 6d 3c f5 f3 84 3d
       0.01311314 -0.032838292 0.014496429 0.064918436
0000b0 be 6d 95 38 63 80 77 bd f1 84 54 bd c2 aa fe bb
       7.125315e-05 -0.060425173 -0.051884595 -0.0077718208
0000c0 28 14 d4 bb d7 b9 11 bd 68 fc 5a 3d ee 0a 53 bd
       -0.0064721294 -0.03557762 0.05346337 -0.051524095
0000d0 27 2c 8e 3d f8 af 95 bd e7 5c 03 3c 13 1f 1f 3d
       0.06942015 -0.07308954 0.008017755 0.038847994
0000e0 95 83 5f 3d ae c1 b1 3c f0 6b 2e 3c c8 be 90 3d
       0.054568846 0.021698799 0.0106458515 0.07067639
0000f0 b1 21 30 bd 1c 77 7d 3d 2c 30 89 bd af 21 64 3d
       -0.04300088 0.06188117 -0.06698641 0.055696186
000100 6b fb c6 3c 31 e6 8d bb 75 f4 04 3c 77 d3 33 3c
       0.024289807 -0.0043304195 0.008114924 0.01097571
000110 58 d4 40 3d 08 1b 0e 3d 4e 20 d8 3c b1 91 3e bd
       0.047077507 0.034693748 0.026382592 -0.04652566
000120 e4 4f 9e 3d 94 e8 33 bc e0 21 58 3c fe b0 49 3d
       0.07730082 -0.010980744 0.01319167 0.04924106
000130 f8 9a bf bc ca 37 73 3d e0 5b 82 bc 89 89 92 b9
       -0.023389325 0.059379376 -0.01591295 -0.00027949762
000140 5e f1 3a bc 68 97 61 39 08 2f c9 bb 81 14 28 3c
       -0.0114100855 0.00021514075 -0.0061396398 0.010258795
000150 c6 a2 a6 3c e1 97 b0 3c 47 ba 82 bd 98 e0 0e 3b
       0.020341288 0.021556797 -0.06383186 0.0021801349
000160 ae 57 da bc 05 25 01 3d e4 0d 85 bd 1f ab 3a bc
       -0.026653137 0.031529445 -0.0649679 -0.0113933375
000170 ed 8d a8 3d 60 c1 ac bc 90 5d 2c bd 94 fe 81 bd
       0.08230195 -0.021088302 -0.042081416 -0.06347385
000180 db df 1c bd bc bc 30 3d 2a 47 4c 3d d0 67 c9 bc
       -0.038299423 0.04314874 0.049872555 -0.024585634
000190 61 d0 48 bc 8b c4 88 3d 1b 36 2e bc 4d 16 a5 3b
       -0.012256713 0.066781126 -0.010633017 0.005038059
0001a0 05 b1 ac 3b 54 f2 bc bd 3d 60 9c 3d 22 7c 83 3d
       0.005270126 -0.09225908 0.076355435 0.06420161
0001b0 70 b8 4c bd f1 28 83 bd de 99 60 bd 40 c5 42 bd
       -0.04998058 -0.06404293 -0.05483424 -0.047551394
0001c0 47 53 87 3b 09 ef 84 bd 0f 69 4a 3b 94 83 79 bd
       0.0041298005 -0.06490905 0.0030885374 -0.0609165
0001d0 7a ae 90 bd 9b f9 93 bd 88 4b 81 3d db 78 46 3d
       -0.07064529 -0.07225343 0.063132346 0.0484551
0001e0 24 00 03 3d 7d 09 59 bd be 06 2e 3d fb a9 6e bc
       0.031982556 -0.052987564 0.0424869 -0.014566894
0001f0 fa 09 96 bb d4 a7 91 bd ed 39 8f 3b a5 f5 ca bc
       -0.004578826 -0.07112089 0.004370919 -0.024775336
000200 5b 87 45 bc 23 7b e3 39 07 0a 49 3d 74 15 a9 3c
       -0.012056197 0.00043388558 0.04908183 0.020640112
000210 ac a5 f2 3c 96 99 27 bd 0f c2 a0 3d 76 70 c8 bc
       0.029620014 -0.040917955 0.07849514 -0.024467688
000220 e6 70 9d 3d f0 ce fb 3c 2f fd 53 bd ea 56 dc 3c
       0.07687549 0.030738324 -0.051755127 0.026896913
000230 fb 26 20 bb 1a bc 88 bd 45 ff 84 3c c7 db f7 b9
       -0.0024437297 -0.066765025 0.016235003 -0.00047275258
000240 35 cf bc bc be 23 d2 bb 0a fa 4b bd 42 26 04 bd
       -0.023048023 -0.006412952 -0.049799003 -0.032263048
000250 6d 48 62 bc 45 4d 2d 3c 6a 0f 50 3a 07 49 55 3d
       -0.013811213 0.0105775045 0.0007936867 0.052071597
000260 8c 25 92 bc 79 dd ed bc 4e 70 00 bd c8 bd 18 bd
       -0.01784017 -0.02903627 -0.031357102 -0.037290365
000270 69 bb 9a bd 19 8c 67 3c 08 1f b6 bc 89 49 24 3d
       -0.07555277 0.014132523 -0.022231594 0.04010919
000280 77 ae 58 bc 57 3e 1d 3d 55 b7 83 bd 96 e6 42 bc
       -0.013225189 0.03838953 -0.06431452 -0.011895796
000290 5f e1 48 bd 71 40 27 bd 19 f9 64 bc f9 02 04 3d
       -0.049043056 -0.04083294 -0.013975405 0.032229397
0002a0 9a 77 0c 3c 82 d1 92 3d 16 c5 a5 3c 5c 0e ab 3d
       0.008573437 0.07168867 0.02023558 0.08352348
0002b0 09 07 a2 3c 5b f5 65 bd cb d7 b2 3d 07 e4 42 3c
       0.019778745 -0.056142192 0.087325655 0.011895186
0002c0 74 24 95 3c 1c 12 e2 3c 92 c0 cf 3c c3 b6 8a bd
       0.018205859 0.027596526 0.02536038 -0.0677314
0002d0 74 9d 74 3c 70 e0 8f 3d 32 62 d1 3c 47 45 5c bc
       0.014930118 0.0702523 0.025559518 -0.013444251
0002e0 d2 1d 6c 3d c4 cc db 3c 37 77 a4 ba 41 ef 5f bd
       0.057645626 0.026831038 -0.0012547736 -0.05467153
0002f0 93 f9 87 3c 5f 54 36 3d f4 cf 62 3d 35 9f 96 bc
       0.016598498 0.044514056 0.0553741 -0.018386463
000300 75 ef 87 bd e0 42 37 bb 90 b2 76 bb 0e 38 3e 3d
       -0.0663747 -0.0027963445 -0.0037643053 0.046440177
000310 ea c7 fd bc 68 aa 68 3d c7 4c 54 ba f1 36 43 bd
       -0.030979116 0.056803137 -0.0008098599 -0.047659818
000320 36 8f 42 bb f2 50 cb bb a1 04 67 bd fd 42 a3 b9
       -0.002968741 -0.006204718 -0.0564009 -0.00031139693
000330 6a 67 92 bc 44 ea 80 3d eb f9 ed bc e9 f0 a8 bb
       -0.017871577 0.062946826 -0.029049834 -0.005155672
000340 50 d3 2e bb a7 ed 60 bc 39 b4 00 bb a6 cb 85 bd
       -0.0026676245 -0.013728536 -0.001963867 -0.065329835
000350 ce b2 0c 3d ac ab 9c bd 8e cc 3a bd 8e 43 8a bc
       0.03435021 -0.07649931 -0.045605235 -0.016877916
000360 ef 91 c7 3c 4c 6a e3 3c 65 16 18 3d c8 d3 27 bb
       0.024361579 0.027760647 0.037130732 -0.002560841
000370 4b 26 d0 3c 1d aa f1 3c b8 65 bb bb d3 7d 76 bc
       0.025408885 0.029500062 -0.005718913 -0.015044647
000380 1e 53 49 3d e2 46 6c bd 96 97 03 bc 59 fc a3 bd
       0.049151532 -0.057684787 -0.008031746 -0.08007116
000390 18 fc f9 bb 5b cd 99 3d fb 73 4c 3b 69 7e 21 3c
       -0.007628929 0.075098716 0.003119706 0.009856799
0003a0 ea bd 67 bb 0e 7d c1 bc ee 70 73 bc d7 06 46 3d
       -0.0035361 -0.023619201 -0.0148584675 0.048346367
0003b0 46 4a 6f bd 07 bb 7a bc 5f 84 eb 3a 11 41 1b bc
       -0.058420442 -0.01530338 0.0017968527 -0.009475962
0003c0 49 96 0c bd 82 50 3b bd 74 4f 9f bd b7 28 93 3c
       -0.03432301 -0.045731075 -0.07778826 0.01796375
0003d0 dc 67 b7 bd 5a bd 91 3b bb 19 30 bd 08 9c 2a 3d
       -0.089553565 0.0044476213 -0.04299329 0.04165271
0003e0 7e 3b ca ba d5 9f e2 3a 92 3a 5b 3b 47 72 1f b9
       -0.0015429107 0.0017290065 0.0033451659 -0.00015205993
0003f0 76 a3 b2 bc 72 53 71 3c 74 9d 74 3c 2c 44 63 3d
       -0.02180646 0.014729368 0.014930118 0.055484936

policy_network.9.bias f4 [7]
000000 66 b9 0c 3c bf 0d d3 3b 6e 2b 85 3b 99 c4 2f bb
       0.008589124 0.0064408476 0.004064015 -0.0026820062
000010 7b cf 57 bb 53 3c 48 3b be db c5 3c
       -0.0032930064 0.0030553534 0.024152633

exp_avg f4 [128, 15]
000000 29 b7 ab b7 fc da 02 b7 26 e3 6a 37 cb 7c 76 b7
       -2.047008e-05 -7.79959e-06 1.4000374e-05 -1.4691798e-05
000010 b5 80 22 b7 f2 2f 15 37 af 74 67 36 9a d6 07 b4
       -9.685919e-06 8.892255e-06 3.4489601e-06 -1.2650926e-07
000020 bd 62 47 b5 0b 1b 81 35 4a 49 03 37 38 a8 29 b5
       -7.427696e-07 9.61912e-07 7.825272e-06 -6.3202197e-07
000030 d4 64 57 b4 42 5b 97 b4 e3 a1 99 35 88 df fd b7
       -2.0060116e-07 -2.819234e-07 1.1446504e-06 -3.026404e-05
000040 58 34 d1 b7 5d 8e 09 38 4c 3f e6 b7 4f fe c6 b7
       -2.4939116e-05 3.279593e-05 -2.7447612e-05 -2.3721861e-05
000050 a8 57 58 38 ec 31 23 36 14 7f c8 36 19 b2 c7 35
       5.158005e-05 2.431795e-06 5.9752583e-06 1.4878489e-06
000060 02 50 16 37 f5 b1 24 37 3d 9c d4 b5 22 80 51 34
       8.959325e-06 9.816596e-06 -1.5840702e-06 1.9511256e-07
000070 10 74 ae 33 40 35 a8 b4 93 f9 cc 35 e7 f7 23 35
       8.123618e-08 -3.1331183e-07 1.527182e-06 6.108298e-07
000080 05 e1 83 b5 2a b1 9a 35 d2 94 62 35 df d5 f9 b5
       -9.82575e-07 1.1525456e-06 8.440812e-07 -1.861419e-06
000090 18 9b 88 b4 cc 0f 04 b4 92 d1 df 32 96 7c d4 b4
       -2.544482e-07 -1.2299205e-07 2.6055918e-08 -3.9578725e-07
0000a0 3f a0 b9 b4 36 ba e5 32 04 67 49 31 b6 24 e9 b4
       -3.457553e-07 2.6743788e-08 2.9307907e-09 -4.3426343e-07
0000b0 28 82 a5 31 00 00 00 00 00 00 00 00 00 00 00 00
       4.816929e-09 0.0 0.0 0.0
0000c0 00 00 00 00 00 00 00 00 00 00 00 00 00 00 00 00
       0.0 0.0 0.0 0.0
0000d0 00 00 00 00 00 00 00 00 00 00 00 00 00 00 00 00
       0.0 0.0 0.0 0.0
0000e0 00 00 00 00 00 00 00 00 00 00 00 00 00 00 00 00
       0.0 0.0 0.0 0.0
0000f0 67 2e 84 37 c2 cf bc 35 df 91 2a b7 75 14 74 37
       1.5757234e-05 1.4067557e-06 -1.0166753e-05 1.4548296e-05
000100 c7 af a4 36 e8 8e 91 b7 c8 ea f4 b5 44 5d 29 b4
       4.908044e-06 -1.7351893e-05 -1.8247747e-06 -1.5773281e-07
000110 d3 23 02 36 81 39 ac b6 d3 e2 c6 b5 98 d4 55 b5
       1.9392362e-06 -5.132694e-06 -1.4818164e-06 -7.965805e-07
000120 bf 82 84 35 48 14 0d 35 94 78 4a 35 00 00 00 00
       9.872819e-07 5.2556106e-07 7.542633e-07 0.0
000130 00 00 00 00 00 00 00 00 00 00 00 00 00 00 00 00
       0.0 0.0 0.0 0.0
000140 00 00 00 00 00 00 00 00 00 00 00 00 00 00 00 00
       0.0 0.0 0.0 0.0
000150 00 00 00 00 00 00 00 00 00 00 00 00 00 00 00 00
       0.0 0.0 0.0 0.0
000160 00 00 00 00 00 00 00 00 82 13 1c 33 f3 38 20 32
       0.0 0.0 3.6339323e-08 9.3261745e-09
000170 e9 70 9b b2 69 67 d2 32 20 33 93 32 8b 94 f5 b2
       -1.809572e-08 2.4494243e-08 1.7136301e-08 -2.8589303e-08
000180 b0 03 c8 b1 aa a9 c3 30 80 5c c0 30 77 fa f9 b1
       -5.8211853e-09 1.4236339e-09 1.3996129e-09 -7.2753283e-09
000190 32 e7 fe b1 e6 07 14 30 06 1a dc ad b7 b4 b3 30
       -7.418657e-09 5.385331e-10 -2.5022661e-11 1.3075326e-09
0001a0 59 00 32 b2 00 00 00 00 00 00 00 00 00 00 00 00
       -1.0361043e-08 0.0 0.0 0.0
0001b0 00 00 00 00 00 00 00 00 00 00 00 00 00 00 00 00
       0.0 0.0 0.0 0.0
0001c0 00 00 00 00 00 00 00 00 00 00 00 00 00 00 00 00
       0.0 0.0 0.0 0.0
0001d0 00 00 00 00 00 00 00 00 00 00 00 00 00 00 00 00
       0.0 0.0 0.0 0.0
0001e0 00 00 00 00 00 00 00 00 00 00 00 00 00 00 00 00
       0.0 0.0 0.0 0.0
0001f0 00 00 00 00 00 00 00 00 00 00 00 00 00 00 00 00
       0.0 0.0 0.0 0.0
000200 00 00 00 00 00 00 00 00 00 00 00 00 00 00 00 00
       0.0 0.0 0.0 0.0
000210 00 00 00 00 00 00 00 00 00 00 00 00 00 00 00 00
       0.0 0.0 0.0 0.0
000220 00 00 00 00 00 00 00 00 00 00 00 00 00 00 00 00
       0.0 0.0 0.0 0.0
000230 00 00 00 00 00 00 00 00 00 00 00 00 00 00 00 00
       0.0 0.0 0.0 0.0
000240 00 00 00 00 00 00 00 00 00 00 00 00 00 00 00 00
       0.0 0.0 0.0 0.0
000250 00 00 00 00 00 00 00 00 e4 62 f1 35 12 ec b3 34
       0.0 0.0 1.798468e-06 3.3513112e-07
000260 ff 75 77 b5 cb 4f bb 35 be a5 64 35 7d f1 de b5
       -9.218638e-07 1.3955809e-06 8.5177805e-07 -1.6610571e-06
000270 5d b9 a8 b4 f5 07 94 33 3a 75 05 34 bd ed ec b4
       -3.1427308e-07 6.8932344e-08 1.2429237e-07 -4.4131403e-07
000280 ff 6c a2 b4 fa 34 ab 32 a7 e3 92 31 27 01 14 b4
       -3.0254157e-07 1.9931111e-08 4.2750403e-09 -1.3783993e-07
000290 06 46 9e b3 00 00 00 00 00 00 00 00 00 00 00 00
       -7.3701855e-08 0.0 0.0 0.0
0002a0 00 00 00 00 00 00 00 00 00 00 00 00 00 00 00 00
       0.0 0.0 0.0 0.0
0002b0 00 00 00 00 00 00 00 00 00 00 00 00 00 00 00 00
       0.0 0.0 0.0 0.0
0002c0 00 00 00 00 00 00 00 00 00 00 00 00 00 00 00 00
       0.0 0.0 0.0 0.0
0002d0 00 00 00 00 00 00 00 00 00 00 00 00 00 00 00 00
       0.0 0.0 0.0 0.0
0002e0 00 00 00 00 00 00 00 00 00 00 00 00 00 00 00 00
       0.0 0.0 0.0 0.0
0002f0 00 00 00 00 00 00 00 00 00 00 00 00 00 00 00 00
       0.0 0.0 0.0 0.0
000300 00 00 00 00 00 00 00 00 00 00 00 00 00 00 00 00
       0.0 0.0 0.0 0.0
000310 00 00 00 00 00 00 00 00 00 00 00 00 00 00 00 00
       0.0 0.0 0.0 0.0
000320 00 00 00 00 00 00 00 00 00 00 00 00 00 00 00 00
       0.0 0.0 0.0 0.0
000330 00 00 00 00 00 00 00 00 00 00 00 00 00 00 00 00
       0.0 0.0 0.0 0.0
000340 00 00 00 00 00 00 00 00 a8 f2 8c b6 ed 3c 25 36
       0.0 0.0 -4.200574e-06 2.462238e-06
000350 68 85 d9 b4 6c 71 00 b6 22 87 10 36 2b 57 dc b5
       -4.0516466e-07 -1.9139507e-06 2.153633e-06 -1.6416647e-06
000360 27 99 ac 34 4c 02 f6 b5 f6 d3 8b b5 82 c1 b9 35
       3.214893e-07 -1.8329097e-06 -1.0417996e-06 1.3839892e-06
000370 18 da e1 b5 93 87 5a 35 62 20 b4 b4 aa 4b 1d 35
       -1.682728e-06 8.1408615e-07 -3.3551174e-07 5.8597163e-07
000380 a6 97 f1 34 00 00 00 00 00 00 00 00 00 00 00 00
       4.5000087e-07 0.0 0.0 0.0
000390 00 00 00 00 00 00 00 00 00 00 00 00 00 00 00 00
       0.0 0.0 0.0 0.0
0003a0 00 00 00 00 00 00 00 00 00 00 00 00 00 00 00 00
       0.0 0.0 0.0 0.0
0003b0 00 00 00 00 00 00 00 00 00 00 00 00 00 00 00 00
       0.0 0.0 0.0 0.0
0003c0 54 78 19 b8 fa 04 84 b7 a9 4c df 37 de 78 02 b8
       -3.6590107e-05 -1.5737944e-05 2.661937e-05 -3.110698e-05
0003d0 1d f6 a8 b7 62 68 37 38 f5 a1 bf 36 22 94 44 36
       -2.0141766e-05 4.3727814e-05 5.711098e-06 2.92925e-06
0003e0 65 5b 45 b5 79 29 1b 37 80 86 10 37 bd c1 81 32
       -7.3521215e-07 9.248376e-06 8.614385e-06 1.5105678e-08
0003f0 c1 8c a4 34 2f b7 a7 17 c0 e3 d2 2b 48 12 f6 b6
       3.0649792e-07 1.0838364e-24 1.4984611e-12 -7.3334995e-06
