robot_state_berkeley_training/robot_state_best_model.pth (torch, 838205 bytes, 24 tensors)

policy_network.0.weight f4 [128, 15]
0	0xbd6afb26	-0.05736842
1	0xbd237513	-0.039906573
2	0x3e69471f	0.22781037
3	0x3e04919b	0.12946169
4	0x3dec7c17	0.11547106
5	0x3c2e00c6	0.010620302
6	0x3ddfb070	0.10922325
7	0xbd845564	-0.064615995
8	0x3e6feff8	0.23431385
9	0x3e5b1817	0.21395908
10	0xbe0df4ac	-0.13862866
11	0x3f2deff8	0.6794429
12	0x3dd51167	0.1040371
13	0x3eabbf1e	0.33544248
14	0x3ebb907c	0.3663367
15	0x3de5dc55	0.112236656
16	0x3e56432b	0.2092406
17	0xbde10a24	-0.10988262
18	0xbe4df854	-0.20114261
19	0xbd4a84fd	-0.049443234
20	0x3de8ce55	0.1136748
21	0x3ddd137e	0.107947335
22	0xbde81129	-0.11331398
23	0xbf308312	-0.6895
24	0xbd27fdf2	-0.041013665
25	0xbe1575f9	-0.14595784
26	0x3dc831b4	0.09775105
27	0xbe9d231b	-0.30690846
28	0x3e67b013	0.2262576
29	0xbd195cd0	-0.03744203
30	0x3c3fe895	0.011713167
31	0xbdaf6923	-0.08564975
32	0xbe733e83	-0.23754315
33	0x3d8d8568	0.06910211
34	0xbd1d05bc	-0.038335547
35	0x3e0fd2a5	0.14045198
36	0x3e3fea31	0.1874168
37	0x3e888cd7	0.26669952
38	0x3ea9932d	0.331201
39	0xbe19836a	-0.14991537
40	0x3e85317a	0.2601431
41	0xbe219ebf	-0.15783213
42	0xbce055a0	-0.02738458
43	0x3e5f2362	0.21790841
44	0xbe4e31b6	-0.2013615
45	0x3e45ca7d	0.19315524
46	0xbe050acc	-0.129924
47	0xbd542d5d	-0.051801074
48	0xbdc3a15a	-0.0955226
49	0xbe0478c9	-0.12936701
50	0xbe418900	-0.18899918
51	0x3c0732c9	0.008251854
52	0x3e3885b0	0.18019748
53	0x3e6fc2eb	0.23414199
54	0xbd73cb31	-0.05951995
55	0xbd7c5cfa	-0.061612107
56	0x3e1207ee	0.14260837
57	0xbd858d91	-0.06521142
58	0x3d90ce91	0.070706494
59	0xbbd16a18	-0.006390821
60	0x3d9f6e0c	0.07784662
61	0x3c652f8b	0.013988386
62	0x3e41cf84	0.18926817
63	0xbe6f22a9	-0.23353066
64	0x3be27be9	0.006911744
65	0xbe88e0dc	-0.26734054
66	0x3d770a09	0.060312305
67	0xbd3d0c04	-0.046154037
68	0xbe98caf0	-0.2984233
69	0x3dc2c669	0.095105
70	0xbe02d31c	-0.12775844
71	0x3f33dd52	0.70259583
72	0xbedd9eac	-0.4328512
73	0x3eaea3b7	0.3410928
74	0x3eb7a6eb	0.35869536
75	0x3c80a6d1	0.015704544
76	0x3d98f192	0.07467951
77	0x3c5ebf39	0.013595396
78	0xbde791ef	-0.113071315
79	0x3d516ce7	0.051129248
80	0xbda97362	-0.08273961
81	0xbe44a0ae	-0.1920192
82	0xbe43659f	-0.19081734
83	0x3e74b23b	0.23896115
84	0xbc584ac0	-0.013201416
85	0xbe16a976	-0.14713082
86	0x3ddeb8ea	0.10875113
87	0xbe6ab464	-0.22920376
88	0xbe809235	-0.25111547
89	0xbe504dbc	-0.20342153
90	0xbd40d307	-0.04707625
91	0x3e96a146	0.29419917
92	0x3db37285	0.08762077
93	0x3e560b7d	0.2090282
94	0xbdfa1cba	-0.122125104
95	0x3dcb5262	0.09927823
96	0xbe516fa9	-0.20452751
97	0xbe8b150d	-0.27164498
98	0x3e006002	0.12536624
99	0xbcb398d2	-0.021923456
100	0xbe170020	-0.14746141
101	0x3cf0fa62	0.029416267
102	0xbe64626a	-0.22303167
103	0x3bf28210	0.0074007586
104	0x3ddc796b	0.10765346
105	0x3d3838c5	0.044976015
106	0xbbbce5d0	-0.0057647005
107	0xbe587fd4	-0.21142513
108	0x3e26d0a3	0.16290526
109	0x3e49204e	0.1964123
110	0x3e227cee	0.1586797
111	0x3dd31972	0.10307588
112	0x3d619160	0.05507028
113	0xbdc8c91b	-0.09803983
114	0x3dee4e02	0.116359726
115	0xbdb00c05	-0.085960425
116	0x3d02978f	0.03188282
117	0xbe1e0877	-0.15432917
118	0xbe1a295a	-0.15054837
119	0xbe342dda	-0.17595616
120	0xbd2d27a6	-0.04227414
121	0x3e1cc504	0.1530953
122	0xbe519119	-0.20465507
123	0x3ded83b9	0.1159739
124	0x3e65c8df	0.22439907
125	0xbe6479c1	-0.2231207
126	0x3e28c35f	0.16480778
127	0xbe42a712	-0.19009045
128	0x3e40ff78	0.18847454
129	0xbe309b56	-0.17246756
130	0x3dbcd921	0.092211016
131	0x3e8018c2	0.2501889
132	0x3d501bca	0.05080775
133	0xbe144dfc	-0.14482874
134	0xbdaedab7	-0.0853781
135	0xbddc9f96	-0.10772626
136	0xbe3b18f1	-0.18271233
137	0xbe5ea173	-0.21741275
138	0x3e820043	0.25390825
139	0xbddc1ae3	-0.10747316
140	0xbde9efc3	-0.11422684
141	0x3e8240d2	0.2544008
142	0x3e27f189	0.16400732
143	0x3e784413	0.24244718
144	0x3e213f29	0.1574675
145	0xbdcb256b	-0.09919246
146	0x3dbbe163	0.091738485
147	0x3e4d6ca0	0.20060968
148	0x3e246584	0.1605435
149	0xbe53c8e0	-0.20682096
150	0xbe40a1bd	-0.18811698
151	0x3d7afab9	0.061274264
152	0xbe289569	-0.16463245
153	0xbd9f6be8	-0.07784253
154	0xbe1f332c	-0.15546864
155	0xbe183133	-0.14862518
156	0xbe5f7614	-0.21822387
157	0xbdb04c32	-0.08608283
158	0xbe8acd31	-0.27109674
159	0x3a8aa45d	0.0010577549
160	0xbe8210a6	-0.25403327
161	0xbe253ea1	-0.16137172
162	0xba2f00d2	-0.00066758425
163	0x3e7b1bad	0.24522276
164	0xbd851a4d	-0.06499157
165	0x3e6bc932	0.23025969
166	0x3d5b4581	0.05353308
167	0x3e0da8f0	0.13833976
168	0x3d230b24	0.039805546
169	0xbdc202ac	-0.09473166
170	0xbe4f81b4	-0.20264322
171	0xbb66ba9c	-0.0035206443
172	0xbe1d2114	-0.1534465
173	0xbe72f443	-0.23725991
174	0x3deb3a84	0.1148577
175	0x3c6671ab	0.0140651865
176	0x3e80036b	0.25002608
177	0x3e369943	0.17831902
178	0xbe049774	-0.129484
179	0x3e15ecc0	0.14641094
180	0x3e5125fc	0.20424646
181	0xbe2b3939	-0.16721047
182	0xbe6c05d9	-0.23049106
183	0x3e4a2ad4	0.197429
184	0xbe20fb70	-0.15720916
185	0x3dda0846	0.10646109
186	0xbe6fce50	-0.23418546
187	0xbd78ed5b	-0.060773235
188	0xb9062aa6	-0.00012795124
189	0xbe432af8	-0.1905936
190	0x3e2fe243	0.17176156
191	0xbc27d5b7	-0.010243825
192	0x3e622306	0.22083673
193	0x3e3d9f2d	0.18517752
194	0xbd4bcd2f	-0.049756225
195	0x3e7f4c6d	0.24931498
196	0x3d84182e	0.064499244
197	0x3e4f79c1	0.20261289
198	0x3e4649e5	0.19364126
199	0x3e08ac08	0.13346875
200	0xbe2ead50	-0.17058301
201	0x3e2e1de8	0.17003596
202	0xbe81dd2c	-0.25364053
203	0xbe0ec113	-0.1394084
204	0xbe37795b	-0.17917387
205	0xbe07f2f8	-0.13276279
206	0x3e6f27ab	0.23354976
207	0x3b97cb31	0.0046323766
208	0xbd673a94	-0.05645235
209	0x3e812e3e	0.25230592
210	0xbe4220ec	-0.18957871
211	0xbe72b585	-0.23702057
212	0xbe993d25	-0.29929462
213	0xbdac6487	-0.084176116
214	0xbde35e17	-0.111019306
215	0x3d43537d	0.047687043
216	0x3d0f4443	0.03497721
217	0x3e486104	0.19568259
218	0x3f15dd7c	0.58541083
219	0xbea19600	-0.31559753
220	0xbe978a20	-0.2959757
221	0xbe9b7ef6	-0.303703
222	0x3ec73d70	0.3891406
223	0xbdee1071	-0.1162423
224	0x3dbebef2	0.09313764
225	0xbd7b310c	-0.06132607
226	0x3e34b4ec	0.17647141
227	0xbe763a44	-0.24045664
228	0x3e286bfd	0.16447444
229	0x3e51142d	0.20417853
230	0xbc67be1a	-0.014144445
231	0xbe13e461	-0.14442588
232	0xbdf39121	-0.118929155
233	0xbd455dbf	-0.048185106
234	0x3dc92661	0.09821773
235	0x3de2e42a	0.11078675
236	0xbe53d26e	-0.20685741
237	0xbe44c9c2	-0.1921759
238	0x3db7ef8a	0.08981235
239	0xbe07c895	-0.1326011
240	0xbe2eda96	-0.17075571
241	0x3ea5c6d2	0.3237825
242	0x3e12862d	0.14308996
243	0x3e028a66	0.12748107
244	0x3e6cace5	0.23112829
245	0x3df9c67d	0.12196062
246	0xbddf8a57	-0.10915058
247	0x3c0563ac	0.008141439
248	0x3db21c1e	0.08696769
249	0xbe844adc	-0.25838363
250	0xbde4def7	-0.1117534
251	0xbe991044	-0.29895222
252	0xbe6af446	-0.22944745
253	0xbebab465	-0.36465755
254	0xbe9f657f	-0.31132123
255	0xbd332b82	-0.043742664

policy_network.0.bias f4 [128]
0	0xbe7b33a8	-0.24531424
1	0x3e1465b3	0.1449192
2	0xbd8822b1	-0.06647242
3	0x3b953886	0.0045538573
4	0x3d703b0d	0.058650065
5	0xbdbc32d1	-0.0918938
6	0x3ddb0d4a	0.10695894
7	0x3da5df68	0.08099252
8	0x3e4c9275	0.19977744
9	0x3d1ae627	0.037817147
10	0xbdeff05b	-0.11715766
11	0x3dcd87da	0.10035677
12	0x3e3546a2	0.17702726
13	0x3e30a4cf	0.1725037
14	0xbdc40a6f	-0.095723026
15	0x3e7e4a0c	0.24832934
16	0x3dfb6d02	0.12276651
17	0xbe421681	-0.18953897
18	0x3b6fe48f	0.0036604737
19	0xbdcf7a5d	-0.10130761
20	0x3e42e8fc	0.19034189
21	0xbdd911eb	-0.10599121
22	0xbe34c452	-0.17653015
23	0xbe86e408	-0.2634585
24	0x3e22e995	0.15909417
25	0xbe448623	-0.19191794
26	0x3dc83628	0.097759545
27	0xbe85fb98	-0.26168513
28	0xbe59856d	-0.21242304
29	0x3d14eea6	0.036360405
30	0x3d51bc33	0.05120487
31	0x3e0613ae	0.13093445
32	0xbe66b743	-0.22530846
33	0xbcd98463	-0.026552385
34	0xbe88fa04	-0.26753247
35	0xbe444cdf	-0.19169949
36	0xbe326587	-0.17421542
37	0x3db237e4	0.087020665
38	0xbe964c1f	-0.2935495
39	0x3c1a55a6	0.009419834
40	0x3da53b03	0.08067896
41	0xbc85c0c1	-0.016327264
42	0x3d34beb1	0.04412717
43	0x3e3609ae	0.1777713
44	0xbd007f92	-0.03137166
45	0xbe26784f	-0.16256832
46	0xbd5e1fb1	-0.054229442
47	0x3b1dbda2	0.0024069329
48	0xbe415e15	-0.18883546
49	0xbe0884b0	-0.13331866
50	0x3d4ea766	0.050452612
51	0xbe04bf8e	-0.12963697
52	0xbe30ee8e	-0.17278501
53	0x3e34c3b2	0.17652777
54	0x3d3060b4	0.043060973
55	0x3e1cb06a	0.15301672
56	0xbe1a07d3	-0.15042047
57	0xbe1aa8ad	-0.15103407
58	0x3e3c51d0	0.18390584
59	0xbccc98be	-0.024975177
60	0xbe66c21c	-0.22534984
61	0xbe7403a5	-0.23829515
62	0xbdb641c7	-0.08899265
63	0x3e0d63b2	0.13807562
64	0x3e2dfa42	0.16989997
65	0x3dabbe86	0.08385949
66	0x3d491688	0.049093753
67	0x3dd9323d	0.10605285
68	0xbdb87d84	-0.09008315
69	0xbe14052e	-0.14455101
70	0xbe165377	-0.14680277
71	0xbcea365d	-0.028590376
72	0xbe075303	-0.1321526
73	0x3e72a9ef	0.23697637
74	0xbdc53f6c	-0.096312374
75	0xbe866325	-0.26247516
76	0xbe0bd69f	-0.1365609
77	0x3dade21f	0.08490395
78	0xbe69c56f	-0.22829221
79	0xbd8b3fbf	-0.06799268
80	0x3e6baa51	0.2301419
81	0xbe083f8f	-0.13305496
82	0x3da431ec	0.08017334
83	0x3e27cc3a	0.163865
84	0xbd642b0b	-0.05570511
85	0x3d1d3bc9	0.038387094
86	0xbd378b4e	-0.044810586
87	0xbce7f129	-0.028313236
88	0x3d24b7f4	0.040214494
89	0x3e1bedea	0.15227476
90	0xbe2f2ef2	-0.17107752
91	0x3e70c862	0.2351394
92	0xbe805231	-0.25062707
93	0xbd489593	-0.04897077
94	0xbe12e421	-0.14344837
95	0xbccec12a	-0.025238592
96	0x3da9c6c9	0.082898684
97	0x3d68443c	0.0567057
98	0x3e0a2ac9	0.13492884
99	0xbe3700c9	-0.17871393
100	0x3cca3f65	0.024688432
101	0xbe920a78	-0.28523612
102	0x3e6851db	0.22687475
103	0xbd71cfe3	-0.059036147
104	0xbe6c2ea9	-0.23064674
105	0x3d89166c	0.0669373
106	0xbe519841	-0.20468237
107	0x3d8ad083	0.06778052
108	0xbe28915d	-0.16461702
109	0x3e0cfa3a	0.13767329
110	0x3da80a87	0.08205133
111	0xbdf3c94d	-0.119036295
112	0xbe592563	-0.21205668
113	0xbe933a99	-0.28755644
114	0x3e4fa310	0.20277047
115	0xbd460467	-0.048344042
116	0x3e64c382	0.22340205
117	0xbd9ed040	-0.07754564
118	0xbdad1ac6	-0.08452372
119	0x3d918e4d	0.0710722
120	0xbe42d852	-0.19027832
121	0x3d001fd8	0.03128037
122	0x3e0a83c9	0.13526835
123	0xbe0bc38c	-0.13648814
124	0x3e1771b7	0.14789473
125	0xbc84900c	-0.016181968
126	0xbe086286	-0.13318834
127	0xbe3915a2	-0.18074659

policy_network.3.weight f4 [256, 128]
0	0xbcbc2f21	-0.022971692
1	0xbd9beafd	-0.0761318
2	0x3c467100	0.012111902
3	0xbdb0547f	-0.08609866
4	0xbde847f8	-0.11341852
5	0x3d942009	0.07232673
6	0xbdc03a5f	-0.093861334
7	0x3d9153f7	0.07096093
8	0xbcbaf573	-0.022822117
9	0xbcf9b7c7	-0.03048314
10	0xbdb966df	-0.09052824
11	0xbda15b71	-0.07878769
12	0x3abf888d	0.0014612839
13	0xbd8094b0	-0.0627836
14	0x3d1c6fb7	0.038192477
15	0x3d95c059	0.07312078
16	0x3d1c9780	0.03823042
17	0xbdaf1eea	-0.08550818
18	0x3d814265	0.06311492
19	0x3c5702d2	0.013123231
20	0x3d0c393d	0.034234274
21	0xbda5a51e	-0.08088134
22	0x3cf21dd1	0.029555233
23	0x3db05436	0.08609812
24	0x3a49db31	0.00077002036
25	0xbd3ee9c5	-0.04660966
26	0x3d8b0fcc	0.067901224
27	0xbd3d3229	-0.046190415
28	0xbcf120ef	-0.02943465
29	0xbd7a2761	-0.06107271
30	0xbccd5492	-0.02506474
31	0xbbad1e5b	-0.0052831597
32	0x3c85949d	0.016306216
33	0x3d65fb10	0.056147635
34	0x3d37df48	0.044890672
35	0xbda4b95b	-0.08043166
36	0xb91390bd	-0.00014072932
37	0xbca86756	-0.020557087
38	0x3d9c6a6b	0.07637485
39	0xbd895fa4	-0.06707695
40	0xbd09ddc4	-0.033658758
41	0x3d42029d	0.047365773
42	0xbd0b9efd	-0.03408717
43	0xbda5a7ab	-0.08088621
44	0xbcba5254	-0.022744335
45	0x3d64c2e4	0.055849925
46	0xbcac607a	-0.021042097
47	0xbd18d88b	-0.037315886
48	0xbd8e1d94	-0.06939235
49	0x3cba201a	0.022720385
50	0xbdc56714	-0.09638801
51	0x3c75c7f4	0.015001286
52	0xbd68a81a	-0.05680094
53	0x3d6a1f52	0.057158776
54	0x3c8bf6ef	0.01708552
55	0xbc6dbfa4	-0.014511023
56	0xbddff66e	-0.109356746
57	0xbd8fc15a	-0.07019301
58	0xbd0adf7a	-0.03390453
59	0xbd7f682d	-0.06235521
60	0xbd5d8a8e	-0.054087214
61	0x3bea9e68	0.007159997
62	0xbcbea2ed	-0.023271048
63	0x3c04be6d	0.008102042
64	0x3d340297	0.043947782
65	0xbb8f27dc	-0.0043687653
66	0x3d3d524b	0.04622106
67	0x3d067a59	0.032831524
68	0xbdb427ce	-0.08796655
69	0xbb8618a5	-0.0040922933
70	0x3d52fe08	0.051511794
71	0xbd59a4f8	-0.053135842
72	0xbbe3e038	-0.006954219
73	0x3c34b50c	0.011029493
74	0xbda6bc95	-0.08141438
75	0x3c959222	0.018258158
76	0xbd08cb72	-0.033397146
77	0xbce6236d	-0.028093064
78	0x3d1bf271	0.038073007
79	0x3d30e116	0.04318341
80	0xbd520557	-0.051274624
81	0xbdb5d639	-0.0887875
82	0x3cb4de09	0.02207853
83	0xbd1a9913	-0.03774364
84	0x3d0ee4d2	0.03488619
85	0x3da7d9e5	0.08195857
86	0x3d4d7418	0.050159544
87	0xbcf65406	-0.030069362
88	0xbcae22f6	-0.021256905
89	0xbcff99ec	-0.031201325
90	0xbc24ae80	-0.01005137
91	0xbd9d5acf	-0.07683336
92	0xbdaa40d6	-0.08313148
93	0xbdb27c64	-0.08715132
94	0xbdb99930	-0.09062421
95	0xbbe11b22	-0.0068696896
96	0x3c05c726	0.0081651565
97	0x3cd07c05	0.025449762
98	0xbd80c654	-0.06287828
99	0x3ca345a9	0.019930677
100	0xbdb1d747	-0.08683639
101	0x3c878faf	0.016548006
102	0xbd6661a7	-0.056245472
103	0x3c88092b	0.016605934
104	0xbc76ba0d	-0.015059006
105	0x3d5027ab	0.05081908
106	0x3c58d86f	0.013235196
107	0x3d4137d2	0.047172375
108	0x3d9d20d3	0.07672276
109	0x3d513f31	0.051085655
110	0x3b315720	0.0027059987
111	0x3da2edac	0.079554886
112	0x3c0c3d81	0.008559586
113	0xbc7d483b	-0.015459116
114	0xbc61da24	-0.013784919
115	0xbd2627b1	-0.040565196
116	0xbc1fed92	-0.009761231
117	0xbb9c3fe2	-0.0047683576
118	0xbd6467eb	-0.055763166
119	0xbb4a7482	-0.0030892198
120	0xbc414a18	-0.0117974505
121	0xbd471855	-0.04860719
122	0xbd95c58e	-0.07313071
123	0xbe19463a	-0.14968196
124	0x3cb79123	0.022408074
125	0xbd7a2287	-0.061068084
126	0xbcf42ad3	-0.029805576
127	0xbd39449d	-0.04523145
128	0xbd3dceb2	-0.046339698
129	0x3d410013	0.04711921
130	0x3d072aa1	0.03299964
131	0xbd98a3ce	-0.07453118
132	0x3ca6a262	0.020341102
133	0xbcedc5ac	-0.029024921
134	0x3d1c1c35	0.038112838
135	0x3d5ff008	0.05467227
136	0x3c459d3f	0.012061416
137	0xbd90f0cb	-0.070771776
138	0xbd42b939	-0.047539923
139	0xbd9d9522	-0.076944605
140	0x3cfa1af9	0.03053044
141	0x3d81535a	0.06314726
142	0x3dc282f6	0.09497635
143	0xbb1f1192	-0.0024271947
144	0xbc9681f0	-0.018372506
145	0xbd43cdd6	-0.047803722
146	0x3e0114cd	0.12605591
147	0xb9df7bbe	-0.0004262607
148	0x3bc076d9	0.0058735427
149	0xbd89e6c1	-0.06733466
150	0xbd3ef2f2	-0.04661841
151	0xbd255fa6	-0.04037442
152	0x3d0ad05d	0.033890117
153	0x3c084b89	0.00831879
154	0xbd29c5f1	-0.041448537
155	0xbd59c39e	-0.05316507
156	0x3d0c3115	0.034226496
157	0xbcd9d9cc	-0.026593111
158	0xbc83975d	-0.016063387
159	0x3d8d1228	0.06888229
160	0x3d1d6be2	0.038432963
161	0x3d89c6bd	0.067273594
162	0x3d8dd1b5	0.06924764
163	0xbd9b7a96	-0.07591741
164	0xbd339918	-0.043847173
165	0x3d6f9b35	0.058497626
166	0xbd728827	-0.059211876
167	0xbd14c51c	-0.03632079
168	0x3d7daef9	0.061934445
169	0xbd6748dd	-0.056465972
170	0x39d44528	0.00040487316
171	0xbd1b0173	-0.03784318
172	0xbd54590b	-0.05184273
173	0xbcd255ce	-0.02567568
174	0xbda738a0	-0.08165097
175	0x3d65eb59	0.05613265
176	0x3daafb23	0.08348682
177	0xbd3d2654	-0.04617913
178	0xbdec7477	-0.115456514
179	0xbd8b0883	-0.06788733
180	0xbcc3ea83	-0.023915535
181	0x3c50efc4	0.012752477
182	0x3c514ce0	0.012774676
183	0x3d38ca73	0.045114946
184	0xbace7bc8	-0.0015753442
185	0xbc0b0d64	-0.008487079
186	0x3ca370f9	0.01995133
187	0xbd9476da	-0.07249232
188	0x3d811154	0.06302133
189	0xbc2bf310	-0.010494962
190	0xbd8fae9a	-0.070157245
191	0x3d14e386	0.036349796
192	0xbd4d078c	-0.050056025
193	0x3c9a6855	0.018848578
194	0x3cea598c	0.028607152
195	0xbdac80ca	-0.08423002
196	0xbbf13492	-0.007361003
197	0x3d8f224e	0.06988965
198	0x3dac244d	0.08405361
199	0x3d83be12	0.064327374
200	0x3d4cfeca	0.050047673
201	0x3d65c4b3	0.05609579
202	0xbc90236b	-0.017595014
203	0xbd95064a	-0.0727659
204	0x3de572d1	0.1120354
205	0x3d1f62c3	0.038912546
206	0x3bf02305	0.0073283934
207	0x3d5bd1ef	0.053667005
208	0x3d48f1cc	0.04905872
209	0x3d5df538	0.054188937
210	0x3d1ead0b	0.038739245
211	0x3d75d5e5	0.06001844
212	0xbdb150c8	-0.08657986
213	0xbd7d7760	-0.061881423
214	0xbcdc86dd	-0.026919777
215	0xbd84da41	-0.06486941
216	0x3d52c281	0.051455025
217	0x3d8f681d	0.0700228
218	0x3d008074	0.031372502
219	0xbc3fdffe	-0.011711119
220	0xbd041025	-0.03224196
221	0x3d28758c	0.041127726
222	0xbda035f4	-0.07822791
223	0xbcd1279d	-0.025531584
224	0x3d2fbc8b	0.042904418
225	0xbd816e2b	-0.06319841
226	0x3d06d69e	0.03291952
227	0xbdb67aed	-0.08910165
228	0xba965668	-0.0011469843
229	0xbdbf12c3	-0.093297504
230	0xbd9b8ca8	-0.075951874
231	0x3dbac284	0.09119132
232	0xbda4e398	-0.080512226
233	0x3d4c4fca	0.04988078
234	0x3d9549b5	0.07289449
235	0xba64215d	-0.0008702481
236	0x3dce7b12	0.100820675
237	0x3d3422f1	0.043978635
238	0x3d969609	0.07352836
239	0x3d86f494	0.06589618
240	0xbda6ada3	-0.08138587
241	0x3c8c4651	0.017123373
242	0xbc68d7e1	-0.014211626
243	0x3cc19b04	0.023633488
244	0x3d317f99	0.043334577
245	0xbda64f74	-0.08120623
246	0x3d17e282	0.03708125
247	0xbd1bb3d9	-0.038013313
248	0x3d5ca172	0.053864904
249	0x3d86976c	0.0657185
250	0xbd9504a2	-0.07276274
251	0xbe147924	-0.14499336
252	0xbc4b1dc3	-0.012397232
253	0x3c1cc515	0.009568472
254	0x3da2d716	0.07951181
255	0xbd7ce1bf	-0.061738726

policy_network.3.bias f4 [256]
0	0xbd3d6a18	-0.046243757
1	0x3d48824c	0.048952386
2	0x3d460b39	0.048350547
3	0xbdb4e03c	-0.08831832
4	0xbbf5d8cd	-0.0075026513
5	0xbdcb7130	-0.09933698
6	0xbdc3cfc5	-0.09561113
7	0x3ce3016b	0.027710637
8	0x3cc3610b	0.023849985
9	0xbd933ff1	-0.0718993
10	0x3d35df57	0.044402447
11	0xbcb7e908	-0.022449985
12	0x3cc1f950	0.023678452
13	0x3cf298b9	0.02961384
14	0x3d6a242d	0.057163406
15	0x3d1bd36d	0.03804343
16	0x3d7d77e8	0.06188193
17	0xbd778f68	-0.060439497
18	0xbc950d6a	-0.018194873
19	0x3c7376df	0.014859884
20	0x3b88f4af	0.004179559
21	0xbd1abed1	-0.037779633
22	0xbc6aa25a	-0.014320934
23	0x3b6e0cbd	0.003632351
24	0xbd0cc6fc	-0.034369454
25	0xbd9716bb	-0.07377382
26	0xbd3092f4	-0.043108895
27	0xbd1093a9	-0.03529707
28	0xbd8239fe	-0.063587174
29	0xbca3fcd2	-0.020018015
30	0x3d221301	0.039568905
31	0x3da13f08	0.078733504
32	0xbd99297a	-0.07478614
33	0xbdbc8e26	-0.092068
34	0xbc4c67f2	-0.012475954
35	0xbc1371d3	-0.008999306
36	0x3d074ad2	0.03303034
37	0xbba39869	-0.004992534
38	0x3d2b4b7b	0.04182003
39	0xbcf8f16f	-0.030388562
40	0xbc9d6c60	-0.019216716
41	0x3cf092c7	0.029366864
42	0xbdaf1fad	-0.085509636
43	0x3cb809d7	0.02246563
44	0xbd2fc731	-0.042914573
45	0xbd8d0c1f	-0.068870775
46	0xbd531b15	-0.0515395
47	0xbbced234	-0.0063116793
48	0x3c4d7d77	0.01254212
49	0xbd5ef2fa	-0.05443094
50	0x3bb21784	0.005434932
51	0xbc30fac4	-0.010801975
52	0x3d2dbe3b	0.042417746
53	0x3d43d082	0.04780627
54	0x3d36ec85	0.044659156
55	0xbd84994b	-0.06474551
56	0xbd9f264c	-0.077709764
57	0x3c71be61	0.0147548625
58	0xbda899be	-0.08232449
59	0xbd080b5e	-0.033213966
60	0x3bd5c289	0.0065234345
61	0x3c15d4bf	0.009144961
62	0xbdc5cb51	-0.0965792
63	0x3d442094	0.04788263
64	0xbd88e0da	-0.06683512
65	0x3b098958	0.0020986404
66	0xbd002842	-0.031288393
67	0xbdb37449	-0.08762414
68	0x3ce0510c	0.027382396
69	0x3ca7d6ed	0.020488227
70	0x3cfea222	0.03108317
71	0xbcf84541	-0.03030646
72	0x3da9e2c8	0.08295208
73	0x3d4e8fe9	0.050430212
74	0x3d5058a6	0.05086579
75	0xbd5fd47c	-0.054646
76	0xbcf9a016	-0.030471843
77	0xbcc3dc54	-0.023908772
78	0x3cde95b8	0.027171
79	0x3d736f39	0.059432242
80	0x3d1c4533	0.03815193
81	0x3cd70a8d	0.026250148
82	0x3ca2e061	0.019882383
83	0x3c605ee6	0.013694501
84	0x3c7974dd	0.015225616
85	0xbcd890b5	-0.02643619
86	0xbd585f45	-0.05282523
87	0xbddb1ff6	-0.106994554
88	0xbd4ff4f8	-0.05077073
89	0x3bd7f0d0	0.0065899864
90	0xbd763b9d	-0.060115445
91	0xbd860aee	-0.065450534
92	0xbd6741a6	-0.05645909
93	0x3c829e5c	0.015944652
94	0x3c1d7cc3	0.009612265
95	0xbd344af5	-0.044016797
96	0x3a72ed1f	0.0009266901
97	0xbcacdf8b	-0.021102687
98	0xbc879860	-0.01655215
99	0xbd18883f	-0.03723931
100	0xbd580993	-0.052743506
101	0xbbbbf8fe	-0.0057364693
102	0xbd2b253b	-0.041783553
103	0x3d374e89	0.04475263
104	0x3b011c62	0.0019700755
105	0x3d9c481d	0.07630942
106	0xbd9147c3	-0.070937656
107	0x3d84f9f4	0.06492987
108	0xbca4410d	-0.02005055
109	0x3d8793f8	0.0662002
110	0x3cb26284	0.021775492
111	0x3d2d18a1	0.042259816
112	0x3d5f6c1e	0.054546468
113	0xbda4b304	-0.08041957
114	0xbdcb8891	-0.09938157
115	0x3d14e089	0.036346946
116	0x3a192425	0.0005841873
117	0x3c947359	0.018121408
118	0x3d251011	0.040298525
119	0xbdce2e9d	-0.100674845
120	0xbc445626	-0.01198343
121	0x3d7d8432	0.06189365
122	0xbb4d3066	-0.0031309365
123	0xbe0248b3	-0.12723045
124	0x3d738185	0.05944969
125	0x3a2d734f	0.00066166086
126	0xbd021d19	-0.03176603
127	0xbd7c25ec	-0.061559603
128	0x3b4f88d7	0.0031667256
129	0xbd8fc36e	-0.07019697
130	0xbd5609c6	-0.052255414
131	0xbcdc8f79	-0.026923882
132	0xbd95ca83	-0.07314017
133	0xbd656b5e	-0.056010596
134	0x3d3ab493	0.045582365
135	0xbd424d76	-0.047437154
136	0xbd1c09f1	-0.03809542
137	0xbd78138d	-0.06056552
138	0x3ce1b91c	0.027554087
139	0xbd991e85	-0.07476524
140	0x3d3c1698	0.045919985
141	0x3c65f0ea	0.014034489
142	0xbd614306	-0.05499556
143	0xbcd754ae	-0.026285496
144	0x3c79b11c	0.01523998
145	0xbc29d363	-0.01036534
146	0xbd4775b8	-0.04869625
147	0xbd36183c	-0.044456705
148	0xbdb3420d	-0.087528326
149	0xbc9223c1	-0.017839314
150	0x3cc2ebb9	0.023794042
151	0xbdd82cdc	-0.10555431
152	0x3c741a14	0.014898796
153	0xbd9802ef	-0.074224345
154	0x3d0deb33	0.03464813
155	0x39f10f7b	0.00045978636
156	0x3d844cce	0.06459962
157	0xbd37c06e	-0.04486125
158	0x3d6b6a49	0.05747441
159	0x3be65f12	0.0070303762
160	0x3d61edb1	0.05515832
161	0x3c099992	0.00839843
162	0xbc7f398a	-0.015577683
163	0xbd968210	-0.07349026
164	0xbd868b4d	-0.06569538
165	0xbd4cf5c7	-0.05003908
166	0xbd794d89	-0.06086496
167	0xbd1f46ac	-0.038885757
168	0xbbbe2ce9	-0.0058036936
169	0xbcbfcec6	-0.023414027
170	0x3ce7169f	0.028209029
171	0x3c72b60f	0.014813914
172	0x3ceb679e	0.028735932
173	0x3d131c4d	0.03591566
174	0xbda24fcc	-0.07925376
175	0x3d4680db	0.04846273
176	0x3c15ba7e	0.0091387015
177	0xbc838732	-0.016055677
178	0x3caedf61	0.02134675
179	0xbdc28402	-0.09497835
180	0x3940c9a7	0.00018385668
181	0xbd891c0b	-0.06694802
182	0xbb9b7126	-0.004743713
183	0xbda98bfd	-0.08278654
184	0x3b851aa4	0.0040620137
185	0xbdaa7f73	-0.0832509
186	0x3d5679ce	0.052362256
187	0xbdc59d30	-0.09649122
188	0x3c6b14eb	0.014348249
189	0x3d333f50	0.04376155
190	0x3ba5f938	0.0050651096
191	0xbbfc727e	-0.007704078
192	0x3d30851b	0.04309569
193	0xbd931654	-0.07181993
194	0xbd7cde25	-0.06173529
195	0xbc14b8f7	-0.009077302
196	0xbcc315aa	-0.023814041
197	0xbd4ca43d	-0.049961317
198	0x3b1dee54	0.0024098353
199	0x3d74d9f1	0.059778158
200	0xbdcbe71f	-0.09956192
201	0xbd84ad6b	-0.06478389
202	0xbdb2b6d8	-0.08726281
203	0x3c763b73	0.015028822
204	0xbb8f0c7e	-0.004365503
205	0xbc0addf0	-0.008475766
206	0xbdb67f42	-0.08910991
207	0xbcb23af6	-0.02175663
208	0xbd8d0a9c	-0.06886789
209	0xbdae465b	-0.08509513
210	0xbd8a67ba	-0.067580655
211	0xbd9773fb	-0.073951684
212	0x3c9fcfe2	0.019508306
213	0x3d7e1edb	0.062041145
214	0xbaa92266	-0.0012903928
215	0xbdcecdb1	-0.10097826
216	0x39c2e2a1	0.00037171415
217	0xbd3f2dd7	-0.046674576
218	0xbcf764bf	-0.030199407
219	0xbddaf73f	-0.1069169
220	0xbd9a157b	-0.07523628
221	0x3d2d122c	0.04225366
222	0x3d0aefc8	0.03392008
223	0x3cfbb86f	0.030727593
224	0xbd1e92ed	-0.038714338
225	0xbdc6e7b6	-0.09712164
226	0x3d376670	0.044775426
227	0x3d3fed1d	0.04685699
228	0xbc1e5758	-0.009664379
229	0xbc329c30	-0.010901496
230	0xbd8bcb01	-0.06825829
231	0x3cbc42f0	0.022981137
232	0x3d630cfb	0.0554323
233	0xbdd28468	-0.10279161
234	0xbc8d0ecb	-0.017218968
235	0xbda51acd	-0.080617525
236	0x3abcc638	0.0014402336
237	0xbce76fb2	-0.028251503
238	0x3c6a5422	0.014302285
239	0xbd286c91	-0.041119162
240	0xbd124ff0	-0.035720766
241	0x3c27b3fe	0.010235785
242	0x3d49f51d	0.049306024
243	0x3d1c14d5	0.038105804
244	0xbc90a38e	-0.017656114
245	0xbdaf5b53	-0.085623406
246	0x3d9d432a	0.07678826
247	0x3c21217d	0.009834644
248	0x3cd41430	0.025888532
249	0x3d1d01c2	0.038331755
250	0xbca94653	-0.020663416
251	0xbcfbacc8	-0.030722037
252	0x3d3c62c1	0.045992617
253	0xbd8271f8	-0.06369394
254	0xbc23aa10	-0.0099892765
255	0xbc948900	-0.018131733

policy_network.6.weight f4 [128, 256]
0	0xbb48d2da	-0.0030643255
1	0xbd426be3	-0.04746617
2	0x3d8c9726	0.06864767
3	0x3c626044	0.013816897
4	0xbd851a13	-0.06499114
5	0xbd0930d5	-0.033493835
6	0x3d94c221	0.0726359
7	0xbbd7cdb0	-0.006585799
8	0xbdb4d20a	-0.08829124
9	0x3c94b42b	0.018152317
10	0x3d959b75	0.07305042
11	0x3d4e3ac6	0.05034902
12	0xbdb5326e	-0.08847509
13	0x3d7e4bae	0.062083893
14	0x3d930cd3	0.071801804
15	0x3d950e5f	0.07278132
16	0x3cd090be	0.025459643
17	0x3b7f5280	0.0038959086
18	0x3d2e914b	0.04261903
19	0x3d0bbf4b	0.034117978
20	0xbd4ef722	-0.050528653
21	0x3bdd8494	0.0067601893
22	0xbdb42eea	-0.08798011
23	0xbd1ac381	-0.037784103
24	0x3b827c7b	0.0039821244
25	0xbbc0cee0	-0.0058840364
26	0xbdf002b6	-0.11719267
27	0x3d7d8aec	0.061900064
28	0xbcffe6c1	-0.031237962
29	0x3d4a85d6	0.049444042
30	0xbd222b1b	-0.03959189
31	0xbda01076	-0.0781564
32	0x3b838311	0.004013427
33	0x3d86e297	0.06586187
34	0x3904c236	0.0001266085
35	0x3c226bea	0.009913424
36	0xbd70f968	-0.058831602
37	0xbd86641a	-0.065620616
38	0xbbb742ad	-0.005592665
39	0xbd4f9d19	-0.05068693
40	0xbd45d94f	-0.048302945
41	0xbd1c84da	-0.038212635
42	0x3d088aa8	0.033335358
43	0xbc03776f	-0.008024081
44	0xbc374ac8	-0.011187263
45	0x3d1422b2	0.0361659
46	0x3bb77140	0.0055982172
47	0x3d716300	0.058932304
48	0x3d8cf1d8	0.068820655
49	0xbce0ee83	-0.027457481
50	0x3c8e41b6	0.017365318
51	0x3de982cf	0.11401903
52	0xbc804fb0	-0.015662998
53	0xbc5ab316	-0.0133483615
54	0x3c4bed56	0.012446722
55	0xbbb9c9a9	-0.0056697917
56	0xbc0371d8	-0.008022748
57	0x3d8b89a6	0.06813364
58	0xbc9b514c	-0.018959664
59	0xbce33890	-0.027736932
60	0xbced59f9	-0.028973566
61	0x3d18b770	0.037284315
62	0xbc9b3b69	-0.018949227
63	0xbc9b52b4	-0.018960334
64	0x3cd594fb	0.026072016
65	0xbbb61933	-0.005557203
66	0x3d192e61	0.037397746
67	0x3dbe7502	0.09299661
68	0x3dc37588	0.09543902
69	0x3d7d9849	0.06191281
70	0x3d21e404	0.039524093
71	0xbbda4e29	-0.0066621494
72	0x3b0aea9a	0.0021196962
73	0xbd39a330	-0.045321643
74	0x3bfab376	0.007650788
75	0xbd7d3ac1	-0.06182361
76	0xbc82d2be	-0.01596963
77	0xbd7c9e9b	-0.061674695
78	0x3c0586ea	0.008149842
79	0xbc9a4776	-0.018832903
80	0x3bebbb6e	0.007193974
81	0xbc19215d	-0.009346333
82	0x3d05ca70	0.032663763
83	0xbc7c134c	-0.01538546
84	0x3d8fadfb	0.07015606
85	0x3c22e0eb	0.00994132
86	0xbbce390d	-0.006293422
87	0x3d8774d8	0.06614083
88	0x3d92f4eb	0.07175621
89	0xbd79d941	-0.060998205
90	0xbd301f7a	-0.04299877
91	0xbd543e1e	-0.051817052
92	0xbd285c73	-0.04110379
93	0xbd584776	-0.052802525
94	0xbc4ce2a0	-0.0125052035
95	0x3d1f9482	0.038959987
96	0xbd1270c6	-0.03575208
97	0xbcdc52e8	-0.026895002
98	0x3d8605e3	0.065440916
99	0x3dc12b1c	0.094320506
100	0xbd57e56e	-0.052709036
101	0xbd0dacce	-0.034588628
102	0x3d3fee28	0.046857983
103	0x3c4cca2c	0.012499373
104	0x3daa9b78	0.083304346
105	0xbcf6084b	-0.030033251
106	0x3cf003fb	0.029298773
107	0xbb9ba3c8	-0.004749749
108	0xbc448218	-0.011993907
109	0xbc4bbed7	-0.0124356365
110	0xbc9664e3	-0.018358653
111	0x3ced0a98	0.028935716
112	0x3d8606ba	0.06544252
113	0x3cd3c378	0.025850043
114	0xbcb42d82	-0.021994356
115	0x3d0f2b66	0.034953497
116	0x3daa58cc	0.08317718
117	0xbcc4e91f	-0.024036942
118	0x3d2f48eb	0.04279415
119	0xbb9b4d47	-0.004739437
120	0xbb23e010	-0.0025005378
121	0xbd2c62c0	-0.042086363
122	0xbd96be7c	-0.07360551
123	0x3c902b18	0.017598674
124	0x3c1e7e26	0.009673631
125	0x3c428c91	0.011874334
126	0x3c28c3fc	0.010300633
127	0x3c9febce	0.01952162
128	0x3cef571c	0.029216342
129	0xbdaddc5c	-0.08489296
130	0xbcb1a011	-0.02168277
131	0x3d1c153f	0.0381062
132	0x3c121fb6	0.008918693
133	0x3d45a6e5	0.048254866
134	0x3d561c6d	0.052273203
135	0x3b5d03b6	0.0033724136
136	0x3dd9d404	0.10636142
137	0x3dbebfec	0.0931395
138	0xbbafebc5	-0.005368682
139	0xbd796a72	-0.06089253
140	0xbb9f7f44	-0.004867466
141	0x3cc85223	0.024453228
142	0xbafae668	-0.0019142153
143	0x3d78d938	0.06075403
144	0x3baa42c1	0.005195946
145	0xbcab144b	-0.0208837
146	0xbd3aa59c	-0.045568094
147	0x3d1872a7	0.037218716
148	0x3c7d409b	0.015457298
149	0x3cbb3410	0.022851974
150	0x3b55652b	0.0032561522
151	0xbc77d1b0	-0.015125677
152	0xbd6998ab	-0.05703036
153	0xbd276c7e	-0.04087495
154	0x3d4804f3	0.048832845
155	0x3d04d4c4	0.03242947
156	0xbd9bb77b	-0.076033555
157	0x3c92f320	0.017938197
158	0x3bc5cdf3	0.006036514
159	0xbd114da0	-0.03547442
160	0x3b775664	0.0037740702
161	0xbc8d0ff8	-0.017219529
162	0xbbe463e7	-0.006969917
163	0x3d0c246e	0.03421443
164	0xbd00569b	-0.031332593
165	0xbd16d788	-0.03682664
166	0xbd34ca24	-0.04413809
167	0x3d975888	0.07389933
168	0x3d03252d	0.032017875
169	0xbd831afa	-0.0640163
170	0x3c378322	0.011200698
171	0xbc06b3c6	-0.008221572
172	0xbcd2c1e5	-0.025727222
173	0xbd0433c4	-0.03227593
174	0x3d242b35	0.040080268
175	0x3d8c78e6	0.06858997
176	0x3c438d49	0.0119355405
177	0xbd65b0ae	-0.056076698
178	0x3d2fca10	0.04291731
179	0xbca3e79a	-0.020007897
180	0x3bc92471	0.0061383774
181	0xbd533f1d	-0.05157386
182	0xbd06bf7d	-0.03289746
183	0xbd2a7175	-0.041612107
184	0xbc4f0fe7	-0.012638069
185	0xbbb2fd60	-0.0054623336
186	0x3e0b5956	0.13608298
187	0xbc98cba0	-0.018651783
188	0x3d29efbc	0.041488394
189	0xbd87aa04	-0.06624225
190	0x3beac730	0.0071648583
191	0xbd677847	-0.05651119
192	0x3e334830	0.17508006
193	0x3d3c4ddf	0.0459727
194	0x3d0614d5	0.03273471
195	0xbb9fdf23	-0.004878895
196	0x3c92d8c7	0.017925633
197	0xbd2ea702	-0.04263974
198	0xbd1677b4	-0.03673525
199	0x3c3c785b	0.011503304
200	0x3db9e5a6	0.09077005
201	0x3daf8a1b	0.085712634
202	0x3c5f75e8	0.013638951
203	0xbd7c69e7	-0.061624434
204	0x3d120476	0.035648786
205	0xbc880e7c	-0.01660847
206	0x3bb812a0	0.0056174546
207	0x3ca00428	0.019533232
208	0x3d2f8f39	0.042861197
209	0xbcecc118	-0.028900668
210	0xbcb39a1f	-0.021924077
211	0xbdb11028	-0.0864566
212	0x3d73f3f9	0.059558842
213	0xbd2df4e8	-0.04246989
214	0x3d11a9cd	0.035562325
215	0x3d810f35	0.06301729
216	0x3cc9bacb	0.024625203
217	0xbca08bf3	-0.019597983
218	0xbd8300c3	-0.0639663
219	0x3c245a20	0.010031253
220	0x3d3cf212	0.046129294
221	0x3d4a8e8e	0.049452357
222	0xbc981b4e	-0.018567707
223	0xbc95eaaf	-0.018300382
224	0xbb5b0a58	-0.0033422913
225	0xbd8066c9	-0.06269605
226	0xbd11545f	-0.035480853
227	0xbc82ccc1	-0.015966775
228	0x3d5b453e	0.05353283
229	0xbdca475d	-0.09876893
230	0xbd1e8366	-0.03869953
231	0x3d308684	0.043097034
232	0x3d08bf52	0.033385582
233	0x3d4ecec0	0.05049014
234	0x3ad0d64c	0.0015933006
235	0xbc8f5122	-0.017494742
236	0x3c950bdd	0.018194133
237	0x3cd62718	0.026141688
238	0x3cd10193	0.025513446
239	0xbd1b1f7a	-0.037871815
240	0x3c7c20f1	0.015388713
241	0xbd8f4f50	-0.069975495
242	0x3dc0217d	0.093813874
243	0x3cad0d13	0.021124398
244	0x3d60a2cb	0.05484275
245	0x3d27c436	0.040958606
246	0xbcc4872d	-0.023990238
247	0x3c8e0f61	0.017341318
248	0xbc388f5a	-0.011264646
249	0xbd7f0e8d	-0.062269736
250	0x3d0f5ac1	0.03499866
251	0xbbd07d84	-0.006362619
252	0x3c22bdb6	0.009932926
253	0x3d200843	0.03907038
254	0x3c76eb18	0.015070699
255	0x3d39406d	0.045227457

policy_network.6.bias f4 [128]
0	0xbd4afe0c	-0.049558684
1	0xbd9b4d9c	-0.07583162
2	0xbc5cd2c8	-0.013477989
3	0xbcad07a1	-0.021121802
4	0x3d8f0166	0.069826886
5	0xbd95cf91	-0.07314981
6	0xbd512abf	-0.051066156
7	0x3c5fda5c	0.013662901
8	0xbbd28168	-0.006424118
9	0x3c029df7	0.007972232
10	0x3c996079	0.01872276
11	0x3db60ba6	0.088889405
12	0xbd587aa1	-0.052851323
13	0xbccd844b	-0.025087496
14	0x3b46accc	0.0030315397
15	0xbd450bb5	-0.048106868
16	0x3c646368	0.013939716
17	0xbd7b0905	-0.0612879
18	0xbd16ea81	-0.036844734
19	0xbd8abf21	-0.06774736
20	0xbd1fd593	-0.03902204
21	0xbd285eac	-0.04110591
22	0xbd6904b2	-0.056889243
23	0xbcc65913	-0.024212396
24	0x3c98bae4	0.018643804
25	0x3ca95e0b	0.020674726
26	0xbd4207be	-0.047370665
27	0x3c341c27	0.01099304
28	0xbd2a1559	-0.041524265
29	0x3af1b776	0.0018441516
30	0x3cbe202a	0.023208696
31	0xbd80ef95	-0.06295697
32	0xbd33b9b4	-0.043878272
33	0x3d8aa6a1	0.06770063
34	0xbd78dda7	-0.06075826
35	0x3c8a1af8	0.016858563
36	0xbd5f6365	-0.05453815
37	0x3d939e6f	0.07207953
38	0x3d0b127d	0.03395318
39	0xbd612446	-0.054966234
40	0x3b338e88	0.0027398188
41	0xbc3fa1fa	-0.011696333
42	0xbdacf262	-0.08444668
43	0xbbd479eb	-0.0064842603
44	0xbc99ab6b	-0.018758496
45	0xbd230df5	-0.039808232
46	0xbd594c33	-0.053051185
47	0xbbd4bb5f	-0.006492063
48	0xbd17d68d	-0.037069846
49	0xbd3962aa	-0.04526011
50	0xbd80f286	-0.06296258
51	0xbc0840de	-0.008316247
52	0xb9c21b5e	-0.00037022954
53	0xbd6d9403	-0.058002483
54	0xbb3e513a	-0.0029040114
55	0x3dbb585b	0.09147712
56	0xbb38948a	-0.0028164708
57	0x3c1e6b04	0.009669069
58	0xbbd8bf8c	-0.006614631
59	0xbb2475ca	-0.0025094622
60	0xbce91a58	-0.028454944
61	0x3c90f256	0.01769368
62	0xbd8a99f2	-0.06767644
63	0xbd8861df	-0.066592924
64	0xbd4c1f2c	-0.049834415
65	0x3db95c9b	0.09050866
66	0xbd27cac5	-0.04096486
67	0xbd7a9322	-0.061175473
68	0xbd4b9fa1	-0.04971278
69	0xbd529700	-0.051413536
70	0xbd2974cb	-0.041371148
71	0xbbb87543	-0.005629213
72	0x3b1dcbc8	0.0024077762
73	0x3db9802e	0.090576515
74	0xbcb5e46a	-0.022203643
75	0xbd8d5adf	-0.06902098
76	0x3b0012c5	0.0019542438
77	0xbd7ea405	-0.06216814
78	0x3d9d6932	0.0768608
79	0x3c7c7835	0.015409519
80	0xbcd22390	-0.025651723
81	0xbccc9c62	-0.024976913
82	0x3bc30a7f	0.005952179
83	0xbd744444	-0.059635416
84	0xbc9b5751	-0.018962534
85	0xbd3fa4cd	-0.046788026
86	0xbcdb2089	-0.026748912
87	0x3cc58c0c	0.024114631
88	0xbcf35408	-0.029703155
89	0xbd067f6e	-0.03283637
90	0x3d2e859e	0.042607896
91	0xbc4041b1	-0.011734412
92	0x3b4988b6	0.0030751652
93	0x3c8ce51d	0.017199093
94	0x3bb29cb2	0.0054508084
95	0xbccfaf47	-0.025352133
96	0xbd2f8013	-0.04284675
97	0xbd4e7608	-0.050405532
98	0xbcef1ff0	-0.029190034
99	0xbd22f769	-0.03978673
100	0xbd07ac67	-0.0331234
101	0xbd81aec5	-0.06332163
102	0x3d14496b	0.03620283
103	0x3db18a42	0.08668949
104	0xbd93a8c3	-0.07209923
105	0x3ccb3d09	0.024809377
106	0x3d7b05ee	0.061284952
107	0x3d311649	0.043234143
108	0xbb5b0854	-0.0033421712
109	0xbc96f46c	-0.018427096
110	0xbd880f51	-0.066435464
111	0xbd962727	-0.073316865
112	0xbc5cf0d9	-0.013485157
113	0xbb1fb57b	-0.0024369645
114	0xbbab79d3	-0.0052330284
115	0xbd2eda73	-0.0426888
116	0xbce7498f	-0.028233318
117	0xbcceefdb	-0.025260856
118	0x3c90e6ce	0.017688181
119	0xbd897244	-0.067112476
120	0x3d309cfa	0.043118455
121	0xbbb41ed4	-0.005496839
122	0xbd05ba38	-0.032648295
123	0x3cfd6717	0.030932946
124	0xbca0ab1f	-0.019612847
125	0x3aa1fa5d	0.0012357939
126	0x3cacac82	0.021078352
127	0x3c5d8fbd	0.013523039

policy_network.9.weight f4 [7, 128]
0	0x3d1d0592	0.03833539
1	0xbd035c66	-0.03207054
2	0x3d8aec5c	0.06783363
3	0x3d9ae6d4	0.07563558
4	0x3bd28c97	0.006425451
5	0xbd965c48	-0.0734182
6	0x3c86e46c	0.016466342
7	0xbd96d055	-0.07363955
8	0xbd1dc614	-0.03851898
9	0xbd513d43	-0.051083814
10	0xbcd4fb1d	-0.025998646
11	0xbcec0f87	-0.028815998
12	0x3b0e07c7	0.0021672116
13	0xbd97c60b	-0.074108206
14	0xbdaf62e2	-0.08563782
15	0x3cd64c8f	0.026159553
16	0xbc833813	-0.01601795
17	0x3c8689cb	0.016423127
18	0xbda27703	-0.07932856
19	0x3d6370af	0.055527385
20	0xbcf62e26	-0.030051302
21	0x3cdc1618	0.026866004
22	0xbd9cef49	-0.076628275
23	0xbd968e19	-0.07351322
24	0x3c39267d	0.01130068
25	0x3cd08efa	0.025458802
26	0xbc990acf	-0.018681912
27	0x3c5dfa24	0.013548408
28	0xbd9aac7c	-0.0755243
29	0xbcfdeb67	-0.030996038
30	0xbc9aa83b	-0.018879047
31	0x3db41d45	0.08794645
32	0xbd9d422b	-0.07678636
33	0xbd47214f	-0.04861575
34	0xbc617e4d	-0.013763023
35	0xbd561ee6	-0.05227556
36	0x3d8a381c	0.06748983
37	0xbd7f1801	-0.06227875
38	0x3d08eb95	0.033427794
39	0xbda235fd	-0.07920454
40	0x3cfe5eb0	0.03105101
41	0xbd068172	-0.032838292
42	0x3c6d826e	0.014496429
43	0x3d84f3b3	0.064917944
44	0x38bb3ac4	8.927801e-05
45	0xbd779bd5	-0.060451347
46	0xbd5484f1	-0.051884595
47	0xbbfeabd5	-0.007771949
48	0x3c2dd238	0.010609202
49	0xbc582d66	-0.013194418
50	0x3d5afc68	0.05346337
51	0xbd523d83	-0.051328193
52	0x3d885f1b	0.06658765
53	0xbd95aff8	-0.07308954
54	0x3c035ce7	0.008017755
55	0x3cf04961	0.029331865
56	0x3d5f9774	0.054587796
57	0x3cb1c1ae	0.021698799
58	0x3c2e3c02	0.010634424
59	0x3d90c056	0.07067935
60	0xbd300f35	-0.042983253
61	0x3d7de8de	0.061989658
62	0xbd89302c	-0.06698641
63	0x3d6421af	0.055696186
64	0x3cc6fb6b	0.024289807
65	0x3c1b7fb7	0.009490899
66	0x3c04f475	0.008114924
67	0x3c33d377	0.01097571
68	0x3d40d458	0.047077507
69	0x3d0e1353	0.034686398
70	0x3cd838ec	0.02639433
71	0xbd3e943d	-0.04652809
72	0x3d991b4d	0.0747591
73	0xbace5cf2	-0.0015744253
74	0x3c58a6e3	0.013223383
75	0x3d49b0fe	0.04924106
76	0xbca2985b	-0.01984804
77	0x3d7337ca	0.059379376
78	0xbb75c459	-0.0037501066
79	0x3acb82c2	0.001552664
80	0xbc3c068f	-0.011476173
81	0x39619768	0.00021514075
82	0xbb812d7f	-0.003942191
83	0x3c281481	0.010258795
84	0x3c9d3518	0.019190356
85	0x3cb097e1	0.021556797
86	0xbd819b4f	-0.06328451
87	0x3b0e6d4f	0.0021732633
88	0xbc9be78d	-0.01903131
89	0x3d01226b	0.031526964
90	0xbd8c7fa9	-0.06860287
91	0xbc3aab1f	-0.0113933375
92	0x3da8e32f	0.08246457
93	0xbc89fe90	-0.016845018
94	0xbd2bce1b	-0.041944604
95	0xbd81fe94	-0.06347385
96	0xbd1cdfdb	-0.038299423
97	0x3d3031ed	0.043016363
98	0x3d4bba30	0.04973811
99	0xbcc967d0	-0.024585634
100	0xbc48d061	-0.012256713
101	0x3d88c48b	0.066781126
102	0xbc4912a7	-0.0122725135
103	0x3c2ef918	0.010679506
104	0x3bacb105	0.005270126
105	0xbda01456	-0.07816379
106	0x3db26a92	0.08711733
107	0x3d8333ae	0.064063415
108	0xbd4cb40d	-0.049976397
109	0xbd82c73b	-0.063856564
110	0xbd609abb	-0.054835062
111	0xbd42c540	-0.047551394
112	0x3c4c46ac	0.012468021
113	0xbd84b9a9	-0.06480724
114	0x3b46f258	0.003035685
115	0xbd796ff1	-0.06089777
116	0xbd90ae7a	-0.07064529
117	0xbd93ec10	-0.0722276
118	0x3d7ae87b	0.061256867
119	0x3d4678db	0.0484551
120	0x3cfcc7a5	0.030856917
121	0xbc5fa9f9	-0.0136513645
122	0x3d2e01f7	0.042482343
123	0xbc582c24	-0.013194118
124	0xbb95eb22	-0.004575149
125	0xbd91a7d4	-0.07112089
126	0x3cc2341d	0.02370649
127	0xbccb4880	-0.024814844
128	0xbc45875b	-0.012056197
129	0x39e37b23	0.00043388558
130	0x3d491f5f	0.049102183
131	0x3ca91e76	0.020644408
132	0x3ccbbb0b	0.024869462
133	0xbd279996	-0.040917955
134	0x3da0c20f	0.07849514
135	0xbc976f84	-0.018485792
136	0x3d9d63fc	0.07685086
137	0x3cd934a6	0.026514363
138	0xbd53eb36	-0.051737987
139	0x3caebd1e	0.021330412
140	0xbb2c8da4	-0.0026329542
141	0xbd88bc1a	-0.066765025
142	0x3c84ff45	0.016235003
143	0xb9f92914	-0.00047523587
144	0xbc77efe7	-0.015132881
145	0xbbd223be	-0.006412952
146	0xbd4bd2cf	-0.04976159
147	0xbd04868a	-0.03235487
148	0xbc62486d	-0.013811213
149	0x3c2d4d45	0.0105775045
150	0x3a500f6a	0.0007936867
151	0x3d55994b	0.052148145
152	0xbcd3c440	-0.025850415
153	0xbcedfd40	-0.029051423
154	0xbd00221e	-0.031282537
155	0xbd061b7e	-0.032741062
156	0xbd9aaf73	-0.075529955
157	0x3c5e1994	0.013555903
158	0xbca5eae6	-0.02025361
159	0x3d244989	0.04010919
160	0xbc58ae77	-0.013225189
161	0x3d0558db	0.032555442
162	0xbd83a937	-0.064287595
163	0xbc3d764a	-0.011563847
164	0xbd48e15f	-0.049043056
165	0xbd1cbd4c	-0.038266465
166	0xbc5f2097	-0.01361861
167	0x3d041c08	0.032253295
168	0x3cc20348	0.023683205
169	0x3d92d182	0.07168867
170	0x3ca5c516	0.02023558
171	0x3daaf1f8	0.08346933
172	0x3ca1cd1a	0.01975112
173	0xbd66097e	-0.056161396
174	0x3db2d7cb	0.087325655
175	0x3c42e50b	0.011895428
176	0xbb065d31	-0.0020502324
177	0xbc1e7963	-0.009672496
178	0x3ccfc092	0.02536038
179	0xbd89862b	-0.06715044
180	0x3c75dcc7	0.015006251
181	0x3d8fe070	0.0702523
182	0x3cd16232	0.025559518
183	0xbc0f6a10	-0.008753315
184	0x3d6c108d	0.05763297
185	0x3cdbccc4	0.026831038
186	0xbaa177ef	-0.0012319068
187	0xbd5ff487	-0.05467656
188	0x3c8834ed	0.0166268
189	0x3d3676a6	0.044546746
190	0x3d62cff4	0.0553741
191	0xbc969f35	-0.018386463
192	0xbd87ef75	-0.0663747
193	0xbb5fc064	-0.0034141773
194	0xbb76b290	-0.0037643053
195	0x3d3e380e	0.046440177
196	0xbcfdc7ea	-0.030979116
197	0x3d68abdb	0.05680452
198	0xba8cc63b	-0.001074023
199	0xbd433bfb	-0.047664624
200	0xbb1bf550	-0.002379734
201	0xbc05a36f	-0.008156641
202	0xbd66c622	-0.056341298
203	0xb9a342fd	-0.00031139693
204	0xbc267ec8	-0.010162063
205	0x3d80ea44	0.062946826
206	0xbcc7fc88	-0.024412408
207	0xbc2b12a6	-0.010441458
208	0xbb269ddf	-0.0025423688
209	0xbc60eda7	-0.013728536
210	0x3bc0e126	0.005886215
211	0xbd85cba6	-0.065329835
212	0x3d0d5df5	0.034513433
213	0xbd9cabac	-0.07649931
214	0xbd384137	-0.04498407
215	0xbc8a3ec4	-0.016875632
216	0x3cb59c0a	0.022169132
217	0x3ce36fce	0.027763274
218	0x3cc5a76b	0.024127683
219	0xbb27d3c8	-0.002560841
220	0x3ca23782	0.019801859
221	0x3cea77bd	0.028621549
222	0xbbb59f17	-0.0055426466
223	0xbc767dd3	-0.015044647
224	0x3d49531e	0.049151532
225	0xbd6c66a6	-0.05771508
226	0xbbff6d70	-0.0077950284
227	0xbda3fc59	-0.08007116
228	0xbbf9fc18	-0.007628929
229	0x3d99cd5b	0.075098716
230	0x3ba94f57	0.0051669287
231	0x3bc5df3d	0.006038575
232	0xbb67bdea	-0.0035361
233	0xbcbae0e5	-0.022812316
234	0x3c8401cc	0.016114138
235	0x3d3f451a	0.04669676
236	0xbd6f4d2a	-0.0584232
237	0xbc6ce27a	-0.014458293
238	0x3aeb85fa	0.0017969005
239	0xbc1b4111	-0.009475962
240	0xbcb433ae	-0.021997299
241	0xbd3af7a4	-0.045646325
242	0xbd9f2ec6	-0.07772593
243	0x3c93415f	0.017975507
244	0xbdb767dc	-0.089553565
245	0x3b8fc1bb	0.004387108
246	0xbd26d749	-0.040732656
247	0x3d2a9c08	0.04165271
248	0x3aa9830e	0.0012932734
249	0x3c98b435	0.018640617
250	0x3b57a9fc	0.0032907715
251	0x3b1c9ffd	0.0023899071
252	0xbcb29961	-0.021801652
253	0x3c715372	0.014729368
254	0x3d2741c7	0.040834215
255	0x3d61dc71	0.05514187

policy_network.9.bias f4 [7]
0	0x3bf14848	0.007363353
1	0x3b793bbe	0.0038029994
2	0x3aea7e29	0.0017890382
3	0xbaebf8e6	-0.0018003255
4	0xbab52c9d	-0.00138225
5	0x3b2cfa2e	0.0026394236
6	0x3ccb4441	0.02481282

exp_avg f4 [128, 15]
0	0xb9833299	-0.00025023965
1	0xb88d065b	-6.724588e-05
2	0x390fc529	0.0001371099
3	0xb935c9cf	-0.00017336685
4	0xb8ea70c6	-0.00011178995
5	0x3938b402	0.00017614666
6	0x3809f6f8	3.2893353e-05
7	0xb74097aa	-1.1479404e-05
8	0xb728cb9d	-1.0060988e-05
9	0x38450fd7	4.6983212e-05
10	0x3850aea3	4.9753708e-05
11	0xb6202cb0	-2.386787e-06
12	0xb5a222be	-1.2080052e-06
13	0xb3b717b6	-8.5259146e-08
14	0x338beb17	6.5154545e-08
15	0x39102b0a	0.00013748943
16	0x3812f99b	3.5041576e-05
17	0xb8c94e71	-9.599038e-05
18	0x3904fb66	0.00012682154
19	0x388d55b6	6.739369e-05
20	0xb90c8ec2	-0.00013404622
21	0xb7a78f74	-1.9974752e-05
22	0xb6e099c8	-6.6936227e-06
23	0x373fbedc	1.1428925e-05
24	0xb7fdc3df	-3.025116e-05
25	0xb800cf2a	-3.0710515e-05
26	0x33d2e3ca	9.8203216e-08
27	0x35a67f1d	1.2404959e-06
28	0xb4b6243e	-3.392651e-07
29	0x348c5dff	2.6145423e-07
30	0xb845a99a	-4.7126414e-05
31	0xb71f308f	-9.488444e-06
32	0x37de9ee3	2.653845e-05
33	0xb82c2a75	-4.1047537e-05
34	0xb7d8cbaf	-2.5844054e-05
35	0x38626c77	5.3983615e-05
36	0x371defef	9.413793e-06
37	0x366ac5e8	3.4983914e-06
38	0xb680e752	-3.8416265e-06
39	0x374118ef	1.1509502e-05
40	0x3738de41	1.1019002e-05
41	0xb5227df5	-6.0532994e-07
42	0xb3b66d9b	-8.4949725e-08
43	0xb4d5ffa8	-3.9860356e-07
44	0x332db44c	4.044368e-08
45	0x00000000	0.0
46	0x00000000	0.0
47	0x00000000	0.0
48	0x00000000	0.0
49	0x00000000	0.0
50	0x00000000	0.0
51	0x00000000	0.0
52	0x00000000	0.0
53	0x00000000	0.0
54	0x00000000	0.0
55	0x00000000	0.0
56	0x00000000	0.0
57	0x00000000	0.0
58	0x00000000	0.0
59	0x00000000	0.0
60	0xb9c0f34f	-0.00036802373
61	0xb8c3a5e6	-9.3292256e-05
62	0x39341d36	0.0001717702
63	0xb96f3344	-0.00022811914
64	0xb920bfd9	-0.00015330258
65	0x39732755	0.00023188938
66	0x3860f2e1	5.363196e-05
67	0xb7ec87b1	-2.8196579e-05
68	0xb72c5f0e	-1.0274131e-05
69	0x388bd66a	6.667974e-05
70	0x3890dd96	6.907729e-05
71	0xb59d3479	-1.1712683e-06
72	0x330405a6	3.0738782e-08
73	0x33edd0f3	1.107418e-07
74	0x335422c7	4.9391726e-08
75	0x00000000	0.0
76	0x00000000	0.0
77	0x00000000	0.0
78	0x00000000	0.0
79	0x00000000	0.0
80	0x00000000	0.0
81	0x00000000	0.0
82	0x00000000	0.0
83	0x00000000	0.0
84	0x00000000	0.0
85	0x00000000	0.0
86	0x00000000	0.0
87	0x00000000	0.0
88	0x00000000	0.0
89	0x00000000	0.0
90	0xb301ff80	-3.026753e-08
91	0xb2325e57	-1.0382414e-08
92	0x32a81864	1.9568866e-08
93	0xb2d3cf52	-2.4657911e-08
94	0xb291d155	-1.6975415e-08
95	0x332f7635	4.085287e-08
96	0x31c36742	5.686986e-09
97	0x314b05c3	2.9543663e-09
98	0xb0ac58ab	-1.2539848e-09
99	0x32181d65	8.854248e-09
100	0x31ce9937	6.0128076e-09
101	0xb01a8448	-5.6212857e-10
102	0xaf1d2b36	-1.4294418e-10
103	0x325bc920	1.2793208e-08
104	0x32373d5c	1.06659535e-08
105	0x00000000	0.0
106	0x00000000	0.0
107	0x00000000	0.0
108	0x00000000	0.0
109	0x00000000	0.0
110	0x00000000	0.0
111	0x00000000	0.0
112	0x00000000	0.0
113	0x00000000	0.0
114	0x00000000	0.0
115	0x00000000	0.0
116	0x00000000	0.0
117	0x00000000	0.0
118	0x00000000	0.0
119	0x00000000	0.0
120	0x00000000	0.0
121	0x00000000	0.0
122	0x00000000	0.0
123	0x00000000	0.0
124	0x00000000	0.0
125	0x00000000	0.0
126	0x00000000	0.0
127	0x00000000	0.0
128	0x00000000	0.0
129	0x00000000	0.0
130	0x00000000	0.0
131	0x00000000	0.0
132	0x00000000	0.0
133	0x00000000	0.0
134	0x00000000	0.0
135	0x00000000	0.0
136	0x00000000	0.0
137	0x00000000	0.0
138	0x00000000	0.0
139	0x00000000	0.0
140	0x00000000	0.0
141	0x00000000	0.0
142	0x00000000	0.0
143	0x00000000	0.0
144	0x00000000	0.0
145	0x00000000	0.0
146	0x00000000	0.0
147	0x00000000	0.0
148	0x00000000	0.0
149	0x00000000	0.0
150	0x3819b927	3.665048e-05
151	0x37224f47	9.674411e-06
152	0xb79f59a4	-1.899602e-05
153	0x37c5675a	2.3532357e-05
154	0x3783c5ad	1.5708467e-05
155	0xb7c15da2	-2.3050994e-05
156	0xb691f7a2	-4.350165e-06
157	0x3628c1ce	2.514676e-06
158	0x35ac6a7f	1.2845993e-06
159	0xb6de0c01	-6.617513e-06
160	0xb6e62e3a	-6.8599156e-06
161	0x34d1fcdc	3.9113263e-07
162	0x34c39b34	3.6434506e-07
163	0xb402b11c	-1.2171625e-07
164	0xb2dc6d5a	-2.5661098e-08
165	0x00000000	0.0
166	0x00000000	0.0
167	0x00000000	0.0
168	0x00000000	0.0
169	0x00000000	0.0
170	0x00000000	0.0
171	0x00000000	0.0
172	0x00000000	0.0
173	0x00000000	0.0
174	0x00000000	0.0
175	0x00000000	0.0
176	0x00000000	0.0
177	0x00000000	0.0
178	0x00000000	0.0
179	0x00000000	0.0
180	0x00000000	0.0
181	0x00000000	0.0
182	0x00000000	0.0
183	0x00000000	0.0
184	0x00000000	0.0
185	0x00000000	0.0
186	0x00000000	0.0
187	0x00000000	0.0
188	0x00000000	0.0
189	0x00000000	0.0
190	0x00000000	0.0
191	0x00000000	0.0
192	0x00000000	0.0
193	0x00000000	0.0
194	0x00000000	0.0
195	0x00000000	0.0
196	0x00000000	0.0
197	0x00000000	0.0
198	0x00000000	0.0
199	0x00000000	0.0
200	0x00000000	0.0
201	0x00000000	0.0
202	0x00000000	0.0
203	0x00000000	0.0
204	0x00000000	0.0
205	0x00000000	0.0
206	0x00000000	0.0
207	0x00000000	0.0
208	0x00000000	0.0
209	0x00000000	0.0
210	0x37b6bf1b	2.1785081e-05
211	0x3719478b	9.136168e-06
212	0xb6c193f5	-5.7690727e-06
213	0x36d72fe0	6.4130727e-06
214	0x3701533b	7.708378e-06
215	0xb72e8bb3	-1.0403734e-05
216	0xb67c6ff9	-3.7616103e-06
217	0x365840b7	3.2224177e-06
218	0xb5f0d69d	-1.7943854e-06
219	0xb66517e8	-3.4137574e-06
220	0xb689a8e1	-4.1025783e-06
221	0xb4fa126e	-4.6579538e-07
222	0xb50c65a5	-5.2301976e-07
223	0x34c6b648	3.7013e-07
224	0xb3fa48f0	-1.16547994e-07
225	0x00000000	0.0
226	0x00000000	0.0
227	0x00000000	0.0
228	0x00000000	0.0
229	0x00000000	0.0
230	0x00000000	0.0
231	0x00000000	0.0
232	0x00000000	0.0
233	0x00000000	0.0
234	0x00000000	0.0
235	0x00000000	0.0
236	0x00000000	0.0
237	0x00000000	0.0
238	0x00000000	0.0
239	0x00000000	0.0
240	0xb69cde12	-4.6750147e-06
241	0xb5e3e96c	-1.6980753e-06
242	0x35f11c6f	1.7964175e-06
243	0x3429b670	1.5805722e-07
244	0x34b59ab6	3.3826444e-07
245	0xb6e22cd5	-6.740544e-06
246	0xb5914e75	-1.0826176e-06
247	0xb6372c6f	-2.7294989e-06
248	0x34d067dc	3.8818587e-07
249	0xb4bc68f3	-3.509409e-07
250	0x328c7e54	1.6355592e-08
251	0x3422d7bc	1.516591e-07
252	0x33f66120	1.14729346e-07
253	0x000014f1	7.512e-42
254	0x0f52b847	1.038929e-29
255	0x37c59bd2	2.355679e-05
