robot_state_berkeley_training/robot_state_epoch_9.pth (torch, 838027 bytes, 24 tensors)

policy_network.0.weight f4 [128, 15]
00000000: 0803 86bd 337c eabc 42ef 6a3e ec3e f73d
00000010: 1b22 cf3d 4c66 3a3c 6461 033e 0ee9 bdbd
00000020: 7a06 2b3e 2c00 583e c16f f4bd 10df e23e
00000030: 5f84 133e ff56 903e 9110 a23e 3721 e33d
00000040: 47b3 043e f05d e9bd e9bf 2abe d0dc 74bd
00000050: f2c8 fb3d c595 c53d fceb 85bd ae63 a9be
00000060: 3073 28bd a75f 06be 2cd3 363d 39bd 5ebe
00000070: 7514 7d3e d4a6 5b3d 8c3f 243c 7bdd 7ebd
00000080: bd34 69be e469 563d 599f 03bd 9f0f 113e
00000090: 4389 383e 0475 873e 514e 4a3e 27aa 11be
000000a0: 45e0 7e3e ac2b 92bd f44d 0fbe 744e 413e
000000b0: d7c1 3cbe 7dca 453e cc0a 05be 5d2d 54bd
000000c0: 5aa1 c3bd c978 04be 0089 41be c932 073c
000000d0: b085 383e ebc2 6f3e 31cb 73bd fa5c 7cbd
000000e0: ee07 123e 918d 85bd 91ce 903d 186a d1bb
000000f0: 76ce 873d 91c6 03bd b64c 463e 9f2f 67be
00000100: a9bd 85bc 1e29 86be 9400 953d 494b 82bd
00000110: 7ecd 1bbe 2253 ba3d 4ffd c4bd 1e74 e13e
00000120: e9d1 8cbe 8933 a13e 4655 a43e d1a6 803c
00000130: 92f1 983d 39bf 5e3c ef91 e7bd e76c 513d
00000140: 6273 a9bd aea0 44be 9f65 43be 3bb2 743e
00000150: c04a 58bc 76a9 16be eab8 de3d 64b4 6abe
00000160: 3592 80be bc4d 50be 8f96 90bd 2138 873e
00000170: 527a de3d 50d5 413e 7b26 18be a6be 013e
00000180: 0401 34be e4f7 7cbe cd82 163e 9846 973b
00000190: a5a3 febd 0302 943c 6e2b 3ebe 50f1 0e3c
000001a0: 6586 b53d c538 383d d0e5 bcbb d47f 58be
000001b0: a3d0 263e 4e20 493e ee7c 223e 7219 d33d
000001c0: 6091 613d 1bc9 c8bd 024e ee3d 050c b0bd
000001d0: 8f97 023d 7708 1ebe 5a29 1abe da2d 34be
000001e0: a627 2dbd 04c5 1c3e 1991 51be b983 ed3d
000001f0: dfc8 653e c179 64be 5fc3 283e 12a7 42be
00000200: 78ff 403e 569b 30be 21d9 bc3d c218 803e
00000210: ca1b 503d fc4d 14be b7da aebd 969f dcbd
00000220: f118 3bbe 73a1 5ebe 4300 823e e31a dcbd
00000230: c3ef e9bd d240 823e 89f1 273e 1344 783e
00000240: 293f 213e 6b25 cbbd 63e1 bb3d a06c 4d3e
00000250: 8465 243e e0c8 53be eacf 5abe d7bf b63c
00000260: b0e2 15be 6541 b8bd 343a 35be 2b45 07be
00000270: 04d7 43be 4435 fbbd 0983 3dbe 466c a53c
00000280: 8849 6bbe 7bca cebd e2d5 b43d 782e 633e
00000290: 26d9 98bc 32c9 6b3e 8145 5b3d f0a8 0d3e
000002a0: 240b 233d ac02 c2bd b481 4fbe 9cba 66bb
000002b0: 1421 1dbe 43f4 72be 843a eb3d ab71 663c
000002c0: 6b03 803e 4399 363e 7497 04be c0ec 153e
000002d0: fc25 513e 3939 2bbe d905 6cbe d42a 4a3e
000002e0: 70fb 20be 4608 da3d 50ce 6fbe 5bed 78bd
000002f0: a62a 06b9 f82a 43be 43e2 2f3e b7d5 27bc
00000300: 0623 623e 2d9f 3d3e 2fcd 4bbd 6d4c 7f3e
00000310: 2e18 843d c179 4f3e e549 463e 08ac 083e
00000320: 50ad 2ebe e81d 2e3e 2cdd 81be 13c1 0ebe
00000330: 5b79 37be f8f2 07be ab27 6f3e 31cb 973b
00000340: 943a 67bd 3e2e 813e 5fe3 47be 11f1 4bbe
00000350: 21e9 8ebe e191 f1bd dc67 e9bd 8c10 723d
00000360: 042f 223d a6d4 5d3e d56e ad3e f151 98be
00000370: a31f 9cbe c760 9dbe 27b3 683e bdd0 89bd
00000380: a9f9 5d3d 0c31 7bbd ecb4 343e 443a 76be
00000390: fd6b 283e 2d14 513e 1abe 67bc 61e4 13be
000003a0: 2191 f3bd bf5d 45bd 6126 c93d 2ae4 e23d
000003b0: 6ed2 53be c2c9 44be 8aef b73d 95c8 07be
000003c0: 0718 42be 0fb1 893e bd89 2c3e 510c e63d
000003d0: a1cd 583e c2ae 163e 1a79 c7bd 6baf f33c
000003e0: 91fd 583e 4c75 6ebe a683 c5bd deb6 d6bd
000003f0: d70d 9fbd 3a5d babe 9684 96be d2b0 1ebd
-0.06543547 -0.028623676 0.22942832 0.12072548 0.10113927 0.011376929 0.1283012 -0.09272967
0.1670169 0.21093816 -0.11935378 0.44310808 0.14405964 0.28191373 0.31653264 0.110903196
0.12959014 -0.1139487 -0.1667477 -0.059780896 0.12294187 0.09647707 -0.06539151 -0.33083862
-0.041125476 -0.13122426 0.044634983 -0.2175187 0.24714835 0.053625897 0.010024916 -0.06222294
-0.22774024 0.05234708 -0.032134388 0.14166115 0.18021111 0.26456463 0.19756438 -0.14225064
0.2489024 -0.07137236 -0.1399458 0.18877584 -0.18433319 0.19315524 -0.129924 -0.051801074
-0.0955226 -0.12936701 -0.18899918 0.008251854 0.18019748 0.23414199 -0.05951995 -0.061612107
0.14260837 -0.06521142 0.070706494 -0.006390821 0.06631176 -0.03217179 0.193652 -0.2257676
-0.016325789 -0.26203245 0.07275501 -0.06362016 -0.15215108 0.090978876 -0.09618627 0.44033903
-0.275039 0.3148463 0.32096308 0.015704544 0.07467951 0.013595396 -0.113071315 0.051129248
-0.08273961 -0.1920192 -0.19081734 0.23896115 -0.013201416 -0.14713082 0.10875113 -0.22920376
-0.25111547 -0.20342153 -0.07059967 0.2641001 0.108631745 0.18929029 -0.14858429 0.12670383
-0.17578512 -0.24703938 0.14698334 0.0046165697 -0.124335565 0.018067366 -0.18571255 0.008724526
0.08863524 0.044976015 -0.0057647005 -0.21142513 0.16290526 0.1964123 0.1586797 0.10307588
0.05507028 -0.09803983 0.116359726 -0.085960425 0.03188282 -0.15432917 -0.15054837 -0.17595616
-0.04227414 0.1530953 -0.20465507 0.1159739 0.22439907 -0.2231207 0.16480778 -0.19009045
0.18847454 -0.17246756 0.092211016 0.2501889 0.05080775 -0.14482874 -0.0853781 -0.10772626
-0.18271233 -0.21741275 0.25390825 -0.10747316 -0.11422684 0.2544008 0.16400732 0.24244718
0.1574675 -0.09919246 0.091738485 0.20060968 0.1605435 -0.20682096 -0.21368375 0.022308273
-0.14637256 -0.08996848 -0.17697984 -0.13209979 -0.1912499 -0.12266019 -0.18507017 0.02019323
-0.22977269 -0.10097214 0.088298574 0.22185695 -0.018658232 0.23025969 0.05353308 0.13833976
0.039805546 -0.09473166 -0.20264322 -0.0035206443 -0.1534465 -0.23725991 0.1148577 0.0140651865
0.25002608 0.17831902 -0.129484 0.14641094 0.20424646 -0.16721047 -0.23049106 0.197429
-0.15720916 0.10646109 -0.23418546 -0.060773235 -0.00012795124 -0.1905936 0.17176156 -0.010243825
0.22083673 0.18517752 -0.049756225 0.24931498 0.064499244 0.20261289 0.19364126 0.13346875
-0.17058301 0.17003596 -0.25364053 -0.1394084 -0.17917387 -0.13276279 0.23354976 0.0046323766
-0.05645235 0.25230592 -0.19520329 -0.19916178 -0.27912238 -0.11795402 -0.11396763 0.05909781
0.03959562 0.2166315 0.3387362 -0.29750016 -0.30492887 -0.30737898 0.22724591 -0.06729267
0.054193173 -0.06132607 0.17647141 -0.24045664 0.16447444 0.20417853 -0.014144445 -0.14442588
-0.118929155 -0.048185106 0.09821773 0.11078675 -0.20685741 -0.1921759 0.08981235 -0.1326011
-0.18954478 0.26892897 0.16849418 0.11232818 0.21172191 0.14715102 -0.09739895 0.029746732
0.21190478 -0.23286933 -0.096442506 -0.10484098 -0.077663116 -0.3639925 -0.2939803 -0.038742848

policy_network.0.bias f4 [128]
00000000: 6b1e 73be 823b 1c3e b079 8bbd 8638 953b
00000010: 6c4a 953d d132 bcbd 5624 073e 68df a53d
00000020: 7592 4c3e 27e6 1a3d 3899 c2bd da87 cd3d
00000030: a246 353e cfa4 303e d0c0 bbbd 0c4a 7e3e
00000040: edc4 123e 5585 48be 37f9 943b 474e cebd
00000050: fce8 423e eb11 d9bd 85d4 3bbe 4d76 67be
00000060: 14ad 1d3e 686a 36be 2836 c83d 4db0 7fbe
00000070: 5636 53be a6ee 143d 33bc 513d d2fd 013e
00000080: 43b7 66be ea46 d9bc d259 71be df4c 44be
00000090: 8765 32be ded5 b53d 00dd 8ebe 9e42 193d
000000a0: 033b a53d a856 2fbc b1be 343d ae09 363e
000000b0: 927f 00bd 4f78 26be b11f 5ebd 825c 683c
000000c0: 155e 41be b084 08be 1e6d 8f3d 8ebf 04be
000000d0: 8eee 30be b2c3 343e 8e9b 353d 6ab0 1c3e
000000e0: 5775 f4bd ada8 1abe 3fa1 413e be98 ccbc
000000f0: e62c 57be d5f9 64be 8665 89bd 559d 123e
00000100: 42fa 2d3e bff1 f33d 8816 493d be69 173e
00000110: 890f b5bd 6aed fabd 7753 16be 1853 f3bc
00000120: 0353 07be efa9 723e 6c3f c5bd 7561 71be
00000130: fde5 0bbe 6952 f83d e757 69be bf3f 8bbd
00000140: 51aa 6b3e 896d d3bd ec31 a43d 3acc 273e
00000150: 0b2b 64bd c93b 1d3d 6821 3bbd 29f1 e7bc
00000160: 6836 383d a36c 363e f22e 2fbe 6348 7b3e
00000170: 3152 80be 35a6 83bc c7bf f3bd 1c0a ddbc
00000180: 6a7f be3d 3c44 683d c92a 0a3e 343e 36be
00000190: 653f ca3c 943e 8cbe db51 683e f1ac 62bd
000001a0: 1230 6cbe c017 8c3d 4198 51be 83d0 8a3d
000001b0: 0027 39be 58ca 3a3e a195 cb3d 4dc9 f3bd
000001c0: 6325 59be 04d5 8bbe dd7e 553e b0bf 32bd
000001d0: 82c3 643e 2b05 82bd c61a adbd e882 9d3d
000001e0: 52d8 42be d81f 003d c983 0a3e 5331 02be
000001f0: 4d21 243e 0c90 84bc 8662 08be a215 39be
-0.23742072 0.15257075 -0.068103194 0.0045538573 0.072895855 -0.0918938 0.13197455 0.08099252
0.19977744 0.037817147 -0.095018804 0.10035677 0.17702726 0.1725037 -0.091676354 0.24832934
0.14332934 -0.19582112 0.0045463103 -0.10073524 0.19034189 -0.10599121 -0.18342789 -0.22603722
0.15398055 -0.17814028 0.097759545 -0.24969597 -0.20626196 0.036360405 0.05120487 0.12694481
-0.22530846 -0.026523072 -0.2356942 -0.19169949 -0.17421542 0.088786826 -0.27902985 0.037417047
0.08067896 -0.010701813 0.04412717 0.1777713 -0.03137166 -0.16256832 -0.054229442 0.014182212
-0.18883546 -0.13331866 0.07003234 -0.12963697 -0.17278501 0.17652777 0.0443378 0.15301672
-0.11936443 -0.15103407 0.18909167 -0.024975177 -0.21013221 -0.22360928 -0.06708817 0.1431783
0.16989997 0.11911344 0.049093753 0.14786431 -0.08840854 -0.122523144 -0.14680277 -0.029702708
-0.1321526 0.23697637 -0.096312374 -0.23572333 -0.13661952 0.121250935 -0.22787438 -0.06799268
0.2301419 -0.103236265 0.08017334 0.163865 -0.05570511 0.038387094 -0.045686156 -0.028313236
0.04497376 0.17814879 -0.17107752 0.24539332 -0.25062707 -0.016070465 -0.11901813 -0.02698236
0.09301646 0.0567057 0.13492884 -0.17797166 0.024688432 -0.27391493 0.22687475 -0.05534071
-0.23065212 0.068404675 -0.20468237 0.06778052 -0.18081284 0.1824125 0.09940649 -0.119036295
-0.21205668 -0.27310956 0.20849176 -0.04363984 0.22340205 -0.06348642 -0.08452372 0.07690984
-0.19027832 0.03128037 0.13526835 -0.12714128 0.16028328 -0.016181968 -0.13318834 -0.18074659

policy_network.3.weight f4 [256, 128]
00000000: 8e0a 1bbd a2d5 4abd 7722 9ebc 7f54 b0bd
00000010: 9bb7 ccbd 0920 943d 8d94 bdbd f753 913d
00000020: 73f5 babc c7b7 f9bc d2b7 b9bd 715b a1bd
00000030: 8d88 bf3a b094 80bd 143a 173d 59c0 953d
00000040: 9c93 443d b07c a7bd 0142 813d d8bf ac3c
00000050: 3d39 0c3d 1ea5 a5bd df22 8bbc 809c 903d
00000060: d6f5 3e3c 5eb6 17bd cc0f 8b3d 1c7c 44bd
00000070: 5dba babc 6127 7abd 9254 cdbc 893d 89bb
00000080: 9d94 853c 10fb 653d 6d16 553d 5bb9 a4bd
00000090: bd90 13b9 5617 10bd a5a6 9d3d bef0 79bd
000000a0: c4dd 09bd 221a 4c3d fd9e 0bbd aba7 a5bd
000000b0: 5452 babc e4c2 643d 7a60 acbc b767 18bd
000000c0: 941d 8ebd 1a20 ba3c 236f 84bd f4c7 753c
000000d0: 1aa8 68bd 521f 6a3d eff6 8b3c a4bf 6dbc
000000e0: 8d5b b6bd 5ac1 8fbd cb76 58bd 2d68 7fbd
000000f0: 4e90 69bd d5b2 7b3c 6a17 92bc d123 64bb
00000100: 9702 343d 35d7 7bbb 4b52 3d3d 6803 1c3d
00000110: 77dc 97bd be89 efbb 08fe 523d 489b 59bd
00000120: 38e0 e3bb 0cb5 343c 95bc a6bd 1fbf 9b3c
00000130: eef1 34bd 2b4d 9fbc f71d da3c 16e1 303d
00000140: 5705 52bd e0e9 bbbd 09de b43c 1399 1abd
00000150: d2e4 0e3d e5d9 a73d 2c24 593d 0654 f6bc
00000160: f5b1 193b f6a4 febc 80ae 24bc 4bd0 aabd
00000170: d640 aabd b7b7 b2bd a4ab 96bd 84cd 3a3d
00000180: cef1 263c 057c d03c 54c6 80bd a945 a33c
00000190: 47d7 b1bd 4cda fc3c a761 66bd e5e0 4f3d
000001a0: 664a 7bbc 65b0 823d 6fd8 583c d237 413d
000001b0: 5b80 973c 346e 763d 96e4 e63a aced a23d
000001c0: 813d 0c3c bc5c 87bc a804 06bb 3d6a 2dbd
000001d0: 92ed 1fbc 82ba 84bb eb67 64bd 9b0b bbbb
000001e0: 184a 41bc 5518 47bd 8ec5 95bd c866 bebd
000001f0: b673 7b3c 8722 7abd d32a f4bc 9d44 39bd
00000200: cb4e 60bd 6c00 673d 8cd4 3c3d cea3 98bd
00000210: c414 843d acc5 edbc d589 1f3d 08f0 5f3d
00000220: 3f9d 453c cbf0 90bd 8aed 42bd 2295 9dbd
00000230: f91a fa3c 5a53 813d 688e b43d 9211 1fbb
00000240: 8e7d f5bb f822 43bd 6021 013e 5ffc 5b3b
00000250: d976 c03b c1e6 89bd a980 07bd 9f23 20bd
00000260: 876f 593d f771 913c f1c5 29bd 1c02 5fbd
00000270: eedf 103d ccd9 d9bc 5d97 83bc 1c3a 533d
00000280: e26b 1d3d 75c6 893d 05b3 9e3d 967a 9bbd
00000290: 1899 33bd 0338 f83c 56f5 77bd 9b88 ebbc
000002a0: f9ae 7d3d 0a29 0fbd 2845 d439 7301 1bbd
000002b0: 0b59 54bd ce55 d2bc a038 a7bd 48ec 893d
000002c0: 23fb aa3d 5426 3dbd 2d70 62bd 8308 8bbd
000002d0: 83ea c3bc c4ef 503c 98aa 513c 73ca 383d
000002e0: 9be7 bf3b 640d 0bbc b6d6 423d da76 94bd
000002f0: 4ea7 953d 655d 183c 09ad 61bd c5cb 083d
00000300: 8c07 4dbd 6967 b03c 8c59 ea3c 16c8 98bd
00000310: 3db1 a73c d99f 9f3d 4d24 ac3d 9b23 823d
00000320: cafe 4c3d b3c4 653d 6b23 90bc d844 91bd
00000330: 0b27 b43d d2bf 493d a68f aebb efd1 5b3d
00000340: ccf1 483d f312 b23d 0bad 1e3d e5d5 753d
00000350: c850 b1bd 6077 7dbd cdf3 953b 41da 84bd
00000360: 2423 3f3d 4832 a13d 7480 003d 5857 963c
00000370: 2510 04bd 08bb 2a3d 5196 90bd 7c17 e7bc
00000380: 41fe 443d 2b6e 81bd 9ed6 063d 6b3d b4bd
00000390: 6856 96ba 88ae 8abd a88c 9bbd 959f 913d
000003a0: 9197 b2bd e646 473d b549 953d 5d21 64ba
000003b0: 87d6 c13d 56e6 3b3d 3c1b 963d 94f4 863d
000003c0: a3ad a6bd 342f b93c 298f 95bc 1359 b93c
000003d0: 997f 313d 633d a1bd 82e2 173d b79c 50bd
000003e0: 72a1 5c3d 6c97 863d a204 95bd d143 cbbd
000003f0: 59c4 47bc 15c5 1c3c 16d7 a23d bfe1 7cbd
-0.037851863 -0.049520142 -0.019303543 -0.08609866 -0.099959575 0.07232673 -0.092568494 0.07096093
-0.022822117 -0.03048314 -0.09068264 -0.07878769 0.0014612839 -0.0627836 0.036920622 0.07312078
0.047992334 -0.08178079 0.06311417 0.021087572 0.034234274 -0.08088134 -0.016984401 0.070611
0.011655292 -0.037039153 0.067901224 -0.047969922 -0.022793943 -0.06107271 -0.02506474 -0.0041882438
0.016306216 0.056147635 0.05202334 -0.08043166 -0.00014072932 -0.035178505 0.076978005 -0.061020605
-0.033658758 0.04982961 -0.03408717 -0.08088621 -0.022744335 0.055849925 -0.021042097 -0.037208285
-0.06939235 0.022720385 -0.0646651 0.015001286 -0.05680094 0.057158776 0.01708552 -0.014511023
-0.08904181 -0.07019301 -0.052847665 -0.06235521 -0.057022385 0.015362461 -0.01783343 -0.0034811387
0.043947782 -0.0038427834 0.04622106 0.038089186 -0.07415097 -0.0073101213 0.051511794 -0.053126603
-0.006954219 0.011029493 -0.08141438 0.019012032 -0.044176035 -0.019445976 0.026625616 0.04318341
-0.051274624 -0.091754675 0.02207853 -0.03774364 0.03488619 0.08195857 0.05301301 -0.030069362
0.0023452018 -0.031084519 -0.01005137 -0.0834051 -0.08313148 -0.08726447 -0.073569566 0.04560615
0.010189487 0.025449762 -0.06287828 0.019930677 -0.08683639 0.03086581 -0.056245472 0.050751586
-0.015337562 0.06381301 0.013235196 0.047172375 0.018493822 0.06016369 0.0017615731 0.079554886
0.008559586 -0.016523711 -0.0020449553 -0.042337645 -0.009761231 -0.004050554 -0.055763166 -0.0057081706
-0.0117974505 -0.04860719 -0.07313071 -0.09296948 0.015347412 -0.061068084 -0.029805576 -0.04523145
-0.054762643 0.056396887 0.046101138 -0.07453118 0.06449273 -0.029024921 0.038949806 0.05467227
0.012061416 -0.070771776 -0.047589816 -0.076944605 0.03053044 0.06314726 0.08816224 -0.0024271947
-0.007491774 -0.04764077 0.12610388 0.0033567173 0.0058735427 -0.06733466 -0.033081684 -0.03909647
0.053084876 0.017754538 -0.041448537 -0.05444537 0.035369806 -0.026593111 -0.016063387 0.05156909
0.038432963 0.06727306 0.07748989 -0.07591741 -0.043847173 0.030300146 -0.060536705 -0.028751662
0.061934445 -0.034951247 0.00040487316 -0.03784318 -0.05184273 -0.02567568 -0.08165097 0.0673452
0.08348682 -0.04617913 -0.05528276 -0.06788733 -0.023915535 0.012752477 0.01279702 0.045114946
0.005856467 -0.008487079 0.047568046 -0.07249232 0.073073015 0.009299611 -0.05509666 0.033397455
-0.050056025 0.021533685 0.028607152 -0.07460038 0.020470256 0.077941604 0.08405361 0.063544475
0.050047673 0.05609579 -0.017595014 -0.07093209 0.08796509 0.0492552 -0.005327183 0.053667005
0.04905872 0.086950205 0.038739245 0.06001844 -0.08657986 -0.061881423 0.0045761825 -0.06486941
0.046664372 0.078709185 0.031372502 0.018352196 -0.03224196 0.041682273 -0.070599206 -0.02820944
0.048094038 -0.06319841 0.03291952 -0.08800777 -0.0011469843 -0.067715704 -0.075951874 0.07110516
-0.08720315 0.0486516 0.07289449 -0.0008702481 0.09464746 0.045873962 0.07329413 0.06589618
-0.08138587 0.022605516 -0.01825674 0.022625482 0.043334577 -0.07873037 0.03708125 -0.050930705
0.053864904 0.0657185 -0.07276274 -0.09925044 -0.012192809 0.009568472 0.07951181 -0.061738726

policy_network.3.bias f4 [256]
00000000: cc1b 09bd 21af 273d 29c9 a23d a7f5 b1bd
00000010: 12d7 f4bb e6dc cbbd 9a1f c1bd 3175 903d
00000020: dc5f 4c3d 7875 9abd f329 853d 1b29 2bbc
00000030: b909 ea3b 903b 083d 00df a23d 7fd0 1a3d
00000040: ef44 3a3d 688f 77bd 266f 0abc f69c 7e3d
00000050: 8f21 fcbc a2b8 08bd 026e aebc 8d37 4cbc
00000060: 87f1 6ebd bb16 97bd 7d1b 1bbd 046c 2fbd
00000070: 3dbe 81bd f585 e73a 8da1 d33c 6623 143d
00000080: e765 96bd ad65 bcbd 22b6 0abd 00d8 4b3c
00000090: f763 5d3d d75b beba 35f0 583d b8ca 0bbd
000000a0: 65d6 0dbc f35d 8e3d c49e aebd 821e c13c
000000b0: b123 11bd 1f0c 8dbd 9c87 16bd b8f9 dc3c
000000c0: c37c 223d d446 1dbd cdcc 183d 632e 093c
000000d0: ba09 983d 7414 6c3d 8df7 323d 0223 a3bd
000000e0: 3cb9 9fbd 0ffc 703d ae9b b3bd d69d 47bd
000000f0: 6e2b d73c 5ce8 00bb 11f4 a6bd 5b9a 7c3d
00000100: d390 8bbd 2acf 77b9 6a57 1dbd 2074 b3bd
00000110: 934e 563d ce08 223d 6fa0 483d 20b5 0dbd
00000120: e9fa fc3c 9509 8b3d f2bf 7a3d a9e2 a1bd
00000130: 0eae 1bbd 7ef6 c3bc eff2 853c 314b 403d
00000140: 1c5d d73b f547 e03c e662 843d eeee ea3b
00000150: 67c7 e73c d432 39bc 76a0 78bd 1edb debd
00000160: 6098 2ebd cf2e c53c 738c 71bd ee0a 86bd
00000170: 84ba 57bd 0395 f03c afaf ae3c ea0e 72bc
00000180: 670a f1bb 9f1f 9ebc 87fa 86bc 3123 cabc
00000190: f90e 54bd 1271 4e3d 6436 3ebd 74a9 863d
000001a0: 9b06 753c 0682 903d 1f41 91bd 70bc 553d
000001b0: 978d b33c 46f5 863d 389f 0f3d 958c 913d
000001c0: cc79 8b3d c982 a1bd 253e a9bd 2bcd 073c
000001d0: a72f 553d bc3d 253d 6488 793d 2cb4 cdbd
000001e0: c964 0a3c ffbf a63c edaf ae3c f8f1 c8bd
000001f0: 3084 423d 2673 d4bc 4186 2cbd e45c 8bbd
00000200: 5f10 103d b6ab 82bd 4362 09bd 9922 59bc
00000210: 8ca4 83bd 80d3 02bd f0f8 5a3d acd9 3cbd
00000220: 00e0 57bd b670 3abd 38e6 993d 9eb5 97bd
00000230: a2a2 853d 5176 b33c bb04 5fbd c1dc e0bb
00000240: 2942 313d bb35 dd3b 9e62 b2bc 5f0b 57bd
00000250: a6d3 a6bd 8e83 f2ba 88cf 633d f51d aabd
00000260: 0397 4a3d 3c04 83bd b27e 5b3d 236c d13c
00000270: 61dd 8c3d 6527 67bd 490e 7b3d ae79 053d
00000280: d24c 603d 0a15 e53c 1dec 75bb 0a19 90bd
00000290: 73dc 77bd d2b8 10bd 1673 65bd 8c53 e7bc
000002a0: b1cf 823b 4fe8 8ebd 6088 273d 8c8b 153d
000002b0: 0cee f239 b124 743d 6c72 acbd 1ced f03c
000002c0: dca7 8f3c d8f8 aabd 842d 023d ff75 acbd
000002d0: 5771 01bb 4010 a2bd 074b 993b 6717 8dbd
000002e0: f976 3b3d ac2e 83bd 1ec6 883d d168 b1bd
000002f0: 63c4 1d3d 0ccb 493d 4327 aa3b 6b16 e43c
00000300: 9286 4e3d 945d 8fbd 5a3d 50bd f815 ef3c
00000310: c54a 0cbd 5856 7fbd 35ff 9a3a 49b4 373d
00000320: db37 b8bd e8ba 85bd a278 b0bd 3c17 063d
00000330: f83f 1fbc 2b0c 09bd 427f b6bd fea1 cf3b
00000340: 6d5d 76bd 96ea a6bd a027 68bd 4f01 88bd
00000350: 9a18 5a3d 7dcf 7b3d 4ad6 23bd 4e73 cabd
00000360: c95c 4e3b 7e41 39bd 03f2 58bd 0151 cebd
00000370: 9275 99bd fa0c 403d d43b 653d cd6a 383d
00000380: 8e07 1abd 513c c7bd 4ff6 893d ac4d 933d
00000390: 71b5 833c 2907 99ba 3442 89bd 4aa5 2b3d
000003a0: 7629 143d d076 aebd 9b50 34bc 9bb1 bfbd
000003b0: e779 223c 625c 11bc 4b0c 573c e45c 28bd
000003c0: a209 0bbd b9cc d93c c584 863d 8e1e 613d
000003d0: 5009 6abc df5f 8ebd b31c a23d 088c f03b
000003e0: 8e9f 5c3d dc75 3f3d d6bc 11bd 0d83 0ebb
000003f0: bc53 833d 915c 75bd 95ed dd3c 1279 75bc
-0.033473775 0.0409385 0.079485245 -0.086894326 -0.0074719274 -0.099542424 -0.09429856 0.070536025
0.049896106 -0.07541937 0.06502142 -0.010446812 0.0071422723 0.03325993 0.0795269 0.037796494
0.045475896 -0.060439497 -0.008449351 0.06216141 -0.03077772 -0.033379205 -0.02129269 -0.012464416
-0.058335807 -0.07377382 -0.03786801 -0.04282762 -0.06335113 0.0017663824 0.02583387 0.03616657
-0.07343655 -0.091990806 -0.0338651 0.012441635 0.054050412 -0.001452322 0.052963454 -0.034128875
-0.008657073 0.06951513 -0.08526376 0.023574118 -0.03543443 -0.068870775 -0.03675042 0.026974544
0.039669763 -0.038397625 0.03730469 0.008372876 0.0742373 0.057636693 0.043693114 -0.079656616
-0.077990025 0.05883413 -0.08769928 -0.04873451 0.026265826 -0.0019669747 -0.08152021 0.061670642
-0.068147324 -0.0002363293 -0.038413443 -0.087623835 0.052321028 0.039559178 0.048981126 -0.034596562
0.030881362 0.06788937 0.06121821 -0.0790456 -0.03800779 -0.023921248 0.016351191 0.046946708
0.006572379 0.027378062 0.06464176 0.007169596 0.028293325 -0.011303622 -0.060699902 -0.10881637
-0.042625785 0.024070172 -0.058971833 -0.065450534 -0.05266811 0.02936793 0.021324007 -0.014774064
-0.0073559764 -0.019302187 -0.016476883 -0.024674984 -0.05177209 0.0504008 -0.04643859 0.06575289
0.014955188 0.0705605 -0.07092499 0.05218166 0.021918101 0.06589751 0.035063952 0.07106892
0.0681034 -0.078862734 -0.08263806 0.008288662 0.052047398 0.040342078 0.060921088 -0.10044131
0.008446881 0.020355223 0.021324122 -0.09811777 0.047489345 -0.025933813 -0.042120222 -0.06804827
0.035171863 -0.063804075 -0.033540975 -0.013252878 -0.06427869 -0.031939983 0.05346006 -0.046106026
-0.052703857 -0.045517646 0.07514614 -0.074076876 0.0652516 0.021907004 -0.05444787 -0.0068622534
0.043275986 0.00675079 -0.02177554 -0.05250108 -0.081458375 -0.0018502341 0.05561784 -0.08306495
0.049460422 -0.06397292 0.053587623 0.025564259 0.06878162 -0.056434054 0.06129292 0.032586746
0.05476076 0.027964134 -0.0037524768 -0.07036026 -0.06051297 -0.03533251 -0.056017958 -0.02823808
0.003992044 -0.06977903 0.04090154 0.036510035 0.00046335196 0.059605304 -0.08420262 0.029409938
0.017536096 -0.083482444 0.03178169 -0.084209435 -0.0019751394 -0.07913256 0.0046781334 -0.06889229
0.045767758 -0.06405386 0.06678413 -0.0866257 0.038517367 0.049265906 0.0051926686 0.027842721
0.050421305 -0.070002705 -0.05083976 0.02918528 -0.034250993 -0.062338203 0.0011825325 0.044849668
-0.089950286 -0.0652979 -0.08616759 0.032737 -0.009719841 -0.03345887 -0.08910991 0.0063364496
-0.06014769 -0.081502125 -0.056678414 -0.066408746 0.053246118 0.061477173 -0.039999284 -0.09885274
0.003148841 -0.045228474 -0.052965175 -0.10074044 -0.07493128 0.046887375 0.05596526 0.04502373
-0.03760486 -0.09728301 0.06736433 0.07192549 0.016077729 -0.0011675108 -0.0670208 0.04190568
0.036172353 -0.085187554 -0.011005546 -0.093600474 0.009916759 -0.008872123 0.0131254895 -0.041104212
-0.033944733 0.026586877 0.065682925 0.05496078 -0.014284447 -0.0695188 0.0791563 0.007340912
0.0538631 0.04674326 -0.03558048 -0.0021745593 0.064124554 -0.05990273 0.027090827 -0.014982479

policy_network.6.weight f4 [128, 256]
00000000: 5878 5b3c 9bab 44bd a1c3 d83d ea99 633c
00000010: baeb 2bbd d530 09bd 50e4 863d 781c 353d
00000020: 70a9 66bd eb05 a43c b99c bb3d bf40 4e3d
00000030: 8083 a3bd ae4b 7e3d 009b 833d 46a1 953d
00000040: 8595 d93c 8052 7f3b 43e7 2f3d 5edf 203d
00000050: 0a73 4dbd 4e49 043c 8936 5fbd 9da2 0fbc
00000060: 8428 d93b e0ce c0bb 9adc cabd ec8a 7d3d
00000070: c1e6 ffbc 08d8 203d b6b1 16bd fb31 a0bd
00000080: dddc 8f3c 24ec 863d cd81 5b3b 6a9a 873c
00000090: af65 5dbd fae1 52bd edea c0bb 8f0b 4fbd
000000a0: 1645 13bd afc6 50bd a88a 083d 6f77 03bc
000000b0: c84a 37bc b222 143d 4071 b73b 5275 723d
000000c0: 70f6 8c3d 83ee e0bc b641 8e3c a25b ec3d
000000d0: b04f 80bc 622e 5bbc 56ed 4b3c c4b8 bcbb
000000e0: d871 03bc 8aa6 8b3d 4c51 9bbc dcfb 8339
000000f0: b71b f5bc c530 5c3d b085 c4bc e62f 99bc
00000100: 5a9a d63c b3c9 a2bb 444a 0a3d 0275 be3d
00000110: 92e6 a73d b72a 7f3d 533a 6b3d 80e9 9a3b
00000120: 30e2 143c cbed 0bbc 76b3 fa3b 7718 f1bc
00000130: 736d acbb dd15 4ebd 9302 063c 1e78 94bc
00000140: 5d56 7439 9b11 38bc e01c 423d 5099 32bc
00000150: 91b1 e53c 084d 2a3c 36bb c3bb 8d74 873d
00000160: 5d51 923d 15f8 76bd 7a1f 30bd 1e3e 54bd
00000170: 78e3 27bd 7647 58bd a0e2 4cbc 8294 1f3d
00000180: 7ff1 12bd e852 dcbc 6330 863d b67b c13d
00000190: 8d1d 42bd 6c2a 08bd 4c22 713d e4c5 663c
000001a0: c989 aa3d 8521 0dbd fb03 f03c cc98 bdbb
000001b0: 8e65 47bc 8daa 89ba d827 7b3b 980a ed3c
000001c0: ba06 863d 78c3 d33c 822d b4bc 662b 0f3d
000001d0: aa24 b23d 27e2 c2bc 1720 cc3c 474d 9bbb
000001e0: 541c 20ba 7c3c 26bd 196a 96bd 182b 903c
000001f0: 9f1d 4e3c f74e 4d3c 8ab3 5e3c de9b 3e3d
00000200: 1c57 ef3c 188a 2dbd b9eb b3bc 2b1b 1e3d
00000210: 397e c03c dd16 443d 6d1c 563d 9ed3 603b
00000220: 32cb d93d 1cae bf3d 3484 163c 726a 79bd
00000230: fd25 81ba 2352 c83c d0cc 973b 0ec1 783d
00000240: c142 aa3b adc9 c6bc 9ca5 3abd 07e3 133d
00000250: 4c32 e93c 1034 bb3c c24a 3a3c b0d1 77bc
00000260: ab98 69bd 7e6c 27bd bc6d 393d c4d4 043d
00000270: cc0e 85bd 20f3 923c 0242 6a3c 0652 11bd
00000280: 1ef5 95bb 9c3c 69bc c0d5 94ba 20a9 d53c
00000290: 9b56 00bd de2c 0dbd 24ca 34bd 8858 973d
000002a0: 1fef 083d 1e4e 7bbd 85e3 273c 27b6 c93c
000002b0: 296f dabc 8c15 c7bc e076 703d 000d 8e3d
000002c0: 498d 433c aeb0 65bd ae5c 473d e6f8 473c
000002d0: 857a cb3b 8c6e ddbc 1b1e 0cbd 8e1b 1fbd
000002e0: b521 44bc 60fd b2bb c507 093e a0cb 98bc
000002f0: a170 1a3d b761 87bd 30c7 ea3b f429 f4bc
00000300: 9d10 323e 0b63 3d3d 113e 043d 454b 5dbb
00000310: 94f4 953c 6613 2abd 6355 16bd 70a4 b83b
00000320: c236 c23d 1b8a af3d e875 5f3c 3a0b 51bd
00000330: 82ef 143d 6e29 77bc a012 b83b 2804 a03c
00000340: e9a9 693d 18c1 ecbc 1f9a b3bc ffd3 4cbd
00000350: 8322 7c3d 6856 2bbd 01dd e83c 0cdb 803d
00000360: 935c 7d3d f38b a0bc ae8a 81bd 205a 243c
00000370: 12f2 3c3d 152f 0b3d 1e67 74bc c41d 92bc
00000380: 4205 5cbb c966 80bd b8f1 cdbc c93b 9e3b
00000390: 4b47 5d3d 0cc9 bbbd 6683 1ebd 338e 323d
000003a0: 3b47 063d f69d 4e3d 4ef5 613d 9443 57bc
000003b0: dd0b 953c abed d33c 0b54 d83c 7a1f 1bbd
000003c0: f120 7c3c efa7 84bd b84f f53d 130d ad3c
000003d0: ce79 593d a366 1b3d bb8c 2ebc 1d74 963c
000003e0: 4a40 ce3b f188 f5bc 9d6b 0f3d 7f74 153c
000003f0: de48 223c bbcd 2a3d 18eb 763c b874 3c3d
0.013395391 -0.04801522 0.10584188 0.013891676 -0.041972853 -0.033493835 0.06586516 0.044216603
-0.056313932 0.020022353 0.09160752 0.050354715 -0.07984066 0.062083893 0.06426048 0.07306151
0.026560554 0.0038959086 0.042945158 0.03927552 -0.050158538 0.008074118 -0.05449537 -0.008766797
0.0066271443 -0.0058840364 -0.09905358 0.061900064 -0.031237962 0.039268523 -0.036790572 -0.07822033
0.01756137 0.06588009 0.0033494115 0.016553123 -0.05405205 -0.05148504 -0.0058873803 -0.050548133
-0.035954557 -0.05097073 0.033335358 -0.008024081 -0.011187263 0.0361659 0.0055982172 0.059193917
0.06882942 -0.027457481 0.017365318 0.11540915 -0.015662998 -0.013377758 0.012446722 -0.0057593305
-0.008022748 0.06818874 -0.018959664 0.00025173917 -0.029920442 0.053757448 -0.023989528 -0.018699598
0.026196647 -0.004967892 0.03376223 0.09299661 0.08198275 0.062296595 0.05742867 0.0047275424
0.00908713 -0.008540581 0.007650788 -0.029430611 -0.005262071 -0.05031382 0.008179325 -0.018123683
0.00023301826 -0.011234666 0.04739082 -0.01090081 0.028038772 0.010394342 -0.005973245 0.06614027
0.07144425 -0.060295183 -0.04299877 -0.051817052 -0.040988415 -0.052802525 -0.0125052035 0.038959987
-0.03587484 -0.026895002 0.06552198 0.09447424 -0.047391463 -0.03324358 0.0588706 0.014085267
0.08327062 -0.034455795 0.029298773 -0.005786037 -0.012170209 -0.0010503099 0.003832331 0.028935716
0.06544252 0.025850043 -0.021994356 0.034953497 0.08698399 -0.023789478 0.024917645 -0.004739437
-0.0006107737 -0.040585026 -0.07344455 0.017598674 0.012580304 0.012531034 0.01359261 0.046535365
0.029216342 -0.042368025 -0.021962987 0.03860013 0.023497688 0.047873367 0.052273203 0.0034305821
0.106344596 0.093593806 0.009186793 -0.06089253 -0.000985324 0.024453228 0.00463257 0.060730986
0.005195946 -0.024266088 -0.045568094 0.036105182 0.028466366 0.022851974 0.011370363 -0.015125677
-0.05703036 -0.04087495 0.045270666 0.03242947 -0.06496963 0.017938197 0.014297964 -0.035478614
-0.0045763394 -0.014235642 -0.0011355206 0.026081622 -0.031332593 -0.034466617 -0.04413809 0.07389933
0.03343117 -0.061353795 0.010247116 0.02462299 -0.026664333 -0.024302267 0.058707118 0.06936073
0.0119355405 -0.056076698 0.04867237 0.012205338 0.006209674 -0.027030252 -0.0342084 -0.038844638
-0.011970927 -0.0054623336 0.1338187 -0.018651783 0.037705068 -0.066104345 0.0071648583 -0.029805161
0.1738915 0.046237033 0.032285754 -0.0033766788 0.0183051 -0.041522406 -0.036702525 0.005634837
0.094831005 0.085712634 0.013638951 -0.051036097 0.036361225 -0.015085561 0.0056174546 0.019533232
0.057046805 -0.028900668 -0.021924077 -0.050006863 0.06155635 -0.04183045 0.028425695 0.0629178
0.061855864 -0.019597983 -0.06325279 0.010031253 0.046129294 0.033980448 -0.014917163 -0.017836459
-0.003357247 -0.06269605 -0.025139675 0.0048289043 0.05402307 -0.09169206 -0.03869953 0.043592643
0.032782774 0.050443612 0.05516558 -0.0131386705 0.018194133 0.025870165 0.026407262 -0.037871815
0.015388713 -0.06477343 0.11978096 0.021124398 0.053094678 0.03793968 -0.01065367 0.018365914
0.006294285 -0.029972525 0.035014737 0.009122013 0.009905068 0.041700106 0.015070699 0.04600975

policy_network.6.bias f4 [128]
00000000: 9e53 1dbd 66f7 86bd c0bc 41bc dcb5 aabc
00000010: ef72 463d 91cf 95bd bf2a 51bd 1315 113d
00000020: 5c4f f53b 5416 36bc c203 ec3c 5f6e 343d
00000030: b1d9 40bd b61b 8ebc 594e 873c eeb0 3fbd
00000040: c9e6 5d3c 8fa6 78bd b2fa 0fbd c437 8bbd
00000050: 65fc b2bc 4fe9 27bd b204 69bd 1ac3 bdbc
00000060: 1431 f53c 4b51 cc3c 2cc1 e6bc 7a59 b83c
00000070: f442 22bd 74a7 8238 7cf2 f53c 95ef 80bd
00000080: b4b9 33bd 1c55 1b3d 2f2e 80bd e43a 9d3c
00000090: 6563 5fbd d279 1a3d 7142 9f3c 8761 5dbd
000000a0: 3f4b 5e3c 6cb6 28bc 62f2 acbd 1f71 f63a
000000b0: 27fd 76bc 30eb 20bd 334c 59bd 9f89 2ebc
000000c0: 0546 cabc 40e2 0abd 86f2 80bd 257a 5d3b
000000d0: 4b90 7cbc 9a05 6dbd 3a51 3ebb 5442 4b3d
000000e0: 0e44 f83b e9ef 963c e39e 94bb 746f 0b3c
000000f0: 5bee e4bc 0619 fd3c 3ef7 6cbd df61 88bd
00000100: 2c1f 4cbd 66c3 d23c f5f1 f5bc 102d 79bd
00000110: a19f 4bbd 2e83 51bd 51dc 01bd d33c 48bb
00000120: 864d 963c 060c 443d 2da5 7abb df5a 8dbd
00000130: c97e 08bc 745a 7fbd 626c 263d 2fe2 fc3c
00000140: 0486 b4bc 629c ccbc cbbe 813b 4444 74bd
00000150: 9add 2e3b cda4 3fbd 424d acbc 6292 9c3c
00000160: 0bc0 47bc 2546 ebbc afb6 89bb b54e 0e3b
00000170: 2e83 3f3c 2fd4 1d3c 5432 773c 47af cfbc
00000180: 1380 2fbd 182d 27bd 4080 d0bc 69f7 22bd
00000190: 67ac 07bd d6af 81bd 74cd 4c3d 914f 733d
000001a0: c3a8 93bd 18ab c93c 1f97 373d a556 c63c
000001b0: 2294 f5bb 8a7c b0bc c591 4fbd 2b09 96bd
000001c0: c6f0 21bd bbf5 863b e49e 4f3c 9771 2bbd
000001d0: 8f49 e7bc 7b42 64bc cb04 2b3d c557 7cbd
000001e0: a8eb 7a3b 6c9f c93c acdf 01bd c767 233d
000001f0: d7cd 9cbc 83fd a13a 4dcb c93c e9e4 fb3c
-0.03840982 -0.06590156 -0.011824787 -0.02083867 0.048449453 -0.07314981 -0.051066156 0.03542049
0.007486267 -0.011113722 0.028810386 0.04405057 -0.047082607 -0.017347198 0.016516851 -0.046799593
0.013543793 -0.060705718 -0.03515119 -0.06797746 -0.021848867 -0.040993985 -0.056889243 -0.02316432
0.029930629 0.024941107 -0.028168283 0.022503603 -0.039614633 6.2300736e-05 0.030022852 -0.06295697
-0.043878272 0.037922964 -0.06258809 0.01919312 -0.05453815 0.037713833 0.019440861 -0.054048087
0.013567745 -0.010297399 -0.08444668 0.0018802023 -0.015075005 -0.039286792 -0.053051185 -0.010652929
-0.024691591 -0.033907175 -0.06296258 0.0033794728 -0.0154152615 -0.05786667 -0.0029040114 0.049623802
0.007576472 0.018424945 -0.0045355423 0.008510459 -0.027945688 0.030895721 -0.057852976 -0.066592924
-0.049834415 0.025727939 -0.0300226 -0.06083399 -0.04971278 -0.051150493 -0.03170425 -0.0030553832
0.018347513 0.04786303 -0.0038245425 -0.06902098 -0.008331009 -0.062342122 0.040630706 0.030869571
-0.02203656 -0.024976913 0.003959512 -0.059635416 0.0026682378 -0.046788026 -0.021032933 0.01911277
-0.012191783 -0.028719971 -0.004202686 0.0021714394 0.0116889905 0.009633108 0.015087683 -0.025352133
-0.04284675 -0.04081449 -0.02545178 -0.03978673 -0.0331234 -0.06332366 0.050000623 0.059402052
-0.07209923 0.024617717 0.044821855 0.024211237 -0.0074944654 -0.02154376 -0.050676126 -0.073259674
-0.03953626 0.004118649 0.01267216 -0.041856375 -0.028233318 -0.013931866 0.041752618 -0.06160714
0.0038287435 0.024612151 -0.03170745 0.03989389 -0.01914112 0.0012358878 0.024633074 0.030748801

policy_network.9.weight f4 [7, 128]
00000000: ffda 213d 87f9 fdbc 10ee 8a3d 44f2 9a3d
00000010: bf05 6cbc 485c 96bd 6ce4 863c dd04 82bd
00000020: 5e21 1ebd 8cb2 34bd 3af1 d4bc 5732 66bd
00000030: 3785 173b 9168 99bd f672 afbd c2d9 dc3c
00000040: 6fe0 24bc 6ea5 863c 7759 a1bd 454d 633d
00000050: d2f3 63bc deae dc3c 49ef 9cbd f568 96bd
00000060: b24e ac3c ed07 d03c 911b 0bbc 696f 13bb
00000070: c58c 9abd a8f8 03bd 648e 5cbc 451d b43d
00000080: 2b42 9dbd 1f5e 1cbd 0692 61bc 6233 54bd
00000090: 1c38 8a3d dab8 96bd c579 043d 7c5c a2bd
000000a0: 1c73 1e3c 334d 06bd 6e82 6d3c b65c 853d
000000b0: 2b28 b038 f06c 77bd f184 54bd e24c fdbb
000000c0: 9fa2 133d 40d0 11bd 68fc 5a3d 1ad2 57bd
000000d0: b5c4 023c a871 95bd e75c 033c 64cc 1f3d
000000e0: 7481 5f3d cd93 933d 4def 1b3c b1c1 903d
000000f0: 4a36 30bd d969 803d 93eb 88bd af21 643d
00000100: 6bfb c63c 2e9c 0dbd 30fc abbc 73d2 333c
00000110: 58d4 403d e92b 0e3d e839 e13c d872 3ebd
00000120: f5eb 883d 81b0 ffbb 297c 1e3c feb0 493d
00000130: c01f 54bc 4931 733d 283f 72bd c089 19b9
00000140: 2cd1 3cbc 6897 6139 aee4 b6bc 8114 283c
00000150: 3be6 a43c e197 b03c 4391 77bd 40e8 133d
00000160: 61ec f93b cf2a 013d c191 58bd 04e6 3abc
00000170: 6fbd 9f3d 3217 c8bc 53de 24bd 94fe 81bd
00000180: dbdf 1cbd 8bf0 303d ff9e 4c3d d067 c9bc
00000190: 61d0 48bc cac4 883d d9d1 adbc 02de 8cbc
000001a0: 05b1 ac3b b16e 8fbd c9e8 5e3d 6abc 823d
000001b0: 5c22 4cbd 8018 7fbd 5a0d 1bbd a1c1 42bd
000001c0: 913f 87bc 37f8 84bd 6d29 583b 94a3 79bd
000001d0: 7aae 90bd 8fa7 96bd 8a89 823d fbaa 483d
000001e0: 3c21 f73c c15b 61bd 66bf 2d3d 2292 60bc
000001f0: a7e0 95bb d4a7 91bd bd07 893d 5885 f5bc
00000200: 6527 43bc d867 c739 7101 493d 61bb a93c
00000210: 4435 4f3d 9699 27bd 0fc2 a03d 130a 67bd
00000220: 3a87 9d3d 6213 063d f4a2 54bd f136 2d3d
00000230: 2f55 10bb 426f 86bd afc1 863c 3a92 ebb9
00000240: 7271 01bd a5f0 d1bb 7f6c 4cbd 4226 04bd
00000250: 061f 55bc 71c6 2d3c 6a0f 503a 0749 553d
00000260: 51a3 dcbc 1d79 eebc 469d f9bc 7b5c 5bbd
00000270: 7ac3 9abd b354 713c 697d bebc 8949 243d
00000280: 77ae 58bc 65b9 3b3d 85a4 83bd a845 50bc
00000290: 5fe1 48bd e114 35bd d77d 58bc 10f4 033d
000002a0: acc0 2bbc ddb5 923d 16c5 a53c a033 ab3d
000002b0: 5612 a23c d24d 66bd cbd7 b23d b48e 423c
000002c0: 12d3 113d fc37 e23c 92c0 cf3c a6f7 8cbd
000002d0: 11fe 39bd 5464 8e3d 3262 d13c 8930 a8bc
000002e0: 6c50 6c3d b9a7 7e3c 05e1 ceba e773 60bd
000002f0: 1637 883c 456f 383d 0c3e 633d 359f 96bc
00000300: 75ef 87bd 7fff 833c 2aba bb3c 1139 3e3d
00000310: eac7 fdbc 81a8 683d 04c8 463b d7a5 43bd
00000320: 73ff 593b 39d3 883c a911 7fbd fd42 a3b9
00000330: 96b2 333c baeb 803d eec2 1ebd 662d 813b
00000340: 1e1a 26bb a7ed 60bc 2731 faba a6cb 85bd
00000350: c13e 113d acab 9cbd 93ea 3abd 7c25 5ebc
00000360: 99e1 4a3c 7d07 e33c 093f 683d d643 24bb
00000370: 0ec5 043d 708c 183d d922 d4bb d37d 76bc
00000380: 1e53 493d ef7f 66bd b80a 09bc 59fc a3bd
00000390: 18fc f9bb eecc 993d e9b5 d33b e651 e33c
000003a0: eabd 67bb 874c feb9 ad57 75bd df41 4b3d
000003b0: e426 6fbd ec4c 8ebc 3ef3 9d3d eb3c 1bbc
000003c0: f074 57bc 6e5b 3bbd 42e4 9fbd 0148 933c
000003d0: dc67 b7bd 43f6 4b3b ea93 3ebd d274 363d
000003e0: d6da 243c 19f5 9439 bf8e 653b 3936 103c
000003f0: a497 b2bc 7553 713c 11a9 97bb 7085 713d
0.03951549 -0.031002773 0.06783688 0.0756574 -0.014405667 -0.0734182 0.016466342 -0.06348584
-0.03860604 -0.044115588 -0.025993932 -0.05620035 0.0023120174 -0.074906476 -0.08566849 0.026959304
-0.010063275 0.016436305 -0.07878392 0.05549361 -0.013913112 0.026938852 -0.076628275 -0.07344238
0.021033619 0.025394404 -0.008490459 -0.0022496826 -0.07546381 -0.03221956 -0.013461683 0.08794645
-0.07678636 -0.0381757 -0.013767725 -0.051806815 0.06748983 -0.073594764 0.03234269 -0.07927796
0.009670999 -0.032788467 0.014496429 0.06511824 8.399816e-05 -0.060406625 -0.051884595 -0.0077301124
0.03604376 -0.035598993 0.05346337 -0.052690603 0.007981469 -0.07297069 0.008017755 0.03901328
0.054566815 0.07205925 0.009517503 0.07068194 -0.043020524 0.06270189 -0.06685557 0.055696186
0.024289807 -0.034572773 -0.020994276 0.010975468 0.047077507 0.034709845 0.027493432 -0.046496242
0.0668563 -0.0078030233 0.009673157 0.04924106 -0.012947023 0.059373174 -0.05914226 -0.00014642533
-0.01152448 0.00021514075 -0.02232584 0.010258795 0.020129314 0.021556797 -0.060441267 0.036110163
0.0076270555 0.031534966 -0.052873377 -0.011407379 0.077998035 -0.024425123 -0.040251087 -0.06347385
-0.038299423 0.04319815 0.049956318 -0.024585634 -0.012256713 0.066781595 -0.021218227 -0.017195705
0.005270126 -0.070035346 0.05442122 0.063835934 -0.049837455 -0.062279224 -0.03785453 -0.04754794
-0.016509803 -0.06492656 0.0032983676 -0.060947016 -0.07064529 -0.07356178 0.0637389 0.048991185
0.030167215 -0.055019144 0.04241886 -0.013706716 -0.0045739 -0.07112089 0.06690929 -0.02997081
-0.011911248 0.00038033607 0.04907364 0.020719232 0.050587907 -0.040917955 0.07849514 -0.056406092
0.07691808 0.03273333 -0.051913217 0.042288724 -0.002202343 -0.065641895 0.016449777 -0.0004493164
-0.03160233 -0.006406861 -0.049908157 -0.032263048 -0.013007885 0.010606394 0.0007936867 0.052071597
-0.026933344 -0.029110486 -0.030470502 -0.053554993 -0.075568154 0.0147296665 -0.02325316 0.04010919
-0.013225189 0.045831103 -0.06427864 -0.01271192 -0.049043056 -0.044209365 -0.013213596 0.032215178
-0.010482948 0.07163594 0.02023558 0.08359456 0.019784134 -0.05622656 0.087325655 0.011874843
0.035601683 0.027614586 0.02536038 -0.06883173 -0.045408312 0.0695273 0.025559518 -0.020530956
0.057693884 0.015542918 -0.0015783614 -0.054798033 0.01662783 0.04502799 0.055479094 -0.018386463
-0.0663747 0.016113041 0.022915918 0.04644114 -0.030979116 0.056801323 0.003033162 -0.04776558
0.0033263832 0.016702281 -0.0622727 -0.00031139693 0.010967871 0.06294961 -0.03876012 0.0039421795
-0.0025345157 -0.013728536 -0.0019088135 -0.065329835 0.035460237 -0.07649931 -0.045633864 -0.013558742
0.012382888 0.027713532 0.05670074 -0.0025064847 0.03241449 0.037243307 -0.0064738807 -0.015044647
0.049151532 -0.05627435 -0.008364372 -0.08007116 -0.007628929 0.0750979 0.0064608944 0.027749013
-0.0035361 -0.00048503673 -0.059898067 0.049623366 -0.0583867 -0.017370664 0.077124104 -0.009474973
-0.013150439 -0.04574149 -0.078072086 0.01797867 -0.089553565 0.0031122125 -0.04652778 0.044545002
0.01006194 0.00028411372 0.003502771 0.00880199 -0.021800824 0.01472937 -0.0046283086 0.058965147

policy_network.9.bias f4 [7]
00000000: 8bce 363c e863 7d3b 41f0 343a b92b 573a
00000010: b727 42bb ea13 703b 090f fe3c
0.011157642 0.0038664285 0.00069022557 0.00082081143 -0.0029625723 0.0036632963 0.031013029

exp_avg f4 [128, 15]
00000000: 0bd9 42b7 8ed7 52b6 0d3f 1a37 0120 51b7
00000010: 4e75 f7b6 023a 7137 8373 f235 8f8d 6535
00000020: d747 8db5 14c1 4036 3f30 5136 2458 acb4
00000030: 7af3 a434 9aa2 90b5 6f5e 2bb5 14ff 22b7
00000040: 7d6a b1b6 f169 cd36 ab97 c9b6 aa46 aab6
00000050: 1251 2a37 e343 c235 0ef9 3335 84a6 c134
00000060: d222 1136 3d71 1c36 ed09 a732 df2f c833
00000070: e17f 13b4 e7ca 61b4 f482 c337 1b95 fe36
00000080: a00d 71b7 bbeb a437 9b1f 5837 c3ad edb7
00000090: 15b0 94b6 0de5 2bb6 9aa1 8535 1c95 beb6
000000a0: 8d40 cab6 e471 9f32 392a d633 6d63 39b5
000000b0: a096 7aaf 0000 0000 0000 0000 0000 0000
000000c0: 0000 0000 0000 0000 0000 0000 0000 0000
000000d0: 0000 0000 0000 0000 0000 0000 0000 0000
000000e0: 0000 0000 0000 0000 0000 0000 0000 0000
000000f0: a863 f1b6 09cc 74b6 7438 6936 37a2 0ab6
00000100: e7ca 2ab6 30ce da35 f16d 2035 cc19 9ab5
00000110: 1964 1635 7662 8635 4db9 8235 6b87 edb3
00000120: 3579 0934 1b23 b6b4 f480 8db4 0000 0000
00000130: 0000 0000 0000 0000 0000 0000 0000 0000
00000140: 0000 0000 0000 0000 0000 0000 0000 0000
00000150: 0000 0000 0000 0000 0000 0000 0000 0000
00000160: 0000 0000 0000 0000 d87f 7eb6 a1c9 dfb5
00000170: c529 1836 b42a 10b6 5dd9 eeb5 461d 5536
00000180: d5eb 1135 cbe9 fdaf caed 2333 bf4c 5735
00000190: c25e 4435 6b1a ccb3 f268 59b3 14b2 bcb4
000001a0: f73d 5cb4 0000 0000 0000 0000 0000 0000
000001b0: 0000 0000 0000 0000 0000 0000 0000 0000
000001c0: 0000 0000 0000 0000 0000 0000 0000 0000
000001d0: 0000 0000 0000 0000 0000 0000 0000 0000
000001e0: 0000 0000 0000 0000 0000 0000 0000 0000
000001f0: 0000 0000 0000 0000 0000 0000 0000 0000
00000200: 0000 0000 0000 0000 0000 0000 0000 0000
00000210: 0000 0000 0000 0000 0000 0000 0000 0000
00000220: 0000 0000 0000 0000 0000 0000 0000 0000
00000230: 0000 0000 0000 0000 0000 0000 0000 0000
00000240: 0000 0000 0000 0000 0000 0000 0000 0000
00000250: 0000 0000 0000 0000 f357 22b3 bf78 b8b5
00000260: 8038 a034 eca6 a235 a80c f433 56d7 5eb5
00000270: 6a6b b4b4 684b 9bb3 33e9 cd34 d5fb 49b4
00000280: 64fe b933 88db b3b1 d692 82b2 2bae 8034
00000290: a3db b834 0000 0000 0000 0000 0000 0000
000002a0: 0000 0000 0000 0000 0000 0000 0000 0000
000002b0: 0000 0000 0000 0000 0000 0000 0000 0000
000002c0: 0000 0000 0000 0000 0000 0000 0000 0000
000002d0: 0000 0000 0000 0000 0000 0000 0000 0000
000002e0: 0000 0000 0000 0000 0000 0000 0000 0000
000002f0: 0000 0000 0000 0000 0000 0000 0000 0000
00000300: 0000 0000 0000 0000 0000 0000 0000 0000
00000310: 0000 0000 0000 0000 0000 0000 0000 0000
00000320: 0000 0000 0000 0000 0000 0000 0000 0000
00000330: 0000 0000 0000 0000 0000 0000 0000 0000
00000340: 0000 0000 0000 0000 edc1 42b6 3ea8 8db4
00000350: 58f9 ee35 3004 35b6 630e c1b5 e8ef 2f36
00000360: 1db2 0335 d757 57b2 27f5 bfb4 5428 2635
00000370: 2a60 2b35 7040 a9b3 27c4 96b3 2e9a edb3
00000380: 0a16 5db4 0000 0000 0000 0000 0000 0000
00000390: 0000 0000 0000 0000 0000 0000 0000 0000
000003a0: 0000 0000 0000 0000 0000 0000 0000 0000
000003b0: 0000 0000 0000 0000 0000 0000 0000 0000
000003c0: f963 2a37 499f f235 ac1d a0b6 bf00 0f37
000003d0: 0fe9 b336 cb96 43b7 6817 28b6 dc5a 84b5
000003e0: 3f62 1535 c5d2 23b6 308c 27b6 d90b 03b3
000003f0: 86ed b632 4bc4 44b2 9ac3 7b35 95c5 52b5
-1.1613835e-05 -3.1417908e-06 9.193795e-06 -1.2464822e-05 -7.3748297e-06 1.4378225e-05 1.8064023e-06 8.551514e-07
-1.0526227e-06 2.8722616e-06 3.117151e-06 -3.2101627e-07 3.0724533e-07 -1.0776159e-06 -6.3839883e-07 -9.7153425e-06
-5.287408e-06 6.1218093e-06 -6.0079233e-06 -5.074621e-06 1.0151665e-05 1.4473884e-06 6.704512e-07 3.6070207e-07
2.1626952e-06 2.3311725e-06 1.9445872e-08 9.3219334e-08 -1.3736964e-07 -2.1028573e-07 2.3306791e-05 7.587148e-06
-1.4367892e-05 1.9660094e-05 1.2881962e-05 -2.8333516e-05 -4.4312424e-06 -2.561431e-06 9.956304e-07 -5.6798e-06
-6.027584e-06 1.8561828e-08 9.972832e-08 -6.9062554e-07 -2.279088e-10 0.0 0.0 0.0
0.0 0.0 0.0 0.0 0.0 0.0 0.0 0.0
0.0 0.0 0.0 0.0 -7.193961e-06 -3.6477597e-06 3.4752566e-06 -2.0658024e-06
-2.5450079e-06 1.6302274e-06 5.976463e-07 -1.1481402e-06 5.6025016e-07 1.0012434e-06 9.739684e-07 -1.1060805e-07
1.2803214e-07 -3.3925684e-07 -2.6357122e-07 0.0 0.0 0.0 0.0 0.0
0.0 0.0 0.0 0.0 0.0 0.0 0.0 0.0
0.0 0.0 -3.7923364e-06 -1.6673476e-06 2.2674078e-06 -2.1482529e-06 -1.7795643e-06 3.1756513e-06
5.435989e-07 -4.6186552e-10 3.8167663e-08 8.020542e-07 7.315358e-07 -9.504296e-08 -5.0619697e-08 -3.5147298e-07
-2.051164e-07 0.0 0.0 0.0 0.0 0.0 0.0 0.0
0.0 0.0 0.0 0.0 0.0 0.0 0.0 0.0
0.0 0.0 0.0 0.0 0.0 0.0 0.0 0.0
0.0 0.0 0.0 0.0 0.0 0.0 0.0 0.0
0.0 0.0 0.0 0.0 0.0 0.0 0.0 0.0
0.0 0.0 0.0 0.0 0.0 0.0 -3.7798554e-08 -1.374421e-06
2.9843432e-07 1.2118521e-06 1.13644376e-07 -8.30148e-07 -3.3605767e-07 -7.231466e-08 3.83539e-07 -1.88112e-07
8.661007e-08 -5.2345435e-09 -1.5200765e-08 2.3968582e-07 3.4432477e-07 0.0 0.0 0.0
0.0 0.0 0.0 0.0 0.0 0.0 0.0 0.0
0.0 0.0 0.0 0.0 0.0 0.0 0.0 0.0
0.0 0.0 0.0 0.0 0.0 0.0 0.0 0.0
0.0 0.0 0.0 0.0 0.0 0.0 0.0 0.0
0.0 0.0 0.0 0.0 0.0 0.0 0.0 0.0
0.0 0.0 -2.9021132e-06 -2.638571e-07 1.780495e-06 -2.697354e-06 -1.4383808e-06 2.6216676e-06
4.906049e-07 -1.253462e-08 -3.5754894e-07 6.1898504e-07 6.38424e-07 -7.881397e-08 -7.020599e-08 -1.10642176e-07
-2.0590247e-07 0.0 0.0 0.0 0.0 0.0 0.0 0.0
0.0 0.0 0.0 0.0 0.0 0.0 0.0 0.0
1.0156066e-05 1.8076763e-06 -4.771826e-06 8.523638e-06 5.3617473e-06 -1.1658015e-05 -2.5047575e-06 -9.86121e-07
5.564979e-07 -2.4411577e-06 -2.496654e-06 -3.051159e-08 2.1295602e-08 -1.1453333e-08 9.3789424e-07 -7.8518616e-07

exp_avg_sq f4 [128, 15]
00000000: b5c3 8d33 47d3 1732 4cd9 f732 0550 3433
00000010: 1366 9432 77bb 9833 e1d6 e130 8627 6a2f
00000020: 0685 9b2e 2760 6d31 d8cd 6831 4a42 052d
00000030: 1a35 c02c ca69 422e 4986 2a2d 8f38 6631
00000040: 7c98 0330 da98 c630 2542 0531 5597 5730
00000050: 2e7a 4b31 ed6b 992e 9d56 e82c 456b 482c
00000060: 20e0 2b2f 772c 302f 44f9 a32a 3ad7 642a
00000070: 083a 282d b1a5 512c eb69 d731 50b6 6330
00000080: a28c 3931 84ed 8731 7a2b e230 a186 ea31
00000090: 1641 2e2f dad0 b72d 2071 ed2c f6c7 b62f
000000a0: d639 b02f 546a 402b 1cbf 0a2b 2f0a 422d
000000b0: dbf2 152c 0000 0000 0000 0000 0000 0000
000000c0: 0000 0000 0000 0000 0000 0000 0000 0000
000000d0: 0000 0000 0000 0000 0000 0000 0000 0000
000000e0: 0000 0000 0000 0000 0000 0000 0000 0000
000000f0: a23d 3b33 6c4a cb31 76f1 a832 0ea7 f632
00000100: 80b8 4732 b8cb 4f33 4960 9530 d2a6 2a2f
00000110: 224f 602e b8e4 1e31 b7b0 1d31 3bf1 9d2c
00000120: d6e3 822c 8f04 cf2d 856e 5e2d 0000 0000
00000130: 0000 0000 0000 0000 0000 0000 0000 0000
00000140: 0000 0000 0000 0000 0000 0000 0000 0000
00000150: 0000 0000 0000 0000 0000 0000 0000 0000
00000160: 0000 0000 0000 0000 fdb6 1631 31ef a32f
00000170: 7e11 8130 82fe b230 e9b3 1030 5e34 0a31
00000180: ea1c 522e 03ad ad2c b21f 102c bed0 e62e
00000190: 601e e72e 9809 6a2a 1d60 1e2a a8a6 f92c
000001a0: b6a2 3d2c 0000 0000 0000 0000 0000 0000
000001b0: 0000 0000 0000 0000 0000 0000 0000 0000
000001c0: 0000 0000 0000 0000 0000 0000 0000 0000
000001d0: 0000 0000 0000 0000 0000 0000 0000 0000
000001e0: 0000 0000 0000 0000 0000 0000 0000 0000
000001f0: 0000 0000 0000 0000 0000 0000 0000 0000
00000200: 0000 0000 0000 0000 0000 0000 0000 0000
00000210: 0000 0000 0000 0000 0000 0000 0000 0000
00000220: 0000 0000 0000 0000 0000 0000 0000 0000
00000230: 0000 0000 0000 0000 0000 0000 0000 0000
00000240: 0000 0000 0000 0000 0000 0000 0000 0000
00000250: 0000 0000 0000 0000 74b2 fa30 f2ff 922f
00000260: 619d 5730 36b0 8e30 4c65 e82f 7f78 d430
00000270: 4dd9 222e 1dbd 362c 9b32 bb2b cef1 b62e
00000280: 3b49 bd2e 43c5 252a 6f5c d329 6750 8e2c
00000290: 07d4 312c 0000 0000 0000 0000 0000 0000
000002a0: 0000 0000 0000 0000 0000 0000 0000 0000
000002b0: 0000 0000 0000 0000 0000 0000 0000 0000
000002c0: 0000 0000 0000 0000 0000 0000 0000 0000
000002d0: 0000 0000 0000 0000 0000 0000 0000 0000
000002e0: 0000 0000 0000 0000 0000 0000 0000 0000
000002f0: 0000 0000 0000 0000 0000 0000 0000 0000
00000300: 0000 0000 0000 0000 0000 0000 0000 0000
00000310: 0000 0000 0000 0000 0000 0000 0000 0000
00000320: 0000 0000 0000 0000 0000 0000 0000 0000
00000330: 0000 0000 0000 0000 0000 0000 0000 0000
00000340: 0000 0000 0000 0000 cb46 2c31 9184 c12f
00000350: 2d98 9630 d89d cd30 c491 2630 23ec 1e31
00000360: 0887 672e d1c1 ca2c 94ed 202c 594c 032f
00000370: b375 062f 26da 752a ee99 3a2a 54f4 192d
00000380: fb06 8d2c 0000 0000 0000 0000 0000 0000
00000390: 0000 0000 0000 0000 0000 0000 0000 0000
000003a0: 0000 0000 0000 0000 0000 0000 0000 0000
000003b0: 0000 0000 0000 0000 0000 0000 0000 0000
000003c0: 7913 8431 9ee9 1530 3160 ea30 2e96 2431
000003d0: 2d81 8630 a9c6 8931 914c c52e bb85 482d
000003e0: f117 802c fe5b 592f e2f2 552f c6ae e72a
000003f0: 8eb7 8d2a d8ed db2c 2079 612c 1ba4 4431
6.601423e-08 8.837396e-09 2.88534e-08 4.1982293e-08 1.7275886e-08 7.112151e-08 1.6431977e-09 2.1296218e-10
7.0722136e-11 3.4542695e-09 3.3877452e-09 7.574894e-12 5.4628637e-12 4.4204453e-11 9.6931985e-12 3.3501555e-09
4.7874216e-10 1.4449839e-09 1.9391646e-09 7.84316e-10 2.960984e-09 6.976806e-11 6.6034526e-12 2.8481256e-12
1.5631985e-10 1.6022904e-10 2.912758e-13 2.032514e-13 9.56258e-12 2.9792664e-12 6.269365e-09 8.28412e-10
2.7000984e-09 3.9560195e-09 1.6456021e-09 6.825602e-09 1.5848331e-10 2.089744e-11 6.7485045e-12 3.3247688e-10
3.2055308e-10 6.835966e-13 4.9292666e-13 1.10298845e-11 2.1308985e-12 0.0 0.0 0.0
0.0 0.0 0.0 0.0 0.0 0.0 0.0 0.0
0.0 0.0 0.0 0.0 4.3595385e-08 5.9165384e-09 1.9667578e-08 2.8714137e-08
1.1625275e-08 4.8381224e-08 1.0868543e-09 1.5520676e-10 5.1001987e-11 2.3122038e-09 2.2946958e-09 4.4889903e-12
3.720117e-12 2.35352e-11 1.2643779e-11 0.0 0.0 0.0 0.0 0.0
0.0 0.0 0.0 0.0 0.0 0.0 0.0 0.0
0.0 0.0 2.193189e-09 2.9819483e-10 9.390957e-10 1.302354e-09 5.264256e-10 2.011141e-09
4.7774153e-11 4.936164e-12 2.0481225e-12 1.0496269e-10 1.05100595e-10 2.0786704e-13 1.4066565e-13 7.095508e-12
2.6948838e-12 0.0 0.0 0.0 0.0 0.0 0.0 0.0
0.0 0.0 0.0 0.0 0.0 0.0 0.0 0.0
0.0 0.0 0.0 0.0 0.0 0.0 0.0 0.0
0.0 0.0 0.0 0.0 0.0 0.0 0.0 0.0
0.0 0.0 0.0 0.0 0.0 0.0 0.0 0.0
0.0 0.0 0.0 0.0 0.0 0.0 1.8240613e-09 2.6739105e-10
7.8440193e-10 1.0381942e-09 4.227253e-10 1.5459277e-09 3.7027537e-11 2.5968735e-12 1.3301195e-12 8.319355e-11
8.607733e-11 1.4723383e-13 9.386317e-14 4.044809e-12 2.5270912e-12 0.0 0.0 0.0
0.0 0.0 0.0 0.0 0.0 0.0 0.0 0.0
0.0 0.0 0.0 0.0 0.0 0.0 0.0 0.0
0.0 0.0 0.0 0.0 0.0 0.0 0.0 0.0
0.0 0.0 0.0 0.0 0.0 0.0 0.0 0.0
0.0 0.0 0.0 0.0 0.0 0.0 0.0 0.0
0.0 0.0 2.5069535e-09 3.520069e-10 1.0957187e-09 1.4960575e-09 6.0597594e-10 2.3126254e-09
5.264325e-11 5.7627032e-12 2.286925e-12 1.1941505e-10 1.2229044e-10 2.1836057e-13 1.6573524e-13 8.751295e-12
4.008236e-12 0.0 0.0 0.0 0.0 0.0 0.0 0.0
0.0 0.0 0.0 0.0 0.0 0.0 0.0 0.0
3.8439194e-09 5.4537874e-10 1.705308e-09 2.3950508e-09 9.786497e-10 4.00981e-09 8.972124e-11 1.1398378e-11
3.640637e-12 1.9768717e-10 1.9458526e-10 4.1155116e-13 2.5173998e-13 6.2507603e-12 3.204166e-12 2.8615037e-09
