robot_state_berkeley_training/robot_state_epoch_7.pth (torch, 838027 bytes, 24 tensors)

policy_network.0.weight f4 [128, 15]
0	0xbd81c23b	-0.06335875
1	0xbcb0bab0	-0.021573395
2	0x3e66298c	0.22476786
3	0x3dfbc7d8	0.122939765
4	0x3dcce9f8	0.100055635
5	0x3c33ce9b	0.010974552
6	0x3e06412f	0.13110803
7	0xbdb6ea5d	-0.0893142
8	0x3e224b31	0.15848996
9	0x3e55e8cb	0.20889585
10	0xbdf3443c	-0.11878249
11	0x3ec2166e	0.37907737
12	0x3e18fe4c	0.14940757
13	0x3e8bb9e4	0.2729026
14	0x3ea09863	0.31366262
15	0x3de4fc24	0.111809045
16	0x3df715ef	0.120647304
17	0xbde99afd	-0.11406515
18	0xbe269bd1	-0.16270377
19	0xbd7a109e	-0.061051004
20	0x3e001945	0.1250964
21	0x3dc1a0d2	0.09454502
22	0xbd49fa2d	-0.04931085
23	0xbe92fd79	-0.2870901
24	0xbd2767e4	-0.040870562
25	0xbe053e4a	-0.13012043
26	0x3cf1668c	0.029467843
27	0xbe4d6663	-0.20058589
28	0x3e7429bf	0.2384405
29	0x3d819475	0.06327144
30	0x3abcbb31	0.0014399049
31	0xbd945dc6	-0.07244448
32	0xbe6002b3	-0.2187603
33	0x3d38c671	0.045111123
34	0xbd1751c7	-0.036943223
35	0x3e1671fc	0.14691919
36	0x3e3cb17e	0.18427083
37	0x3e814a94	0.2525221
38	0x3e4a47be	0.1975393
39	0xbe0843dc	-0.13307136
40	0x3e80be81	0.25145343
41	0xbd10f2f2	-0.03538794
42	0xbe12d554	-0.1433919
43	0x3e2a02b6	0.16602597
44	0xbe2322d7	-0.15931259
45	0x3e45ca7d	0.19315524
46	0xbe050acc	-0.129924
47	0xbd542d5d	-0.051801074
48	0xbdc3a15a	-0.0955226
49	0xbe0478c9	-0.12936701
50	0xbe418900	-0.18899918
51	0x3c0732c9	0.008251854
52	0x3e3885b0	0.18019748
53	0x3e6fc2eb	0.23414199
54	0xbd73cb31	-0.05951995
55	0xbd7c5cfa	-0.061612107
56	0x3e1207ee	0.14260837
57	0xbd858d91	-0.06521142
58	0x3d90ce91	0.070706494
59	0xbbd16a18	-0.006390821
60	0x3d87db58	0.066336334
61	0xbd0b74b2	-0.034046836
62	0x3e46e122	0.19421819
63	0xbe67ce70	-0.22637343
64	0xbcb6d0f5	-0.022316435
65	0xbe83b74d	-0.25725785
66	0x3d9c817d	0.076418854
67	0xbd3894aa	-0.045063652
68	0xbe1693d5	-0.14704831
69	0x3dbc392a	0.09190591
70	0xbdb9e92f	-0.09077679
71	0x3eb6f87d	0.35736457
72	0xbe7c599b	-0.24643557
73	0x3ea19263	0.31556997
74	0x3ea082dc	0.31349838
75	0x3c80a6d1	0.015704544
76	0x3d98f192	0.07467951
77	0x3c5ebf39	0.013595396
78	0xbde791ef	-0.113071315
79	0x3d516ce7	0.051129248
80	0xbda97362	-0.08273961
81	0xbe44a0ae	-0.1920192
82	0xbe43659f	-0.19081734
83	0x3e74b23b	0.23896115
84	0xbc584ac0	-0.013201416
85	0xbe16a976	-0.14713082
86	0x3ddeb8ea	0.10875113
87	0xbe6ab464	-0.22920376
88	0xbe809235	-0.25111547
89	0xbe504dbc	-0.20342153
90	0xbd9d7054	-0.076874405
91	0x3e84ac0e	0.25912517
92	0x3de88254	0.11352983
93	0x3e3bb518	0.183308
94	0xbe1e42be	-0.15455148
95	0x3e07a49a	0.13246384
96	0xbe2b59fc	-0.16733545
97	0xbe7c6d11	-0.2465098
98	0x3e114e2c	0.14189976
99	0x3c2faa52	0.01072176
100	0xbdf2441e	-0.118293986
101	0x3cfcb133	0.030846214
102	0xbe36ab8f	-0.17838882
103	0x3baf5164	0.0053502787
104	0x3daf6db9	0.0856585
105	0x3d3838c5	0.044976015
106	0xbbbce5d0	-0.0057647005
107	0xbe587fd4	-0.21142513
108	0x3e26d0a3	0.16290526
109	0x3e49204e	0.1964123
110	0x3e227cee	0.1586797
111	0x3dd31972	0.10307588
112	0x3d619160	0.05507028
113	0xbdc8c91b	-0.09803983
114	0x3dee4e02	0.116359726
115	0xbdb00c05	-0.085960425
116	0x3d02978f	0.03188282
117	0xbe1e0877	-0.15432917
118	0xbe1a295a	-0.15054837
119	0xbe342dda	-0.17595616
120	0xbd2d27a6	-0.04227414
121	0x3e1cc504	0.1530953
122	0xbe519119	-0.20465507
123	0x3ded83b9	0.1159739
124	0x3e65c8df	0.22439907
125	0xbe6479c1	-0.2231207
126	0x3e28c35f	0.16480778
127	0xbe42a712	-0.19009045
128	0x3e40ff78	0.18847454
129	0xbe309b56	-0.17246756
130	0x3dbcd921	0.092211016
131	0x3e8018c2	0.2501889
132	0x3d501bca	0.05080775
133	0xbe144dfc	-0.14482874
134	0xbdaedab7	-0.0853781
135	0xbddc9f96	-0.10772626
136	0xbe3b18f1	-0.18271233
137	0xbe5ea173	-0.21741275
138	0x3e820043	0.25390825
139	0xbddc1ae3	-0.10747316
140	0xbde9efc3	-0.11422684
141	0x3e8240d2	0.2544008
142	0x3e27f189	0.16400732
143	0x3e784413	0.24244718
144	0x3e213f29	0.1574675
145	0xbdcb256b	-0.09919246
146	0x3dbbe163	0.091738485
147	0x3e4d6ca0	0.20060968
148	0x3e246584	0.1605435
149	0xbe53c8e0	-0.20682096
150	0xbe502a32	-0.20328596
151	0x3cf83696	0.030299466
152	0xbe2115ef	-0.15731023
153	0xbda0514a	-0.07828005
154	0xbe2af7e8	-0.16696131
155	0xbe10d751	-0.14144637
156	0xbe4cfd75	-0.20018561
157	0xbdf84617	-0.121227436
158	0xbe246988	-0.16055882
159	0x3c288923	0.010286602
160	0xbe758795	-0.23977502
161	0xbdc4e9f1	-0.09614933
162	0x3dbad5af	0.09122788
163	0x3e5eeef1	0.21770836
164	0xbc3c79a7	-0.011503614
165	0x3e6bc932	0.23025969
166	0x3d5b4581	0.05353308
167	0x3e0da8f0	0.13833976
168	0x3d230b24	0.039805546
169	0xbdc202ac	-0.09473166
170	0xbe4f81b4	-0.20264322
171	0xbb66ba9c	-0.0035206443
172	0xbe1d2114	-0.1534465
173	0xbe72f443	-0.23725991
174	0x3deb3a84	0.1148577
175	0x3c6671ab	0.0140651865
176	0x3e80036b	0.25002608
177	0x3e369943	0.17831902
178	0xbe049774	-0.129484
179	0x3e15ecc0	0.14641094
180	0x3e5125fc	0.20424646
181	0xbe2b3939	-0.16721047
182	0xbe6c05d9	-0.23049106
183	0x3e4a2ad4	0.197429
184	0xbe20fb70	-0.15720916
185	0x3dda0846	0.10646109
186	0xbe6fce50	-0.23418546
187	0xbd78ed5b	-0.060773235
188	0xb9062aa6	-0.00012795124
189	0xbe432af8	-0.1905936
190	0x3e2fe243	0.17176156
191	0xbc27d5b7	-0.010243825
192	0x3e622306	0.22083673
193	0x3e3d9f2d	0.18517752
194	0xbd4bcd2f	-0.049756225
195	0x3e7f4c6d	0.24931498
196	0x3d84182e	0.064499244
197	0x3e4f79c1	0.20261289
198	0x3e4649e5	0.19364126
199	0x3e08ac08	0.13346875
200	0xbe2ead50	-0.17058301
201	0x3e2e1de8	0.17003596
202	0xbe81dd2c	-0.25364053
203	0xbe0ec113	-0.1394084
204	0xbe37795b	-0.17917387
205	0xbe07f2f8	-0.13276279
206	0x3e6f27ab	0.23354976
207	0x3b97cb31	0.0046323766
208	0xbd673a94	-0.05645235
209	0x3e812e3e	0.25230592
210	0xbe5d8985	-0.21634491
211	0xbe5dd03d	-0.21661468
212	0xbe8433a7	-0.25820658
213	0xbe0f1681	-0.13973428
214	0xbe0927e4	-0.13394123
215	0x3da01c63	0.07817914
216	0x3d72a32b	0.05923764
217	0x3e59f149	0.21283449
218	0x3e9b2a30	0.30305624
219	0xbe8d9a2f	-0.27656695
220	0xbe928885	-0.2861978
221	0xbea016b7	-0.3126733
222	0x3e68f351	0.22749068
223	0xbd6ff5c4	-0.05858399
224	0x3d50e098	0.05099544
225	0xbd7b310c	-0.06132607
226	0x3e34b4ec	0.17647141
227	0xbe763a44	-0.24045664
228	0x3e286bfd	0.16447444
229	0x3e51142d	0.20417853
230	0xbc67be1a	-0.014144445
231	0xbe13e461	-0.14442588
232	0xbdf39121	-0.118929155
233	0xbd455dbf	-0.048185106
234	0x3dc92661	0.09821773
235	0x3de2e42a	0.11078675
236	0xbe53d26e	-0.20685741
237	0xbe44c9c2	-0.1921759
238	0x3db7ef8a	0.08981235
239	0xbe07c895	-0.1326011
240	0xbe482d37	-0.19548498
241	0x3e84e73f	0.25957677
242	0x3e342997	0.1759399
243	0x3dd95314	0.10611549
244	0x3e53900b	0.20660417
245	0x3e1c809b	0.15283434
246	0xbdc01de8	-0.09380704
247	0x3cf061f1	0.029343577
248	0x3e5cae1a	0.2155079
249	0xbe67776b	-0.22604148
250	0xbdbd8c15	-0.09255234
251	0xbd85e126	-0.06537084
252	0xbd455c19	-0.048183534
253	0xbeb5bee2	-0.35497195
254	0xbe87718c	-0.26453817
255	0xbd653e85	-0.055967826

policy_network.0.bias f4 [128]
0	0xbe73f5b4	-0.23824197
1	0x3e1cfeee	0.15331623
2	0xbd7f00e5	-0.062256712
3	0x3b953886	0.0045538573
4	0x3d9bbecd	0.07604752
5	0xbdbc32d1	-0.0918938
6	0x3e0d5528	0.13802016
7	0x3da5df68	0.08099252
8	0x3e4c9275	0.19977744
9	0x3d1ae627	0.037817147
10	0xbdd6ef73	-0.1049489
11	0x3dcd87da	0.10035677
12	0x3e3546a2	0.17702726
13	0x3e30a4cf	0.1725037
14	0xbd9319f9	-0.07182688
15	0x3e7e4a0c	0.24832934
16	0x3e1845fe	0.1487045
17	0xbe3766f6	-0.1791037
18	0x3c80a36f	0.015702931
19	0xbdbae419	-0.091255374
20	0x3e42e8fc	0.19034189
21	0xbdd911eb	-0.10599121
22	0xbe2eb204	-0.17060095
23	0xbe5ca5e7	-0.21547662
24	0x3e1f7413	0.15571623
25	0xbe32d350	-0.17463422
26	0x3dc83628	0.097759545
27	0xbe733dd4	-0.23754054
28	0xbe4a41db	-0.19751684
29	0x3d14eea6	0.036360405
30	0x3d51bc33	0.05120487
31	0x3df00063	0.11718824
32	0xbe66b743	-0.22530846
33	0xbcd5cfe5	-0.026100108
34	0xbe6e6d4a	-0.23283878
35	0xbe444cdf	-0.19169949
36	0xbe326587	-0.17421542
37	0x3db325ce	0.08747445
38	0xbe886f5d	-0.26647463
39	0x3d3dbfc0	0.046325445
40	0x3da53b03	0.08067896
41	0xbc580299	-0.013184213
42	0x3d34beb1	0.04412717
43	0x3e3609ae	0.1777713
44	0xbd007f92	-0.03137166
45	0xbe26784f	-0.16256832
46	0xbd5e1fb1	-0.054229442
47	0x3c2720ad	0.010200662
48	0xbe415e15	-0.18883546
49	0xbe0884b0	-0.13331866
50	0x3d68a435	0.056797225
51	0xbe04bf8e	-0.12963697
52	0xbe30ee8e	-0.17278501
53	0x3e34c3b2	0.17652777
54	0x3d3ac0f5	0.045594174
55	0x3e1cb06a	0.15301672
56	0xbde4afb6	-0.11166327
57	0xbe1aa8ad	-0.15103407
58	0x3e3f1e6a	0.18663946
59	0xbccc98be	-0.024975177
60	0xbe48a15f	-0.19592808
61	0xbe6618ae	-0.22470352
62	0xbda28c09	-0.07936866
63	0x3e0dd5a3	0.13851027
64	0x3e2dfa42	0.16989997
65	0x3e0c2ed7	0.13689743
66	0x3d491688	0.049093753
67	0x3e134043	0.14379983
68	0xbdbdaa83	-0.09261038
69	0xbdfd087c	-0.12355134
70	0xbe165377	-0.14680277
71	0xbcf30f85	-0.029670486
72	0xbe075303	-0.1321526
73	0x3e72a9ef	0.23697637
74	0xbdc53f6c	-0.096312374
75	0xbe6be74f	-0.23037456
76	0xbe0e7cbe	-0.13914773
77	0x3dfee5d6	0.124461815
78	0xbe5baebe	-0.21453378
79	0xbd8b3fbf	-0.06799268
80	0x3e6baa51	0.2301419
81	0xbddf89ab	-0.1091493
82	0x3da431ec	0.08017334
83	0x3e27cc3a	0.163865
84	0xbd642b0b	-0.05570511
85	0x3d1d3bc9	0.038387094
86	0xbd2b2498	-0.041782945
87	0xbce7f129	-0.028313236
88	0x3d398ecb	0.045302194
89	0x3e3cbd6d	0.18431635
90	0xbe2f2ef2	-0.17107752
91	0x3e79e076	0.24402031
92	0xbe805231	-0.25062707
93	0x3ae0b866	0.0017144799
94	0xbddad8b6	-0.106858656
95	0xbcbeae63	-0.023276513
96	0x3dd01f72	0.10162248
97	0x3d68443c	0.0567057
98	0x3e0a2ac9	0.13492884
99	0xbe360414	-0.17774993
100	0x3cca3f65	0.024688432
101	0xbe8888b6	-0.26666802
102	0x3e6851db	0.22687475
103	0xbd4efdf9	-0.050535176
104	0xbe64300f	-0.22283958
105	0x3d85ebc5	0.0653911
106	0xbe519841	-0.20468237
107	0x3d8ad083	0.06778052
108	0xbe36e692	-0.17861393
109	0x3e478521	0.19484378
110	0x3de4e53b	0.11176535
111	0xbdf3c94d	-0.119036295
112	0xbe592563	-0.21205668
113	0xbe88c2d8	-0.26711154
114	0x3e59e1e1	0.21277572
115	0xbcb06e2a	-0.021536905
116	0x3e64c382	0.22340205
117	0xbd7360d1	-0.059418503
118	0xbdad1ac6	-0.08452372
119	0x3dc049d3	0.09389081
120	0xbe42d852	-0.19027832
121	0x3d001fd8	0.03128037
122	0x3e0a83c9	0.13526835
123	0xbdf8bf9d	-0.12145922
124	0x3e287698	0.1645149
125	0xbc84900c	-0.016181968
126	0xbe086286	-0.13318834
127	0xbe3915a2	-0.18074659

policy_network.3.weight f4 [256, 128]
0	0xbd18b017	-0.037277307
1	0xbd4c1b53	-0.049830746
2	0xbca22f33	-0.019797897
3	0xbdb0547f	-0.08609866
4	0xbdcbdc51	-0.099541314
5	0x3d942009	0.07232673
6	0xbdbe0fbd	-0.092803456
7	0x3d9153f7	0.07096093
8	0xbcbaf573	-0.022822117
9	0xbcf9b7c7	-0.03048314
10	0xbdb9af05	-0.090665855
11	0xbda15b71	-0.07878769
12	0x3abf888d	0.0014612839
13	0xbd8094b0	-0.0627836
14	0x3d166bc2	0.03672386
15	0x3d95c059	0.07312078
16	0x3d43ea02	0.04783059
17	0xbda7a4a9	-0.08185703
18	0x3d6cdeca	0.057829656
19	0x3ca377fd	0.019954676
20	0x3d0c393d	0.034234274
21	0xbda5a51e	-0.08088134
22	0xbca94e79	-0.020667301
23	0x3d9038f1	0.07042111
24	0x3c38cbb1	0.011279033
25	0xbd1847a8	-0.03717771
26	0x3d8b0fcc	0.067901224
27	0xbd45a910	-0.048256934
28	0xbcbaef00	-0.022819042
29	0xbd7a2761	-0.06107271
30	0xbccd5492	-0.02506474
31	0xbb8bab5b	-0.0042623705
32	0x3c85949d	0.016306216
33	0x3d65fb10	0.056147635
34	0x3d54b2eb	0.051928442
35	0xbda4b95b	-0.08043166
36	0xb91390bd	-0.00014072932
37	0xbd102f28	-0.03520122
38	0x3d9d7762	0.07688786
39	0xbd7a7530	-0.061146915
40	0xbd09ddc4	-0.033658758
41	0x3d4b7130	0.04966849
42	0xbd0b9efd	-0.03408717
43	0xbda5a7ab	-0.08088621
44	0xbcba5254	-0.022744335
45	0x3d64c2e4	0.055849925
46	0xbcac607a	-0.021042097
47	0xbd1867b7	-0.037208285
48	0xbd8e1d94	-0.06939235
49	0x3cba201a	0.022720385
50	0xbd8255e8	-0.063640416
51	0x3c75c7f4	0.015001286
52	0xbd68a81a	-0.05680094
53	0x3d6a1f52	0.057158776
54	0x3c8bf6ef	0.01708552
55	0xbc6dbfa4	-0.014511023
56	0xbdb6a7e1	-0.08918739
57	0xbd8fc15a	-0.07019301
58	0xbd551a79	-0.0520272
59	0xbd7f682d	-0.06235521
60	0xbd6a1251	-0.057146374
61	0x3c7e1e63	0.015510174
62	0xbc91c1fd	-0.017792696
63	0xbb69a195	-0.003564929
64	0x3d340297	0.043947782
65	0xbb7bc7a4	-0.0038418556
66	0x3d3d524b	0.04622106
67	0x3d1c55f4	0.03816791
68	0xbd97d894	-0.07414356
69	0xbbf4fdc2	-0.0074765394
70	0x3d52fe08	0.051511794
71	0xbd599b48	-0.053126603
72	0xbbe3e038	-0.006954219
73	0x3c34b50c	0.011029493
74	0xbda6bc95	-0.08141438
75	0x3c9a735e	0.01885384
76	0xbd34f1ee	-0.044176035
77	0xbc9fb4f1	-0.01949546
78	0x3cd8c3ab	0.02646049
79	0x3d30e116	0.04318341
80	0xbd520557	-0.051274624
81	0xbdb9546a	-0.09049304
82	0x3cb4de09	0.02207853
83	0xbd1a9913	-0.03774364
84	0x3d0ee4d2	0.03488619
85	0x3da7d9e5	0.08195857
86	0x3d5951fd	0.053056706
87	0xbcf65406	-0.030069362
88	0x3a35f6ac	0.0006941359
89	0xbcffae49	-0.031211035
90	0xbc24ae80	-0.01005137
91	0xbdac62f7	-0.084173135
92	0xbdaa40d6	-0.08313148
93	0xbdb33a3a	-0.0875134
94	0xbd968063	-0.073487066
95	0x3d38874f	0.045050915
96	0x3c234d44	0.009967152
97	0x3cd07c05	0.025449762
98	0xbd80c654	-0.06287828
99	0x3ca345a9	0.019930677
100	0xbdb1d747	-0.08683639
101	0x3cfd5fc5	0.030929456
102	0xbd6661a7	-0.056245472
103	0x3d4fa80e	0.05069738
104	0xbc7b30dc	-0.015331473
105	0x3d821443	0.06351521
106	0x3c58d86f	0.013235196
107	0x3d4137d2	0.047172375
108	0x3c8fa9de	0.017537054
109	0x3d75c72d	0.060004402
110	0x3af417c8	0.001862281
111	0x3da2edac	0.079554886
112	0x3c0c3d81	0.008559586
113	0xbc884fc4	-0.016639598
114	0xbb160a65	-0.002289438
115	0xbd2de807	-0.042457607
116	0xbc1fed92	-0.009761231
117	0xbb814d23	-0.003945963
118	0xbd6467eb	-0.055763166
119	0xbbbb2b36	-0.0057119383
120	0xbc414a18	-0.0117974505
121	0xbd471855	-0.04860719
122	0xbd95c58e	-0.07313071
123	0xbdbdeae6	-0.09273319
124	0x3c79c2f3	0.015244233
125	0xbd7a2287	-0.061068084
126	0xbcf42ad3	-0.029805576
127	0xbd39449d	-0.04523145
128	0xbd8f1942	-0.069872394
129	0x3d6c1f7b	0.05764721
130	0x3d27a5ee	0.040929727
131	0xbd98a3ce	-0.07453118
132	0x3d71e911	0.05906016
133	0xbcedc5ac	-0.029024921
134	0x3d00f8a0	0.031487107
135	0x3d5ff008	0.05467227
136	0x3c459d3f	0.012061416
137	0xbd90f0cb	-0.070771776
138	0xbd43e8b1	-0.047829334
139	0xbd9d9522	-0.076944605
140	0x3cfa1af9	0.03053044
141	0x3d81535a	0.06314726
142	0x3da41be2	0.08013131
143	0xbb1f1192	-0.0024271947
144	0xbc685d94	-0.014182467
145	0xbd4e177d	-0.05031537
146	0x3ded4e21	0.115871675
147	0xbb766272	-0.00375953
148	0x3bc076d9	0.0058735427
149	0xbd89e6c1	-0.06733466
150	0xbd23a274	-0.03994985
151	0xbd3ffb51	-0.046870533
152	0x3d4134b5	0.047169406
153	0x3c2c9e1b	0.010535742
154	0xbd29c5f1	-0.041448537
155	0xbd797bd6	-0.060909115
156	0x3cebeae3	0.028798526
157	0xbcd9d9cc	-0.026593111
158	0xbc83975d	-0.016063387
159	0x3d3608e5	0.044442076
160	0x3d1d6be2	0.038432963
161	0x3d89ddee	0.06731783
162	0x3d961782	0.073287025
163	0xbd9b7a96	-0.07591741
164	0xbd339918	-0.043847173
165	0x3c0c2a38	0.008554988
166	0xbd76e779	-0.060279343
167	0xbd0ad65d	-0.03389584
168	0x3d7daef9	0.061934445
169	0xbd1aff31	-0.037841026
170	0x39d44528	0.00040487316
171	0xbd1b0173	-0.03784318
172	0xbd54590b	-0.05184273
173	0xbcd255ce	-0.02567568
174	0xbda738a0	-0.08165097
175	0x3d7f0d5a	0.062268592
176	0x3daafb23	0.08348682
177	0xbd3d2654	-0.04617913
178	0xbd7eb921	-0.06218827
179	0xbd8b0883	-0.06788733
180	0xbcc3ea83	-0.023915535
181	0x3c50efc4	0.012752477
182	0x3c51a1db	0.012794937
183	0x3d38ca73	0.045114946
184	0x3ac74e9f	0.0015205926
185	0xbc0b0d64	-0.008487079
186	0x3c459f90	0.012061968
187	0xbd9476da	-0.07249232
188	0x3d8f475e	0.06996034
189	0x3bb7afe0	0.0056056827
190	0xbd8a41f7	-0.06750863
191	0x3ce44db3	0.027869081
192	0xbd4d078c	-0.050056025
193	0x3c977d6a	0.01849242
194	0x3cea598c	0.028607152
195	0xbda60c04	-0.081077605
196	0x3c6a0077	0.014282337
197	0x3d9a7262	0.07541348
198	0x3dac244d	0.08405361
199	0x3d81a911	0.06331075
200	0x3d4cfeca	0.050047673
201	0x3d65c4b3	0.05609579
202	0xbc90236b	-0.017595014
203	0xbd96af2a	-0.07357629
204	0x3dace1b4	0.08441487
205	0x3d3bc115	0.045838434
206	0xbc67cc43	-0.014147821
207	0x3d5bd1ef	0.053667005
208	0x3d48f1cc	0.04905872
209	0x3d6ad06e	0.05732768
210	0x3d1ead0b	0.038739245
211	0x3d75d5e5	0.06001844
212	0xbdb150c8	-0.08657986
213	0xbd7d7760	-0.061881423
214	0x3af5b59f	0.0018746144
215	0xbd84da41	-0.06486941
216	0x3cf68de4	0.030096956
217	0x3d9775fc	0.073955506
218	0x3d008074	0.031372502
219	0x3c9914c7	0.018686665
220	0xbd041025	-0.03224196
221	0x3d10d67c	0.0353608
222	0xbd96c325	-0.073614396
223	0xbd0ebd82	-0.034848697
224	0x3d325a95	0.043543417
225	0xbd816e2b	-0.06319841
226	0x3d06d69e	0.03291952
227	0xbdb53fc5	-0.08850054
228	0xba965668	-0.0011469843
229	0xbd89cd96	-0.067286655
230	0xbd9b8ca8	-0.075951874
231	0x3d91fe86	0.071286246
232	0xbdb0ea8c	-0.08638486
233	0x3d329ada	0.04360471
234	0x3d9549b5	0.07289449
235	0xba64215d	-0.0008702481
236	0x3da861ad	0.08221755
237	0x3d1839d3	0.03716452
238	0x3d963cdd	0.073358275
239	0x3d86f494	0.06589618
240	0xbda6ada3	-0.08138587
241	0x3c94ff01	0.018188002
242	0xbcc32d63	-0.023825353
243	0x3cc26572	0.023730014
244	0x3d317f99	0.043334577
245	0xbdacaf8b	-0.0843192
246	0x3d17e282	0.03708125
247	0xbd57b963	-0.052667033
248	0x3d5ca172	0.053864904
249	0x3d86976c	0.0657185
250	0xbd9504a2	-0.07276274
251	0xbdccb201	-0.09994889
252	0xbc870408	-0.016481414
253	0x3c1cc515	0.009568472
254	0x3da2d716	0.07951181
255	0xbd7ce1bf	-0.061738726

policy_network.3.bias f4 [256]
0	0xbd0a3a9f	-0.03374731
1	0x3cf8531d	0.030313069
2	0x3d9f45fa	0.07777019
3	0xbdb2c2f6	-0.08728592
4	0xbca4dbd3	-0.020124352
5	0xbdcbd4c1	-0.09952689
6	0xbdc1f926	-0.094713494
7	0x3d916dcf	0.071010225
8	0x3d4383c0	0.04773307
9	0xbd9c1837	-0.07621806
10	0x3d7ac180	0.061219692
11	0xbc21d8e8	-0.009878375
12	0x3bf981a4	0.0076143313
13	0x3d084575	0.033269364
14	0x3da6a262	0.08136441
15	0x3ce96e4d	0.028494978
16	0x3d3c81ec	0.04602234
17	0xbd778f68	-0.060439497
18	0xbb3df574	-0.0028985413
19	0x3d854cc1	0.0650878
20	0xbce2e1bf	-0.027695535
21	0xbd35074b	-0.04419641
22	0xbcaa7e9a	-0.020812321
23	0xbc724f18	-0.014789365
24	0xbd6839a3	-0.05669559
25	0xbd9716bb	-0.07377382
26	0xbd14bda4	-0.036313668
27	0xbd2f6c04	-0.04282762
28	0xbd80be5a	-0.06286307
29	0x3ae785f5	0.0017663824
30	0x3cc95642	0.024577264
31	0x3d3ad43b	0.045612555
32	0xbd8f455d	-0.06995652
33	0xbdb965ef	-0.090526454
34	0xbd190bf2	-0.037364908
35	0x3c4d069e	0.012513785
36	0x3d79c4fe	0.060978882
37	0xbace6b93	-0.0015748612
38	0x3d4ba4bb	0.049717646
39	0xbd081168	-0.033219725
40	0xbc2c8fb2	-0.0105323065
41	0x3d8df1b1	0.069308646
42	0xbda72925	-0.081621446
43	0x3cd3d524	0.02585847
44	0xbd0ded20	-0.03464997
45	0xbd8d0c1f	-0.068870775
46	0xbd1b27ce	-0.037879758
47	0x3d1c3ae1	0.03814209
48	0x3d538afd	0.05164622
49	0xbd1da209	-0.038484607
50	0x3d1d3d9b	0.03838883
51	0xba017755	-0.00049387413
52	0x3d9809ba	0.0742373
53	0x3d7cbcc0	0.061703444
54	0x3d400c94	0.046886995
55	0xbd9d6ee2	-0.07687165
56	0xbd9fb93c	-0.077990025
57	0x3d86aa39	0.06575436
58	0xbdb39bae	-0.08769928
59	0xbd597030	-0.053085506
60	0x3cdda01a	0.027053881
61	0xbc2a27ea	-0.010385493
62	0xbd9a7ba7	-0.07543116
63	0x3d881e82	0.06646444
64	0xbd96ec0c	-0.07369241
65	0xb9eab2ba	-0.0004476512
66	0xbd18b400	-0.037281036
67	0xbdb324ad	-0.0874723
68	0x3d7e05e7	0.062017348
69	0x3d1faf87	0.038985755
70	0x3d4f31f5	0.050584752
71	0xbd0ed406	-0.03487017
72	0x3d019d0b	0.03164391
73	0x3d91fe46	0.07128577
74	0x3d7fb431	0.062427703
75	0xbda473cf	-0.08029901
76	0xbcf0826c	-0.029359065
77	0xbcedfd89	-0.029051559
78	0x3c8c1e09	0.017104166
79	0x3d4fd4ef	0.05074018
80	0xbb40de01	-0.00294292
81	0x3cebbfcf	0.028777985
82	0x3d8cf3fd	0.068824746
83	0x3b91c492	0.004448482
84	0x3cbe99cc	0.023266695
85	0xbc88faf6	-0.01672123
86	0xbd6ec55b	-0.05829368
87	0xbddc8672	-0.10767831
88	0xbd19db1d	-0.03756248
89	0x3d0130d4	0.031540707
90	0xbd765831	-0.0601427
91	0xbd860aee	-0.065450534
92	0xbd57b695	-0.05266436
93	0x3cee2c37	0.029073818
94	0x3d01bcd7	0.031674232
95	0xbc82de94	-0.015975274
96	0xbc4425ac	-0.011971872
97	0xbc9e1f9f	-0.019302187
98	0xbc9853a9	-0.01859458
99	0xbccaef01	-0.024772169
100	0xbd5a9b86	-0.053370975
101	0x3d7395ed	0.059469152
102	0xbd3eb6fa	-0.04656122
103	0x3d84a7ef	0.06477343
104	0x3c88e30c	0.016709827
105	0x3d82fac3	0.06395485
106	0xbd915c83	-0.07097723
107	0x3d2861c1	0.04110885
108	0x3cc09d6c	0.023512565
109	0x3d9a5089	0.07534892
110	0x3d18cfe3	0.03730763
111	0x3d99e0d4	0.07513586
112	0x3d8c5538	0.06852192
113	0xbda595ea	-0.080852345
114	0xbdab86e0	-0.08375335
115	0x3c07cd2b	0.008288662
116	0x3d52ef4c	0.051497743
117	0x3d484a32	0.048898883
118	0x3d6f8944	0.058480516
119	0xbdcd693f	-0.1002984
120	0xbb02de90	-0.0019969083
121	0x3cb7d3ab	0.022439798
122	0x3cad2047	0.021133555
123	0xbdc8f1f8	-0.09811777
124	0x3d72b8b6	0.059258185
125	0xbcd91774	-0.026500441
126	0xbd1a08a4	-0.037605897
127	0xbd8b5ce4	-0.06804827
128	0x3d0f694a	0.03501252
129	0xbd82abb6	-0.063804075
130	0xbd026b22	-0.03184045
131	0xbc5c7edd	-0.013457981
132	0xbd8627d0	-0.065505624
133	0xbd066622	-0.032812245
134	0x3d447c15	0.047969896
135	0xbd3939ac	-0.045221016
136	0xbd57b59e	-0.052663438
137	0xbd46f357	-0.04857191
138	0x3d9c05c2	0.07618286
139	0xbd97b59e	-0.074076876
140	0x3d7ed6b1	0.062216464
141	0x3cca1659	0.02466886
142	0xbd5ef7ce	-0.054435544
143	0xbc151afa	-0.00910067
144	0x3d3b52e7	0.04573336
145	0x3c386763	0.011255118
146	0xbc92014c	-0.017822884
147	0xbd465d68	-0.048428923
148	0xbda5ed8a	-0.081019476
149	0xbb0512aa	-0.0020305314
150	0x3da0281a	0.07820149
151	0xbda8bbfa	-0.08238979
152	0x3d54081c	0.051765546
153	0xbd83043c	-0.06397292
154	0x3d6bc0a9	0.057556782
155	0x3cca2ddc	0.02468007
156	0x3d9197ab	0.071090065
157	0xbd4a1649	-0.04933766
158	0x3d864fc9	0.065581866
159	0x3d08fcad	0.033444095
160	0x3d367042	0.04454065
161	0x3ce05831	0.027385803
162	0xbc3cb7e5	-0.011518453
163	0xbd908547	-0.07056671
164	0xbd7b87b5	-0.061408717
165	0xbd072d87	-0.033002403
166	0xbd65a464	-0.05606498
167	0xbce6ad12	-0.028158698
168	0x3c4d2bf1	0.0125226835
169	0xbd8eceb3	-0.069730185
170	0x3d452180	0.04812765
171	0x3d2d153b	0.042256575
172	0x3b75af41	0.0037488493
173	0x3d874ca0	0.06606412
174	0xbdbcb808	-0.09214789
175	0x3d33c670	0.043890417
176	0x3c916ba7	0.017751528
177	0xbd9ba609	-0.07600028
178	0x3d187967	0.037225153
179	0xbdbeb6b6	-0.09312193
180	0x3b93eb2d	0.004514119
181	0xbd8b8f61	-0.06814457
182	0x3b5f52a9	0.003407637
183	0xbd8d625f	-0.069035284
184	0x3d44624d	0.04794531
185	0xbd810d83	-0.06301405
186	0x3d894830	0.06703222
187	0xbdb168d1	-0.0866257
188	0x3d225697	0.03963336
189	0x3d481f4d	0.048857976
190	0x3baa2743	0.0051926686
191	0x3d0c1058	0.034195274
192	0x3d2808d2	0.041024037
193	0xbd92f3c6	-0.07175402
194	0xbd513a18	-0.051080793
195	0x3ced8e7c	0.028998606
196	0xbd0d980b	-0.034568828
197	0xbd7f5658	-0.062338203
198	0x3c28b8c6	0.01029796
199	0x3d42e1b9	0.047578547
200	0xbdb8716a	-0.09006007
201	0xbd7d6b56	-0.06186994
202	0xbdb078a2	-0.08616759
203	0x3d208a3a	0.039194323
204	0xbc070847	-0.00824172
205	0xbd1139f1	-0.035455648
206	0xbdb67f42	-0.08910991
207	0x3bcfa1fe	0.0063364496
208	0xbd6ddec5	-0.058073778
209	0xbdac4320	-0.084112406
210	0xbd5a8f2b	-0.053359192
211	0xbd8469d2	-0.06465496
212	0x3d5c634a	0.053805627
213	0x3d73aecf	0.059492882
214	0xbd540ebb	-0.05177186
215	0xbdc79644	-0.09745458
216	0x3bc6a986	0.0060626892
217	0xbd395a3f	-0.04525208
218	0xbd623a06	-0.055231117
219	0xbdcf9399	-0.10135574
220	0xbd99a182	-0.07501508
221	0x3d3b0bb8	0.045665473
222	0x3d8394a0	0.06424832
223	0x3d2d9173	0.04237504
224	0xbce9b9cb	-0.028530976
225	0xbdbc9d2a	-0.09209664
226	0x3d8044ab	0.062630974
227	0x3d9ce9a8	0.07661754
228	0x3c804912	0.015659843
229	0xbc3b1dfb	-0.011420722
230	0xbd894234	-0.0670208
231	0x3d4a313b	0.049363356
232	0x3d33269b	0.04373799
233	0xbdb87a5b	-0.090077125
234	0xbcda0f9d	-0.026618773
235	0xbdd6264a	-0.10456522
236	0x3c2279e7	0.009916759
237	0xbc861d77	-0.016371472
238	0x3c801d4f	0.015638975
239	0xbcbe93c1	-0.023263814
240	0xbca3819c	-0.019959264
241	0x3c94da77	0.018170578
242	0x3d8e7d4e	0.06957494
243	0x3d6fee18	0.058576673
244	0xbc788dc4	-0.015170518
245	0xbd84e9db	-0.06489917
246	0x3d9726f2	0.07380475
247	0x3c6e2eea	0.014537552
248	0x3d6adeed	0.057341505
249	0x3d4c285d	0.04984318
250	0xbd0f038d	-0.034915496
251	0xbc10efbb	-0.008846219
252	0x3d8bbac3	0.06822731
253	0xbd86d53c	-0.0658364
254	0x3cdded95	0.027090827
255	0xbc7c73e1	-0.015408487

policy_network.6.weight f4 [128, 256]
0	0x3c5c32e5	0.013439869
1	0xbd47c3e1	-0.04877079
2	0x3dda57a4	0.106612474
3	0x3c63722d	0.013882202
4	0xbd11ef84	-0.03562881
5	0xbd0930d5	-0.033493835
6	0x3d6eccdc	0.058300838
7	0x3d351c78	0.044216603
8	0xbd66a970	-0.056313932
9	0x3ca405eb	0.020022353
10	0x3db9c94a	0.09071596
11	0x3d4e3507	0.05034354
12	0xbda0a125	-0.07843236
13	0x3d7e4bae	0.062083893
14	0x3d848477	0.06470578
15	0x3d447314	0.04796131
16	0x3ae0664b	0.001712033
17	0x3b7f5280	0.0038959086
18	0x3d2ff06f	0.042953905
19	0x3d1f2da3	0.038861882
20	0xbd4d7b0d	-0.05016618
21	0x3c06bb79	0.008223408
22	0xbd5f3689	-0.05449537
23	0xbc188a2e	-0.009310288
24	0x3bdcaaaa	0.006734212
25	0xbbc0cee0	-0.0058840364
26	0xbdcac8a6	-0.09901552
27	0x3d7d8aec	0.061900064
28	0xbcffe6c1	-0.031237962
29	0x3d20d808	0.039268523
30	0xbd1666f5	-0.03671928
31	0xbd9f97f2	-0.07792653
32	0x3c90db9a	0.01768284
33	0x3d86ec24	0.06588009
34	0x3aecab30	0.0018056389
35	0x3c8a34e7	0.016870929
36	0xbd5d25f9	-0.05399129
37	0xbd52e1fa	-0.05148504
38	0xbbb8b142	-0.005636365
39	0xbd507012	-0.05088813
40	0xbd12ebdf	-0.035869475
41	0xbd50c6af	-0.05097073
42	0x3d088aa8	0.033335358
43	0xbc0374fa	-0.008023495
44	0xbc374ac8	-0.011187263
45	0x3d1422b2	0.0361659
46	0x3bb77140	0.0055982172
47	0x3d727552	0.059193917
48	0x3d8cfb6e	0.06883894
49	0xbce0f3a8	-0.027459934
50	0x3c8e41b6	0.017365318
51	0x3dbece0c	0.09316644
52	0xbc804fb0	-0.015662998
53	0xbc5aeb51	-0.013361768
54	0x3c5c35c3	0.013440552
55	0xbbc366a6	-0.0059631644
56	0xbc0371d8	-0.008022748
57	0x3d8ba68a	0.06818874
58	0xbc9b514c	-0.018959664
59	0x399414e9	0.0002824434
60	0xbced9647	-0.029002322
61	0x3d5c762d	0.05382364
62	0xbcc485b0	-0.023989528
63	0xbc9947d2	-0.018711004
64	0x3cd72905	0.026264677
65	0xbba40c01	-0.005006314
66	0x3d0a4a44	0.03376223
67	0x3dbe7502	0.09299661
68	0x3da7e692	0.08198275
69	0x3d806b68	0.06270486
70	0x3d69eadf	0.057108756
71	0x3b9ae980	0.0047275424
72	0x3c03b99d	0.008039859
73	0xbbefe0ea	-0.007320513
74	0x3bfab1ae	0.0076505756
75	0xbcef1b44	-0.029187806
76	0xbbb1b2da	-0.005422932
77	0xbd4eeff5	-0.05052181
78	0x3c05ff5c	0.008178558
79	0xbc9aeb2a	-0.018910963
80	0xbaa9ebc9	-0.0012963946
81	0xbc434d5a	-0.0119202975
82	0x3d43dca8	0.047817856
83	0xbc32b6fb	-0.010907884
84	0x3ce5b191	0.028038772
85	0x3c2a43e1	0.01039216
86	0xbbc3bb36	-0.005973245
87	0x3d870a98	0.065938175
88	0x3d9254c0	0.07145071
89	0xbd766998	-0.060159296
90	0xbd301f7a	-0.04299877
91	0xbd543e1e	-0.051817052
92	0xbd27e30c	-0.040988013
93	0xbd584776	-0.052802525
94	0xbc4ce2a0	-0.0125052035
95	0x3d1f9482	0.038959987
96	0xbd13eead	-0.03611629
97	0xbcdc52e8	-0.026895002
98	0x3d86accf	0.065759294
99	0x3dc17bb6	0.09447424
100	0xbd41a3e8	-0.047275454
101	0xbd081f6c	-0.03323309
102	0x3d711089	0.05885366
103	0x3c674120	0.014114648
104	0x3dad0236	0.08447687
105	0xbd0d2190	-0.034455836
106	0x3cf003fb	0.029298773
107	0xbbe6b93e	-0.0070411256
108	0xbc651816	-0.013982793
109	0xba6dd0a5	-0.0009071923
110	0x3ba791e9	0.0051138294
111	0x3ced0a98	0.028935716
112	0x3d8606ba	0.06544252
113	0x3cd3c378	0.025850043
114	0xbcb42d82	-0.021994356
115	0x3d0f2b66	0.034953497
116	0x3db88de5	0.09011439
117	0xbcc48fe6	-0.023994397
118	0x3a0d8c0b	0.0005399591
119	0xbb9b4d47	-0.004739437
120	0xb9ed6890	-0.00045282068
121	0xbd28da8e	-0.041224055
122	0xbd95c379	-0.07312674
123	0x3c902b18	0.017598674
124	0x3c4e008d	0.0125733735
125	0x3c4d58a9	0.012533345
126	0x3c5d7d6c	0.013518672
127	0x3d3e9bde	0.046535365
128	0x3cef571c	0.029216342
129	0xbd2d8a18	-0.042368025
130	0xbcb388ec	-0.021915875
131	0x3d1e1b2b	0.03860013
132	0x3cc0503c	0.023475759
133	0x3d444aac	0.047922775
134	0x3d561c6d	0.052273203
135	0x3b60dd2c	0.0034311516
136	0x3dd9cb32	0.106344596
137	0x3dbf8735	0.093519606
138	0x3c168434	0.009186793
139	0xbd796a72	-0.06089253
140	0xb94abebb	-0.00019335274
141	0x3cc85223	0.024453228
142	0x3b97ccd0	0.00463257
143	0x3d78c204	0.060731903
144	0x3baa42c1	0.005195946
145	0xbcbc94f9	-0.023020254
146	0xbd3aa59c	-0.045568094
147	0x3d12c721	0.035834435
148	0x3ce9324c	0.028466366
149	0x3cbb3410	0.022851974
150	0x3c5044bf	0.012711703
151	0xbc77d1b0	-0.015125677
152	0xbd6998ab	-0.05703036
153	0xbd276c7e	-0.04087495
154	0x3d396dbc	0.045270666
155	0x3d04d4c4	0.03242947
156	0xbd84f7a4	-0.06492546
157	0x3c92d0f0	0.017921895
158	0x3c6aad97	0.014323614
159	0xbd11d93d	-0.035607565
160	0xbbcf83d8	-0.0063328557
161	0xbc6915db	-0.014226402
162	0xbb3339ba	-0.002734764
163	0x3cdf7da1	0.027281584
164	0xbd00569b	-0.031332593
165	0xbd0d2cde	-0.034466617
166	0xbd34ca24	-0.04413809
167	0x3d97586a	0.073899105
168	0x3d08e2aa	0.03341929
169	0xbd7a9638	-0.061178416
170	0x3c28b118	0.010296129
171	0x3cccac42	0.024984483
172	0xbcdefebb	-0.027221074
173	0xbcd5ad03	-0.026083475
174	0x3d715f69	0.05892888
175	0x3d8d5a30	0.069019675
176	0x3c438d49	0.0119355405
177	0xbd65b0ae	-0.056076698
178	0x3d475cae	0.04867237
179	0x3c938764	0.018008895
180	0x3bcbc6e3	0.0062187775
181	0xbcdcea59	-0.026967214
182	0xbd10fd84	-0.03539802
183	0xbd1f1b8e	-0.038844638
184	0xbc469f64	-0.012122963
185	0xbbb2fd60	-0.0054623336
186	0x3dfa6e8a	0.12228115
187	0xbc98cba0	-0.018651783
188	0x3d1a70a1	0.037705068
189	0xbd875bd5	-0.066093124
190	0x3beac730	0.0071648583
191	0xbcf31b81	-0.0296762
192	0x3e3147fa	0.17312613
193	0x3d364f82	0.04450942
194	0x3d043e11	0.032285754
195	0xbba278fe	-0.004958271
196	0x3c95f473	0.018305039
197	0xbd2a1366	-0.041522406
198	0xbd165563	-0.036702525
199	0x3bb8a470	0.005634837
200	0x3dc2339b	0.09482499
201	0x3daf8a1b	0.085712634
202	0x3c5f75e8	0.013638951
203	0xbd50e727	-0.051001694
204	0x3d13702f	0.03599566
205	0xbc779b8e	-0.015112771
206	0x3bb812a0	0.0056174546
207	0x3ca00428	0.019533232
208	0x3d69a6c5	0.05704381
209	0xbcecc1e7	-0.028901054
210	0xbcb39a1f	-0.021924077
211	0xbd397f5a	-0.045287468
212	0x3d7c1e86	0.061552547
213	0xbd2f7113	-0.042832445
214	0x3cdc490e	0.026890304
215	0x3d7f9cd2	0.062405415
216	0x3d7c7122	0.06163133
217	0xbca08bf3	-0.019597983
218	0xbd818af9	-0.06325335
219	0x3c245a20	0.010031253
220	0x3d3cf212	0.046129294
221	0x3d0b2f15	0.033980448
222	0xbc70dfc9	-0.014701792
223	0xbc925f93	-0.017867839
224	0xbb68c9d5	-0.0035520692
225	0xbd8066c9	-0.06269605
226	0xbccce425	-0.025011132
227	0x3ba02329	0.004887004
228	0x3d5f77ce	0.054557614
229	0xbdbbc90c	-0.09169206
230	0xbd1e8366	-0.03869953
231	0x3d32df83	0.04367019
232	0x3cf3f3ac	0.029779278
233	0x3d4e9df6	0.050443612
234	0x3d3964f1	0.04526228
235	0xbc5497d9	-0.012975656
236	0x3c950bdd	0.018194133
237	0x3cd3edab	0.025870165
238	0x3cd8540b	0.026407262
239	0xbd1b1f7a	-0.037871815
240	0x3c7c20f1	0.015388713
241	0xbd84d88c	-0.064866155
242	0x3df77262	0.12082364
243	0x3cad0d13	0.021124398
244	0x3d597710	0.053092062
245	0x3d15a677	0.036535706
246	0xbc2e9470	-0.010655507
247	0x3c98da25	0.018658707
248	0x3bcdfa16	0.006285916
249	0xbcf441d7	-0.029816551
250	0x3d0f8548	0.035039216
251	0x3bd5841f	0.006515994
252	0x3c23f468	0.010007001
253	0x3d2c4e99	0.042067144
254	0x3c76eb18	0.015070699
255	0x3d3c74b8	0.04600975

policy_network.6.bias f4 [128]
0	0xbd1f0a1e	-0.038828008
1	0xbd86f41e	-0.065895304
2	0xbc3b8f1c	-0.011447694
3	0xbcaa10af	-0.020759908
4	0x3cf452f3	0.02982471
5	0xbd83155c	-0.06400558
6	0xbd50a8da	-0.05094228
7	0x3cf66337	0.030076606
8	0x3c0b5d5c	0.008506145
9	0xbc09822c	-0.008392852
10	0x3d020c64	0.031750098
11	0x3d2af7b7	0.041740146
12	0xbd409124	-0.047013417
13	0xbc8e1bb6	-0.017347198
14	0x3ca3d1f2	0.01999757
15	0xbd3f9af1	-0.046778623
16	0x3ca7540e	0.020425823
17	0xbd7bcaa5	-0.061472554
18	0xbd12dabd	-0.035853136
19	0xbd8b37c4	-0.06797746
20	0xbcb2fc65	-0.021848867
21	0xbd05009c	-0.032471284
22	0xbd6904b2	-0.056889243
23	0xbcb21438	-0.021738157
24	0x3d0ccb11	0.034373347
25	0x3d13161d	0.03590976
26	0xbd5d744a	-0.05406598
27	0x3cf1656e	0.02946731
28	0xbd224573	-0.039617013
29	0x3a811d14	0.0009850585
30	0x3d0b701a	0.034042455
31	0xbd80ef95	-0.06295697
32	0xbd33b9b4	-0.043878272
33	0x3d252d8c	0.04032664
34	0xbd7c8db6	-0.061658584
35	0x3cbe09aa	0.023197968
36	0xbd5fa4b9	-0.05460045
37	0x3cfe0053	0.031006014
38	0x3cd75f57	0.026290579
39	0xbd5bfb6f	-0.053706583
40	0x3c731850	0.0148373395
41	0xbc1b51ce	-0.009479953
42	0xbdacf262	-0.08444668
43	0x3a3137bb	0.00067603186
44	0xbc45d199	-0.012073898
45	0xbcecc462	-0.028902236
46	0xbd594c33	-0.053051185
47	0xbc2d4935	-0.010576536
48	0xbcde9640	-0.027171254
49	0xbcdc994c	-0.026928566
50	0xbd80f286	-0.06296258
51	0x3c0b950b	0.008519421
52	0xbc50e621	-0.0127501795
53	0xbd6d059a	-0.05786667
54	0xbb3e513a	-0.0029040114
55	0x3d3d7384	0.046252742
56	0x3c378225	0.0112004625
57	0x3c96efe9	0.018424945
58	0xbc019c56	-0.007910809
59	0x3c6257c7	0.013814873
60	0xbce2c868	-0.027683452
61	0x3d2bee74	0.041975453
62	0xbd6cf73e	-0.057852976
63	0xbd867889	-0.06565959
64	0xbd4c1f2c	-0.049834415
65	0x3c01adfe	0.007915018
66	0xbcf62f17	-0.030051751
67	0xbd780b5c	-0.06055771
68	0xbd4b9fa1	-0.04971278
69	0xbd50cf4a	-0.050978936
70	0xbd08ff0f	-0.033446368
71	0x3b6cc5b8	0.0036128592
72	0x3ca6e91b	0.020374825
73	0x3d5046e8	0.05084887
74	0xb95994ff	-0.00020750238
75	0xbd8d5adf	-0.06902098
76	0x3b4e7901	0.003150523
77	0xbd7e2ed2	-0.06205637
78	0x3d2987fd	0.041389454
79	0x3cdabed1	0.026702316
80	0xbcb65243	-0.022256022
81	0xbccc9c62	-0.024976913
82	0x3bd2aac4	0.0064290483
83	0xbd744444	-0.059635416
84	0xbb6c2bde	-0.003603689
85	0xbd3fa4cd	-0.046788026
86	0xbc9701c3	-0.018433457
87	0x3ca458b6	0.020061832
88	0xbc4c75c4	-0.012479249
89	0xbcea2715	-0.028583089
90	0xbbfe23bf	-0.007755726
91	0x3bbfadd2	0.0058495784
92	0x3c5f2dd5	0.013621767
93	0x3c4a2843	0.012338701
94	0x3c6cfcc3	0.01446456
95	0xbccfaf47	-0.025352133
96	0xbd2f8013	-0.04284675
97	0xbd294f37	-0.04133531
98	0xbcc74339	-0.024324046
99	0xbd1bf2c3	-0.038073312
100	0xbd07ac67	-0.0331234
101	0xbd81afd6	-0.06332366
102	0x3d7115d2	0.0588587
103	0x3d64a785	0.05582382
104	0xbd939214	-0.072055966
105	0x3d1fcdf3	0.039014768
106	0x3d1b11dc	0.03785883
107	0x3cbbc4f3	0.022921061
108	0xbb313665	-0.0027040478
109	0xbca7f256	-0.020501297
110	0xbd4f91c5	-0.050676126
111	0xbd94fe07	-0.07275014
112	0xbd148788	-0.036262065
113	0x3b9a46a0	0.004708126
114	0x3c80940b	0.015695592
115	0xbd2b7197	-0.041856375
116	0xbce7498f	-0.028233318
117	0xbc732746	-0.0148409065
118	0x3d494e0d	0.0491467
119	0xbd7513fe	-0.05983352
120	0xbb09e41c	-0.0021040505
121	0x3cb1e640	0.021716237
122	0xbd01dfac	-0.03170745
123	0x3d3035be	0.043020003
124	0xbc9a064c	-0.01880183
125	0x3af46fe1	0.0018649065
126	0x3cc055db	0.02347844
127	0x3d0ba0f6	0.03408905

policy_network.9.weight f4 [7, 128]
0	0x3d243727	0.04009166
1	0xbcfde584	-0.03099323
2	0x3d8af20c	0.06784448
3	0x3d9ae337	0.07562869
4	0xbc7b73af	-0.015347405
5	0xbd8ea455	-0.069649376
6	0x3c86f6b7	0.016475065
7	0xbd725ae4	-0.05916871
8	0xbd1f83ae	-0.03894394
9	0xbd3229bd	-0.043496836
10	0xbcd4f5d6	-0.02599613
11	0xbd6ac5dc	-0.0573176
12	0x3b3061b5	0.0026913707
13	0xbd996891	-0.074906476
14	0xbdb487ee	-0.08814989
15	0x3cdd0b46	0.026982915
16	0xbc3742fd	-0.011185405
17	0x3c86c323	0.01645047
18	0xbda11251	-0.07864822
19	0x3d634d45	0.05549361
20	0xbc63f3d2	-0.013913112
21	0x3d9e9173	0.07742586
22	0xbd9cef49	-0.076628275
23	0xbd9664c5	-0.07343439
24	0x3cd88374	0.02642987
25	0x3ccfc5d4	0.025362886
26	0x3d6e7e1e	0.058225743
27	0xbbfaabe9	-0.007649888
28	0xbd9a8cc5	-0.07546381
29	0xbd04e73a	-0.032447077
30	0x3b93116a	0.00448816
31	0x3db41d45	0.08794645
32	0xbd9d422b	-0.07678636
33	0xbd07d250	-0.033159554
34	0xbc61366a	-0.0137458835
35	0xbd545717	-0.051840868
36	0x3d8a3b08	0.067495406
37	0xbd975203	-0.07388689
38	0x3d048e7b	0.032362442
39	0xbda25749	-0.079268046
40	0x3c38bb76	0.011275163
41	0xbd06463d	-0.03278183
42	0x3c6d826e	0.014496429
43	0x3d856c2b	0.06514772
44	0x38eb340b	0.00011215367
45	0xbd6ba6c6	-0.057532094
46	0xbd5484f1	-0.051884595
47	0xbbfca3e5	-0.0077099674
48	0x3d1332b8	0.03593704
49	0xbd12bef3	-0.035826635
50	0x3d5afc68	0.05346337
51	0xbd57b21e	-0.0526601
52	0x3c00d5fd	0.007863519
53	0xbd9571a8	-0.07297069
54	0x3c035ce7	0.008017755
55	0x3d6b3295	0.057421286
56	0x3d5f8ec2	0.054579504
57	0x3d9393cd	0.07205925
58	0x3c1bf78a	0.009519467
59	0x3d90b766	0.070662305
60	0xbd305350	-0.043048203
61	0x3d850bac	0.06496367
62	0xbd88eb93	-0.06685557
63	0x3d646f05	0.05576994
64	0x3cc6fb6b	0.024289807
65	0xbd0f10ea	-0.03492824
66	0xbcabe556	-0.02098338
67	0x3c33a8da	0.01096555
68	0x3d40d458	0.047077507
69	0x3d0e2cb5	0.034710605
70	0x3ce06cdc	0.027395658
71	0xbd3fdee1	-0.046843413
72	0x3d74872d	0.059699226
73	0xbb9af2ae	-0.0047286367
74	0x3c1b2ac0	0.009470642
75	0x3d49b0fe	0.04924106
76	0xbc317eff	-0.010833501
77	0x3d734f50	0.05940181
78	0xbd6d0e57	-0.057875004
79	0x3a2a9335	0.0006506921
80	0xbc3a510f	-0.011371865
81	0x39619768	0.00021514075
82	0xbc9356f4	-0.017985798
83	0x3c281481	0.010258795
84	0x3ca81296	0.020516675
85	0x3cb097e1	0.021556797
86	0xbd738c5e	-0.059460036
87	0x3d143e03	0.03619195
88	0x3bf9bbf1	0.0076212813
89	0x3d015b02	0.031580932
90	0xbd36e1f1	-0.04464907
91	0xbc3c4b92	-0.011492627
92	0x3d9faeb8	0.07796997
93	0xbce6752d	-0.028132046
94	0xbd23869c	-0.039923295
95	0xbd81fe94	-0.06347385
96	0xbd1cdfdb	-0.038299423
97	0x3d35b8d2	0.04436571
98	0x3d4d2667	0.05008545
99	0xbcc979e7	-0.02459426
100	0xbc48d061	-0.012256713
101	0x3d88c4ca	0.066781595
102	0xbcd895de	-0.02643865
103	0xbc92e0ad	-0.0179294
104	0x3babc376	0.0052418066
105	0xbd760a54	-0.060068443
106	0x3d4ab9a8	0.04949346
107	0x3d81fe98	0.06347388
108	0xbd4b74b9	-0.049671862
109	0xbd7ecbcd	-0.06220608
110	0xbd1b0d5a	-0.03785453
111	0xbd431892	-0.047630854
112	0x3cf8c4c9	0.030367272
113	0xbd8526ee	-0.06501566
114	0x3b634402	0.0034677987
115	0xbd79a394	-0.060947016
116	0xbd90ae7a	-0.07064529
117	0xbd9615a5	-0.07328347
118	0x3d82b03e	0.06381272
119	0x3d3c0d3e	0.045911066
120	0x3d116eb6	0.035505973
121	0xbd619671	-0.055075113
122	0x3d2dbf66	0.04241886
123	0xbc60d624	-0.01372293
124	0xbb9578a1	-0.004561499
125	0xbd919fa4	-0.07110527
126	0x3d886555	0.066599526
127	0xbd064b97	-0.03278693
128	0xbc40878c	-0.011751067
129	0x39c640db	0.00037813824
130	0x3d490100	0.04907322
131	0x3caa9152	0.020821247
132	0x3d50ebc0	0.05100608
133	0xbd1f2b6a	-0.038859762
134	0x3da0c402	0.078498855
135	0xbd82a488	-0.06379038
136	0x3da0c905	0.078508414
137	0x3d089ab8	0.033350676
138	0xbd551faf	-0.05203217
139	0x3d349ba8	0.044093758
140	0xbb030e16	-0.001999741
141	0xbd866f42	-0.065641895
142	0x3c996204	0.018723495
143	0xb9e94eac	-0.00044499838
144	0xbd0f45db	-0.03497873
145	0xbbd21e0b	-0.006412273
146	0xbd4c633b	-0.04989932
147	0xbd042642	-0.032263048
148	0xbc551f06	-0.013007885
149	0x3d535714	0.051596716
150	0x3a500f6a	0.0007936867
151	0x3d55972c	0.05214612
152	0xbc432364	-0.011910293
153	0xbcef06ac	-0.029177986
154	0xbd1f72aa	-0.03892771
155	0xbd5fb77f	-0.054618355
156	0xbd9ac37a	-0.075568154
157	0x3c78bed8	0.015182219
158	0xbcb294ec	-0.021799527
159	0x3d244989	0.04010919
160	0xbc58ae77	-0.013225189
161	0x3d445ebd	0.047941912
162	0xbd83a2a6	-0.06427507
163	0xbc4f858c	-0.012666117
164	0xbd48e0e9	-0.049042616
165	0xbd3506ff	-0.044196125
166	0xbc56b0cb	-0.013103674
167	0x3d03e655	0.032202084
168	0xbc34fb8d	-0.0110463025
169	0x3d92d0d1	0.07168735
170	0x3ca5c516	0.02023558
171	0x3dab2eb8	0.0835852
172	0x3ca30f05	0.019904623
173	0xbd7e541a	-0.062091924
174	0x3db2d7cb	0.087325655
175	0x3c42df73	0.011894095
176	0x3d15625a	0.03647075
177	0x3ce275e3	0.027644103
178	0x3ccfc092	0.02536038
179	0xbd8d2c4a	-0.06893213
180	0xbd3b0e2e	-0.04566782
181	0x3d8e6454	0.0695273
182	0x3cd16232	0.025559518
183	0xbce4c237	-0.02792464
184	0x3d6c5e9c	0.057707414
185	0x3c7ea7b9	0.015542918
186	0xbac54b34	-0.001505232
187	0xbd609fce	-0.0548399
188	0x3c880e12	0.016608272
189	0x3d32cbdb	0.043651443
190	0x3d633e0c	0.055479094
191	0xbc954a56	-0.018223923
192	0xbd87ef75	-0.0663747
193	0x3c83d48b	0.01609256
194	0x3cbbb9b9	0.022915708
195	0x3d3e4345	0.046450872
196	0xbcfdc7ea	-0.030979116
197	0x3d68aca4	0.056805268
198	0x3b4be578	0.0031112116
199	0xbd4387e6	-0.047737025
200	0x3c12f797	0.008970163
201	0x3c85685a	0.01628511
202	0xbd7f07da	-0.062263347
203	0xb9a342fd	-0.00031139693
204	0x3ba511a2	0.0050375024
205	0x3d80ed56	0.06295268
206	0xbd30d7bf	-0.0431745
207	0x3b20bfdf	0.0024528427
208	0xbb2445a8	-0.0025065932
209	0xbc60eda7	-0.013728536
210	0xbb828892	-0.0039835656
211	0xbd85cba6	-0.065329835
212	0x3d128576	0.03577181
213	0xbd9cabac	-0.07649931
214	0xbd3dacdd	-0.046307433
215	0xbc5de082	-0.013542296
216	0x3c49d9d1	0.012319998
217	0x3ce2c3ca	0.02768125
218	0x3d7aa5db	0.06119333
219	0xbb242af1	-0.002505001
220	0x3d04c663	0.03241576
221	0x3d1b4825	0.0379106
222	0xbbd7d43f	-0.006586581
223	0xbc767dd3	-0.015044647
224	0x3d49531e	0.049151532
225	0xbd63fd68	-0.05566159
226	0xbc08f7c2	-0.008359851
227	0xbda3f982	-0.08006574
228	0xbbf9fc18	-0.007628929
229	0x3d99ccee	0.0750979
230	0x3bd41dd5	0.006473283
231	0x3d03b8a3	0.032158505
232	0xbb697383	-0.003562183
233	0xbb72c1d4	-0.00370418
234	0xbd779be2	-0.060451396
235	0x3d4bbfc1	0.049743418
236	0xbd6f911e	-0.058488004
237	0xbc8e5b0e	-0.017377403
238	0x3d9df33e	0.077124104
239	0xbc1a5707	-0.009420163
240	0xbc824f84	-0.015907057
241	0xbd3b3ab7	-0.04571029
242	0xbda05bfa	-0.07830043
243	0x3c934801	0.01797867
244	0xbdb767dc	-0.089553565
245	0x3b30c341	0.002697185
246	0xbd42e837	-0.04758474
247	0x3d37c098	0.044861406
248	0x3c83e547	0.016100539
249	0x39606da0	0.00021403143
250	0x3b658ebf	0.003502771
251	0xba9180df	-0.0011101029
252	0xbcb29b23	-0.02180249
253	0x3c71fe26	0.014770066
254	0xbbcb68de	-0.0062075695
255	0x3d75067c	0.059820637

policy_network.9.bias f4 [7]
0	0x3c1ade0c	0.009452354
1	0x3b98c6d3	0.0046623736
2	0x3a85a46f	0.00101961
3	0xba34fc65	-0.0006904065
4	0xbb0e1571	-0.002168026
5	0x3b47cb4a	0.003048616
6	0x3ce63787	0.02810265

exp_avg f4 [128, 15]
0	0x3867951b	5.5213557e-05
1	0x37e02f06	2.6724778e-05
2	0xb8416181	-4.6105593e-05
3	0x3853306d	5.035142e-05
4	0x37f6be67	2.9414148e-05
5	0xb8879667	-6.465316e-05
6	0xb6d296d4	-6.2760464e-06
7	0xb6657816	-3.4193558e-06
8	0x35818e60	9.652686e-07
9	0xb76bb150	-1.4048375e-05
10	0xb751fb25	-1.2515845e-05
11	0xb5307626	-6.573704e-07
12	0xb55082c6	-7.767634e-07
13	0xb4191e3a	-1.4260232e-07
14	0x34cc6c96	3.8076968e-07
15	0xb78f3d3e	-1.7075447e-05
16	0xb6b36bf2	-5.347182e-06
17	0x37179e7f	9.037204e-06
18	0xb7494afd	-1.1997993e-05
19	0xb710f944	-8.6411055e-06
20	0x3797f273	1.8113502e-05
21	0x366202b3	3.3678195e-06
22	0x354bdc57	7.594403e-07
23	0xb50320d8	-4.8849097e-07
24	0x368b9e4a	4.16095e-06
25	0x36695fb6	3.4775417e-06
26	0xb42b5128	-1.595514e-07
27	0xb239c5a0	-1.0813352e-08
28	0xb3105486	-3.3604486e-08
29	0x3498af5c	2.8439797e-07
30	0xb723190f	-9.7213915e-06
31	0xb64e8d09	-3.0778485e-06
32	0x36ca8f08	6.03672e-06
33	0xb6fc42a8	-7.517945e-06
34	0xb697eb70	-4.527559e-06
35	0x371efa13	9.475759e-06
36	0x35c52bd6	1.4690402e-06
37	0x34892a98	2.554923e-07
38	0xb4cc06c5	-3.8002887e-07
39	0x361ab252	2.3051584e-06
40	0x35f9348d	1.856724e-06
41	0x31b1f5f0	5.179338e-09
42	0xb33417d4	-4.1931187e-08
43	0xb57cf56c	-9.423445e-07
44	0x347fcec9	2.3823954e-07
45	0x00000000	0.0
46	0x00000000	0.0
47	0x00000000	0.0
48	0x00000000	0.0
49	0x00000000	0.0
50	0x00000000	0.0
51	0x00000000	0.0
52	0x00000000	0.0
53	0x00000000	0.0
54	0x00000000	0.0
55	0x00000000	0.0
56	0x00000000	0.0
57	0x00000000	0.0
58	0x00000000	0.0
59	0x00000000	0.0
60	0x385c6daa	5.255422e-05
61	0x37a1247e	1.9209689e-05
62	0xb82059a1	-3.8230446e-05
63	0x3846d603	4.7406193e-05
64	0x37d1f685	2.5029536e-05
65	0xb870347a	-5.726933e-05
66	0xb6f5c081	-7.3239794e-06
67	0xb60dc16c	-2.1123224e-06
68	0x3618a8d1	2.274803e-06
69	0xb75febe6	-1.334676e-05
70	0xb72fe314	-1.0483684e-05
71	0xb59d3cda	-1.1715122e-06
72	0xb426a3c6	-1.5519535e-07
73	0xb3989e98	-7.1068996e-08
74	0x336fe11b	5.5851256e-08
75	0x00000000	0.0
76	0x00000000	0.0
77	0x00000000	0.0
78	0x00000000	0.0
79	0x00000000	0.0
80	0x00000000	0.0
81	0x00000000	0.0
82	0x00000000	0.0
83	0x00000000	0.0
84	0x00000000	0.0
85	0x00000000	0.0
86	0x00000000	0.0
87	0x00000000	0.0
88	0x00000000	0.0
89	0x00000000	0.0
90	0x3520ee25	5.995119e-07
91	0xb3ca0309	-9.40691e-08
92	0x33ab5a8b	7.979278e-08
93	0x351e0c72	5.8877697e-07
94	0x352d85c7	6.4642194e-07
95	0xb5f640dc	-1.8347305e-06
96	0xb4faf7f4	-4.6746538e-07
97	0xb492c20d	-2.733581e-07
98	0x332c07b5	4.005388e-08
99	0xb49eeb26	-2.9600886e-07
100	0xb4699d9b	-2.1757153e-07
101	0x334032f9	4.4749843e-08
102	0xb2a40953	-1.9096353e-08
103	0xb3b34ca9	-8.3492814e-08
104	0x33d6e66a	1.00070636e-07
105	0x00000000	0.0
106	0x00000000	0.0
107	0x00000000	0.0
108	0x00000000	0.0
109	0x00000000	0.0
110	0x00000000	0.0
111	0x00000000	0.0
112	0x00000000	0.0
113	0x00000000	0.0
114	0x00000000	0.0
115	0x00000000	0.0
116	0x00000000	0.0
117	0x00000000	0.0
118	0x00000000	0.0
119	0x00000000	0.0
120	0x00000000	0.0
121	0x00000000	0.0
122	0x00000000	0.0
123	0x00000000	0.0
124	0x00000000	0.0
125	0x00000000	0.0
126	0x00000000	0.0
127	0x00000000	0.0
128	0x00000000	0.0
129	0x00000000	0.0
130	0x00000000	0.0
131	0x00000000	0.0
132	0x00000000	0.0
133	0x00000000	0.0
134	0x00000000	0.0
135	0x00000000	0.0
136	0x00000000	0.0
137	0x00000000	0.0
138	0x00000000	0.0
139	0x00000000	0.0
140	0x00000000	0.0
141	0x00000000	0.0
142	0x00000000	0.0
143	0x00000000	0.0
144	0x00000000	0.0
145	0x00000000	0.0
146	0x00000000	0.0
147	0x00000000	0.0
148	0x00000000	0.0
149	0x00000000	0.0
150	0xb6a63097	-4.952842e-06
151	0xb5f2b1bc	-1.8082133e-06
152	0x36364e06	2.716553e-06
153	0xb65b2cf7	-3.2659716e-06
154	0xb620af65	-2.394395e-06
155	0x36875b34	4.033931e-06
156	0x3553f3df	7.8958504e-07
157	0xb3ef90c6	-1.1155639e-07
158	0xb267dd35	-1.3496266e-08
159	0x35837a05	9.795773e-07
160	0x358cde1c	1.0495455e-06
161	0xb23c477e	-1.0959296e-08
162	0x33aab0ac	7.948378e-08
163	0xb40657be	-1.2511643e-07
164	0xb41cedf1	-1.4615195e-07
165	0x00000000	0.0
166	0x00000000	0.0
167	0x00000000	0.0
168	0x00000000	0.0
169	0x00000000	0.0
170	0x00000000	0.0
171	0x00000000	0.0
172	0x00000000	0.0
173	0x00000000	0.0
174	0x00000000	0.0
175	0x00000000	0.0
176	0x00000000	0.0
177	0x00000000	0.0
178	0x00000000	0.0
179	0x00000000	0.0
180	0x00000000	0.0
181	0x00000000	0.0
182	0x00000000	0.0
183	0x00000000	0.0
184	0x00000000	0.0
185	0x00000000	0.0
186	0x00000000	0.0
187	0x00000000	0.0
188	0x00000000	0.0
189	0x00000000	0.0
190	0x00000000	0.0
191	0x00000000	0.0
192	0x00000000	0.0
193	0x00000000	0.0
194	0x00000000	0.0
195	0x00000000	0.0
196	0x00000000	0.0
197	0x00000000	0.0
198	0x00000000	0.0
199	0x00000000	0.0
200	0x00000000	0.0
201	0x00000000	0.0
202	0x00000000	0.0
203	0x00000000	0.0
204	0x00000000	0.0
205	0x00000000	0.0
206	0x00000000	0.0
207	0x00000000	0.0
208	0x00000000	0.0
209	0x00000000	0.0
210	0xb73472f2	-1.0755599e-05
211	0xb68c1765	-4.1750486e-06
212	0x3709077f	8.167582e-06
213	0xb71c4747	-9.31492e-06
214	0xb6ac7939	-5.1401116e-06
215	0x3738073e	1.0968941e-05
216	0x35a93950	1.2608161e-06
217	0x34f84ab3	4.624795e-07
218	0xb4f7190f	-4.6025568e-07
219	0x362837b5	2.5066377e-06
220	0x361bc2c6	2.3210173e-06
221	0x33b16581	8.260668e-08
222	0xb39ea72d	-7.3878574e-08
223	0x34c1a9e3	3.607266e-07
224	0x32e91d6f	2.7138155e-08
225	0x00000000	0.0
226	0x00000000	0.0
227	0x00000000	0.0
228	0x00000000	0.0
229	0x00000000	0.0
230	0x00000000	0.0
231	0x00000000	0.0
232	0x00000000	0.0
233	0x00000000	0.0
234	0x00000000	0.0
235	0x00000000	0.0
236	0x00000000	0.0
237	0x00000000	0.0
238	0x00000000	0.0
239	0x00000000	0.0
240	0xb79762ad	-1.8046552e-05
241	0xb70812ab	-8.110578e-06
242	0x3771ae5f	1.4405318e-05
243	0xb78bf8fc	-1.6686034e-05
244	0xb72aaed1	-1.0173492e-05
245	0x37c1b909	2.3093557e-05
246	0x362c18fb	2.5644538e-06
247	0x35e6894a	1.7176292e-06
248	0xb5032073	-4.884852e-07
249	0x369fd40a	4.763254e-06
250	0x36923cfb	4.358238e-06
251	0x33d002e2	9.686279e-08
252	0x342b65da	1.596267e-07
253	0x344ff39f	1.9367006e-07
254	0x344ab11c	1.8877148e-07
255	0xb7868bb1	-1.6039094e-05
