robot_state_berkeley_training/robot_state_epoch_17.pth (torch, 838065 bytes, 24 tensors)

policy_network.0.weight f4 [128, 15]
-0.049148675 -0.030675946 0.22198005 0.13449323 0.12092434 0.0036112622 0.10226721 -0.0637082
0.22448051 0.20516607 -0.14375521 0.6497848 0.13257091 0.32305098 0.3532557 0.11852314
0.20662433 -0.12075648 -0.18715212 -0.039592452 0.101400554 0.09832053 -0.13587971 -0.6184658
-0.052200906 -0.15122192 0.15503247 -0.3067945 0.23310232 -0.02187236 0.02006963 -0.070592575
-0.24722056 0.076737404 -0.029051894 0.12878823 0.17930412 0.25056574 0.31634519 -0.1611348
0.25219527 -0.17106925 -0.028160142 0.20287967 -0.20164903 0.19315524 -0.129924 -0.051801074
-0.0955226 -0.12936701 -0.18899918 0.008251854 0.18019748 0.23414199 -0.05951995 -0.061612107
0.14260837 -0.06521142 0.070706494 -0.006390821 0.07583198 0.0016535171 0.19239102 -0.23347649
0.00301278 -0.26551974 0.06024441 -0.03836367 -0.26802346 0.09390537 -0.11996825 0.6934401
-0.4053687 0.34478188 0.34570214 0.015704544 0.07467951 0.013595396 -0.113071315 0.051129248
-0.08273961 -0.1920192 -0.19081734 0.23896115 -0.013201416 -0.14713082 0.10875113 -0.22920376
-0.25111547 -0.20342153 -0.047124136 0.29417446 0.08765235 0.20899053 -0.12215647 0.09929585
-0.20448656 -0.2717653 0.12529907 -0.021893801 -0.14742231 0.029501958 -0.2231154 0.008328866
0.10811718 0.044976015 -0.0057647005 -0.21142513 0.16290526 0.1964123 0.1586797 0.10307588
0.05507028 -0.09803983 0.116359726 -0.085960425 0.03188282 -0.15432917 -0.15054837 -0.17595616
-0.04227414 0.1530953 -0.20465507 0.1159739 0.22439907 -0.2231207 0.16480778 -0.19009045
0.18847454 -0.17246756 0.092211016 0.2501889 0.05080775 -0.14482874 -0.0853781 -0.10772626
-0.18271233 -0.21741275 0.25390825 -0.10747316 -0.11422684 0.2544008 0.16400732 0.24244718
0.1574675 -0.09919246 0.091738485 0.20060968 0.1605435 -0.20682096 -0.1868117 0.06031293
-0.1644539 -0.077190936 -0.15483092 -0.14927413 -0.21875705 -0.0761854 -0.26509428 -0.00093989965
-0.25348535 -0.15956886 0.0016981435 0.21822168 -0.06093205 0.23025969 0.05353308 0.13833976
0.039805546 -0.09473166 -0.20264322 -0.0035206443 -0.1534465 -0.23725991 0.1148577 0.0140651865
0.25002608 0.17831902 -0.129484 0.14641094 0.20424646 -0.16721047 -0.23049106 0.197429
-0.15720916 0.10646109 -0.23418546 -0.060773235 -0.00012795124 -0.1905936 0.17176156 -0.010243825
0.22083673 0.18517752 -0.049756225 0.24931498 0.064499244 0.20261289 0.19364126 0.13346875
-0.17058301 0.17003596 -0.25364053 -0.1394084 -0.17917387 -0.13276279 0.23354976 0.0046323766
-0.05645235 0.25230592 -0.18319514 -0.2251339 -0.29976344 -0.08482265 -0.106986955 0.04644616
0.02897159 0.21086419 0.54534554 -0.31734213 -0.30438426 -0.34214962 0.37942016 -0.11345645
0.084898554 -0.06132607 0.17647141 -0.24045664 0.16447444 0.20417853 -0.014144445 -0.14442588
-0.118929155 -0.048185106 0.09821773 0.11078675 -0.20685741 -0.1921759 0.08981235 -0.1326011
-0.17746769 0.3120939 0.15049294 0.12167572 0.22489743 0.12799028 -0.10662627 0.005655978
0.10123706 -0.2518 -0.105788656 -0.27877632 -0.20534447 -0.36465755 -0.31132123 -0.031656317
00000000: 1f50 49bd 1f4c fbbc bd4e 633e 98b8 093e
00000010: 2ea7 f73d edaa 6c3b 7971 d13d 7279 82bd
00000020: 38de 653e 0e17 523e 9134 13be 4c58 263f
00000030: abc0 073e f066 a53e eedd b43e 43bc f23d
00000040: 5495 533e 2c4f f7bd cea4 3fbe b22b 22bd
00000050: 18ab cf3d 465c c93d 0d24 0bbe c653 1ebf
00000060: 9ed0 55bd ebd9 1abe d5c0 1e3e 2b14 9dbe
00000070: 60b2 6e3e aa2d b3bc 1169 a43c d792 90bd
00000080: 6327 7dbe 8028 9d3d 3dfe edbc 10e1 033e
00000090: 809b 373e 274a 803e fff7 a13e 8500 25be
000000a0: bd1f 813e c72c 2fbe 19b0 e6bc b0bf 4f3e
000000b0: 157d 4ebe 7dca 453e cc0a 05be 5d2d 54bd
000000c0: 5aa1 c3bd c978 04be 0089 41be c932 073c
000000d0: b085 383e ebc2 6f3e 31cb 73bd fa5c 7cbd
000000e0: ee07 123e 918d 85bd 91ce 903d 186a d1bb
000000f0: cc4d 9b3d d4ba d83a 2702 453e 7614 6fbe
00000100: 1072 453b 34f2 87be d8c2 763d 3923 1dbd
00000110: 5f3a 89be 7551 c03d eab1 f5bd 4a85 313f
00000120: 7c8c cfbe 4087 b03e dfff b03e d1a6 803c
00000130: 92f1 983d 39bf 5e3c ef91 e7bd e76c 513d
00000140: 6273 a9bd aea0 44be 9f65 43be 3bb2 743e
00000150: c04a 58bc 76a9 16be eab8 de3d 64b4 6abe
00000160: 3592 80be bc4d 50be 3d05 41bd 099e 963e
00000170: 1383 b33d 9d01 563e 2c2d fabd 9f5b cb3d
00000180: ed64 51be d224 8bbe 664e 003e a15a b3bc
00000190: e0f5 16be 17ae f13c 5d78 64be cc75 083c
000001a0: 8a6c dd3d c538 383d d0e5 bcbb d47f 58be
000001b0: a3d0 263e 4e20 493e ee7c 223e 7219 d33d
000001c0: 6091 613d 1bc9 c8bd 024e ee3d 050c b0bd
000001d0: 8f97 023d 7708 1ebe 5a29 1abe da2d 34be
000001e0: a627 2dbd 04c5 1c3e 1991 51be b983 ed3d
000001f0: dfc8 653e c179 64be 5fc3 283e 12a7 42be
00000200: 78ff 403e 569b 30be 21d9 bc3d c218 803e
00000210: ca1b 503d fc4d 14be b7da aebd 969f dcbd
00000220: f118 3bbe 73a1 5ebe 4300 823e e31a dcbd
00000230: c3ef e9bd d240 823e 89f1 273e 1344 783e
00000240: 293f 213e 6b25 cbbd 63e1 bb3d a06c 4d3e
00000250: 8465 243e e0c8 53be 914b 3fbe b10a 773d
00000260: 9a66 28be 4816 9ebd ff8b 1ebe 51db 18be
00000270: d901 60be 1707 9cbd 70ba 87be 9963 76ba
00000280: d5c8 81be 0566 23be 3e94 de3a 8175 5f3e
00000290: e393 79bd 32c9 6b3e 8145 5b3d f0a8 0d3e
000002a0: 240b 233d ac02 c2bd b481 4fbe 9cba 66bb
000002b0: 1421 1dbe 43f4 72be 843a eb3d ab71 663c
000002c0: 6b03 803e 4399 363e 7497 04be c0ec 153e
000002d0: fc25 513e 3939 2bbe d905 6cbe d42a 4a3e
000002e0: 70fb 20be 4608 da3d 50ce 6fbe 5bed 78bd
000002f0: a62a 06b9 f82a 43be 43e2 2f3e b7d5 27bc
00000300: 0623 623e 2d9f 3d3e 2fcd 4bbd 6d4c 7f3e
00000310: 2e18 843d c179 4f3e e549 463e 08ac 083e
00000320: 50ad 2ebe e81d 2e3e 2cdd 81be 13c1 0ebe
00000330: 5b79 37be f8f2 07be ab27 6f3e 31cb 973b
00000340: 943a 67bd 3e2e 813e 8297 3bbe 8089 66be
00000350: 987a 99be 7fb7 adbd fa1b dbbd 543e 3e3d
00000360: d455 ed3c c8ec 573e c49b 0b3f ab7a a2be
00000370: 41d8 9bbe 3c2e afbe 5c43 c23e db5b e8bd
00000380: 4bdf ad3d 0c31 7bbd ecb4 343e 443a 76be
00000390: fd6b 283e 2d14 513e 1abe 67bc 61e4 13be
000003a0: 2191 f3bd bf5d 45bd 6126 c93d 2ae4 e23d
000003b0: 6ed2 53be c2c9 44be 8aef b73d 95c8 07be
000003c0: 17ba 35be c6ca 9f3e d21a 1a3e 1f31 f93d
000003d0: 834b 663e e20f 033e e05e dabd c855 b93b
000003e0: 6055 cf3d eeeb 80be b9a7 d8bd c5bb 8ebe
000003f0: d245 52be 65b4 babe 7f65 9fbe 0eaa 01bd

policy_network.0.bias f4 [128]
-0.25238043 0.13659956 -0.0760301 0.0045538573 0.06204344 -0.0918938 0.10699328 0.08099252
0.19977744 0.037817147 -0.11773973 0.10035677 0.17702726 0.1725037 -0.10070739 0.24832934
0.12906462 -0.20221837 0.0039618765 -0.10453694 0.19034189 -0.10599121 -0.16826293 -0.26237935
0.15744461 -0.1935702 0.097759545 -0.26359004 -0.23206355 0.036360405 0.05120487 0.124365374
-0.22530846 -0.026552385 -0.2656442 -0.19169949 -0.17421542 0.10002606 -0.29283425 0.0006375648
0.08067896 -0.020964643 0.04412717 0.1777713 -0.03137166 -0.16256832 -0.054229442 0.002423348
-0.18883546 -0.13331866 0.052301407 -0.12963697 -0.17278501 0.17652777 0.043650527 0.15301672
-0.14449422 -0.15103407 0.18651104 -0.024975177 -0.21503027 -0.2393737 -0.09094414 0.13063
0.16989997 0.08384103 0.049093753 0.11528522 -0.0918979 -0.14686559 -0.14680277 -0.028686874
-0.1321526 0.23697637 -0.096312374 -0.26636475 -0.13480814 0.094219185 -0.2284594 -0.06799268
0.2301419 -0.12841004 0.08017334 0.163865 -0.05570511 0.038387094 -0.03716952 -0.028313236
0.043956116 0.1519746 -0.17107752 0.23887004 -0.25062707 -0.049162388 -0.14737737 -0.025741877
0.08224269 0.0567057 0.13492884 -0.17780156 0.024688432 -0.2754197 0.22687475 -0.05431278
-0.23235308 0.067731924 -0.20468237 0.06778052 -0.17686445 0.13510524 0.079241745 -0.119036295
-0.21205668 -0.28755644 0.21097039 -0.048351496 0.22340205 -0.08569602 -0.08452372 0.07733811
-0.19027832 0.03128037 0.13526835 -0.12917402 0.14498174 -0.016181968 -0.13318834 -0.18074659
00000000: 0238 81be c1e0 0b3e abb5 9bbd 8638 953b
00000010: 4321 7e3d d132 bcbd 4b1f db3d 68df a53d
00000020: 7592 4c3e 27e6 1a3d 8721 f1bd da87 cd3d
00000030: a246 353e cfa4 303e ad3f cebd 0c4a 7e3e
00000040: 8429 043e 5512 4fbe a1d2 813b 7717 d6bd
00000050: fce8 423e eb11 d9bd 1e4d 2cbe 9656 86be
00000060: 2939 213e 4437 46be 2836 c83d 46f5 86be
00000070: 11a2 6dbe a6ee 143d 33bc 513d 46b3 fe3d
00000080: 43b7 66be 6384 d9bc 8402 88be df4c 44be
00000090: 8765 32be 77da cc3d 5fee 95be 4022 273a
000000a0: 033b a53d 0bbe abbc b1be 343d ae09 363e
000000b0: 927f 00bd 4f78 26be b11f 5ebd 08d1 1e3b
000000c0: 155e 41be b084 08be 003a 563d 8ebf 04be
000000d0: 8eee 30be b2c3 343e e5ca 323d 6ab0 1c3e
000000e0: 4bf6 13be ada8 1abe c0fc 3e3e be98 ccbc
000000f0: e530 5cbe 611e 75be ec40 babd dfc3 053e
00000100: 42fa 2d3e d9b4 ab3d 8816 493d a81a ec3d
00000110: f734 bcbd ef63 16be 7753 16be bc00 ebbc
00000120: 0353 07be efa9 723e 6c3f c5bd f660 88be
00000130: 250b 0abe fdf5 c03d 43f1 69be bf3f 8bbd
00000140: 51aa 6b3e ec7d 03be ec31 a43d 3acc 273e
00000150: 0b2b 64bd c93b 1d3d 113f 18bd 29f1 e7bc
00000160: 540b 343d 3b9f 1b3e f22e 2fbe 599a 743e
00000170: 3152 80be 805e 49bd 18ea 16be a1e0 d2bc
00000180: db6e a83d 3c44 683d c92a 0a3e 9d11 36be
00000190: 653f ca3c d003 8dbe db51 683e 1477 5ebd
000001a0: f7ed 6dbe 09b7 8a3d 4198 51be 83d0 8a3d
000001b0: f41b 35be 0759 0a3e 7f49 a23d 4dc9 f3bd
000001c0: 6325 59be 993a 93be 9f08 583e 380c 46bd
000001d0: 82c3 643e 6581 afbd c61a adbd 7163 9e3d
000001e0: 52d8 42be d81f 003d c983 0a3e 3246 04be
000001f0: 1876 143e 0c90 84bc 8662 08be a215 39be

policy_network.3.weight f4 [256, 128]
-0.028552936 -0.07857856 0.010843682 -0.08609866 -0.11389612 0.07232673 -0.093861334 0.07096093
-0.022822117 -0.03048314 -0.09052824 -0.07878769 0.0014612839 -0.0627836 0.040589087 0.07312078
0.04016041 -0.08562826 0.06311492 0.014651547 0.034234274 -0.08088134 0.033861704 0.086352
0.004322879 -0.047416627 0.067901224 -0.04619025 -0.029601568 -0.06107271 -0.02506474 -0.0040203403
0.016306216 0.056147635 0.044872865 -0.08043166 -0.00014072932 -0.018425379 0.07637485 -0.06713517
-0.033658758 0.041219134 -0.03408717 -0.08088621 -0.022744335 0.055849925 -0.021042097 -0.037315886
-0.06939235 0.022720385 -0.09638789 0.015001286 -0.05680094 0.057158776 0.01708552 -0.014511023
-0.10771425 -0.07019301 -0.0357459 -0.06235521 -0.054488774 0.007168075 -0.025131222 0.007633311
0.043947782 -0.0043687653 0.04622106 0.03283286 -0.08796651 -0.0040870686 0.051511794 -0.053135842
-0.006954219 0.011029493 -0.08141438 0.018258158 -0.033560675 -0.027122708 0.03410415 0.04318341
-0.051274624 -0.08888569 0.02207853 -0.03774364 0.03488619 0.08195857 0.04860408 -0.030069362
-0.01991204 -0.031207306 -0.01005137 -0.076815285 -0.08313148 -0.08716022 -0.09015904 -0.005099993
0.008166088 0.025449762 -0.06287828 0.019930677 -0.08683639 0.016631367 -0.056245472 0.016605584
-0.015059006 0.049689244 0.013235196 0.047172375 0.07417628 0.050237287 0.0026712776 0.079554886
0.008559586 -0.015459116 -0.01072006 -0.040565196 -0.009761231 -0.004799495 -0.055763166 -0.0044011245
-0.0117974505 -0.04860719 -0.07313071 -0.15104595 0.022372195 -0.061068084 -0.029805576 -0.04523145
-0.061620243 0.047413275 0.040139966 -0.07453118 0.02025236 -0.029024921 0.03811176 0.05467227
0.012061416 -0.070771776 -0.04914847 -0.076944605 0.03053044 0.06314726 0.09131999 -0.0024271947
-0.013623324 -0.047786664 0.12605591 -0.0034792973 0.0058735427 -0.06733466 -0.030276868 -0.041273557
0.040741894 0.011188101 -0.041448537 -0.053522833 0.03158196 -0.026593111 -0.016063387 0.061949797
0.038432963 0.067273594 0.069760926 -0.07591741 -0.043847173 0.06138937 -0.059207235 -0.037066128
0.061934445 -0.044699937 0.00040487316 -0.03784318 -0.05184273 -0.02567568 -0.08165097 0.05612324
0.08348682 -0.04617913 -0.111572966 -0.06788733 -0.023915535 0.012752477 0.012763809 0.045114946
-0.0044273157 -0.008487079 0.026169771 -0.07249232 0.06649096 -0.009839608 -0.07317387 0.03250963
-0.050056025 0.018789755 0.028607152 -0.08440221 -0.0030238456 0.07004862 0.08405361 0.06264782
0.050047673 0.05609579 -0.017595014 -0.07405639 0.1096899 0.042219535 0.005104334 0.053667005
0.04905872 0.051098313 0.038739245 0.06001844 -0.08657986 -0.061881423 -0.021802176 -0.06486941
0.05668143 0.070884705 0.031372502 0.0032545526 -0.03224196 0.041151818 -0.07732751 -0.040496066
0.042911973 -0.06319841 0.03291952 -0.08921202 -0.0011469843 -0.09277162 -0.075951874 0.090934224
-0.08486051 0.050916664 0.07289449 -0.0008702481 0.10252404 0.04286935 0.07232431 0.06589618
-0.08138587 0.017123373 -0.016678734 0.023634316 0.043334577 -0.085247144 0.03708125 -0.046705384
0.053864904 0.0657185 -0.07276274 -0.15330803 -0.012543747 0.009568472 0.07951181 -0.061738726
00000000: d9e7 e9bc cced a0bd b3a9 313c 7f54 b0bd
00000010: 5e42 e9bd 0920 943d 5f3a c0bd f753 913d
00000020: 73f5 babc c7b7 f9bc df66 b9bd 715b a1bd
00000030: 8d88 bf3a b094 80bd be40 263d 59c0 953d
00000040: 3e7f 243d df5d afbd 6542 813d 0b0d 703c
00000050: 3d39 0c3d 1ea5 a5bd 92b2 0a3d 51d9 b03d
00000060: f0a6 8d3b f037 42bd cc0f 8b3d fd31 3dbd
00000070: fd7e f2bc 6127 7abd 9254 cdbc 0fbd 83bb
00000080: 9d94 853c 10fb 653d 9ccc 373d 5bb9 a4bd
00000090: bd90 13b9 d2f0 96bc 6b6a 9c3d 2a7e 89bd
000000a0: c4dd 09bd 65d5 283d fd9e 0bbd aba7 a5bd
000000b0: 5452 babc e4c2 643d 7a60 acbc 8bd8 18bd
000000c0: 941d 8ebd 1a20 ba3c 0467 c5bd f4c7 753c
000000d0: 1aa8 68bd 521f 6a3d eff6 8b3c a4bf 6dbc
000000e0: 4a99 dcbd 5ac1 8fbd 4b6a 12bd 2d68 7fbd
000000f0: 9f2f 5fbd 2ce2 ea3b fedf cdbc db20 fa3b
00000100: 9702 343d dc27 8fbb 4b52 3d3d c07b 063d
00000110: c927 b4bd d1ec 85bb 08fe 523d f8a4 59bd
00000120: 38e0 e3bb 0cb5 343c 95bc a6bd 2292 953c
00000130: eb76 09bd 7130 debc cbb0 0b3d 16e1 303d
00000140: 5705 52bd b309 b6bd 09de b43c 1399 1abd
00000150: d2e4 0e3d e5d9 a73d 1215 473d 0654 f6bc
00000160: 931e a3bc 77a6 ffbc 80ae 24bc 5551 9dbd
00000170: d640 aabd 0f81 b2bd 4ea5 b8bd d81d a7bb
00000180: 0ecb 053c 057c d03c 54c6 80bd a945 a33c
00000190: 47d7 b1bd 813e 883c a761 66bd 6f08 883c
000001a0: 0dba 76bc f386 4b3d 6fd8 583c d237 413d
000001b0: bce9 973d 9dc5 4d3d 9a10 2f3b aced a23d
000001c0: 813d 0c3c 3b48 7dbc 31a3 2fbc b127 26bd
000001d0: 92ed 1fbc 1545 9dbb eb67 64bd 4f37 90bb
000001e0: 184a 41bc 5518 47bd 8ec5 95bd caab 1abe
000001f0: e545 b73c 8722 7abd d32a f4bc 9d44 39bd
00000200: 8265 7cbd 6c34 423d ce69 243d cea3 98bd
00000210: 47e8 a53c acc5 edbc 141b 1c3d 08f0 5f3d
00000220: 3f9d 453c cbf0 90bd e84f 49bd 2295 9dbd
00000230: f91a fa3c 5a53 813d fa05 bb3d 9211 1fbb
00000240: 5d34 5fbc f3bb 43bd cd14 013e ec04 64bb
00000250: d976 c03b c1e6 89bd 3207 f8bc 760e 29bd
00000260: f9e0 263d 4c4e 373c f1c5 29bd c23a 5bbd
00000270: 165c 013d ccd9 d9bc 5d97 83bc 12bf 7d3d
00000280: e26b 1d3d bdc6 893d d1de 8e3d 967a 9bbd
00000290: 1899 33bd 6c73 7b3d 4983 72bd a7d2 17bd
000002a0: f9ae 7d3d 4817 37bd 2845 d439 7301 1bbd
000002b0: 0b59 54bd ce55 d2bc a038 a7bd 7ce1 653d
000002c0: 23fb aa3d 5426 3dbd 5e80 e4bd 8308 8bbd
000002d0: 83ea c3bc c4ef 503c 4c1f 513c 73ca 383d
000002e0: 0413 91bb 640d 0bbc fd61 d63c da76 94bd
000002f0: 6a2c 883d 4f36 21bc 2fdc 95bd d128 053d
00000300: 8c07 4dbd f9ec 993c 8c59 ea3c 11db acbd
00000310: b62b 46bb a775 8f3d 4d24 ac3d 804d 803d
00000320: cafe 4c3d b3c4 653d 6b23 90bc e0aa 97bd
00000330: 19a5 e03d 64ee 2c3d 4242 a73b efd1 5b3d
00000340: ccf1 483d 774c 513d 0bad 1e3d e5d5 753d
00000350: c850 b1bd 6077 7dbd 7a9a b2bc 41da 84bd
00000360: ca2a 683d 002c 913d 7480 003d 554a 553b
00000370: 2510 04bd cf8e 283d e35d 9ebd 34df 25bd
00000380: 77c4 2f3d 2b6e 81bd 9ed6 063d cbb4 b6bd
00000390: 6856 96ba 0cff bdbd a88c 9bbd b93b ba3d
000003a0: 59cb adbd fe8d 503d b549 953d 5d21 64ba
000003b0: 20f8 d13d c697 2f3d c51e 943d 94f4 863d
000003c0: a3ad a6bd 5146 8c3c d7a1 88bc c19c c13c
000003d0: 997f 313d 0e96 aebd 82e2 173d 254e 3fbd
000003e0: 72a1 5c3d 6c97 863d a204 95bd c8fc 1cbe
000003f0: 4a84 4dbc 15c5 1c3c 16d7 a23d bfe1 7cbd

policy_network.3.bias f4 [256]
-0.0456041 0.042719644 0.052887753 -0.08831862 -0.00037397066 -0.09933698 -0.095690444 0.05192724
0.040113326 -0.06963269 0.06294648 -0.019249704 -0.0016490341 0.029677758 0.052577317 0.012926253
0.056295916 -0.060439497 -0.0233419 0.036394864 0.0038053775 -0.028208438 -0.022769995 -0.008718137
-0.04023304 -0.07377382 -0.033534877 -0.04282762 -0.06337505 0.007553383 0.037164316 0.06775364
-0.065337606 -0.09210161 -0.007237605 0.0109689925 0.035891045 -0.011995197 0.041766074 -0.035924923
-0.01855825 0.04518046 -0.08077921 0.024768349 -0.04390617 -0.068870775 -0.046105675 -0.0063116793
0.01781432 -0.05439068 0.016350202 -0.010899824 0.042417746 0.05471942 0.039719284 -0.06806086
-0.077990025 0.054470472 -0.08769928 -0.03473875 0.005322028 0.015618536 -0.095663406 0.049829733
-0.07050334 -0.0043158378 -0.033246715 -0.08762414 0.033177003 0.0318602 0.025814192 -0.037722528
0.064139836 0.05424398 0.06477067 -0.055818927 -0.03353861 -0.01809325 0.027069477 0.05062588
0.0257214 0.028525941 0.029837377 0.010927847 0.008666313 -0.020646192 -0.062104397 -0.106994554
-0.049889978 0.021604506 -0.060115445 -0.065450534 -0.055758003 0.01483692 0.03389692 -0.038087554
0.009372229 -0.019662626 -0.0173738 -0.037303664 -0.0507133 0.005874368 -0.04800804 0.054827694
0.002170641 0.06718145 -0.07093606 0.06075714 -0.01792079 0.06427793 0.022584228 0.042226803
0.05583044 -0.08041957 -0.09938157 0.038875483 0.0010782452 0.018920815 0.039375983 -0.100674845
-0.0074175373 0.045091793 -0.0010122336 -0.09811777 0.035157785 -0.014208753 -0.018074345 -0.06822419
0.019855313 -0.07019697 -0.04424541 -0.026877228 -0.044211637 -0.056002222 0.035836753 -0.04148937
-0.036800172 -0.06297682 0.05296553 -0.07458674 0.061751936 0.009188271 -0.055690877 -0.01698939
0.010772016 -0.0030716963 -0.032495126 -0.04318445 -0.088230476 -0.017526163 0.03713557 -0.09149374
0.02229723 -0.074224345 0.038036566 -0.0028106791 0.073189564 -0.014675065 0.060842983 0.014210268
0.052958902 0.01740243 -0.011100484 -0.07290791 -0.06569538 -0.04975476 -0.060864102 -0.038885757
-0.009442517 -0.032159034 0.022267776 0.02133923 0.013872341 0.03579944 -0.065914996 0.04465448
0.015015663 -0.03562984 0.031649176 -0.07320522 0.010993313 -0.07264772 -0.018910743 -0.08401917
0.0022199068 -0.0832509 0.061602224 -0.09649122 0.01858687 0.046842802 0.004935348 0.0068495595
0.036676235 -0.06450407 -0.06156693 0.014619061 -0.02142301 -0.035887286 0.008472752 0.06165605
-0.099794246 -0.064424336 -0.0872632 0.015422504 -0.007139947 -0.016005894 -0.08910991 -0.02175663
-0.05560203 -0.08509513 -0.067602225 -0.06782848 0.039604437 0.054238264 -0.023535354 -0.1009681
0.0047209365 -0.049952667 -0.034790333 -0.1023301 -0.07588352 0.082653336 0.042373996 0.041194085
-0.038054228 -0.09712164 0.047309898 0.05445691 -0.01022656 -0.021777181 -0.06813849 0.02433979
0.045258485 -0.0967929 -0.019223519 -0.08243389 0.0004694745 -0.032439895 0.01110406 -0.041119162
-0.035655472 0.0141889565 0.058012236 0.0379678 -0.02000718 -0.081373386 0.08055355 -0.000986741
0.026824769 0.03989938 -0.020210039 -0.030694518 0.05243163 -0.06258623 0.013857168 -0.021890862
00000000: 5dcb 3abd cbfa 2e3d d4a0 583d 65e0 b4bd
00000010: 7e11 c4b9 3071 cbbd 5af9 c3bd a8b1 543d
00000020: df4d 243d 959b 8ebd 16ea 803d 8eb1 9dbc
00000030: 6724 d8ba c51e f33c 505b 573d a2c8 533c
00000040: 8c96 663d 688f 77bd 8337 bfbc c812 153d
00000050: a463 793b 6215 e7bc 2488 babc 84d6 0ebc
00000060: 66cb 24bd bb16 97bd de5b 09bd 046c 2fbd
00000070: c7ca 81bd 5e82 f73b 9c39 183d 6cc2 8a3d
00000080: b9cf 85bd c59f bcbd 6e29 edbb 4ab7 333c
00000090: 7d02 133d 8187 44bc e712 2b3d 0326 13bd
000000a0: 7907 98bc 250f 393d 926f a5bd fee6 ca3c
000000b0: f5d6 33bd 1f0c 8dbd 4ed9 3cbd 34d2 cebb
000000c0: 56ef 913c c3c8 5ebd dcf0 853c 2d95 32bc
000000d0: 3bbe 2d3d 7821 603d b0b0 223d 7e63 8bbd
000000e0: 3cb9 9fbd 6e1c 5f3d ae9b b3bd 384a 0ebd
000000f0: 6864 ae3b e3e4 7f3c 2deb c3bd 431a 4c3d
00000100: 0e64 90bd df6b 8dbb b52d 08bd 4974 b3bd
00000110: 9ce4 073d d77f 023d 4978 d33c f082 1abd
00000120: bf5b 833d f02e 5e3d 7ca6 843d 63a2 64bd
00000130: c85f 09bd 4c38 94bc cfc0 dd3c 155d 4f3d
00000140: afb5 d23c 3caf e93c 846d f43c b60a 333c
00000150: 27fd 0d3c 3422 a9bc 2e61 7ebd f61f dbbd
00000160: 6f59 4cbd effb b03c 9d3b 76bd ee0a 86bd
00000170: 8162 64bd 8e16 733c 7fd7 0a3d b201 1cbd
00000180: fa8d 193c 8413 a1bc 8053 8ebc bacb 18bd
00000190: c0b8 4fbd c57d c03b 14a4 44bd 0193 603d
000001a0: 5041 0e3b 6e96 893d ed46 91bd 7bdc 783d
000001b0: 9fce 92bc 26a4 833d 8f02 b93c 03f6 2c3d
000001c0: 76ae 643d 04b3 a4bd 9188 cbbd e63b 1f3d
000001d0: e853 8d3a d3ff 9a3c b648 213d 9d2e cebd
000001e0: d00e f3bb 2cb2 383d ecac 84ba f8f1 c8bd
000001f0: 9c01 103d d4cb 68bc a610 94bc 20b9 8bbd
00000200: 9ca7 a23c 6ec3 8fbd ad3a 35bd a22d dcbc
00000210: 4317 35bd 9662 65bd 8fc9 123d c2f0 29bd
00000220: c7bb 16bd fef9 80bd 62f2 583d efc0 98bd
00000230: 99ef 7c3d 678a 163c 1e1c 64bd 552d 8bbc
00000240: 1c7d 303c 834e 49bb 9c19 05bd 2ee2 30bd
00000250: 2eb2 b4bd 0793 8fbc 781b 183d 1261 bbbd
00000260: aea8 b63c ef02 98bd 3bcc 1b3d 5f33 38bb
00000270: 69e4 953d af6f 70bc 7e36 793d 2fd2 683c
00000280: 6feb 583d 8a8f 8e3c cede 35bc be50 95bd
00000290: 4d8b 86bd a6cb 4bbd a34c 79bd ac46 1fbd
000002a0: c9b4 1abc 31b9 03bd e96a b63c 9ccf ae3c
000002b0: d148 633c 6fa2 123d 71fe 86bd 9ee7 363d
000002c0: 4104 763c 98f0 11bd 91a2 013d 9eec 95bd
000002d0: 4c1d 343c 54c8 94bd b4ea 9abc 3e12 acbd
000002e0: db7b 113b 737f aabd 9d52 7c3d 309d c5bd
000002f0: 7e43 983c 3dde 3f3d b3b8 a13b 4572 e03b
00000300: d239 163d b61a 84bd 9b2d 7cbd c984 6f3c
00000310: 4f7f afbc 8cfe 12bd 4cd1 0a3c 0e8b 7c3d
00000320: ed60 ccbd e8f0 83bd 0cb7 b2bd acae 7c3c
00000330: 37f6 e9bb cb1e 83bc 427f b6bd f63a b2bc
00000340: f4be 63bd 5b46 aebd 0973 8abd a8e9 8abd
00000350: 4338 223d f128 5e3d 37cd c0bc 5dc8 cebd
00000360: 16b2 9a3b 2b9b 4cbd 4f80 0ebd 7292 d1bd
00000370: d268 9bbd 2746 a93d 5b90 2d3d 21bb 283d
00000380: c0de 1bbd b6e7 c6bd 06c8 413d 350e 5f3d
00000390: 4d8d 27bc 0f66 b2bc 318c 8bbd 3d64 c73c
000003a0: f660 393d 5b3b c6bd a47a 9dbc 19d3 a8bd
000003b0: cd23 f639 b2df 04bd ceed 353c 916c 28bd
000003c0: 790b 12bd cc78 683c 3d9e 6d3d 2084 1b3d
000003d0: 19e6 a3bc 17a7 a6bd 42f9 a43d 8955 81ba
000003e0: 9ebf db3c 886d 233d 868f a5bc 1273 fbbc
000003f0: 8dc2 563d 362d 80bd 2d09 633c 7754 b3bc

policy_network.6.weight f4 [128, 256]
-0.0030643255 -0.04746617 0.06864767 0.013816897 -0.06499114 -0.033493835 0.0726359 -0.006585799
-0.08829124 0.018152317 0.07305042 0.05034902 -0.08847509 0.062083893 0.071801804 0.07278132
0.025459643 0.0038959086 0.04261903 0.034117978 -0.050528653 0.0067601893 -0.08798011 -0.037784103
0.0039821244 -0.0058840364 -0.11719267 0.061900064 -0.031237962 0.049444042 -0.03959189 -0.0781564
0.004013427 0.06586187 0.0001266085 0.009913424 -0.058831602 -0.065620616 -0.005592665 -0.05068693
-0.048302945 -0.038212635 0.033335358 -0.008024081 -0.011187263 0.0361659 0.0055982172 0.058932304
0.068820655 -0.027457481 0.017365318 0.11401903 -0.015662998 -0.0133483615 0.012446722 -0.0056697917
-0.008022748 0.06813364 -0.018959664 -0.027736932 -0.028973566 0.037284315 -0.018949227 -0.018960334
0.026072016 -0.005557203 0.037397746 0.09299661 0.09543902 0.06191281 0.039524093 -0.0066621494
0.0021196962 -0.045321643 0.007650788 -0.06182361 -0.01596963 -0.061674695 0.008149842 -0.018832903
0.007193974 -0.009346333 0.032663763 -0.01538546 0.07015606 0.00994132 -0.006293422 0.06614083
0.07175621 -0.060998205 -0.04299877 -0.051817052 -0.04110379 -0.052802525 -0.0125052035 0.038959987
-0.03575208 -0.026895002 0.065440916 0.094320506 -0.052709036 -0.034588628 0.046857983 0.012499373
0.083304346 -0.030033251 0.029298773 -0.004749749 -0.011993907 -0.0124356365 -0.018358653 0.028935716
0.06544252 0.025850043 -0.021994356 0.034953497 0.08317718 -0.024036942 0.04279415 -0.004739437
-0.0025005378 -0.042086363 -0.07360551 0.017598674 0.009673631 0.011874334 0.010300633 0.01952162
0.029216342 -0.08489296 -0.02168277 0.0381062 0.008918693 0.048254866 0.052273203 0.0033724136
0.10636142 0.0931395 -0.005368682 -0.06089253 -0.004867466 0.024453228 -0.0019142153 0.06075403
0.005195946 -0.0208837 -0.045568094 0.037218716 0.015457298 0.022851974 0.0032561522 -0.015125677
-0.05703036 -0.04087495 0.048832845 0.03242947 -0.076033555 0.017938197 0.006036514 -0.03547442
0.0037740702 -0.017219529 -0.006969917 0.03421443 -0.031332593 -0.03682664 -0.04413809 0.07389933
0.032017875 -0.0640163 0.011200698 -0.008221572 -0.025727222 -0.03227593 0.040080268 0.06858997
0.0119355405 -0.056076698 0.04291731 -0.020007897 0.0061383774 -0.05157386 -0.03289746 -0.041612107
-0.012638069 -0.0054623336 0.13608298 -0.018651783 0.041488394 -0.06624225 0.0071648583 -0.05651119
0.17508006 0.0459727 0.03273471 -0.004878895 0.017925633 -0.04263974 -0.03673525 0.011503304
0.09077005 0.085712634 0.013638951 -0.061624434 0.035648786 -0.01660847 0.0056174546 0.019533232
0.042861197 -0.028900668 -0.021924077 -0.0864566 0.059558842 -0.04246989 0.035562325 0.06301729
0.024625203 -0.019597983 -0.0639663 0.010031253 0.046129294 0.049452357 -0.018567707 -0.018300382
-0.0033422913 -0.06269605 -0.035480853 -0.015966775 0.05353283 -0.09876893 -0.03869953 0.043097034
0.033385582 0.05049014 0.0015933006 -0.017494742 0.018194133 0.026141688 0.025513446 -0.037871815
0.015388713 -0.069975495 0.093813874 0.021124398 0.05484275 0.040958606 -0.023990238 0.017341318
-0.011264646 -0.062269736 0.03499866 -0.006362619 0.009932926 0.03907038 0.015070699 0.045227457
00000000: dad2 48bb e36b 42bd 2697 8c3d 4460 623c
00000010: 131a 85bd d530 09bd 21c2 943d b0cd d7bb
00000020: 0ad2 b4bd 2bb4 943c 759b 953d c63a 4e3d
00000030: 6e32 b5bd ae4b 7e3d d30c 933d 5f0e 953d
00000040: be90 d03c 8052 7f3b 4b91 2e3d 4bbf 0b3d
00000050: 22f7 4ebd 9484 dd3b ea2e b4bd 81c3 1abd
00000060: 7b7c 823b e0ce c0bb b602 f0bd ec8a 7d3d
00000070: c1e6 ffbc d685 4a3d 1b2b 22bd 7610 a0bd
00000080: 1183 833b 97e2 863d 36c2 0439 ea6b 223c
00000090: 68f9 70bd 1a64 86bd ad42 b7bb 199d 4fbd
000000a0: 4fd9 45bd da84 1cbd a88a 083d 6f77 03bc
000000b0: c84a 37bc b222 143d 4071 b73b 0063 713d
000000c0: d8f1 8c3d 83ee e0bc b641 8e3c cf82 e93d
000000d0: b04f 80bc 16b3 5abc 56ed 4b3c a9c9 b9bb
000000e0: d871 03bc a689 8b3d 4c51 9bbc 9038 e3bc
000000f0: f959 edbc 70b7 183d 693b 9bbc b452 9bbc
00000100: fb94 d53c 3319 b6bb 612e 193d 0275 be3d
00000110: 8875 c33d 4998 7d3d 04e4 213d 294e dabb
00000120: 9aea 0a3b 30a3 39bd 76b3 fa3b c13a 7dbd
00000130: bed2 82bc 9b9e 7cbd ea86 053c 7647 9abc
00000140: 6ebb eb3b 5d21 19bc 70ca 053d 4c13 7cbc
00000150: fbad 8f3d ebe0 223c 0d39 cebb d874 873d
00000160: ebf4 923d 41d9 79bd 7a1f 30bd 1e3e 54bd
00000170: 735c 28bd 7647 58bd a0e2 4cbc 8294 1f3d
00000180: c670 12bd e852 dcbc e305 863d 1c2b c13d
00000190: 6ee5 57bd ceac 0dbd 28ee 3f3d 2cca 4c3c
000001a0: 789b aa3d 4b08 f6bc fb03 f03c c8a3 9bbb
000001b0: 1882 44bc d7be 4bbc e364 96bc 980a ed3c
000001c0: ba06 863d 78c3 d33c 822d b4bc 662b 0f3d
000001d0: cc58 aa3d 1fe9 c4bc eb48 2f3d 474d 9bbb
000001e0: 10e0 23bb c062 2cbd 7cbe 96bd 182b 903c
000001f0: 267e 1e3c 918c 423c fcc3 283c ceeb 9f3c
00000200: 1c57 ef3c 5cdc adbd 11a0 b1bc 3f15 1c3d
00000210: b61f 123c e5a6 453d 6d1c 563d b603 5d3b
00000220: 04d4 d93d ecbf be3d c5eb afbb 726a 79bd
00000230: 447f 9fbb 2352 c83c 68e6 faba 38d9 783d
00000240: c142 aa3b 4b14 abbc 9ca5 3abd a772 183d
00000250: 9b40 7d3c 1034 bb3c 2b65 553b b0d1 77bc
00000260: ab98 69bd 7e6c 27bd f304 483d c4d4 043d
00000270: 7bb7 9bbd 20f3 923c f3cd c53b a04d 11bd
00000280: 6456 773b f80f 8dbc e763 e4bb 6e24 0c3d
00000290: 9b56 00bd 88d7 16bd 24ca 34bd 8858 973d
000002a0: 2d25 033d fa1a 83bd 2283 373c c6b3 06bc
000002b0: e5c1 d2bc c433 04bd 352b 243d e678 8c3d
000002c0: 498d 433c aeb0 65bd 10ca 2f3d 9ae7 a3bc
000002d0: 7124 c93b 1d3f 53bd 7dbf 06bd 7571 2abd
000002e0: e70f 4fbc 60fd b2bb 5659 0b3e a0cb 98bc
000002f0: bcef 293d 04aa 87bd 30c7 ea3b 4778 67bd
00000300: 3048 333e df4d 3c3d d514 063d 23df 9fbb
00000310: c7d8 923c 02a7 2ebd b477 16bd 5b78 3c3c
00000320: a6e5 b93d 1b8a af3d e875 5f3c e769 7cbd
00000330: 7604 123d 7c0e 88bc a012 b83b 2804 a03c
00000340: 398f 2f3d 18c1 ecbc 1f9a b3bc 2810 b1bd
00000350: f9f3 733d e8f4 2dbd cda9 113d 350f 813d
00000360: cbba c93c f38b a0bc c300 83bd 205a 243c
00000370: 12f2 3c3d 8e8e 4a3d 4e1b 98bc afea 95bc
00000380: 580a 5bbb c966 80bd 5f54 11bd c1cc 82bc
00000390: 3e45 5b3d 5d47 cabd 6683 1ebd 8486 303d
000003a0: 52bf 083d c0ce 4e3d 4cd6 d03a 2251 8fbc
000003b0: dd0b 953c 1827 d63c 9301 d13c 7a1f 1bbd
000003c0: f120 7c3c 504f 8fbd 7d21 c03d 130d ad3c
000003d0: cba2 603d 36c4 273d 2d87 c4bc 610f 8e3c
000003e0: 5a8f 38bc 8d0e 7fbd c15a 0f3d 847d d0bb
000003f0: b6bd 223c 4308 203d 18eb 763c 6d40 393d

policy_network.6.bias f4 [128]
-0.049558684 -0.07583162 -0.012904349 -0.021116573 0.06828416 -0.07314981 -0.051066156 0.022795368
-0.0043979 0.010017421 0.019657416 0.064358376 -0.052939158 -0.025087496 0.0030315397 -0.046966206
0.010418679 -0.0612879 -0.035445817 -0.06797746 -0.03902204 -0.04110591 -0.056889243 -0.024607612
0.023394685 0.021651687 -0.04778981 0.010398682 -0.039974153 0.0038066295 0.02397502 -0.06295697
-0.043878272 0.05331613 -0.06122203 0.013080213 -0.05453815 0.045164872 0.02099662 -0.054616686
-0.0012198014 -0.011696333 -0.08444668 -0.0067104055 -0.018621074 -0.039416898 -0.053051185 -0.006492063
-0.04632456 -0.03329837 -0.06296258 -0.0060350588 -0.0014776684 -0.058002483 -0.0029040114 0.07814084
0.0024320877 0.009669069 -0.0064983773 -0.0012688913 -0.028454944 0.019221725 -0.06767644 -0.066592924
-0.049834415 0.074714474 -0.04096486 -0.061175473 -0.04971278 -0.05129687 -0.038393367 -0.006023814
0.00089695497 0.08443283 -0.022097843 -0.06902098 0.0043091336 -0.06216814 0.07276433 0.020205226
-0.025097687 -0.024976913 0.0053450875 -0.059635416 -0.018605746 -0.046788026 -0.026595684 0.024999255
-0.031701203 -0.032674722 0.033676933 -0.011734412 0.0070047225 0.013538407 0.0045776595 -0.025352133
-0.04284675 -0.04807012 -0.02918953 -0.03978673 -0.0331234 -0.06332163 0.04176564 0.0742136
-0.07209923 0.02090719 0.04378256 0.031436946 -0.0019648634 -0.022032076 -0.066435464 -0.073316865
-0.024599604 0.0027974762 -0.00071831513 -0.04268517 -0.028233318 -0.019523902 0.029166872 -0.067112476
0.035799515 0.0082486095 -0.03269542 0.03191921 -0.021039382 0.0012357939 0.017047264 0.015857227
00000000: 0cfe 4abd 9c4d 9bbd c36c 53bc aafc acbc
00000010: 91d8 8b3d 91cf 95bd bf2a 51bd 5abd ba3c
00000020: 421c 90bb 1c20 243c 9708 a13c 53ce 833d
00000030: bbd6 58bd 4b84 cdbc ccac 463b a35f 40bd
00000040: 1bb3 2a3c 0509 7bbd a22f 11bd c437 8bbd
00000050: 93d5 1fbd ac5e 28bd b204 69bd e795 c9bc
00000060: 36a6 bf3c e15e b13c 3fbf 43bd 3c5f 2a3c
00000070: f0bb 23bd a578 793b 4367 c43c 95ef 80bd
00000080: b4b9 33bd 0462 5a3d f4c3 7abd 644e 563c
00000090: 6563 5fbd cdfe 383d 1b01 ac3c bfb5 5fbd
000000a0: bee1 9fba faa1 3fbc 62f2 acbd f6e2 dbbb
000000b0: 398b 98bc 9d73 21bd 334c 59bd 5fbb d4bb
000000c0: d2be 3dbd df63 08bd 86f2 80bd bec1 c5bb
000000d0: 53ae c1ba 0394 6dbd 3a51 3ebb 4e08 a03d
000000e0: a963 1f3b 046b 1e3c 57f0 d4bb ed50 a6ba
000000f0: 581a e9bc e176 9d3c f299 8abd df61 88bd
00000100: 2c1f 4cbd e703 993d c5ca 27bd 2293 7abd
00000110: a19f 4bbd ab1c 52bd 5d42 1dbd 6a63 c5bb
00000120: a121 6b3a 1feb ac3d 8906 b5bc df5a 8dbd
00000130: a233 8d3b 05a4 7ebd 7705 953d 6e85 a53c
00000140: aa99 cdbc 629c ccbc d825 af3b 4444 74bd
00000150: 146b 98bc cda4 3fbd 31df d9bc 3dcb cc3c
00000160: 1fd9 01bd eed5 05bd d3f0 093d b141 40bc
00000170: df87 e53b 32d0 5d3c 3100 963b 47af cfbc
00000180: 1380 2fbd 2de5 44bd e21e efbc 69f7 22bd
00000190: 67ac 07bd c5ae 81bd 7312 2b3d 4dfd 973d
000001a0: c3a8 93bd 8e45 ab3c 5755 333d 07c4 003d
000001b0: f0c4 00bb 9d7c b4bc 510f 88bd 2727 96bd
000001c0: 1c85 c9bc dd55 373b 504d 3cba a5d6 2ebd
000001d0: 8f49 e7bc 97f0 9fbc 5def ee3c 4472 89bd
000001e0: 83a2 123d 2d25 073c a2eb 05bd b8bd 023d
000001f0: c85a acbc 5dfa a13a b4a6 8b3c 04e7 813c

policy_network.9.weight f4 [7, 128]
0.03833539 -0.03207054 0.06784838 0.07563558 0.005175328 -0.0734182 0.016466342 -0.07861527
-0.038540512 -0.048559804 -0.026021093 -0.034135792 0.0019650387 -0.074108206 -0.08563782 0.026389616
-0.012936608 0.016423127 -0.07941583 0.05549361 -0.030051302 0.026866004 -0.076628275 -0.073413685
0.010111591 0.025453733 -0.01877525 0.01185066 -0.075506195 -0.031200433 -0.029759731 0.08794645
-0.07678636 -0.048069827 -0.013737755 -0.052266404 0.06748983 -0.06613892 0.033344537 -0.079241976
0.018617498 -0.032838292 0.014496429 0.06487736 8.2962564e-05 -0.060425173 -0.051884595 -0.007771949
-0.0011137056 -0.03557762 0.05346337 -0.051440928 0.06919041 -0.07308954 0.008017755 0.033547517
0.05459053 0.021698799 0.0106374 0.07067632 -0.042983253 0.06189337 -0.06698641 0.055696186
0.024289807 -0.0008522701 0.008114924 0.01097571 0.047077507 0.034691397 0.026382297 -0.04652566
0.077134736 -0.012124651 0.013222813 0.04924106 -0.02242619 0.059379376 -0.012795951 -3.5082816e-05
-0.011438535 0.00021514075 0.0002019596 0.010258795 0.019366525 0.021556797 -0.06329785 0.002177854
-0.030684495 0.031528775 -0.06801552 -0.0113933375 0.082997255 -0.018628284 -0.04191188 -0.06347385
-0.038299423 0.043129917 0.04973811 -0.024585634 -0.012256713 0.066781126 -0.0076867514 0.007359545
0.005270126 -0.084877096 0.07785861 0.06368779 -0.049978845 -0.063550144 -0.054835062 -0.047551394
0.011326836 -0.06487104 0.0030938513 -0.0608989 -0.07064529 -0.07247858 0.06280379 0.0484551
0.03188859 -0.029417241 0.042449072 -0.012277699 -0.0045791226 -0.07112089 -0.00061104976 -0.024773352
-0.012056197 0.00043388558 0.04908183 0.020644408 0.027338622 -0.040917955 0.07849514 -0.022637626
0.07687751 0.028209694 -0.05175553 0.02476444 -0.002465636 -0.066765025 0.016235003 -0.00047275258
-0.021810887 -0.006412952 -0.049790237 -0.032263048 -0.013811213 0.0105775045 0.0007936867 0.05207616
-0.021756353 -0.029031536 -0.031357102 -0.035734843 -0.075537436 0.013885604 -0.029335711 0.04010919
-0.013225189 0.036662236 -0.06432192 -0.011581551 -0.049043056 -0.040830735 -0.01407476 0.032229397
0.009193815 0.07168867 0.02023558 0.083475314 0.01976243 -0.056142192 0.087325655 0.011895428
0.022072233 0.027596526 0.02536038 -0.067210466 0.014519921 0.0702523 0.025559518 -0.0116444295
0.057634257 0.026831038 -0.0012341437 -0.054673612 0.0166268 0.044546254 0.0553741 -0.018386463
-0.0663747 -0.0064196154 -0.0037643053 0.046440177 -0.030979116 0.05680552 -0.0008097771 -0.047659818
-0.0024680214 -0.012165856 -0.05634142 -0.00031139693 -0.009399624 0.062946826 -0.029159946 -0.009355379
-0.0026672068 -0.013728536 0.0049739946 -0.065329835 0.034454547 -0.07649931 -0.04498302 -0.016875632
0.031443816 0.027762014 0.033541918 -0.002560841 0.02233767 0.029662522 -0.0055298614 -0.015044647
0.049151532 -0.057683885 -0.0077950284 -0.08007116 -0.007628929 0.075098716 0.0063087605 0.0075946515
-0.0035361 -0.01995533 -0.0030705754 0.047241274 -0.058424708 -0.014668666 0.0017969005 -0.009475962
-0.032209944 -0.04558885 -0.07780573 0.017974662 -0.089553565 0.004209587 -0.042045318 0.04165271
-0.0016650966 -0.0038812135 0.0033180013 0.0005877123 -0.021806413 0.014729368 0.033482548 0.055491198
00000000: 9205 1d3d 665c 03bd 17f4 8a3d d4e6 9a3d
00000010: cc95 a93b 485c 96bd 6ce4 863c 0b01 a1bd
00000020: a8dc 1dbd a5e6 46bd 302a d5bc f9d1 0bbd
00000030: e1c7 003b 0bc6 97bd e262 afbd 092f d83c
00000040: 11f4 53bc cb89 863c c4a4 a2bd 454d 633d
00000050: 262e f6bc 1816 dc3c 49ef 9cbd ea59 96bd
00000060: 16ab 253c 5984 d03c 8ece 99bc 4529 423c
00000070: fea2 9abd 0d98 ffbc aeca f3bc 451d b43d
00000080: 2b42 9dbd dee4 44bd 5214 61bc 4c15 56bd
00000090: 1c38 8a3d d873 87bd 4894 083d 9e49 a2bd
000000a0: b983 983c 7281 06bd 6e82 6d3c 6cde 843d
000000b0: 30fc ad38 6380 77bd f184 54bd d5ab febb
000000c0: c2f9 91ba d7b9 11bd 68fc 5a3d b9b3 52bd
000000d0: b4b3 8d3d f8af 95bd e75c 033c 1f69 093d
000000e0: 529a 5f3d aec1 b13c 7d48 2e3c bfbe 903d
000000f0: 350f 30bd e783 7d3d 2c30 89bd af21 643d
00000100: 6bfb c63c e16a 5fba 75f4 043c 77d3 333c
00000110: 58d4 403d 9118 0e3d b01f d83c b191 3ebd
00000120: d1f8 9d3d 79a6 46bc 7fa4 583c feb0 493d
00000130: 21b7 b7bc ca37 733d 1ca6 51bc e325 13b8
00000140: b168 3bbc 6897 6139 1ec5 5339 8114 283c
00000150: 8ca6 9e3c e197 b03c 4ea2 81bd 54ba 0e3b
00000160: 0d5e fbbc 5124 013d b94b 8bbd 1fab 3abc
00000170: 77fa a93d 589a 98bc cbab 2bbd 94fe 81bd
00000180: dbdf 1cbd ffa8 303d 30ba 4b3d d067 c9bc
00000190: 61d0 48bc 8bc4 883d 25e1 fbbb 5728 f13b
000001a0: 05b1 ac3b 0bd4 adbd 5674 9f3d be6e 823d
000001b0: 9eb6 4cbd 9426 82bd bb9a 60bd 40c5 42bd
000001c0: 3294 393c 1cdb 84bd 36c2 4a3b 2071 79bd
000001d0: 7aae 90bd a66f 94bd 469f 803d db78 463d
000001e0: 9c9d 023d 6dfc f0bc 14df 2d3d 6728 49bc
000001f0: 770c 96bb d4a7 91bd db2e 20ba 7cf1 cabc
00000200: 5b87 45bc 237b e339 070a 493d 761e a93c
00000210: 3ff5 df3c 9699 27bd 0fc2 a03d 8b72 b9bc
00000220: f571 9d3d 0418 e73c 9bfd 53bd cbde ca3c
00000230: 8296 21bb 1abc 88bd 45ff 843c c7db f7b9
00000240: bfac b2bc be23 d2bb d9f0 4bbd 4226 04bd
00000250: 6d48 62bc 454d 2d3c 6a0f 503a d04d 553d
00000260: 613a b2bc 8bd3 edbc 4e70 00bd b35e 12bd
00000270: 5fb3 9abd 7280 633c 7251 f0bc 8949 243d
00000280: 77ae 58bc 242b 163d 36bb 83bd 8cc0 3dbc
00000290: 5fe1 48bd 213e 27bd d299 66bc f902 043d
000002a0: a8a1 163c 82d1 923d 16c5 a53c 1bf5 aa3d
000002b0: d2e4 a13c 5bf5 65bd cbd7 b23d 0be5 423c
000002c0: d4d0 b43c 1c12 e23c 92c0 cf3c a4a5 89bd
000002d0: f6e4 6d3c 70e0 8f3d 3262 d13c 47c8 3ebc
000002e0: e611 6c3d c4cc db3c fec2 a1ba 70f1 5fbd
000002f0: ed34 883c 2276 363d f4cf 623d 359f 96bc
00000300: 75ef 87bd a35b d2bb 90b2 76bb 0e38 3e3d
00000310: eac7 fdbc e8ac 683d 3947 54ba f136 43bd
00000320: 87be 21bb 4c53 47bc 43c6 66bd fd42 a3b9
00000330: e100 1abc 44ea 803d d7e0 eebc 4e47 19bc
00000340: 4ecc 2ebb a7ed 60bc e4fc a23b a6cb 85bd
00000350: 3620 0d3d acab 9cbd 1d40 38bd c43e 8abc
00000360: 3bcb 003d 2a6d e33c 4063 093d c8d3 27bb
00000370: 7dfd b63c d1fe f23c d733 b5bb d37d 76bc
00000380: 1e53 493d f045 6cbd 706d ffbb 59fc a3bd
00000390: 18fc f9bb 5bcd 993d b8b9 ce3b 8edc f83b
000003a0: eabd 67bb 5c79 a3bc b53b 49bb 1180 413d
000003b0: bf4e 6fbd d854 70bc fa85 eb3a 1141 1bbc
000003c0: 93ee 03bd 60bb 3abd 9c58 9fbd 993f 933c
000003d0: dc67 b7bd 93f0 893b b637 2cbd 089c 2a3d
000003e0: 5f3f daba f55b 7ebb d372 593b b410 1a3a
000003f0: 5da3 b2bc 7253 713c ff24 093d bd4a 633d

policy_network.9.bias f4 [7]
0.009457292 0.005545614 0.0023017533 -0.0027941319 -0.0017216633 0.002390207 0.024085106
00000000: c2f2 1a3c fbb7 b53b 03d9 163b c11d 37bb
00000010: 6fa9 e1ba 05a5 1c3b 214e c53c

exp_avg f4 [128, 15]
3.0571657e-05 1.04858e-05 -1.8063376e-05 2.1392922e-05 1.30597e-05 -2.4956611e-05 -4.394507e-06 5.119284e-07
5.7810917e-07 -6.4054275e-06 -5.876819e-06 -3.126796e-07 5.8269528e-08 1.5049969e-07 -2.5370605e-08 -3.9020837e-05
-1.4200954e-05 2.008848e-05 -2.4784775e-05 -1.8787916e-05 3.3084183e-05 6.6702723e-06 -1.06882055e-07 1.4186966e-07
7.5990088e-06 9.116416e-06 9.5763234e-08 2.5830082e-07 -1.975006e-07 1.2818379e-07 -2.9622e-06 -5.593273e-07
1.4774889e-06 -2.1873952e-06 -1.5675216e-06 3.6393353e-06 6.4105467e-07 2.2778448e-07 -2.3819727e-07 8.1089684e-07
6.073139e-07 -1.3126824e-07 -7.294282e-08 -6.280161e-07 -3.442771e-08 0.0 0.0 0.0
0.0 0.0 0.0 0.0 0.0 0.0 0.0 0.0
0.0 0.0 0.0 0.0 0.00015819648 4.6013884e-05 -9.883809e-05 0.00012773421
7.296591e-05 -0.00014086622 -2.399303e-05 -2.1182235e-07 7.537362e-06 -3.4197255e-05 -3.226972e-05 -8.684026e-07
-6.764884e-08 6.8842576e-07 4.3201485e-08 0.0 0.0 0.0 0.0 0.0
0.0 0.0 0.0 0.0 0.0 0.0 0.0 0.0
0.0 0.0 -9.127566e-08 -2.0353028e-08 4.4261792e-08 -6.201077e-08 -3.5399253e-08 6.181364e-08
1.33345495e-08 -6.8999246e-09 -3.9458388e-09 1.8439414e-08 1.439434e-08 1.0711715e-09 -2.3395022e-10 2.6332687e-08
2.3455833e-08 0.0 0.0 0.0 0.0 0.0 0.0 0.0
0.0 0.0 0.0 0.0 0.0 0.0 0.0 0.0
0.0 0.0 0.0 0.0 0.0 0.0 0.0 0.0
0.0 0.0 0.0 0.0 0.0 0.0 0.0 0.0
0.0 0.0 0.0 0.0 0.0 0.0 0.0 0.0
0.0 0.0 0.0 0.0 0.0 0.0 -2.1206101e-06 -5.7786497e-07
1.1408792e-06 -1.4130211e-06 -8.8320076e-07 1.3326818e-06 2.6634345e-07 -1.2161269e-07 -7.486323e-08 3.6899104e-07
4.189335e-07 -4.4945603e-09 -1.4704409e-08 -1.5851995e-07 -2.3387775e-08 0.0 0.0 0.0
0.0 0.0 0.0 0.0 0.0 0.0 0.0 0.0
0.0 0.0 0.0 0.0 0.0 0.0 0.0 0.0
0.0 0.0 0.0 0.0 0.0 0.0 0.0 0.0
0.0 0.0 0.0 0.0 0.0 0.0 0.0 0.0
0.0 0.0 0.0 0.0 0.0 0.0 0.0 0.0
0.0 0.0 1.1703191e-05 4.8827897e-06 -5.097789e-06 5.7274565e-06 5.265064e-06 -7.3018828e-06
-1.9459746e-06 5.7810155e-07 -5.6392423e-07 -1.7739786e-06 -2.860352e-06 -5.917437e-08 -2.2545964e-07 -1.2929374e-07
-1.3252195e-07 0.0 0.0 0.0 0.0 0.0 0.0 0.0
0.0 0.0 0.0 0.0 0.0 0.0 0.0 0.0
-7.853464e-06 -3.2741382e-06 4.7944513e-06 -5.830399e-06 -3.6639397e-06 6.7677283e-06 1.2805318e-06 -1.5243448e-07
7.423621e-08 1.6128441e-06 1.674196e-06 2.8139033e-07 1.830805e-07 2.0666985e-30 2.85732e-18 8.794671e-06
00000000: 113a 0038 2bec 2f37 ce86 97b7 f374 b337
00000010: fc1a 5b37 ea59 d1b7 8774 93b6 746b 0935
00000020: 5c2f 1b35 34ee d6b6 7e31 c5b6 5bde a7b4
00000030: 0644 7a33 0a99 2134 8dee d9b2 4eaa 23b8
00000040: a240 6eb7 af83 a837 e6e8 cfb7 be9a 9db7
00000050: dfc3 0a38 34d1 df36 0887 e5b3 d654 1834
00000060: fdfa fe36 b5f2 1837 65a6 cd33 98ac 8a34
00000070: 8d10 54b4 e4a2 0934 35ca 46b6 ae24 16b5
00000080: 224e c635 2acb 12b6 a263 d2b5 4e3b 7436
00000090: f114 2c35 ec94 7434 2bc3 7fb4 68ac 5935
000000a0: 4b06 2335 bdf2 0cb4 bda4 9cb3 f094 28b5
000000b0: abdd 13b3 0000 0000 0000 0000 0000 0000
000000c0: 0000 0000 0000 0000 0000 0000 0000 0000
000000d0: 0000 0000 0000 0000 0000 0000 0000 0000
000000e0: 0000 0000 0000 0000 0000 0000 0000 0000
000000f0: 8be1 2539 08ff 4038 4c47 cfb8 64f0 0539
00000100: 4605 9938 7db5 13b9 a444 c9b7 4971 63b4
00000110: 72e9 fc36 066f 0fb8 5959 07b8 2c1c 69b5
00000120: 5846 91b3 42cc 3835 898c 3933 0000 0000
00000130: 0000 0000 0000 0000 0000 0000 0000 0000
00000140: 0000 0000 0000 0000 0000 0000 0000 0000
00000150: 0000 0000 0000 0000 0000 0000 0000 0000
00000160: 0000 0000 0000 0000 5303 c4b3 c8d4 aeb2
00000170: 5b1a 3e33 c82a 85b3 e409 18b3 68be 8433
00000180: f815 6532 6114 edb1 f793 87b1 b364 9e32
00000190: fa4a 7732 7f38 9330 919d 80af 3132 e232
000001a0: ec7b c932 0000 0000 0000 0000 0000 0000
000001b0: 0000 0000 0000 0000 0000 0000 0000 0000
000001c0: 0000 0000 0000 0000 0000 0000 0000 0000
000001d0: 0000 0000 0000 0000 0000 0000 0000 0000
000001e0: 0000 0000 0000 0000 0000 0000 0000 0000
000001f0: 0000 0000 0000 0000 0000 0000 0000 0000
00000200: 0000 0000 0000 0000 0000 0000 0000 0000
00000210: 0000 0000 0000 0000 0000 0000 0000 0000
00000220: 0000 0000 0000 0000 0000 0000 0000 0000
00000230: 0000 0000 0000 0000 0000 0000 0000 0000
00000240: 0000 0000 0000 0000 0000 0000 0000 0000
00000250: 0000 0000 0000 0000 ce4f 0eb6 941e 1bb5
00000260: 5020 9935 09a7 bdb5 1815 6db5 99de b235
00000270: f7fd 8e34 a494 02b4 7fc4 a0b3 be19 c634
00000280: c8e9 e034 926e 9ab1 ad9e 7cb2 a235 2ab4
00000290: 43e6 c8b2 0000 0000 0000 0000 0000 0000
000002a0: 0000 0000 0000 0000 0000 0000 0000 0000
000002b0: 0000 0000 0000 0000 0000 0000 0000 0000
000002c0: 0000 0000 0000 0000 0000 0000 0000 0000
000002d0: 0000 0000 0000 0000 0000 0000 0000 0000
000002e0: 0000 0000 0000 0000 0000 0000 0000 0000
000002f0: 0000 0000 0000 0000 0000 0000 0000 0000
00000300: 0000 0000 0000 0000 0000 0000 0000 0000
00000310: 0000 0000 0000 0000 0000 0000 0000 0000
00000320: 0000 0000 0000 0000 0000 0000 0000 0000
00000330: 0000 0000 0000 0000 0000 0000 0000 0000
00000340: 0000 0000 0000 0000 d358 4437 d8d6 a336
00000350: ad0d abb6 7a2e c036 8eaa b036 b202 f5b6
00000360: 9797 02b6 d62e 1b35 9460 17b5 7119 eeb5
00000370: 79f4 3fb6 e826 7eb3 e015 72b4 fed3 0ab4
00000380: 5b4b 0eb4 0000 0000 0000 0000 0000 0000
00000390: 0000 0000 0000 0000 0000 0000 0000 0000
000003a0: 0000 0000 0000 0000 0000 0000 0000 0000
000003b0: 0000 0000 0000 0000 0000 0000 0000 0000
000003c0: 5fc2 03b7 44b9 5bb6 06e0 a036 bfa2 c3b6
000003d0: 01e2 75b6 5816 e336 bdde ab35 dfac 23b4
000003e0: ca6b 9f33 e778 d835 f0b4 e035 fe11 9734
000003f0: c994 4434 a6ab 270e 40d5 5222 d38c 1337

exp_avg_sq f4 [128, 15]
2.0210344e-07 2.6275679e-08 8.536725e-08 1.2446628e-07 5.0900994e-08 2.0285026e-07 4.981854e-09 5.663851e-10
1.980256e-10 1.01966116e-08 1.00320845e-08 2.1065653e-11 1.6738489e-11 4.65353e-11 4.1460607e-12 7.6852466e-08
9.332845e-09 3.106319e-08 4.6268337e-08 1.8720332e-08 7.265991e-08 1.9050843e-09 1.830482e-10 8.353017e-11
3.735258e-09 3.760992e-09 7.6962525e-12 5.258533e-12 8.527014e-12 1.3689745e-12 1.7167135e-08 2.0343327e-09
6.876623e-09 1.0573246e-08 4.33719e-09 1.7436573e-08 4.620191e-10 5.688031e-11 2.1703929e-11 8.630602e-10
8.728154e-10 1.8027169e-12 1.5419683e-12 2.1166574e-11 8.8012063e-13 0.0 0.0 0.0
0.0 0.0 0.0 0.0 0.0 0.0 0.0 0.0
0.0 0.0 0.0 0.0 1.4493381e-07 1.5399847e-08 5.748227e-08 8.9090214e-08
3.2771386e-08 1.220159e-07 3.3219139e-09 3.7740347e-10 2.105209e-10 6.5776877e-09 6.828291e-09 8.995985e-12
8.924561e-12 2.347765e-11 5.2694077e-12 0.0 0.0 0.0 0.0 0.0
0.0 0.0 0.0 0.0 0.0 0.0 0.0 0.0
0.0 0.0 1.8665487e-09 2.408582e-10 7.6918216e-10 1.1173128e-09 4.7692383e-10 1.9087913e-09
4.699312e-11 5.1606206e-12 1.8198518e-12 9.554776e-11 9.2426254e-11 2.2812928e-13 1.3099346e-13 2.8722072e-12
1.0199327e-12 0.0 0.0 0.0 0.0 0.0 0.0 0.0
0.0 0.0 0.0 0.0 0.0 0.0 0.0 0.0
0.0 0.0 0.0 0.0 0.0 0.0 0.0 0.0
0.0 0.0 0.0 0.0 0.0 0.0 0.0 0.0
0.0 0.0 0.0 0.0 0.0 0.0 0.0 0.0
0.0 0.0 0.0 0.0 0.0 0.0 3.6599295e-09 4.6445095e-10
1.439812e-09 2.0267865e-09 8.404506e-10 2.9877536e-09 8.195692e-11 5.310769e-12 2.9510008e-12 1.6381635e-10
1.7027857e-10 2.867219e-13 2.0498403e-13 2.47006e-12 1.0221556e-12 0.0 0.0 0.0
0.0 0.0 0.0 0.0 0.0 0.0 0.0 0.0
0.0 0.0 0.0 0.0 0.0 0.0 0.0 0.0
0.0 0.0 0.0 0.0 0.0 0.0 0.0 0.0
0.0 0.0 0.0 0.0 0.0 0.0 0.0 0.0
0.0 0.0 0.0 0.0 0.0 0.0 0.0 0.0
0.0 0.0 1.2053799e-08 1.3125053e-09 4.7289e-09 7.3068795e-09 2.7982103e-09 1.0674721e-08
2.8959513e-10 3.3678102e-11 1.7372201e-11 5.6455013e-10 5.7360133e-10 1.0082209e-12 8.8048075e-13 5.7596046e-12
1.5592926e-12 0.0 0.0 0.0 0.0 0.0 0.0 0.0
0.0 0.0 0.0 0.0 0.0 0.0 0.0 0.0
8.320629e-09 1.126255e-09 3.6914456e-09 5.41961e-09 2.287575e-09 9.678512e-09 2.1425604e-10 3.5689687e-11
9.937158e-12 4.545879e-10 4.4150442e-10 1.3722992e-12 8.3827644e-13 2.2996906e-12 1.1879798e-12 1.7351958e-08
00000000: c501 5934 d4b4 e132 2453 b733 08a5 0534
00000010: 3c9e 5a33 0ecf 5934 da2c ab31 cfaf 1b30
00000020: 40bb 592f 2c2d 2f32 9359 2c32 a24b b92d
00000030: ba3b 932d 17aa 4c2e 65e0 912c 170a a533
00000040: 4956 2032 576a 0533 93b8 4633 72ce a032
00000050: 3509 9c33 99ea 0231 7d43 492f 4eaf b72e
00000060: ad57 8031 093a 8131 d764 072d a804 b92c
00000070: 4202 162d 81aa c02b ee76 9332 5ccc 0b31
00000080: 6a47 ec31 a1a5 3532 5406 9531 6ec7 9532
00000090: 68ff fd2f 8929 7a2e e7e8 be2d 763c 6d30
000000a0: ecea 6f30 b9b5 fd2b 4303 d92b e32e ba2d
000000b0: 60bb 772b 0000 0000 0000 0000 0000 0000
000000c0: 0000 0000 0000 0000 0000 0000 0000 0000
000000d0: 0000 0000 0000 0000 0000 0000 0000 0000
000000e0: 0000 0000 0000 0000 0000 0000 0000 0000
000000f0: 1a9f 1b34 9f48 8432 6de2 7633 dd51 bf33
00000100: 85c0 0c33 7a03 0334 ba47 6431 d17a cf2f
00000110: 5e78 672f f401 e231 489e ea31 5142 1e2d
00000120: a600 1d2d f882 ce2d 9b66 b92c 0000 0000
00000130: 0000 0000 0000 0000 0000 0000 0000 0000
00000140: 0000 0000 0000 0000 0000 0000 0000 0000
00000150: 0000 0000 0000 0000 0000 0000 0000 0000
00000160: 0000 0000 0000 0000 ac44 0031 c769 842f
00000170: 626e 5330 f38f 9930 8818 0330 d02b 0331
00000180: 8dad 4e2e bd92 b52c 890f 002c 9b1c d22e
00000190: 5b3f cb2e e56c 802a 4b7c 132a 161d 4a2c
000001a0: f38a 8f2b 0000 0000 0000 0000 0000 0000
000001b0: 0000 0000 0000 0000 0000 0000 0000 0000
000001c0: 0000 0000 0000 0000 0000 0000 0000 0000
000001d0: 0000 0000 0000 0000 0000 0000 0000 0000
000001e0: 0000 0000 0000 0000 0000 0000 0000 0000
000001f0: 0000 0000 0000 0000 0000 0000 0000 0000
00000200: 0000 0000 0000 0000 0000 0000 0000 0000
00000210: 0000 0000 0000 0000 0000 0000 0000 0000
00000220: 0000 0000 0000 0000 0000 0000 0000 0000
00000230: 0000 0000 0000 0000 0000 0000 0000 0000
00000240: 0000 0000 0000 0000 0000 0000 0000 0000
00000250: 0000 0000 0000 0000 2982 7b31 a955 ff2f
00000260: e2e2 c530 9b47 0b31 7405 6730 1e51 4d31
00000270: a539 b42e 28db ba2c 81a8 4f2c 341e 342f
00000280: 2839 3b2f fb68 a12a a0ca 662a a5d0 2d2c
00000290: 09db 8f2b 0000 0000 0000 0000 0000 0000
000002a0: 0000 0000 0000 0000 0000 0000 0000 0000
000002b0: 0000 0000 0000 0000 0000 0000 0000 0000
000002c0: 0000 0000 0000 0000 0000 0000 0000 0000
000002d0: 0000 0000 0000 0000 0000 0000 0000 0000
000002e0: 0000 0000 0000 0000 0000 0000 0000 0000
000002f0: 0000 0000 0000 0000 0000 0000 0000 0000
00000300: 0000 0000 0000 0000 0000 0000 0000 0000
00000310: 0000 0000 0000 0000 0000 0000 0000 0000
00000320: 0000 0000 0000 0000 0000 0000 0000 0000
00000330: 0000 0000 0000 0000 0000 0000 0000 0000
00000340: 0000 0000 0000 0000 2b15 4f32 ad63 b430
00000350: d87b a231 fe0f fb31 a34a 4031 eb63 3732
00000360: e434 9f2f 2c1e 142e b8ce 982d af2e 1b30
00000370: 9bab 1d30 fce4 8d2b 53d5 772b e8a5 ca2c
00000380: 7073 db2b 0000 0000 0000 0000 0000 0000
00000390: 0000 0000 0000 0000 0000 0000 0000 0000
000003a0: 0000 0000 0000 0000 0000 0000 0000 0000
000003b0: 0000 0000 0000 0000 0000 0000 0000 0000
000003c0: 83f2 0e32 93ca 9a30 99ac 7d31 6537 ba31
000003d0: 7233 1d31 8c46 2632 b793 6b2f 04f7 1c2e
000003e0: fbd0 2e2d 8fe9 f92f 39b8 f22f 4a22 c12b
000003f0: 2ff4 6b2b 8bd3 212c 7c31 a72b 5c0d 9532
