robot_state_berkeley_training/robot_state_epoch_2.pth (torch, 838027 bytes, 24 tensors)

policy_network.0.weight f4 [128, 15]
00000000: a4e7 7ebd 183f 2d3c 9587 563e e2c5 fc3d
00000010: dd0c bd3d 6a57 223c 623b 1b3e 495a e0bd
00000020: 689b c13d 5d9b 513e 0813 e8bd 62ef 1a3e
00000030: df7e 413e 47f7 2d3e d6b0 433e a828 c53d
00000040: e852 b13d 75b4 c3bd f25e 30be 9782 98bd
00000050: d888 0f3e 605c ce3d 6f36 35bd 56c9 5ebe
00000060: e35f cbbc 9dd0 edbd f89a c63d 89fb 38be
00000070: e557 663e e728 943d 3c2c 1bbc d4d7 b4bd
00000080: 51bc 54be 69e1 1e3d f86d 1dbd b5f6 133e
00000090: ad5c 3b3e 59cf 3d3e 61e9 663e 06b2 01be
000000a0: 50e3 803e 8fa6 833d 4efb edbd 6149 cf3d
000000b0: 9a3c d9bd 7dca 453e cc0a 05be 5d2d 54bd
000000c0: 5aa1 c3bd c978 04be 0089 41be c932 073c
000000d0: b085 383e ebc2 6f3e 31cb 73bd fa5c 7cbd
000000e0: ee07 123e 918d 85bd 91ce 903d 186a d1bb
000000f0: 5898 843d e8b5 9dbc d1e9 3f3e db09 6abe
00000100: 21c2 13bd c107 80be 63de c63d 4f8b e6bc
00000110: 07cd 36be b376 bd3d ea1f a1bd a4cf e93d
00000120: 45c8 4ebe 508d 7c3e 42ea 4b3e d1a6 803c
00000130: 92f1 983d 39bf 5e3c ef91 e7bd e76c 513d
00000140: 6273 a9bd aea0 44be 9f65 43be 3bb2 743e
00000150: c04a 58bc 76a9 16be eab8 de3d 64b4 6abe
00000160: 3592 80be bc4d 50be f02f e2bd 63d5 6a3e
00000170: 4008 153e 05f8 193e 5420 3dbe 7b24 263e
00000180: e497 0bbe 4123 80be 3198 c63d 56e0 2e3d
00000190: 2295 b2bd bbcd 833d fc24 58be 92f8 8f3c
000001a0: 926c bf3d c538 383d d0e5 bcbb d47f 58be
000001b0: a3d0 263e 4e20 493e ee7c 223e 7219 d33d
000001c0: 6091 613d 1bc9 c8bd 024e ee3d 050c b0bd
000001d0: 8f97 023d 7708 1ebe 5a29 1abe da2d 34be
000001e0: a627 2dbd 04c5 1c3e 1991 51be b983 ed3d
000001f0: dfc8 653e c179 64be 5fc3 283e 12a7 42be
00000200: 78ff 403e 569b 30be 21d9 bc3d c218 803e
00000210: ca1b 503d fc4d 14be b7da aebd 969f dcbd
00000220: f118 3bbe 73a1 5ebe 4300 823e e31a dcbd
00000230: c3ef e9bd d240 823e 89f1 273e 1344 783e
00000240: 293f 213e 6b25 cbbd 63e1 bb3d a06c 4d3e
00000250: 8465 243e e0c8 53be f51c 63be 7613 4b3c
00000260: e95d 12be 4ebb c0bd 8c20 41be d234 f9bd
00000270: 1435 32be 6bb7 d5bd e0ac 1bbe af27 e83c
00000280: 5902 60be 5e50 18be 2ce7 2a3e 1600 2f3e
00000290: a78b dabc 32c9 6b3e 8145 5b3d f0a8 0d3e
000002a0: 240b 233d ac02 c2bd b481 4fbe 9cba 66bb
000002b0: 1421 1dbe 43f4 72be 843a eb3d ab71 663c
000002c0: 6b03 803e 4399 363e 7497 04be c0ec 153e
000002d0: fc25 513e 3939 2bbe d905 6cbe d42a 4a3e
000002e0: 70fb 20be 4608 da3d 50ce 6fbe 5bed 78bd
000002f0: a62a 06b9 f82a 43be 43e2 2f3e b7d5 27bc
00000300: 0623 623e 2d9f 3d3e 2fcd 4bbd 6d4c 7f3e
00000310: 2e18 843d c179 4f3e e549 463e 08ac 083e
00000320: 50ad 2ebe e81d 2e3e 2cdd 81be 13c1 0ebe
00000330: 5b79 37be f8f2 07be ab27 6f3e 31cb 973b
00000340: 943a 67bd 3e2e 813e 1de8 76be 77da 78be
00000350: 78aa 6cbe 2f30 2abe 0424 1ebe 3554 cd3d
00000360: 593d a23d 4b6b 573e d5d1 8e3e 9cbf 80be
00000370: f70c 88be eb55 45be 52ec 683e fa3b c7bc
00000380: 6ebb a93d 0c31 7bbd ecb4 343e 443a 76be
00000390: fd6b 283e 2d14 513e 1abe 67bc 61e4 13be
000003a0: 2191 f3bd bf5d 45bd 6126 c93d 2ae4 e23d
000003b0: 6ed2 53be c2c9 44be 8aef b73d 95c8 07be
000003c0: 625d 67be e878 613e 3f30 593e dab6 963d
000003d0: 851b 353e 8ac5 3d3e bfb2 90bd ce53 7b3d
000003e0: 2647 523e f0a4 45be ae99 83bd 7404 953c
000003f0: 20c9 c3bc 4710 87be 516e 49be 7b7f 96bd
-0.06223263 0.010574125 0.20950158 0.12342431 0.09230969 0.009908536 0.15159371 -0.109547205
0.094534695 0.20469423 -0.11331755 0.1513038 0.18896054 0.1698886 0.19110426 0.09626895
0.08658391 -0.09555904 -0.17223719 -0.07446783 0.14017045 0.10076213 -0.044241365 -0.21756491
-0.024825996 -0.116120555 0.09697527 -0.18064703 0.22494467 0.07234364 -0.0094709955 -0.088302284
-0.20774962 0.038789187 -0.038434952 0.1444958 0.18297072 0.18536128 0.22549964 -0.12665567
0.25173426 0.06428253 -0.11620198 0.10121418 -0.10607262 0.19315524 -0.129924 -0.051801074
-0.0955226 -0.12936701 -0.18899918 0.008251854 0.18019748 0.23414199 -0.05951995 -0.061612107
0.14260837 -0.06521142 0.070706494 -0.006390821 0.0647437 -0.019251779 0.18741538 -0.22855322
-0.036073808 -0.25005916 0.09710386 -0.0281426 -0.17851649 0.09251156 -0.07867415 0.114165574
-0.20193584 0.24663281 0.19913581 0.015704544 0.07467951 0.013595396 -0.113071315 0.051129248
-0.08273961 -0.1920192 -0.19081734 0.23896115 -0.013201416 -0.14713082 0.10875113 -0.22920376
-0.25111547 -0.20342153 -0.110442996 0.22932963 0.14553928 0.15036018 -0.18469363 0.16224854
-0.1363216 -0.25026897 0.09696997 0.042694412 -0.08719851 0.06435724 -0.21107858 0.017574582
0.0934688 0.044976015 -0.0057647005 -0.21142513 0.16290526 0.1964123 0.1586797 0.10307588
0.05507028 -0.09803983 0.116359726 -0.085960425 0.03188282 -0.15432917 -0.15054837 -0.17595616
-0.04227414 0.1530953 -0.20465507 0.1159739 0.22439907 -0.2231207 0.16480778 -0.19009045
0.18847454 -0.17246756 0.092211016 0.2501889 0.05080775 -0.14482874 -0.0853781 -0.10772626
-0.18271233 -0.21741275 0.25390825 -0.10747316 -0.11422684 0.2544008 0.16400732 0.24244718
0.1574675 -0.09919246 0.091738485 0.20060968 0.1605435 -0.20682096 -0.22179015 0.012394777
-0.14293636 -0.094107255 -0.18860072 -0.12168278 -0.1740306 -0.10435375 -0.15202665 0.028339235
-0.21875896 -0.14874408 0.16689748 0.17089877 -0.02667792 0.23025969 0.05353308 0.13833976
0.039805546 -0.09473166 -0.20264322 -0.0035206443 -0.1534465 -0.23725991 0.1148577 0.0140651865
0.25002608 0.17831902 -0.129484 0.14641094 0.20424646 -0.16721047 -0.23049106 0.197429
-0.15720916 0.10646109 -0.23418546 -0.060773235 -0.00012795124 -0.1905936 0.17176156 -0.010243825
0.22083673 0.18517752 -0.049756225 0.24931498 0.064499244 0.20261289 0.19364126 0.13346875
-0.17058301 0.17003596 -0.25364053 -0.1394084 -0.17917387 -0.13276279 0.23354976 0.0046323766
-0.05645235 0.25230592 -0.24111982 -0.24302088 -0.23111904 -0.16619943 -0.15443426 0.10025827
0.079218574 0.21037023 0.27894464 -0.25146186 -0.2657239 -0.19271056 0.22746399 -0.024320591
0.082877025 -0.06132607 0.17647141 -0.24045664 0.16447444 0.20417853 -0.014144445 -0.14442588
-0.118929155 -0.048185106 0.09821773 0.11078675 -0.20685741 -0.1921759 0.08981235 -0.1326011
-0.22594216 0.22018778 0.2120981 0.07359095 0.17686279 0.18532386 -0.07065343 0.06135922
0.20534953 -0.193012 -0.064257964 0.0181906 -0.023899615 -0.26379606 -0.19670989 -0.07348534

policy_network.0.bias f4 [128]
00000000: 2990 73be 0f6f 2c3e a0e3 70bd 8638 953b
00000010: 6574 a83d d132 bcbd a0ce 2d3e 68df a53d
00000020: 7592 4c3e 27e6 1a3d 38bf aebd da87 cd3d
00000030: a246 353e cfa4 303e d4b4 48bd 0c4a 7e3e
00000040: 96ce 373e f860 26be 28b1 2c3c f3b8 dbbd
00000050: fce8 423e eb11 d9bd 9a37 39be ce85 38be
00000060: b45b 243e f040 13be 2836 c83d 1f40 62be
00000070: e411 30be a6ee 143d 33bc 513d 08b7 043e
00000080: 43b7 66be 4d30 cabc d41b 46be df4c 44be
00000090: 8765 32be 2aff a63d 2c1a 68be b215 943d
000000a0: 033b a53d 37df 18bc b1be 343d ae09 363e
000000b0: 927f 00bd 4f78 26be b11f 5ebd 9386 483c
000000c0: 155e 41be b084 08be b3a1 883d 8ebf 04be
000000d0: 8eee 30be b2c3 343e 3e7f 573d 6ab0 1c3e
000000e0: e528 9bbd ada8 1abe eef3 3d3e be98 ccbc
000000f0: 4459 33be f55b 63be 0b0b 85bd f1a6 153e
00000100: 42fa 2d3e a85a 333e 8816 493d 22e8 2d3e
00000110: a8f9 acbd c2df c9bd 7753 16be 9d94 efbc
00000120: 0353 07be efa9 723e 6c3f c5bd 2085 55be
00000130: 1ef8 07be c330 133e 979f 4dbe bf3f 8bbd
00000140: 51aa 6b3e 3d3c ffbd ec31 a43d 3acc 273e
00000150: 0b2b 64bd c93b 1d3d 11e4 49bd 29f1 e7bc
00000160: 09d6 323d 43b5 583e f22e 2fbe c2d0 823e
00000170: 3152 80be a1c2 c83c 361b aabd 479b d8bc
00000180: 5588 013e 3c44 683d 5a2e 0a3e b8ae 2fbe
00000190: 653f ca3c caa5 82be db51 683e 2dba 17bd
000001a0: a5ca 51be cd32 a33d 4198 51be 83d0 8a3d
000001b0: 486c 37be 53d7 633e 25f5 083e 4dc9 f3bd
000001c0: 6325 59be e761 7dbe b78e 743e 788f 94bc
000001d0: 82c3 643e 80d3 5dbd c61a adbd 4409 e13d
000001e0: 52d8 42be d81f 003d c983 0a3e 56c4 00be
000001f0: e3ef 453e 0c90 84bc 8662 08be a215 39be
-0.23785461 0.1683924 -0.05881083 0.0045538573 0.082253255 -0.0918938 0.16973352 0.08099252
0.19977744 0.037817147 -0.08532566 0.10035677 0.17702726 0.1725037 -0.049000576 0.24832934
0.179499 -0.16247928 0.010540284 -0.10728636 0.19034189 -0.10599121 -0.18087617 -0.18019792
0.16050607 -0.1438024 0.097759545 -0.22094773 -0.17194325 0.036360405 0.05120487 0.12960446
-0.22530846 -0.024681235 -0.19346553 -0.19169949 -0.17421542 0.081541374 -0.22666234 0.072307006
0.08067896 -0.009330562 0.04412717 0.1777713 -0.03137166 -0.16256832 -0.054229442 0.012239116
-0.18883546 -0.13331866 0.06671467 -0.12963697 -0.17278501 0.17652777 0.052611582 0.15301672
-0.075761594 -0.15103407 0.18550083 -0.024975177 -0.17514521 -0.22203048 -0.06496247 0.14614464
0.16989997 0.17515051 0.049093753 0.16983083 -0.08446056 -0.098571315 -0.14680277 -0.029245669
-0.1321526 0.23697637 -0.096312374 -0.20851564 -0.13278243 0.1437407 -0.2008041 -0.06799268
0.2301419 -0.124626614 0.08017334 0.163865 -0.05570511 0.038387094 -0.049289767 -0.028313236
0.04366115 0.21162896 -0.17107752 0.25549895 -0.25062707 0.024506869 -0.08305971 -0.02644123
0.12649663 0.0567057 0.13494244 -0.17156494 0.024688432 -0.25517112 0.22687475 -0.037042785
-0.20487459 0.07968674 -0.20468237 0.06778052 -0.179124 0.22250108 0.13374765 -0.119036295
-0.21205668 -0.24744378 0.23882566 -0.018134817 0.22340205 -0.05415678 -0.08452372 0.109880954
-0.19027832 0.03128037 0.13526835 -0.12574896 0.19329791 -0.016181968 -0.13318834 -0.18074659

policy_network.3.weight f4 [256, 128]
00000000: 2aa7 e3bc 87f6 33bd 28f9 5dbc 7f54 b0bd
00000010: d4ea bbbd 0920 943d 0010 b7bd f753 913d
00000020: 73f5 babc c7b7 f9bc 0fb3 b7bd 715b a1bd
00000030: 8d88 bf3a b094 80bd 870e 293d 59c0 953d
00000040: af85 593d 2634 a0bd 8797 513d 0480 0e3d
00000050: 3d39 0c3d 1ea5 a5bd bb91 8b3c 8429 9b3d
00000060: 492e b13c 3684 f9bc cc0f 8b3d 1166 2abd
00000070: 62a5 8ebc 6127 7abd 9254 cdbc 36d5 50bb
00000080: 9d94 853c 10fb 653d 5f1f 613d 5bb9 a4bd
00000090: bd90 13b9 5da9 eebc aae2 a43d 3971 69bd
000000a0: c4dd 09bd 6fec 643d fd9e 0bbd aba7 a5bd
000000b0: 5452 babc e4c2 643d 7a60 acbc 5f67 18bd
000000c0: 941d 8ebd 1a20 ba3c c969 7dbd f4c7 753c
000000d0: 1aa8 68bd 521f 6a3d 0149 8c3c a4bf 6dbc
000000e0: 8dd4 b4bd 5ac1 8fbd f5e7 2cbd 2d68 7fbd
000000f0: 69ad 5ebd 6e49 8c3c f1f6 5ebc a938 acba
00000100: 9702 343d 0568 3539 4b52 3d3d c04c 2d3d
00000110: 531f 89bd 5884 68bb 08fe 523d 489b 59bd
00000120: 38e0 e3bb 0cb5 343c 95bc a6bd 5671 b83c
00000130: 7f8f 33bd 2b93 88bc 5eb8 f73c 16e1 303d
00000140: 5705 52bd 0cf8 a6bd 09de b43c 1399 1abd
00000150: d2e4 0e3d e5d9 a73d 0a1e 623d 0654 f6bc
00000160: b6fb 163d 015e e1bc 80ae 24bc 2243 9dbd
00000170: d640 aabd 2b4b afbd 0468 8dbd 0e5c 513d
00000180: c974 743c 057c d03c 54c6 80bd 8649 a33c
00000190: 47d7 b1bd fccf 0b3d a761 66bd 7c65 5b3d
000001a0: f6c6 23bc ff91 8b3d 6fd8 583c d237 413d
000001b0: 7991 ea3c 953e 853d 2434 ee3b aced a23d
000001c0: 813d 0c3c 575b 61bc 3d30 023b 2520 28bd
000001d0: 92ed 1fbc 71b4 a9ba eb67 64bd 39fe 2dbb
000001e0: 184a 41bc 5518 47bd 8ec5 95bd d1f2 a1bd
000001f0: 7b97 983c 8722 7abd d32a f4bc 9d44 39bd
00000200: 0853 9bbd 1404 823d 7aae 383d cea3 98bd
00000210: d17f 873d acc5 edbc df88 023d 08f0 5f3d
00000220: 3f9d 453c cbf0 90bd 6357 39bd 2295 9dbd
00000230: f91a fa3c 5a53 813d 22f3 a53d 9211 1fbb
00000240: 5d30 41bc e959 2abd a62b 923d 127b 33bc
00000250: d976 c03b c1e6 89bd 2860 8e3c e7e2 34bd
00000260: a3ee 6f3d 1a5f 823c f1c5 29bd d638 7abd
00000270: 5b0b 0f3d ccd9 d9bc 5d97 83bc 993e 453d
00000280: e26b 1d3d deb6 893d c600 a43d 967a 9bbd
00000290: 1899 33bd e0bf 90bb 7629 6bbd 6236 02bd
000002a0: f9ae 7d3d 4d9c 10bd 2845 d439 7301 1bbd
000002b0: 0b59 54bd ce55 d2bc a038 a7bd 9d64 7d3d
000002c0: 23fb aa3d 5426 3dbd 3c31 71bd 8308 8bbd
000002d0: 83ea c3bc c4ef 503c ab53 503c 73ca 383d
000002e0: b0e2 f63b 640d 0bbc 7822 833b da76 94bd
000002f0: 37d3 9a3d 2a4a 083c 7eb1 8abd 8e53 dc3c
00000300: 8c07 4dbd 8f8a 8a3c 8c59 ea3c 8fde 9fbd
00000310: afeb 923b 3033 a43d 4d24 ac3d 2b2c 823d
00000320: cafe 4c3d b3c4 653d 6b23 90bc 50be 85bd
00000330: 608d 9e3d 583b 483d a939 c1bc efd1 5b3d
00000340: ccf1 483d 3156 263d 0bad 1e3d e5d5 753d
00000350: c850 b1bd 6077 7dbd 1293 15bb 41da 84bd
00000360: e9f2 fd3c 2e74 9b3d 7480 003d dbf0 3e3d
00000370: 2510 04bd ec7a 2b3d 017f 92bd 3367 17bd
00000380: a1d5 4c3d 2b6e 81bd a9cf 063d 9873 b8bd
00000390: 6856 96ba 8b85 7abd a88c 9bbd af46 8f3d
000003a0: 2fbe c1bd 9df0 303d b549 953d 5d21 64ba
000003b0: 86bd 8f3d c87f 1d3d 225a a03d 94f4 863d
000003c0: a3ad a6bd 70e6 e63c b72b 9cbc 14c1 f13c
000003d0: 997f 313d f8cd 97bd 82e2 173d dd12 51bd
000003e0: 72a1 5c3d 6c97 863d a204 95bd bb49 b4bd
000003f0: c97f 45bc 15c5 1c3c 16d7 a23d bfe1 7cbd
-0.027789671 -0.04393628 -0.013548173 -0.08609866 -0.09175649 0.07232673 -0.08938599 0.07096093
-0.022822117 -0.03048314 -0.089696996 -0.07878769 0.0014612839 -0.0627836 0.04127362 0.07312078
0.053106006 -0.078224465 0.0511699 0.034790054 0.034234274 -0.08088134 0.017037263 0.07576278
0.021628516 -0.03045855 0.067901224 -0.041601244 -0.017412845 -0.06107271 -0.02506474 -0.0031865365
0.016306216 0.056147635 0.05496156 -0.08043166 -0.00014072932 -0.029133493 0.08051045 -0.056992743
-0.033658758 0.055889543 -0.03408717 -0.08088621 -0.022744335 0.055849925 -0.021042097 -0.037207957
-0.06939235 0.022720385 -0.061868463 0.015001286 -0.05680094 0.057158776 0.017124655 -0.014511023
-0.08829603 -0.07019301 -0.0422134 -0.06235521 -0.054364596 0.017124858 -0.01360868 -0.0013139445
0.043947782 0.00017300255 0.04622106 0.042309523 -0.06695428 -0.0035479274 0.051511794 -0.053126603
-0.006954219 0.011029493 -0.08141438 0.02251498 -0.04383802 -0.016671738 0.03023928 0.04318341
-0.051274624 -0.0815278 0.02207853 -0.03774364 0.03488619 0.08195857 0.05520443 -0.030069362
0.036861144 -0.027510645 -0.01005137 -0.0767882 -0.08313148 -0.08559259 -0.06904605 0.05111318
0.014920422 0.025449762 -0.06287828 0.01993252 -0.08683639 0.034133896 -0.056245472 0.05356358
-0.009996166 0.06814956 0.013235196 0.047172375 0.02863382 0.06506077 0.0072693992 0.079554886
0.008559586 -0.013754687 0.0019865178 -0.04104628 -0.009761231 -0.0012947452 -0.055763166 -0.0026549234
-0.0117974505 -0.04860719 -0.07313071 -0.07907642 0.018626919 -0.061068084 -0.029805576 -0.04523145
-0.07584196 0.06348434 0.04508827 -0.07453118 0.06616176 -0.029024921 0.03186881 0.05467227
0.012061416 -0.070771776 -0.045249354 -0.076944605 0.03053044 0.06314726 0.081030145 -0.0024271947
-0.011791316 -0.04158965 0.071372315 -0.010954635 0.0058735427 -0.06733466 0.017379835 -0.044161703
0.05857719 0.015914489 -0.041448537 -0.06108936 0.03492294 -0.026593111 -0.016063387 0.0481554
0.038432963 0.06724332 0.0800796 -0.07591741 -0.043847173 -0.0044174045 -0.057412587 -0.031790145
0.061934445 -0.03530531 0.00040487316 -0.03784318 -0.05184273 -0.02567568 -0.08165097 0.06186353
0.08348682 -0.04617913 -0.058884844 -0.06788733 -0.023915535 0.012752477 0.0127152605 0.045114946
0.0075343475 -0.008487079 0.0040019117 -0.07249232 0.07559817 0.008318463 -0.06772135 0.02689531
-0.050056025 0.016911773 0.028607152 -0.078061216 0.004483662 0.08017576 0.08405361 0.063560806
0.050047673 0.05609579 -0.017595014 -0.0653044 0.07741809 0.04888472 -0.023587065 0.053667005
0.04905872 0.040609542 0.038739245 0.06001844 -0.08657986 -0.061881423 -0.0022823256 -0.06486941
0.030999618 0.07590519 0.031372502 0.046616416 -0.03224196 0.041865274 -0.0715313 -0.036963653
0.05000842 -0.06319841 0.032912884 -0.09006423 -0.0011469843 -0.061162513 -0.075951874 0.06995904
-0.09460103 0.043198217 0.07289449 -0.0008702481 0.070185706 0.03845194 0.078296915 0.06589618
-0.08138587 0.028186053 -0.019063814 0.029511012 0.043334577 -0.07412332 0.03708125 -0.05104338
0.053864904 0.0657185 -0.07276274 -0.088031255 -0.012054392 0.009568472 0.07951181 -0.061738726

policy_network.3.bias f4 [256]
00000000: da34 d7bc f96b 073d de92 a93d 151a 9fbd
00000010: 7d40 60bc bfc4 b7bd ffa7 b9bd 6306 a33d
00000020: b015 593d 7cef 92bd e39d 883d 5ebb ef3a
00000030: af6c 913c ba07 613d 7eff bc3d 7d65 063d
00000040: 5a6a 613d 688f 77bd 8f2c f53a da27 833d
00000050: a980 e4bc fe51 14bd 12ca a6bc a134 28bc
00000060: f5cd 47bd b8da 63bd b495 d4bc 1c12 0fbd
00000070: 01ac 73bd 0486 e73a ff95 c13c f4d8 2e3d
00000080: 8d59 8dbd 1669 b5bd e752 34bd c606 af3c
00000090: 7c20 8d3d e10f 903b ab3c 6f3d 9798 afbc
000000a0: 54e6 22bc 6dc8 a83d 1d12 aabd afe2 133d
000000b0: 4dc2 07bd 1f0c 8dbd d617 16bd 6066 2d3d
000000c0: f897 783d 87a5 edbc 3903 4a3d 6bae feba
000000d0: 0151 a53d 46dd 893d 00eb 493d 10bf a1bd
000000e0: 54de 82bd fe7d a83d ae9b b3bd 8756 5cbd
000000f0: 9ee5 0f3d 4482 3abc 04e7 97bd 18fb 8b3d
00000100: f09b 92bd 3c12 493c 0428 0dbd 3f7b acbd
00000110: 0a0e 833d bb79 253d 17be 5d3d bb5f d5bc
00000120: f020 003d b4ea 923d eb12 833d 7524 acbd
00000130: 83c9 06bd 1285 a9bc 4b20 983c fb4b 593d
00000140: bad1 c8bb 6cf1 023d e57b 8f3d 0cf9 513c
00000150: 164e c23c d542 97bb d6f2 48bd 1164 c9bd
00000160: a141 13bd b6f7 023d 11dd 52bd ee0a 86bd
00000170: 8ba5 3bbd 48cd 183d d7bc 013d 8ede 82bc
00000180: df6e 5bbc 60d4 08bc c402 35bc 34ce a8bc
00000190: 2a84 3fbd e05f 813d 934d 2bbd 47d0 8a3d
000001a0: cb81 983c c849 8e3d 3a9c 8ebd 199b f43c
000001b0: b1db 153d 295e 9c3d b983 3f3d 893e a23d
000001c0: c77b 9e3d 8dc0 8dbd 595b a6bd 2bcd 073c
000001d0: 958c 533d 8b62 403d f5f2 7a3d d937 bcbd
000001e0: b7d0 413c 49b4 933c a608 eb3c 8a28 c8bd
000001f0: cd11 6c3d 00ae bcbc 218b 36bd e45c 8bbd
00000200: fe4a 463d 5d1f 54bd 2241 d1bc 29e8 0dbc
00000210: a366 6fbd 6721 debc 48b4 5c3d c211 2ebd
00000220: b618 35bd 10cc 32bd ce94 aa3d 4f40 7abd
00000230: 1125 7f3d d75a ea3c 6d50 52bd d115 0c3c
00000240: 30a5 443d 5b59 7b3c 969b 77bc cbb5 2dbd
00000250: 7a6f a6bd 90da baba 2021 853d e1cd 9fbd
00000260: a10b 4f3d 1604 83bd d0e2 813d b2da 003d
00000270: 59d0 833d e614 4fbd 3922 9c3d 96a4 1f3d
00000280: ec59 5f3d 61d1 073d ac9d c8bb 58b1 8bbd
00000290: 56db 5ebd ef0c f0bc c54b 65bd e1e1 e6bc
000002a0: 95e0 4b3c 815b 9abd b7ef 503d d0a1 223d
000002b0: 1f12 583c 8fe8 893d 2e3a b5bd 56d9 393d
000002c0: 16d9 c03c 11b5 95bd 2ead 183d 73b6 bebd
000002d0: 5996 6e3c ed05 8cbd 3831 f439 75dc 84bd
000002e0: f342 523d 9f33 80bd 73be 8f3d c968 b1bd
000002f0: 3e4a 513d e465 623d 48fc 463c 2af3 1b3d
00000300: 31f5 203d d99f 8dbd 49ec 4dbd 3e9c e13c
00000310: c3f8 1bbd 5856 7fbd 64d0 883c f5a0 5d3d
00000320: 72f7 abbd fe4c 67bd 9f8d afbd aa4e 2a3d
00000330: efab 34bc 9756 d2bc 427f b6bd fea1 cf3b
00000340: 75c6 54bd 96a7 9abd 62d3 51bd 8e7d b1bd
00000350: 6afd 653d c4f4 893d 6bdd 2fbd 29bc c4bd
00000360: 4015 293a 5567 18bd 6bc1 44bd 518c b8bd
00000370: 573a 9abd 610d 493d c043 843d a5a9 2a3d
00000380: 7078 dcbc d0b6 bbbd c837 5c3d 18f3 ad3d
00000390: 8449 ca3c 39bc 6bbc 3442 89bd e0f2 463d
000003a0: e17e 253d 7446 bdbd 2e74 d8bc ad15 c2bd
000003b0: 2ab9 d33c a748 72bc 37db a73c c193 bebc
000003c0: 52e8 0dbc f92d cd3c b712 973d afad 843d
000003d0: fd99 64bc 961b 86bd dd5d 9c3d 1eab 9c3c
000003e0: 0560 853d 6c77 2a3d 454a e0bc 9080 8a3a
000003f0: f8c6 9a3d e02e 64bd ee42 203d aa3f 103a
-0.026270319 0.033061955 0.08279966 -0.07768647 -0.01368725 -0.08973073 -0.09065246 0.079602025
0.0529992 -0.07174584 0.066707395 0.0018290093 0.01775202 0.05493901 0.09228419 0.03281163
0.055033065 -0.060439497 0.0018705296 0.064040855 -0.027893381 -0.036211006 -0.020360027 -0.010266454
-0.0487804 -0.05562851 -0.02595029 -0.03492938 -0.059490208 0.0017663841 0.023631094 0.04268737
-0.06901846 -0.08857934 -0.044024374 0.021365535 0.068909615 0.004396424 0.058407467 -0.021435065
-0.00994261 0.08241353 -0.08304236 0.036104854 -0.033144284 -0.068870775 -0.036643825 0.04233396
0.060691804 -0.029009594 0.04931948 -0.0019430643 0.08072091 0.06731658 0.04929638 -0.078977704
-0.06390062 0.08227156 -0.08769928 -0.053793456 0.03513109 -0.011383597 -0.074171096 0.06835002
-0.07158649 0.012272414 -0.03446199 -0.08421945 0.06399162 0.040399294 0.054136362 -0.026046624
0.03128141 0.07173672 0.06400093 -0.08405391 -0.03290702 -0.020693336 0.018570086 0.053050976
-0.006128517 0.03196852 0.07006053 0.012815725 0.023718875 -0.0046161213 -0.04905971 -0.09833539
-0.03595126 0.031974517 -0.051480357 -0.065450534 -0.04581217 0.037305146 0.031674232 -0.015975263
-0.013393133 -0.008351415 -0.011048023 -0.020606138 -0.0467569 0.06317115 -0.041822027 0.06778007
0.018616578 0.069476664 -0.069633916 0.029859113 0.036586467 0.07635147 0.04675648 0.07922084
0.077384524 -0.06921492 -0.08122892 0.008288662 0.05164774 0.046968978 0.061266858 -0.091903396
0.011829547 0.018030303 0.028690647 -0.09773357 0.057634164 -0.023032188 -0.044566277 -0.06804827
0.048411362 -0.051787723 -0.025543753 -0.008661308 -0.05844749 -0.027115537 0.053882867 -0.042497404
-0.04421302 -0.04365164 0.083291635 -0.061096486 0.06229121 0.028607769 -0.05134623 0.008550123
0.048009098 0.015341128 -0.015112778 -0.0424097 -0.08126731 -0.001425581 0.06500459 -0.0780294
0.0505482 -0.06397264 0.06342089 0.031458564 0.064362235 -0.05055704 0.07623715 0.03897532
0.054529116 0.033158664 -0.0061223116 -0.06820935 -0.054408394 -0.029303042 -0.055980463 -0.02818388
0.012443681 -0.07536984 0.05100986 0.039705098 0.013187914 0.0673381 -0.088489875 0.045373283
0.023541015 -0.07309926 0.037274532 -0.09312143 0.014562213 -0.06837068 0.00046575977 -0.06487361
0.05133338 -0.06259846 0.07018747 -0.08662564 0.051096193 0.05527295 0.0121451095 0.038073696
0.039296333 -0.06915254 -0.050274167 0.027540322 -0.038079035 -0.062338203 0.01670093 0.05410858
-0.08396806 -0.05646991 -0.08571934 0.041578926 -0.01102732 -0.025676055 -0.08910991 0.0063364496
-0.051947076 -0.07551496 -0.05122698 -0.08666526 0.056149878 0.067361385 -0.04293577 -0.09606201
0.0006450005 -0.03720792 -0.04803602 -0.09011138 -0.07530659 0.049085025 0.06458235 0.041665692
-0.026912898 -0.09165728 0.053764135 0.08493632 0.024693258 -0.0143881375 -0.0670208 0.048571467
0.040404204 -0.092419535 -0.026422586 -0.094767906 0.025845129 -0.0147878295 0.020490272 -0.023263814
-0.0086613465 0.025046336 0.073766164 0.0647844 -0.013952729 -0.0654823 0.076350905 0.019124564
0.06512455 0.041617796 -0.027379164 0.0010566879 0.075574815 -0.055708766 0.03912633 0.0005502651

policy_network.6.weight f4 [128, 256]
00000000: 43df 46bc 2f17 39bd 98ed 673d 4c9b 753b
00000010: 3c3b 35bd 6402 f0bc 7c05 c53c 781c 353d
00000020: 9c56 72bd eb05 a43c 80fa 573d 0602 033b
00000030: 9632 1dbd ae4b 7e3d 705c e0bb 0834 c93c
00000040: 3f9d 20bc 8052 7f3b 7ee5 3f3d 90d9 c8bb
00000050: 766d 38bd 1c86 373d 1a7b 5cbd 177b 16bc
00000060: 0f71 a13c e0ce c0bb fe57 46bd ec8a 7d3d
00000070: 558e 04bd 08d8 203d 9490 48bd ce1e 36bd
00000080: 1c0e 8f3b 7c69 db3c 1440 c1bc 8465 ffbc
00000090: 4b98 07bd fae1 52bd f9f0 7fbd ca8c 73bd
000000a0: d164 aebc ec8d 88bc a88a 083d 267c e8bc
000000b0: acce b4bc b222 143d 4071 b73b d02b 3b3d
000000c0: de6b 4b3d 9a53 2fbd 68f5 b63c ba0d 6b3d
000000d0: b04f 80bc e81b 54bd 94a1 b33c 00e8 25bb
000000e0: d871 03bc 1059 1bbc 4c51 9bbc 1190 943c
000000f0: e871 65bd 71e1 0dbd b085 c4bc 702f e7bb
00000100: 04e6 313d 2d86 dfbc a895 bf3c e27d 423d
00000110: ec67 673d 57ac 1a3d 20ea e83c 80e9 9a3b
00000120: 38ef 593b 8065 babc 1f16 a13c 61c2 dbbc
00000130: bea7 bcbb 7de3 19bd 7c5a d0bb da0d 41bd
00000140: 10ba 80bb f74c 30bd 621e c73c 59af 87bb
00000150: 08a3 8d3c cb76 31bd 0e50 c53b a1cc 5d3d
00000160: 482c 523c de21 2fbd 7a1f 30bd 1e3e 54bd
00000170: 10dc 02bd 7647 58bd a0e2 4cbc 8294 1f3d
00000180: 87a1 13bd e852 dcbc fc30 cdbb 180f 373d
00000190: 4278 69bd 0a17 5fbd c544 dc3c debd 343c
000001a0: bb48 2b3b 9ab8 71bd f8e4 393d fe68 0abc
000001b0: 0899 41bd ecb2 3abc 601a 1dbb 980a ed3c
000001c0: 904f 7c3c 6097 053d c078 c4bc 662b 0f3d
000001d0: c0d8 073d 577d f8bc d8d0 c6bc 88c9 0cbd
000001e0: 5067 d53c 430d 09bd 220a 77bd 182b 903c
000001f0: 98ae d8bc aa8f f63c f050 c6ba de9b 3e3d
00000200: 1c57 ef3c 188a 2dbd 1b6e 73bd a050 b93c
00000210: c424 133c 5865 383c 12d8 f0bb 76e7 873b
00000220: 2662 3b3d 60fb 523d 101d 913c 726a 79bd
00000230: f05a ecbb 42e7 263d d0cc 973b 55a1 013d
00000240: e060 f3bb a248 4ebd 9ca5 3abd 2000 7c3c
00000250: 4c32 e93c 1034 bb3c 10d0 373c b0d1 77bc
00000260: ba96 7cbd 7e6c 27bd 989a b23c c4d4 043d
00000270: 58ea 14bd d7ed 44bd 9839 a6bc 33bf 85bd
00000280: 9ed2 23bd f242 cd3b 6494 f4bc 0072 783c
00000290: f6ac a23c de2c 0dbd 24ca 34bd acdb ff3c
000002a0: 404e 16bd 11a5 81bd 8db7 a3bc f11f 7b3c
000002b0: 9dd2 4abd f075 08bd a9d8 273d 3169 3d3d
000002c0: cbb5 09bd aeb0 65bd 2eb7 1dbd 6487 933c
000002d0: 6ba8 053d 03a1 56bd 2071 65bd 048c 0fbd
000002e0: e4e9 e1bc 60fd b2bb 442d 3d3d a0cb 98bc
000002f0: 5a03 163d 69ed 2cbd 30c7 ea3b 4e8a 5bbd
00000300: 9e27 5d3d 00db 483c 18ba fe3c 0cc6 22bd
00000310: b199 3b3c 6613 2abd 6b8f 86bc 70a4 b83b
00000320: b020 b23c 02fe 423d e875 5f3c 5a8f cebc
00000330: a6bf 653d f051 12bc a012 b83b 2804 a03c
00000340: 165b 6abd 141f 68bc 789a ccbc 5a7f 39bd
00000350: 702e 933c 884a 5ebd 8fac 90bc 982f 5c3d
00000360: 082a 223d f05c c5bb 0071 3bbd 205a 243c
00000370: acd2 6b3d 6097 803c c01e e6bb bd41 93bc
00000380: 1954 3a3b 7075 44bd 3892 49bd 7435 53bd
00000390: ce77 5f3d 18b3 61bd 6683 1ebd a8fe d03c
000003a0: 2f40 dd3c 8cfc d63c a0c1 7d3b 5231 44bc
000003b0: 6800 7abc 7085 813c c84d 0c3c 7a1f 1bbd
000003c0: 0889 1bbc b334 39bd daab 173d dcc7 a73c
000003d0: 0c48 e0bc fb50 1d3d a45a 45bd ef4a 003d
000003e0: c5f9 ef3c 3d0d 48bd 19d6 403d 846e 4bbd
000003f0: 5242 04bc 5aa9 473d 18eb 763c f0dd 053d
-0.012138191 -0.045188125 0.05662307 0.0037476597 -0.044245943 -0.029298015 0.024050467 0.044216603
-0.05916463 0.020022353 0.05272913 0.001999022 -0.03837832 0.062083893 -0.006846957 0.024560943
-0.009803115 0.0038959086 0.04684972 -0.006129451 -0.045026265 0.04480563 -0.053828336 -0.00918462
0.01970723 -0.0058840364 -0.04842376 0.061900064 -0.0323623 0.039268523 -0.048966005 -0.04446297
0.0043656956 0.026783697 -0.023590125 -0.031176336 -0.033104222 -0.05148504 -0.06248567 -0.05946044
-0.021288307 -0.016669236 0.033335358 -0.028379511 -0.022071205 0.0361659 0.0055982172 0.04569608
0.049663417 -0.042804338 0.022333816 0.057386138 -0.015662998 -0.051784426 0.021927632 -0.0025315285
-0.008022748 -0.009481683 -0.018959664 0.018135102 -0.056016833 -0.034638826 -0.023989528 -0.0070552155
0.04343225 -0.02728566 0.023386791 0.047483332 0.056495592 0.037762012 0.028431952 0.0047275424
0.0033254158 -0.022753477 0.019663868 -0.026826086 -0.005757301 -0.037570465 -0.006358443 -0.04713235
-0.0039284304 -0.04304215 0.02430648 -0.004140776 0.017289653 -0.04332618 0.006021506 0.054150227
0.01282794 -0.042756908 -0.04299877 -0.051817052 -0.03194815 -0.052802525 -0.0125052035 0.038959987
-0.036042716 -0.026895002 -0.006261943 0.04469213 -0.056999452 -0.05446533 0.02688826 0.011031596
0.002613588 -0.05901394 0.045384377 -0.008447884 -0.047265083 -0.011395197 -0.002397202 0.028935716
0.015399829 0.032615066 -0.02398336 0.034953497 0.033165693 -0.030333204 -0.024269506 -0.034371883
0.02605024 -0.033459913 -0.060312398 0.017598674 -0.02645044 0.030097801 -0.0015130322 0.046535365
0.029216342 -0.042368025 -0.059431177 0.022621453 0.008980934 0.011254631 -0.0073499763 0.0041474653
0.0457479 0.05150926 0.017714053 -0.06089253 -0.007212989 0.04074789 0.00463257 0.031648
-0.00742732 -0.050362237 -0.045568094 0.015380889 0.028466366 0.022851974 0.01121904 -0.015125677
-0.06166718 -0.04087495 0.021802232 0.03242947 -0.0363563 -0.048078384 -0.020291135 -0.06530609
-0.039995782 0.006264084 -0.029855914 0.0151638985 0.019857865 -0.034466617 -0.04413809 0.031232677
-0.03669572 -0.06330312 -0.019984985 0.01532744 -0.049517263 -0.0333156 0.040978108 0.046242896
-0.033620637 -0.056076698 -0.038504772 0.018008895 0.03263132 -0.052399646 -0.056016088 -0.03504564
-0.027577348 -0.0054623336 0.046185747 -0.018651783 0.03662429 -0.0422186 0.0071648583 -0.053598695
0.05399286 0.012259245 0.031094596 -0.039739653 0.011450217 -0.041522406 -0.016425809 0.005634837
0.021744102 0.047605522 0.013638951 -0.02521484 0.056090973 -0.008930668 0.0056174546 0.019533232
-0.057215773 -0.014167566 -0.024976 -0.045287468 0.017966479 -0.054270297 -0.017660407 0.053756326
0.039590865 -0.006023042 -0.045762062 0.010031253 0.05757396 0.015697181 -0.0070227087 -0.017975682
0.0028431474 -0.04796356 -0.04921171 -0.05156465 0.054557614 -0.055102438 -0.03869953 0.025512055
0.027008144 0.02624347 0.0038720146 -0.0119746495 -0.015258886 0.015810698 0.008563466 -0.037871815
-0.00949312 -0.045216274 0.037029125 0.020481043 -0.027378105 0.038407307 -0.048182145 0.031321462
0.029293904 -0.04884075 0.04707918 -0.049665943 -0.008072453 0.04874549 0.015070699 0.03268236

policy_network.6.bias f4 [128]
00000000: 2490 04bd 3152 86bd 8a29 6cbb fdda 90bc
00000010: 0006 123d 5c15 83bd 76a8 4cbd d90e 313d
00000020: 829d 313c 3b6d dbbb bce5 1c3d ae44 443d
00000030: 59d0 11bd b61b 8ebc bed1 433d b340 31bd
00000040: ee6a b13c c48b 7cbd e60e 02bd 2c7d 55bd
00000050: 4545 a9bc e265 fbbc b204 69bd 75fb 9cbc
00000060: cec8 403d aaff 233d 815e 54bd 80ff f23c
00000070: 5f43 20bd cdc2 513c 0440 403d 1189 78bd
00000080: 4f0c 2dbd d136 203d 5427 79bd ca8e 173d
00000090: b9a4 5fbd 544f 433d c123 e53c 1503 61bd
000000a0: 32bb 063d 61eb 09bc 29c9 8fbd 0f85 243b
000000b0: 9752 e8bb eb0c 25bd 9c97 4bbd e687 cdbb
000000c0: 8174 e3bc 1861 15bd 86f2 80bd 5b0d 443c
000000d0: fdf5 61bc 5c08 22bd ab7a 083b bb50 3a3d
000000e0: bf78 023d c426 f13c 4b0d 95bb daf6 043d
000000f0: 4a4f a8bc 0e06 0e3d 46fd 55bd 50de 84bd
00000100: 2c1f 4cbd 5750 283c d492 fcbc 3862 79bd
00000110: c3bf 10bd fd66 58bd 3954 e7bc 7530 273c
00000120: 5d0e 0b3d f76d 5c3d 5b70 4d3b 2e7f 8bbd
00000130: 3f66 73bb cb68 7dbd 2869 443d 31bd ab3c
00000140: 69e4 b6bc 0c47 fdbb c9d5 773b a906 51bd
00000150: b621 783c 6852 1cbd a127 b0bc cd29 033d
00000160: efb5 11bc c8ff ddbc 36e0 13bc 7077 bc3c
00000170: d507 463c e2d7 813c 52ae ca3c a24e 67bc
00000180: 5a0c 1cbd 155f 03bd 9d9e 90bc c3f2 1bbd
00000190: 07b9 b9bc 1ac3 80bd 06c5 703d df6b 5d3d
000001a0: 42d9 8cbd 0f2f 433d 2afd 2c3d 0eee 033d
000001b0: ae53 203c 81d8 8cbc da18 42bd 8637 93bd
000001c0: 0b69 27bd 305f 303c 2db8 953c df1a 22bd
000001d0: 9443 d7bc 17cc 2abc 5f96 4d3d 464e 39bd
000001e0: 47f7 46bc 1e86 1a3d 47e8 f1bc 5f7b 3b3d
000001f0: c38f 8abc 9251 773c d202 3a3d 3482 483d
-0.032364026 -0.065586455 -0.0036035501 -0.017682547 0.035650253 -0.06400558 -0.049965344 0.04322705
0.010840775 -0.006696371 0.03830503 0.04791706 -0.035599086 -0.017347198 0.047807448 -0.043274593
0.021657433 -0.06165673 -0.03175249 -0.052121326 -0.020662913 -0.03068823 -0.056889243 -0.019162873
0.047066502 0.040038742 -0.05184794 0.029662848 -0.03912675 0.012802792 0.04693605 -0.06067759
-0.042248067 0.039114777 -0.06082852 0.03700141 -0.05460045 0.047683075 0.02797115 -0.05493458
0.032893367 -0.008417935 -0.0702079 0.0025103723 -0.0070899236 -0.040295523 -0.049705133 -0.006272304
-0.027765514 -0.03646955 -0.06296258 0.011966075 -0.013791558 -0.039558753 0.002082507 0.045487147
0.031853434 0.02943743 -0.004548704 0.03246198 -0.02054562 0.034673743 -0.052243493 -0.06487715
-0.049834415 0.010273061 -0.030831732 -0.060884684 -0.03533913 -0.052832592 -0.028238403 0.010204424
0.033949245 0.05381581 0.0031347487 -0.06811367 -0.00371398 -0.061867516 0.047951847 0.020964237
-0.022325711 -0.0077294167 0.0037816635 -0.051031742 0.015144756 -0.038164526 -0.021503272 0.032022286
-0.008893474 -0.027099505 -0.009025624 0.023006171 0.012086828 0.015850011 0.024741326 -0.014117869
-0.038097717 -0.0320731 -0.017653758 -0.038073312 -0.022671236 -0.06287213 0.058781646 0.054057952
-0.06877376 0.0476523 0.042233624 0.03220945 0.009785576 -0.01719308 -0.04738698 -0.07188325
-0.04087166 0.010764882 0.018276298 -0.039576408 -0.026277341 -0.010424635 0.050192233 -0.045240663
-0.012143916 0.03772556 -0.029529704 0.045771953 -0.016914254 0.0150951315 0.045412846 0.048952296

policy_network.9.weight f4 [7, 128]
00000000: 48cd d53c f604 febc 39b9 973d 9ebb 9a3d
00000010: 82e3 7abc 55a4 8ebd 7cac 873c 66c7 75bd
00000020: 5c72 20bd 9597 39bd 39f4 d5bc 390a 92bd
00000030: f0de 7a3b 9168 99bd a9e6 b9bd 7d5f ea3c
00000040: cca1 1bbc 85c2 863c 3953 abbd 4899 553d
00000050: 5863 74bc 2eb0 9d3d 49ef 9cbd 624b 96bd
00000060: ccb9 483d a2e3 cf3c 3f4f 693d 20f6 22bc
00000070: 87a1 9abd 87b9 08bd 686f 1abc aeea aa3d
00000080: 9a44 9dbd fecd adbc 58c1 60bc 6eca 74bd
00000090: 083b 8a3d 6d2f 9abd fca9 043d 8379 a2bd
000000a0: 95ad 2b3c 9239 06bd 1f04 f138 bf69 853d
000000b0: aba8 8939 2d91 79bd 749d 61bd 3204 fbbb
000000c0: 1945 153d bf80 1fbd 68fc 5a3d 0413 5fbd
000000d0: 7875 e4bb 5607 9cbd 96f6 033c 3d5f 613d
000000e0: d637 613d d7fc 793d 0e62 1b3c 0d4d 923d
000000f0: 7dd3 52bd 8ddb 833d 5c06 89bd 95b7 633d
00000100: 6bfb c63c 6d81 0ebd 5e5b a9bc 7aa7 333c
00000110: 06f8 263d 1bee 0d3d 0a2a e33c 3933 41bd
00000120: 2cc6 553d 6464 c3bb ef17 133c 669d 493d
00000130: ef1b 863c 5c64 733d e95d 91bd 8e12 e3bb
00000140: 6e2c 58bc 4e7e 0539 576b febc 67f3 2c3c
00000150: f2e1 a63c b3a8 a33c 162b 73bd b2cf 0e3d
00000160: 8f32 063c 1a67 013d 359c 29bd fe27 53bc
00000170: 25aa 9f3d 152b d0bc 93df 24bd dd22 89bd
00000180: 7f6d 34bd 72ca 403d cc51 483d e779 c9bc
00000190: 397b 4abc 10c6 883d 97b2 35bd 19ab bfbc
000001a0: d7ea b03b ceaf 11bd 25d3 483d 3ed5 813d
000001b0: 4a5d 47bd 3880 82bd 6f98 cdbb 364e 43bd
000001c0: de80 9d3d c078 86bd 24c0 733b bab6 79bd
000001d0: 6621 93bd 8b58 94bd e70d 8b3d 9cf7 e9bb
000001e0: 1e32 f73c 49e7 8ebd 735a 2e3d cbad e8bc
000001f0: aba6 94bb dcec 9dbd 3f1f a73d 4072 19bd
00000200: cd8c 75bd 2bc6 c439 636e 4b3d 2698 aa3c
00000210: 267f 513d 6a2b 1fbd 6cd9 a03d 24dd 90bd
00000220: 09ab a23d 113e 063d 6870 5abd be31 543d
00000230: 0d52 beba 426f 86bd aa99 9e3c 2122 4039
00000240: 26ee 47bd 701d d2bb d3b2 70bd 49ba 10bd
00000250: 9417 67bc 6fce 533d 6a0e 503a b77c 553d
00000260: 40a0 413a 9616 f0bc 4847 21bd 57f6 79bd
00000270: 99fd 9abd 1813 823c 1962 043d 4b12 283d
00000280: fa5e 58bc b1fd 623d 22ac 83bd b27c 8bbc
00000290: e9e0 48bd 33d7 37bd b69b 51bc 13f0 033d
000002a0: b24b 8fbc 8a03 933d 06a6 cd3c 2734 ab3d
000002b0: 313f a53c a2aa 83bd 45fb b53d 9d3f 413c
000002c0: 43fd 0e3d 7058 e53c 92c0 cf3c c49b 90bd
000002d0: e9fd f9bc f2f4 b23d 95bb d43c 58e1 49bd
000002e0: 31ca 6e3d 3d59 203d 9a9c c2ba 2553 63bd
000002f0: f383 cf3c 14df 343d 0270 633d fde6 95bc
00000300: 75ef 87bd ee55 833c baac bb3c cf3e 3e3d
00000310: 00b2 1ebd de65 6b3d f565 0b3b 29f9 43bd
00000320: 7556 7d3c a804 963c c03f 80bd b82e bab9
00000330: 0e40 243d 99f0 803d 92af 44bd 609f 973c
00000340: 9555 6bbb 21a7 60bc 16bd 0d3c 9fde 85bd
00000350: dbb9 2f3d b939 a0bd ed3d 3dbd 9fcc 6abc
00000360: 607b 4d3c c273 e23c 533d 843d a473 19bb
00000370: 362b 053d 1c0b 293d 15c4 e8bb 0eeb 96bc
00000380: f818 5c3d cc5d 6dbd afdd ffbb 82f9 a3bd
00000390: 35d1 f7bb 32ce 993d 6867 223d 6a0e 163d
000003a0: cb82 6cbb 701d 8f3c a2d3 79bd 60ba 4b3d
000003b0: 97f5 73bd 761c 91bc feb4 773d 7596 19bc
000003c0: b135 123d 3d66 3cbd 5376 a3bd f950 933c
000003d0: a3cf b6bd c55c b73a 4983 56bd 450e 6e3d
000003e0: a9a8 ca3c 8431 22bb 0204 623b 9a42 d53c
000003f0: 6af7 b2bc 6a16 773c 2c47 9b3c d36d 843d
0.026098862 -0.031008225 0.07408375 0.075553164 -0.015313031 -0.069649376 0.01656174 -0.060004614
-0.03917156 -0.045310576 -0.026117431 -0.07130856 0.0038279854 -0.074906476 -0.09077198 0.028609985
-0.009499025 0.016450176 -0.08365483 0.052148134 -0.0149162635 0.07699619 -0.076628275 -0.07338597
0.049005315 0.025377098 0.05696034 -0.009946376 -0.0755034 -0.033380058 -0.009425975 0.08345543
-0.076791 -0.021216389 -0.013717972 -0.059763364 0.067495406 -0.07528577 0.032388672 -0.07933333
0.010478397 -0.032769747 0.00011492543 0.0651431 0.00026256344 -0.060929466 -0.0550818 -0.007660412
0.03644285 -0.03894114 0.05346337 -0.054461494 -0.006972011 -0.07618587 0.008054396 0.055022467
0.05498489 0.061032142 0.009483827 0.071436025 -0.051471222 0.0643836 -0.06690666 0.055595
0.024289807 -0.0347914 -0.02067345 0.0109652225 0.040763877 0.034650903 0.027730007 -0.04716799
0.052190945 -0.005962895 0.008977874 0.049222372 0.016370742 0.059421882 -0.0709799 -0.006929702
-0.013194187 0.0001273092 -0.031057043 0.0105560785 0.020371411 0.019977903 -0.05936726 0.034866042
0.008190765 0.031592466 -0.041408736 -0.012887953 0.07796124 -0.025411168 -0.04025228 -0.06696103
-0.044049736 0.047068067 0.048906133 -0.02459426 -0.01235848 0.066784024 -0.04435977 -0.023397015
0.005399089 -0.03556805 0.049029488 0.06339501 -0.04867295 -0.06372112 -0.006274275 -0.04768201
0.07690595 -0.06566 0.0037193382 -0.060965277 -0.071841046 -0.07243451 0.06789761 -0.007140113
0.030175265 -0.06977708 0.042566728 -0.028403183 -0.00453647 -0.07711193 0.081602566 -0.037462473
-0.05994873 0.0003753168 0.04966582 0.020824503 0.05114665 -0.038859762 0.0785397 -0.07073429
0.079427786 0.032774035 -0.053329855 0.05180525 -0.0014520303 -0.065641895 0.019360382 0.00018323261
-0.0488111 -0.0064122006 -0.05876429 -0.035333905 -0.014104743 0.051710542 0.0007936718 0.05212089
0.0007386245 -0.029307645 -0.03937462 -0.061025944 -0.07567901 0.015878245 0.032320116 0.04103307
-0.013206238 0.05541772 -0.06429316 -0.017027233 -0.049042616 -0.044882964 -0.012793472 0.032211374
-0.017492149 0.071784094 0.02510358 0.08359557 0.020171734 -0.0642903 0.088858165 0.011794952
0.034909498 0.027996272 0.02536038 -0.0706096 -0.030516582 0.08738126 0.025968352 -0.04928717
0.058298294 0.039147604 -0.0014847696 -0.055499215 0.025331473 0.044158056 0.05552674 -0.01829862
-0.0663747 0.016032185 0.02290951 0.046446618 -0.038743973 0.057470195 0.0021270488 -0.04784504
0.0154625075 0.018312767 -0.06262159 -0.00035511493 0.04010015 0.0629589 -0.048019 0.018508613
-0.0035909165 -0.013711722 0.008651039 -0.06536602 0.042901855 -0.0782351 -0.046201635 -0.014331012
0.012541622 0.027643088 0.06457009 -0.0023414874 0.032511912 0.04127036 -0.007103453 -0.01842263
0.05373475 -0.05795078 -0.007808409 -0.08006574 -0.007562781 0.07510032 0.039649397 0.03663484
-0.00360887 0.017470092 -0.060992844 0.049738288 -0.059560385 -0.017713767 0.060475342 -0.009374251
0.035695735 -0.04599594 -0.07981553 0.017982947 -0.08926322 0.001398944 -0.052371297 0.058119077
0.024738627 -0.0024748752 0.0034487252 0.026032735 -0.021846492 0.0150810275 0.018954836 0.0646626

policy_network.9.bias f4 [7]
00000000: d714 603c 864e f4bb 0333 dcbc 9157 583b
00000010: 0e53 2bbc 7219 823c 33e3 493d
0.013676844 -0.00745565 -0.026879793 0.0033011178 -0.0104568135 0.015881274 0.04928894

exp_avg f4 [128, 15]
00000000: b2b9 4cb8 4da5 5ab7 05b6 e337 4129 1ab8
00000010: 3e76 c8b7 ef5e 4538 31e6 1237 bbc5 2b35
00000020: f86d 02b6 9482 3d37 0702 2437 7794 d9b4
00000030: d4dd 9934 5c25 86b6 d11f 0eb6 1b47 83b7
00000040: b7fd 90b6 9b60 f336 b32b 15b7 08d4 a9b6
00000050: d3fc cb36 47bc 1536 a7c0 bdb5 b0b2 06b4
00000060: f7ff 1636 8ae6 3b36 be74 ae34 24c5 d433
00000070: fdef b0b4 ec1a 40b5 9517 ebb4 7a0f 9035
00000080: af50 c0b5 203c 7735 c007 4535 e4a6 6eb6
00000090: 1e11 ef33 9a15 55b5 443d f4b1 855b e9b4
000000a0: 9a95 48b4 1b90 8733 685c eb33 79c5 58b5
000000b0: 60c2 82b1 0000 0000 0000 0000 0000 0000
000000c0: 0000 0000 0000 0000 0000 0000 0000 0000
000000d0: 0000 0000 0000 0000 0000 0000 0000 0000
000000e0: 0000 0000 0000 0000 0000 0000 0000 0000
000000f0: 9f2b b2b8 c7e7 dbb7 ef5f 5e38 ca44 90b8
00000100: d7c7 41b8 ff48 c838 b23f 7837 eb76 ac36
00000110: b00f 84b6 5116 ae37 740e a237 c3b8 c1b5
00000120: 085f 35b3 26ae 45b6 f764 33b6 0000 0000
00000130: 0000 0000 0000 0000 0000 0000 0000 0000
00000140: 0000 0000 0000 0000 0000 0000 0000 0000
00000150: 0000 0000 0000 0000 0000 0000 0000 0000
00000160: 0000 0000 0000 0000 0839 fab7 9422 39b7
00000170: 2686 a337 2a95 bab7 23fb 6fb7 6720 f437
00000180: bd49 8d36 d7bf 6835 67b8 6ab5 58e7 e136
00000190: 832e d636 d49b 4cb4 ef62 adb4 1a3b 2335
000001a0: 062f 05b4 0000 0000 0000 0000 0000 0000
000001b0: 0000 0000 0000 0000 0000 0000 0000 0000
000001c0: 0000 0000 0000 0000 0000 0000 0000 0000
000001d0: 0000 0000 0000 0000 0000 0000 0000 0000
000001e0: 0000 0000 0000 0000 0000 0000 0000 0000
000001f0: 0000 0000 0000 0000 0000 0000 0000 0000
00000200: 0000 0000 0000 0000 0000 0000 0000 0000
00000210: 0000 0000 0000 0000 0000 0000 0000 0000
00000220: 0000 0000 0000 0000 0000 0000 0000 0000
00000230: 0000 0000 0000 0000 0000 0000 0000 0000
00000240: 0000 0000 0000 0000 0000 0000 0000 0000
00000250: 0000 0000 0000 0000 1f96 adb7 9d11 fbb6
00000260: cab1 5937 712a 87b7 073c 3eb7 97b3 ca37
00000270: a293 8036 a8f5 cb35 76ff 17b5 2902 ac36
00000280: e880 a336 2f9e a1b4 c2e8 9cb3 0ac5 c734
00000290: 64b0 7734 0000 0000 0000 0000 0000 0000
000002a0: 0000 0000 0000 0000 0000 0000 0000 0000
000002b0: 0000 0000 0000 0000 0000 0000 0000 0000
000002c0: 0000 0000 0000 0000 0000 0000 0000 0000
000002d0: 0000 0000 0000 0000 0000 0000 0000 0000
000002e0: 0000 0000 0000 0000 0000 0000 0000 0000
000002f0: 0000 0000 0000 0000 0000 0000 0000 0000
00000300: 0000 0000 0000 0000 0000 0000 0000 0000
00000310: 0000 0000 0000 0000 0000 0000 0000 0000
00000320: 0000 0000 0000 0000 0000 0000 0000 0000
00000330: 0000 0000 0000 0000 0000 0000 0000 0000
00000340: 0000 0000 0000 0000 6895 72b6 acf7 5eb5
00000350: fdec e735 5acc 39b6 dd4c 08b6 0916 ab36
00000360: bee8 7235 c190 0335 dbb2 66b4 f9e2 8835
00000370: c6d6 7135 a76e a1b3 fd66 81b3 8494 f933
00000380: 2f80 d1b4 0000 0000 0000 0000 0000 0000
00000390: 0000 0000 0000 0000 0000 0000 0000 0000
000003a0: 0000 0000 0000 0000 0000 0000 0000 0000
000003b0: 0000 0000 0000 0000 0000 0000 0000 0000
000003c0: a04c b437 d12a c236 6cd6 50b7 6f4a 8e37
000003d0: 54e3 3637 90e2 b0b7 3686 80b6 ee8d 08b5
000003e0: 7b99 8035 e862 a2b6 3377 9db6 8f94 5a34
000003f0: e6d7 0ab4 5a0b 4c36 ad68 9535 beaf 7836
-4.8810332e-05 -1.30323e-05 2.7145268e-05 -3.6754882e-05 -2.3896919e-05 4.7056874e-05 8.755874e-06 6.39902e-07
-1.943552e-06 1.129568e-05 9.775634e-06 -4.0527422e-07 2.8659872e-07 -3.9978604e-06 -2.1178168e-06 -1.5649528e-05
-4.3210707e-06 7.2532107e-06 -8.891267e-06 -5.061276e-06 6.079304e-06 2.2312322e-06 -1.4137667e-06 -1.2544729e-07
2.2500733e-06 2.7999363e-06 3.2494967e-07 9.907879e-08 -3.295717e-07 -7.156475e-07 -4.378932e-07 1.073334e-06
-1.4328597e-06 9.2102164e-07 7.3399497e-07 -3.5561907e-06 1.11324184e-07 -7.938012e-07 -7.1082997e-09 -4.346622e-07
-1.8680876e-07 6.31264e-08 1.0959849e-07 -8.075363e-07 -3.805596e-09 0.0 0.0 0.0
0.0 0.0 0.0 0.0 0.0 0.0 0.0 0.0
0.0 0.0 0.0 0.0 -8.4958265e-05 -2.6214764e-05 5.301827e-05 -6.879268e-05
-4.62009e-05 9.55034e-05 1.4796782e-05 5.1398433e-06 -3.935733e-06 2.0752808e-05 1.9318635e-05 -1.4433393e-06
-4.2228777e-08 -2.9456655e-06 -2.6731848e-06 0.0 0.0 0.0 0.0 0.0
0.0 0.0 0.0 0.0 0.0 0.0 0.0 0.0
0.0 0.0 -2.982888e-05 -1.103491e-05 1.9493582e-05 -2.2242388e-05 -1.4303982e-05 2.9102155e-05
4.2107117e-06 8.67059e-07 -8.7440134e-07 6.7324545e-06 6.3831117e-06 -1.905567e-07 -3.2295745e-07 6.0808236e-07
-1.2403697e-07 0.0 0.0 0.0 0.0 0.0 0.0 0.0
0.0 0.0 0.0 0.0 0.0 0.0 0.0 0.0
0.0 0.0 0.0 0.0 0.0 0.0 0.0 0.0
0.0 0.0 0.0 0.0 0.0 0.0 0.0 0.0
0.0 0.0 0.0 0.0 0.0 0.0 0.0 0.0
0.0 0.0 0.0 0.0 0.0 0.0 -2.0693113e-05 -7.4824334e-06
1.2975603e-05 -1.6113017e-05 -1.1338859e-05 2.4163905e-05 3.831884e-06 1.5196174e-06 -5.662363e-07 5.126251e-06
4.872785e-06 -3.010368e-07 -7.3066545e-08 3.7210003e-07 2.3067838e-07 0.0 0.0 0.0
0.0 0.0 0.0 0.0 0.0 0.0 0.0 0.0
0.0 0.0 0.0 0.0 0.0 0.0 0.0 0.0
0.0 0.0 0.0 0.0 0.0 0.0 0.0 0.0
0.0 0.0 0.0 0.0 0.0 0.0 0.0 0.0
0.0 0.0 0.0 0.0 0.0 0.0 0.0 0.0
0.0 0.0 -3.6147776e-06 -8.3061855e-07 1.7279814e-06 -2.7686096e-06 -2.031032e-06 5.0987624e-06
9.049071e-07 4.901195e-07 -2.1485486e-07 1.0198847e-06 9.009203e-07 -7.517274e-08 -6.025764e-08 1.1621981e-07
-3.902255e-07 0.0 0.0 0.0 0.0 0.0 0.0 0.0
0.0 0.0 0.0 0.0 0.0 0.0 0.0 0.0
2.1493353e-05 5.786635e-06 -1.244769e-05 1.696238e-05 1.0900974e-05 -2.1086336e-05 -3.8303215e-06 -5.0870483e-07
9.581412e-07 -4.8394904e-06 -4.6928412e-06 2.0356877e-07 -1.2930795e-07 3.0404976e-06 1.113183e-06 3.7057175e-06

exp_avg_sq f4 [128, 15]
00000000: 3ce8 9231 3384 2030 c777 f430 bed5 2631
00000010: c964 8530 87e2 7031 8227 c42e cc7b c52c
00000020: 9a96 6f2c 4242 522f abe6 5b2f fbf3 ca2a
00000030: 5a95 732a 7d6f b52d 2521 0a2d 3a8c 2e31
00000040: 60a3 d72f 4fec 9930 d339 bf30 fe33 1730
00000050: bdf3 0231 c023 3a2e 65f1 082c cf2b bb2b
00000060: f120 ef2e f8ab fc2e 4034 132a f8fc b229
00000070: 9193 a42d fbd5 d02c e027 e530 91e4 732f
00000080: d294 3930 6a39 7930 395b bf2f 95dd ab30
00000090: da09 092e 331f 182c 370e b42b 3fee a02e
000000a0: 08ee 9c2e 99aa 6c2a e660 a529 4ae8 e12c
000000b0: 109e 902c 0000 0000 0000 0000 0000 0000
000000c0: 0000 0000 0000 0000 0000 0000 0000 0000
000000d0: 0000 0000 0000 0000 0000 0000 0000 0000
000000e0: 0000 0000 0000 0000 0000 0000 0000 0000
000000f0: 093f bb31 956a 5e30 a9cd 2631 4e6f 5831
00000100: d99f ac30 deb4 9d31 170e db2e ccc7 0d2d
00000110: 0569 9a2c f820 882f d1de 8c2f caba b42a
00000120: 94ff 832a dbe6 0b2e 739c ab2d 0000 0000
00000130: 0000 0000 0000 0000 0000 0000 0000 0000
00000140: 0000 0000 0000 0000 0000 0000 0000 0000
00000150: 0000 0000 0000 0000 0000 0000 0000 0000
00000160: 0000 0000 0000 0000 7ac8 0331 ea91 9d2f
00000170: c0cb 6730 e25b 9430 a724 ed2f f1af d130
00000180: 0262 1a2e f527 102c b2f3 ac2b 1ca3 b92e
00000190: 72e5 c32e 51fa e629 d660 9629 41ed 5b2d
000001a0: 180d c32c 0000 0000 0000 0000 0000 0000
000001b0: 0000 0000 0000 0000 0000 0000 0000 0000
000001c0: 0000 0000 0000 0000 0000 0000 0000 0000
000001d0: 0000 0000 0000 0000 0000 0000 0000 0000
000001e0: 0000 0000 0000 0000 0000 0000 0000 0000
000001f0: 0000 0000 0000 0000 0000 0000 0000 0000
00000200: 0000 0000 0000 0000 0000 0000 0000 0000
00000210: 0000 0000 0000 0000 0000 0000 0000 0000
00000220: 0000 0000 0000 0000 0000 0000 0000 0000
00000230: 0000 0000 0000 0000 0000 0000 0000 0000
00000240: 0000 0000 0000 0000 0000 0000 0000 0000
00000250: 0000 0000 0000 0000 464c 0931 aee7 b42f
00000260: b3bc 7630 1fa2 9830 3d71 f62f a551 df30
00000270: 1c5e 1b2e 2f9b d72b 1183 8b2b 4813 c42e
00000280: 6cc1 cc2e 332c c529 f026 4129 98bd e12c
00000290: 1c00 bb2c 0000 0000 0000 0000 0000 0000
000002a0: 0000 0000 0000 0000 0000 0000 0000 0000
000002b0: 0000 0000 0000 0000 0000 0000 0000 0000
000002c0: 0000 0000 0000 0000 0000 0000 0000 0000
000002d0: 0000 0000 0000 0000 0000 0000 0000 0000
000002e0: 0000 0000 0000 0000 0000 0000 0000 0000
000002f0: 0000 0000 0000 0000 0000 0000 0000 0000
00000300: 0000 0000 0000 0000 0000 0000 0000 0000
00000310: 0000 0000 0000 0000 0000 0000 0000 0000
00000320: 0000 0000 0000 0000 0000 0000 0000 0000
00000330: 0000 0000 0000 0000 0000 0000 0000 0000
00000340: 0000 0000 0000 0000 78c0 3c31 ddc0 e32f
00000350: ee51 a530 b34b d030 c13e 2730 45d9 1031
00000360: 3fcc 4f2e cfd1 1b2c 18c6 df2b f59e 012f
00000370: c15f 0c2f c614 9c29 8c0d cd29 ac1f 692d
00000380: f2ac 1c2d 0000 0000 0000 0000 0000 0000
00000390: 0000 0000 0000 0000 0000 0000 0000 0000
000003a0: 0000 0000 0000 0000 0000 0000 0000 0000
000003b0: 0000 0000 0000 0000 0000 0000 0000 0000
000003c0: 1385 6031 9e35 0a30 a04a c730 377b fd30
000003d0: b692 4730 46ac 3631 e322 812e 887c 212c
000003e0: 87df fd2b c64f 202f 8d52 282f 9b94 1d2a
000003f0: b462 9229 151e 262d 77bb db2c ee93 7631
4.2755612e-09 5.839553e-10 1.7787379e-09 2.4277678e-09 9.705668e-10 3.5053362e-09 8.920066e-11 5.612821e-12
3.4047543e-12 1.9122928e-10 1.9999884e-10 3.6051704e-13 2.1634552e-13 2.0626828e-11 7.851751e-12 2.5400042e-09
3.9224357e-10 1.1199378e-09 1.3913514e-09 5.5007365e-10 1.905604e-09 4.2323256e-11 1.9460763e-12 1.3299308e-12
1.0874313e-10 1.1490181e-10 1.307435e-13 7.948671e-14 1.8710174e-11 5.935472e-12 1.6673276e-09 2.2181924e-10
6.7514094e-10 9.066726e-10 3.4807515e-10 1.2504865e-09 3.1158943e-11 2.1617818e-12 1.2793715e-12 7.3182786e-11
7.1363415e-11 2.1020199e-13 7.344281e-14 6.420674e-12 4.1102746e-12 0.0 0.0 0.0
0.0 0.0 0.0 0.0 0.0 0.0 0.0 0.0
0.0 0.0 0.0 0.0 5.4495826e-09 8.091459e-10 2.4273084e-09 3.1495406e-09
1.2560079e-09 4.5898636e-09 9.96147e-11 8.059286e-12 4.3886028e-12 2.4761682e-10 2.5624172e-10 3.2104034e-13
2.3447618e-13 3.180998e-11 1.9509927e-11 0.0 0.0 0.0 0.0 0.0
0.0 0.0 0.0 0.0 0.0 0.0 0.0 0.0
0.0 0.0 1.9176967e-09 2.8661812e-10 8.4326857e-10 1.0794532e-09 4.3136092e-10 1.5256757e-09
3.5102594e-11 2.0485811e-12 1.2288974e-12 8.4418e-11 8.908331e-11 1.0257475e-13 6.6781365e-14 1.250139e-11
5.543687e-12 0.0 0.0 0.0 0.0 0.0 0.0 0.0
0.0 0.0 0.0 0.0 0.0 0.0 0.0 0.0
0.0 0.0 0.0 0.0 0.0 0.0 0.0 0.0
0.0 0.0 0.0 0.0 0.0 0.0 0.0 0.0
0.0 0.0 0.0 0.0 0.0 0.0 0.0 0.0
0.0 0.0 0.0 0.0 0.0 0.0 1.997948e-09 3.2906428e-10
8.9762436e-10 1.1105533e-09 4.48276e-10 1.624859e-09 3.5326506e-11 1.5319741e-12 9.912922e-13 8.916473e-11
9.3112046e-11 8.756225e-14 4.288838e-14 6.4159338e-12 5.314872e-12 0.0 0.0 0.0
0.0 0.0 0.0 0.0 0.0 0.0 0.0 0.0
0.0 0.0 0.0 0.0 0.0 0.0 0.0 0.0
0.0 0.0 0.0 0.0 0.0 0.0 0.0 0.0
0.0 0.0 0.0 0.0 0.0 0.0 0.0 0.0
0.0 0.0 0.0 0.0 0.0 0.0 0.0 0.0
0.0 0.0 2.7467006e-09 4.1428097e-10 1.2028616e-09 1.5155507e-09 6.0843425e-10 2.1078261e-09
4.7247758e-11 2.2143292e-12 1.5900085e-12 1.1788955e-10 1.2766944e-10 6.931395e-14 9.106179e-14 1.3251549e-11
8.905975e-12 0.0 0.0 0.0 0.0 0.0 0.0 0.0
0.0 0.0 0.0 0.0 0.0 0.0 0.0 0.0
3.2671934e-09 5.02803e-10 1.4500365e-09 1.8443193e-09 7.2604267e-10 2.6582412e-09 5.872438e-11 2.2948605e-12
1.8038773e-12 1.4580256e-10 1.5308839e-10 1.3995959e-13 6.500825e-14 9.442687e-12 6.245167e-12 3.58818e-09
