robot_state_berkeley_training/robot_state_epoch_6.pth (torch, 838027 bytes, 24 tensors)

policy_network.0.weight f4 [128, 15]
-0.06677835 -0.020249354 0.22610635 0.1194887 0.096284784 0.013365566 0.13664788 -0.09289823
0.14507458 0.21099429 -0.11404548 0.35581163 0.14286308 0.26061615 0.3154972 0.11107263
0.114771605 -0.11321643 -0.16097571 -0.06159781 0.1260429 0.09318571 -0.046644982 -0.2644564
-0.03986046 -0.1296423 0.030727781 -0.20448995 0.23982146 0.07176382 0.0045682294 -0.06945146
-0.22281478 0.049261272 -0.031800393 0.14170709 0.18097624 0.24034442 0.20803575 -0.13665026
0.24576496 -0.0069568334 -0.13919702 0.16010429 -0.14734764 0.19315524 -0.129924 -0.051801074
-0.0955226 -0.12936701 -0.18899918 0.008251854 0.18019748 0.23414199 -0.05951995 -0.061612107
0.14260837 -0.06521142 0.070706494 -0.006390821 0.0597327 -0.040149834 0.20103954 -0.23376653
-0.031416494 -0.24894018 0.084050305 -0.033109933 -0.15578657 0.09846185 -0.081231505 0.3195835
-0.23675567 0.30964157 0.3085726 0.015704544 0.07467951 0.013595396 -0.113071315 0.051129248
-0.08273961 -0.1920192 -0.19081734 0.23896115 -0.013201416 -0.14713082 0.10875113 -0.22920376
-0.25111547 -0.20342153 -0.09046191 0.24384779 0.12753104 0.17044224 -0.166763 0.14493799
-0.1557939 -0.24202628 0.1335088 0.024082348 -0.10607662 0.053340875 -0.18373564 0.0011575272
0.09209096 0.044976015 -0.0057647005 -0.21142513 0.16290526 0.1964123 0.1586797 0.10307588
0.05507028 -0.09803983 0.116359726 -0.085960425 0.03188282 -0.15432917 -0.15054837 -0.17595616
-0.04227414 0.1530953 -0.20465507 0.1159739 0.22439907 -0.2231207 0.16480778 -0.19009045
0.18847454 -0.17246756 0.092211016 0.2501889 0.05080775 -0.14482874 -0.0853781 -0.10772626
-0.18271233 -0.21741275 0.25390825 -0.10747316 -0.11422684 0.2544008 0.16400732 0.24244718
0.1574675 -0.09919246 0.091738485 0.20060968 0.1605435 -0.20682096 -0.20944913 0.023711918
-0.1525178 -0.08271096 -0.1727942 -0.13701817 -0.19385965 -0.13022228 -0.15499936 0.015373061
-0.23405911 -0.101154484 0.10952916 0.21235308 -0.010564325 0.23025969 0.05353308 0.13833976
0.039805546 -0.09473166 -0.20264322 -0.0035206443 -0.1534465 -0.23725991 0.1148577 0.0140651865
0.25002608 0.17831902 -0.129484 0.14641094 0.20424646 -0.16721047 -0.23049106 0.197429
-0.15720916 0.10646109 -0.23418546 -0.060773235 -0.00012795124 -0.1905936 0.17176156 -0.010243825
0.22083673 0.18517752 -0.049756225 0.24931498 0.064499244 0.20261289 0.19364126 0.13346875
-0.17058301 0.17003596 -0.25364053 -0.1394084 -0.17917387 -0.13276279 0.23354976 0.0046323766
-0.05645235 0.25230592 -0.21521173 -0.21555835 -0.25838208 -0.13937895 -0.13166246 0.07647195
0.05649098 0.2103088 0.30079168 -0.27740765 -0.2887735 -0.28654322 0.2238587 -0.056567244
0.054472897 -0.06132607 0.17647141 -0.24045664 0.16447444 0.20417853 -0.014144445 -0.14442588
-0.118929155 -0.048185106 0.09821773 0.11078675 -0.20685741 -0.1921759 0.08981235 -0.1326011
-0.20058294 0.25316894 0.18200186 0.10038609 0.20176223 0.15875848 -0.08913299 0.035879612
0.2125582 -0.21984567 -0.088499464 -0.04392798 -0.040736657 -0.3448965 -0.25464952 -0.05813609
00000000: 16c3 88bd f9e1 a5bc 6c88 673e 7eb6 f43d
00000010: f530 c53d 3ffb 5a3c 6ced 0b3e 6d41 bebd
00000020: 6e8e 143e e30e 583e ad90 e9bd f12c b63e
00000030: b34a 123e 7b6f 853e d988 a13e 0c7a e33d
00000040: 600d eb3d 04de e7bd d1d6 24be fc4d 7cbd
00000050: 6411 013e 26d8 be3d cf0e 3fbd d466 87be
00000060: b944 23bd f3c0 04be d4b8 fb3c d065 51be
00000070: c293 753e e9f8 923d 16b1 953b 913c 8ebd
00000080: 8f29 64be 30c6 493d 2141 02bd aa1b 113e
00000090: d651 393e d91c 763e 5307 553e 0cee 0bbe
000000a0: cfa9 7b3e 26f6 e3bb aa89 0ebe 61f2 233e
000000b0: 4de2 16be 7dca 453e cc0a 05be 5d2d 54bd
000000c0: 5aa1 c3bd c978 04be 0089 41be c932 073c
000000d0: b085 383e ebc2 6f3e 31cb 73bd fa5c 7cbd
000000e0: ee07 123e 918d 85bd 91ce 903d 186a d1bb
000000f0: 47aa 743d 2774 24bd 4fdd 4d3e 7e60 6fbe
00000100: 95ae 00bd 2dea 7ebe 9122 ac3d 489e 07bd
00000110: 8486 1fbe 5ea6 c93d b45c a6bd 73a0 a33e
00000120: 1470 72be 5789 9e3e 3afd 9d3e d1a6 803c
00000130: 92f1 983d 39bf 5e3c ef91 e7bd e76c 513d
00000140: 6273 a9bd aea0 44be 9f65 43be 3bb2 743e
00000150: c04a 58bc 76a9 16be eab8 de3d 64b4 6abe
00000160: 3592 80be bc4d 50be 1844 b9bd 3cb3 793e
00000170: 7f97 023e 6988 2e3e ebc3 2abe a06a 143e
00000180: 7088 1fbe bdd5 77be 88b6 083e 5848 c53c
00000190: b33e d9bd f67b 5a3d 3225 3cbe 2bb8 973a
000001a0: 2f9a bc3d c538 383d d0e5 bcbb d47f 58be
000001b0: a3d0 263e 4e20 493e ee7c 223e 7219 d33d
000001c0: 6091 613d 1bc9 c8bd 024e ee3d 050c b0bd
000001d0: 8f97 023d 7708 1ebe 5a29 1abe da2d 34be
000001e0: a627 2dbd 04c5 1c3e 1991 51be b983 ed3d
000001f0: dfc8 653e c179 64be 5fc3 283e 12a7 42be
00000200: 78ff 403e 569b 30be 21d9 bc3d c218 803e
00000210: ca1b 503d fc4d 14be b7da aebd 969f dcbd
00000220: f118 3bbe 73a1 5ebe 4300 823e e31a dcbd
00000230: c3ef e9bd d240 823e 89f1 273e 1344 783e
00000240: 293f 213e 6b25 cbbd 63e1 bb3d a06c 4d3e
00000250: 8465 243e e0c8 53be d579 56be 7f3f c23c
00000260: a02d 1cbe 5d64 a9bd f6f0 30be 7e4e 0cbe
00000270: 2583 46be fd58 05be 27b8 1ebe 4bdf 7b3c
00000280: 31ad 6fbe 152a cfbd d350 e03d 1673 593e
00000290: fe15 2dbc 32c9 6b3e 8145 5b3d f0a8 0d3e
000002a0: 240b 233d ac02 c2bd b481 4fbe 9cba 66bb
000002b0: 1421 1dbe 43f4 72be 843a eb3d ab71 663c
000002c0: 6b03 803e 4399 363e 7497 04be c0ec 153e
000002d0: fc25 513e 3939 2bbe d905 6cbe d42a 4a3e
000002e0: 70fb 20be 4608 da3d 50ce 6fbe 5bed 78bd
000002f0: a62a 06b9 f82a 43be 43e2 2f3e b7d5 27bc
00000300: 0623 623e 2d9f 3d3e 2fcd 4bbd 6d4c 7f3e
00000310: 2e18 843d c179 4f3e e549 463e 08ac 083e
00000320: 50ad 2ebe e81d 2e3e 2cdd 81be 13c1 0ebe
00000330: 5b79 37be f8f2 07be ab27 6f3e 31cb 973b
00000340: 943a 67bd 3e2e 813e 7760 5cbe 54bb 5cbe
00000350: a84a 84be 5bb9 0ebe 86d2 06be 539d 9c3d
00000360: 1663 673d 315b 573e 5e01 9a3e 6008 8ebe
00000370: 1fda 93be cbb5 92be 373b 653e 0eb3 67bd
00000380: f91e 5f3d 0c31 7bbd ecb4 343e 443a 76be
00000390: fd6b 283e 2d14 513e 1abe 67bc 61e4 13be
000003a0: 2191 f3bd bf5d 45bd 6126 c93d 2ae4 e23d
000003b0: 6ed2 53be c2c9 44be 8aef b73d 95c8 07be
000003c0: 9d65 4dbe 5c9f 813e b25e 3a3e 3997 cd3d
000003d0: c29a 4e3e 9591 223e 5b8b b6bd 80f6 123d
000003e0: dba8 593e 391f 61be 353f b5bd d3ed 33bd
000003f0: 7bdb 26bd 4696 b0be 6c61 82be 1c20 6ebd

policy_network.0.bias f4 [128]
-0.23491345 0.1540828 -0.06678969 0.0045538573 0.08402477 -0.0918938 0.15094341 0.08099252
0.19977744 0.037817147 -0.09950719 0.10035677 0.17702726 0.1725037 -0.073519714 0.24832934
0.15389869 -0.17731702 0.015214846 -0.09528774 0.19034189 -0.10599121 -0.18141145 -0.20424977
0.1610971 -0.16542564 0.097759545 -0.23408622 -0.18940462 0.036360405 0.05120487 0.11773496
-0.22530846 -0.026107332 -0.22363596 -0.19169949 -0.17421542 0.085618585 -0.25317267 0.0441975
0.08067896 -0.013635051 0.04412717 0.1777713 -0.03137166 -0.16256832 -0.054229442 0.009638863
-0.18883546 -0.13331866 0.06183633 -0.12963697 -0.17278501 0.17652777 0.04589179 0.15301672
-0.10353481 -0.15103407 0.2004975 -0.024975177 -0.19161034 -0.22325443 -0.06875163 0.1413926
0.16989997 0.14526609 0.049093753 0.15711251 -0.0901077 -0.114643864 -0.14680277 -0.029546695
-0.1321526 0.23697637 -0.096312374 -0.21848154 -0.13987443 0.13106318 -0.22193128 -0.06799268
0.2301419 -0.10046411 0.08017334 0.163865 -0.05570511 0.038387094 -0.04032279 -0.028313236
0.050979637 0.1905887 -0.17107752 0.25077197 -0.25062707 -0.006726443 -0.104895644 -0.02731439
0.11196916 0.0567057 0.13492884 -0.17771876 0.024688432 -0.2672463 0.22687475 -0.045465183
-0.22281384 0.071424805 -0.20468237 0.06778052 -0.17409487 0.20084757 0.11193309 -0.119036295
-0.21205668 -0.26496604 0.21109582 -0.023057248 0.22340205 -0.059777766 -0.08452372 0.09378314
-0.19027832 0.03128037 0.13526835 -0.12388296 0.17263618 -0.016181968 -0.13318834 -0.18074659
00000000: 278d 70be e2c7 1d3e 08c9 88bd 8638 953b
00000010: 2e15 ac3d d132 bcbd e990 1a3e 68df a53d
00000020: 7592 4c3e 27e6 1a3d 6dca cbbd da87 cd3d
00000030: a246 353e cfa4 303e 8191 96bd 0c4a 7e3e
00000040: 9e97 1d3e 9892 35be b047 793c 3826 c3bd
00000050: fce8 423e eb11 d9bd ecc3 39be da26 51be
00000060: a3f6 243e 5765 29be 2836 c83d 4cb4 6fbe
00000070: 49f3 41be a6ee 143d 33bc 513d 071f f13d
00000080: 43b7 66be 0bdf d5bc d300 65be df4c 44be
00000090: 8765 32be cc58 af3d d99f 81be 7008 353d
000000a0: 033b a53d 8d65 5fbc b1be 343d ae09 363e
000000b0: 927f 00bd 4f78 26be b11f 5ebd 52ec 1d3c
000000c0: 155e 41be b084 08be 1748 7d3d 8ebf 04be
000000d0: 8eee 30be b2c3 343e 08f9 3b3d 6ab0 1c3e
000000e0: 0f0a d4bd ada8 1abe 374f 4d3e be98 ccbc
000000f0: 8035 44be cf9c 64be a8cd 8cbd 39c9 103e
00000100: 42fa 2d3e a2c0 143e 8816 493d 1ae2 203e
00000110: 638a b8bd 67ca eabd 7753 16be e90b f2bc
00000120: 0353 07be efa9 723e 6c3f c5bd a0b9 5fbe
00000130: 3e3b 0fbe 6d35 063e f441 63be bf3f 8bbd
00000140: 51aa 6b3e 21c0 cdbd ec31 a43d 3acc 273e
00000150: 0b2b 64bd c93b 1d3d 8329 25bd 29f1 e7bc
00000160: 06d0 503d af29 433e f22e 2fbe 2f65 803e
00000170: 3152 80be 7e69 dcbb 87d3 d6bd 6dc2 dfbc
00000180: 1650 e53d 3c44 683d c92a 0a3e e8fb 35be
00000190: 653f ca3c 82d4 88be db51 683e b339 3abd
000001a0: 5029 64be 2b47 923d 4198 51be 83d0 8a3d
000001b0: ed45 32be fcaa 4d3e 2d3d e53d 4dc9 f3bd
000001c0: 6325 59be a1a9 87be 8129 583e 8ee2 bcbc
000001d0: 82c3 643e 88d9 74bd c61a adbd 6011 c03d
000001e0: 52d8 42be d81f 003d c983 0a3e 59b6 fdbd
000001f0: 8ac7 303e 0c90 84bc 8662 08be a215 39be

policy_network.3.weight f4 [256, 128]
-0.035651628 -0.04855817 -0.017480224 -0.08609866 -0.09761033 0.07232673 -0.09133605 0.07096093
-0.022822117 -0.03048314 -0.09066637 -0.07878769 0.0014612839 -0.0627836 0.038244884 0.07312078
0.04925467 -0.080932215 0.057829656 0.026020601 0.034234274 -0.08088134 -0.007053963 0.071956724
0.015382521 -0.036630634 0.067901224 -0.046250984 -0.020954553 -0.06107271 -0.02506474 -0.0041257907
0.016306216 0.056147635 0.052342966 -0.08043166 -0.00014072932 -0.032360062 0.07787249 -0.05978456
-0.033658758 0.0521728 -0.03408717 -0.08088621 -0.022744335 0.055849925 -0.021042097 -0.037208285
-0.06939235 0.022720385 -0.063608654 0.015001286 -0.05680094 0.057158776 0.01708552 -0.014511023
-0.0891939 -0.07019301 -0.052661978 -0.06235521 -0.05619667 0.015709525 -0.017076526 -0.0031092342
0.043947782 -0.0020285926 0.04622106 0.039353985 -0.07059272 -0.0063255774 0.051511794 -0.053126603
-0.006954219 0.011029493 -0.08141438 0.019944048 -0.044176035 -0.019820038 0.026848033 0.04318341
-0.051274624 -0.08673336 0.02207853 -0.03774364 0.03488619 0.08195857 0.053835925 -0.030069362
0.015501891 -0.030260716 -0.01005137 -0.082471095 -0.08313148 -0.08709198 -0.0726672 0.04766619
0.01149827 0.025449762 -0.06287828 0.019930677 -0.08683639 0.031201929 -0.056245472 0.05129647
-0.014694239 0.06534225 0.013235196 0.047172375 0.021672597 0.0615994 0.0033493077 0.079554886
0.008559586 -0.015802512 -0.00069427263 -0.042041007 -0.009761231 -0.0036151395 -0.055763166 -0.0053228033
-0.0117974505 -0.04860719 -0.07313071 -0.09072244 0.016285 -0.061068084 -0.029805576 -0.04523145
-0.07280683 0.058258362 0.03687006 -0.07453118 0.061669327 -0.029024921 0.030282674 0.05467227
0.012061416 -0.070771776 -0.04697417 -0.076944605 0.03053044 0.06314726 0.07799592 -0.0024271947
-0.015135371 -0.04956205 0.11570569 -0.00047935857 0.0058735427 -0.06733466 -0.038597472 -0.04657119
0.046792936 0.00971968 -0.041448537 -0.06141247 0.02757795 -0.026593111 -0.016063387 0.04509434
0.038432963 0.06728495 0.0735037 -0.07591741 -0.043847173 0.00040231866 -0.059455417 -0.03355848
0.061934445 -0.03623683 0.00040487316 -0.03784318 -0.05184273 -0.02567568 -0.08165097 0.062450886
0.08348682 -0.04617913 -0.054410413 -0.06788733 -0.023915535 0.012752477 0.0128453225 0.045114946
0.0027954003 -0.008487079 0.008250167 -0.07249232 0.07017379 0.004837401 -0.066827886 0.027593084
-0.050056025 0.017985918 0.028607152 -0.080808245 0.02026739 0.075403705 0.08405361 0.06331357
0.050047673 0.05609579 -0.017595014 -0.07190553 0.08395648 0.046229854 -0.016722636 0.053667005
0.04905872 0.06124723 0.038739245 0.06001844 -0.08657986 -0.061881423 -0.0010844847 -0.06486941
0.031188631 0.076048486 0.031372502 0.019055096 -0.03224196 0.035434917 -0.073560745 -0.032881826
0.04293078 -0.06319841 0.03291952 -0.08848574 -0.0011469843 -0.066237554 -0.075951874 0.07109787
-0.08632353 0.04319205 0.07289449 -0.0008702481 0.079713754 0.037003867 0.07422177 0.06589618
-0.08138587 0.019911468 -0.024343213 0.023495782 0.043334577 -0.08228306 0.03708125 -0.05513135
0.053864904 0.0657185 -0.07276274 -0.09440768 -0.016465528 0.009568472 0.07951181 -0.061738726
00000000: 7107 12bd efe4 46bd b032 8fbc 7f54 b0bd
00000010: ede7 c7bd 0920 943d 650e bbbd f753 913d
00000020: 73f5 babc c7b7 f9bc 4aaf b9bd 715b a1bd
00000030: 8d88 bf3a b094 80bd aba6 1c3d 59c0 953d
00000040: 44bf 493d cabf a5bd cade 6c3d 2829 d53c
00000050: 3d39 0c3d 1ea5 a5bd ee24 e7bb 0c5e 933d
00000060: f806 7c3c 010a 16bd cc0f 8b3d ac71 3dbd
00000070: e2a8 abbc 6127 7abd 9254 cdbc a431 87bb
00000080: 9d94 853c 10fb 653d 9465 563d 5bb9 a4bd
00000090: bd90 13b9 fc8b 04bd 9d7b 9f3d a8e0 74bd
000000a0: c4dd 09bd 25b3 553d fd9e 0bbd aba7 a5bd
000000b0: 5452 babc e4c2 643d 7a60 acbc b767 18bd
000000c0: 941d 8ebd 1a20 ba3c 4145 82bd f4c7 753c
000000d0: 1aa8 68bd 521f 6a3d eff6 8b3c a4bf 6dbc
000000e0: 4bab b6bd 5ac1 8fbd 16b4 57bd 2d68 7fbd
000000f0: 7b2e 66bd 43b1 803c 12e4 8bbc 4bc4 4bbb
00000100: 9702 343d 23f2 04bb 4b52 3d3d a531 213d
00000110: ea92 90bd ca46 cfbb 08fe 523d 489b 59bd
00000120: 38e0 e3bb 0cb5 343c 95bc a6bd b361 a33c
00000130: eef1 34bd a25d a2bc 68f0 db3c 16e1 303d
00000140: 5705 52bd 43a1 b1bd 09de b43c 1399 1abd
00000150: d2e4 0e3d e5d9 a73d 0f83 5c3d 0654 f6bc
00000160: a5fb 7d3c 52e5 f7bc 80ae 24bc 9be6 a8bd
00000170: d640 aabd 485d b2bd 8ad2 94bd 9f3d 433d
00000180: 3d63 3c3c 057c d03c 54c6 80bd a945 a33c
00000190: 47d7 b1bd 309b ff3c a761 66bd 3f1c 523d
000001a0: 1bc0 70bc 28d2 853d 6fd8 583c d237 413d
000001b0: bb8a b13c a74f 7c3d 0f80 5b3b aced a23d
000001c0: 813d 0c3c 4574 81bc d9ff 35ba 3133 2cbd
000001d0: 92ed 1fbc faeb 6cbb eb67 64bd e96a aebb
000001e0: 184a 41bc 5518 47bd 8ec5 95bd b0cc b9bd
000001f0: 1f68 853c 8722 7abd d32a f4bc 9d44 39bd
00000200: bf1b 95bd 52a0 6e3d 0f05 173d cea3 98bd
00000210: fa98 7c3d acc5 edbc 5f13 f83c 08f0 5f3d
00000220: 3f9d 453c cbf0 90bd fd67 40bd 2295 9dbd
00000230: f91a fa3c 5a53 813d 53bc 9f3d 9211 1fbb
00000240: 59fa 77bc 9301 4bbd 1bf7 ec3d 6b52 fbb9
00000250: d976 c03b c1e6 89bd 6218 1ebd 6fc1 3ebd
00000260: f3a9 3f3d 4b3f 1f3c f1c5 29bd a48b 7bbd
00000270: 27eb e13c ccd9 d9bc 5d97 83bc d8b4 383d
00000280: e26b 1d3d b1cc 893d 1c89 963d 967a 9bbd
00000290: 1899 33bd 4cee d239 8687 73bd 9e74 09bd
000002a0: f9ae 7d3d 126d 14bd 2845 d439 7301 1bbd
000002b0: 0b59 54bd ce55 d2bc a038 a7bd 80cc 7f3d
000002c0: 23fb aa3d 5426 3dbd 74dd 5ebd 8308 8bbd
000002d0: 83ea c3bc c4ef 503c 3075 523c 73ca 383d
000002e0: 0933 373b 640d 0bbc b52b 073c da76 94bd
000002f0: 47b7 8f3d 1083 9e3b 0fdd 88bd e40a e23c
00000300: 8c07 4dbd 3457 933c 8c59 ea3c cb7e a5bd
00000310: cc07 a63c 426d 9a3d 4d24 ac3d 8caa 813d
00000320: cafe 4c3d b3c4 653d 6b23 90bc 3543 93bd
00000330: 60f1 ab3d 845b 3d3d e9fd 88bc efd1 5b3d
00000340: ccf1 483d 60de 7a3d 0bad 1e3d e5d5 753d
00000350: c850 b1bd 6077 7dbd 4525 8eba 41da 84bd
00000360: 4d7f ff3c 4fbf 9b3d 7480 003d 6f19 9c3c
00000370: 2510 04bd 3424 113d 04a7 96bd 18af 06bd
00000380: 30d8 2f3d 2b6e 81bd 9ed6 063d 0338 b5bd
00000390: 6856 96ba 8ea7 87bd a88c 9bbd c39b 913d
000003a0: 64ca b0bd 26ea 303d b549 953d 5d21 64ba
000003b0: f740 a33d 5e91 173d 9501 983d 94f4 863d
000003c0: a3ad a6bd 601d a33c 6b6b c7bc 3a7a c03c
000003d0: 997f 313d 0584 a8bd 82e2 173d 69d1 61bd
000003e0: 72a1 5c3d 6c97 863d a204 95bd d058 c1bd
000003f0: b7e2 86bc 15c5 1c3c 16d7 a23d bfe1 7cbd

policy_network.3.bias f4 [256]
-0.031178985 0.029995566 0.07562632 -0.0856414 -0.019890416 -0.10016078 -0.094728805 0.071010225
0.0506953 -0.076390855 0.062871315 -0.008436404 0.008633433 0.05493901 0.081663445 0.02871219
0.046282724 -0.060439497 -0.004223313 0.06563121 -0.026740825 -0.036441766 -0.020693103 -0.013458882
-0.057436988 -0.071584314 -0.03575014 -0.04278677 -0.061208464 0.0017663824 0.024660792 0.04864741
-0.068633266 -0.090447925 -0.04425161 0.020378321 0.06617605 -0.0016070672 0.05031101 -0.031194352
-0.0038239846 0.069397055 -0.08170399 0.034966297 -0.034308087 -0.068870775 -0.036643825 0.037876245
0.048806876 -0.038474593 0.041296642 -0.0011891489 0.0742373 0.06399425 0.04498301 -0.07121373
-0.077990025 0.066000305 -0.08769928 -0.05872948 0.027212178 -0.0112116765 -0.07357541 0.06213043
-0.07250332 0.0021411537 -0.03702349 -0.08746095 0.061994612 0.04148458 0.05321566 -0.035062116
0.029032236 0.07024688 0.063293286 -0.084776774 -0.030574698 -0.024405621 0.016156798 0.054641686
-0.005211886 0.02896206 0.06680494 0.008838972 0.024201434 -0.010927136 -0.054256424 -0.10683806
-0.033136103 0.037555918 -0.0601427 -0.065450534 -0.037078317 0.029073818 0.031674232 -0.015975274
-0.012967375 -0.019302187 -0.01675678 -0.02437539 -0.057897955 0.05934379 -0.046399675 0.061370514
0.025789922 0.065921284 -0.071037695 0.035113316 0.031512056 0.07030162 0.037958078 0.079978935
0.0694087 -0.07950416 -0.08375004 0.008288662 0.050129462 0.045327228 0.0584076 -0.09684638
0.0045376737 0.022746567 0.025212083 -0.09811777 0.05081704 -0.023875147 -0.037262913 -0.06804827
0.03496356 -0.063804075 -0.027156426 -0.013457599 -0.06495187 -0.029620783 0.048103612 -0.04520471
-0.052672803 -0.04312347 0.07608412 -0.074076876 0.062483005 0.024494097 -0.054269448 -0.0063278587
0.046560388 0.0126578575 -0.017822884 -0.04143947 -0.081019476 -0.0018704414 0.06472657 -0.08238979
0.051644128 -0.06397292 0.05756023 0.03086332 0.073070236 -0.05158833 0.07907227 0.034403883
0.045273446 0.026866453 -0.01161433 -0.07060872 -0.059538424 -0.032963533 -0.05604072 -0.028387997
0.013521737 -0.06866051 0.04644197 0.038969718 0.0062713875 0.066301845 -0.09413818 0.03848534
0.017397964 -0.07600028 0.03773786 -0.09312193 0.008830528 -0.06737987 -0.0019193179 -0.06354979
0.046089362 -0.06301405 0.06720797 -0.0866257 0.041367617 0.048355397 0.0051926686 0.029776037
0.040078565 -0.07440479 -0.05106965 0.030334812 -0.037149124 -0.062338203 0.013537157 0.04795757
-0.08355316 -0.06186994 -0.08616759 0.04395698 -0.01186331 -0.030867442 -0.08910991 0.0063364496
-0.051648296 -0.081940316 -0.054346617 -0.08666526 0.056737196 0.06044824 -0.049204867 -0.09715129
0.011354748 -0.04009065 -0.044487625 -0.10007712 -0.07515502 0.046387315 0.06259977 0.03804862
-0.020657837 -0.0919119 0.052422058 0.07568623 0.015659893 -0.015606349 -0.0670208 0.05031631
0.037613194 -0.09402967 -0.023200026 -0.10539441 0.0099169025 -0.016270274 0.015342882 -0.023263814
-0.019126713 0.025336066 0.06873349 0.063997075 -0.018827884 -0.06562401 0.07480317 0.012998594
0.054171696 0.04553382 -0.034271378 0.0057036295 0.06851108 -0.056026883 0.027090827 -0.01540363
00000000: 126b ffbc 43b9 f53c f9e1 9a3d c264 afbd
00000010: 3af1 a2bc 1821 cdbd 2d01 c2bd cf6d 913d
00000020: e0a5 4f3d cf72 9cbd adc2 803d d838 0abc
00000030: 3e73 0d3c ba07 613d 2a3f a73d d435 eb3c
00000040: f492 3d3d 688f 77bd b863 8abb a869 863d
00000050: 930f dbbc f643 15bd 9584 a9bc a582 5cbc
00000060: 0c43 6bbd cc9a 92bd bd6e 12bd 2e41 2fbd
00000070: bab5 7abd f585 e73a 6e05 ca3c 8242 473d
00000080: 998f 8cbd c33c b9bd 2d41 35bd 70f0 a63c
00000090: 4f87 873d 3aa4 d2ba eb12 4e3d 4c8b ffbc
000000a0: d19b 7abb 0b20 8e3d 6c54 a7bd d238 0f3d
000000b0: a386 0cbd 1f0c 8dbd d617 16bd 1f24 1b3d
000000c0: b8e9 473d 8997 1dbd ab26 293d 37dd 9bba
000000d0: ba09 983d 6b0f 833d 1b40 383d 81d8 91bd
000000e0: 3cb9 9fbd 2b2b 873d ae9b b3bd 538e 70bd
000000f0: 13ec de3c 2eb1 37bc b4ae 96bd 7a7c 7e3d
00000100: 9f7c 94bd 9952 0c3b f1a5 17bd ba1e b3bd
00000110: 10ee 7d3d bceb 293d aaf8 593d 4b9d 0fbd
00000120: 03d5 ed3c 99dd 8f3d e99f 813d 729f adbd
00000130: ca77 fabc 4cee c7bc 435b 843c f6cf 5f3d
00000140: 78c8 aabb d841 ed3c 07d1 883d 56d1 103c
00000150: 1642 c63c bb07 33bc fc3b 5ebd eacd dabd
00000160: b9b9 07bd 3cd4 193d 3158 76bd ee0a 86bd
00000170: 6fdf 17bd 372c ee3c d7bc 013d 94de 82bc
00000180: 1d75 54bc 9f1f 9ebc 8445 89bc e6ae c7bc
00000190: 6826 6dbd 7912 733d 960d 3ebd a65f 7b3d
000001a0: 6345 d33c bd01 873d 367c 91bd fbd2 0f3d
000001b0: c912 013d 4cfa 8f3d ee79 1b3d ffcb a33d
000001c0: 2626 8e3d 14d3 a2bd 2485 abbd 2bcd 073c
000001d0: 8d54 4d3d 0ba9 393d cf3c 6f3d 6557 c6bd
000001e0: c4b0 943b 0257 ba3c 9289 ce3c f8f1 c8bd
000001f0: 8725 503d d095 c3bc ffa0 18bd e45c 8bbd
00000200: f335 0f3d b6ab 82bd 2777 debc 437d 5cbc
00000210: 7c05 85bd 49a7 f2bc 4b08 453d 9328 39bd
00000220: 70bf 57bd 3ca2 30bd fed1 9b3d 9eb5 97bd
00000230: 2eee 7f3d d8a7 c83c a449 5ebd ed59 cfbb
00000240: 1bb6 3e3d e762 4f3c 4c01 92bc 6fbc 29bd
00000250: 8aed a5bd 9929 f5ba 5d8f 843d fabb a8bd
00000260: cb88 533d 3c04 83bd 47c4 6b3d 13d5 fc3c
00000270: d9a5 953d 494e 53bd a4f0 a13d 16eb 0c3d
00000280: a670 393d 0917 dc3c 084a 3ebc 4e9b 90bd
00000290: 90de 73bd c504 07bd f48a 65bd f28d e8bc
000002a0: 478a 5d3c e29d 8cbd ef39 3e3d b69e 1f3d
000002b0: 3680 cd3b 43c9 873d 85cb c0bd cea2 1d3d
000002c0: 2d86 8e3c 09a6 9bbd 0493 1a3d b6b6 bebd
000002d0: ebad 103c 75fe 89bd 9f91 fbba 6426 82bd
000002e0: 33c8 3c3d 830d 81bd 55a4 893d d168 b1bd
000002f0: 1771 293d 4f10 463d 4327 aa3b e0ec f33c
00000300: 6c29 243d 8a61 98bd 692e 51bd b680 f83c
00000310: ae29 18bd 5856 7fbd f4ca 5d3c 286f 443d
00000320: eb1d abbd 566b 7dbd a278 b0bd 3c0c 343d
00000330: 545e 42bc b8dd fcbc 427f b6bd fea1 cf3b
00000340: 2a8d 53bd 53d0 a7bd 8f9a 5ebd 8e7d b1bd
00000350: 4365 683d 9398 773d 0b8b 49bd 41f7 c6bd
00000360: 4409 3a3c 1836 24bd a838 36bd 3cf5 ccbd
00000370: e0ea 99bd a000 3e3d 4f34 803d dfd8 1b3d
00000380: a03a a9bc 4e3c bcbd 83b8 563d 6201 9b3d
00000390: 2d49 803c c6b1 7fbc 3442 89bd 7a18 4e3d
000003a0: 4b10 1a3d a192 c0bd fb0d bebc 06d9 d7bd
000003b0: 817a 223c 3d49 85bc b660 7b3c c193 bebc
000003c0: a0af 9cbc 958d cf3c 25c4 8c3d e610 833d
000003d0: ef3c 9abc e265 86bd 6832 993d 0ef8 543c
000003e0: 24e3 5d3d ac81 3a3d 2560 0cbd 83e5 ba3b
000003f0: 8a4f 8c3d 727c 65bd 95ed dd3c 825f 7cbc

policy_network.6.weight f4 [128, 256]
0.034595765 -0.042616747 0.12314932 0.013690359 -0.0362857 -0.033493835 0.058306236 0.044216603
-0.056313932 0.020022353 0.08713066 0.04944133 -0.078545466 0.062083893 0.0625804 0.04291601
0.0017120301 0.0038959086 0.042021923 0.037066404 -0.05037626 0.008190711 -0.05449537 -0.009322569
0.006678273 -0.0058840364 -0.08092759 0.061900064 -0.031237962 0.039268523 -0.034318604 -0.0654251
0.035868388 0.06588016 0.01632962 0.027525652 -0.050815787 -0.05148504 -0.006214577 -0.051445123
-0.03376472 -0.05097073 0.033335358 -0.004325582 -0.011187263 0.0361659 0.0055982172 0.058476415
0.06883695 -0.027587675 0.018008783 0.092650644 -0.015662998 -0.013418409 0.021699816 -0.0062654633
-0.008022748 0.06818874 -0.018959664 0.0002826295 -0.029641407 0.08994473 -0.023989528 -0.018712414
0.026329316 -0.005765597 0.033342693 0.09299661 0.08167317 0.070957586 0.035798427 0.0047275424
0.02053727 -0.00011256179 0.0074471952 -0.029247662 -0.0071627307 -0.036218174 0.007947454 -0.008418972
0.007088618 -0.012512945 0.045916513 -0.009187575 0.027765486 0.010896723 -0.005973243 0.06617252
0.08125233 -0.057782713 -0.04299877 -0.051817052 -0.027414607 -0.052802525 -0.0125052035 0.038959987
-0.031983677 -0.026895002 0.06519315 0.09447424 -0.047800202 -0.03348399 0.05851888 0.014115532
0.106159925 -0.03438596 0.029911807 0.002864075 -0.014819402 -0.00056738284 0.0051138294 0.028935716
0.065432884 0.025817273 -0.021994356 0.034953497 0.08854808 -0.023226185 1.3315535e-05 -0.0047394335
-0.0004188261 -0.028517243 -0.06749611 0.017598674 0.0124359615 0.01243756 0.0094866855 0.046535365
0.029216342 -0.042368025 -0.01298359 0.03814558 0.026100688 0.07139307 0.052273203 0.0058674742
0.106344596 0.1010865 0.009186793 -0.06089253 -0.00019335284 0.024453228 0.00463257 0.061358057
0.0051958626 -0.032166414 -0.045568094 0.047621116 0.028466366 0.022851974 0.00998253 -0.015125677
-0.05703036 -0.04087495 0.045270666 0.03242947 -0.06461194 0.017600462 0.013583337 -0.035800662
-0.0062960642 -0.010666129 -0.0028993865 0.027281584 -0.031332735 -0.034466617 -0.04413809 0.060770832
0.03232501 -0.043074977 0.01318785 0.024156047 -0.022588693 -0.029982686 0.058669247 0.080028914
0.0119355405 -0.056076698 0.048672296 0.018008895 0.006329638 -0.027737724 -0.029732088 -0.038880974
-0.012134691 -0.0054623336 0.12209751 -0.018651783 0.037705068 -0.0661053 0.0071648583 -0.031228287
0.17420284 0.044177633 0.032223336 -0.009118917 0.017642831 -0.041522406 -0.036702525 0.005634837
0.058962997 0.085712634 0.013638951 -0.039351318 0.04763087 -0.015146839 0.0056174546 0.019533232
0.055375688 -0.029557416 -0.021924077 -0.045287468 0.061946634 -0.0350682 0.033200093 0.062023938
0.060927995 -0.019597983 -0.06506264 0.010031253 0.046129294 0.033980448 -0.011160695 -0.016924322
0.0033313823 -0.06269605 -0.026805026 0.005094974 0.054557614 -0.09141211 -0.03869953 0.04494666
0.048321437 0.050434895 0.04714906 -0.011645108 0.018194014 0.025870165 0.026407262 -0.037871815
0.014459605 -0.064311005 0.11327366 0.021124398 0.048524033 0.05222125 -0.012138536 0.01621088
0.0060725827 -0.029391142 0.039650537 0.0063611846 0.010844128 0.048469674 0.015070699 0.04600975
00000000: 4ab4 0d3d e68e 2ebd b635 fc3d 874d 603c
00000010: 50a0 14bd d530 09bd 85d2 6e3d 781c 353d
00000020: 70a9 66bd eb05 a43c 8f71 b23d fe82 4a3d
00000030: 72dc a0bd ae4b 7e3d 272a 803d b3c8 2f3d
00000040: 3366 e03a 8052 7f3b 2e1f 2c3d f1d2 173d
00000050: 5657 4ebd 5532 063c 8936 5fbd b0bd 18bc
00000060: 6ad5 da3b e0ce c0bb 5dbd a5bd ec8a 7d3d
00000070: c1e6 ffbc 08d8 203d aa91 0cbd 98fd 85bd
00000080: bbea 123d 2dec 863d b2c5 853c 7a7d e13c
00000090: 3724 50bd fae1 52bd a6a3 cbbb 1fb8 52bd
000000a0: e04c 0abd afc6 50bd a88a 083d 9dbd 8dbb
000000b0: c84a 37bc b222 143d 4071 b73b f784 6f3d
000000c0: 63fa 8c3d 8cff e1bc 2887 933c 9fbf bd3d
000000d0: b04f 80bc e3d8 5bbc d0c3 b13c 844e cdbb
000000e0: d871 03bc 8aa6 8b3d 4c51 9bbc e42d 9439
000000f0: 89d2 f2bc f134 b83d b085 c4bc c74a 99bc
00000100: 94b0 d73c 55ed bcbb 5992 083d 0275 be3d
00000110: 4344 a73d 3652 913d 5fa1 123d 80e9 9a3b
00000120: c73d a83c 270f ecb8 9a07 f43b cb98 efbc
00000130: 57b5 eabb 8259 14bd 0a36 023c baef 09bc
00000140: a347 e83b 1803 4dbc f412 3c3d 7c87 16bc
00000150: 7274 e33c 2b88 323c 32bb c3bb 7585 873d
00000160: 9f67 a63d 91ad 6cbd 7a1f 30bd 1e3e 54bd
00000170: 9994 e0bc 7647 58bd a0e2 4cbc 8294 1f3d
00000180: 5101 03bd e852 dcbc fc83 853d b67b c13d
00000190: 25ca 43bd 8226 09bd 7eb1 6f3d d544 673c
000001a0: 606a d93d 4bd8 0cbd 9b09 f53c 34b3 3b3b
000001b0: 14cd 72bc 6bbc 14ba e991 a73b 980a ed3c
000001c0: ad01 863d bf7e d33c 822d b4bc 662b 0f3d
000001d0: b258 b53d d744 bebc ca65 5f37 404d 9bbb
000001e0: e395 dbb9 fe9c e9bc 673b 8abd 182b 903c
000001f0: 34c0 4b3c e8c6 4b3c 0b6e 1b3c de9b 3e3d
00000200: 1c57 ef3c 188a 2dbd 20b9 54bc 8a3e 1c3d
00000210: 1cd1 d53c 8836 923d 6d1c 563d f143 c03b
00000220: 32cb d93d 7006 cf3d 3484 163c 726a 79bd
00000230: c2be 4ab9 2352 c83c d0cc 973b 9652 7b3d
00000240: 0e42 aa3b eec0 03bd 9ca5 3abd 5c0e 433d
00000250: 4c32 e93c 1034 bb3c c48d 233c b0d1 77bc
00000260: ab98 69bd 7e6c 27bd bc6d 393d c4d4 043d
00000270: 4453 84bd d82e 903c a58c 5e3c b7a3 12bd
00000280: 374f cebb fdc0 2ebc a203 3ebb a17d df3c
00000290: c156 00bd de2c 0dbd 24ca 34bd d6ea 783d
000002a0: 3b67 043d 636f 30bd da11 583c e7e2 c53c
000002b0: ec0b b9bc 409e f5bc 2a4f 703d 33e6 a33d
000002c0: 498d 433c aeb0 65bd 9a5c 473d 6487 933c
000002d0: da68 cf3b 393a e3bc b590 f3bc a841 1fbd
000002e0: 95d0 46bc 60fd b2bb 420e fa3d a0cb 98bc
000002f0: a170 1a3d 3762 87bd 30c7 ea3b 77d2 ffbc
00000300: 3b62 323e 9bf3 343d 9efc 033d 8367 15bc
00000310: b387 903c 6613 2abd 6355 16bd 70a4 b83b
00000320: 2f83 713d 1b8a af3d e875 5f3c d92e 21bd
00000330: 9618 433d 732a 78bc a012 b83b 2804 a03c
00000340: 9ed1 623d 6522 f2bc 1f9a b3bc 5a7f 39bd
00000350: c1bb 7d3d aca3 0fbd d2fc 073d d00c 7e3d
00000360: a28f 793d f38b a0bc 903f 85bd 205a 243c
00000370: 12f2 3c3d 152f 0b3d 59db 36bc e0a4 8abc
00000380: 5253 5a3b c966 80bd 3796 dbbc bdf3 a63b
00000390: ce77 5f3d 4636 bbbd 6683 1ebd fd19 383d
000003a0: b3ec 453d d294 4e3d 5f1f 413d 20cb 3ebc
000003b0: 9d0b 953c abed d33c 0b54 d83c 7a1f 1bbd
000003c0: fbe7 6c3c 7db5 83bd 05fc e73d 130d ad3c
000003d0: 23c1 463d f3e5 553d b6e0 46bc aecc 843c
000003e0: 84fc c63b b1c5 f0bc 9a68 223d 7c71 d03b
000003f0: 92ab 313c 2388 463d 18eb 763c b874 3c3d

policy_network.6.bias f4 [128]
-0.030712873 -0.06589007 -0.010783307 -0.019729173 0.028905261 -0.06400558 -0.05011264 0.03188512
0.0071540447 -0.0060068322 0.032069277 0.039065897 -0.046723735 -0.017347198 0.022182617 -0.047354415
0.0151403705 -0.061472554 -0.03554471 -0.06797746 -0.021848867 -0.031563424 -0.056889243 -0.021315314
0.036482092 0.033363223 -0.053615518 0.025525559 -0.039707333 0.0006229617 0.03583745 -0.06295697
-0.04387827 0.038286794 -0.061658584 0.029294072 -0.05460045 0.03349776 0.025701474 -0.05279963
0.01384447 -0.009321016 -0.084446475 0.0020350805 -0.011127541 -0.038418636 -0.053051185 -0.009600249
-0.027171254 -0.036621097 -0.06296258 0.008713506 -0.013905139 -0.05786667 -0.0029036566 0.04720963
0.015972191 0.018424945 -0.009873686 0.019898761 -0.024876412 0.0329098 -0.057846814 -0.06565959
-0.049834415 0.009339573 -0.030848937 -0.061451662 -0.04971278 -0.050497085 -0.033240944 0.0052521606
0.023686145 0.052343484 0.0013894566 -0.06902098 -0.003874753 -0.06205637 0.039440867 0.023748552
-0.021977821 -0.024976913 0.0019849339 -0.059635416 -0.0035948195 -0.046788026 -0.017925164 0.022042274
-0.011486248 -0.028210884 -0.0059115547 0.0054771975 0.014769916 0.01160803 0.016691046 -0.02535774
-0.04284675 -0.04051833 -0.020244034 -0.038073312 -0.0331234 -0.06332164 0.06005408 0.055212997
-0.071680784 0.04435884 0.039621115 0.024641007 0.0005405027 -0.016606918 -0.050676126 -0.072013155
-0.033243038 0.004555094 0.014977005 -0.041560214 -0.028233318 -0.015366816 0.050163973 -0.0538013
0.0020082954 0.027850565 -0.031703524 0.05092779 -0.018778268 0.0033199606 0.023232814 0.03983701
00000000: 9099 fbbc 5ff1 86bd 78ac 30bc 139f a1bc
00000010: baca ec3c 5c15 83bd e942 4dbd f999 023d
00000020: 7a6c ea3b f6d4 c4bb 135b 033d 9003 203d
00000030: 6361 3fbd b61b 8ebc 52b8 b53c b4f6 41bd
00000040: 510f 783c a5ca 7bbd 5497 11bd c437 8bbd
00000050: 65fc b2bc a648 01bd b204 69bd 749d aebc
00000060: 3f6e 153d e0a7 083d f29b 5bbd fa1a d13c
00000070: 28a4 22bd 414e 233a 4aca 123d 95ef 80bd
00000080: b3b9 33bd 9dd2 1c3d b68d 7cbd 1ffa ef3c
00000090: b9a4 5fbd f234 093d e68b d23c 6d44 58bd
000000a0: ead3 623c 2db7 18bc 46f2 acbd fc5e 053b
000000b0: 4a50 36bc dc5c 1dbd 334c 59bd 5d4a 1dbc
000000c0: 4096 debc 0100 16bd 86f2 80bd 18c3 0e3c
000000d0: 61d2 63bc 9a05 6dbd 464b 3ebb e35e 413d
000000e0: 1dd8 823c e9ef 963c 3ec5 21bc ba02 a33c
000000f0: 9ec9 cbbc 6dcc 063d c8f0 6cbd 8978 86bd
00000100: 2c1f 4cbd 0205 193c e9b6 fcbc bdb4 7bbd
00000110: a19f 4bbd 08d6 4ebd a827 08bd 511a ac3b
00000120: 7209 c23c 1f66 563d 6d1e b63a df5a 8dbd
00000130: 91ef 7dbb d22e 7ebd bf8c 213d 538c c23c
00000140: d50a b4bc 629c ccbc aa15 023b 4444 74bd
00000150: 1097 6bbb cda4 3fbd cbd7 92bc 0092 b43c
00000160: d130 3cbc 831a e7bc b7b5 c1bb 107a b33b
00000170: 85fd 713c 9b2f 3e3c a9bb 883c 09bb cfbc
00000180: 1380 2fbd 8cf6 25bd d1d6 a5bc c3f2 1bbd
00000190: 67ac 07bd c7ae 81bd 44fb 753d 0627 623d
000001a0: 60cd 92bd 9db1 353d c049 223d f0db c93c
000001b0: 86b0 0d3a 3b0b 88bc c591 4fbd a27b 93bd
000001c0: da29 08bd e642 953b 1d62 753c 0b3b 2abd
000001d0: 8f49 e7bc 19c5 7bbc bd78 4d3d c05e 5cbd
000001e0: 9b9d 033b de26 e43c 8edb 01bd a999 503d
000001f0: e2d4 99bc b293 593b be52 be3c 222c 233d

policy_network.9.weight f4 [7, 128]
0.04000374 -0.030993342 0.06797914 0.0756098 -0.015080756 -0.069649376 0.016540581 -0.058509782
-0.039214674 -0.04359474 -0.025988502 -0.05919738 0.0027023186 -0.074906476 -0.08798896 0.026952468
-0.011290918 0.01645047 -0.078515776 0.05549361 -0.013913112 0.077421166 -0.076628275 -0.07342858
0.049319357 0.02536513 0.058225967 -0.009283316 -0.07546639 -0.032376133 -0.012116483 0.08794645
-0.07678636 -0.030619357 -0.0137458835 -0.05232834 0.067495406 -0.074027054 0.031842925 -0.0792644
0.0113820145 -0.032765362 0.014496436 0.06512868 5.8041816e-05 -0.061655007 -0.051884595 -0.0077049066
0.03593704 -0.038887206 0.05346337 -0.0526892 -0.004421611 -0.07297069 0.008017746 0.04985803
0.05461882 0.07205925 0.009548241 0.07074971 -0.053315636 0.064285204 -0.06685557 0.05576994
0.024289807 -0.03470989 -0.020684121 0.010965064 0.047077507 0.034708392 0.02733923 -0.046868544
0.057910696 -0.0062292814 0.009530327 0.04924106 -0.0061504347 0.05940181 -0.0627298 -0.0010021594
-0.011382801 0.00021514075 -0.017282058 0.010258795 0.020512352 0.021556797 -0.059307564 0.036263958
0.0076117353 0.031577263 -0.044454485 -0.011422498 0.07793073 -0.027967626 -0.040014375 -0.063484475
-0.038299423 0.04507841 0.049984116 -0.02459426 -0.012256713 0.06678164 -0.020310523 -0.021598786
0.0052400385 -0.050568175 0.049506646 0.06332429 -0.049434356 -0.061772607 -0.03785453 -0.04767309
0.024107682 -0.065008335 0.0034358676 -0.060949046 -0.07064529 -0.07307268 0.06408985 -0.016940719
0.03329963 -0.055846028 0.042418256 -0.012034737 -0.004561229 -0.07154385 0.06625863 -0.036001816
-0.011812359 0.00037787357 0.049048442 0.020840764 0.05072632 -0.038859762 0.078534275 -0.06696283
0.07868082 0.033240132 -0.05207636 0.045049887 -0.0019871877 -0.065641895 0.018783078 -0.00040862223
-0.03546399 -0.006412273 -0.04994829 -0.032263048 -0.013007885 0.051738754 0.0007936867 0.052150622
-0.0019138937 -0.029185064 -0.03892771 -0.05710756 -0.07556808 0.015198321 -0.005198601 0.04010919
-0.013225189 0.048831962 -0.06427507 -0.0132442145 -0.049042616 -0.044227634 -0.012773526 0.03221666
-0.0114152795 0.071713105 0.020235581 0.0835932 0.019908104 -0.06356917 0.087325655 0.011903884
0.03647075 0.027977891 0.02536038 -0.068998426 -0.046094723 0.0695273 0.025559485 -0.034171153
0.057731524 0.015542919 -0.0013522294 -0.054909006 0.025940489 0.044113424 0.055479094 -0.018223923
-0.0663747 0.016080912 0.02290979 0.04644863 -0.030979116 0.0568039 0.0031811444 -0.047692463
0.010915646 0.009828258 -0.062286668 -0.00031139693 0.0059121763 0.06295268 -0.043583326 0.00061056454
-0.00247081 -0.013728536 0.0008347167 -0.065329835 0.035772067 -0.07649931 -0.046215486 -0.013484598
0.012266953 0.027665844 0.062036674 -0.002525748 0.03247654 0.03880794 -0.0065883147 -0.015041659
0.049151532 -0.05451111 -0.007995771 -0.08006574 -0.007628929 0.0750979 0.007745967 0.033934794
-0.0035624343 0.0017224225 -0.060469307 0.04990155 -0.05848308 -0.017337663 0.077124104 -0.009394424
-0.008051035 -0.045700636 -0.078632295 0.017979424 -0.089553565 0.0027317116 -0.048434027 0.022827094
0.017199527 0.0002434908 0.0035026616 0.0055321553 -0.02180257 0.015133697 -0.006341146 0.06046236
00000000: f6da 233d c0e5 fdbc a638 8b3d 50d9 9a3d
00000010: 4615 77bc 55a4 8ebd 1d80 873c f4a7 6fbd
00000020: 919f 20bd 6690 32bd d7e5 d4bc f478 72bd
00000030: 6219 313b 9168 99bd 8e33 b4bd 6ccb dc3c
00000040: 8bfd 38bc 23c3 863c e1cc a0bd 454d 633d
00000050: d2f3 63bc fd8e 9e3d 49ef 9cbd b961 96bd
00000060: 1803 4a3d 88ca cf3c 5a7e 6e3d 0d19 18bc
00000070: 1f8e 9abd d69c 04bd 3784 46bc 451d b43d
00000080: 2b42 9dbd 72d5 fabc 6a36 61bc 3e56 56bd
00000090: 083b 8a3d 7f9b 97bd ba6d 023d 6055 a2bd
000000a0: a17b 3a3c f934 06bd 7682 6d3c 2f62 853d
000000b0: ed71 7338 f689 7cbd f184 54bd 7179 fcbb
000000c0: b832 133d 3148 1fbd 68fc 5a3d a1d0 57bd
000000d0: 29e3 90bb a871 95bd dd5c 033c ef37 4c3d
000000e0: fcb7 5f3d cd93 933d 3a70 1c3c 39e5 903d
000000f0: 7f61 5abd f6a7 833d 93eb 88bd 056f 643d
00000100: 6bfb c63c f52b 0ebd bf71 a9bc d0a6 333c
00000110: 58d4 403d 632a 0e3d 85f6 df3c 3bf9 3fbd
00000120: c433 6d3d 001f ccbb 1725 1c3c feb0 493d
00000130: 9689 c9bb 504f 733d 7b78 80bd e45a 83ba
00000140: ee7e 3abc 6897 6139 1a93 8dbc 8114 283c
00000150: 8509 a83c e197 b03c 7dec 72bd 8489 143d
00000160: dd6b f93b 2957 013d e815 36bd 6e25 3bbc
00000170: 269a 9f3d 5d1c e5bc 1de6 23bd 2604 82bd
00000180: dbdf 1cbd 24a4 383d 25bc 4c3d e779 c9bc
00000190: 61d0 48bc d0c4 883d 4162 a6bc f0ef b0bc
000001a0: a1b4 ab3b 9320 4fbd 7bc7 4a3d 2ab0 813d
000001b0: ae7b 4abd 4605 7dbd 5a0d 1bbd dc44 43bd
000001c0: 797d c53c 1723 85bd 4b2c 613b b5a5 79bd
000001d0: 7aae 90bd 21a7 95bd 8a41 833d 43c7 8abc
000001e0: 3165 083d cebe 64bd c4be 2d3d 582d 45bc
000001f0: 5d76 95bb 9585 92bd 9bb2 873d a476 13bd
00000200: a088 41bc 551d c639 05e7 483d 40ba aa3c
00000210: 67c6 4f3d 6a2b 1fbd 94d6 a03d cf23 89bd
00000220: 6923 a13d ce26 083d 054e 55bd 3b86 383d
00000230: 7a3b 02bb 426f 86bd f8de 993c 593c d6b9
00000240: b042 11bd 0b1e d2bb 9496 4cbd 4226 04bd
00000250: 061f 55bc 04ec 533d 6a0f 503a e49b 553d
00000260: 9edb faba 8415 efbc aa72 1fbd 9ee9 69bd
00000270: 70c3 9abd 6102 793c 0759 aabb 8949 243d
00000280: 77ae 58bc 0604 483d a6a2 83bd 43fe 58bc
00000290: e9e0 48bd 0928 35bd 0d48 51bc 9ef5 033d
000002a0: 2707 3bbc 52de 923d 17c5 a53c e932 ab3d
000002b0: 5216 a33c 8e30 82bd cbd7 b23d 8208 433c
000002c0: 5a62 153d e431 e53c 92c0 cf3c 0c4f 8dbd
000002d0: d2cd 3cbd 5464 8e3d 2062 d13c 0df7 0bbd
000002e0: e477 6c3d baa7 7e3c 4a3d b1ba 44e8 60bd
000002f0: 2681 d43c 47b0 343d 0c3e 633d 564a 95bc
00000300: 75ef 87bd 1ebc 833c 50ad bb3c eb40 3e3d
00000310: eac7 fdbc 35ab 683d bf7a 503b 2c59 43bd
00000320: 8ad7 323c b406 213c 4e20 7fbd fd42 a3b9
00000330: eeba c13b 56ed 803d 6e84 32bd 4b0e 203a
00000340: 50ed 21bb a7ed 60bc e4d0 5a3a a6cb 85bd
00000350: bb85 123d acab 9cbd 734c 3dbd 81ee 5cbc
00000360: 54fb 483c 7ba3 e23c 2b1a 7e3d 0587 25bb
00000370: 1f06 053d 13f5 1e3d cae2 d7bb 4a71 76bc
00000380: 1e53 493d 0b47 5fbd b200 03bc 82f9 a3bd
00000390: 18fc f9bb eecc 993d e1d1 fd3b 36ff 0a3d
000003a0: bb77 69bb e9c2 e13a aaae 77bd 9165 4c3d
000003b0: f48b 6fbd b707 8ebc 3ef3 9d3d 12eb 19bc
000003c0: 7de8 03bc 9730 3bbd f809 a1bd 9649 933c
000003d0: dc67 b7bd 8406 333b c262 46bd e3ff ba3c
000003e0: 06e6 8c3c 9051 7f39 e98c 653b 1547 b53b
000003f0: 4e9b b2bc 53f3 773c 63c9 cfbb 61a7 773d

policy_network.9.bias f4 [7]
0.00879159 0.0019119593 -0.0024721175 -0.00013867246 -0.00036984254 0.003786933 0.034999184
00000000: 9a0a 103c b59a fa3a 4003 22bb 9b68 11b9
00000010: 6de7 c1b9 312e 783b 4e5b 0f3d

exp_avg f4 [128, 15]
5.070736e-05 1.8732997e-05 -3.300798e-05 3.762369e-05 2.2840193e-05 -4.219367e-05 -6.6359344e-06 5.816804e-07
1.2223909e-06 -1.0653593e-05 -9.804181e-06 -3.3213527e-07 -3.3876876e-07 -1.7201017e-06 -1.1133652e-06 -9.357775e-06
-4.4948306e-06 7.2237804e-06 -7.688628e-06 -4.910027e-06 1.0282331e-05 1.1572697e-06 5.584905e-07 -8.5075726e-08
2.2247375e-06 2.1805529e-06 2.674552e-10 4.6437407e-08 -5.3951857e-07 -4.0885854e-07 -4.834518e-06 -1.4217892e-06
3.5425478e-06 -4.9766077e-06 -3.202231e-06 7.5902194e-06 9.877815e-07 6.494511e-07 -3.0180848e-07 1.5198157e-06
1.1686637e-06 -1.09539755e-07 7.035449e-08 -7.295468e-07 -5.5864213e-08 0.0 0.0 0.0
0.0 0.0 0.0 0.0 0.0 0.0 0.0 0.0
0.0 0.0 0.0 0.0 2.515914e-05 9.07531e-06 -1.6606651e-05 2.0097033e-05
1.2986221e-05 -2.633584e-05 -3.9454426e-06 -6.899646e-07 7.601325e-07 -6.0889524e-06 -5.124272e-06 6.049405e-08
-2.9824074e-07 -3.719532e-07 -7.4068146e-07 0.0 0.0 0.0 0.0 0.0
0.0 0.0 0.0 0.0 0.0 0.0 0.0 0.0
0.0 0.0 -6.222088e-06 -2.2958804e-06 3.4742707e-06 -3.830428e-06 -2.5482295e-06 3.9967654e-06
8.075378e-07 -2.7291705e-07 -6.5658455e-08 1.1276895e-06 1.1650006e-06 5.4600967e-08 4.8695565e-08 -5.5877457e-08
6.8115476e-08 0.0 0.0 0.0 0.0 0.0 0.0 0.0
0.0 0.0 0.0 0.0 0.0 0.0 0.0 0.0
0.0 0.0 0.0 0.0 0.0 0.0 0.0 0.0
0.0 0.0 0.0 0.0 0.0 0.0 0.0 0.0
0.0 0.0 0.0 0.0 0.0 0.0 0.0 0.0
0.0 0.0 0.0 0.0 0.0 0.0 -6.480568e-06 -2.5975094e-06
4.131997e-06 -4.5065776e-06 -2.8540812e-06 4.9592954e-06 8.0700954e-07 -6.7077565e-08 -6.2175744e-08 1.2219003e-06
1.3859445e-06 3.732301e-08 2.285866e-08 1.3053075e-07 2.4365633e-07 0.0 0.0 0.0
0.0 0.0 0.0 0.0 0.0 0.0 0.0 0.0
0.0 0.0 0.0 0.0 0.0 0.0 0.0 0.0
0.0 0.0 0.0 0.0 0.0 0.0 0.0 0.0
0.0 0.0 0.0 0.0 0.0 0.0 0.0 0.0
0.0 0.0 0.0 0.0 0.0 0.0 0.0 0.0
0.0 0.0 -2.6844982e-06 -9.570944e-07 2.0109494e-06 -2.7347467e-06 -1.6686236e-06 4.2414017e-06
5.3557153e-07 4.375157e-07 -1.6361004e-07 8.2861635e-07 6.777675e-07 -8.906468e-09 -1.4484227e-08 5.164516e-08
-5.515047e-08 0.0 0.0 0.0 0.0 0.0 0.0 0.0
0.0 0.0 0.0 0.0 0.0 0.0 0.0 0.0
-6.0839834e-06 -2.3701384e-06 3.9743927e-06 -4.508281e-06 -2.8723935e-06 5.6731983e-06 8.6509743e-07 3.39219e-08
-1.4534382e-07 1.3944799e-06 1.143063e-06 3.219907e-08 5.4718075e-08 5.766131e-07 4.868358e-07 -1.2119844e-05
00000000: 9dae 5438 ce24 9d37 0c72 0ab8 21ce 1d38
00000010: f198 bf37 1cf9 30b8 3eaa deb6 c624 1c35
00000020: 0811 a435 d5bc 32b7 a37c 24b7 5350 b2b4
00000030: 06e0 b5b4 3fde e6b5 f06e 95b5 56ff 1cb7
00000040: 4dd2 96b6 cd63 f236 68fe 00b7 d0c0 a4b6
00000050: 4682 2c37 7c53 9b35 2deb 1535 e0b2 b6b3
00000060: b34c 1536 9d55 1236 f908 932f 7872 4733
00000070: 6fd3 10b5 1781 dbb4 3238 a2b6 4ed4 beb5
00000080: 82bc 6d36 bcfc a6b6 e9e5 56b6 7daf fe36
00000090: ea93 8435 f155 2e35 3e08 a2b4 78fc cb35
000000a0: fbda 9c35 1e3c ebb3 ca15 9733 13d6 43b5
000000b0: 5aef 6fb3 0000 0000 0000 0000 0000 0000
000000c0: 0000 0000 0000 0000 0000 0000 0000 0000
000000d0: 0000 0000 0000 0000 0000 0000 0000 0000
000000e0: 0000 0000 0000 0000 0000 0000 0000 0000
000000f0: d70c d337 2942 1837 834e 8bb7 0d96 a837
00000100: 65df 5937 c9eb dcb7 1863 84b6 0236 39b5
00000110: e80b 4c35 b44f ccb6 29f1 abb6 f5e8 8133
00000120: e51d a0b4 dcb0 c7b4 3ed3 46b5 0000 0000
00000130: 0000 0000 0000 0000 0000 0000 0000 0000
00000140: 0000 0000 0000 0000 0000 0000 0000 0000
00000150: 0000 0000 0000 0000 0000 0000 0000 0000
00000160: 0000 0000 0000 0000 54c7 d0b6 ed12 1ab6
00000170: 8427 6936 2087 80b6 4002 2bb6 f41b 8636
00000180: 93c5 5835 6f85 92b4 1e00 8db3 1e5b 9735
00000190: 1e5d 9c35 6682 6a33 5725 5133 eafd 6fb3
000001a0: e146 9233 0000 0000 0000 0000 0000 0000
000001b0: 0000 0000 0000 0000 0000 0000 0000 0000
000001c0: 0000 0000 0000 0000 0000 0000 0000 0000
000001d0: 0000 0000 0000 0000 0000 0000 0000 0000
000001e0: 0000 0000 0000 0000 0000 0000 0000 0000
000001f0: 0000 0000 0000 0000 0000 0000 0000 0000
00000200: 0000 0000 0000 0000 0000 0000 0000 0000
00000210: 0000 0000 0000 0000 0000 0000 0000 0000
00000220: 0000 0000 0000 0000 0000 0000 0000 0000
00000230: 0000 0000 0000 0000 0000 0000 0000 0000
00000240: 0000 0000 0000 0000 0000 0000 0000 0000
00000250: 0000 0000 0000 0000 a873 d9b6 df50 2eb6
00000260: 95a5 8a36 3537 97b6 be88 3fb6 0668 a636
00000270: 46a1 5835 480c 90b3 7a85 85b3 2d00 a435
00000280: b104 ba35 154d 2033 ba5a c432 0528 0c34
00000290: dfcf 8234 0000 0000 0000 0000 0000 0000
000002a0: 0000 0000 0000 0000 0000 0000 0000 0000
000002b0: 0000 0000 0000 0000 0000 0000 0000 0000
000002c0: 0000 0000 0000 0000 0000 0000 0000 0000
000002d0: 0000 0000 0000 0000 0000 0000 0000 0000
000002e0: 0000 0000 0000 0000 0000 0000 0000 0000
000002f0: 0000 0000 0000 0000 0000 0000 0000 0000
00000300: 0000 0000 0000 0000 0000 0000 0000 0000
00000310: 0000 0000 0000 0000 0000 0000 0000 0000
00000320: 0000 0000 0000 0000 0000 0000 0000 0000
00000330: 0000 0000 0000 0000 0000 0000 0000 0000
00000340: 0000 0000 0000 0000 5427 34b6 8375 80b5
00000350: d9f3 0636 9786 37b6 78f5 dfb5 5d51 8e36
00000360: 32c4 0f35 b3e3 ea34 c9ac 2fb4 156e 5e35
00000370: d4ef 3535 0f03 19b2 4ed6 78b2 74d0 5d33
00000380: 95de 6cb3 0000 0000 0000 0000 0000 0000
00000390: 0000 0000 0000 0000 0000 0000 0000 0000
000003a0: 0000 0000 0000 0000 0000 0000 0000 0000
000003b0: 0000 0000 0000 0000 0000 0000 0000 0000
000003c0: 0525 ccb6 ab0e 1fb6 c65b 8536 d745 97b6
000003d0: 58c3 40b6 675c be36 0b39 6835 86b1 1133
000003e0: ce0f 1cb4 f729 bb35 586b 9935 404b 0a33
000003f0: 2903 6b33 8dc8 1a35 1aaf 0235 5556 4bb7

exp_avg_sq f4 [128, 15]
3.434038e-08 4.6348214e-09 1.5032304e-08 2.1656236e-08 8.873367e-09 3.586872e-08 8.300979e-10 1.0884736e-10
3.650868e-11 1.7547962e-09 1.7598116e-09 4.143518e-12 3.1410942e-12 4.784538e-11 1.2358825e-11 3.0469791e-09
4.4451196e-10 1.3083881e-09 1.708798e-09 6.890135e-10 2.4902562e-09 5.859074e-11 4.424268e-12 2.0858807e-12
1.367414e-10 1.4078325e-10 2.2183084e-13 1.5402949e-13 1.2871157e-11 4.063177e-12 3.0965903e-09 4.0756598e-10
1.3128675e-09 1.902785e-09 7.783537e-10 3.1496943e-09 7.54188e-11 9.470275e-12 3.238626e-12 1.568816e-10
1.5473782e-10 4.2179438e-13 2.5617355e-13 8.61052e-12 2.8273913e-12 0.0 0.0 0.0
0.0 0.0 0.0 0.0 0.0 0.0 0.0 0.0
0.0 0.0 0.0 0.0 2.5060102e-08 3.423754e-09 1.1151379e-08 1.6068e-08
6.5409753e-09 2.6636958e-08 6.060602e-10 7.9339535e-11 2.8022295e-11 1.2936656e-09 1.3001928e-09 2.4976258e-12
2.0685777e-12 3.218504e-11 1.7792582e-11 0.0 0.0 0.0 0.0 0.0
0.0 0.0 0.0 0.0 0.0 0.0 0.0 0.0
0.0 0.0 2.203082e-09 3.0867334e-10 9.457661e-10 1.2757028e-09 5.157636e-10 1.9136424e-09
4.539324e-11 3.959502e-12 1.7910579e-12 1.021418e-10 1.0419175e-10 1.962731e-13 1.181343e-13 8.878082e-12
3.854254e-12 0.0 0.0 0.0 0.0 0.0 0.0 0.0
0.0 0.0 0.0 0.0 0.0 0.0 0.0 0.0
0.0 0.0 0.0 0.0 0.0 0.0 0.0 0.0
0.0 0.0 0.0 0.0 0.0 0.0 0.0 0.0
0.0 0.0 0.0 0.0 0.0 0.0 0.0 0.0
0.0 0.0 0.0 0.0 0.0 0.0 2.1726836e-09 3.3077857e-10
9.608407e-10 1.2571668e-09 5.1041565e-10 1.9076432e-09 4.327795e-11 3.3390515e-12 1.5186237e-12 1.0114795e-10
1.0368108e-10 1.7727546e-13 1.0142169e-13 5.2654946e-12 3.5556124e-12 0.0 0.0 0.0
0.0 0.0 0.0 0.0 0.0 0.0 0.0 0.0
0.0 0.0 0.0 0.0 0.0 0.0 0.0 0.0
0.0 0.0 0.0 0.0 0.0 0.0 0.0 0.0
0.0 0.0 0.0 0.0 0.0 0.0 0.0 0.0
0.0 0.0 0.0 0.0 0.0 0.0 0.0 0.0
0.0 0.0 2.7546205e-09 4.0075085e-10 1.21204e-09 1.607331e-09 6.5266725e-10 2.4364335e-09
5.450067e-11 5.0944518e-12 2.153377e-12 1.2805414e-10 1.328413e-10 1.875633e-13 1.7394799e-13 1.0634351e-11
5.6828544e-12 0.0 0.0 0.0 0.0 0.0 0.0 0.0
0.0 0.0 0.0 0.0 0.0 0.0 0.0 0.0
3.4820138e-09 5.0791615e-10 1.5387889e-09 2.0861277e-09 8.4185314e-10 3.29297e-09 7.4429934e-11 7.042516e-12
2.7247276e-12 1.689718e-10 1.7079357e-10 2.8292922e-13 1.8531064e-13 8.452427e-12 4.497076e-12 3.0283518e-09
00000000: a67d 1333 5240 9f31 6320 8132 9106 ba32
00000010: 7b71 1832 130e 1a33 f22c 6430 9e5b ef2e
00000020: 1f91 202e 672d f130 dedd f130 7ec9 912c
00000030: ec08 5d2c 1c6d 522e 336b 592d 0663 5131
00000040: 7f5f f42f d0d2 b330 fcda ea30 0465 3d30
00000050: 0d21 2b31 a8d7 802e 43aa 9b2c e3c7 122c
00000060: 4859 162f f6ca 1a2f 63c2 792a fa6b 2d2a
00000070: 8a6e 622d d8f5 8e2c cbcb 5431 d00f e02f
00000080: 6b70 b430 26c2 0231 c6f3 5530 0272 5831
00000090: 03d9 a52e 549a 262d e6e5 632c 3f7e 2c2f
000000a0: d322 2a2f fa72 ed2a 8036 902a 567a 172d
000000b0: c1f5 462c 0000 0000 0000 0000 0000 0000
000000c0: 0000 0000 0000 0000 0000 0000 0000 0000
000000d0: 0000 0000 0000 0000 0000 0000 0000 0000
000000e0: 0000 0000 0000 0000 0000 0000 0000 0000
000000f0: bf43 d732 5147 6b31 4994 3f32 e805 8a32
00000100: 07bf e031 4acf e432 b297 2630 3078 ae2e
00000110: 997c f62d d0cc b130 78b2 b230 3ac1 2f2c
00000120: 2f90 112c 228d 0d2e 5581 9c2d 0000 0000
00000130: 0000 0000 0000 0000 0000 0000 0000 0000
00000140: 0000 0000 0000 0000 0000 0000 0000 0000
00000150: 0000 0000 0000 0000 0000 0000 0000 0000
00000160: 0000 0000 0000 0000 0765 1731 e9b1 a92f
00000170: 30fc 8130 cd54 af30 a3c5 0d30 2781 0331
00000180: 3fa4 472e 0650 8b2c a911 fc2b b99c e02e
00000190: be1e e52e dffb 5c2a e501 052a 542f 1c2d
000001a0: 099c 872c 0000 0000 0000 0000 0000 0000
000001b0: 0000 0000 0000 0000 0000 0000 0000 0000
000001c0: 0000 0000 0000 0000 0000 0000 0000 0000
000001d0: 0000 0000 0000 0000 0000 0000 0000 0000
000001e0: 0000 0000 0000 0000 0000 0000 0000 0000
000001f0: 0000 0000 0000 0000 0000 0000 0000 0000
00000200: 0000 0000 0000 0000 0000 0000 0000 0000
00000210: 0000 0000 0000 0000 0000 0000 0000 0000
00000220: 0000 0000 0000 0000 0000 0000 0000 0000
00000230: 0000 0000 0000 0000 0000 0000 0000 0000
00000240: 0000 0000 0000 0000 0000 0000 0000 0000
00000250: 0000 0000 0000 0000 414e 1531 f2d8 b52f
00000260: 940e 8430 a0c8 ac30 4f4d 0c30 9d17 0331
00000270: a456 3e2e 01f7 6a2c 2fba d52b 3c6d de2e
00000280: 42ff e32e 2c98 472a a061 e429 5c43 b92c
00000290: 3834 7a2c 0000 0000 0000 0000 0000 0000
000002a0: 0000 0000 0000 0000 0000 0000 0000 0000
000002b0: 0000 0000 0000 0000 0000 0000 0000 0000
000002c0: 0000 0000 0000 0000 0000 0000 0000 0000
000002d0: 0000 0000 0000 0000 0000 0000 0000 0000
000002e0: 0000 0000 0000 0000 0000 0000 0000 0000
000002f0: 0000 0000 0000 0000 0000 0000 0000 0000
00000300: 0000 0000 0000 0000 0000 0000 0000 0000
00000310: 0000 0000 0000 0000 0000 0000 0000 0000
00000320: 0000 0000 0000 0000 0000 0000 0000 0000
00000330: 0000 0000 0000 0000 0000 0000 0000 0000
00000340: 0000 0000 0000 0000 cc4b 3d31 ab50 dc2f
00000350: de94 a630 efe8 dc30 6067 3330 316e 2731
00000360: 4db2 6f2e be3e b32c cb87 172c 09cc 0c2f
00000370: 800f 122f 712d 532a 18d9 432a dc14 3b2d
00000380: 9af2 c72c 0000 0000 0000 0000 0000 0000
00000390: 0000 0000 0000 0000 0000 0000 0000 0000
000003a0: 0000 0000 0000 0000 0000 0000 0000 0000
000003b0: 0000 0000 0000 0000 0000 0000 0000 0000
000003c0: 3c48 6f31 6c9d 0b30 527d d330 8c5b 0f31
000003d0: 2668 6730 8a4a 6231 54ac a32e 58c9 f72c
000003e0: 54bc 3f2c 55c9 392f 1eca 3b2f 6646 9f2a
000003f0: 28a4 502a 59b2 142d 0f3a 9e2c 541b 5031
