robot_state_berkeley_training/robot_state_epoch_18.pth (torch, 838065 bytes, 24 tensors)

policy_network.0.weight f4 [128, 15]
00000000: feb4 60bd e4fe 1abd ad81 683e 7e53 053e
00000010: afce ef3d f681 0d3c 95ee db3d 00fe 80bd
00000020: 3e42 6b3e bf20 583e f8d0 0ebe b86e 2c3f
00000030: ad3a f03d 1a67 a83e 9c75 b83e 0a7e de3d
00000040: 95cc 4f3e 043a e0bd cd14 4dbe 15e5 4dbd
00000050: da23 e73d 764d df3d 727d 04be 2d55 29bf
00000060: e902 25bd 4bae 12be 4d17 023e e097 9ebe
00000070: c021 753e fcfa e3bc b77d ab3c 1f87 90bd
00000080: cf1e 7ebe 3828 9f3d a040 e6bc 4434 033e
00000090: 8fdc 363e c98e 803e db9a a43e 7599 25be
000000a0: 47a2 803e f44c 24be 6369 ddbc 869d 593e
000000b0: 5e1b 4fbe 7dca 453e cc0a 05be 5d2d 54bd
000000c0: 5aa1 c3bd c978 04be 0089 41be c932 073c
000000d0: b085 383e ebc2 6f3e 31cb 73bd fa5c 7cbd
000000e0: ee07 123e 918d 85bd 91ce 903d 186a d1bb
000000f0: 768a 9f3d a958 043c 533f 443e 60bc 6fbe
00000100: 626c bd3b 9143 88be 302b 733d 36f9 0ebd
00000110: a526 92be d912 c13d a574 febd b957 343f
00000120: 7793 d6be 019b b13e fa18 b53e d1a6 803c
00000130: 92f1 983d 39bf 5e3c ef91 e7bd e76c 513d
00000140: 6273 a9bd aea0 44be 9f65 43be 3bb2 743e
00000150: c04a 58bc 76a9 16be eab8 de3d 64b4 6abe
00000160: 3592 80be bc4d 50be 27cc 40bd 9fa2 963e
00000170: 7d6d b33d 620e 563e 8d14 fabd 0c45 cb3d
00000180: b173 51be b321 8bbe 5b63 003e d0c1 b3bc
00000190: 9402 17be 3fbf f13c 2964 64be 3c9b fd3b
000001a0: 7d13 dc3d c538 383d d0e5 bcbb d47f 58be
000001b0: a3d0 263e 4e20 493e ee7c 223e 7219 d33d
000001c0: 6091 613d 1bc9 c8bd 024e ee3d 050c b0bd
000001d0: 8f97 023d 7708 1ebe 5a29 1abe da2d 34be
000001e0: a627 2dbd 04c5 1c3e 1991 51be b983 ed3d
000001f0: dfc8 653e c179 64be 5fc3 283e 12a7 42be
00000200: 78ff 403e 569b 30be 21d9 bc3d c218 803e
00000210: ca1b 503d fc4d 14be b7da aebd 969f dcbd
00000220: f118 3bbe 73a1 5ebe 4300 823e e31a dcbd
00000230: c3ef e9bd d240 823e 89f1 273e 1344 783e
00000240: 293f 213e 6b25 cbbd 63e1 bb3d a06c 4d3e
00000250: 8465 243e e0c8 53be 11ba 42be 173e 6c3d
00000260: 392b 25be 6416 a4bd ed48 21be 4e9c 16be
00000270: 56fa 5ebe 4a79 acbd 3062 8abe 2dce 1d3b
00000280: fac9 80be 37e9 26be 94f7 8ebb 31fc 6f3e
00000290: 2f06 7bbd 32c9 6b3e 8145 5b3d f0a8 0d3e
000002a0: 240b 233d ac02 c2bd b481 4fbe 9cba 66bb
000002b0: 1421 1dbe 43f4 72be 843a eb3d ab71 663c
000002c0: 6b03 803e 4399 363e 7497 04be c0ec 153e
000002d0: fc25 513e 3939 2bbe d905 6cbe d42a 4a3e
000002e0: 70fb 20be 4608 da3d 50ce 6fbe 5bed 78bd
000002f0: a62a 06b9 f82a 43be 43e2 2f3e b7d5 27bc
00000300: 0623 623e 2d9f 3d3e 2fcd 4bbd 6d4c 7f3e
00000310: 2e18 843d c179 4f3e e549 463e 08ac 083e
00000320: 50ad 2ebe e81d 2e3e 2cdd 81be 13c1 0ebe
00000330: 5b79 37be f8f2 07be ab27 6f3e 31cb 973b
00000340: 943a 67bd 3e2e 813e 2adb 39be a068 66be
00000350: e1eb 9cbe d222 9fbd d4ac d1bd e054 1e3d
00000360: c5c2 dd3c d166 413e 66d6 123f 10c3 a5be
00000370: aa65 9cbe 0eb1 a0be 4a55 c13e 6bb7 f6bd
00000380: 333a af3d 0c31 7bbd ecb4 343e 443a 76be
00000390: fd6b 283e 2d14 513e 1abe 67bc 61e4 13be
000003a0: 2191 f3bd bf5d 45bd 6126 c93d 2ae4 e23d
000003b0: 6ed2 53be c2c9 44be 8aef b73d 95c8 07be
000003c0: bf6c 2ebe 9dc6 a53e c79f 113e a8bd 033e
000003d0: c4cf 6d3e 6f92 f53d 60a8 e2bd 9cd0 7eba
000003e0: 5be5 bd3d a2f7 84be 690e e7bd d688 95be
000003f0: aad3 5cbe 65b4 babe 7f65 9fbe 07a0 1ebd
-0.054860108 -0.03784074 0.22705717 0.13020131 0.11709344 0.008636942 0.10738865 -0.06298447
0.22974488 0.21106242 -0.13946903 0.67356443 0.117299415 0.3289116 0.3602723 0.10863884
0.20292886 -0.109485656 -0.20027466 -0.050267298 0.11286135 0.109034464 -0.12938479 -0.6614559
-0.04028598 -0.143243 0.12704201 -0.30975246 0.23938656 -0.02782964 0.020933969 -0.07057022
-0.2481644 0.07771343 -0.028106987 0.12812907 0.17857574 0.25108936 0.32149395 -0.1617182
0.25123808 -0.1604498 -0.027027791 0.21251497 -0.20225284 0.19315524 -0.129924 -0.051801074
-0.0955226 -0.12936701 -0.18899918 0.008251854 0.18019748 0.23414199 -0.05951995 -0.061612107
0.14260837 -0.06521142 0.070706494 -0.006390821 0.07790081 0.008077779 0.19164781 -0.23411703
0.0057807425 -0.2661405 0.05936736 -0.034905635 -0.28545108 0.09427423 -0.12424592 0.70446354
-0.41909382 0.3468857 0.35370618 0.015704544 0.07467951 0.013595396 -0.113071315 0.051129248
-0.08273961 -0.1920192 -0.19081734 0.23896115 -0.013201416 -0.14713082 0.10875113 -0.22920376
-0.25111547 -0.20342153 -0.047069695 0.29420945 0.087611176 0.20903924 -0.12210951 0.09925279
-0.20454289 -0.27174148 0.12537901 -0.021943003 -0.14747077 0.029510139 -0.22303833 0.0077394526
0.107459046 0.044976015 -0.0057647005 -0.21142513 0.16290526 0.1964123 0.1586797 0.10307588
0.05507028 -0.09803983 0.116359726 -0.085960425 0.03188282 -0.15432917 -0.15054837 -0.17595616
-0.04227414 0.1530953 -0.20465507 0.1159739 0.22439907 -0.2231207 0.16480778 -0.19009045
0.18847454 -0.17246756 0.092211016 0.2501889 0.05080775 -0.14482874 -0.0853781 -0.10772626
-0.18271233 -0.21741275 0.25390825 -0.10747316 -0.11422684 0.2544008 0.16400732 0.24244718
0.1574675 -0.09919246 0.091738485 0.20060968 0.1605435 -0.20682096 -0.19016291 0.0576764
-0.1612977 -0.08012083 -0.15750475 -0.14708063 -0.21775183 -0.084215716 -0.27028036 0.002407919
-0.25154096 -0.16299902 -0.0043630097 0.23436047 -0.061285194 0.23025969 0.05353308 0.13833976
0.039805546 -0.09473166 -0.20264322 -0.0035206443 -0.1534465 -0.23725991 0.1148577 0.0140651865
0.25002608 0.17831902 -0.129484 0.14641094 0.20424646 -0.16721047 -0.23049106 0.197429
-0.15720916 0.10646109 -0.23418546 -0.060773235 -0.00012795124 -0.1905936 0.17176156 -0.010243825
0.22083673 0.18517752 -0.049756225 0.24931498 0.064499244 0.20261289 0.19364126 0.13346875
-0.17058301 0.17003596 -0.25364053 -0.1394084 -0.17917387 -0.13276279 0.23354976 0.0046323766
-0.05645235 0.25230592 -0.1815001 -0.22500849 -0.3064871 -0.07770313 -0.102380425 0.03865516
0.027070412 0.18886878 0.57358396 -0.32375383 -0.30546314 -0.31385082 0.37760383 -0.12046703
0.085560225 -0.06132607 0.17647141 -0.24045664 0.16447444 0.20417853 -0.014144445 -0.14442588
-0.118929155 -0.048185106 0.09821773 0.11078675 -0.20685741 -0.1921759 0.08981235 -0.1326011
-0.17033671 0.32378092 0.14221106 0.12865317 0.23223788 0.119908206 -0.11067271 -0.0009720416
0.09272262 -0.2597018 -0.112820454 -0.2920596 -0.21565118 -0.36465755 -0.31132123 -0.038726833

policy_network.0.bias f4 [128]
00000000: 442e 7dbe fe30 163e 4265 9dbd 8638 953b
00000010: 2759 753d d132 bcbd b405 db3d 68df a53d
00000020: 7592 4c3e 27e6 1a3d 79d4 ebbd da87 cd3d
00000030: a246 353e cfa4 303e 8613 d6bd 0c4a 7e3e
00000040: 0beb f83d 4605 46be 22e6 783b 2b9c d5bd
00000050: fce8 423e eb11 d9bd c526 38be 3696 88be
00000060: a641 203e 8731 47be 2836 c83d 86da 86be
00000070: 6133 62be a6ee 143d 33bc 513d 617a f73d
00000080: 43b7 66be 6384 d9bc b76e 88be df4c 44be
00000090: 8765 32be 4f36 ce3d 163a 96be 57eb 753a
000000a0: 033b a53d 462f 58bc b1be 343d ae09 363e
000000b0: 927f 00bd 4f78 26be b11f 5ebd f377 233b
000000c0: 155e 41be b084 08be eb85 4e3d 8ebf 04be
000000d0: 8eee 30be b2c3 343e b9b2 313d 6ab0 1c3e
000000e0: 746f 16be ada8 1abe ca96 373e be98 ccbc
000000f0: 272a 5cbe 91d4 73be a036 b4bd 3b9c 173e
00000100: 42fa 2d3e 84a6 ab3d 8816 493d 7ea6 e03d
00000110: 174b bcbd 7dbf 15be 7753 16be e818 e1bc
00000120: 0353 07be efa9 723e 6c3f c5bd 4796 87be
00000130: d2c2 0dbe ffa3 b13d 66ce 63be bf3f 8bbd
00000140: 51aa 6b3e 22aa 07be ec31 a43d 3acc 273e
00000150: 0b2b 64bd c93b 1d3d 50ac 1fbd 29f1 e7bc
00000160: 1220 243d 0b53 1c3e f22e 2fbe c423 773e
00000170: 3152 80be d3a6 4bbd 8bce 17be 9773 c7bc
00000180: 43e9 a83d 3c44 683d c92a 0a3e bb32 36be
00000190: 653f ca3c 76af 92be db51 683e 0ff2 72bd
000001a0: 02d4 6abe 9dbb 873d 4198 51be 83d0 8a3d
000001b0: b8a0 28be 013c 0f3e ffb1 b13d 4dc9 f3bd
000001c0: 6325 59be 993a 93be 60cd 5b3e 8202 46bd
000001d0: 82c3 643e 1f8f a9bd c61a adbd 4879 ab3d
000001e0: 52d8 42be d81f 003d c983 0a3e 965a 0cbe
000001f0: af42 153e 0c90 84bc 8662 08be a215 39be
-0.2472468 0.14667127 -0.07685329 0.0045538573 0.059899475 -0.0918938 0.10694447 0.08099252
0.19977744 0.037817147 -0.11515135 0.10035677 0.17702726 0.1725037 -0.104529426 0.24832934
0.12154206 -0.19337949 0.0037978967 -0.10430177 0.19034189 -0.10599121 -0.1798354 -0.26677102
0.15650043 -0.19452487 0.097759545 -0.26338595 -0.22089912 0.036360405 0.05120487 0.12083889
-0.22530846 -0.026552385 -0.2664697 -0.19169949 -0.17421542 0.10068952 -0.2934119 0.00093810767
0.08067896 -0.013194865 0.04412717 0.1777713 -0.03137166 -0.16256832 -0.054229442 0.0024943321
-0.18883546 -0.13331866 0.050420683 -0.12963697 -0.17278501 0.17652777 0.043383334 0.15301672
-0.14690953 -0.15103407 0.17928615 -0.024975177 -0.21500455 -0.23811556 -0.087994814 0.14805691
0.16989997 0.0838137 0.049093753 0.10969256 -0.0919401 -0.14623828 -0.14680277 -0.027477697
-0.1321526 0.23697637 -0.096312374 -0.2648184 -0.1384385 0.08673858 -0.22246704 -0.06799268
0.2301419 -0.13248494 0.08017334 0.163865 -0.05570511 0.038387094 -0.03898269 -0.028313236
0.040069647 0.15266053 -0.17107752 0.24134737 -0.25062707 -0.049719643 -0.14824884 -0.02434711
0.08247616 0.0567057 0.13492884 -0.1779279 0.024688432 -0.2864949 0.22687475 -0.059312876
-0.22932437 0.06627581 -0.20468237 0.06778052 -0.1646756 0.13987733 0.08676528 -0.119036295
-0.21205668 -0.28755644 0.21465063 -0.048342235 0.22340205 -0.08279251 -0.08452372 0.08372742
-0.19027832 0.03128037 0.13526835 -0.13706431 0.14576219 -0.016181968 -0.13318834 -0.18074659

policy_network.3.weight f4 [256, 128]
00000000: 8f50 eabc 29ee a4bd b86c 113c 7f54 b0bd
00000010: 214f e9bd 0920 943d 5f3a c0bd f753 913d
00000020: 73f5 babc c7b7 f9bc df66 b9bd 715b a1bd
00000030: 8d88 bf3a b094 80bd 9c82 173d 59c0 953d
00000040: 5e97 1c3d d201 b0bd 6542 813d 19a0 533c
00000050: 3d39 0c3d 1ea5 a5bd b8b7 d93c 3627 ac3d
00000060: a119 ceba 8d1f 47bd cc0f 8b3d 7c34 3dbd
00000070: 0b70 f8bc 6127 7abd 9254 cdbc 3815 f1bb
00000080: 9d94 853c 10fb 653d 64d8 373d 5bb9 a4bd
00000090: bd90 13b9 3043 c1bc 6b6a 9c3d 5c7c 89bd
000000a0: c4dd 09bd 67f7 293d fd9e 0bbd aba7 a5bd
000000b0: 5452 babc e4c2 643d 7a60 acbc 8bd8 18bd
000000c0: 941d 8ebd 1a20 ba3c 1467 c5bd f4c7 753c
000000d0: 1aa8 68bd 521f 6a3d eff6 8b3c a4bf 6dbc
000000e0: 01db e0bd 5ac1 8fbd 4622 20bd 2d68 7fbd
000000f0: 9671 5fbd ccd5 e93b 6e95 cebc 2ad3 fc3b
00000100: 9702 343d dc27 8fbb 4b52 3d3d 597a 063d
00000110: ce27 b4bd a518 86bb 08fe 523d f8a4 59bd
00000120: 38e0 e3bb 0cb5 343c 95bc a6bd 2292 953c
00000130: 72cb 08bd 8f9b e8bc 8285 093d 16e1 303d
00000140: 5705 52bd 59e3 b5bd 09de b43c 1399 1abd
00000150: d2e4 0e3d e5d9 a73d f4dc 363d 0654 f6bc
00000160: 37bf adbc 68bc ffbc 80ae 24bc cf5a 9dbd
00000170: d640 aabd 1481 b2bd 2578 b9bd 036f 2abc
00000180: 9fc9 053c 057c d03c 54c6 80bd a945 a33c
00000190: 47d7 b1bd 369c 873c a761 66bd 2b09 883c
000001a0: 0dba 76bc ca53 443d 6fd8 583c d237 413d
000001b0: 23b8 8b3d bdb3 463d e452 2f3b aced a23d
000001c0: 813d 0c3c 3b48 7dbc df60 7fbc b127 26bd
000001d0: 92ed 1fbc c842 9dbb eb67 64bd 2300 bbbb
000001e0: 184a 41bc 5518 47bd 8ec5 95bd c084 1abe
000001f0: 9519 b73c 8722 7abd d32a f4bc 9d44 39bd
00000200: 9cd9 68bd 21a1 513d dcce 213d cea3 98bd
00000210: 8e34 1e3c acc5 edbc 2f19 1c3d 08f0 5f3d
00000220: 3f9d 453c cbf0 90bd a552 4abd 2295 9dbd
00000230: f91a fa3c 5a53 813d 35b4 be3d 9211 1fbb
00000240: d9f6 95bc d167 43bd cd14 013e 10b2 0abb
00000250: d976 c03b c1e6 89bd 2c3f 21bd bc9e 24bd
00000260: a881 183d 5973 323c f1c5 29bd a6d9 5abd
00000270: 21bc ec3c ccd9 d9bc 5d97 83bc 0602 7e3d
00000280: e26b 1d3d bdc6 893d 057d 8e3d 967a 9bbd
00000290: 1899 33bd 3e37 833d f587 72bd 1718 1fbd
000002a0: f9ae 7d3d 797b 20bd 2845 d439 7301 1bbd
000002b0: 0b59 54bd ce55 d2bc a038 a7bd 8fe5 653d
000002c0: 23fb aa3d 5426 3dbd fa05 febd 8308 8bbd
000002d0: 83ea c3bc c4ef 503c 5e6b 513c 73ca 383d
000002e0: 7efa 8cbb 640d 0bbc c14e cf3c da76 94bd
000002f0: ae94 813d c98d 20bc cd4a 9dbd 9f67 053d
00000300: 8c07 4dbd 9e0c 9a3c 8c59 ea3c 644c adbd
00000310: 81d9 f9bb 1e3b 8f3d 4d24 ac3d 3e33 7e3d
00000320: cafe 4c3d b3c4 653d 6b23 90bc ac1e 98bd
00000330: 93c4 de3d 7b81 1d3d d6c6 8e3b efd1 5b3d
00000340: ccf1 483d d06b 3b3d 0bad 1e3d e5d5 753d
00000350: c850 b1bd 6077 7dbd 7fc2 afbc 41da 84bd
00000360: 78f1 503d 99ff 8f3d 7480 003d 5bfc 24bc
00000370: 2510 04bd ac89 283d 6634 a3bd eeaa 0ebd
00000380: 46c1 2f3d 2b6e 81bd 9ed6 063d d475 b6bd
00000390: 6856 96ba 1f00 bdbd a88c 9bbd 4128 ba3d
000003a0: 8f66 aebd e48f 513d b549 953d 5d21 64ba
000003b0: 3c23 da3d 0fdd 303d 3f76 8f3d 94f4 863d
000003c0: a3ad a6bd 5146 8c3c d7a5 38bc 379c c13c
000003d0: 997f 313d c742 afbd 82e2 173d f7ff 25bd
000003e0: 72a1 5c3d 6c97 863d a204 95bd af51 14be
000003f0: b04f 4abc 15c5 1c3c 16d7 a23d bfe1 7cbd
-0.028602866 -0.08053238 0.008876018 -0.08609866 -0.11392046 0.07232673 -0.093861334 0.07096093
-0.022822117 -0.03048314 -0.09052824 -0.07878769 0.0014612839 -0.0627836 0.036989793 0.07312078
0.038230292 -0.08594097 0.06311492 0.012916588 0.034234274 -0.08088134 0.026576862 0.084059164
-0.0015724191 -0.048614074 0.067901224 -0.04619263 -0.030326864 -0.06107271 -0.02506474 -0.007357266
0.016306216 0.056147635 0.0448841 -0.08043166 -0.00014072932 -0.023591608 0.07637485 -0.06713173
-0.033658758 0.041495707 -0.03408717 -0.08088621 -0.022744335 0.055849925 -0.021042097 -0.037315886
-0.06939235 0.022720385 -0.09638801 0.015001286 -0.05680094 0.057158776 0.01708552 -0.014511023
-0.10979272 -0.07019301 -0.039095186 -0.06235521 -0.054551683 0.0071360823 -0.025217738 0.0077156024
0.043947782 -0.0043687653 0.04622106 0.032831524 -0.08796655 -0.0040922933 0.051511794 -0.053135842
-0.006954219 0.011029493 -0.08141438 0.018258158 -0.033397146 -0.028394489 0.03357459 0.04318341
-0.051274624 -0.08881254 0.02207853 -0.03774364 0.03488619 0.08195857 0.04464431 -0.030069362
-0.021209342 -0.031217769 -0.01005137 -0.07683336 -0.08313148 -0.08716026 -0.09056119 -0.010402444
0.008165746 0.025449762 -0.06287828 0.019930677 -0.08683639 0.01655398 -0.056245472 0.016605934
-0.015059006 0.04793147 0.013235196 0.047172375 0.06822231 0.048511256 0.0026752288 0.079554886
0.008559586 -0.015459116 -0.015587061 -0.040565196 -0.009761231 -0.0047992207 -0.055763166 -0.0057068034
-0.0117974505 -0.04860719 -0.07313071 -0.15089703 0.022351066 -0.061068084 -0.029805576 -0.04523145
-0.056848153 0.051179055 0.039503917 -0.07453118 0.009656085 -0.029024921 0.038109954 0.05467227
0.012061416 -0.070771776 -0.049395222 -0.076944605 0.03053044 0.06314726 0.093117155 -0.0024271947
-0.018306183 -0.04770643 0.12605591 -0.0021163262 0.0058735427 -0.06733466 -0.039366886 -0.040190443
0.037233025 0.010891759 -0.041448537 -0.053430222 0.0288983 -0.026593111 -0.016063387 0.06201365
0.038432963 0.067273594 0.06957439 -0.07591741 -0.043847173 0.06407021 -0.05921169 -0.038841333
0.061934445 -0.039180253 0.00040487316 -0.03784318 -0.05184273 -0.02567568 -0.08165097 0.056127127
0.08348682 -0.04617913 -0.12403484 -0.06788733 -0.023915535 0.012752477 0.012781946 0.045114946
-0.004302322 -0.008487079 0.025306107 -0.07249232 0.063271865 -0.009799429 -0.07680283 0.032569524
-0.050056025 0.018804844 0.028607152 -0.08461836 -0.0076248054 0.069936976 0.08405361 0.062060587
0.050047673 0.05609579 -0.017595014 -0.07427725 0.10877337 0.03845356 0.004357199 0.053667005
0.04905872 0.045757115 0.038739245 0.06001844 -0.08657986 -0.061881423 -0.021455048 -0.06486941
0.051011533 0.07031173 0.031372502 -0.010069932 -0.03224196 0.04114692 -0.079689786 -0.03483098
0.04290893 -0.06319841 0.03291952 -0.08909193 -0.0011469843 -0.09228539 -0.075951874 0.09089709
-0.08515655 0.051162615 0.07289449 -0.0008702481 0.10651252 0.043179568 0.070049755 0.06589618
-0.08138587 0.017123373 -0.011270008 0.02363406 0.043334577 -0.08557659 0.03708125 -0.04052731
0.053864904 0.0657185 -0.07276274 -0.14484285 -0.012348101 0.009568472 0.07951181 -0.061738726

policy_network.3.bias f4 [256]
00000000: 7454 4dbd 5262 393d c109 383d 3ce0 b4bd
00000010: 1358 82bc 3071 cbbd 2f84 c3bd 3444 083d
00000020: dda7 be3c 9495 94bd 6485 503d 5fc3 b3bc
00000030: 3091 16ba b50b f33c ac50 573d 98b2 063c
00000040: 474b 6f3d 688f 77bd 6bbd 9abc 7ba5 b53c
00000050: 1047 123c c462 2ebd 34fd 56bc 35f9 c7bb
00000060: 5082 01bd bb16 97bd 8306 15bd bd39 2fbd
00000070: 2cf8 81bd 3df1 1dbc f306 133d 9298 8d3d
00000080: fefd 90bd c59f bcbd f739 56bc 8118 283b
00000090: 9005 073d c9a7 dbbb 6c77 2c3d 2c44 09bd
000000a0: 3f27 59bc 4cdd 2c3d b4fa 90bd e4ae c13c
000000b0: 3a78 31bd 1f0c 8dbd 58d9 3cbd 34d2 cebb
000000c0: 9583 783c c3c8 5ebd 238c 9f3c acfc 30bc
000000d0: 3bbe 2d3d 2f5f 4f3d df38 273d e907 3bbd
000000e0: 56eb 9ebd 139e 0e3d 3d31 a8bd b747 eabc
000000f0: 5088 b13b 7f17 8d3c 53a3 c5bd ddc9 483d
00000100: 5ff1 91bd 7189 c53a 15ea 07bd 4974 b3bd
00000110: 9172 1c3d b53c ec3c 6fd6 de3c 77df 1bbd
00000120: 184b 8f3d 404d 493d 33fb 5e3d c58d 3abd
00000130: fcb7 ecbc 788d ccbc d3cc d13c 4289 563d
00000140: 51dc db3c 2af3 f33c 0446 e73c b7c4 1f3c
00000150: b9b1 ea3c e9f4 88bc 97bd 7abd f61f dbbd
00000160: 70d1 4ebd 07c0 933c 9d3b 76bd ee0a 86bd
00000170: e128 67bd 0274 b13c 4046 203c b201 1cbd
00000180: 1b9e b43b 7f3e aebc 89f3 86bc 78b5 18bd
00000190: aa08 5ebd cc46 a9bb 6da1 36bd 8f3b 5b3d
000001a0: 6e73 013b 3dd3 a13d 123b 93bd d6a8 8b3d
000001b0: bf76 73bc 7e5e 9c3d 1edd b23c 3c23 2d3d
000001c0: 98f2 633d 04b3 a4bd 9188 cbbd 704b 143d
000001d0: 0660 843a fe72 943c f36b 1e3d 9d2e cebd
000001e0: c6f3 f6bb 9001 5f3d 2e2f 92ba 9842 02be
000001f0: 4052 503d 7213 24bc fc09 eebc 0f75 89bd
00000200: b479 bb3c 6ec3 8fbd fd10 45bd 8c7e dabc
00000210: 1beb 8dbd 9662 65bd 0010 143d 0877 2fbd
00000220: 498c 32bd 2bb7 73bd 8ed4 403d efc0 98bd
00000230: a68e 583d 7f08 353c 31ab 63bd c8d6 b3bc
00000240: 5f9b 313c 27bc 94bc 0b1f 10bd 0b26 36bd
00000250: 636f b3bd 267b 8fbc 3eb7 d73c 20f2 b3bd
00000260: 395c 503c ef02 98bd c091 223d 142f 58b9
00000270: 9e36 853d a642 37bd 2909 7b3d 4e87 1b3c
00000280: b5ec 543d f834 893c 7853 7fbc 9963 9fbd
00000290: 4d8b 86bd c7f5 4cbd 894d 79bd ac46 1fbd
000002a0: 344c 8ebc d29a 05bd ca65 f23c 6e6d 813c
000002b0: 2283 c13c eccc 083d e63d 92bd aa0e 333d
000002c0: 6a11 6b3c aee1 e6bc b8af d93c 3129 a2bd
000002d0: 8db4 313a 0d41 88bd 2a6e 0cbc 9769 abbd
000002e0: adad 643b 737f aabd bb85 6e3d 309d c5bd
000002f0: 1bc3 7c3c f9fc 303d 4ffb a63b d814 273c
00000300: efb5 123d 40af 8bbd 25de 7cbd f820 323c
00000310: c29b a6bc c4f4 2fbd 5988 0e3c 16ab 893d
00000320: 2d2d ccbd f0db 84bd d8b6 b2bd fed4 b73c
00000330: 3981 82bb e5ab 8abc 427f b6bd f63a b2bc
00000340: b639 76bd 5b46 aebd ef5c 8abd ea51 90bd
00000350: 8a05 013d 2fa2 6a3d 8d65 ecbb 5dc8 cebd
00000360: 6959 3a39 d59a 4cbd c8d1 00bd 2854 e1bd
00000370: 943e 9abd 19a6 373d 0986 213d 3958 513d
00000380: 3168 1fbd b6e7 c6bd 3ae9 2d3d c175 623d
00000390: a93b 22bc cef9 b8bb 26b1 8bbd e601 973c
000003a0: 7c58 573d 7bb7 cabd 1b8b a4bc e654 bebd
000003b0: f4f8 023a 566e 06bd 3259 613c 916c 28bd
000003c0: d595 17bd 29d5 4b3c a2af 643d d514 1c3d
000003d0: 89ac 47bc 74b5 a6bd 8b7e 8a3d 2c72 9b3b
000003e0: c262 b83c 4620 233d 1ad0 a4bc d70c ffbc
000003f0: f218 3f3d 4d04 77bd f7ed ad3b ad9d 8bbc
-0.05012937 0.04525978 0.044931177 -0.08831832 -0.015911138 -0.09933698 -0.095466964 0.03326817
0.023273403 -0.07255092 0.05090846 -0.021943746 -0.00057436805 0.029668668 0.05256717 0.008221291
0.0584214 -0.060439497 -0.01888915 0.022173634 0.008928075 -0.04257466 -0.013121892 -0.006102706
-0.031618416 -0.07377382 -0.036383163 -0.042779673 -0.06346163 -0.009640035 0.0358953 0.06913866
-0.07079695 -0.09210161 -0.013075343 0.002564937 0.03296429 -0.006703351 0.042106077 -0.03351228
-0.013253986 0.042203233 -0.07079068 0.023642965 -0.043327548 -0.068870775 -0.046105713 -0.0063116793
0.01516809 -0.05439068 0.019476002 -0.010802429 0.042417746 0.050627884 0.04082572 -0.04566184
-0.077597305 0.03481872 -0.082125165 -0.02859865 0.005417861 0.017223118 -0.09650292 0.049020637
-0.07126116 0.0015070868 -0.033182222 -0.08762414 0.038195197 0.028837541 0.02720186 -0.03805491
0.06996745 0.049145937 0.05443878 -0.04554536 -0.028896324 -0.024969801 0.025610363 0.052376993
0.026838453 0.029779036 0.028231628 0.00975149 0.028649198 -0.016718345 -0.061215963 -0.106994554
-0.050492704 0.018035902 -0.060115445 -0.065450534 -0.05643547 0.021661762 0.009782374 -0.038087554
0.0055120117 -0.021270035 -0.016473548 -0.037282437 -0.05420748 -0.0051659103 -0.04458754 0.053523596
0.001975264 0.07901619 -0.07189001 0.06819312 -0.014859854 0.076352105 0.021833953 0.04226993
0.055651277 -0.08041957 -0.09938157 0.036204755 0.0010099418 0.018121239 0.038677167 -0.100674845
-0.0075363843 0.05444485 -0.0011152977 -0.12720716 0.05085969 -0.010014402 -0.029057495 -0.0671178
0.022885181 -0.07019697 -0.048111904 -0.02667167 -0.069296084 -0.056002222 0.03614807 -0.042838126
-0.043590818 -0.059500854 0.047077708 -0.07458674 0.052870415 0.011049389 -0.055583183 -0.021953002
0.010840266 -0.018156124 -0.035185855 -0.044469874 -0.0876148 -0.017514776 0.026332494 -0.08786416
0.0127173 -0.074224345 0.03968978 -0.00020616903 0.06504558 -0.044741295 0.061288033 0.009492708
0.051983554 0.01674889 -0.015583865 -0.077826686 -0.06569538 -0.05003908 -0.06086496 -0.038885757
-0.01737032 -0.03261835 0.029589552 0.01579925 0.0236221 0.033398554 -0.071407124 0.043715157
0.014347414 -0.028183784 0.026573047 -0.07918013 0.00067789183 -0.066530325 -0.008571187 -0.08369749
0.0034893558 -0.0832509 0.058233004 -0.09649122 0.015427376 0.043210004 0.0050958763 0.010197841
0.035818037 -0.06820536 -0.06173529 0.010872118 -0.020337943 -0.042958036 0.0086995 0.06722085
-0.09969554 -0.06487262 -0.08726281 0.02244043 -0.0039826897 -0.016927669 -0.08910991 -0.02175663
-0.06011363 -0.08509513 -0.06756007 -0.07046874 0.031499423 0.057283577 -0.0072142542 -0.1009681
0.0001777165 -0.049952347 -0.031450063 -0.1100238 -0.07531467 0.044836137 0.039434467 0.051109526
-0.038917724 -0.09712164 0.04245875 0.05528808 -0.009901919 -0.0056450134 -0.06820898 0.018433522
0.05257462 -0.09898277 -0.020085862 -0.09293537 0.00049962034 -0.03282007 0.013754176 -0.041119162
-0.037008125 0.012440958 0.05583156 0.038105804 -0.012187132 -0.08140078 0.067624174 0.004743835
0.022508029 0.0398257 -0.020118762 -0.031134052 0.04665465 -0.060306836 0.0053079086 -0.01704296

policy_network.6.weight f4 [128, 256]
00000000: dad2 48bb e36b 42bd 2697 8c3d 4460 623c
00000010: 131a 85bd d530 09bd 21c2 943d b0cd d7bb
00000020: 0ad2 b4bd 2bb4 943c 759b 953d c63a 4e3d
00000030: 6e32 b5bd ae4b 7e3d d30c 933d 5f0e 953d
00000040: be90 d03c 8052 7f3b 4b91 2e3d 4bbf 0b3d
00000050: 22f7 4ebd 9484 dd3b ea2e b4bd 81c3 1abd
00000060: 7b7c 823b e0ce c0bb b602 f0bd ec8a 7d3d
00000070: c1e6 ffbc d685 4a3d 1b2b 22bd 7610 a0bd
00000080: 1183 833b 97e2 863d 36c2 0439 ea6b 223c
00000090: 68f9 70bd 1a64 86bd ad42 b7bb 199d 4fbd
000000a0: 4fd9 45bd da84 1cbd a88a 083d 6f77 03bc
000000b0: c84a 37bc b222 143d 4071 b73b 0063 713d
000000c0: d8f1 8c3d 83ee e0bc b641 8e3c cf82 e93d
000000d0: b04f 80bc 16b3 5abc 56ed 4b3c a9c9 b9bb
000000e0: d871 03bc a689 8b3d 4c51 9bbc 9038 e3bc
000000f0: f959 edbc 70b7 183d 693b 9bbc b452 9bbc
00000100: fb94 d53c 3319 b6bb 612e 193d 0275 be3d
00000110: 8875 c33d 4998 7d3d 04e4 213d 294e dabb
00000120: 9aea 0a3b 30a3 39bd 76b3 fa3b c13a 7dbd
00000130: bed2 82bc 9b9e 7cbd ea86 053c 7647 9abc
00000140: 6ebb eb3b 5d21 19bc 70ca 053d 4c13 7cbc
00000150: fbad 8f3d ebe0 223c 0d39 cebb d874 873d
00000160: ebf4 923d 41d9 79bd 7a1f 30bd 1e3e 54bd
00000170: 735c 28bd 7647 58bd a0e2 4cbc 8294 1f3d
00000180: c670 12bd e852 dcbc e305 863d 1c2b c13d
00000190: 6ee5 57bd ceac 0dbd 28ee 3f3d 2cca 4c3c
000001a0: 789b aa3d 4b08 f6bc fb03 f03c c8a3 9bbb
000001b0: 1882 44bc d7be 4bbc e364 96bc 980a ed3c
000001c0: ba06 863d 78c3 d33c 822d b4bc 662b 0f3d
000001d0: cc58 aa3d 1fe9 c4bc eb48 2f3d 474d 9bbb
000001e0: 10e0 23bb c062 2cbd 7cbe 96bd 182b 903c
000001f0: 267e 1e3c 918c 423c fcc3 283c ceeb 9f3c
00000200: 1c57 ef3c 5cdc adbd 11a0 b1bc 3f15 1c3d
00000210: b61f 123c e5a6 453d 6d1c 563d b603 5d3b
00000220: 04d4 d93d ecbf be3d c5eb afbb 726a 79bd
00000230: 447f 9fbb 2352 c83c 68e6 faba 38d9 783d
00000240: c142 aa3b 4b14 abbc 9ca5 3abd a772 183d
00000250: 9b40 7d3c 1034 bb3c 2b65 553b b0d1 77bc
00000260: ab98 69bd 7e6c 27bd f304 483d c4d4 043d
00000270: 7bb7 9bbd 20f3 923c f3cd c53b a04d 11bd
00000280: 6456 773b f80f 8dbc e763 e4bb 6e24 0c3d
00000290: 9b56 00bd 88d7 16bd 24ca 34bd 8858 973d
000002a0: 2d25 033d fa1a 83bd 2283 373c c6b3 06bc
000002b0: e5c1 d2bc c433 04bd 352b 243d e678 8c3d
000002c0: 498d 433c aeb0 65bd 10ca 2f3d 9ae7 a3bc
000002d0: 7124 c93b 1d3f 53bd 7dbf 06bd 7571 2abd
000002e0: e70f 4fbc 60fd b2bb 5659 0b3e a0cb 98bc
000002f0: bcef 293d 04aa 87bd 30c7 ea3b 4778 67bd
00000300: 3048 333e df4d 3c3d d514 063d 23df 9fbb
00000310: c7d8 923c 02a7 2ebd b477 16bd 5b78 3c3c
00000320: a6e5 b93d 1b8a af3d e875 5f3c e769 7cbd
00000330: 7604 123d 7c0e 88bc a012 b83b 2804 a03c
00000340: 398f 2f3d 18c1 ecbc 1f9a b3bc 2810 b1bd
00000350: f9f3 733d e8f4 2dbd cda9 113d 350f 813d
00000360: cbba c93c f38b a0bc c300 83bd 205a 243c
00000370: 12f2 3c3d 8e8e 4a3d 4e1b 98bc afea 95bc
00000380: 580a 5bbb c966 80bd 5f54 11bd c1cc 82bc
00000390: 3e45 5b3d 5d47 cabd 6683 1ebd 8486 303d
000003a0: 52bf 083d c0ce 4e3d 4cd6 d03a 2251 8fbc
000003b0: dd0b 953c 1827 d63c 9301 d13c 7a1f 1bbd
000003c0: f120 7c3c 504f 8fbd 7d21 c03d 130d ad3c
000003d0: cba2 603d 36c4 273d 2d87 c4bc 610f 8e3c
000003e0: 5a8f 38bc 8d0e 7fbd c15a 0f3d 847d d0bb
000003f0: b6bd 223c 4308 203d 18eb 763c 6d40 393d
-0.0030643255 -0.04746617 0.06864767 0.013816897 -0.06499114 -0.033493835 0.0726359 -0.006585799
-0.08829124 0.018152317 0.07305042 0.05034902 -0.08847509 0.062083893 0.071801804 0.07278132
0.025459643 0.0038959086 0.04261903 0.034117978 -0.050528653 0.0067601893 -0.08798011 -0.037784103
0.0039821244 -0.0058840364 -0.11719267 0.061900064 -0.031237962 0.049444042 -0.03959189 -0.0781564
0.004013427 0.06586187 0.0001266085 0.009913424 -0.058831602 -0.065620616 -0.005592665 -0.05068693
-0.048302945 -0.038212635 0.033335358 -0.008024081 -0.011187263 0.0361659 0.0055982172 0.058932304
0.068820655 -0.027457481 0.017365318 0.11401903 -0.015662998 -0.0133483615 0.012446722 -0.0056697917
-0.008022748 0.06813364 -0.018959664 -0.027736932 -0.028973566 0.037284315 -0.018949227 -0.018960334
0.026072016 -0.005557203 0.037397746 0.09299661 0.09543902 0.06191281 0.039524093 -0.0066621494
0.0021196962 -0.045321643 0.007650788 -0.06182361 -0.01596963 -0.061674695 0.008149842 -0.018832903
0.007193974 -0.009346333 0.032663763 -0.01538546 0.07015606 0.00994132 -0.006293422 0.06614083
0.07175621 -0.060998205 -0.04299877 -0.051817052 -0.04110379 -0.052802525 -0.0125052035 0.038959987
-0.03575208 -0.026895002 0.065440916 0.094320506 -0.052709036 -0.034588628 0.046857983 0.012499373
0.083304346 -0.030033251 0.029298773 -0.004749749 -0.011993907 -0.0124356365 -0.018358653 0.028935716
0.06544252 0.025850043 -0.021994356 0.034953497 0.08317718 -0.024036942 0.04279415 -0.004739437
-0.0025005378 -0.042086363 -0.07360551 0.017598674 0.009673631 0.011874334 0.010300633 0.01952162
0.029216342 -0.08489296 -0.02168277 0.0381062 0.008918693 0.048254866 0.052273203 0.0033724136
0.10636142 0.0931395 -0.005368682 -0.06089253 -0.004867466 0.024453228 -0.0019142153 0.06075403
0.005195946 -0.0208837 -0.045568094 0.037218716 0.015457298 0.022851974 0.0032561522 -0.015125677
-0.05703036 -0.04087495 0.048832845 0.03242947 -0.076033555 0.017938197 0.006036514 -0.03547442
0.0037740702 -0.017219529 -0.006969917 0.03421443 -0.031332593 -0.03682664 -0.04413809 0.07389933
0.032017875 -0.0640163 0.011200698 -0.008221572 -0.025727222 -0.03227593 0.040080268 0.06858997
0.0119355405 -0.056076698 0.04291731 -0.020007897 0.0061383774 -0.05157386 -0.03289746 -0.041612107
-0.012638069 -0.0054623336 0.13608298 -0.018651783 0.041488394 -0.06624225 0.0071648583 -0.05651119
0.17508006 0.0459727 0.03273471 -0.004878895 0.017925633 -0.04263974 -0.03673525 0.011503304
0.09077005 0.085712634 0.013638951 -0.061624434 0.035648786 -0.01660847 0.0056174546 0.019533232
0.042861197 -0.028900668 -0.021924077 -0.0864566 0.059558842 -0.04246989 0.035562325 0.06301729
0.024625203 -0.019597983 -0.0639663 0.010031253 0.046129294 0.049452357 -0.018567707 -0.018300382
-0.0033422913 -0.06269605 -0.035480853 -0.015966775 0.05353283 -0.09876893 -0.03869953 0.043097034
0.033385582 0.05049014 0.0015933006 -0.017494742 0.018194133 0.026141688 0.025513446 -0.037871815
0.015388713 -0.069975495 0.093813874 0.021124398 0.05484275 0.040958606 -0.023990238 0.017341318
-0.011264646 -0.062269736 0.03499866 -0.006362619 0.009932926 0.03907038 0.015070699 0.045227457

policy_network.6.bias f4 [128]
00000000: 0cfe 4abd 9c4d 9bbd c8d2 5cbc a107 adbc
00000010: 250c 983d 91cf 95bd bf2a 51bd f9e9 603c
00000020: 4986 a9bb 0897 013c 1070 ab3c b68c 983d
00000030: b658 55bd 4b84 cdbc ccac 463b 9afd 3ebd
00000040: f178 613c 0509 7bbd 14dd 16bd ca12 8bbd
00000050: 93d5 1fbd ac5e 28bd b204 69bd e795 c9bc
00000060: c1fb b23c 92f0 b83c 6238 42bd ca92 5d3c
00000070: 5915 2abd 9632 123b a248 c63c 95ef 80bd
00000080: b4b9 33bd b109 6a3d 94ea 78bd 1ae1 793c
00000090: 6563 5fbd 590d 833d 0c7a d83c 5207 60bd
000000a0: 0146 2939 faa1 3fbc 62f2 acbd beb0 d8bb
000000b0: fcca 97bc 9d73 21bd 334c 59bd 5fbb d4bb
000000c0: 97ea 1abd fc8a 04bd 86f2 80bd bbd7 11bc
000000d0: 5259 6abb 0394 6dbd 3a51 3ebb 5574 b03d
000000e0: c9bd 3d3b 046b 1e3c 8cbf d8bb 18c9 1fbb
000000f0: 581a e9bc fa9c bd3c f299 8abd df61 88bd
00000100: 2c1f 4cbd 347a af3d c5ca 27bd 2293 7abd
00000110: a19f 4bbd 5e92 52bd 74d1 1fbd 4f78 b8bb
00000120: 0bb7 193b 6c2d b13d 6ae4 b5bc df5a 8dbd
00000130: 505b 2b3b 05a4 7ebd 9994 9f3d 74f7 b63c
00000140: 003a cdbc 629c ccbc c154 c53b 4444 74bd
00000150: 38a9 98bc cda4 3fbd 8920 dbbc 02dc c53c
00000160: 62fe f5bc 5a7f 06bd a5b7 223d b141 40bc
00000170: 1aaa 3f3b 93ee 983c 265a 953b 47af cfbc
00000180: 1380 2fbd 0876 4ebd f01f efbc 69f7 22bd
00000190: 67ac 07bd c5ae 81bd bef4 0c3d 8e52 a03d
000001a0: c3a8 93bd 72bf d63c 98a1 383d 94c9 0c3d
000001b0: 8dc8 2dbb 919b b6bc 510f 88bd 2727 96bd
000001c0: 7fa0 aebc 4254 a33b 51d9 6aba 73da 2ebd
000001d0: 8f49 e7bc 8870 82bc fb44 b73c 4472 89bd
000001e0: d335 153d 76fe 1cbc aab5 05bd 294c 143d
000001f0: 9bcb adbc 5dfa a13a 1a42 9a3c 88ee 933c
-0.049558684 -0.07583162 -0.013477989 -0.021121802 0.074241914 -0.07314981 -0.051066156 0.013727658
-0.0051734787 0.007909544 0.020927459 0.074487135 -0.052086554 -0.025087496 0.0030315397 -0.046628572
0.013761745 -0.0612879 -0.03683193 -0.06790693 -0.03902204 -0.04110591 -0.056889243 -0.024607612
0.021848561 0.02257565 -0.047417052 0.013523767 -0.041524265 0.0022307984 0.024204556 -0.06295697
-0.043878272 0.05713815 -0.060770586 0.015251422 -0.05453815 0.0639903 0.026425384 -0.05469448
0.00016143174 -0.011696333 -0.08444668 -0.006612866 -0.018529408 -0.039416898 -0.053051185 -0.006492063
-0.03782138 -0.03235911 -0.06296258 -0.008901532 -0.0035758805 -0.058002483 -0.0029040114 0.086159386
0.0028952232 0.009669069 -0.006614631 -0.0024381336 -0.028454944 0.023146141 -0.06767644 -0.066592924
-0.049834415 0.0856823 -0.04096486 -0.061175473 -0.04971278 -0.051409118 -0.03901811 -0.0056295763
0.002345505 0.08651242 -0.022203643 -0.06902098 0.0026146956 -0.06216814 0.07792015 0.022334792
-0.02505207 -0.024976913 0.0060220663 -0.059635416 -0.018635377 -0.046788026 -0.026748912 0.02415276
-0.030028526 -0.032836296 0.03972592 -0.011734412 0.0029245676 0.018668449 0.0045578657 -0.025352133
-0.04284675 -0.050405532 -0.029190034 -0.03978673 -0.0331234 -0.06332163 0.03441309 0.07828246
-0.07209923 0.026214335 0.045075983 0.034371927 -0.0026517243 -0.022290977 -0.066435464 -0.073316865
-0.021316765 0.0049844095 -0.0008958774 -0.0426888 -0.028233318 -0.0159228 0.02237176 -0.067112476
0.036428284 -0.009582153 -0.03264395 0.036205444 -0.02121525 0.0012357939 0.018830348 0.018058077

policy_network.9.weight f4 [7, 128]
00000000: 9205 1d3d 665c 03bd 5cec 8a3d d4e6 9a3d
00000010: ef37 b23b 485c 96bd 6ce4 863c c04a 98bd
00000020: 0cdc 1dbd a5b8 50bd 691b d5bc 727f 06bd
00000030: 7545 043b 0bc6 97bd e262 afbd 6e18 d83c
00000040: 0cac 87bc cb89 863c 5977 a2bd 3e55 633d
00000050: 262e f6bc 1816 dc3c 49ef 9cbd ea59 96bd
00000060: 3e94 153c 2590 d03c 7620 99bc 6c8a 603c
00000070: 7cac 9abd eff2 fdbc 24ef 90bc 451d b43d
00000080: 2b42 9dbd d903 4abd 677e 61bc ab1b 56bd
00000090: 1c38 8a3d 1ad9 82bd ff3e 083d 6b4c a2bd
000000a0: bc3c b83c 7281 06bd 6e82 6d3c d8e7 843d
000000b0: eac5 bd38 6380 77bd f184 54bd d5ab febb
000000c0: 255e e5ba 89d1 11bd 68fc 5a3d 037a 52bd
000000d0: 8001 873d f8af 95bd e75c 033c 3434 ed3c
000000e0: 1699 5f3d aec1 b13c 023c 2e3c 28c0 903d
000000f0: 350f 30bd 688f 7d3d 2c30 89bd af21 643d
00000100: 6bfb c63c d4ed 5a3b 75f4 043c 77d3 333c
00000110: 58d4 403d 7413 0e3d c1d9 d83c 3d94 3ebd
00000120: ef41 9d3d 3ebd 0fbc e3a6 583c feb0 493d
00000130: 2fa3 dfbc ca37 733d 442b 04bc 639b d33b
00000140: 6686 3bbc 6897 6139 e214 babb 8114 283c
00000150: 9f71 9e3c e197 b03c 4f9b 81bd a070 0e3b
00000160: 87d7 f0bc 6b22 013d 6dca 93bd 1fab 3abc
00000170: 19fd ab3d 052c 9bbc b4b8 2bbd 94fe 81bd
00000180: dbdf 1cbd ed31 303d 30ba 4b3d d067 c9bc
00000190: 61d0 48bc 8bc4 883d de7b 84bc 64a4 193c
000001a0: 05b1 ac3b cd1e b3bd 7ac7 9f3d 2c95 823d
000001b0: e2b5 4cbd 163f 82bd bb9a 60bd 40c5 42bd
000001c0: f8fa 3c3c aac8 84bd 7864 4a3b f16f 79bd
000001d0: 7aae 90bd 4d7d 94bd da40 7e3d db78 463d
000001e0: 06ef ff3c 080c 5cbc bfde 2d3d 5284 73bc
000001f0: 6214 96bb d4a7 91bd b28d 9b39 4bce c9bc
00000200: 5b87 45bc 237b e339 5f1f 493d 761e a93c
00000210: e7c5 ca3c 9699 27bd 0fc2 a03d 4e05 99bc
00000220: 0b72 9d3d 2ee0 d53c 52f0 53bd c68b cc3c
00000230: e24e 28bb 1abc 88bd 45ff 843c 1482 07ba
00000240: 6f09 97bc be23 d2bb 1ad3 4bbd b24a 04bd
00000250: 6d48 62bc 454d 2d3c 6a0f 503a d04d 553d
00000260: df32 b1bc 77ea edbc c52a 00bd cb1e 0abd
00000270: 73af 9abd 79b6 5e3c 3527 a9bc 8949 243d
00000280: 77ae 58bc 514b 0d3d 40a9 83bd 129f 3dbc
00000290: 5fe1 48bd 83d0 21bd c04e 63bc f418 043d
000002a0: 0e76 693c 82d1 923d 16c5 a53c 27f8 aa3d
000002b0: 3cd5 a13c 5bf5 65bd cbd7 b23d 0be5 423c
000002c0: 17c8 a33c 6ac7 e13c 92c0 cf3c ed9a 89bd
000002d0: 4d44 713c 70e0 8f3d 3262 d13c 31dd 14bc
000002e0: aa0d 6c3d c4cc db3c ef77 a1ba 28f4 5fbd
000002f0: ed34 883c d985 363d f4cf 623d 359f 96bc
00000300: 75ef 87bd 70cf 5bbb 90b2 76bb 0e38 3e3d
00000310: eac7 fdbc d5ab 683d 8062 70ba fb3b 43bd
00000320: fabf f4ba a483 1cbc 22c6 66bd fd42 a3b9
00000330: 338a f6bb 44ea 803d 92ee cdbc cbb3 ccbb
00000340: 5096 2fbb a7ed 60bc 357a 993b a6cb 85bd
00000350: 1222 0d3d acab 9cbd 3741 38bd c43e 8abc
00000360: 56da 093d ce6f e33c f685 ec3c c8d3 27bb
00000370: f61f ab3c 0361 e83c f99d b5bb d37d 76bc
00000380: 1e53 493d a666 6cbd 706d ffbb 59fc a3bd
00000390: 18fc f9bb 5bcd 993d e9b2 1a3b 3b72 043c
000003a0: eabd 67bb 53e0 a4bc 434e 233c 84c8 403d
000003b0: 5c4d 6fbd 3e6b 6fbc fa85 eb3a 1141 1bbc
000003c0: 1aef c3bc 4adb 3abd 4f55 9fbd 5f41 933c
000003d0: dc67 b7bd 9fad 8d3b 84d9 29bd 089c 2a3d
000003e0: e436 a93a 1539 8a3c 0472 593b 4b1d 8ebb
000003f0: 40a3 b2bc 7253 713c 4cf2 023d e93b 623d
0.03833539 -0.03207054 0.06783363 0.07563558 0.0054387967 -0.0734182 0.016466342 -0.074361324
-0.03853993 -0.05095734 -0.026014047 -0.032836385 0.0020183001 -0.074108206 -0.08563782 0.026378836
-0.01656153 0.016423127 -0.0793292 0.055501215 -0.030051302 0.026866004 -0.076628275 -0.073413685
0.009129582 0.025459358 -0.018692236 0.013704877 -0.0755243 -0.030999629 -0.017692156 0.08794645
-0.07678636 -0.049320076 -0.013763047 -0.05227248 0.06748983 -0.06389065 0.033263203 -0.07924732
0.022489898 -0.032838292 0.014496429 0.06489533 9.049087e-05 -0.060425173 -0.051884595 -0.007771949
-0.0017499371 -0.03560022 0.05346337 -0.05138589 0.06592083 -0.07308954 0.008017755 0.028955556
0.054589354 0.021698799 0.010634424 0.07067901 -0.042983253 0.06190434 -0.06698641 0.055696186
0.024289807 0.0033405917 0.008114924 0.01097571 0.047077507 0.03468652 0.02647102 -0.04652809
0.076785915 -0.008773146 0.013223383 0.04924106 -0.027299492 0.059379376 -0.008066956 0.0064577325
-0.011445617 0.00021514075 -0.005678759 0.010258795 0.019341288 0.021556797 -0.06328451 0.002173461
-0.029399646 0.031526964 -0.07216344 -0.0113933375 0.08397884 -0.018941889 -0.041924194 -0.06347385
-0.038299423 0.043016363 0.04973811 -0.024585634 -0.012256713 0.066781126 -0.016172346 0.009377573
0.005270126 -0.08746109 0.07801719 0.063761085 -0.049978144 -0.06359689 -0.054835062 -0.047551394
0.011534445 -0.06483586 0.0030882638 -0.06089777 -0.07064529 -0.07250462 0.062073566 0.0484551
0.031241905 -0.013430603 0.042448755 -0.014863091 -0.0045800665 -0.07112089 0.00029669475 -0.024634501
-0.012056197 0.00043388558 0.049102183 0.020644408 0.02475257 -0.040917955 0.07849514 -0.018679287
0.076877676 0.026107874 -0.05174286 0.024968993 -0.0025681783 -0.066765025 0.016235003 -0.00051692245
-0.018437115 -0.006412952 -0.04976187 -0.032297798 -0.013811213 0.0105775045 0.0007936867 0.05207616
-0.021630703 -0.029042466 -0.03129079 -0.033720773 -0.075529955 0.01359331 -0.020648578 0.04010919
-0.013225189 0.034495655 -0.06428766 -0.01157357 -0.049043056 -0.039505493 -0.013873756 0.03225036
0.014249338 0.07168867 0.02023558 0.083481126 0.019754998 -0.056142192 0.087325655 0.011895428
0.019992871 0.027560908 0.02536038 -0.06719003 0.014725757 0.0702523 0.025559518 -0.009085939
0.05763022 0.026831038 -0.0012319068 -0.054676205 0.0166268 0.04456124 0.0553741 -0.018386463
-0.0663747 -0.003354039 -0.0037643053 0.046440177 -0.030979116 0.056804497 -0.0009169951 -0.047664624
-0.0018672936 -0.00955287 -0.056341298 -0.00031139693 -0.007523799 0.062946826 -0.025138173 -0.006247019
-0.0026792474 -0.013728536 0.0046837577 -0.065329835 0.03445632 -0.07649931 -0.04498407 -0.016875632
0.033655487 0.027763274 0.028872471 -0.002560841 0.020889264 0.028366571 -0.0055425134 -0.015044647
0.049151532 -0.05771508 -0.0077950284 -0.08007116 -0.007628929 0.075098716 0.0023605174 0.008083875
-0.0035361 -0.020126497 0.0099673895 0.047066227 -0.058423385 -0.014612971 0.0017969005 -0.009475962
-0.023917723 -0.045619287 -0.07779943 0.017975507 -0.089553565 0.0043236758 -0.041467205 0.04165271
0.0012910035 0.016872922 0.003317953 -0.004336988 -0.02180636 0.014729368 0.031969354 0.055232916

policy_network.9.bias f4 [7]
00000000: 6a04 ba3b 25c0 b93b 09c6 073b 4829 9eba
00000010: 8af4 eaba 360a 273b 2f8d c03c
0.0056767957 0.0056686574 0.0020717403 -0.0012066746 -0.0017925662 0.0025488264 0.023504822

exp_avg f4 [128, 15]
00000000: 949f b938 54a2 ec37 8b4c 5fb8 ac5d 8a38
00000010: 7cb4 1938 2437 93b8 96eb 4eb7 95c8 ee34
00000020: 6a58 2c36 5f06 97b7 cb31 90b7 c810 fbb5
00000030: 3117 b334 3707 5bb4 f869 b733 c598 a5b7
00000040: feb7 9cb6 1590 35b6 2dee b636 5059 4935
00000050: e70d 83b7 dc1d 8db4 1dc8 2cb7 efb7 2c36
00000060: 751c d635 f0f1 c9b5 7ee4 6d35 fd0e 6f35
00000070: 73a0 70b5 8998 77b3 1bb5 f1b6 8f44 19b6
00000080: f7a9 8136 e4f5 afb6 67dc 6cb6 5685 bf36
00000090: 27e2 c435 34f6 a434 f269 08b4 9bc6 8b35
000000a0: 3fa5 0e36 c5d3 ec32 c782 aab2 4906 4834
000000b0: 23c8 f131 0000 0000 0000 0000 0000 0000
000000c0: 0000 0000 0000 0000 0000 0000 0000 0000
000000d0: 0000 0000 0000 0000 0000 0000 0000 0000
000000e0: 0000 0000 0000 0000 0000 0000 0000 0000
000000f0: 8a9b 7638 a8eb c437 5973 7cb8 3ef7 9438
00000100: eab0 0438 f96d b5b8 bf54 10b7 ce2e 59b7
00000110: a528 bd36 e00a 8bb7 1c34 80b7 4488 d7b5
00000120: 5fea 2636 99c9 09b5 a706 20b4 0000 0000
00000130: 0000 0000 0000 0000 0000 0000 0000 0000
00000140: 0000 0000 0000 0000 0000 0000 0000 0000
00000150: 0000 0000 0000 0000 0000 0000 0000 0000
00000160: 0000 0000 0000 0000 7c30 bfb2 c392 d1b1
00000170: 8a85 4b32 66cf 8bb2 6ec1 3bb2 c27b c232
00000180: b6c0 8a31 bd98 1c30 0632 78b0 326d b431
00000190: d979 9d31 7a65 5aaf 49ac 27af d605 3132
000001a0: 541f f031 0000 0000 0000 0000 0000 0000
000001b0: 0000 0000 0000 0000 0000 0000 0000 0000
000001c0: 0000 0000 0000 0000 0000 0000 0000 0000
000001d0: 0000 0000 0000 0000 0000 0000 0000 0000
000001e0: 0000 0000 0000 0000 0000 0000 0000 0000
000001f0: 0000 0000 0000 0000 0000 0000 0000 0000
00000200: 0000 0000 0000 0000 0000 0000 0000 0000
00000210: 0000 0000 0000 0000 0000 0000 0000 0000
00000220: 0000 0000 0000 0000 0000 0000 0000 0000
00000230: 0000 0000 0000 0000 0000 0000 0000 0000
00000240: 0000 0000 0000 0000 0000 0000 0000 0000
00000250: 0000 0000 0000 0000 8735 b8b5 9b95 70b5
00000260: 58a5 b335 6cde 45b5 1771 0eb5 a3ef 1134
00000270: 2e30 0db4 e501 2bb2 b52d 4e33 0743 2533
00000280: f387 c734 a7f4 0fb3 3551 cab3 4969 52b4
00000290: cfb7 c531 0000 0000 0000 0000 0000 0000
000002a0: 0000 0000 0000 0000 0000 0000 0000 0000
000002b0: 0000 0000 0000 0000 0000 0000 0000 0000
000002c0: 0000 0000 0000 0000 0000 0000 0000 0000
000002d0: 0000 0000 0000 0000 0000 0000 0000 0000
000002e0: 0000 0000 0000 0000 0000 0000 0000 0000
000002f0: 0000 0000 0000 0000 0000 0000 0000 0000
00000300: 0000 0000 0000 0000 0000 0000 0000 0000
00000310: 0000 0000 0000 0000 0000 0000 0000 0000
00000320: 0000 0000 0000 0000 0000 0000 0000 0000
00000330: 0000 0000 0000 0000 0000 0000 0000 0000
00000340: 0000 0000 0000 0000 3df3 6538 0501 8a37
00000350: 51fb f3b7 c5dd 1438 f331 b537 222b 0db8
00000360: 6efc e6b6 0b04 9136 b05f 8935 53d9 28b7
00000370: d09a 24b7 5513 f7b4 4a3e bcb4 125a 8e34
00000380: c92e fc33 0000 0000 0000 0000 0000 0000
00000390: 0000 0000 0000 0000 0000 0000 0000 0000
000003a0: 0000 0000 0000 0000 0000 0000 0000 0000
000003b0: 0000 0000 0000 0000 0000 0000 0000 0000
000003c0: fb9e a3b6 906a 60b6 7f5e 7836 1eb7 3fb6
000003d0: 030d 14b6 5671 9936 73b7 8834 da0a 35b4
000003e0: 7808 0035 95cf a135 3237 5635 9b0a 2033
000003f0: 1ae2 3534 23a0 a704 c7c6 d218 5431 4337
8.851211e-05 2.8208982e-05 -5.323863e-05 6.5978005e-05 3.664613e-05 -7.019777e-05 -1.2333408e-05 4.4476897e-07
2.568146e-06 -1.800357e-05 -1.7189324e-05 -1.8705841e-06 3.3358222e-07 -2.0398589e-07 8.540877e-08 -1.9740672e-05
-4.670582e-06 -2.7054969e-06 5.45175e-06 7.50083e-07 -1.562289e-05 -2.6285022e-07 -1.0298591e-05 2.573706e-06
1.5952525e-06 -1.504608e-06 8.862188e-07 8.905625e-07 -8.964045e-07 -5.76479e-08 -7.203443e-06 -2.2838683e-06
3.864286e-06 -5.244032e-06 -3.5295031e-06 5.707766e-06 1.4668957e-06 3.0726517e-07 -1.270453e-07 1.0414109e-06
2.1255835e-06 2.7570318e-08 -1.9850075e-08 1.8628738e-07 7.036776e-09 0.0 0.0 0.0
0.0 0.0 0.0 0.0 0.0 0.0 0.0 0.0
0.0 0.0 0.0 0.0 5.8795827e-05 2.3474757e-05 -6.0188908e-05 7.1032424e-05
3.1636017e-05 -8.6512366e-05 -8.6028e-06 -1.29451055e-05 5.6373706e-06 -1.6575155e-05 -1.5283054e-05 -1.6058407e-06
2.487235e-06 -5.132984e-07 -1.4903581e-07 0.0 0.0 0.0 0.0 0.0
0.0 0.0 0.0 0.0 0.0 0.0 0.0 0.0
0.0 0.0 -2.2257375e-08 -6.0993854e-09 1.1846518e-08 -1.6276044e-08 -1.0928813e-08 2.2640851e-08
4.0382373e-09 5.6969524e-10 -9.029296e-10 5.2511036e-09 4.583154e-09 -1.9863036e-10 -1.524977e-10 1.0304083e-08
6.988481e-09 0.0 0.0 0.0 0.0 0.0 0.0 0.0
0.0 0.0 0.0 0.0 0.0 0.0 0.0 0.0
0.0 0.0 0.0 0.0 0.0 0.0 0.0 0.0
0.0 0.0 0.0 0.0 0.0 0.0 0.0 0.0
0.0 0.0 0.0 0.0 0.0 0.0 0.0 0.0
0.0 0.0 0.0 0.0 0.0 0.0 -1.3724647e-06 -8.962467e-07
1.3384661e-06 -7.3711885e-07 -5.306369e-07 1.3591357e-07 -1.3149176e-07 -9.953941e-09 4.8004683e-08 3.8478017e-08
3.7165555e-07 -3.3517292e-08 -9.4211295e-08 -1.9596077e-07 5.754351e-09 0.0 0.0 0.0
0.0 0.0 0.0 0.0 0.0 0.0 0.0 0.0
0.0 0.0 0.0 0.0 0.0 0.0 0.0 0.0
0.0 0.0 0.0 0.0 0.0 0.0 0.0 0.0
0.0 0.0 0.0 0.0 0.0 0.0 0.0 0.0
0.0 0.0 0.0 0.0 0.0 0.0 0.0 0.0
0.0 0.0 5.4824388e-05 1.6451357e-05 -2.9084886e-05 3.549249e-05 2.160014e-05 -3.365719e-05
-6.883921e-06 4.3218074e-06 1.0235144e-06 -1.006418e-05 -9.811207e-06 -4.60214e-07 -3.506305e-07 2.6515096e-07
1.17431746e-07 0.0 0.0 0.0 0.0 0.0 0.0 0.0
0.0 0.0 0.0 0.0 0.0 0.0 0.0 0.0
-4.8762863e-06 -3.3440629e-06 3.7009884e-06 -2.8567806e-06 -2.2061292e-06 4.5729494e-06 2.546545e-07 -1.6860886e-07
4.769604e-07 1.2055849e-06 7.980153e-07 3.726255e-08 1.6939194e-07 3.9408574e-36 5.448444e-24 1.1634391e-05

exp_avg_sq f4 [128, 15]
00000000: abde 5e34 fa88 e832 a0c1 bc33 7f38 0934
00000010: f163 6033 c005 5e34 022a ae31 cc2a 1e30
00000020: 564e 5b2f 28fd 3232 f6ad 3032 a436 bc2d
00000030: b2d4 9e2d ad9d 432e d361 852c 6638 f133
00000040: 2908 6a32 980c 4233 87f3 9033 3325 eb32
00000050: a5cb e333 ba2e 4131 2d1e b12f af1e 032f
00000060: b115 ba31 b550 be31 ad5d 522d 8c8b 212d
00000070: 5f28 242d 4bd4 ac2b 23cb 8b32 fdcc 0331
00000080: f79e dd31 4a19 2c32 2eec 8e31 4c87 9032
00000090: 7834 f82f 5ff1 812e 4bc8 b32d 97f8 6130
000000a0: c05a 6730 e321 062c 4f69 cc2b 1e68 c02d
000000b0: 3742 5b2b 0000 0000 0000 0000 0000 0000
000000c0: 0000 0000 0000 0000 0000 0000 0000 0000
000000d0: 0000 0000 0000 0000 0000 0000 0000 0000
000000e0: 0000 0000 0000 0000 0000 0000 0000 0000
000000f0: c25b 6034 2c30 b832 cfb6 ae33 1fc6 0834
00000100: f2bd 4633 e725 3634 8187 a031 b2d1 2530
00000110: d2e8 a82f 8da4 1f32 695f 2632 03e9 5a2d
00000120: 4fa9 682d a318 c42d e070 ab2c 0000 0000
00000130: 0000 0000 0000 0000 0000 0000 0000 0000
00000140: 0000 0000 0000 0000 0000 0000 0000 0000
00000150: 0000 0000 0000 0000 0000 0000 0000 0000
00000160: 0000 0000 0000 0000 0b61 e230 bfb1 692f
00000170: 7b93 3a30 9182 8730 905e e72f 9680 e730
00000180: b561 362e 753a a02c 5603 e22b 6e69 b92e
00000190: b95a b32e 25a8 622a d525 022a 565c 322c
000001a0: e862 7d2b 0000 0000 0000 0000 0000 0000
000001b0: 0000 0000 0000 0000 0000 0000 0000 0000
000001c0: 0000 0000 0000 0000 0000 0000 0000 0000
000001d0: 0000 0000 0000 0000 0000 0000 0000 0000
000001e0: 0000 0000 0000 0000 0000 0000 0000 0000
000001f0: 0000 0000 0000 0000 0000 0000 0000 0000
00000200: 0000 0000 0000 0000 0000 0000 0000 0000
00000210: 0000 0000 0000 0000 0000 0000 0000 0000
00000220: 0000 0000 0000 0000 0000 0000 0000 0000
00000230: 0000 0000 0000 0000 0000 0000 0000 0000
00000240: 0000 0000 0000 0000 0000 0000 0000 0000
00000250: 0000 0000 0000 0000 8819 7d31 e90e f42f
00000260: 17b0 c030 80df 0831 b370 6130 cfb1 4231
00000270: c911 af2e 4299 da2c d7c3 5d2c ff03 302f
00000280: 4ff1 362f 6461 992a ef6d 642a 1064 1e2c
00000290: 3960 7e2b 0000 0000 0000 0000 0000 0000
000002a0: 0000 0000 0000 0000 0000 0000 0000 0000
000002b0: 0000 0000 0000 0000 0000 0000 0000 0000
000002c0: 0000 0000 0000 0000 0000 0000 0000 0000
000002d0: 0000 0000 0000 0000 0000 0000 0000 0000
000002e0: 0000 0000 0000 0000 0000 0000 0000 0000
000002f0: 0000 0000 0000 0000 0000 0000 0000 0000
00000300: 0000 0000 0000 0000 0000 0000 0000 0000
00000310: 0000 0000 0000 0000 0000 0000 0000 0000
00000320: 0000 0000 0000 0000 0000 0000 0000 0000
00000330: 0000 0000 0000 0000 0000 0000 0000 0000
00000340: 0000 0000 0000 0000 53b7 8932 d230 ee30
00000350: 1c99 d331 ecb0 2332 177a 7e31 cbe2 6f32
00000360: a2c2 d52f f258 4a2e 1ea9 be2d a03a 4c30
00000370: fa68 5030 2ff0 bf2b a3dd ae2b 7c43 bb2c
00000380: 707e c22b 0000 0000 0000 0000 0000 0000
00000390: 0000 0000 0000 0000 0000 0000 0000 0000
000003a0: 0000 0000 0000 0000 0000 0000 0000 0000
000003b0: 0000 0000 0000 0000 0000 0000 0000 0000
000003c0: 9d75 2c32 12c2 b430 532f 9531 3ce6 dc31
000003d0: d9e4 3a31 03a2 4232 a401 8d2f 58cc 372e
000003e0: c6b6 532d 1198 1430 434b 0f30 70d3 e82b
000003f0: 8cea 8b2b 74cd 0e2c dc89 932b 1553 f132
2.0756367e-07 2.7070644e-08 8.7896524e-08 1.2779672e-07 5.224496e-08 2.0677453e-07 5.0688422e-09 5.7540883e-10
1.9945764e-10 1.0418525e-08 1.02841025e-08 2.139739e-11 1.8056976e-11 4.447791e-11 3.790948e-12 1.1232696e-07
1.3622448e-08 4.51806e-08 6.74982e-08 2.7374517e-08 1.0607554e-07 2.8111757e-09 3.2217554e-10 1.1925282e-10
5.4157785e-09 5.538903e-09 1.1957918e-11 9.182776e-12 9.331285e-12 1.2280258e-12 1.6274106e-08 1.9179531e-09
6.4500187e-09 1.0017468e-08 4.1595944e-09 1.6825332e-08 4.5148218e-10 5.909117e-11 2.0438892e-11 8.220779e-10
8.4166274e-10 1.9061356e-12 1.4524301e-12 2.187411e-11 7.789632e-13 0.0 0.0 0.0
0.0 0.0 0.0 0.0 0.0 0.0 0.0 0.0
0.0 0.0 0.0 0.0 2.0895007e-07 2.1442325e-08 8.135759e-08 1.2738063e-07
4.627322e-08 1.696386e-07 4.672018e-09 6.0324645e-10 3.072445e-10 9.292433e-09 9.6841655e-09 1.2443604e-11
1.3225267e-11 2.2293561e-11 4.872644e-12 0.0 0.0 0.0 0.0 0.0
0.0 0.0 0.0 0.0 0.0 0.0 0.0 0.0
0.0 0.0 1.6471245e-09 2.1254375e-10 6.787599e-10 9.859652e-10 4.2085846e-10 1.6844008e-09
4.146879e-11 4.5539635e-12 1.6059192e-12 8.431554e-11 8.156093e-11 2.0131169e-13 1.1559445e-13 2.5346578e-12
9.0020916e-13 0.0 0.0 0.0 0.0 0.0 0.0 0.0
0.0 0.0 0.0 0.0 0.0 0.0 0.0 0.0
0.0 0.0 0.0 0.0 0.0 0.0 0.0 0.0
0.0 0.0 0.0 0.0 0.0 0.0 0.0 0.0
0.0 0.0 0.0 0.0 0.0 0.0 0.0 0.0
0.0 0.0 0.0 0.0 0.0 0.0 3.6830858e-09 4.4393936e-10
1.4019886e-09 1.991765e-09 8.201468e-10 2.8331788e-09 7.961238e-11 6.2129477e-12 3.1514702e-12 1.6008526e-10
1.6638534e-10 2.7245838e-13 2.0288609e-13 2.2508696e-12 9.0372463e-13 0.0 0.0 0.0
0.0 0.0 0.0 0.0 0.0 0.0 0.0 0.0
0.0 0.0 0.0 0.0 0.0 0.0 0.0 0.0
0.0 0.0 0.0 0.0 0.0 0.0 0.0 0.0
0.0 0.0 0.0 0.0 0.0 0.0 0.0 0.0
0.0 0.0 0.0 0.0 0.0 0.0 0.0 0.0
0.0 0.0 1.6032265e-08 1.7330655e-09 6.1583147e-09 9.528076e-09 3.7031265e-09 1.3963198e-08
3.888277e-10 4.6008482e-11 2.1675602e-11 7.429808e-10 7.581914e-10 1.3638031e-12 1.242496e-12 5.322352e-12
1.3819623e-12 0.0 0.0 0.0 0.0 0.0 0.0 0.0
0.0 0.0 0.0 0.0 0.0 0.0 0.0 0.0
1.003846e-08 1.3151882e-09 4.341851e-09 6.4290173e-09 2.7196647e-09 1.1329123e-08 2.5648916e-10 4.1790876e-11
1.2034545e-11 5.4058186e-10 5.213005e-10 1.6543277e-12 9.941644e-13 2.0293463e-12 1.0483242e-12 2.8093874e-08
