robot_state_berkeley_training/robot_state_epoch_10.pth (torch, 838065 bytes, 24 tensors)

policy_network.0.weight f4 [128, 15]
-0.0635119 -0.028142536 0.22841293 0.12235538 0.104584664 0.009326393 0.12454161 -0.09339584
0.17148073 0.20956819 -0.12272094 0.4808781 0.13273321 0.28365746 0.32452783 0.117222264
0.14608096 -0.12216689 -0.16339947 -0.051447317 0.11518206 0.09422944 -0.07601989 -0.36314487
-0.047708366 -0.13922536 0.07504988 -0.23517197 0.23929663 0.04361294 0.0036955057 -0.070825346
-0.22281623 0.04862881 -0.03915338 0.14594363 0.18676056 0.26033604 0.20712832 -0.13811
0.25657916 -0.09926758 -0.11995956 0.18699837 -0.19228058 0.19315524 -0.129924 -0.051801074
-0.0955226 -0.12936701 -0.18899918 0.008251854 0.18019748 0.23414199 -0.05951995 -0.061612107
0.14260837 -0.06521142 0.070706494 -0.006390821 0.07046998 -0.025062544 0.18942541 -0.22275354
-0.010374364 -0.2665832 0.06793377 -0.07151735 -0.16093422 0.08809281 -0.10353701 0.47450513
-0.28117278 0.3171781 0.3272072 0.015704544 0.07467951 0.013595396 -0.113071315 0.051129248
-0.08273961 -0.1920192 -0.19081734 0.23896115 -0.013201416 -0.14713082 0.10875113 -0.22920376
-0.25111547 -0.20342153 -0.07101339 0.26722282 0.10940447 0.18726093 -0.14768395 0.12515573
-0.17715456 -0.25217935 0.12939967 0.0035956234 -0.1238946 0.032078963 -0.18913153 0.015746204
0.09081521 0.044976015 -0.0057647005 -0.21142513 0.16290526 0.1964123 0.1586797 0.10307588
0.05507028 -0.09803983 0.116359726 -0.085960425 0.03188282 -0.15432917 -0.15054837 -0.17595616
-0.04227414 0.1530953 -0.20465507 0.1159739 0.22439907 -0.2231207 0.16480778 -0.19009045
0.18847454 -0.17246756 0.092211016 0.2501889 0.05080775 -0.14482874 -0.0853781 -0.10772626
-0.18271233 -0.21741275 0.25390825 -0.10747316 -0.11422684 0.2544008 0.16400732 0.24244718
0.1574675 -0.09919246 0.091738485 0.20060968 0.1605435 -0.20682096 -0.21274815 0.027035194
-0.14664708 -0.091380954 -0.17584516 -0.13307913 -0.19212434 -0.123171695 -0.2074302 0.019081848
-0.2304178 -0.09986111 0.06944419 0.22595382 -0.023293154 0.23025969 0.05353308 0.13833976
0.039805546 -0.09473166 -0.20264322 -0.0035206443 -0.1534465 -0.23725991 0.1148577 0.0140651865
0.25002608 0.17831902 -0.129484 0.14641094 0.20424646 -0.16721047 -0.23049106 0.197429
-0.15720916 0.10646109 -0.23418546 -0.060773235 -0.00012795124 -0.1905936 0.17176156 -0.010243825
0.22083673 0.18517752 -0.049756225 0.24931498 0.064499244 0.20261289 0.19364126 0.13346875
-0.17058301 0.17003596 -0.25364053 -0.1394084 -0.17917387 -0.13276279 0.23354976 0.0046323766
-0.05645235 0.25230592 -0.1969899 -0.20536643 -0.27628142 -0.11886184 -0.11664348 0.06187283
0.039620236 0.22357611 0.35243437 -0.29558787 -0.30188295 -0.3164898 0.23608921 -0.06955881
0.06023343 -0.06132607 0.17647141 -0.24045664 0.16447444 0.20417853 -0.014144445 -0.14442588
-0.118929155 -0.048185106 0.09821773 0.11078675 -0.20685741 -0.1921759 0.08981235 -0.1326011
-0.18094543 0.28222948 0.15682825 0.12234784 0.22032553 0.13703863 -0.10348188 0.017158803
0.21230537 -0.24264844 -0.104923196 -0.14023216 -0.08832311 -0.3643715 -0.30449992 -0.04158011
00000000: 8712 82bd 2d8b e6bc 14e5 693e 7595 fa3d
00000010: 7c30 d63d bacd 183c ac0f ff3d 5146 bfbd
00000020: a598 2f3e 0b99 563e 1e55 fbbd a835 f63e
00000030: 37eb 073e 8d3b 913e 8328 a63e 3a12 f03d
00000040: 3f96 153e a232 fabd 3152 27be 6cba 52bd
00000050: 92e4 eb3d 5dfb c03d 51b0 9bbd 20ee b9be
00000060: d969 43bd 1891 0ebe c0b3 993d ecd0 70be
00000070: 2d0a 753e 7ba3 323d 4c30 723b e10c 91bd
00000080: f029 64be 012f 473d 4b5f 20bd 3f72 153e
00000090: 293e 3f3e c44a 853e 7219 543e b56c 0dbe
000000a0: 585e 833e cd4c cbbd 5cad f5bd 807c 3f3e
000000b0: 33e5 44be 7dca 453e cc0a 05be 5d2d 54bd
000000c0: 5aa1 c3bd c978 04be 0089 41be c932 073c
000000d0: b085 383e ebc2 6f3e 31cb 73bd fa5c 7cbd
000000e0: ee07 123e 918d 85bd 91ce 903d 186a d1bb
000000f0: 9152 903d f74f cdbc bcf8 413e 8119 64be
00000100: 3df9 29bc 987d 88be dc20 8b3d b077 92bd
00000110: f1cb 24be 016a b43d 360b d4bd 56f2 f23e
00000120: e1f5 8fbe 2b65 a23e b487 a73e d1a6 803c
00000130: 92f1 983d 39bf 5e3c ef91 e7bd e76c 513d
00000140: 6273 a9bd aea0 44be 9f65 43be 3bb2 743e
00000150: c04a 58bc 76a9 16be eab8 de3d 64b4 6abe
00000160: 3592 80be bc4d 50be 786f 91bd 6ed1 883e
00000170: 730f e03d 54c1 3f3e 763a 17be d328 003e
00000180: 0168 35be a71d 81be 5981 043e 8da4 6b3b
00000190: 74bc fdbd 3b65 033d b2ab 41be 2ffe 803c
000001a0: 53fd b93d c538 383d d0e5 bcbb d47f 58be
000001b0: a3d0 263e 4e20 493e ee7c 223e 7219 d33d
000001c0: 6091 613d 1bc9 c8bd 024e ee3d 050c b0bd
000001d0: 8f97 023d 7708 1ebe 5a29 1abe da2d 34be
000001e0: a627 2dbd 04c5 1c3e 1991 51be b983 ed3d
000001f0: dfc8 653e c179 64be 5fc3 283e 12a7 42be
00000200: 78ff 403e 569b 30be 21d9 bc3d c218 803e
00000210: ca1b 503d fc4d 14be b7da aebd 969f dcbd
00000220: f118 3bbe 73a1 5ebe 4300 823e e31a dcbd
00000230: c3ef e9bd d240 823e 89f1 273e 1344 783e
00000240: 293f 213e 6b25 cbbd 63e1 bb3d a06c 4d3e
00000250: 8465 243e e0c8 53be a7da 59be e978 dd3c
00000260: a72a 16be f025 bbbd c110 34be e545 08be
00000270: 3ebc 44be 7141 fcbd 9568 54be 8951 9c3c
00000280: a5f2 6bbe fb83 ccbd c138 8e3d 7060 673e
00000290: 49d1 bebc 32c9 6b3e 8145 5b3d f0a8 0d3e
000002a0: 240b 233d ac02 c2bd b481 4fbe 9cba 66bb
000002b0: 1421 1dbe 43f4 72be 843a eb3d ab71 663c
000002c0: 6b03 803e 4399 363e 7497 04be c0ec 153e
000002d0: fc25 513e 3939 2bbe d905 6cbe d42a 4a3e
000002e0: 70fb 20be 4608 da3d 50ce 6fbe 5bed 78bd
000002f0: a62a 06b9 f82a 43be 43e2 2f3e b7d5 27bc
00000300: 0623 623e 2d9f 3d3e 2fcd 4bbd 6d4c 7f3e
00000310: 2e18 843d c179 4f3e e549 463e 08ac 083e
00000320: 50ad 2ebe e81d 2e3e 2cdd 81be 13c1 0ebe
00000330: 5b79 37be f8f2 07be ab27 6f3e 31cb 973b
00000340: 943a 67bd 3e2e 813e b8b7 49be 944b 52be
00000350: c274 8dbe d66d f3bd c7e2 eebd 5d6e 7d3d
00000360: d448 223d 23f1 643e 4772 b43e 4b57 97be
00000370: 6790 9abe f30a a2be 5fc1 713e d974 8ebd
00000380: 54b7 763d 0c31 7bbd ecb4 343e 443a 76be
00000390: fd6b 283e 2d14 513e 1abe 67bc 61e4 13be
000003a0: 2191 f3bd bf5d 45bd 6126 c93d 2ae4 e23d
000003b0: 6ed2 53be c2c9 44be 8aef b73d 95c8 07be
000003c0: c249 39be 6280 903e 9697 203e 8191 fa3d
000003d0: 049d 613e db53 0c3e 4fee d3bd 9e90 8c3c
000003e0: 9466 593e d578 78be f9e1 d6bd 0599 0fbe
000003f0: bfe2 b4bd e78e babe 6ae7 9bbe e84f 2abd

policy_network.0.bias f4 [128]
-0.23973311 0.14527924 -0.062229697 0.0045538573 0.06780422 -0.0918938 0.13165274 0.08099252
0.19977744 0.037817147 -0.095910236 0.10035677 0.17702726 0.1725037 -0.089207284 0.24832934
0.1341357 -0.1925964 0.0044914274 -0.092543334 0.19034189 -0.10599121 -0.18158466 -0.22987969
0.16148438 -0.1788084 0.097759545 -0.25457016 -0.21544752 0.036360405 0.05120487 0.120487444
-0.22530846 -0.026552385 -0.24138397 -0.19169949 -0.17421542 0.09180179 -0.27746606 0.031648997
0.08067896 -0.005849355 0.04412717 0.1777713 -0.03137166 -0.16256832 -0.054229442 0.0131431855
-0.18883546 -0.13331866 0.06147355 -0.12963697 -0.17278501 0.17652777 0.04443247 0.15301672
-0.11553192 -0.15103407 0.18159688 -0.024975177 -0.20819995 -0.23714231 -0.08420243 0.13572991
0.16989997 0.11577977 0.049093753 0.13519184 -0.09017291 -0.12498381 -0.14680277 -0.029833756
-0.1321526 0.23697637 -0.096312374 -0.2459503 -0.117660396 0.110649966 -0.23668204 -0.06799268
0.2301419 -0.11485263 0.08017334 0.163865 -0.05570511 0.038387094 -0.05037945 -0.028313236
0.046880107 0.17271417 -0.17107752 0.2411139 -0.25062707 -0.016811155 -0.12279939 -0.021521058
0.096184686 0.0567057 0.13492884 -0.17816103 0.024688432 -0.2673057 0.22687475 -0.05734713
-0.23107181 0.07419855 -0.20468237 0.06778052 -0.17899299 0.16233362 0.09493768 -0.119036295
-0.21205668 -0.27555513 0.2117682 -0.035676986 0.22340205 -0.06411998 -0.08452372 0.08364067
-0.19027832 0.03128037 0.13526835 -0.12804042 0.16788392 -0.016181968 -0.13318834 -0.18074659
00000000: 997c 75be 15c4 143e 91e4 7ebd 8638 953b
00000010: f0dc 8a3d d132 bcbd facf 063e 68df a53d
00000020: 7592 4c3e 27e6 1a3d 966c c4bd da87 cd3d
00000030: a246 353e cfa4 303e 4fb2 b6bd 0c4a 7e3e
00000040: de5a 093e fe37 45be d32c 933b 5c87 bdbd
00000050: fce8 423e eb11 d9bd 54f1 39be 9565 6bbe
00000060: 295c 253e 8d19 37be 2836 c83d 0557 82be
00000070: 469e 5cbe a6ee 143d 33bc 513d 1fc2 f63d
00000080: 43b7 66be 6384 d9bc 5c2d 77be df4c 44be
00000090: 8765 32be 9402 bc3d 0810 8ebe 61a2 013d
000000a0: 033b a53d f2ab bfbb b1be 343d ae09 363e
000000b0: 927f 00bd 4f78 26be b11f 5ebd 8456 573c
000000c0: 155e 41be b084 08be b0cb 7b3d 8ebf 04be
000000d0: 8eee 30be b2c3 343e d2fe 353d 6ab0 1c3e
000000e0: 009c ecbd ada8 1abe 88f4 393e be98 ccbc
000000f0: 5e32 55be 6fd5 72be 5372 acbd c8fc 0a3e
00000100: 42fa 2d3e f21d ed3d 8816 493d bb6f 0a3e
00000110: 93ac b8bd 83f7 ffbd 7753 16be ec65 f4bc
00000120: 0353 07be efa9 723e 6c3f c5bd 65da 7bbe
00000130: eff7 f0bd 739c e23d c75c 72be bf3f 8bbd
00000140: 51aa 6b3e db37 ebbd ec31 a43d 3acc 273e
00000150: 0b2b 64bd c93b 1d3d af5a 4ebd 29f1 e7bc
00000160: 5b05 403d fcdb 303e f22e 2fbe 90e6 763e
00000170: 3152 80be 8cb7 89bc 3f7e fbbd ee4c b0bc
00000180: 7afc c43d 3c44 683d c92a 0a3e d86f 36be
00000190: 653f ca3c 4bdc 88be db51 683e d3e4 6abd
000001a0: 179e 6cbe 69f5 973d 4198 51be 83d0 8a3d
000001b0: f049 37be c93a 263e b06e c23d 4dc9 f3bd
000001c0: 6325 59be 9015 8dbe c3d9 583e 0822 12bd
000001d0: 82c3 643e 5651 83bd c61a adbd cd4b ab3d
000001e0: 52d8 42be d81f 003d c983 0a3e 071d 03be
000001f0: c3e9 2b3e 0c90 84bc 8662 08be a215 39be

policy_network.3.weight f4 [256, 128]
-0.037398566 -0.049177222 -0.0188009 -0.08609866 -0.10002419 0.07232673 -0.09238889 0.07096093
-0.022822117 -0.03048314 -0.09068228 -0.07878769 0.0014612839 -0.0627836 0.037123844 0.07312078
0.048203215 -0.081756 0.06311492 0.021770822 0.034234274 -0.08088134 -0.014562867 0.07090458
0.011875001 -0.03672803 0.067901224 -0.047832325 -0.022586262 -0.06107271 -0.02506474 -0.0040546535
0.016306216 0.056147635 0.052198697 -0.08043166 -0.00014072932 -0.0339595 0.07697956 -0.060792718
-0.033658758 0.050245117 -0.03408717 -0.08088621 -0.022744335 0.055849925 -0.021042097 -0.037208285
-0.06939235 0.022720385 -0.06376848 0.015001286 -0.05680094 0.057158776 0.01708552 -0.014511023
-0.08902505 -0.07019301 -0.05395031 -0.06235521 -0.05699002 0.015572672 -0.017555982 -0.0032794084
0.043947782 -0.0036501302 0.04622106 0.0382976 -0.07415097 -0.007084076 0.051511794 -0.053126603
-0.006954219 0.011029493 -0.08141438 0.019031709 -0.0443026 -0.019137207 0.02673633 0.04318341
-0.051274624 -0.091793366 0.02207853 -0.03774364 0.03488619 0.08195857 0.05334873 -0.030069362
0.003883456 -0.030918162 -0.01005137 -0.082832664 -0.08313148 -0.08723351 -0.07335083 0.045994934
0.010255559 0.025449762 -0.06287828 0.019930677 -0.08683639 0.030792562 -0.056245472 0.050751682
-0.015337126 0.064109735 0.013235196 0.047172375 0.019295648 0.060461175 0.0018754017 0.079554886
0.008559586 -0.016419033 -0.0017553342 -0.042334646 -0.009761231 -0.00404635 -0.055763166 -0.0056182477
-0.0117974505 -0.04860719 -0.07313071 -0.093647674 0.015444138 -0.061068084 -0.029805576 -0.04523145
-0.0645312 0.046824865 0.04524605 -0.07453118 0.051648013 -0.029024921 0.037286766 0.05467227
0.012061416 -0.070771776 -0.04983811 -0.076944605 0.03053044 0.06314726 0.08553356 -0.0024271947
-0.010246252 -0.050862152 0.12605803 -0.004452991 0.0058735427 -0.06733466 -0.039898206 -0.045466714
0.047248125 0.011942255 -0.041448537 -0.054378025 0.031250108 -0.026593111 -0.016063387 0.04795745
0.038432963 0.067273594 0.07398105 -0.07591741 -0.043847173 0.030476589 -0.060801726 -0.033976987
0.061934445 -0.040683642 0.00040487316 -0.03784318 -0.05184273 -0.02567568 -0.08165097 0.06759159
0.08348682 -0.04617913 -0.06481797 -0.06788733 -0.023915535 0.012752477 0.012795437 0.045114946
0.0021997902 -0.008487079 0.032040793 -0.07249232 0.07161623 0.0024752985 -0.06610239 0.028721916
-0.050056025 0.018909639 0.028607152 -0.08055224 0.010267323 0.07406357 0.08405361 0.06350559
0.050047673 0.05609579 -0.017595014 -0.07323623 0.08062414 0.044177044 -0.0076891803 0.053667005
0.04905872 0.066683576 0.038739245 0.06001844 -0.08657986 -0.061881423 -0.001853939 -0.06486941
0.04172846 0.074052 0.031372502 0.01372247 -0.03224196 0.039316684 -0.074821204 -0.03891638
0.045064952 -0.06319841 0.03291952 -0.089023896 -0.0011469843 -0.07338916 -0.075951874 0.07140417
-0.08742374 0.04869426 0.07289449 -0.0008702481 0.09040145 0.03975342 0.06758389 0.06589618
-0.08138587 0.018557243 -0.022067761 0.022728384 0.043334577 -0.08637712 0.03708125 -0.05286482
0.053864904 0.0657185 -0.07276274 -0.121717885 -0.013292009 0.009568472 0.07951181 -0.061738726
00000000: 3d2f 19bd 0e6e 49bd 5804 9abc 7f54 b0bd
00000010: 7cd9 ccbd 0920 943d 6336 bdbd f753 913d
00000020: 73f5 babc c7b7 f9bc a2b7 b9bd 715b a1bd
00000030: 8d88 bf3a b094 80bd 2c0f 183d 59c0 953d
00000040: bc70 453d b16f a7bd 6542 813d b958 b23c
00000050: 3d39 0c3d 1ea5 a5bd 1799 6ebc 6c36 913d
00000060: 5d8f 423c 2170 16bd cc0f 8b3d d4eb 43bd
00000070: d306 b9bc 6127 7abd 9254 cdbc e6dc 84bb
00000080: 9d94 853c 10fb 653d 4dce 553d 5bb9 a4bd
00000090: bd90 13b9 1e19 0bbd 76a7 9d3d c901 79bd
000000a0: c4dd 09bd d3cd 4d3d fd9e 0bbd aba7 a5bd
000000b0: 5452 babc e4c2 643d 7a60 acbc b767 18bd
000000c0: 941d 8ebd 1a20 ba3c 0d99 82bd f4c7 753c
000000d0: 1aa8 68bd 521f 6a3d eff6 8b3c a4bf 6dbc
000000e0: c452 b6bd 5ac1 8fbd 00fb 5cbd 2d68 7fbd
000000f0: 5e6e 69bd 8524 7f3c 90d1 8fbc 58eb 56bb
00000100: 9702 343d 0637 6fbb 4b52 3d3d f2dd 1c3d
00000110: 77dc 97bd 8921 e8bb 08fe 523d 489b 59bd
00000120: 38e0 e3bb 0cb5 343c 95bc a6bd 63e8 9b3c
00000130: a576 35bd a2c5 9cbc 2606 db3c 16e1 303d
00000140: 5705 52bd 29fe bbbd 09de b43c 1399 1abd
00000150: d2e4 0e3d e5d9 a73d 3384 5a3d 0654 f6bc
00000160: 9581 7e3b 1648 fdbc 80ae 24bc 2ca4 a9bd
00000170: d640 aabd 7ca7 b2bd f638 96bd 2f65 3c3d
00000180: ef06 283c 057c d03c 54c6 80bd a945 a33c
00000190: 47d7 b1bd af40 fc3c a761 66bd ffe0 4f3d
000001a0: 9248 7bbc f74b 833d 6fd8 583c d237 413d
000001b0: e811 9e3c 23a6 773d 0ad0 f53a aced a23d
000001c0: 813d 0c3c 3581 86bc 3e13 e6ba 1867 2dbd
000001d0: 92ed 1fbc 3e97 84bb eb67 64bd 4719 b8bb
000001e0: 184a 41bc 5518 47bd 8ec5 95bd 5aca bfbd
000001f0: 6909 7d3c 8722 7abd d32a f4bc 9d44 39bd
00000200: ef28 84bd 6ecb 3f3d ec53 393d cea3 98bd
00000210: de8c 533d acc5 edbc 02ba 183d 08f0 5f3d
00000220: 3f9d 453c cbf0 90bd 0c23 4cbd 2295 9dbd
00000230: f91a fa3c 5a53 813d 382c af3d 9211 1fbb
00000240: e5df 27bc d554 50bd 5b15 013e 65ea 91bb
00000250: d976 c03b c1e6 89bd 4d6c 23bd 4e3b 3abd
00000260: 4087 413d 73a9 433c f1c5 29bd 7ebb 5ebd
00000270: 1d00 003d ccd9 d9bc 5d97 83bc 086f 443d
00000280: e26b 1d3d bdc6 893d 6083 973d 967a 9bbd
00000290: 1899 33bd 0aaa f93c 3b0b 79bd 742b 0bbd
000002a0: f9ae 7d3d e4a3 26bd 2845 d439 7301 1bbd
000002b0: 0b59 54bd ce55 d2bc a038 a7bd 766d 8a3d
000002c0: 23fb aa3d 5426 3dbd 49bf 84bd 8308 8bbd
000002d0: 83ea c3bc c4ef 503c f4a3 513c 73ca 383d
000002e0: 5b2a 103b 640d 0bbc 353d 033d da76 94bd
000002f0: 88ab 923d 9e38 223b b160 87bd 394a eb3c
00000300: 8c07 4dbd 63e8 9a3c 8c59 ea3c 93f8 a4bd
00000310: 4638 283c a4ae 973d 4d24 ac3d 380f 823d
00000320: cafe 4c3d b3c4 653d 6b23 90bc e0fc 95bd
00000330: 451e a53d fdf2 343d 85f5 fbbb efd1 5b3d
00000340: ccf1 483d 6691 883d 0bad 1e3d e5d5 753d
00000350: c850 b1bd 6077 7dbd dfff f2ba 41da 84bd
00000360: 76eb 2a3d 93a8 973d 7480 003d 36d4 603c
00000370: 2510 04bd 880a 213d dc3b 99bd c866 1fbd
00000380: 0796 383d 2b6e 81bd 9ed6 063d 2952 b6bd
00000390: 6856 96ba 0e4d 96bd a88c 9bbd 593c 923d
000003a0: 380b b3bd a273 473d b549 953d 5d21 64ba
000003b0: 6524 b93d 7bd4 223d 6c69 8a3d 94f4 863d
000003c0: a3ad a6bd 5c05 983c 73c7 b4bc e030 ba3c
000003d0: 997f 313d 7de6 b0bd 82e2 173d c888 58bd
000003e0: 72a1 5c3d 6c97 863d a204 95bd 3a47 f9bd
000003f0: bac6 59bc 15c5 1c3c 16d7 a23d bfe1 7cbd

policy_network.3.bias f4 [256]
-0.032881305 0.031716082 0.06598033 -0.08864396 -0.01544255 -0.09947383 -0.094416186 0.07056172
0.042519543 -0.0749233 0.077975385 -0.014297644 0.009377318 0.03325993 0.07930884 0.027765868
0.04859875 -0.060439497 -0.0073538143 0.060317006 -0.030977398 -0.034562077 -0.01363049 0.003477912
-0.055456065 -0.07377382 -0.037421253 -0.04282762 -0.063362695 0.0017663824 0.041280076 0.03901079
-0.07009223 -0.091760606 -0.024422098 0.015009471 0.057981465 -0.0015034849 0.05497379 -0.034064624
-0.0095775705 0.077013135 -0.08555519 0.021501489 -0.034683 -0.068870775 -0.037667733 0.026974542
0.037126414 -0.03786058 0.036283076 -0.00025583646 0.06602001 0.056472536 0.04388122 -0.07781661
-0.077990025 0.07009514 -0.08769928 -0.04762824 0.025618987 -0.0070277243 -0.082212016 0.06354543
-0.07440423 -0.00035517866 -0.03830602 -0.08762414 0.05125879 0.039436493 0.049315285 -0.034619227
0.03939369 0.065667376 0.06246895 -0.07032849 -0.033604737 -0.01706469 0.014678334 0.047361877
0.017966012 0.026015406 0.06876929 0.011888229 0.025318788 -0.017204374 -0.061993606 -0.10511323
-0.04211098 0.025546817 -0.05918217 -0.065450534 -0.052770227 0.02936793 0.021323012 -0.020705549
-0.010311008 -0.019302187 -0.017497804 -0.0244853 -0.05400563 0.04685341 -0.04765635 0.06376854
0.012087366 0.06531434 -0.071121596 0.045734093 0.019849097 0.06345341 0.034817375 0.07106892
0.066632114 -0.08028645 -0.08248385 -0.0024857952 0.04673612 0.045667764 0.052549973 -0.10055395
-0.0068143946 0.028904153 0.015471205 -0.09811777 0.0487662 -0.02030713 -0.04059012 -0.06804827
0.035625253 -0.063804075 -0.03352623 -0.018810606 -0.06464032 -0.03190428 0.044636864 -0.04667795
-0.052711505 -0.048406176 0.075368054 -0.074076876 0.08868477 0.015661716 -0.05444783 -0.0068632686
0.048057992 -0.004058006 -0.02177554 -0.048376277 -0.0810945 -0.0018502341 0.060807846 -0.08306495
0.04900106 -0.06397292 0.048079915 0.02287895 0.06172931 -0.05625418 0.059192438 0.041640993
0.056166857 0.032975644 -0.014766604 -0.07022973 -0.06086932 -0.035574544 -0.05624314 -0.02823808
0.0018203169 -0.0628667 0.03762932 0.037408687 -0.0017427467 0.059096128 -0.084953785 0.037711367
0.017103722 -0.083482444 0.03324251 -0.08919138 0.0018955087 -0.07734133 0.002995719 -0.067940615
0.038709078 -0.06336497 0.06674788 -0.0866257 0.038777433 0.053320564 0.0051926686 0.03332077
0.042345583 -0.07402054 -0.0509607 0.029423598 -0.03704298 -0.062338203 -0.00089206087 0.044845607
-0.09372674 -0.06524624 -0.08659138 0.027322456 -0.0031425909 -0.031221995 -0.08910991 0.0063364496
-0.060445134 -0.08490224 -0.05482596 -0.06962367 0.052381493 0.063217215 -0.03329284 -0.09938584
0.0016304173 -0.044562254 -0.046366993 -0.10208866 -0.07496163 0.041702576 0.057815157 0.041418377
-0.03492261 -0.09728301 0.057627913 0.06892348 0.016916806 -0.0061369804 -0.0670208 0.045466803
0.03812342 -0.08582278 -0.02032392 -0.095986634 0.009916759 -0.024235947 0.013198382 -0.041119162
-0.03394533 0.03362125 0.060361546 0.054761644 -0.024035454 -0.074439004 0.0969615 0.0059993383
0.045349885 0.04969656 -0.033375066 0.0026865348 0.05633217 -0.061028164 0.027090827 -0.015820466
00000000: 8cae 06bd b9e8 013d b220 873d f78a b5bd
00000010: c002 7dbc efb8 cbbd 465d c1bd aa82 903d
00000020: f928 2e3d 6371 99bd 8fb1 9f3d aa40 6abc
00000030: 53a3 193c 903b 083d ac6c a23d 3f75 e33c
00000040: 7c0f 473d 688f 77bd 44f8 f0bb f70e 773d
00000050: 50c4 fdbc f790 0dbd 6b52 5fbc aeed 633b
00000060: e625 63bd bb16 97bd 0747 19bd 046c 2fbd
00000070: 4dc4 81bd f585 e73a 4c15 293d c7c9 1f3d
00000080: 848c 8fbd fcec bbbd da10 c8bc 49ea 753c
00000090: f97d 6d3d 9510 c5ba 322c 613d 5987 0bbd
000000a0: 3eeb 1cbc 10b9 9d3d 8f37 afbd e423 b03c
000000b0: c30f 0ebd 1f0c 8dbd 7b49 1abd b7f9 dc3c
000000c0: de11 183d b213 1bbd 909d 143d ca21 86b9
000000d0: 8035 873d bf4f 673d cbbc 333d 515e 9fbd
000000e0: 3cb9 9fbd 0a8e 8f3d ae9b b3bd d415 43bd
000000f0: e9de d13c d348 e6bb c65e a8bd 1b24 823d
00000100: 3f61 98bd 4637 bab9 c6e6 1cbd 4974 b3bd
00000110: bdf4 513d 2988 213d d3fe 493d e4cc 0dbd
00000120: 475b 213d 9e7c 863d 71df 7f3d 6208 90bd
00000130: 1fa5 09bd 40cb 8bbc 657d 703c 87fe 413d
00000140: 752d 933c 431e d53c ead6 8c3d d9c6 423c
00000150: 5969 cf3c 30f0 8cbc 02ed 7dbd 9b45 d7bd
00000160: 907c 2cbd 8f47 d13c 0169 72bd ee0a 86bd
00000170: 9825 58bd 0395 f03c 99ad ae3c af9e a9bc
00000180: 81ef 28bc 9f1f 9ebc 8e57 8fbc 6595 c8bc
00000190: 0235 5dbd 5ce9 3f3d 4e33 43bd 1599 823d
000001a0: 160a 463c 86c3 853d 33a8 91bd ac53 3b3d
000001b0: 939a a23c ddf3 813d aa9c 0e3d 958c 913d
000001c0: 6b76 883d 396d a4bd 4bed a8bd b9e8 22bb
000001d0: 606e 3f3d 1f0e 3b3d a43e 573d 3bef cdbd
000001e0: 494b dfbb 67c8 ec3c f07a 7d3c f8f1 c8bd
000001f0: 11bf 473d 235b a6bc d341 26bd e45c 8bbd
00000200: c9eb 113d b6ab 82bd cd52 09bd b318 9abc
00000210: 2562 84bd 10ae 02bd 25d5 363d 6131 3fbd
00000220: 05e8 57bd 8e45 46bd 915a 9a3d 9eb5 97bd
00000230: 5ca0 b53d 004d 803c b004 5fbd 45e5 e0bb
00000240: 75d8 443d 06f9 84bb 9e62 b2bc 3426 46bd
00000250: e014 a6bd 8e83 f2ba a611 793d f51d aabd
00000260: 56b5 483d 3c04 83bd 72ef 443d a36c bb3c
00000270: dfd7 7c3d c86a 66bd c573 723d bf8f 2a3d
00000280: 380f 663d 7811 073d a0ef 71bc 9bd4 8fbd
00000290: 1c52 79bd 9db6 11bd 355f 66bd 8c53 e7bc
000002a0: b397 ee3a 42c0 80bd 3421 1a3d da39 193d
000002b0: e06c e4ba c80e 723d 40fc adbd 3c77 1a3d
000002c0: 1b1d 8c3c d8f8 aabd 4c29 083d f8a9 b6bd
000002d0: b872 f83a 2265 9ebd d353 443b 7324 8bbd
000002e0: 698d 1e3d 7ec5 81bd 1db3 883d d168 b1bd
000002f0: 16d5 1e3d aa66 5a3d 4327 aa3b 5c7b 083d
00000300: 9072 2d3d 1598 97bd 2bbc 50bd c209 f13c
00000310: 61ba 17bd 5856 7fbd 31d9 69ba 07b0 373d
00000320: cef3 bfbd d29f 85bd d256 b1bd 58d3 df3c
00000330: edf3 4dbb 45c5 ffbc 427f b6bd fea1 cf3b
00000340: 5195 77bd 3ae1 adbd 3091 60bd db96 8ebd
00000350: fa8d 563d 0778 813d 135e 08bd ce8a cbbd
00000360: bab3 d53a e986 36bd 51eb 3dbd dc13 d1bd
00000370: 7c85 99bd 52d0 2a3d 96cf 6c3d 51a6 293d
00000380: 030b 0fbd 513c c7bd 3f0b 6c3d c127 8d3d
00000390: 1d95 8a3c b918 c9bb 3442 89bd 663b 3a3d
000003a0: 4e27 1c3d dbc3 afbd 597e a6bc a494 c4bd
000003b0: e779 223c 778a c6bc 073e 583c 916c 28bd
000003c0: 420a 0bbd 70b6 093d ab3d 773d bf4d 603d
000003d0: 00e6 c4bc 7a73 98bd c093 c63d 1996 c43b
000003e0: cdc0 393d 9f8e 4b3d 4bb4 08bd 9310 303b
000003f0: 90bc 663d abf8 79bd 95ed dd3c ec99 81bc

policy_network.6.weight f4 [128, 256]
0.013395391 -0.04820227 0.10671868 0.013816897 -0.053201642 -0.033493835 0.072183475 0.044216603
-0.056313932 0.020022353 0.07881747 0.050349053 -0.08433825 0.062083893 0.07177548 0.072826
0.02661818 0.0038959086 0.042726055 0.0392989 -0.050158538 0.007535422 -0.08308659 -0.0089369705
0.006609232 -0.0058840364 -0.09905358 0.061900064 -0.031237962 0.039268523 -0.0371873 -0.07822033
0.017592601 0.06588009 0.0033750327 0.016599277 -0.054069392 -0.05148504 -0.0055919 -0.05044034
-0.035932798 -0.054815955 0.033335358 -0.008024081 -0.011187263 0.0361659 0.0055982172 0.059193917
0.068820655 -0.027457481 0.017365318 0.118164375 -0.015662998 -0.013377758 0.012446722 -0.0057623773
-0.008022748 0.06818874 -0.018959664 -0.0007506947 -0.029504512 0.053675488 -0.018160067 -0.0186809
0.026091175 -0.004967892 0.03376223 0.09299661 0.08198275 0.0626623 0.05742867 0.0045486004
0.009128197 -0.014416646 0.007650788 -0.030962558 -0.005376949 -0.050312757 0.008179325 -0.017971924
0.0005126856 -0.0046845763 0.04640568 -0.011121468 0.028038772 0.009927274 -0.005973245 0.06614083
0.07116867 -0.060366567 -0.04299877 -0.051817052 -0.040988415 -0.052802525 -0.0125052035 0.038959987
-0.035697058 -0.026895002 0.065440916 0.09447424 -0.04601825 -0.03414031 0.052461844 0.01395827
0.08338831 -0.03445725 0.029298773 -0.0054221293 -0.010410915 -0.0014804697 0.0026537376 0.028935716
0.06544252 0.025850043 -0.021994356 0.034953497 0.08268563 -0.02388108 0.039865926 -0.004739437
-0.0025493775 -0.040531997 -0.07331861 0.017598674 0.012580304 0.012386244 0.011283797 0.046535365
0.029216342 -0.042368025 -0.021928048 0.03860013 0.023483831 0.047873367 0.052273203 0.0034305821
0.106344596 0.09356909 0.009186793 -0.06089253 -0.012971859 0.024453228 0.00463257 0.060730986
0.005195946 -0.024250062 -0.045568094 0.036105804 0.028466366 0.022851974 0.011718064 -0.015125677
-0.05703036 -0.04087495 0.045270666 0.03242947 -0.06506155 0.017938197 0.014072065 -0.035385054
0.000953921 -0.014480009 0.005729958 0.026081622 -0.031332593 -0.034466617 -0.04413809 0.07389933
0.034029976 -0.061353795 0.0102974605 0.022901986 -0.026590299 -0.02753545 0.05994182 0.06936198
0.0119355405 -0.056076698 0.049036387 -0.0018034539 0.006165297 -0.027208451 -0.034343548 -0.041610535
-0.012202587 -0.0054623336 0.13607775 -0.018651783 0.037705068 -0.066132195 0.0071648583 -0.03067306
0.17393205 0.046381522 0.032733195 -0.002971467 0.0183051 -0.041522406 -0.036702525 0.005634837
0.094831005 0.085712634 0.013638951 -0.05104309 0.036386736 -0.015119392 0.0056174546 0.019533232
0.05697038 -0.028900668 -0.021924077 -0.050619867 0.062011167 -0.041827958 0.028568177 0.06301729
0.06125676 -0.019597983 -0.063256204 0.010031253 0.046129294 0.049400058 -0.014979332 -0.018285325
-0.003324259 -0.06269605 -0.021921854 0.0042547337 0.05353283 -0.09160319 -0.03869953 0.04354577
0.032905594 0.05049014 0.0720206 -0.013300916 0.018194133 0.025870165 0.026407262 -0.037871815
0.015388713 -0.06459529 0.11853102 0.021124398 0.053094678 0.037943196 -0.007209717 0.018709725
0.0060413787 -0.030951615 0.035015274 0.0050768685 0.009983589 0.041818976 0.015070699 0.045227457
00000000: 5878 5b3c be6f 45bd 538f da3d 4460 623c
00000010: f7e9 59bd d530 09bd eed4 933d 781c 353d
00000020: 70a9 66bd eb05 a43c 0e6b a13d cf3a 4e3d
00000030: 88b9 acbd ae4b 7e3d 06ff 923d cc25 953d
00000040: 5f0e da3c 8052 7f3b 8401 2f3d e2f7 203d
00000050: 0a73 4dbd b4eb f63b 4d29 aabd 5f6c 12bc
00000060: 4292 d83b e0ce c0bb 9adc cabd ec8a 7d3d
00000070: c1e6 ffbc 08d8 203d b651 18bd fb31 a0bd
00000080: 5c1e 903c 24ec 863d a72f 5d3b 35fb 873c
00000090: de77 5dbd fae1 52bd 423c b7bb 889a 4ebd
000000a0: 452e 13bd b286 60bd a88a 083d 6f77 03bc
000000b0: c84a 37bc b222 143d 4071 b73b 5275 723d
000000c0: d8f1 8c3d 83ee e0bc b641 8e3c 2a00 f23d
000000d0: b04f 80bc 622e 5bbc 56ed 4b3c 53d2 bcbb
000000e0: d871 03bc 8aa6 8b3d 4c51 9bbc 45ca 44ba
000000f0: 72b3 f1bc d4da 5b3d 6cc4 94bc b008 99bc
00000100: 29bd d53c b3c9 a2bb 444a 0a3d 0275 be3d
00000110: 92e6 a73d 1855 803d 533a 6b3d 6d0c 953b
00000120: 6f8e 153c cc33 6cbc 76b3 fa3b 31a5 fdbc
00000130: 1e31 b0bb c014 4ebd 9302 063c db39 93bc
00000140: c065 063a 1381 99bb e213 3e3d d136 36bc
00000150: 91b1 e53c 01a6 223c 36bb c3bb d874 873d
00000160: e1c0 913d ef42 77bd 7a1f 30bd 1e3e 54bd
00000170: 78e3 27bd 7647 58bd a0e2 4cbc 8294 1f3d
00000180: 1437 12bd e852 dcbc e305 863d b67b c13d
00000190: a27d 3cbd b6d6 0bbd 3be2 563d 3ab1 643c
000001a0: 7ec7 aa3d 0c23 0dbd fb03 f03c 1eac b1bb
000001b0: 8b92 2abc 520c c2ba 54ea 2d3b 980a ed3c
000001c0: ba06 863d 78c3 d33c 822d b4bc 662b 0f3d
000001d0: 1557 a93d 41a2 c3bc 744a 233d 474d 9bbb
000001e0: 7513 27bb e104 26bd 1128 96bd 182b 903c
000001f0: 9f1d 4e3c acef 4a3c addf 383c de9b 3e3d
00000200: 1c57 ef3c 188a 2dbd 73a2 b3bc 2b1b 1e3d
00000210: 2a61 c03c dd16 443d 6d1c 563d 9ed3 603b
00000220: 32cb d93d 27a1 bf3d 3484 163c 726a 79bd
00000230: ec87 54bc 2352 c83c d0cc 973b 0ec1 783d
00000240: c142 aa3b 11a8 c6bc 9ca5 3abd aee3 133d
00000250: 4c32 e93c 1034 bb3c 1ffd 3f3c b0d1 77bc
00000260: ab98 69bd 7e6c 27bd bc6d 393d c4d4 043d
00000270: fd3e 85bd 20f3 923c 858e 663c ebef 10bd
00000280: 8e10 7a3a 8f3d 6dbc 5fc2 bb3b 20a9 d53c
00000290: 9b56 00bd de2c 0dbd 24ca 34bd 8858 973d
000002a0: 0463 0b3d 1e4e 7bbd aeb6 283c f29c bb3c
000002b0: e6d3 d9bc 0692 e1bc 8e85 753d a70d 8e3d
000002c0: 498d 433c aeb0 65bd 61da 483d df61 ecba
000002d0: 4206 ca3b 42e4 debc d2ab 0cbd cf6f 2abd
000002e0: 5ced 47bc 60fd b2bb f757 0b3e a0cb 98bc
000002f0: a170 1a3d 5170 87bd 30c7 ea3b 1246 fbbc
00000300: 3e1b 323e 8dfa 3d3d 3e13 063d f2bc 42bb
00000310: 94f4 953c 6613 2abd 6355 16bd 70a4 b83b
00000320: c236 c23d 1b8a af3d e875 5f3c 8f12 51bd
00000330: 420a 153d 54b7 77bc a012 b83b 2804 a03c
00000340: c659 693d 18c1 ecbc 1f9a b3bc c756 4fbd
00000350: 6cff 7d3d cb53 2bbd cf07 ea3c 350f 813d
00000360: 5ee8 7a3d f38b a0bc 788c 81bd 205a 243c
00000370: 12f2 3c3d b757 4a3d df6b 75bc 1bcb 95bc
00000380: d0db 59bb c966 80bd 7695 b3bc 4b6b 8b3b
00000390: 3e45 5b3d 749a bbbd 6683 1ebd 0d5d 323d
000003a0: 04c8 063d c0ce 4e3d 897f 933d 16ec 59bc
000003b0: dd0b 953c abed d33c 0b54 d83c 7a1f 1bbd
000003c0: f120 7c3c 894a 84bd 64c0 f23d 130d ad3c
000003d0: ce79 593d 536a 1b3d 7d3f ecbb 2345 993c
000003e0: c2f6 c53b 3e8e fdbc 2d6c 0f3d dc5b a63b
000003f0: 3592 233c 604a 2b3d 18eb 763c 6d40 393d

policy_network.6.bias f4 [128]
-0.038337395 -0.06421293 -0.011824787 -0.020873407 0.03814288 -0.07314981 -0.051066156 0.019095622
0.00616398 -0.0065435553 0.02604096 0.043016464 -0.049338218 -0.025087385 0.0058087083 -0.04712241
0.015539603 -0.060705718 -0.03468375 -0.06797746 -0.021848867 -0.04110591 -0.056889243 -0.02316432
0.028650213 0.023536028 -0.048966356 0.022237638 -0.039614633 9.325729e-05 0.034681894 -0.06295697
-0.043878272 0.040604267 -0.06258965 0.01603732 -0.05453815 0.036825422 0.012604323 -0.054331973
0.0035948188 -0.011135398 -0.08444668 -0.001148421 -0.015789751 -0.036123488 -0.053051185 -0.0035963806
-0.018849518 -0.033907175 -0.06296258 0.0008601536 0.005876837 -0.05786667 -0.0029040114 0.057790224
0.007045678 0.018424945 0.0003791951 0.0054956963 -0.027945688 0.030558674 -0.05741017 -0.066592924
-0.049834415 0.029213784 -0.0300226 -0.06083399 -0.04971278 -0.051150493 -0.032069437 -0.0031869488
0.01990668 0.047392588 -0.010081047 -0.06902098 -0.0101777315 -0.062342122 0.047645614 0.02696954
-0.023102555 -0.024976913 0.008184767 -0.059635416 -0.013899454 -0.046788026 -0.026292136 0.01702426
-0.011381828 -0.028150376 0.002155059 -0.0006915456 0.012269334 0.016591744 0.024199467 -0.025352133
-0.04284675 -0.04625342 -0.02545465 -0.03978673 -0.0331234 -0.06332366 0.055471975 0.067081854
-0.07209923 0.028371641 0.043148853 0.015880983 -0.0033099297 -0.021490343 -0.050676126 -0.07331684
-0.040591683 0.0042710193 0.0069890926 -0.041921835 -0.028233318 -0.017952086 0.042461026 -0.067081586
0.01682162 0.015423007 -0.03170745 0.045121342 -0.019166544 0.0012357939 0.015657423 0.03366666
00000000: ac07 1dbd 1282 83bd c0bc 41bc b5fe aabc
00000010: b53b 1c3d 91cf 95bd bf2a 51bd 6c6e 9c3c
00000020: 36fb c93b 526b d6bb da53 d53c 0832 303d
00000030: df16 4abd 0f84 cdbc fa56 be3b 6e03 41bd
00000040: d299 7e3c 8fa6 78bd 8c10 0ebd c437 8bbd
00000050: 65fc b2bc ac5e 28bd b204 69bd 1ac3 bdbc
00000060: dab3 ea3c a1ce c03c f290 48bd b52b b63c
00000070: f442 22bd 2093 c338 9a0e 0e3d 95ef 80bd
00000080: b4b9 33bd a950 263d 012f 80bd b360 833c
00000090: 6563 5fbd 41d6 163d 5d82 4e3c 348b 5ebd
000000a0: 0d97 6b3b 3f71 36bc 62f2 acbd 9d86 96ba
000000b0: 8259 81bc 39f6 13bd 334c 59bd 41b1 6bbb
000000c0: 4e6a 9abc 40e2 0abd 86f2 80bd ee7b 613a
000000d0: 7b92 c03b 9a05 6dbd 3a51 3ebb 71b5 6c3d
000000e0: 6edf e63b e9ef 963c b4ce c639 3e15 b43b
000000f0: 5bee e4bc 2f56 fa3c ed26 6bbd df61 88bd
00000100: 2c1f 4cbd bf51 ef3c f5f1 f5bc 102d 79bd
00000110: a19f 4bbd 2e83 51bd 3e5b 03bd 21dc 50bb
00000120: 5513 a33c bb1e 423d fa2a 25bc df5a 8dbd
00000130: 80c0 26bc 745a 7fbd 0c28 433d 3aef dc3c
00000140: 9241 bdbc 629c ccbc 6719 063c 4444 74bd
00000150: 89ba 63bc cda4 3fbd 9b62 d7bc 7676 8b3c
00000160: d97a 3abc 9e9b e6bc e43b 0d3b d748 35ba
00000170: 5105 493c 69eb 873c f63d c63c 47af cfbc
00000180: 1380 2fbd 3a74 3dbd 4586 d0bc 69f7 22bd
00000190: 67ac 07bd d6af 81bd 9536 633d 3662 893d
000001a0: c3a8 93bd a56b e83c dabc 303d d618 823c
000001b0: 68eb 58bb 840c b0bc c591 4fbd 2427 96bd
000001c0: 7743 26bd e8f3 8b3b c204 e53b 3bb6 2bbd
000001d0: 8f49 e7bc 4110 93bc 9deb 2d3d 1262 89bd
000001e0: 7ecd 893c c8b0 7c3c acdf 01bd 28d1 383d
000001f0: 2803 9dbc 5dfa a13a ff43 803c 0de6 093d

policy_network.9.weight f4 [7, 128]
0.039087757 -0.0312588 0.06783688 0.07564716 -0.010563868 -0.0734182 0.016466342 -0.065155715
-0.03857869 -0.043969836 -0.02597588 -0.054081287 0.0020860352 -0.074108206 -0.08562708 0.026954455
-0.010048708 0.016436305 -0.07928298 0.05549361 -0.013913112 0.026866004 -0.076628275 -0.07344238
0.029881325 0.025400707 -0.020599952 0.0034020832 -0.07546381 -0.03216603 -0.027146662 0.08794645
-0.07678636 -0.040718902 -0.013767744 -0.051758293 0.06748983 -0.07150888 0.0327298 -0.07927771
0.011731347 -0.0328439 0.014496429 0.06503014 9.3383904e-05 -0.06046935 -0.051884595 -0.0077490606
0.036992483 -0.035598993 0.05346337 -0.05252611 0.012664258 -0.07297069 0.008017755 0.0447068
0.05456353 0.07205925 0.010313054 0.070704475 -0.043020524 0.06275065 -0.06685582 0.055696186
0.024289807 -0.031503897 -0.020994276 0.010975468 0.047077507 0.034709845 0.02733842 -0.04644868
0.073778324 -0.024014795 0.011811564 0.04924106 -0.016588174 0.059373174 -0.05249934 0.00042826583
-0.011555656 0.00021514075 -0.016511975 0.010258795 0.019991633 0.021556797 -0.057532344 0.036346685
0.00736702 0.03154024 -0.059357658 -0.011391112 0.07806909 -0.022174912 -0.04060278 -0.06347385
-0.038299423 0.043201238 0.04995626 -0.024585634 -0.012256713 0.066781595 -0.015872428 -0.013117023
0.005270126 -0.089362256 0.07116586 0.0644607 -0.049843874 -0.062331334 -0.03785453 -0.047551394
-0.005840983 -0.064905845 0.0033004836 -0.06094435 -0.07064529 -0.072765134 0.063713625 0.048020083
0.032074306 -0.054078523 0.04241886 -0.014426497 -0.004573944 -0.07112089 0.060185958 -0.029309388
-0.011927033 0.0003836558 0.04907364 0.020673258 0.048977375 -0.040917955 0.07849514 -0.05411464
0.07689759 0.033200957 -0.051896393 0.040415954 -0.002317565 -0.066765025 0.016245058 -0.00045996884
-0.029985936 -0.006406861 -0.049853854 -0.032263048 -0.013007885 0.0105775045 0.0007936867 0.052071597
-0.016261533 -0.029114295 -0.028259654 -0.05316696 -0.075568154 0.0146876415 -0.021197326 0.04010919
-0.013225189 0.043471232 -0.06427864 -0.012667126 -0.049043056 -0.043044683 -0.013170181 0.032214597
0.0053924453 0.07172051 0.02023558 0.083427146 0.019805595 -0.056173097 0.087325655 0.011877983
0.03521518 0.027614586 0.02536038 -0.0686876 -0.0069288737 0.0695273 0.025559518 -0.017389065
0.057683945 0.015542918 -0.0013882422 -0.054729566 0.01662783 0.045040816 0.05547595 -0.018386463
-0.0663747 0.014983809 0.022915918 0.04644114 -0.030979116 0.056801323 0.00272346 -0.047794886
-0.0002026126 0.013158834 -0.058665253 -0.00031139693 0.010018102 0.06294961 -0.037035186 0.0033998508
-0.0026278154 -0.013728536 -0.0016421351 -0.065329835 0.034320932 -0.07649931 -0.045483492 -0.01361593
0.012534785 0.027716454 0.05081464 -0.0025185859 0.032436233 0.037260737 -0.006064178 -0.015044647
0.049151532 -0.05617002 -0.0083644455 -0.08007116 -0.007628929 0.0750979 0.0076812413 0.026012417
-0.0035361 -0.008345666 -0.05328919 0.04944669 -0.058367893 -0.017390858 0.077124104 -0.009475962
-0.017213589 -0.045743067 -0.07806421 0.017977271 -0.089553565 0.0036610072 -0.046482984 0.04235944
0.010099777 0.0004202574 0.003502771 0.0069384375 -0.021800837 0.014729368 0.004855354 0.05914238
00000000: 7c1a 203d 3a09 00bd 10ee 8a3d e6ec 9a3d
00000010: 1314 2dbc 485c 96bd 6ce4 863c 5c70 85bd
00000020: b004 1ebd b719 34bd 5ecb d4bc 5784 5dbd
00000030: ddb5 083b 0bc6 97bd 405d afbd 97cf dc3c
00000040: 56a3 24bc 6ea5 863c 1d5f a2bd 454d 633d
00000050: d2f3 63bc 1816 dc3c 49ef 9cbd f568 96bd
00000060: aec9 f43c 2515 d03c 3bc1 a8bc 7cf5 5e3b
00000070: c58c 9abd 87c0 03bd ad62 debc 451d b43d
00000080: 2b42 9dbd ddc8 26bd 1b92 61bc 8100 54bd
00000090: 1c38 8a3d 3f73 92bd af0f 063d 5a5c a2bd
000000a0: d634 403c 5387 06bd 6e82 6d3c 862e 853d
000000b0: 1ad7 c338 b6ae 77bd f184 54bd d5eb fdbb
000000c0: 6e85 173d 40d0 11bd 68fc 5a3d 9e25 57bd
000000d0: bf7d 4f3c a871 95bd e75c 033c 7a1e 373d
000000e0: 027e 5f3d cd93 933d 15f8 283c 82cd 903d
000000f0: 4a36 30bd 6a83 803d b4eb 88bd af21 643d
00000100: 6bfb c63c 3b0a 01bd 30fc abbc 73d2 333c
00000110: 58d4 403d e92b 0e3d d2f4 df3c f940 3ebd
00000120: 1719 973d adba c4bc 4a85 413c feb0 493d
00000130: ece3 87bc 4931 733d 8c09 57bd de88 e039
00000140: ef53 3dbc 6897 6139 1f44 87bc 8114 283c
00000150: 7ec5 a33c e197 b03c 09a7 6bbd 43e0 143d
00000160: 0b67 f13b 5730 013d 0421 73bd c9a1 3abc
00000170: b0e2 9f3d 29a8 b5bc 1a4f 26bd 94fe 81bd
00000180: dbdf 1cbd c8f3 303d ef9e 4c3d d067 c9bc
00000190: 61d0 48bc cac4 883d e506 82bc c8e8 56bc
000001a0: 05b1 ac3b 8f03 b7bd 68bf 913d f903 843d
000001b0: 1729 4cbd 244f 7fbd 5a0d 1bbd 40c5 42bd
000001c0: b765 bfbb 5bed 84bd ed4c 583b c8a0 79bd
000001d0: 7aae 90bd e305 95bd 4a7c 823d b5b0 443d
000001e0: 5960 033d 7181 5dbd 66bf 2d3d 1d5d 6cbc
000001f0: 06e1 95bb d4a7 91bd 8d85 763d 3e1a f0bc
00000200: 9a69 43bc 6925 c939 7101 493d f75a a93c
00000210: 809c 483d 9699 27bd 0fc2 a03d 50a7 5dbd
00000220: 7c7c 9d3d bafd 073d 5091 54bd 338b 253d
00000230: 4ae2 17bb 1abc 88bd 5b14 853c f927 f1b9
00000240: 11a5 f5bc a5f0 d1bb 8e33 4cbd 4226 04bd
00000250: 061f 55bc 454d 2d3c 6a0f 503a 0749 553d
00000260: e836 85bc 1a81 eebc ca80 e7bc 99c5 59bd
00000270: 7ac3 9abd 6fa4 703c 04a6 adbc 8949 243d
00000280: 77ae 58bc e40e 323d 85a4 83bd c789 4fbc
00000290: 5fe1 48bd 9f4f 30bd bec7 57bc 74f3 033d
000002a0: 1cb3 b03b 34e2 923d 16c5 a53c dadb aa3d
000002b0: 583f a23c c315 66bd cbd7 b23d df9b 423c
000002c0: cb3d 103d fc37 e23c 92c0 cf3c 16ac 8cbd
000002d0: 9b0b e3bb 5464 8e3d 3262 d13c 8373 8ebc
000002e0: 0046 6c3d b9a7 7e3c aef5 b5ba 1c2c 60bd
000002f0: 1637 883c b87c 383d c03a 633d 359f 96bc
00000300: 75ef 87bd a67e 753c 2aba bb3c 1139 3e3d
00000310: eac7 fdbc 81a8 683d 147c 323b 92c4 43bd
00000320: 6874 54b9 2698 573c fa4a 70bd fd42 a3b9
00000330: f722 243c baeb 803d 35b2 17bd 08d0 5e3b
00000340: 6d37 2cbb a7ed 60bc e93c d7ba a6cb 85bd
00000350: 1b94 0c3d acab 9cbd e64c 3abd 5a15 5fbc
00000360: b35e 4d3c 9e0d e33c 0323 503d dc0e 25bb
00000370: dbdb 043d b79e 183d 03b6 c6bb d37d 76bc
00000380: 1e53 493d 8912 66bd 070b 09bc 59fc a3bd
00000390: 18fc f9bb eecc 993d ecb2 fb3b fe17 d53c
000003a0: eabd 67bb 43bc 08bc c445 5abd 9d88 4a3d
000003b0: 2c13 6fbd 4677 8ebc 3ef3 9d3d 1141 1bbc
000003c0: 8303 8dbc 155d 3bbd 21e0 9fbd 1245 933c
000003d0: dc67 b7bd 82ed 6f3b f164 3ebd 1881 2d3d
000003e0: 8979 253c fe55 dc39 bf8e 653b d55b e33b
000003f0: ab97 b2bc 7253 713c a919 9f3b 483f 723d

policy_network.9.bias f4 [7]
0.010067926 0.0041664364 0.001414542 0.00038520587 -0.0041083638 0.0034984027 0.0285505
00000000: f1f3 243c 9a86 883b 2768 b93a 75f5 c939
00000010: 749f 86bb 7545 653b bde2 e93c

exp_avg f4 [128, 15]
0.00012252896 5.4556327e-05 -9.2876355e-05 9.917964e-05 6.233478e-05 -0.00012632074 -1.4860319e-05 -5.3747185e-06
2.5057357e-06 -2.7884227e-05 -2.7708524e-05 2.398649e-07 1.5394235e-07 -2.0149046e-06 1.990953e-08 -5.3809404e-06
-3.5896248e-06 2.720422e-06 -1.2000677e-06 -2.419748e-06 2.4761773e-06 4.854493e-07 -5.0983954e-07 6.7637563e-07
7.0575317e-07 1.2525925e-06 -1.3370445e-07 5.5442055e-08 7.02652e-07 3.5231744e-07 6.7594453e-07 -3.925699e-06
8.762727e-06 -7.070232e-06 -1.7556669e-06 1.4214701e-05 -1.2342526e-06 4.146766e-06 -3.73539e-07 2.134954e-06
2.8762264e-07 3.0747998e-07 -3.4631972e-07 7.28751e-07 2.422517e-07 0.0 0.0 0.0
0.0 0.0 0.0 0.0 0.0 0.0 0.0 0.0
0.0 0.0 0.0 0.0 2.4224755e-05 7.859076e-06 -1.9339954e-05 2.2077726e-05
9.932766e-06 -2.1875867e-05 -2.4125409e-06 -6.5806233e-07 1.895018e-06 -5.45853e-06 -4.426071e-06 -3.473605e-07
5.6667733e-07 -1.0499449e-06 1.5625614e-07 0.0 0.0 0.0 0.0 0.0
0.0 0.0 0.0 0.0 0.0 0.0 0.0 0.0
0.0 0.0 -1.2436448e-05 -4.121881e-06 6.3025336e-06 -7.979862e-06 -6.2625822e-06 1.1527741e-05
2.3093323e-06 6.631016e-09 -1.5388642e-07 2.6778973e-06 2.678774e-06 -1.8602424e-07 -2.7391163e-08 -2.146173e-07
-1.08003215e-08 0.0 0.0 0.0 0.0 0.0 0.0 0.0
0.0 0.0 0.0 0.0 0.0 0.0 0.0 0.0
0.0 0.0 0.0 0.0 0.0 0.0 0.0 0.0
0.0 0.0 0.0 0.0 0.0 0.0 0.0 0.0
0.0 0.0 0.0 0.0 0.0 0.0 0.0 0.0
0.0 0.0 0.0 0.0 0.0 0.0 -1.3361378e-05 -5.6881117e-06
7.746281e-06 -8.419929e-06 -6.4126816e-06 1.2095556e-05 2.1267808e-06 1.3745912e-07 1.0565718e-07 2.8854306e-06
2.7917813e-06 -3.680327e-08 7.755764e-08 -1.0949197e-07 3.343342e-08 0.0 0.0 0.0
0.0 0.0 0.0 0.0 0.0 0.0 0.0 0.0
0.0 0.0 0.0 0.0 0.0 0.0 0.0 0.0
0.0 0.0 0.0 0.0 0.0 0.0 0.0 0.0
0.0 0.0 0.0 0.0 0.0 0.0 0.0 0.0
0.0 0.0 0.0 0.0 0.0 0.0 0.0 0.0
0.0 0.0 8.30019e-06 4.955999e-06 -6.283916e-06 5.407273e-06 4.245802e-06 -7.1113172e-06
-6.688557e-07 -6.1187755e-08 -2.7910139e-07 -1.577712e-06 -2.039847e-06 3.352582e-08 -1.0975956e-07 -4.7079342e-07
-6.288413e-08 0.0 0.0 0.0 0.0 0.0 0.0 0.0
0.0 0.0 0.0 0.0 0.0 0.0 0.0 0.0
-1.2101607e-05 -5.804635e-06 8.252691e-06 -8.356786e-06 -6.3009043e-06 1.23839545e-05 1.7373892e-06 4.9001045e-07
4.2762803e-08 2.7659687e-06 2.659064e-06 -1.2750466e-07 9.736832e-09 1.5406982e-12 1.43951144e-11 -2.1571794e-05
00000000: 1e7b 0039 69d3 6438 9dc6 c2b8 aafe cf38
00000010: bbb9 8238 f774 04b9 9650 79b7 7b58 b4b6
00000020: 3628 2836 ece8 e9b7 9a6f e8b7 c8c6 8034
00000030: 5a4b 2534 cc37 07b6 8505 ab32 ed8d b4b6
00000040: 49e5 70b6 7e90 3636 0312 a1b5 f462 22b6
00000050: 672c 2636 d24f 0235 e8db 08b5 2e90 3535
00000060: fd72 3d35 c01e a835 6690 0fb4 2f1f 6e33
00000070: e19d 3c35 2426 bd34 8e72 3535 7fb9 83b6
00000080: a003 1337 d53c edb6 41a4 ebb5 ad7b 6e37
00000090: 99a8 a5b5 7324 8b36 cf8a c8b4 3b46 0f36
000000a0: 8e6a 9a34 ba13 a534 d2ed b9b4 639f 4335
000000b0: d20e 8234 0000 0000 0000 0000 0000 0000
000000c0: 0000 0000 0000 0000 0000 0000 0000 0000
000000d0: 0000 0000 0000 0000 0000 0000 0000 0000
000000e0: 0000 0000 0000 0000 0000 0000 0000 0000
000000f0: 4436 cb37 79da 0337 3c3c a2b7 8e33 b937
00000100: e8a4 2637 1182 b7b7 23e7 21b6 b3a5 30b5
00000110: 5358 fe35 6a28 b7b6 a983 94b6 dd7c bab4
00000120: c51d 1835 d5eb 8cb5 5cc7 2734 0000 0000
00000130: 0000 0000 0000 0000 0000 0000 0000 0000
00000140: 0000 0000 0000 0000 0000 0000 0000 0000
00000150: 0000 0000 0000 0000 0000 0000 0000 0000
00000160: 0000 0000 0000 0000 23a6 50b7 b04e 8ab6
00000170: 5a7a d336 3fe1 05b7 2c23 d2b6 4567 4137
00000180: 07fa 1a36 09d7 e331 fa3b 25b4 edb5 3336
00000190: fdc4 3336 f4bd 47b4 ce49 ebb2 8e71 66b4
000001a0: 518c 39b2 0000 0000 0000 0000 0000 0000
000001b0: 0000 0000 0000 0000 0000 0000 0000 0000
000001c0: 0000 0000 0000 0000 0000 0000 0000 0000
000001d0: 0000 0000 0000 0000 0000 0000 0000 0000
000001e0: 0000 0000 0000 0000 0000 0000 0000 0000
000001f0: 0000 0000 0000 0000 0000 0000 0000 0000
00000200: 0000 0000 0000 0000 0000 0000 0000 0000
00000210: 0000 0000 0000 0000 0000 0000 0000 0000
00000220: 0000 0000 0000 0000 0000 0000 0000 0000
00000230: 0000 0000 0000 0000 0000 0000 0000 0000
00000240: 0000 0000 0000 0000 0000 0000 0000 0000
00000250: 0000 0000 0000 0000 ae2a 60b7 82dc beb6
00000260: 06f6 0137 5243 0db7 842c d7b6 04ee 4a37
00000270: d1b9 0e36 7a98 1334 a6e5 e233 52a3 4136
00000280: 705a 3b36 a011 1eb3 c38d a633 d921 ebb3
00000290: 6f98 0f33 0000 0000 0000 0000 0000 0000
000002a0: 0000 0000 0000 0000 0000 0000 0000 0000
000002b0: 0000 0000 0000 0000 0000 0000 0000 0000
000002c0: 0000 0000 0000 0000 0000 0000 0000 0000
000002d0: 0000 0000 0000 0000 0000 0000 0000 0000
000002e0: 0000 0000 0000 0000 0000 0000 0000 0000
000002f0: 0000 0000 0000 0000 0000 0000 0000 0000
00000300: 0000 0000 0000 0000 0000 0000 0000 0000
00000310: 0000 0000 0000 0000 0000 0000 0000 0000
00000320: 0000 0000 0000 0000 0000 0000 0000 0000
00000330: 0000 0000 0000 0000 0000 0000 0000 0000
00000340: 0000 0000 0000 0000 0b41 0b37 b54b a636
00000350: 6dda d2b6 1f70 b536 2977 8e36 c09d eeb6
00000360: 6a8b 33b5 5366 83b3 67d7 95b4 c6c1 d3b5
00000370: 4ee4 08b6 07fe 0f33 f5b4 ebb3 5bc1 fcb4
00000380: eb0a 87b3 0000 0000 0000 0000 0000 0000
00000390: 0000 0000 0000 0000 0000 0000 0000 0000
000003a0: 0000 0000 0000 0000 0000 0000 0000 0000
000003b0: 0000 0000 0000 0000 0000 0000 0000 0000
000003c0: 0208 4bb7 6fc5 c2b6 0a75 0a37 1f34 0cb7
000003d0: 5b6c d3b6 aec4 4f37 3d30 e935 4389 0335
000003e0: 33aa 3733 fb9e 3936 5f72 3236 37e8 08b4
000003f0: 0a47 2732 81d5 d82b d53d 7d2d 13f5 b4b7

exp_avg_sq f4 [128, 15]
8.317687e-08 1.1136837e-08 3.6440134e-08 5.33416e-08 2.2046503e-08 9.091071e-08 2.1114592e-09 2.7039773e-10
8.907332e-11 4.3855235e-09 4.30878e-09 9.686504e-12 7.0005416e-12 4.191631e-11 8.682546e-12 4.023221e-09
5.667342e-10 1.7238341e-09 2.3539788e-09 9.593557e-10 3.6735675e-09 8.809065e-11 8.488394e-12 3.55405e-12
1.9200702e-10 1.9312013e-10 3.6877023e-13 2.7858298e-13 9.672276e-12 2.7101648e-12 7.01834e-09 8.9638824e-10
2.94327e-09 4.378513e-09 1.826114e-09 7.431603e-09 1.8096274e-10 2.217206e-11 7.630124e-12 3.658813e-10
3.5553382e-10 7.5407627e-13 5.381938e-13 1.05038304e-11 1.931401e-12 0.0 0.0 0.0
0.0 0.0 0.0 0.0 0.0 0.0 0.0 0.0
0.0 0.0 0.0 0.0 5.2769604e-08 7.0964363e-09 2.38738e-08 3.5117868e-08
1.41127625e-08 5.8550242e-08 1.3263154e-09 1.8815352e-10 6.333163e-11 2.7829379e-09 2.811334e-09 5.0982335e-12
4.402832e-12 2.18008e-11 1.1258895e-11 0.0 0.0 0.0 0.0 0.0
0.0 0.0 0.0 0.0 0.0 0.0 0.0 0.0
0.0 0.0 2.3297368e-09 3.1428554e-10 1.0005161e-09 1.4071508e-09 5.730718e-10 2.2336375e-09
5.2703508e-11 5.969962e-12 2.2971208e-12 1.1400009e-10 1.140699e-10 2.298971e-13 1.4746903e-13 6.759582e-12
2.3916685e-12 0.0 0.0 0.0 0.0 0.0 0.0 0.0
0.0 0.0 0.0 0.0 0.0 0.0 0.0 0.0
0.0 0.0 0.0 0.0 0.0 0.0 0.0 0.0
0.0 0.0 0.0 0.0 0.0 0.0 0.0 0.0
0.0 0.0 0.0 0.0 0.0 0.0 0.0 0.0
0.0 0.0 0.0 0.0 0.0 0.0 1.8196501e-09 2.652914e-10
7.784773e-10 1.0312288e-09 4.2094517e-10 1.534539e-09 3.7262755e-11 2.6450955e-12 1.3431164e-12 8.2819425e-11
8.56275e-11 1.5298418e-13 9.9494116e-14 3.6299568e-12 2.2570262e-12 0.0 0.0 0.0
0.0 0.0 0.0 0.0 0.0 0.0 0.0 0.0
0.0 0.0 0.0 0.0 0.0 0.0 0.0 0.0
0.0 0.0 0.0 0.0 0.0 0.0 0.0 0.0
0.0 0.0 0.0 0.0 0.0 0.0 0.0 0.0
0.0 0.0 0.0 0.0 0.0 0.0 0.0 0.0
0.0 0.0 2.5180777e-09 3.5236244e-10 1.1007046e-09 1.5123037e-09 6.136816e-10 2.3570554e-09
5.3838073e-11 6.093685e-12 2.3507656e-12 1.2076012e-10 1.2384958e-10 2.2420909e-13 1.7856304e-13 7.85701e-12
3.549134e-12 0.0 0.0 0.0 0.0 0.0 0.0 0.0
0.0 0.0 0.0 0.0 0.0 0.0 0.0 0.0
4.2595607e-09 5.989924e-10 1.8862716e-09 2.6692673e-09 1.0935839e-09 4.504473e-09 1.01103764e-10 1.3316492e-11
4.216256e-12 2.2074996e-10 2.1671266e-10 4.7554734e-13 2.9044887e-13 5.5181246e-12 2.8436314e-12 3.0290437e-09
00000000: f89e b233 5454 3f32 5a82 1c33 b619 6533
00000010: c660 bd32 b13a c333 2f19 1131 19a7 942f
00000020: d2df c32e 79af 9631 6e0c 9431 2368 2a2d
00000030: 464f f62c 9259 382e b6be 182d a03c 8a31
00000040: 60c8 1b30 05ec ec30 a2c3 2131 54da 8330
00000050: 1572 7c31 a1b6 c12e 5454 152d 1318 7a2c
00000060: 2c1d 532f 7c56 542f 6499 cf2a 0ad4 9c2a
00000070: 0f28 2a2d fdb5 3e2c f925 f131 b765 7630
00000080: 8e42 4a31 cf71 9631 adfa fa30 1259 ff31
00000090: 7cf8 462f 0a07 c32d 063b 062d 3725 c92f
000000a0: f074 c32f ec40 542b f37c 172b 0cc9 382d
000000b0: 07e9 072c 0000 0000 0000 0000 0000 0000
000000c0: 0000 0000 0000 0000 0000 0000 0000 0000
000000d0: 0000 0000 0000 0000 0000 0000 0000 0000
000000e0: 0000 0000 0000 0000 0000 0000 0000 0000
000000f0: cba4 6233 ead4 f331 0b13 cd32 81d4 1633
00000100: 9674 7232 ac78 7b33 9349 b630 82e0 4e2f
00000110: 8a44 8b2e f63d 3f31 8331 4131 ce60 b32c
00000120: 2fe9 9a2c 0ac3 bf2d 8e11 462d 0000 0000
00000130: 0000 0000 0000 0000 0000 0000 0000 0000
00000140: 0000 0000 0000 0000 0000 0000 0000 0000
00000150: 0000 0000 0000 0000 0000 0000 0000 0000
00000160: 0000 0000 0000 0000 2a19 2031 c2c7 ac2f
00000170: 8882 8930 b865 c130 5886 1d30 917e 1931
00000180: e0ca 672e a30c d22c 40a5 212c 58b0 fa2e
00000190: a5d7 fa2e aa6b 812a 0e09 262a e7d4 ed2c
000001a0: 784c 282c 0000 0000 0000 0000 0000 0000
000001b0: 0000 0000 0000 0000 0000 0000 0000 0000
000001c0: 0000 0000 0000 0000 0000 0000 0000 0000
000001d0: 0000 0000 0000 0000 0000 0000 0000 0000
000001e0: 0000 0000 0000 0000 0000 0000 0000 0000
000001f0: 0000 0000 0000 0000 0000 0000 0000 0000
00000200: 0000 0000 0000 0000 0000 0000 0000 0000
00000210: 0000 0000 0000 0000 0000 0000 0000 0000
00000220: 0000 0000 0000 0000 0000 0000 0000 0000
00000230: 0000 0000 0000 0000 0000 0000 0000 0000
00000240: 0000 0000 0000 0000 0000 0000 0000 0000
00000250: 0000 0000 0000 0000 3f17 fa30 72d8 912f
00000260: 78fc 5530 23bb 8d30 c46a e72f cbe7 d230
00000270: 22e2 232e ce21 3a2c de06 bd2b 311f b62e
00000280: ff4b bc2e b03e 2c2a 740a e029 7d6f 7f2c
00000290: f8d2 1e2c 0000 0000 0000 0000 0000 0000
000002a0: 0000 0000 0000 0000 0000 0000 0000 0000
000002b0: 0000 0000 0000 0000 0000 0000 0000 0000
000002c0: 0000 0000 0000 0000 0000 0000 0000 0000
000002d0: 0000 0000 0000 0000 0000 0000 0000 0000
000002e0: 0000 0000 0000 0000 0000 0000 0000 0000
000002f0: 0000 0000 0000 0000 0000 0000 0000 0000
00000300: 0000 0000 0000 0000 0000 0000 0000 0000
00000310: 0000 0000 0000 0000 0000 0000 0000 0000
00000320: 0000 0000 0000 0000 0000 0000 0000 0000
00000330: 0000 0000 0000 0000 0000 0000 0000 0000
00000340: 0000 0000 0000 0000 7e0a 2d31 9bb6 c12f
00000350: 9a47 9730 75d9 cf30 01b0 2830 c2f9 2131
00000360: 48c8 6c2e 0967 d62c a16b 252c f4c6 042f
00000370: 8f2c 082f df6f 7c2a 4b0b 492a d438 0a2d
00000380: 84bf 792c 0000 0000 0000 0000 0000 0000
00000390: 0000 0000 0000 0000 0000 0000 0000 0000
000003a0: 0000 0000 0000 0000 0000 0000 0000 0000
000003b0: 0000 0000 0000 0000 0000 0000 0000 0000
000003c0: 7e5b 9231 58a6 2430 a49f 0131 3f6e 3731
000003d0: 104d 9630 c3c5 9a31 5c54 de2e 2644 6a2d
000003e0: a858 942c 97b7 722f 3147 6e2f ccda 052b
000003f0: 1882 a32a d926 c22c 4f1a 482c 8027 5031
