robot_state_berkeley_training/robot_state_epoch_11.pth (torch, 838065 bytes, 24 tensors)

policy_network.0.weight f4 [128, 15]
-0.061208095 -0.029813578 0.22933857 0.1227885 0.10716123 0.010097027 0.119890094 -0.08071576
0.17583832 0.21020496 -0.12627187 0.51885957 0.12426956 0.28642416 0.33334604 0.117354035
0.15347433 -0.12209762 -0.16580732 -0.04766281 0.11045443 0.09237803 -0.0963185 -0.39292783
-0.050040793 -0.14180571 0.112067364 -0.25229692 0.23159464 0.032780338 0.010263125 -0.06602454
-0.229272 0.055648893 -0.034048844 0.13997531 0.18139999 0.2589358 0.22046146 -0.14505021
0.25174806 -0.12054943 -0.10844963 0.18150826 -0.20001286 0.19315524 -0.129924 -0.051801074
-0.0955226 -0.12936701 -0.18899918 0.008251854 0.18019748 0.23414199 -0.05951995 -0.061612107
0.14260837 -0.06521142 0.070706494 -0.006390821 0.075300306 -0.018306654 0.18640845 -0.22068168
-0.004708571 -0.2694353 0.06285239 -0.065048106 -0.17200735 0.08528645 -0.10934643 0.51247805
-0.29572663 0.32036936 0.3308134 0.015704544 0.07467951 0.013595396 -0.113071315 0.051129248
-0.08273961 -0.1920192 -0.19081734 0.23896115 -0.013201416 -0.14713082 0.10875113 -0.22920376
-0.25111547 -0.20342153 -0.069156855 0.27017137 0.108657666 0.1876867 -0.1455876 0.123524964
-0.18035775 -0.25058478 0.12022653 0.0017491966 -0.12559684 0.035766125 -0.1975041 0.011538925
0.08777026 0.044976015 -0.0057647005 -0.21142513 0.16290526 0.1964123 0.1586797 0.10307588
0.05507028 -0.09803983 0.116359726 -0.085960425 0.03188282 -0.15432917 -0.15054837 -0.17595616
-0.04227414 0.1530953 -0.20465507 0.1159739 0.22439907 -0.2231207 0.16480778 -0.19009045
0.18847454 -0.17246756 0.092211016 0.2501889 0.05080775 -0.14482874 -0.0853781 -0.10772626
-0.18271233 -0.21741275 0.25390825 -0.10747316 -0.11422684 0.2544008 0.16400732 0.24244718
0.1574675 -0.09919246 0.091738485 0.20060968 0.1605435 -0.20682096 -0.20527926 0.037760627
-0.15306523 -0.08588918 -0.16703138 -0.14088283 -0.20153423 -0.1240353 -0.22387138 0.011587125
-0.23848656 -0.08792242 0.021420207 0.22480261 -0.031759676 0.23025969 0.05353308 0.13833976
0.039805546 -0.09473166 -0.20264322 -0.0035206443 -0.1534465 -0.23725991 0.1148577 0.0140651865
0.25002608 0.17831902 -0.129484 0.14641094 0.20424646 -0.16721047 -0.23049106 0.197429
-0.15720916 0.10646109 -0.23418546 -0.060773235 -0.00012795124 -0.1905936 0.17176156 -0.010243825
0.22083673 0.18517752 -0.049756225 0.24931498 0.064499244 0.20261289 0.19364126 0.13346875
-0.17058301 0.17003596 -0.25364053 -0.1394084 -0.17917387 -0.13276279 0.23354976 0.0046323766
-0.05645235 0.25230592 -0.18119201 -0.1949243 -0.2926231 -0.10071325 -0.10266409 0.047428984
0.026624821 0.22477907 0.3923097 -0.31196854 -0.31469825 -0.33108434 0.24974692 -0.08116706
0.062456656 -0.06132607 0.17647141 -0.24045664 0.16447444 0.20417853 -0.014144445 -0.14442588
-0.118929155 -0.048185106 0.09821773 0.11078675 -0.20685741 -0.1921759 0.08981235 -0.1326011
-0.18041639 0.28449592 0.15738867 0.12172875 0.22149327 0.13594592 -0.10591775 0.01806047
0.1985143 -0.24397272 -0.10456345 -0.14875989 -0.11934607 -0.3643715 -0.3047289 -0.038443707
00000000: 57b5 7abd 9b3b f4bc bbd7 6a3e 8978 fb3d
00000010: 5977 db3d 006e 253c f088 f53d 4e4e a5bd
00000020: f60e 343e f83f 573e 6a4d 01be fbd3 043f
00000030: 0a81 fe3d 30a6 923e 55ac aa3e 5057 f03d
00000040: 6028 1d3e 510e fabd 65c9 29be 143a 43bd
00000050: ef35 e23d b130 bd3d a242 c5bd d62d c9be
00000060: 93f7 4cbd 8435 11be 9383 e53d 102d 81be
00000070: 2527 6d3e ad44 063d ab26 283c e037 87bd
00000080: 47c6 6abe 18f0 633d cd76 0bbd b055 0f3e
00000090: ebc0 393e 3c93 843e a6c0 613e 0b88 14be
000000a0: 1fe5 803e 9fe2 f6bd d71a debd 4ddd 393e
000000b0: 2cd0 4cbe 7dca 453e cc0a 05be 5d2d 54bd
000000c0: 5aa1 c3bd c978 04be 0089 41be c932 073c
000000d0: b085 383e ebc2 6f3e 31cb 73bd fa5c 7cbd
000000e0: ee07 123e 918d 85bd 91ce 903d 186a d1bb
000000f0: 0c37 9a3d d6f7 95bc dbe1 3e3e 61fa 61be
00000100: 5b4a 9abb 6cf3 89be c1b8 803d f137 85bd
00000110: b222 30be aaaa ae3d 05f1 dfbd c331 033f
00000120: 7b69 97be 7407 a43e 6060 a93e d1a6 803c
00000130: 92f1 983d 39bf 5e3c ef91 e7bd e76c 513d
00000140: 6273 a9bd aea0 44be 9f65 43be 3bb2 743e
00000150: c04a 58bc 76a9 16be eab8 de3d 64b4 6abe
00000160: 3592 80be bc4d 50be 1ca2 8dbd e753 8a3e
00000170: e987 de3d f130 403e ea14 15be a8fa fc3d
00000180: b4af 38be a64c 80be 5439 f63d 4c45 e53a
00000190: 759c 00be 807f 123d 843e 4abe c20d 3d3c
000001a0: e5c0 b33d c538 383d d0e5 bcbb d47f 58be
000001b0: a3d0 263e 4e20 493e ee7c 223e 7219 d33d
000001c0: 6091 613d 1bc9 c8bd 024e ee3d 050c b0bd
000001d0: 8f97 023d 7708 1ebe 5a29 1abe da2d 34be
000001e0: a627 2dbd 04c5 1c3e 1991 51be b983 ed3d
000001f0: dfc8 653e c179 64be 5fc3 283e 12a7 42be
00000200: 78ff 403e 569b 30be 21d9 bc3d c218 803e
00000210: ca1b 503d fc4d 14be b7da aebd 969f dcbd
00000220: f118 3bbe 73a1 5ebe 4300 823e e31a dcbd
00000230: c3ef e9bd d240 823e 89f1 273e 1344 783e
00000240: 293f 213e 6b25 cbbd 63e1 bb3d a06c 4d3e
00000250: 8465 243e e0c8 53be ba34 52be e3aa 1a3d
00000260: 22bd 1cbe abe6 afbd 460a 2bbe 9743 10be
00000270: fd5e 4ebe 3806 febd 8a3e 65be edd7 3d3c
00000280: d235 74be ab10 b4bd 6e79 af3c a832 663e
00000290: 6f16 02bd 32c9 6b3e 8145 5b3d f0a8 0d3e
000002a0: 240b 233d ac02 c2bd b481 4fbe 9cba 66bb
000002b0: 1421 1dbe 43f4 72be 843a eb3d ab71 663c
000002c0: 6b03 803e 4399 363e 7497 04be c0ec 153e
000002d0: fc25 513e 3939 2bbe d905 6cbe d42a 4a3e
000002e0: 70fb 20be 4608 da3d 50ce 6fbe 5bed 78bd
000002f0: a62a 06b9 f82a 43be 43e2 2f3e b7d5 27bc
00000300: 0623 623e 2d9f 3d3e 2fcd 4bbd 6d4c 7f3e
00000310: 2e18 843d c179 4f3e e549 463e 08ac 083e
00000320: 50ad 2ebe e81d 2e3e 2cdd 81be 13c1 0ebe
00000330: 5b79 37be f8f2 07be ab27 6f3e 31cb 973b
00000340: 943a 67bd 3e2e 813e 668a 39be 3c9a 47be
00000350: b2d2 95be c042 cebd 8d41 d2bd e544 423d
00000360: 4c1c da3c 7c2c 663e d1dc c83e 57ba 9fbe
00000370: 2120 a1be e383 a9be a8bd 7f3e ea3a a6bd
00000380: 8dd2 7f3d 0c31 7bbd ecb4 343e 443a 76be
00000390: fd6b 283e 2d14 513e 1abe 67bc 61e4 13be
000003a0: 2191 f3bd bf5d 45bd 6126 c93d 2ae4 e23d
000003b0: 6ed2 53be c2c9 44be 8aef b73d 95c8 07be
000003c0: 13bf 38be 73a9 913e 7f2a 213e ec4c f93d
000003d0: 22cf 623e 6835 0b3e 68eb d8bd 8df3 933c
000003e0: 5547 4b3e fcd3 79be 5d25 d6bd 8354 18be
000003f0: b66b f4bd e78e babe 6d05 9cbe 2677 1dbd

policy_network.0.bias f4 [128]
-0.24114439 0.14284289 -0.06817489 0.0045538573 0.063479155 -0.0918938 0.12991737 0.08099252
0.19977744 0.037817147 -0.10366554 0.10035677 0.17702726 0.1725037 -0.103826724 0.24832934
0.1335792 -0.19544856 0.0044508534 -0.08942705 0.19034189 -0.10599121 -0.1814941 -0.24321216
0.1614961 -0.191389 0.097759545 -0.2538185 -0.21680443 0.036360405 0.05120487 0.1157807
-0.22530846 -0.026552385 -0.24457622 -0.19169949 -0.17421542 0.092421636 -0.2832621 0.032947708
0.08067896 -0.014506684 0.04412717 0.1777713 -0.03137166 -0.16256832 -0.054229442 0.005161432
-0.18883546 -0.13331866 0.057047676 -0.12963697 -0.17278501 0.17652777 0.044435695 0.15301672
-0.11906908 -0.15103407 0.18401565 -0.024975177 -0.20595019 -0.22933991 -0.08524708 0.14171503
0.16989997 0.11256329 0.049093753 0.13736798 -0.09151037 -0.13579631 -0.14680277 -0.02968871
-0.1321526 0.23697637 -0.096312374 -0.24726796 -0.1391759 0.10335631 -0.23711683 -0.06799268
0.2301419 -0.12680106 0.08017334 0.163865 -0.05570511 0.038387094 -0.046989307 -0.028313236
0.044677153 0.16419454 -0.17107752 0.2388076 -0.25062707 -0.027782954 -0.1266858 -0.028694676
0.09381424 0.0567057 0.13492884 -0.17857543 0.024688432 -0.27000925 0.22687475 -0.05688675
-0.23151876 0.06991981 -0.20468237 0.06778052 -0.17823917 0.16120943 0.09328425 -0.119036295
-0.21205668 -0.28203434 0.21054985 -0.043216206 0.22340205 -0.06725949 -0.08452372 0.07380202
-0.19027832 0.03128037 0.13526835 -0.12913015 0.16484593 -0.016181968 -0.13318834 -0.18074659
00000000: 8eee 76be 6845 123e 479f 8bbd 8638 953b
00000010: 5c01 823d d132 bcbd 0f09 053e 68df a53d
00000020: 7592 4c3e 27e6 1a3d 994e d4bd da87 cd3d
00000030: a246 353e cfa4 303e 1ba3 d4bd 0c4a 7e3e
00000040: fcc8 083e ab23 48be 77d8 913b 8725 b7bd
00000050: fce8 423e eb11 d9bd 97d9 39be 9c0c 79be
00000060: 3c5f 253e 7afb 43be 2836 c83d 80f4 81be
00000070: fb01 5ebe a6ee 143d 33bc 513d 6f1e ed3d
00000080: 43b7 66be 6384 d9bc 3072 7abe df4c 44be
00000090: 8765 32be 8e47 bd3d bb07 91be 2df4 063d
000000a0: 033b a53d 71ad 6dbc b1be 343d ae09 363e
000000b0: 927f 00bd 4f78 26be b11f 5ebd 3b21 a93b
000000c0: 155e 41be b084 08be d3aa 693d 8ebf 04be
000000d0: 8eee 30be b2c3 343e 3402 363d 6ab0 1c3e
000000e0: 7dda f3bd ada8 1abe 996e 3c3e be98 ccbc
000000f0: 9be4 52be 15d8 6abe 0596 aebd bf1d 113e
00000100: 42fa 2d3e 9587 e63d 8816 493d 31aa 0c3e
00000110: ca69 bbbd 300e 0bbe 7753 16be bd35 f3bc
00000120: 0353 07be efa9 723e 6c3f c5bd d033 7dbe
00000130: 2184 0ebe 79ac d33d c1ce 72be bf3f 8bbd
00000140: 51aa 6b3e 23d8 01be ec31 a43d 3acc 273e
00000150: 0b2b 64bd c93b 1d3d dc77 40bd 29f1 e7bc
00000160: 64ff 363d 9d22 283e f22e 2fbe fb89 743e
00000170: 3152 80be 1499 e3bc ecb9 01be 1911 ebbc
00000180: ae21 c03d 3c44 683d c92a 0a3e 7adc 36be
00000190: 653f ca3c a73e 8abe db51 683e 1502 69bd
000001a0: 4113 6dbe 1e32 8f3d 4198 51be 83d0 8a3d
000001b0: 5484 36be 1614 253e d00b bf3d 4dc9 f3bd
000001c0: 6325 59be ce66 90be 619a 573e 7a03 31bd
000001d0: 82c3 643e 58bf 89bd c61a adbd 8325 973d
000001e0: 52d8 42be d81f 003d c983 0a3e b23a 04be
000001f0: 5fcd 283e 0c90 84bc 8662 08be a215 39be

policy_network.3.weight f4 [256, 128]
-0.03570782 -0.048498724 -0.016892653 -0.08609866 -0.10005031 0.07232673 -0.09186718 0.07096093
-0.022822117 -0.03048314 -0.09056645 -0.07878769 0.0014612839 -0.0627836 0.037865303 0.07312078
0.04867782 -0.08170761 0.06311492 0.027364155 0.034234274 -0.08088134 -0.0057815984 0.07189274
0.015025184 -0.03570003 0.067901224 -0.04778846 -0.021869985 -0.06107271 -0.02506474 -0.0037806008
0.016306216 0.056147635 0.052522723 -0.08043166 -0.00014072932 -0.029254787 0.077069566 -0.060021777
-0.033658758 0.051464796 -0.03408717 -0.08088621 -0.022744335 0.055849925 -0.021042097 -0.03730621
-0.06939235 0.022720385 -0.0627605 0.015001286 -0.05680094 0.057158776 0.01708552 -0.014511023
-0.089058585 -0.07019301 -0.048084896 -0.06235521 -0.056752272 0.0153405 -0.017432729 -0.0022213403
0.043947782 -0.0029786911 0.04622106 0.038665906 -0.07371723 -0.0065438882 0.051511794 -0.053126603
-0.006954219 0.011029493 -0.08141438 0.019109203 -0.04406787 -0.018233325 0.026788983 0.04318341
-0.051274624 -0.091632836 0.02207853 -0.03774364 0.03488619 0.08195857 0.05388916 -0.030069362
0.011957568 -0.030528272 -0.01005137 -0.08279683 -0.08313148 -0.0867858 -0.072866395 0.047105256
0.010610358 0.025449762 -0.06287828 0.019930677 -0.08683639 0.03076877 -0.056245472 0.050750684
-0.015334004 0.065320015 0.013235196 0.047172375 0.022831323 0.06114365 0.001882193 0.079554886
0.008559586 -0.01635161 -0.00075712305 -0.042307924 -0.009761231 -0.0043840483 -0.055763166 -0.0048644003
-0.0117974505 -0.04860719 -0.07313071 -0.104697116 0.016377361 -0.061068084 -0.029805576 -0.04523145
-0.06519224 0.043236684 0.043297917 -0.07453118 0.0468943 -0.029024921 0.03843208 0.05467227
0.012061416 -0.070771776 -0.047943357 -0.076944605 0.03053044 0.06314726 0.08521083 -0.0024271947
-0.009381984 -0.05166932 0.12605803 -0.008092958 0.0058735427 -0.06733466 -0.04263575 -0.04505805
0.044461824 0.011010523 -0.041448537 -0.0542149 0.031134037 -0.026593111 -0.016063387 0.05223835
0.038432963 0.067273594 0.07258332 -0.07591741 -0.043847173 0.03709295 -0.060800128 -0.036093727
0.061934445 -0.04511593 0.00040487316 -0.03784318 -0.05184273 -0.02567568 -0.08165097 0.056005962
0.08348682 -0.04617913 -0.070732154 -0.06788733 -0.023915535 0.012752477 0.012790235 0.045114946
0.00073060516 -0.008487079 0.034379415 -0.07249232 0.071860254 0.0023458814 -0.06685328 0.029968366
-0.050056025 0.017844291 0.028607152 -0.08110828 0.00041830298 0.07339508 0.08405361 0.06354975
0.050047673 0.05609579 -0.017595014 -0.07408171 0.080937736 0.043833315 -0.0072055175 0.053667005
0.04905872 0.06284567 0.038739245 0.06001844 -0.08657986 -0.061881423 -0.0037738036 -0.06486941
0.039479963 0.073867716 0.031372502 0.012012131 -0.03224196 0.03983644 -0.07774497 -0.04712449
0.044398908 -0.06319841 0.03291952 -0.089024015 -0.0011469843 -0.07713773 -0.075951874 0.07153729
-0.08703913 0.049333658 0.07289449 -0.0008702481 0.09305179 0.0384867 0.06772862 0.06589618
-0.08138587 0.018587053 -0.021434968 0.022321673 0.043334577 -0.08710335 0.03708125 -0.05301094
0.053864904 0.0657185 -0.07276274 -0.12762713 -0.01222764 0.009568472 0.07951181 -0.061738726
00000000: 5d42 12bd 99a6 46bd 7662 8abc 7f54 b0bd
00000010: 2de7 ccbd 0920 943d dc24 bcbd f753 913d
00000020: 73f5 babc c7b7 f9bc e77a b9bd 715b a1bd
00000030: 8d88 bf3a b094 80bd a618 1b3d 59c0 953d
00000040: 6562 473d 5256 a7bd 6542 813d cb2a e03c
00000050: 3d39 0c3d 1ea5 a5bd 9073 bdbb 803c 933d
00000060: 302c 763c 323a 12bd cc0f 8b3d d5bd 43bd
00000070: af28 b3bc 6127 7abd 9254 cdbc f5c3 77bb
00000080: 9d94 853c 10fb 653d 1122 573d 5bb9 a4bd
00000090: bd90 13b9 bca7 efbc a6d6 9d3d 65d9 75bd
000000a0: c4dd 09bd c0cc 523d fd9e 0bbd aba7 a5bd
000000b0: 5452 babc e4c2 643d 7a60 acbc 65ce 18bd
000000c0: 941d 8ebd 1a20 ba3c 9488 80bd f4c7 753c
000000d0: 1aa8 68bd 521f 6a3d eff6 8b3c a4bf 6dbc
000000e0: 5964 b6bd 5ac1 8fbd abf4 44bd 2d68 7fbd
000000f0: 1275 68bd b856 7b3c 15cf 8ebc e893 11bb
00000100: 9702 343d 2536 43bb 4b52 3d3d 2460 1e3d
00000110: 0ff9 96bd 1d6e d6bb 08fe 523d 489b 59bd
00000120: 38e0 e3bb 0cb5 343c 95bc a6bd e78a 9c3c
00000130: 8380 34bd 0e5e 95bc 9274 db3c 16e1 303d
00000140: 5705 52bd ffa9 bbbd 09de b43c 1399 1abd
00000150: d2e4 0e3d e5d9 a73d e1ba 5c3d 0654 f6bc
00000160: ade9 433c 6d16 fabc 80ae 24bc 6291 a9bd
00000170: d640 aabd c1bc b1bd fa3a 95bd 71f1 403d
00000180: 11d7 2d3c 057c d03c 54c6 80bd a945 a33c
00000190: 47d7 b1bd ca0e fc3c a761 66bd f3df 4f3d
000001a0: 793b 7bbc 80c6 853d 6fd8 583c d237 413d
000001b0: c108 bb3c c471 7a3d ebb3 f63a aced a23d
000001c0: 813d 0c3c d0f3 85bc ab79 46ba 134b 2dbd
000001d0: 92ed 1fbc 10a8 8fbb eb67 64bd 8c65 9fbb
000001e0: 184a 41bc 5518 47bd 8ec5 95bd 716b d6bd
000001f0: d129 863c 8722 7abd d32a f4bc 9d44 39bd
00000200: 8283 85bd f318 313d 2859 313d cea3 98bd
00000210: 3d14 403d acc5 edbc f56a 1d3d 08f0 5f3d
00000220: 3f9d 453c cbf0 90bd 4160 44bd 2295 9dbd
00000230: f91a fa3c 5a53 813d 0483 ae3d 9211 1fbb
00000240: e5b6 19bc 35a3 53bd 5b15 013e 5398 04bc
00000250: d976 c03b c1e6 89bd d3a2 2ebd ca8e 38bd
00000260: 9a1d 363d 7b65 343c f1c5 29bd 7110 5ebd
00000270: cf0c ff3c ccd9 d9bc 5d97 83bc e1f7 553d
00000280: e26b 1d3d bdc6 893d 90a6 943d 967a 9bbd
00000290: 1899 33bd c7ee 173d 8e09 79bd 04d7 13bd
000002a0: f9ae 7d3d 7bcb 38bd 2845 d439 7301 1bbd
000002b0: 0b59 54bd ce55 d2bc a038 a7bd 8266 653d
000002c0: 23fb aa3d 5426 3dbd 05dc 90bd 8308 8bbd
000002d0: 83ea c3bc c4ef 503c 228e 513c 73ca 383d
000002e0: 1586 3f3a 640d 0bbc 6ed1 0c3d da76 94bd
000002f0: 782b 933d 5cbd 193b 5fea 88bd 3880 f53c
00000300: 8c07 4dbd 312e 923c 8c59 ea3c 191c a6bd
00000310: ad4f db39 2950 963d 4d24 ac3d 5f26 823d
00000320: cafe 4c3d b3c4 653d 6b23 90bc 27b8 97bd
00000330: afc2 a53d 908a 333d 431c ecbb efd1 5b3d
00000340: ccf1 483d 3bb5 803d 0bad 1e3d e5d5 753d
00000350: c850 b1bd 6077 7dbd eb51 77bb 41da 84bd
00000360: beb5 213d f547 973d 7480 003d 87ce 443c
00000370: 2510 04bd 892b 233d c138 9fbd 9c05 41bd
00000380: a1db 353d 2b6e 81bd 9ed6 063d 3952 b6bd
00000390: 6856 96ba 63fa 9dbd a88c 9bbd 2582 923d
000003a0: 9241 b2bd 1712 4a3d b549 953d 5d21 64ba
000003b0: f091 be3d 3ba4 1d3d 4db5 8a3d 94f4 863d
000003c0: a3ad a6bd e043 983c 6398 afbc f1db b63c
000003d0: 997f 313d 3e63 b2bd 82e2 173d 0022 59bd
000003e0: 72a1 5c3d 6c97 863d a204 95bd b0b0 02be
000003f0: 7056 48bc 15c5 1c3c 16d7 a23d bfe1 7cbd

policy_network.3.bias f4 [256]
-0.03076445 0.030510273 0.062637456 -0.08853722 -0.011437457 -0.09934481 -0.094774604 0.058412585
0.043536123 -0.071663365 0.06935759 -0.013302902 0.009539685 0.03325993 0.07883683 0.026696533
0.052056834 -0.060439497 -0.0020743923 0.061676797 -0.018271593 -0.030404517 0.011297848 -0.011917925
-0.054610923 -0.07377382 -0.037169296 -0.04282762 -0.06347109 0.0017663824 0.03307149 0.041276798
-0.073943935 -0.091733895 -0.023851281 0.018507281 0.052560523 -0.0055109067 0.056767058 -0.032432716
-0.012303232 0.062851824 -0.08555538 0.01981292 -0.03519496 -0.068870775 -0.037668683 0.023461841
0.037177306 -0.037883647 0.036167394 0.0038529425 0.06601581 0.06268719 0.0439024 -0.07820117
-0.077990025 0.055538338 -0.08769928 -0.053684372 0.022229802 -0.011878273 -0.08180316 0.059685707
-0.07472778 0.00034929006 -0.037603155 -0.08762414 0.042082466 0.04141415 0.0664539 -0.03446809
0.040555637 0.071011014 0.060415745 -0.07007288 -0.031122629 -0.019787969 0.01624553 0.047815464
0.004238879 0.028736506 0.06327608 0.0113501 0.027933573 -0.01831794 -0.066090345 -0.102734305
-0.04368345 0.016835645 -0.059617482 -0.065450534 -0.052826744 0.029426014 0.021323012 -0.021002678
-0.007520916 -0.019182542 -0.017520139 -0.024329038 -0.058927532 0.03619912 -0.04311961 0.06017151
0.011290112 0.06407828 -0.071121596 0.043919224 0.017706944 0.06398917 0.033713885 0.07106892
0.06347307 -0.08041955 -0.08187271 -0.0030578708 0.052652955 0.04003616 0.051621225 -0.10058046
-0.006148951 0.027663553 0.009642174 -0.09811777 0.053282984 -0.025423981 -0.041933447 -0.06804827
0.027312133 -0.063804075 -0.036159467 -0.018778471 -0.06315688 -0.029398205 0.046922453 -0.04553182
-0.0527832 -0.051416617 0.07585696 -0.074076876 0.069287695 0.015660381 -0.05444783 -0.0061359615
0.035208426 -0.003945474 -0.02177554 -0.05169347 -0.07411492 -0.001338083 0.057992693 -0.08306495
0.04927327 -0.06397292 0.04365379 0.035420578 0.056373067 -0.056072865 0.067378916 0.027924811
0.0559069 0.03484911 -0.013167574 -0.07028759 -0.06368781 -0.036353715 -0.056243174 -0.028481256
0.0015742601 -0.060516864 0.033214256 0.03067741 1.1456357e-05 0.05901008 -0.08409625 0.037392512
0.016961375 -0.083482444 0.024089254 -0.08849878 -0.0016705822 -0.07443542 -0.002760107 -0.08430773
0.014745536 -0.06336497 0.06616296 -0.0866257 0.038741536 0.052172244 0.0051926686 0.023134895
0.03480314 -0.07539888 -0.056642044 0.025185758 -0.03854393 -0.062338203 -0.0022794402 0.042865835
-0.0854138 -0.065324135 -0.08720759 0.031688716 -0.0021307354 -0.021529213 -0.08910991 0.0063364496
-0.03590421 -0.083253175 -0.053104818 -0.06818654 0.05243924 0.066433266 -0.03943909 -0.100045264
0.0020745962 -0.04954316 -0.04547014 -0.10205637 -0.07512499 0.0368545 0.049499042 0.04398127
-0.035338618 -0.09728301 0.059446026 0.06703407 0.013443361 -0.0037107565 -0.0670208 0.040476006
0.028588723 -0.08614397 -0.0129020335 -0.09530999 0.009916759 -0.024049137 0.013067709 -0.041119162
-0.03394533 0.026679765 0.056787748 0.054977015 -0.025052022 -0.072890736 0.091090776 0.0058417707
0.040944293 0.056551397 -0.0356663 -0.0125333695 0.046964012 -0.06671279 0.005879849 -0.016257064
00000000: ba05 fcbc aef0 f93c 1148 803d 0153 b5bd
00000010: 2c64 3bbc 4b75 cbbd 3019 c2bd 0942 6f3d
00000020: ef52 323d 3ec4 92bd 5a0b 8e3d 6af4 59bc
00000030: 574c 1c3c 903b 083d 3475 a13d b0b2 da3c
00000040: 8c39 553d 688f 77bd 87f2 07bb cfa0 7c3d
00000050: 4fae 95bc e512 f9bc 9c1a 393c 6743 43bc
00000060: b4af 5fbd bb16 97bd d53e 18bd 046c 2fbd
00000070: 21fd 81bd f585 e73a f875 073d dc11 293d
00000080: eb6f 97bd fbde bbbd c363 c3bc 959c 973c
00000090: b449 573d d694 b4bb 9384 683d 2bd8 04bd
000000a0: 7f93 49bc 75b8 803d a937 afbd b44e a23c
000000b0: 9728 10bd 1f0c 8dbd 7a4a 1abd 0c33 c03c
000000c0: 3b47 183d e22b 1bbd 4324 143d a681 7c3b
000000d0: 4c33 873d 2462 803d 01d3 333d ef27 a0bd
000000e0: 3cb9 9fbd 2b7c 633d ae9b b3bd 25e4 5bbd
000000f0: 461b b63c 179d 42bc 6a88 a7bd 0079 743d
00000100: e10a 99bd eb20 b739 c405 1abd 4974 b3bd
00000110: aa5e 2c3d e2a1 293d fb18 883d 692e 0dbd
00000120: ab1d 263d 396e 913d 8076 773d 5f82 8fbd
00000130: e2f4 febc 611a a2bc 5915 853c 26da 433d
00000140: 4be6 8a3b d268 eb3c e496 813d c5f5 393c
00000150: f3d4 e43c 810f 96bc 605a 87bd 5d66 d2bd
00000160: 6bed 32bd e8ea 893c 7631 74bd ee0a 86bd
00000170: db60 58bd d30e f13c 99ad ae3c cf0d acbc
00000180: 0472 f6bb b524 9dbc 6586 8fbc b14d c7bc
00000190: ff5d 71bd 8745 143d 309e 30bd 6776 763d
000001a0: 29fa 383c 793b 833d 33a8 91bd a5e4 333d
000001b0: 270e 913c c10c 833d 9217 0a3d 958c 913d
000001c0: 2bfe 813d 01b3 a4bd e1ac a7bd 8f66 48bb
000001d0: a0aa 573d f5fc 233d c770 533d 21fd cdbd
000001e0: 247d c9bb ad9e e23c 35fa 1d3c f8f1 c8bd
000001f0: 423f 5a3d f445 d0bc 68c2 2bbd e45c 8bbd
00000200: b2bd df3c b6ab 82bd f31b 14bd 4fd5 99bc
00000210: 6558 81bd 81d4 f0bc c231 403d 937f 3abd
00000220: 3233 58bd 3b9a 52bd e55a 9b3d 9eb5 97bd
00000230: b5e6 8d3d 334a 803c b004 5fbd 2d10 c9bb
00000240: b636 103d 0949 81bb 9e62 b2bc 88bc 53bd
00000250: 90c9 97bd 9d62 afba bf89 6d3d f51d aabd
00000260: c5d2 493d 3c04 83bd 51ce 323d 2b15 113d
00000270: 72e7 663d a9ac 65bd f5fd 893d 93c2 e43c
00000280: a2fe 643d f1bd 0e3d cfbc 57bc f1f2 8fbd
00000290: c16e 82bd a2e7 14bd 3e5f 66bd 8651 e9bc
000002a0: 6757 ce3a 88e0 77bd ac0b 083d 314f fb3c
000002b0: ae34 4037 8eb4 713d a83a acbd e428 193d
000002c0: 95f2 8a3c d8f8 aabd d456 c53c d93e b5bd
000002d0: 70f7 daba 9971 98bd e9e2 34bb 88a9 acbd
000002e0: 4397 713c 7ec5 81bd 7280 873d d168 b1bd
000002f0: 72af 1e3d 90b2 553d 4327 aa3b 6485 bd3c
00000300: bd8d 0e3d ba6a 9abd 7d01 68bd 5d52 ce3c
00000310: 3de0 1dbd 5856 7fbd a962 15bb 1694 2f3d
00000320: 6eed aebd a9c8 85bd e599 b2bd 07cc 013d
00000330: cfa3 0bbb 085e b0bc 427f b6bd fea1 cf3b
00000340: 4b10 13bd a480 aabd 7084 59bd 62a5 8bbd
00000350: 87ca 563d 2a0e 883d e28a 21bd 88e4 ccbd
00000360: f3f5 073b c5ed 4abd e63e 3abd ee02 d1bd
00000370: 21db 99bd bff4 163d 82bf 4a3d b425 343d
00000380: 3abf 10bd 513c c7bd ad7d 733d 2949 893d
00000390: 8b41 5c3c 2a30 73bb 3442 89bd 2bca 253d
000003a0: e632 ea3c 406c b0bd 0d63 53bc e231 c3bd
000003b0: e779 223c b202 c5bc f219 563c 916c 28bd
000003c0: 420a 0bbd 868f da3c 459a 683d 942f 613d
000003d0: e639 cdbc bd47 95bd cd8d ba3d 536c bf3b
000003e0: 34b5 273d 70a2 673d d416 12bd c358 4dbc
000003f0: 565d 403d b7a0 88bd c0ab c03b 892d 85bc

policy_network.6.weight f4 [128, 256]
0.013395391 -0.048203684 0.1067268 0.013816897 -0.05321012 -0.033493835 0.07220559 0.044216603
-0.056313932 0.020022353 0.07871746 0.05034902 -0.0843387 0.062083893 0.071801804 0.072826
0.026081784 0.0038959086 0.042725924 0.039332394 -0.050158538 0.007514783 -0.08360321 -0.008955263
0.006609226 -0.0058840364 -0.09905358 0.061900064 -0.031237962 0.039268523 -0.03720767 -0.07822033
0.017592628 0.06586274 0.003375033 0.016516203 -0.0540735 -0.055210035 -0.0056226314 -0.050504573
-0.035935596 -0.054818105 0.033335358 -0.008024081 -0.011187263 0.0361659 0.0055982172 0.059193917
0.068820655 -0.027457481 0.017365318 0.11789338 -0.015662998 -0.013377758 0.012446722 -0.0057623773
-0.008022748 0.06818874 -0.018959664 -0.000755121 -0.029503385 0.053675488 -0.018158305 -0.018683625
0.026099848 -0.004967892 0.03376223 0.09299661 0.08198275 0.062562585 0.04171132 0.0045485003
0.009128197 -0.014714233 0.007650788 -0.030969998 -0.0053797136 -0.050312757 0.008175176 -0.017975654
0.00051307166 -0.005648529 0.046236787 -0.0111241415 0.028038772 0.0099269645 -0.005973245 0.06614083
0.071168765 -0.0604217 -0.04299877 -0.051817052 -0.040988415 -0.052802525 -0.0125052035 0.038959987
-0.03570379 -0.026895002 0.065440916 0.09447424 -0.046200376 -0.034140382 0.052462347 0.0139661655
0.08331271 -0.03445725 0.029298773 -0.005435592 -0.010410915 -0.0014807284 0.002653736 0.028935716
0.06544252 0.025850043 -0.021994356 0.034953497 0.0822984 -0.023895938 0.03919518 -0.004739437
-0.0025493836 -0.040531997 -0.0733977 0.017598674 0.010877751 0.012386145 0.011374846 0.046535365
0.029216342 -0.042368025 -0.021928048 0.03860013 0.023484314 0.047873367 0.052273203 0.0034305821
0.106344596 0.09356154 0.009186793 -0.06089253 -0.013117422 0.024453228 0.00463257 0.060730986
0.005195946 -0.024250062 -0.045568094 0.036105804 0.028466366 0.022851974 0.011317604 -0.015125677
-0.05703036 -0.04087495 0.045270666 0.03242947 -0.06506117 0.017938197 0.014036684 -0.035354618
0.0009541638 -0.014488092 0.0057299705 0.026081622 -0.031332593 -0.034466617 -0.04413809 0.07389933
0.034030154 -0.061353795 0.010297542 0.022882646 -0.026591778 -0.02767497 0.059404124 0.06936198
0.0119355405 -0.056076698 0.04731305 -0.0018434322 0.006165262 -0.027240435 -0.034344714 -0.041612107
-0.012202587 -0.0054623336 0.13608298 -0.018651783 0.037705068 -0.06614527 0.0071648583 -0.030673103
0.17393243 0.046381522 0.03273471 -0.0031742372 0.0183051 -0.041522406 -0.036702525 0.005634837
0.09194862 0.085712634 0.013638951 -0.051043544 0.036386736 -0.015064807 0.0056174546 0.019533232
0.056939017 -0.028900668 -0.021924077 -0.050619867 0.062011857 -0.041827958 0.02856824 0.06301729
0.06125676 -0.019597983 -0.063256204 0.010031253 0.046129294 0.049452357 -0.014988779 -0.018250939
-0.003324258 -0.06269605 -0.023051508 0.00425468 0.05353283 -0.09159288 -0.03869953 0.04353824
0.032901943 0.05049014 0.06822805 -0.013375788 0.018194133 0.025870165 0.026407262 -0.037871815
0.015388713 -0.064594656 0.11891322 0.021124398 0.053094678 0.037943196 -0.006189777 0.018701551
0.0060478738 -0.031135513 0.035015274 0.005052482 0.009968195 0.04173948 0.015070699 0.045227457
00000000: 5878 5b3c 3a71 45bd 9593 da3d 4460 623c
00000010: dbf2 59bd d530 09bd 86e0 933d 781c 353d
00000020: 70a9 66bd eb05 a43c 9f36 a13d c63a 4e3d
00000030: c5b9 acbd ae4b 7e3d d30c 933d cc25 953d
00000040: 77a9 d53c 8052 7f3b 6101 2f3d 011b 213d
00000050: 0a73 4dbd 923e f63b 2938 abbd 18b9 12bc
00000060: 3592 d83b e0ce c0bb 9adc cabd ec8a 7d3d
00000070: c1e6 ffbc 08d8 203d 1267 18bd fb31 a0bd
00000080: 6a1e 903c 0be3 863d a82f 5d3b fd4c 873c
00000090: 2d7c 5dbd eb23 62bd 0d3e b8bb e2dd 4ebd
000000a0: 3431 13bd f388 60bd a88a 083d 6f77 03bc
000000b0: c84a 37bc b222 143d 4071 b73b 5275 723d
000000c0: d8f1 8c3d 83ee e0bc b641 8e3c 1672 f13d
000000d0: b04f 80bc 622e 5bbc 56ed 4b3c 53d2 bcbb
000000e0: d871 03bc 8aa6 8b3d 4c51 9bbc 50f3 45ba
000000f0: 15b1 f1bc d4da 5b3d bac0 94bc 670e 99bc
00000100: 59cf d53c b3c9 a2bb 444a 0a3d 0275 be3d
00000110: 92e6 a73d d020 803d 7dd9 2a3d 960b 953b
00000120: 6f8e 153c f713 71bc 76b3 fa3b cbb4 fdbc
00000130: 4f48 b0bb c014 4ebd 2cf1 053c ae41 93bc
00000140: a87f 063a 4c17 b9bb c962 3d3d 0842 36bc
00000150: 91b1 e53c b5a4 223c 36bb c3bb d874 873d
00000160: eec0 913d bf7c 77bd 7a1f 30bd 1e3e 54bd
00000170: 78e3 27bd 7647 58bd a0e2 4cbc 8294 1f3d
00000180: 233e 12bd e852 dcbc e305 863d b67b c13d
00000190: 9b3c 3dbd c9d6 0bbd c2e2 563d 58d2 643c
000001a0: db9f aa3d 0c23 0dbd fb03 f03c 0d1d b2bb
000001b0: 8b92 2abc 0015 c2ba 4dea 2d3b 980a ed3c
000001c0: ba06 863d 78c3 d33c 822d b4bc 662b 0f3d
000001d0: 108c a83d 6ac1 c3bc 208b 203d 474d 9bbb
000001e0: 8f13 27bb e104 26bd 8951 96bd 182b 903c
000001f0: 9838 323c 42ef 4a3c 905d 3a3c de9b 3e3d
00000200: 1c57 ef3c 188a 2dbd 73a2 b3bc 2b1b 1e3d
00000210: 2d62 c03c dd16 443d 6d1c 563d 9ed3 603b
00000220: 32cb d93d 319d bf3d 3484 163c 726a 79bd
00000230: 75ea 56bc 2352 c83c d0cc 973b 0ec1 783d
00000240: c142 aa3b 11a8 c6bc 9ca5 3abd aee3 133d
00000250: 4c32 e93c 1034 bb3c 796d 393c b0d1 77bc
00000260: ab98 69bd 7e6c 27bd bc6d 393d c4d4 043d
00000270: ca3e 85bd 20f3 923c 1ffa 653c 01d0 10bd
00000280: d920 7a3a 765f 6dbc 7ac2 bb3b 20a9 d53c
00000290: 9b56 00bd de2c 0dbd 24ca 34bd 8858 973d
000002a0: 3463 0b3d 1e4e 7bbd 06b7 283c 6374 bb3c
000002b0: 00d7 d9bc 9eb6 e2bc bd51 733d a70d 8e3d
000002c0: 498d 433c aeb0 65bd 54cb 413d 529f f1ba
000002d0: f705 ca3b 5527 dfbc 0bad 0cbd 7571 2abd
000002e0: 5ced 47bc 60fd b2bb 5659 0b3e a0cb 98bc
000002f0: a170 1a3d 2c77 87bd 30c7 ea3b 2946 fbbc
00000300: 581b 323e 8dfa 3d3d d514 063d dd06 50bb
00000310: 94f4 953c 6613 2abd 6355 16bd 70a4 b83b
00000320: 8f4f bc3d 1b8a af3d e875 5f3c 0913 51bd
00000330: 420a 153d 61d2 76bc a012 b83b 2804 a03c
00000340: e338 693d 18c1 ecbc 1f9a b3bc c756 4fbd
00000350: 2500 7e3d cb53 2bbd f107 ea3c 350f 813d
00000360: 5ee8 7a3d f38b a0bc 788c 81bd 205a 243c
00000370: 12f2 3c3d 8e8e 4a3d 7f93 75bc fe82 95bc
00000380: cbdb 59bb c966 80bd 84d6 bcbc d86a 8b3b
00000390: 3e45 5b3d 0c95 bbbd 6683 1ebd 2755 323d
000003a0: 30c4 063d c0ce 4e3d 26bb 8b3d 1f26 5bbc
000003b0: dd0b 953c abed d33c 0b54 d83c 7a1f 1bbd
000003c0: f120 7c3c 344a 84bd c688 f33d 130d ad3c
000003d0: ce79 593d 536a 1b3d 9dd3 cabb ff33 993c
000003e0: 3e2d c63b e70f ffbc 2d6c 0f3d 4a8f a53b
000003f0: a451 233c 04f7 2a3d 18eb 763c 6d40 393d

policy_network.6.bias f4 [128]
-0.038371924 -0.062813066 -0.011824787 -0.020799946 0.046250176 -0.07314981 -0.051066156 0.021367641
0.00572516 -0.0037743892 0.026021086 0.048000712 -0.0493079 -0.025087496 0.0058051855 -0.047136024
0.01375121 -0.060705718 -0.035298206 -0.06797746 -0.021848867 -0.04110591 -0.056889243 -0.02316432
0.03155417 0.023139903 -0.048979197 0.019059304 -0.039614633 -0.0008192134 0.0306817 -0.06295697
-0.043878272 0.043539938 -0.06258965 0.01710304 -0.05453815 0.02839551 0.009349001 -0.054357003
0.0027132453 -0.011135472 -0.08444668 -0.0016522219 -0.01639076 -0.038997352 -0.053051185 -0.0043897796
-0.006458562 -0.033907175 -0.06296258 0.0011798046 0.0066547077 -0.05786667 -0.0029040114 0.063992426
0.007911623 0.018424945 -0.0037928326 0.005787501 -0.027945688 0.02520716 -0.06118373 -0.066592924
-0.049834415 0.0390568 -0.04120133 -0.061059043 -0.04971278 -0.051129643 -0.033736285 -0.0033546
0.014765018 0.04811548 -0.009728917 -0.06902098 -0.012612563 -0.06216814 0.045347776 0.02668794
-0.024584068 -0.024976913 0.0041984804 -0.059635416 -0.013718113 -0.046788026 -0.026292391 0.016435398
-0.007882058 -0.027714157 0.009031396 -0.002331287 0.006133863 0.0131448405 0.019874753 -0.025352133
-0.04284675 -0.045987625 -0.025964726 -0.03978673 -0.0331234 -0.06332366 0.051225543 0.06508656
-0.07209923 0.025501112 0.02867055 0.017812064 -0.0037238689 -0.016808087 -0.050676126 -0.073316865
-0.0478558 0.0046748826 0.008953771 -0.04176441 -0.028233318 -0.017666675 0.043162268 -0.06708183
0.013580395 0.017171217 -0.03170745 0.042614724 -0.019166544 0.0012357939 0.015549296 0.026270691
00000000: e12b 1dbd 23a4 80bd c0bc 41bc a664 aabc
00000010: d370 3d3d 91cf 95bd bf2a 51bd 310b af3c
00000020: 1f9a bb3b be5b 77bb 2c2a d53c 659c 443d
00000030: 15f7 49bd 4b84 cdbc 6d39 be3b b411 41bd
00000040: c14c 613c 8fa6 78bd da94 10bd c437 8bbd
00000050: 65fc b2bc ac5e 28bd b204 69bd 1ac3 bdbc
00000060: f23e 013d e58f bd3c 699e 48bd 4222 9c3c
00000070: f442 22bd 7bc0 56ba 3058 fb3c 95ef 80bd
00000080: b4b9 33bd ef56 323d 012f 80bd ad1b 8c3c
00000090: 6563 5fbd b39d e83c 8d2c 193c 73a5 5ebd
000000a0: b4d0 313b 8e71 36bc 62f2 acbd 5e8f d8ba
000000b0: ea45 86bc b0bb 1fbd 334c 59bd 24d8 8fbb
000000c0: 58a2 d3bb 40e2 0abd 86f2 80bd aca3 9a3a
000000d0: bc0f da3b 9a05 6dbd 3a51 3ebb 760e 833d
000000e0: c19f 013c e9ef 963c 2c91 78bb 14a5 bd3b
000000f0: 5bee e4bc 3f7f ce3c ca9b 7abd df61 88bd
00000100: 2c1f 4cbd 06fa 1f3d bac2 28bd 0c19 7abd
00000110: a19f 4bbd 516d 51bd 0f2f 0abd d9d8 5bbb
00000120: f9e8 713c bd14 453d 0966 1fbc df5a 8dbd
00000130: eca4 4ebc 05a4 7ebd 97be 393d aba0 da3c
00000140: 8764 c9bc 629c ccbc 6893 893b 4444 74bd
00000150: f0c1 60bc cda4 3fbd 2463 d7bc 87a3 863c
00000160: bf23 01bc cd08 e3bc 6cf8 133c 81c8 18bb
00000170: 92fe c83b 755d 573c 61d0 a23c 47af cfbc
00000180: 1380 2fbd 855d 3cbd fab3 d4bc 69f7 22bd
00000190: 67ac 07bd d6af 81bd e0d1 513d 1a4c 853d
000001a0: c3a8 93bd b5e7 d03c 80de ea3c 9bea 913c
000001b0: 270c 74bb 1db1 89bc c591 4fbd 2727 96bd
000001c0: 7104 44bd c22f 993b d6b2 123c 2811 2bbd
000001d0: 8f49 e7bc b4b9 90bc ebca 303d 3362 89bd
000001e0: 4e80 5e3c a7aa 8c3c acdf 01bd c78c 2e3d
000001f0: 2803 9dbc 5dfa a13a 79c2 7e3c a235 d73c

policy_network.9.weight f4 [7, 128]
0.039031222 -0.031823564 0.06783688 0.075644955 -0.01118004 -0.0734182 0.016466342 -0.06987459
-0.03859962 -0.043794896 -0.025962051 -0.05106991 0.0020816664 -0.074108206 -0.08562707 0.026954122
-0.0098694535 0.016436305 -0.07933002 0.05549361 -0.013913112 0.026866004 -0.076628275 -0.07344238
0.02532504 0.025482556 -0.02059932 0.0064482293 -0.07546381 -0.032250702 -0.026929354 0.08794645
-0.07678636 -0.04245453 -0.013767744 -0.05195846 0.06748983 -0.07140764 0.032758325 -0.07927771
0.011696656 -0.0328439 0.014496429 0.06495627 6.700537e-05 -0.06044153 -0.051884595 -0.0077785198
0.024896242 -0.035598993 0.05346337 -0.052538827 0.039570298 -0.07297069 0.008017755 0.042397253
0.054573294 0.07205925 0.010617339 0.07070678 -0.043020524 0.06268363 -0.06698201 0.055696186
0.024289807 -0.025864542 0.008170444 0.010975905 0.047077507 0.034710117 0.02700129 -0.046445653
0.07617868 -0.030488446 0.011910534 0.04924106 -0.014916171 0.059379376 -0.044658948 1.4054346e-05
-0.011518146 0.00021514075 -0.012893745 0.010258795 0.019911503 0.021556797 -0.05753231 0.036215506
0.0007804569 0.03153773 -0.06103032 -0.011388369 0.078685075 -0.021927811 -0.040886078 -0.06347385
-0.038299423 0.043224048 0.049953323 -0.024585634 -0.012256713 0.066781595 -0.015603759 -0.009392231
0.005270126 -0.101019144 0.065011024 0.06444397 -0.04987051 -0.06280547 -0.03785453 -0.047551394
-0.0026811138 -0.06489484 0.0033120997 -0.06094511 -0.07064529 -0.07280655 0.06376816 0.048020117
0.032224774 -0.054512404 0.04241886 -0.010459646 -0.004573944 -0.07112089 0.060104854 -0.029307919
-0.011806183 0.00039027823 0.04907364 0.02067284 0.048221704 -0.040917955 0.07849514 -0.04823376
0.07687186 0.03262011 -0.051877063 0.03638659 -0.0023237702 -0.066765025 0.016244981 -0.00046012524
-0.0285287 -0.006406861 -0.049799003 -0.032263048 -0.013007885 0.0105775045 0.0007936867 0.052071597
-0.011649387 -0.029093437 -0.028260391 -0.050616346 -0.075568154 0.01468112 -0.02373814 0.04010919
-0.013225189 0.042749092 -0.06427864 -0.012624721 -0.049043056 -0.043173302 -0.013241618 0.03221456
0.0056168106 0.07172051 0.02023558 0.0835059 0.019801999 -0.056138914 0.087325655 0.0118740555
0.029929614 0.027614586 0.02536038 -0.06867836 0.0062884227 0.0695273 0.025559518 -0.023044981
0.057684503 0.015542918 -0.0011361532 -0.054731883 0.01662783 0.044865314 0.055378925 -0.018386463
-0.0663747 0.008369139 -0.0037229185 0.04644085 -0.030979116 0.056800157 0.0011374446 -0.047792055
-0.0015347082 0.013411542 -0.058279425 -0.00031139693 0.012521468 0.062946826 -0.037473407 -0.0014412025
-0.0026950438 -0.013728536 -0.0016748671 -0.065329835 0.034366388 -0.07649931 -0.045483492 -0.013660719
0.012128878 0.027723916 0.047741745 -0.0025309238 0.030312996 0.037415873 -0.005597887 -0.015044647
0.049151532 -0.05685149 -0.008366183 -0.08007116 -0.007628929 0.0750979 0.007433524 0.0195466
-0.0035361 -0.014935454 -0.046877027 0.049468324 -0.058379076 -0.017146505 0.077124104 -0.009475962
-0.02394796 -0.045738667 -0.07802104 0.017976843 -0.089553565 0.003676327 -0.045950454 0.04235942
0.0055085137 0.0008559012 0.003502771 0.0056656227 -0.021800837 0.014729368 0.004861026 0.05933118
00000000: 34df 1f3d 6d59 02bd 10ee 8a3d beeb 9a3d
00000010: 7d2c 37bc 485c 96bd 6ce4 863c 691a 8fbd
00000020: a31a 1ebd 4762 33bd 5eae d4bc af2e 51bd
00000030: 916c 083b 0bc6 97bd 3f5d afbd e4ce dc3c
00000040: 7db3 21bc 6ea5 863c c777 a2bd 454d 633d
00000050: d2f3 63bc 1816 dc3c 49ef 9cbd f568 96bd
00000060: 7576 cf3c cbc0 d03c e8bf a8bc ab4b d33b
00000070: c58c 9abd 5019 04bd f39a dcbc 451d b43d
00000080: 2b42 9dbd cde4 2dbd 1b92 61bc 65d2 54bd
00000090: 1c38 8a3d 2b3e 92bd 982d 063d 5a5c a2bd
000000a0: 55a3 3f3c 5387 06bd 6e82 6d3c cb07 853d
000000b0: 3c85 8c38 8a91 77bd f184 54bd f4e2 febb
000000c0: 34f3 cb3c 40d0 11bd 68fc 5a3d f432 57bd
000000d0: 7714 223d a871 95bd e75c 033c bea8 2d3d
000000e0: 3f88 5f3d cd93 933d 59f4 2d3c b7ce 903d
000000f0: 4a36 30bd 4660 803d dd2d 89bd af21 643d
00000100: 6bfb c63c e0e1 d3bc 53dd 053c 48d4 333c
00000110: 58d4 403d 322c 0e3d cf31 dd3c cc3d 3ebd
00000120: 9103 9c3d e8c2 f9bc 6724 433c feb0 493d
00000130: f562 74bc ca37 733d 4dec 36bd f5ca 6b37
00000140: 9bb6 3cbc 6897 6139 4940 53bc 8114 283c
00000150: 731d a33c e197 b03c 00a7 6bbd b656 143d
00000160: 9397 4c3a b52d 013d eefa 79bd 4896 3abc
00000170: a425 a13d f4a1 b3bc 2978 27bd 94fe 81bd
00000180: dbdf 1cbd b30b 313d db9b 4c3d d067 c9bc
00000190: 61d0 48bc cac4 883d e9a6 7fbc dfe1 19bc
000001a0: 05b1 ac3b 20e3 cebd 8024 853d 33fb 833d
000001b0: 0545 4cbd 27a0 80bd 5a0d 1bbd 40c5 42bd
000001c0: a0b5 2fbb 96e7 84bd d00f 593b 94a1 79bd
000001d0: 7aae 90bd 9a1b 95bd e298 823d beb0 443d
000001e0: 20fe 033d 6648 5fbd 66bf 2d3d ef5e 2bbc
000001f0: 06e1 95bb d4a7 91bd 8230 763d 2917 f0bc
00000200: b86e 41bc 429e cc39 7101 493d 165a a93c
00000210: 1f84 453d 9699 27bd 0fc2 a03d c390 45bd
00000220: fe6e 9d3d aa9c 053d 0b7d 54bd 1b0a 153d
00000230: 654a 18bb 1abc 88bd 3214 853c f73c f1b9
00000240: 05b5 e9bc a5f0 d1bb 0afa 4bbd 4226 04bd
00000250: 061f 55bc 454d 2d3c 6a0f 503a 0749 553d
00000260: 12dd 3ebc 5c55 eebc 5682 e7bc 1653 4fbd
00000270: 7ac3 9abd 1589 703c 7d76 c2bc 8949 243d
00000280: 77ae 58bc ac19 2f3d 85a4 83bd ebd7 4ebc
00000290: 5fe1 48bd 7dd6 30bd 5ff3 58bc 6af3 033d
000002a0: 390d b83b 34e2 923d 16c5 a53c 2405 ab3d
000002b0: cd37 a23c ebf1 65bd cbd7 b23d 668b 423c
000002c0: f32e f53c fc37 e23c 92c0 cf3c 3da7 8cbd
000002d0: 1d0f ce3b 5464 8e3d 3262 d13c d4c8 bcbc
000002e0: 9646 6c3d b9a7 7e3c faea 94ba 8a2e 60bd
000002f0: 1637 883c b1c4 373d 03d5 623d 359f 96bc
00000300: 75ef 87bd b71e 093c 35fc 73bb c338 3e3d
00000310: eac7 fdbc 48a7 683d 4f16 953a 9ac1 43bd
00000320: 4328 c9ba 16bc 5b3c 68b6 6ebd fd42 a3b9
00000330: d826 4d3c 44ea 803d b77d 19bd bbe6 bcba
00000340: 559f 30bb a7ed 60bc 3787 dbba a6cb 85bd
00000350: c5c3 0c3d acab 9cbd e64c 3abd 35d1 5fbc
00000360: 34b8 463c 441d e33c d98c 433d dbdd 25bb
00000370: f652 f83c 6341 193d 7b6e b7bb d37d 76bc
00000380: 1e53 493d 1cdd 68bd 5112 09bc 59fc a3bd
00000390: 18fc f9bb eecc 993d eb94 f33b 3120 a03c
000003a0: eabd 67bb d6b3 74bc 2002 40bd 4c9f 4a3d
000003b0: e61e 6fbd d476 8cbc 3ef3 9d3d 1141 1bbc
000003c0: 832e c4bc 7858 3bbd 7fc9 9fbd 2c44 933c
000003d0: dc67 b7bd 88ee 703b 8b36 3cbd 1281 2d3d
000003e0: c380 b43b 8f5e 603a bf8e 653b b0a6 b93b
000003f0: ab97 b2bc 7253 713c 3e49 9f3b 4005 733d

policy_network.9.bias f4 [7]
0.009262703 0.0036248805 0.0020730246 0.00044106468 -0.00413236 0.0025566458 0.026635556
00000000: 98c2 173c 678f 6d3b 95db 073b b33e e739
00000010: c068 87bb 668d 273b cf32 da3c

exp_avg f4 [128, 15]
7.1550625e-05 1.7503111e-05 -3.1095136e-05 4.507373e-05 3.4247907e-05 -6.20379e-05 -1.5175351e-05 7.771119e-07
1.5894477e-06 -1.5293399e-05 -1.4190516e-05 9.4955107e-07 6.7195884e-08 -2.1328725e-07 -5.4874664e-07 2.0804158e-05
6.567848e-06 -1.7117165e-05 1.9370982e-05 7.969378e-06 -1.4900766e-05 -1.4514445e-06 1.0859118e-06 1.6881386e-06
-4.1936323e-06 -3.6481833e-06 -4.179981e-07 1.6154334e-07 -1.6805676e-07 -4.989839e-08 -2.891783e-06 -7.12189e-07
2.3665061e-06 -2.725175e-06 -1.6306604e-06 2.7733731e-06 2.97971e-07 -3.4310256e-07 -2.888347e-07 8.241611e-07
2.7113146e-07 -1.4683482e-07 1.1214977e-07 -2.5145818e-07 -1.16938985e-07 0.0 0.0 0.0
0.0 0.0 0.0 0.0 0.0 0.0 0.0 0.0
0.0 0.0 0.0 0.0 7.3475174e-05 2.0406907e-05 -4.4417426e-05 5.7274636e-05
3.2678774e-05 -6.0202092e-05 -1.0847039e-05 8.2356536e-07 3.5532194e-06 -1.4943725e-05 -1.5133832e-05 -3.240304e-07
2.690034e-07 2.1113073e-07 -3.1261317e-07 0.0 0.0 0.0 0.0 0.0
0.0 0.0 0.0 0.0 0.0 0.0 0.0 0.0
0.0 0.0 7.931626e-06 3.7012608e-06 -6.8351983e-06 7.877744e-06 4.720494e-06 -1.1586176e-05
-1.1347121e-06 -1.3488844e-06 4.171609e-07 -2.207122e-06 -2.1796159e-06 2.5315046e-08 1.2631341e-07 -1.064554e-07
-4.0423087e-09 0.0 0.0 0.0 0.0 0.0 0.0 0.0
0.0 0.0 0.0 0.0 0.0 0.0 0.0 0.0
0.0 0.0 0.0 0.0 0.0 0.0 0.0 0.0
0.0 0.0 0.0 0.0 0.0 0.0 0.0 0.0
0.0 0.0 0.0 0.0 0.0 0.0 0.0 0.0
0.0 0.0 0.0 0.0 0.0 0.0 1.0681665e-05 4.6069094e-06
-7.76544e-06 7.839055e-06 4.303942e-06 -7.0982246e-06 -9.0410043e-07 9.5323024e-08 2.4673366e-07 -1.8682631e-06
-2.2509937e-06 -1.4221466e-07 -6.491846e-09 2.839155e-07 2.2051253e-07 0.0 0.0 0.0
0.0 0.0 0.0 0.0 0.0 0.0 0.0 0.0
0.0 0.0 0.0 0.0 0.0 0.0 0.0 0.0
0.0 0.0 0.0 0.0 0.0 0.0 0.0 0.0
0.0 0.0 0.0 0.0 0.0 0.0 0.0 0.0
0.0 0.0 0.0 0.0 0.0 0.0 0.0 0.0
0.0 0.0 -2.1768099e-05 -7.4606205e-06 1.4830524e-05 -1.7228911e-05 -9.73058e-06 1.7905546e-05
2.6033879e-06 -1.7154603e-08 -9.900848e-07 4.4273106e-06 4.492528e-06 8.50039e-08 -7.114327e-08 1.7785926e-09
-2.0541206e-07 0.0 0.0 0.0 0.0 0.0 0.0 0.0
0.0 0.0 0.0 0.0 0.0 0.0 0.0 0.0
2.6848304e-06 4.4316593e-07 -1.5545128e-06 1.5465151e-06 -1.2706297e-08 1.4312498e-06 -3.948804e-09 7.058924e-07
2.170026e-07 -1.09125715e-07 -2.3341265e-07 -1.7213729e-07 6.875565e-08 2.937861e-18 2.8975938e-11 3.2165153e-05
00000000: 730d 9638 a5d3 9237 266c 02b8 8d0d 3d38
00000010: 69a5 0f38 581a 82b8 a399 7eb7 b99a 5035
00000020: 0255 d535 534a 80b7 cd13 6eb7 a7e4 7e35
00000030: 544d 9033 f403 65b4 954d 13b5 9784 ae37
00000040: 6261 dc36 d596 8fb7 de7e a237 38b4 0537
00000050: 4dfe 79b7 41cf c2b5 a5bf 9135 0094 e235
00000060: 07b7 8cb6 50d3 74b6 3969 e0b4 b274 2d34
00000070: 1773 34b4 dc4f 56b3 7410 42b6 412d 3fb5
00000080: 44d0 1e36 26e2 36b6 11dd dab5 301e 3a36
00000090: d3f8 9f34 a833 b8b4 2411 9bb4 eb3b 5d35
000000a0: 0690 9134 a6a9 1db4 fdd6 f033 2600 87b4
000000b0: e31f fbb3 0000 0000 0000 0000 0000 0000
000000c0: 0000 0000 0000 0000 0000 0000 0000 0000
000000d0: 0000 0000 0000 0000 0000 0000 0000 0000
000000e0: 0000 0000 0000 0000 0000 0000 0000 0000
000000f0: af16 9a38 802f ab37 d94c 3ab8 2c3a 7038
00000100: 9110 0938 8181 7cb8 aefb 35b7 fb12 5d35
00000110: d873 6e36 cfb6 7ab7 50e7 7db7 66f6 adb4
00000120: 8c6b 9034 2cb3 6234 3ad5 a7b4 0000 0000
00000130: 0000 0000 0000 0000 0000 0000 0000 0000
00000140: 0000 0000 0000 0000 0000 0000 0000 0000
00000150: 0000 0000 0000 0000 0000 0000 0000 0000
00000160: 0000 0000 0000 0000 1312 0537 2d63 7836
00000170: e859 e5b6 a72a 0437 bc64 9e36 3f62 42b7
00000180: 694c 98b5 510b b5b5 28f6 df34 111e 14b6
00000190: 8445 12b6 6074 d932 c4a0 0734 7a9c e4b3
000001a0: 86e4 8ab1 0000 0000 0000 0000 0000 0000
000001b0: 0000 0000 0000 0000 0000 0000 0000 0000
000001c0: 0000 0000 0000 0000 0000 0000 0000 0000
000001d0: 0000 0000 0000 0000 0000 0000 0000 0000
000001e0: 0000 0000 0000 0000 0000 0000 0000 0000
000001f0: 0000 0000 0000 0000 0000 0000 0000 0000
00000200: 0000 0000 0000 0000 0000 0000 0000 0000
00000210: 0000 0000 0000 0000 0000 0000 0000 0000
00000220: 0000 0000 0000 0000 0000 0000 0000 0000
00000230: 0000 0000 0000 0000 0000 0000 0000 0000
00000240: 0000 0000 0000 0000 0000 0000 0000 0000
00000250: 0000 0000 0000 0000 6735 3337 0d95 9a36
00000260: 5048 02b7 7c84 0337 956a 9036 492d eeb6
00000270: 4fb1 72b5 63b4 cc33 d176 8434 08c1 fab5
00000280: c70f 17b6 abb3 18b4 e20e dfb1 0d6d 9834
00000290: 06c6 6c34 0000 0000 0000 0000 0000 0000
000002a0: 0000 0000 0000 0000 0000 0000 0000 0000
000002b0: 0000 0000 0000 0000 0000 0000 0000 0000
000002c0: 0000 0000 0000 0000 0000 0000 0000 0000
000002d0: 0000 0000 0000 0000 0000 0000 0000 0000
000002e0: 0000 0000 0000 0000 0000 0000 0000 0000
000002f0: 0000 0000 0000 0000 0000 0000 0000 0000
00000300: 0000 0000 0000 0000 0000 0000 0000 0000
00000310: 0000 0000 0000 0000 0000 0000 0000 0000
00000320: 0000 0000 0000 0000 0000 0000 0000 0000
00000330: 0000 0000 0000 0000 0000 0000 0000 0000
00000340: 0000 0000 0000 0000 a39a b6b7 3e56 fab6
00000350: 9ed0 7837 ce86 90b7 8640 23b7 de33 9637
00000360: ddb5 2e36 5f5b 93b2 0ee3 84b5 4f8e 9436
00000370: 86be 9636 638b b633 6dc7 98b3 aa72 f430
00000380: 3d8f 5cb4 0000 0000 0000 0000 0000 0000
00000390: 0000 0000 0000 0000 0000 0000 0000 0000
000003a0: 0000 0000 0000 0000 0000 0000 0000 0000
000003b0: 0000 0000 0000 0000 0000 0000 0000 0000
000003c0: 092d 3436 43ec ed34 a7a4 d0b5 db91 cf35
000003d0: e34a 5ab2 5e19 c035 0cae 87b1 8e7c 3d35
000003e0: 3801 6934 7f58 eab3 fb9f 7ab4 bdd4 38b4
000003f0: d1a6 9333 a0c6 5822 03e0 fe2d 12e9 0638

exp_avg_sq f4 [128, 15]
1.05548175e-07 1.4108395e-08 4.549296e-08 6.601661e-08 2.7239414e-08 1.0982869e-07 2.6326774e-09 3.0497072e-10
1.0295005e-10 5.391388e-09 5.394656e-09 1.076711e-11 8.491017e-12 4.0081896e-11 7.864861e-12 4.9312017e-09
6.523231e-10 2.0592013e-09 2.9332274e-09 1.1847036e-09 4.6008815e-09 1.1535146e-10 1.197061e-11 5.1828433e-12
2.3801697e-10 2.388243e-10 4.7501743e-13 3.344701e-13 9.075492e-12 2.460452e-12 7.428064e-09 9.551804e-10
3.113481e-09 4.6109956e-09 1.920966e-09 7.782927e-09 1.9134445e-10 2.2205751e-11 7.795058e-12 3.8378417e-10
3.7747258e-10 7.3840164e-13 5.429713e-13 1.1740165e-11 1.7364555e-12 0.0 0.0 0.0
0.0 0.0 0.0 0.0 0.0 0.0 0.0 0.0
0.0 0.0 0.0 0.0 5.6937452e-08 7.28784e-09 2.4882434e-08 3.691562e-08
1.4674263e-08 5.8758435e-08 1.4017961e-09 1.8244765e-10 6.966736e-11 2.8676579e-09 2.9562266e-09 5.0838058e-12
4.572521e-12 1.9712534e-11 1.0097145e-11 0.0 0.0 0.0 0.0 0.0
0.0 0.0 0.0 0.0 0.0 0.0 0.0 0.0
0.0 0.0 2.3571203e-09 3.1578315e-10 1.010312e-09 1.431317e-09 5.8344807e-10 2.284048e-09
5.4228805e-11 6.2991565e-12 2.366222e-12 1.1604459e-10 1.1590017e-10 2.3111748e-13 1.6054257e-13 6.0272815e-12
2.1183793e-12 0.0 0.0 0.0 0.0 0.0 0.0 0.0
0.0 0.0 0.0 0.0 0.0 0.0 0.0 0.0
0.0 0.0 0.0 0.0 0.0 0.0 0.0 0.0
0.0 0.0 0.0 0.0 0.0 0.0 0.0 0.0
0.0 0.0 0.0 0.0 0.0 0.0 0.0 0.0
0.0 0.0 0.0 0.0 0.0 0.0 2.0386992e-09 2.8658997e-10
8.5276175e-10 1.1498268e-09 4.7186693e-10 1.7100673e-09 4.3053186e-11 3.0666004e-12 1.6133207e-12 9.274969e-11
9.537333e-11 1.7268726e-13 1.1062528e-13 3.6049362e-12 2.0349323e-12 0.0 0.0 0.0
0.0 0.0 0.0 0.0 0.0 0.0 0.0 0.0
0.0 0.0 0.0 0.0 0.0 0.0 0.0 0.0
0.0 0.0 0.0 0.0 0.0 0.0 0.0 0.0
0.0 0.0 0.0 0.0 0.0 0.0 0.0 0.0
0.0 0.0 0.0 0.0 0.0 0.0 0.0 0.0
0.0 0.0 2.7327824e-09 3.69198e-10 1.16947e-09 1.6339465e-09 6.5909256e-10 2.5182585e-09
5.989778e-11 6.329088e-12 2.6784512e-12 1.298256e-10 1.3384867e-10 2.3663282e-13 1.8080611e-13 7.0892485e-12
3.150807e-12 0.0 0.0 0.0 0.0 0.0 0.0 0.0
0.0 0.0 0.0 0.0 0.0 0.0 0.0 0.0
4.389557e-09 6.165629e-10 1.9484183e-09 2.760774e-09 1.1269177e-09 4.6510835e-09 1.04307354e-10 1.3932298e-11
4.4011227e-12 2.272475e-10 2.2451337e-10 4.8425847e-13 3.1614368e-13 4.8694312e-12 2.5094553e-12 3.0806833e-09
00000000: b9a9 e233 6161 7232 0a64 4333 04c5 8d33
00000010: 1bfc e932 f6da eb33 8dea 3431 d0a8 a72f
00000020: ba63 e22e 263f b931 e55b b931 c16a 3d2d
00000030: 2460 152d 3448 302e 2f5c 0a2d 4f6f a931
00000040: 284f 3330 da81 0d31 e291 4931 0dd3 a230
00000050: c815 9e31 19a9 fd2e d696 522d e75a b62c
00000060: e9d9 822f 884b 832f 9db4 052b 394a bc2a
00000070: 62a8 1f2d 9023 2d2c f139 ff31 6c47 8330
00000080: f0f4 5531 bf6e 9e31 fe01 0431 adb5 0532
00000090: ad62 522f e852 c32d d221 092d d2fc d22f
000000a0: 8b84 cf2f 72d7 4f2b 35d5 182b 0189 4e2d
000000b0: 6762 f42b 0000 0000 0000 0000 0000 0000
000000c0: 0000 0000 0000 0000 0000 0000 0000 0000
000000d0: 0000 0000 0000 0000 0000 0000 0000 0000
000000e0: 0000 0000 0000 0000 0000 0000 0000 0000
000000f0: 648b 7433 8568 fa31 0dbd d532 278d 1e33
00000100: 171a 7c32 955d 7c33 51a9 c030 739a 482f
00000110: 3d33 992e 5f10 4531 7d26 4b31 dade b22c
00000120: 9ce1 a02c ae64 ad2d 80a1 312d 0000 0000
00000130: 0000 0000 0000 0000 0000 0000 0000 0000
00000140: 0000 0000 0000 0000 0000 0000 0000 0000
00000150: 0000 0000 0000 0000 0000 0000 0000 0000
00000160: 0000 0000 0000 0000 e6fa 2131 879a ad2f
00000170: 31db 8a30 fdb7 c430 8260 2030 66f5 1c31
00000180: 3580 6e2e c2a1 dd2c 1182 262c 4c2f ff2e
00000190: ffdd fe2e 8a1b 822a 3fc1 342a ed10 d42c
000001a0: 5411 152c 0000 0000 0000 0000 0000 0000
000001b0: 0000 0000 0000 0000 0000 0000 0000 0000
000001c0: 0000 0000 0000 0000 0000 0000 0000 0000
000001d0: 0000 0000 0000 0000 0000 0000 0000 0000
000001e0: 0000 0000 0000 0000 0000 0000 0000 0000
000001f0: 0000 0000 0000 0000 0000 0000 0000 0000
00000200: 0000 0000 0000 0000 0000 0000 0000 0000
00000210: 0000 0000 0000 0000 0000 0000 0000 0000
00000220: 0000 0000 0000 0000 0000 0000 0000 0000
00000230: 0000 0000 0000 0000 0000 0000 0000 0000
00000240: 0000 0000 0000 0000 0000 0000 0000 0000
00000250: 0000 0000 0000 0000 2d19 0c31 f48d 9d2f
00000260: c667 6a30 ef07 9e30 afb4 0130 a507 eb30
00000270: 9459 3d2e f6ca 572c 010e e32b 6ff5 cb2e
00000280: 69ba d12e b76d 422a 221b f929 c2ac 7d2c
00000290: 1532 0f2c 0000 0000 0000 0000 0000 0000
000002a0: 0000 0000 0000 0000 0000 0000 0000 0000
000002b0: 0000 0000 0000 0000 0000 0000 0000 0000
000002c0: 0000 0000 0000 0000 0000 0000 0000 0000
000002d0: 0000 0000 0000 0000 0000 0000 0000 0000
000002e0: 0000 0000 0000 0000 0000 0000 0000 0000
000002f0: 0000 0000 0000 0000 0000 0000 0000 0000
00000300: 0000 0000 0000 0000 0000 0000 0000 0000
00000310: 0000 0000 0000 0000 0000 0000 0000 0000
00000320: 0000 0000 0000 0000 0000 0000 0000 0000
00000330: 0000 0000 0000 0000 0000 0000 0000 0000
00000340: 0000 0000 0000 0000 9ecb 3b31 00f8 ca2f
00000350: 11bb a030 6291 e030 842b 3530 ac0d 2d31
00000360: 74b7 832e 5baf de2c b07a 3c2c a8be 0e2f
00000370: 0d2b 132f 6236 852a d091 4b2a 466e f92c
00000380: e5b7 5d2c 0000 0000 0000 0000 0000 0000
00000390: 0000 0000 0000 0000 0000 0000 0000 0000
000003a0: 0000 0000 0000 0000 0000 0000 0000 0000
000003b0: 0000 0000 0000 0000 0000 0000 0000 0000
000003c0: f4d2 9631 c27a 2930 f0e4 0531 0db8 3d31
000003d0: e4e1 9a30 5dcf 9f31 d25f e52e 7e19 752d
000003e0: cad9 9a2c 7cdc 792f e5da 762f 804e 082b
000003f0: 1bf9 b12a f053 ab2c 5496 302c f4b3 5331
