robot_state_berkeley_training/robot_state_epoch_4.pth (torch, 838027 bytes, 24 tensors)

policy_network.0.weight f4 [128, 15]
000000 67 0f 7d bd e8 d7 ce bb 11 1f 5e 3e 74 a6 fe 3d
       -0.061782267 -0.006312359 0.21691538 0.12434092
000010 a4 ca c6 3d 0b 7a 1a 3c 7e 42 0e 3e 7d 2d c3 bd
       0.097066194 0.009428511 0.13892552 -0.095301606
000020 8c 39 04 3e d9 f8 51 3e a8 7b ec bd 8e 3e 89 3e
       0.12912577 0.20505084 -0.11547023 0.26805538
000030 eb 69 27 3e 44 b7 6e 3e 24 2f 8b 3e c5 83 d8 3d
       0.16348998 0.23312098 0.27184403 0.10572008
000040 c3 ba cf 3d 86 7c d8 bd 83 cb 28 be cd 83 88 bd
       0.10143044 -0.10570626 -0.16483884 -0.06665764
000050 d8 ac 07 3e ce e7 c1 3d c7 e9 0e bd 02 21 74 be
       0.13249528 0.09468041 -0.034890916 -0.23840716
000060 84 e5 0a bd 5d d9 fd bd 7f 6f 73 3d ba 0b 4f be
       -0.03391029 -0.123949744 0.059432503 -0.20219317
000070 80 b6 6b 3e 70 b8 8e 3d ba b0 40 ba a2 0c a2 bd
       0.23018837 0.069687724 -0.0007350553 -0.07912566
000080 da f4 5c be a3 5d 3a 3d f8 24 01 bd 8b ee 0e 3e
       -0.21577778 0.045499455 -0.031529397 0.13958184
000090 88 a1 35 3e 7c 22 53 3e f9 f3 64 3e 73 2e 09 be
       0.177374 0.20618623 0.22358693 -0.13396625
0000a0 c0 3b 7b 3e e9 4b 74 3d 0d a5 fb bd 67 ec 0f 3e
       0.24534512 0.059642706 -0.1228734 0.14055024
0000b0 73 08 f9 bd 7d ca 45 3e cc 0a 05 be 5d 2d 54 bd
       -0.12159815 0.19315524 -0.129924 -0.051801074
0000c0 5a a1 c3 bd c9 78 04 be 00 89 41 be c9 32 07 3c
       -0.0955226 -0.12936701 -0.18899918 0.008251854
0000d0 b0 85 38 3e eb c2 6f 3e 31 cb 73 bd fa 5c 7c bd
       0.18019748 0.23414199 -0.05951995 -0.061612107
0000e0 ee 07 12 3e 91 8d 85 bd 91 ce 90 3d 18 6a d1 bb
       0.14260837 -0.06521142 0.070706494 -0.006390821
0000f0 03 b1 8e 3d d9 3c e1 bc fa 0c 42 3e 7c 66 65 be
       0.06967356 -0.027494835 0.18950263 -0.22402376
000100 e3 47 d9 bc fc 3c 83 be 91 f6 a2 3d 9c 70 f6 bc
       -0.026523536 -0.25632465 0.07957185 -0.030082993
000110 2c 2b 1a be 27 4b b4 3d b2 cd b0 bd b9 dd 70 3e
       -0.15055531 0.08803397 -0.08632983 0.2352208
000120 0e 44 57 be 32 2e 93 3e 72 88 89 3e d1 a6 80 3c
       -0.21022055 0.28746182 0.26861912 0.015704544
000130 92 f1 98 3d 39 bf 5e 3c ef 91 e7 bd e7 6c 51 3d
       0.07467951 0.013595396 -0.113071315 0.051129248
000140 62 73 a9 bd ae a0 44 be 9f 65 43 be 3b b2 74 3e
       -0.08273961 -0.1920192 -0.19081734 0.23896115
000150 c0 4a 58 bc 76 a9 16 be ea b8 de 3d 64 b4 6a be
       -0.013201416 -0.14713082 0.10875113 -0.22920376
000160 35 92 80 be bc 4d 50 be 10 31 d3 bd cd b7 6d 3e
       -0.25111547 -0.20342153 -0.10312092 0.23214646
000170 d4 ac 0e 3e 98 1a 23 3e 71 2c 34 be bf 23 1c 3e
       0.13933116 0.15928113 -0.17595078 0.15248011
000180 f7 21 17 be 92 18 88 be 0a eb f9 3d 37 4b 0c 3d
       -0.1475905 -0.26581246 0.12203033 0.034251418
000190 73 68 c4 bd e7 d5 ad 3d 04 af 49 be 38 c4 53 3c
       -0.095902346 0.08488064 -0.1969567 0.0129252
0001a0 b1 b1 dd 3d c5 38 38 3d d0 e5 bc bb d4 7f 58 be
       0.108249076 0.044976015 -0.0057647005 -0.21142513
0001b0 a3 d0 26 3e 4e 20 49 3e ee 7c 22 3e 72 19 d3 3d
       0.16290526 0.1964123 0.1586797 0.10307588
0001c0 60 91 61 3d 1b c9 c8 bd 02 4e ee 3d 05 0c b0 bd
       0.05507028 -0.09803983 0.116359726 -0.085960425
0001d0 8f 97 02 3d 77 08 1e be 5a 29 1a be da 2d 34 be
       0.03188282 -0.15432917 -0.15054837 -0.17595616
0001e0 a6 27 2d bd 04 c5 1c 3e 19 91 51 be b9 83 ed 3d
       -0.04227414 0.1530953 -0.20465507 0.1159739
0001f0 df c8 65 3e c1 79 64 be 5f c3 28 3e 12 a7 42 be
       0.22439907 -0.2231207 0.16480778 -0.19009045
000200 78 ff 40 3e 56 9b 30 be 21 d9 bc 3d c2 18 80 3e
       0.18847454 -0.17246756 0.092211016 0.2501889
000210 ca 1b 50 3d fc 4d 14 be b7 da ae bd 96 9f dc bd
       0.05080775 -0.14482874 -0.0853781 -0.10772626
000220 f1 18 3b be 73 a1 5e be 43 00 82 3e e3 1a dc bd
       -0.18271233 -0.21741275 0.25390825 -0.10747316
000230 c3 ef e9 bd d2 40 82 3e 89 f1 27 3e 13 44 78 3e
       -0.11422684 0.2544008 0.16400732 0.24244718
000240 29 3f 21 3e 6b 25 cb bd 63 e1 bb 3d a0 6c 4d 3e
       0.1574675 -0.09919246 0.091738485 0.20060968
000250 84 65 24 3e e0 c8 53 be e6 55 5d be 66 6e 75 3c
       0.1605435 -0.20682096 -0.21614799 0.014979934
000260 3d 5f 15 be 2b af b6 bd 2a 76 39 be ae 29 03 be
       -0.14587112 -0.089201294 -0.18111482 -0.12808868
000270 2d 9f 3d be a4 c6 e4 bd 85 38 17 be cf bd ba 3c
       -0.18517752 -0.111707 -0.14767654 0.022795586
000280 ad 21 67 be fa 61 d8 bd da 2d 12 3e 09 40 4c 3e
       -0.2257144 -0.105655625 0.14275303 0.19946302
000290 ac 36 eb ba 32 c9 6b 3e 81 45 5b 3d f0 a8 0d 3e
       -0.0017945371 0.23025969 0.05353308 0.13833976
0002a0 24 0b 23 3d ac 02 c2 bd b4 81 4f be 9c ba 66 bb
       0.039805546 -0.09473166 -0.20264322 -0.0035206443
0002b0 14 21 1d be 43 f4 72 be 84 3a eb 3d ab 71 66 3c
       -0.1534465 -0.23725991 0.1148577 0.0140651865
0002c0 6b 03 80 3e 43 99 36 3e 74 97 04 be c0 ec 15 3e
       0.25002608 0.17831902 -0.129484 0.14641094
0002d0 fc 25 51 3e 39 39 2b be d9 05 6c be d4 2a 4a 3e
       0.20424646 -0.16721047 -0.23049106 0.197429
0002e0 70 fb 20 be 46 08 da 3d 50 ce 6f be 5b ed 78 bd
       -0.15720916 0.10646109 -0.23418546 -0.060773235
0002f0 a6 2a 06 b9 f8 2a 43 be 43 e2 2f 3e b7 d5 27 bc
       -0.00012795124 -0.1905936 0.17176156 -0.010243825
000300 06 23 62 3e 2d 9f 3d 3e 2f cd 4b bd 6d 4c 7f 3e
       0.22083673 0.18517752 -0.049756225 0.24931498
000310 2e 18 84 3d c1 79 4f 3e e5 49 46 3e 08 ac 08 3e
       0.064499244 0.20261289 0.19364126 0.13346875
000320 50 ad 2e be e8 1d 2e 3e 2c dd 81 be 13 c1 0e be
       -0.17058301 0.17003596 -0.25364053 -0.1394084
000330 5b 79 37 be f8 f2 07 be ab 27 6f 3e 31 cb 97 3b
       -0.17917387 -0.13276279 0.23354976 0.0046323766
000340 94 3a 67 bd 3e 2e 81 3e 0b 56 6b be c2 2d 6c be
       -0.05645235 0.25230592 -0.22982042 -0.2306433
000350 b1 11 79 be a8 5c 1e be da 1b 14 be 60 30 b8 3d
       -0.24323155 -0.15465033 -0.1446375 0.08993602
000360 b1 8e 90 3d bc 2f 58 3e c4 07 94 3e 8a a5 86 be
       0.07058466 0.21111959 0.28912175 -0.2629817
000370 7f ee 8c be 14 5f 72 be 66 ac 63 3e d6 5a 1a bd
       -0.27525708 -0.23669082 0.22233734 -0.037684284
000380 3b 39 73 3d 0c 31 7b bd ec b4 34 3e 44 3a 76 be
       0.05938075 -0.06132607 0.17647141 -0.24045664
000390 fd 6b 28 3e 2d 14 51 3e 1a be 67 bc 61 e4 13 be
       0.16447444 0.20417853 -0.014144445 -0.14442588
0003a0 21 91 f3 bd bf 5d 45 bd 61 26 c9 3d 2a e4 e2 3d
       -0.118929155 -0.048185106 0.09821773 0.11078675
0003b0 6e d2 53 be c2 c9 44 be 8a ef b7 3d 95 c8 07 be
       -0.20685741 -0.1921759 0.08981235 -0.1326011
0003c0 98 7c 59 be 43 8e 74 3e 9a ed 48 3e c3 70 b2 3d
       -0.21238935 0.23882394 0.19621888 0.08712914
0003d0 50 6f 43 3e c2 db 2e 3e a9 07 a5 bd 10 70 2d 3d
       0.19085431 0.17076018 -0.08058102 0.0423432
0003e0 a5 fe 50 3e 6a 52 54 be 8d 2d 9f bd 4b 6b 31 b9
       0.20409639 -0.20734563 -0.0777236 -0.00016920005
0003f0 1c 8e 0c bd dd 25 a1 be de 2f 6a be b9 2b 85 bd
       -0.034315214 -0.314742 -0.22869822 -0.0650248

policy_network.0.bias f4 [128]
000000 d0 6c 74 be 4f c8 23 3e 31 66 86 bd 86 38 95 3b
       -0.23869634 0.1599438 -0.0656246 0.0045538573
000010 e2 fe 9b 3d d1 32 bc bd 4c 0f 25 3e 68 df a5 3d
       0.076169744 -0.0918938 0.16119117 0.08099252
000020 75 92 4c 3e 27 e6 1a 3d 3d 87 bb bd da 87 cd 3d
       0.19977744 0.037817147 -0.09156654 0.10035677
000030 a2 46 35 3e cf a4 30 3e 09 e5 73 bd 0c 4a 7e 3e
       0.17702726 0.1725037 -0.059544597 0.24832934
000040 0d 89 29 3e e0 2a 2f be 4f 8c 5b 3c 37 13 cb bd
       0.16556187 -0.171062 0.013400151 -0.09915774
000050 fc e8 42 3e eb 11 d9 bd 04 09 38 be 4c 65 46 be
       0.19034189 -0.10599121 -0.17972189 -0.19374579
000060 d3 18 28 3e 17 cb 1a be 28 36 c8 3d cb 3b 70 be
       0.1641572 -0.15116535 0.097759545 -0.23460309
000070 1f ec 38 be a6 ee 14 3d 33 bc 51 3d 2c 36 fe 3d
       -0.18058823 0.036360405 0.05120487 0.12412676
000080 43 b7 66 be 87 cd cf bc 69 64 5a be df 4c 44 be
       -0.22530846 -0.025366558 -0.21327366 -0.19169949
000090 87 65 32 be b8 74 b3 3d 47 1d 77 be 7a 47 72 3d
       -0.17421542 0.08762497 -0.24132262 0.059150197
0000a0 03 3b a5 3d 99 1a 51 bc b1 be 34 3d ae 09 36 3e
       0.08067896 -0.012762689 0.04412717 0.1777713
0000b0 92 7f 00 bd 4f 78 26 be b1 1f 5e bd 21 32 26 3c
       -0.03137166 -0.16256832 -0.054229442 0.010143788
0000c0 15 5e 41 be b0 84 08 be f2 cc 83 3d 8e bf 04 be
       -0.18883546 -0.13331866 0.064355746 -0.12963697
0000d0 8e ee 30 be b2 c3 34 3e fc 3c 47 3d 6a b0 1c 3e
       -0.17278501 0.17652777 0.048642144 0.15301672
0000e0 05 2a c1 bd ad a8 1a be 03 c7 3a 3e be 98 cc bc
       -0.09431843 -0.15103407 0.1823998 -0.024975177
0000f0 5c 8e 40 be 62 fb 6c be 21 b9 85 bd 89 45 12 3e
       -0.18804306 -0.2314277 -0.06529451 0.14284338
000100 42 fa 2d 3e 43 df 25 3e 88 16 49 3d 5a 69 1f 3e
       0.16989997 0.16198449 0.049093753 0.15567532
000110 b5 ce b0 bd c9 5c d6 bd 77 53 16 be 08 67 f0 bc
       -0.08633176 -0.10466916 -0.14680277 -0.029346004
000120 03 53 07 be ef a9 72 3e 6c 3f c5 bd 2f 85 5a be
       -0.1321526 0.23697637 -0.096312374 -0.21339868
000130 62 b4 0c be 92 ae 09 3e d6 c4 51 be bf 3f 8b bd
       -0.13740686 0.134455 -0.20485243 -0.06799268
000140 51 aa 6b 3e e4 0e ed bd ec 31 a4 3d 3a cc 27 3e
       0.2301419 -0.11575106 0.08017334 0.163865
000150 0b 2b 64 bd c9 3b 1d 3d ae 07 48 bd 29 f1 e7 bc
       -0.05570511 0.038387094 -0.04883545 -0.028313236
000160 86 71 4c 3d 38 db 4e 3e f2 2e 2f be 9f be 84 3e
       0.049912952 0.20200813 -0.17107752 0.25926682
000170 31 52 80 be 9a cf 10 3c e2 2f b3 bd 24 d0 f5 bc
       -0.25062707 0.008838559 -0.08749367 -0.030006476
000180 2a 93 fb 3d 3c 44 68 3d c9 2a 0a 3e 52 11 36 be
       0.12283929 0.0567057 0.13492884 -0.17780045
000190 65 3f ca 3c a2 3c 85 be db 51 68 3e 2c ec 23 bd
       0.024688432 -0.26022822 0.22687475 -0.040020153
0001a0 78 c1 5a be 43 cd 9b 3d 41 98 51 be 83 d0 8a 3d
       -0.21362865 0.0760751 -0.20468237 0.06778052
0001b0 fd 2b 2f be 55 ce 57 3e 02 da f2 3d 4d c9 f3 bd
       -0.17106624 0.21074803 0.11857988 -0.119036295
0001c0 63 25 59 be 10 bc 84 be 8a bb 62 3e 3f ba bf bc
       -0.21205668 -0.2592473 0.22141853 -0.023404239
0001d0 82 c3 64 3e df f3 54 bd c6 1a ad bd 96 9c d0 3d
       0.22340205 -0.051990386 -0.08452372 0.101861164
0001e0 52 d8 42 be d8 1f 00 3d c9 83 0a 3e 57 63 01 be
       -0.19027832 0.03128037 0.13526835 -0.12635551
0001f0 e3 ec 31 3e 0c 90 84 bc 86 62 08 be a2 15 39 be
       0.17375521 -0.016181968 -0.13318834 -0.18074659

policy_network.3.weight f4 [256, 128]
000000 7a eb fe bc 7c 8d 3a bd 5f 65 7b bc 7f 54 b0 bd
       -0.031118143 -0.045545086 -0.015343993 -0.08609866
000010 fe e5 c2 bd 09 20 94 3d cc d8 b9 bd f7 53 91 3d
       -0.09516524 0.07232673 -0.09074554 0.07096093
000020 73 f5 ba bc c7 b7 f9 bc 17 ae b9 bd 71 5b a1 bd
       -0.022822117 -0.03048314 -0.09066408 -0.07878769
000030 8d 88 bf 3a b0 94 80 bd e7 cd 22 3d 59 c0 95 3d
       0.0014612839 -0.0627836 0.039747145 0.07312078
000040 0f 67 50 3d 9c a4 a2 bd e8 de 6c 3d f4 2d 0d 3d
       0.050879534 -0.07941553 0.057829767 0.034467652
000050 3d 39 0c 3d 1e a5 a5 bd 0a a5 12 3c 8a 17 97 3d
       0.034234274 -0.08088134 0.008950481 0.073775366
000060 71 77 a0 3c a0 7e 09 bd cc 0f 8b 3d 5a 94 35 bd
       0.019588204 -0.033568025 0.067901224 -0.044330932
000070 10 af 9a bc 61 27 7a bd 92 54 cd bc 07 21 86 bb
       -0.018882304 -0.06107271 -0.02506474 -0.0040932926
000080 9d 94 85 3c 10 fb 65 3d 01 48 5b 3d 5b b9 a4 bd
       0.016306216 0.056147635 0.053535465 -0.08043166
000090 bd 90 13 b9 ac 20 f8 bc 60 2a a2 3d bd 94 6d bd
       -0.00014072932 -0.030289017 0.07918239 -0.058003176
0000a0 c4 dd 09 bd 39 79 60 3d fd 9e 0b bd ab a7 a5 bd
       -0.033658758 0.054803107 -0.03408717 -0.08088621
0000b0 54 52 ba bc e4 c2 64 3d 7a 60 ac bc b7 67 18 bd
       -0.022744335 0.055849925 -0.021042097 -0.037208285
0000c0 94 1d 8e bd 1a 20 ba 3c 27 5a 81 bd f4 c7 75 3c
       -0.06939235 0.022720385 -0.06316023 0.015001286
0000d0 1a a8 68 bd 52 1f 6a 3d b3 f0 8b 3c a4 bf 6d bc
       -0.05680094 0.057158776 0.017082548 -0.014511023
0000e0 6a 95 b7 bd 5a c1 8f bd 92 88 51 bd 2d 68 7f bd
       -0.08964045 -0.07019301 -0.051155634 -0.06235521
0000f0 1e 56 62 bd 45 4f 86 3c c9 30 81 bc 32 75 3a bb
       -0.05525791 0.01639522 -0.015770333 -0.0028451202
000100 97 02 34 3d c4 af cf ba 4b 52 3d 3d 64 ec 26 3d
       0.043947782 -0.0015845229 0.04622106 0.040752783
000110 87 c9 8f bd f3 95 9b bb 08 fe 52 3d 48 9b 59 bd
       -0.0702086 -0.0047481 0.051511794 -0.053126603
000120 38 e0 e3 bb 0c b5 34 3c 95 bc a6 bd df 9e ad 3c
       -0.006954219 0.011029493 -0.08141438 0.02119392
000130 f1 e9 34 bd 89 93 93 bc 05 f5 e7 3c 16 e1 30 3d
       -0.044168416 -0.018014686 0.028315077 0.04318341
000140 57 05 52 bd 6b b4 af bd 09 de b4 3c 13 99 1a bd
       -0.051274624 -0.08579334 0.02207853 -0.03774364
000150 d2 e4 0e 3d e5 d9 a7 3d f7 e1 5d 3d 06 54 f6 bc
       0.03488619 0.08195857 0.054170575 -0.030069362
000160 cc 7f fc 3c 21 c0 ea bc 80 ae 24 bc f9 bf a2 bd
       0.030822657 -0.028656067 -0.01005137 -0.07946772
000170 d6 40 aa bd a6 35 af bd 23 96 90 bd 57 7a 4b 3d
       -0.08313148 -0.085551545 -0.07059886 0.04967722
000180 48 35 5a 3c 05 7c d0 3c 54 c6 80 bd a9 45 a3 3c
       0.013318367 0.025449762 -0.06287828 0.019930677
000190 47 d7 b1 bd a3 61 04 3d a7 61 66 bd 34 ea 58 3d
       -0.08683639 0.032319676 -0.056245472 0.05295773
0001a0 06 51 5b bc bc c1 88 3d 6f d8 58 3c d2 37 41 3d
       -0.013386017 0.06677577 0.013235196 0.047172375
0001b0 88 2b d5 3c f1 c8 81 3d 2a ed 97 3b ac ed a2 3d
       0.026021734 0.06337155 0.0046364265 0.079554886
0001c0 81 3d 0c 3c 11 4b 76 bc 99 08 a9 b9 2e 6d 2a bd
       0.008559586 -0.015032546 -0.00032240598 -0.041608028
0001d0 92 ed 1f bc ff 94 64 bb eb 67 64 bd 55 0c 81 bb
       -0.009761231 -0.0034878848 -0.055763166 -0.0039382377
0001e0 18 4a 41 bc 55 18 47 bd 8e c5 95 bd 2d 7f b3 bd
       -0.0117974505 -0.04860719 -0.07313071 -0.08764491
0001f0 3f b6 8e 3c 87 22 7a bd d3 2a f4 bc 9d 44 39 bd
       0.017420886 -0.061068084 -0.029805576 -0.04523145
000200 9a 89 99 bd 0f 96 68 3d b6 ec 22 3d ce a3 98 bd
       -0.074969485 0.056783732 0.039776526 -0.07453118
000210 cd 2a 78 3d ac c5 ed bc 34 58 f0 3c 08 f0 5f 3d
       0.060587693 -0.029024921 0.029338934 0.05467227
000220 3f 9d 45 3c cb f0 90 bd 11 6d 45 bd 22 95 9d bd
       0.012061416 -0.070771776 -0.048199717 -0.076944605
000230 f9 1a fa 3c 5a 53 81 3d 40 8e 9d 3d 92 11 1f bb
       0.03053044 0.06314726 0.07693148 -0.0024271947
000240 f3 02 83 bc 0a f6 44 bd 66 86 eb 3d 9a ea 47 bc
       -0.015992617 -0.048086204 0.11500244 -0.012201929
000250 d9 76 c0 3b c1 e6 89 bd 64 57 dc bc 19 f2 3f bd
       0.0058735427 -0.06733466 -0.02689714 -0.04686174
000260 62 ff 49 3d a2 34 38 3c f1 c5 29 bd a3 8e 84 bd
       0.049315818 0.011243017 -0.041448537 -0.06472518
000270 85 51 e2 3c cc d9 d9 bc 5d 97 83 bc 0b 6f 37 3d
       0.027626762 -0.026593111 -0.016063387 0.044783633
000280 e2 6b 1d 3d fe 63 89 3d 20 09 98 3d 96 7a 9b bd
       0.038432963 0.06708525 0.074236155 -0.07591741
000290 18 99 33 bd 82 21 41 bb 74 3a 74 bd e6 b5 0f bd
       -0.043847173 -0.0029469435 -0.059626058 -0.03508558
0002a0 f9 ae 7d 3d fd 1f 2a bd 28 45 d4 39 73 01 1b bd
       0.061934445 -0.041534413 0.00040487316 -0.03784318
0002b0 0b 59 54 bd ce 55 d2 bc a0 38 a7 bd 2b 6d 7c 3d
       -0.05184273 -0.02567568 -0.08165097 0.06162755
0002c0 23 fb aa 3d 54 26 3d bd 2f cd 84 bd 83 08 8b bd
       0.08348682 -0.04617913 -0.06484448 -0.06788733
0002d0 83 ea c3 bc c4 ef 50 3c 92 a6 51 3c 73 ca 38 3d
       -0.023915535 0.012752477 0.012796061 0.045114946
0002e0 f3 8e 31 3b 64 0d 0b bc 8f 1a 0e 3c da 76 94 bd
       0.002709326 -0.008487079 0.008673324 -0.07249232
0002f0 3d 5d 90 3d 2c a0 ad 3b cc 93 89 bd fa b5 d9 3c
       0.07049034 0.005298635 -0.06717643 0.026576031
000300 8c 07 4d bd 6b 79 7f 3c 8c 59 ea 3c 1b 87 a8 bd
       -0.050056025 0.015592913 0.028607152 -0.08228894
000310 45 a0 11 3c 47 83 9e 3d 4d 24 ac 3d 53 0a 82 3d
       0.008888309 0.07739883 0.08405361 0.063496254
000320 ca fe 4c 3d b3 c4 65 3d 6b 23 90 bc 08 23 92 bd
       0.050047673 0.05609579 -0.017595014 -0.07135588
000330 22 fa a2 3d 26 11 35 3d 27 a0 ab bc ef d1 5b 3d
       0.07957865 0.044205807 -0.02095039 0.053667005
000340 cc f1 48 3d 0a 48 57 3d 0b ad 1e 3d e5 d5 75 3d
       0.04905872 0.052558936 0.038739245 0.06001844
000350 c8 50 b1 bd 60 77 7d bd 0c c3 8f bb 41 da 84 bd
       -0.08657986 -0.061881423 -0.004387265 -0.06486941
000360 d0 24 91 3c 64 39 97 3d 74 80 00 3d cf f4 ba 3c
       0.017717749 0.07383993 0.031372502 0.022821812
000370 25 10 04 bd ac c5 0d 3d 55 26 97 bd dc 6a 19 bd
       -0.03224196 0.034612343 -0.07380358 -0.037455425
000380 d2 65 34 3d 2b 6e 81 bd 9e d6 06 3d 1b c0 b4 bd
       0.044042416 -0.06319841 0.03291952 -0.08825704
000390 68 56 96 ba 39 3e 84 bd a8 8c 9b bd 84 bb 8a 3d
       -0.0011469843 -0.064571805 -0.075951874 0.06774047
0003a0 24 74 c3 bd 95 66 26 3d b5 49 95 3d 5d 21 64 ba
       -0.095436364 0.040625174 0.07289449 -0.0008702481
0003b0 83 f9 8c 3d 61 8c 0e 3d 54 a6 97 3d 94 f4 86 3d
       0.06883528 0.034801845 0.074047714 0.06589618
0003c0 a3 ad a6 bd 3f 8e aa 3c 71 44 c3 bc 56 94 cc 3c
       -0.08138587 0.020819781 -0.023836346 0.024973076
0003d0 99 7f 31 3d 5b 0e a2 bd 82 e2 17 3d 01 d2 67 bd
       0.043334577 -0.07912894 0.03708125 -0.05659676
0003e0 72 a1 5c 3d 6c 97 86 3d a2 04 95 bd f1 a0 b2 bd
       0.053864904 0.0657185 -0.07276274 -0.087221034
0003f0 71 9a 85 bc 15 c5 1c 3c 16 d7 a2 3d bf e1 7c bd
       -0.016308995 0.009568472 0.07951181 -0.061738726

policy_network.3.bias f4 [256]
000000 9e 4f e9 bc ea 40 ea 3c 94 6a a5 3d aa 95 ae bd
       -0.028480347 0.028595407 0.08076969 -0.0852464
000010 ff fe a8 bc e1 25 cd bd ea 39 bc bd 59 84 91 3d
       -0.020629404 -0.100169905 -0.09190734 0.071053214
000020 70 4f 50 3d f8 e7 9c bd fd e1 82 3d ca b9 6a ba
       0.050857008 -0.07661432 0.0639076 -0.00089540763
000030 60 36 04 3c ba 07 61 3d 28 26 ab 3d 8c 99 ed 3c
       0.008069605 0.05493901 0.08356887 0.02900388
000040 52 61 3b 3d 68 8f 77 bd d6 e6 ae bb 93 05 86 3d
       0.04574711 -0.060439497 -0.0053375764 0.06544032
000050 3d 20 e4 bc 6e aa 1c bd 7b 5d ab bc 65 21 19 bc
       -0.027847404 -0.038248472 -0.020918598 -0.009346341
000060 40 d4 51 bd b8 da 63 bd 8d 07 f5 bc 1c 12 0f bd
       -0.051227808 -0.05562851 -0.029910827 -0.03492938
000070 a3 64 7b bd f5 85 e7 3a 70 e1 cd 3c 0a a7 34 3d
       -0.06137527 0.0017663824 0.025131911 0.044104613
000080 b6 0b 96 bd 68 6b b7 bd f4 79 3a bd bb be 91 3c
       -0.073264524 -0.08956033 -0.04552646 0.017791143
000090 97 1c 78 3d c8 60 83 3b 65 2a 62 3d 16 8e de bc
       0.06057414 0.00400934 0.05521621 -0.027167361
0000a0 d0 1d 2d bc e8 b1 b2 3d 1d 12 aa bd f9 8e 08 3d
       -0.01056619 0.08725339 -0.08304236 0.033339474
0000b0 74 92 08 bd 1f 0c 8d bd d6 17 16 bd e0 3a 1a 3d
       -0.033342794 -0.068870775 -0.036643825 0.037653804
0000c0 d9 e0 72 3d 5a 3b ef bc e0 81 31 3d 1e e7 8f bb
       0.059296463 -0.029203106 0.04333675 -0.004391565
0000d0 01 51 a5 3d a2 1d 8c 3d 1f 37 3e 3d 73 d9 81 bd
       0.08072091 0.068415895 0.046439286 -0.06340303
0000e0 2e b9 9f bd 17 ba 9b 3d ae 9b b3 bd 42 91 5c bd
       -0.07798992 0.07603853 -0.08769928 -0.053849466
0000f0 ff 7d fc 3c 84 7c 71 bc eb 51 98 bd 51 bc 83 3d
       0.030821798 -0.0147391595 -0.074374996 0.06432403
000100 d2 42 90 bd 42 55 dc 3b 54 64 14 bd c0 de b3 bd
       -0.07043995 0.0067240307 -0.036228493 -0.087827206
000110 d6 43 7b 3d 33 c7 19 3d 1e 34 55 3d 81 73 0f bd
       0.06134399 0.037543487 0.052051656 -0.035022262
000120 21 be 01 3d 31 4c 8d 3d ed 2c 91 3d 45 78 af bd
       0.03167546 0.06899298 0.07088647 -0.085678615
000130 73 1d f6 bc e7 a1 c7 bc 8f 71 ab 3c 4a 1c 4c 3d
       -0.03004334 -0.024369193 0.020928172 0.049831666
000140 be 7b 1c bb 02 b1 f3 3c ee 97 8e 3d fb e8 3f 3c
       -0.0023877467 0.02974749 0.06962572 0.011713262
000150 65 3d c1 3c cd 71 2e bc c9 0a 5b bd 02 df d4 bd
       0.023588846 -0.010647249 -0.053477082 -0.10394098
000160 2c 89 01 bd 29 b0 04 3d 9e 33 76 bd ee 0a 86 bd
       -0.031624958 0.032394562 -0.06010782 -0.065450534
000170 24 da 32 bd 06 f9 ee 3c d7 bc 01 3d 94 de 82 bc
       -0.043665066 0.029171478 0.031674232 -0.015975274
000180 87 76 83 bc 0d ff 9d bc f2 90 88 bc 81 3c ac bc
       -0.01604773 -0.019286657 -0.016670678 -0.021024944
000190 6a 70 60 bd 69 d3 80 3d 0f 50 3a bd 04 40 8e 3d
       -0.054794706 0.06290323 -0.045486506 0.06945804
0001a0 e6 c2 ac 3c 4e c6 88 3d 03 c7 91 bd ba 4d 0a 3d
       0.021089029 0.066784486 -0.071180366 0.033765532
0001b0 ab 38 f5 3c 27 63 8f 3d ee 10 3f 3d 6b a5 a3 3d
       0.029934248 0.07001334 0.046647005 0.07990535
0001c0 65 ff 92 3d 1d c1 8e bd 87 ac a5 bd 2b cd 07 3c
       0.07177619 -0.06970427 -0.080895476 0.008288662
0001d0 de ea 47 3d f9 c3 44 3d 95 c3 73 3d 74 44 c0 bd
       0.04880797 0.048038457 0.059512693 -0.093880564
0001e0 cb bd 06 3c b7 2e c2 3c fa df ce 3c f8 f1 c8 bd
       0.008223961 0.023703916 0.025253285 -0.09811777
0001f0 cd 07 51 3d fb 3c c7 bc a6 4b 36 bd e4 5c 8b bd
       0.05103283 -0.02432107 -0.044505738 -0.06804827
000200 14 36 0f 3d b6 ab 82 bd 1b ff dc bc 5a c0 5b bc
       0.034963682 -0.063804075 -0.026977113 -0.013412559
000210 b6 44 83 bd 92 34 cf bc db 25 45 3d af 75 33 bd
       -0.0640959 -0.025293622 0.048131805 -0.043813404
000220 2a 0c 2b bd 00 03 39 bd 44 93 9b 3d 4f 40 7a bd
       -0.041759647 -0.045168877 0.07596448 -0.061096486
000230 56 28 7f 3d 96 02 d7 3c f9 a1 57 bd 5f fa b0 3b
       0.062294327 0.02624635 -0.052644704 0.0054009403
000240 f8 aa 43 3d 30 ad 8c 3c 50 96 91 bc a9 11 2f bd
       0.04777047 0.017172426 -0.01777187 -0.04274145
000250 48 7e a6 bd 29 42 02 bb 8e 4c 77 3d 9d 94 a8 bd
       -0.08129555 -0.001987586 0.060375743 -0.08231471
000260 b4 06 4e 3d 3c 04 83 bd 48 e1 74 3d a7 91 f5 3c
       0.05029936 -0.06397292 0.059785157 0.029976679
000270 c3 62 8b 3d 7f 05 44 bd 3a a7 9b 3d d8 74 2d 3d
       0.06805947 -0.047856804 0.07600255 0.04234776
000280 56 92 45 3d 7f a0 f0 3c 20 74 01 bc a1 35 91 bd
       0.04823526 0.029373406 -0.0079012215 -0.07090307
000290 8a 3a 72 bd 0c 5b 07 bd b0 7e 65 bd 36 35 e2 bc
       -0.05913786 -0.033045813 -0.05602902 -0.027613264
0002a0 8f cf 40 3c 31 c5 94 bd 6c e6 41 3d 70 d8 07 3d
       0.011768236 -0.07264174 0.047338888 0.033165395
0002b0 f5 40 2e 3c de dc 87 3d 2e 51 ba bd 64 20 36 3d
       0.010635604 0.06633924 -0.09097515 0.044464484
0002c0 f5 5b 9f 3c 00 a6 9b bd 13 84 29 3d b6 b6 be bd
       0.019453028 -0.07600021 0.04138572 -0.09312193
0002d0 ae 4c 0d 3c d7 15 9f bd dd 12 fe b9 32 6e 85 bd
       0.008624239 -0.077678375 -0.0004846071 -0.06515159
0002e0 31 7a 45 3d 9f 33 80 bd 68 da 8b 3d d1 68 b1 bd
       0.048212234 -0.06259846 0.06828767 -0.0866257
0002f0 0a 95 29 3d a8 58 53 3d 1f 6e ad 3b c4 8e 0a 3d
       0.0414019 0.05159822 0.0052926685 0.03382756
000300 36 f3 3d 3d 98 69 94 bd 9e c2 50 bd 2d d5 e6 3c
       0.046374522 -0.07246703 -0.05096685 0.028177822
000310 aa 40 29 bd 58 56 7f bd 82 64 d4 3c 4f 7b 4c 3d
       -0.041321434 -0.062338203 0.025926832 0.049922284
000320 19 40 b9 bd 19 bf 55 bd a2 78 b0 bd 22 ea 2a 3d
       -0.09045429 -0.052184198 -0.08616759 0.041727193
000330 bd be 4e bc fc fe e9 bc 42 7f b6 bd fe a1 cf 3b
       -0.012618718 -0.028563969 -0.08910991 0.0063364496
000340 27 34 57 bd 6a 7f a8 bd 6d 0a 5d bd 8e 7d b1 bd
       -0.05253997 -0.08227427 -0.05396502 -0.08666526
000350 b9 a0 76 3d 7d bb 80 3d 63 b1 27 bd be 2c c2 bd
       0.06021187 0.062857606 -0.040940654 -0.0948119
000360 1e a5 2e 3b ef 8c 1c bd f8 4a 54 bd 6f 09 cd bd
       0.002664871 -0.038220342 -0.05182931 -0.10011565
000370 e7 3d 9a bd c5 e1 48 3d 09 d2 77 3d b0 fc 19 3d
       -0.07531338 0.049043436 0.06050304 0.037594497
000380 b1 67 1c bd ec bb bc bd f1 51 64 3d 5e 11 a6 3d
       -0.038184825 -0.09215531 0.055742208 0.08108781
000390 9b 4f 81 3c 0d 60 14 bc 34 42 89 bd b0 e8 62 3d
       0.01578503 -0.009056103 -0.0670208 0.05539769
0003a0 c5 fd 2c 3d c0 1e bd bd e2 54 b2 bc a2 9b d0 bd
       0.0422342 -0.09234381 -0.02176899 -0.101859346
0003b0 2a b9 d3 3c 8b 91 87 bc 63 ae 80 3c c1 93 be bc
       0.025845129 -0.016548892 0.015708154 -0.023263814
0003c0 52 e8 0d bc d7 a9 ca 3c 41 fb 8f 3d 86 67 84 3d
       -0.0086613465 0.02473919 0.07030345 0.06465058
0003d0 8b 4f a1 bc 85 bb 84 bd 2d 6e 9c 3d 20 40 60 3c
       -0.01969125 -0.06481079 0.07638202 0.013687164
0003e0 2c 5c 74 3d 5f 0c 28 3d 4e 29 05 bd 0b e2 3a 3a
       0.059658214 0.041027423 -0.032510094 0.000712902
0003f0 60 8e 94 3d 7f 22 69 bd 95 ed dd 3c 8f 29 96 3a
       0.072537184 -0.056917664 0.027090827 0.0011456477

policy_network.6.weight f4 [128, 256]
000000 43 df 46 bc 2f 17 39 bd 98 ed 67 3d 4c 9b 75 3b
       -0.012138191 -0.045188125 0.05662307 0.0037476597
000010 3c 3b 35 bd 64 02 f0 bc 7c 05 c5 3c 78 1c 35 3d
       -0.044245943 -0.029298015 0.024050467 0.044216603
000020 9c 56 72 bd eb 05 a4 3c 80 fa 57 3d 06 02 03 3b
       -0.05916463 0.020022353 0.05272913 0.001999022
000030 96 32 1d bd ae 4b 7e 3d 70 5c e0 bb 08 34 c9 3c
       -0.03837832 0.062083893 -0.006846957 0.024560943
000040 3f 9d 20 bc 80 52 7f 3b 7e e5 3f 3d 90 d9 c8 bb
       -0.009803115 0.0038959086 0.04684972 -0.006129451
000050 76 6d 38 bd 1c 86 37 3d 1a 7b 5c bd 17 7b 16 bc
       -0.045026265 0.04480563 -0.053828336 -0.00918462
000060 0f 71 a1 3c e0 ce c0 bb fe 57 46 bd ec 8a 7d 3d
       0.01970723 -0.0058840364 -0.04842376 0.061900064
000070 55 8e 04 bd 08 d8 20 3d 94 90 48 bd ce 1e 36 bd
       -0.0323623 0.039268523 -0.048966005 -0.04446297
000080 1c 0e 8f 3b 7c 69 db 3c 14 40 c1 bc 84 65 ff bc
       0.0043656956 0.026783697 -0.023590125 -0.031176336
000090 4b 98 07 bd fa e1 52 bd f9 f0 7f bd ca 8c 73 bd
       -0.033104222 -0.05148504 -0.06248567 -0.05946044
0000a0 d1 64 ae bc ec 8d 88 bc a8 8a 08 3d 26 7c e8 bc
       -0.021288307 -0.016669236 0.033335358 -0.028379511
0000b0 ac ce b4 bc b2 22 14 3d 40 71 b7 3b d0 2b 3b 3d
       -0.022071205 0.0361659 0.0055982172 0.04569608
0000c0 de 6b 4b 3d 9a 53 2f bd 68 f5 b6 3c ba 0d 6b 3d
       0.049663417 -0.042804338 0.022333816 0.057386138
0000d0 b0 4f 80 bc e8 1b 54 bd 94 a1 b3 3c 00 e8 25 bb
       -0.015662998 -0.051784426 0.021927632 -0.0025315285
0000e0 d8 71 03 bc 10 59 1b bc 4c 51 9b bc 11 90 94 3c
       -0.008022748 -0.009481683 -0.018959664 0.018135102
0000f0 e8 71 65 bd 71 e1 0d bd b0 85 c4 bc 70 2f e7 bb
       -0.056016833 -0.034638826 -0.023989528 -0.0070552155
000100 04 e6 31 3d 2d 86 df bc a8 95 bf 3c e2 7d 42 3d
       0.04343225 -0.02728566 0.023386791 0.047483332
000110 ec 67 67 3d 57 ac 1a 3d 20 ea e8 3c 80 e9 9a 3b
       0.056495592 0.037762012 0.028431952 0.0047275424
000120 38 ef 59 3b 80 65 ba bc 1f 16 a1 3c 61 c2 db bc
       0.0033254158 -0.022753477 0.019663868 -0.026826086
000130 be a7 bc bb 7d e3 19 bd 7c 5a d0 bb da 0d 41 bd
       -0.005757301 -0.037570465 -0.006358443 -0.04713235
000140 10 ba 80 bb f7 4c 30 bd 62 1e c7 3c 59 af 87 bb
       -0.0039284304 -0.04304215 0.02430648 -0.004140776
000150 08 a3 8d 3c cb 76 31 bd 0e 50 c5 3b a1 cc 5d 3d
       0.017289653 -0.04332618 0.006021506 0.054150227
000160 48 2c 52 3c de 21 2f bd 7a 1f 30 bd 1e 3e 54 bd
       0.01282794 -0.042756908 -0.04299877 -0.051817052
000170 10 dc 02 bd 76 47 58 bd a0 e2 4c bc 82 94 1f 3d
       -0.03194815 -0.052802525 -0.0125052035 0.038959987
000180 87 a1 13 bd e8 52 dc bc fc 30 cd bb 18 0f 37 3d
       -0.036042716 -0.026895002 -0.006261943 0.04469213
000190 42 78 69 bd 0a 17 5f bd c5 44 dc 3c de bd 34 3c
       -0.056999452 -0.05446533 0.02688826 0.011031596
0001a0 bb 48 2b 3b 9a b8 71 bd f8 e4 39 3d fe 68 0a bc
       0.002613588 -0.05901394 0.045384377 -0.008447884
0001b0 08 99 41 bd ec b2 3a bc 60 1a 1d bb 98 0a ed 3c
       -0.047265083 -0.011395197 -0.002397202 0.028935716
0001c0 90 4f 7c 3c 60 97 05 3d c0 78 c4 bc 66 2b 0f 3d
       0.015399829 0.032615066 -0.02398336 0.034953497
0001d0 c0 d8 07 3d 57 7d f8 bc d8 d0 c6 bc 88 c9 0c bd
       0.033165693 -0.030333204 -0.024269506 -0.034371883
0001e0 50 67 d5 3c 43 0d 09 bd 22 0a 77 bd 18 2b 90 3c
       0.02605024 -0.033459913 -0.060312398 0.017598674
0001f0 98 ae d8 bc aa 8f f6 3c f0 50 c6 ba de 9b 3e 3d
       -0.02645044 0.030097801 -0.0015130322 0.046535365
000200 1c 57 ef 3c 18 8a 2d bd 1b 6e 73 bd a0 50 b9 3c
       0.029216342 -0.042368025 -0.059431177 0.022621453
000210 c4 24 13 3c 58 65 38 3c 12 d8 f0 bb 76 e7 87 3b
       0.008980934 0.011254631 -0.0073499763 0.0041474653
000220 26 62 3b 3d 60 fb 52 3d 10 1d 91 3c 72 6a 79 bd
       0.0457479 0.05150926 0.017714053 -0.06089253
000230 f0 5a ec bb 42 e7 26 3d d0 cc 97 3b 55 a1 01 3d
       -0.007212989 0.04074789 0.00463257 0.031648
000240 e0 60 f3 bb a2 48 4e bd 9c a5 3a bd 20 00 7c 3c
       -0.00742732 -0.050362237 -0.045568094 0.015380889
000250 4c 32 e9 3c 10 34 bb 3c 10 d0 37 3c b0 d1 77 bc
       0.028466366 0.022851974 0.01121904 -0.015125677
000260 ba 96 7c bd 7e 6c 27 bd 98 9a b2 3c c4 d4 04 3d
       -0.06166718 -0.04087495 0.021802232 0.03242947
000270 58 ea 14 bd d7 ed 44 bd 98 39 a6 bc 33 bf 85 bd
       -0.0363563 -0.048078384 -0.020291135 -0.06530609
000280 9e d2 23 bd f2 42 cd 3b 64 94 f4 bc 00 72 78 3c
       -0.039995782 0.006264084 -0.029855914 0.0151638985
000290 f6 ac a2 3c de 2c 0d bd 24 ca 34 bd ac db ff 3c
       0.019857865 -0.034466617 -0.04413809 0.031232677
0002a0 40 4e 16 bd 11 a5 81 bd 8d b7 a3 bc f1 1f 7b 3c
       -0.03669572 -0.06330312 -0.019984985 0.01532744
0002b0 9d d2 4a bd f0 75 08 bd a9 d8 27 3d 31 69 3d 3d
       -0.049517263 -0.0333156 0.040978108 0.046242896
0002c0 cb b5 09 bd ae b0 65 bd 2e b7 1d bd 64 87 93 3c
       -0.033620637 -0.056076698 -0.038504772 0.018008895
0002d0 6b a8 05 3d 03 a1 56 bd 20 71 65 bd 04 8c 0f bd
       0.03263132 -0.052399646 -0.056016088 -0.03504564
0002e0 e4 e9 e1 bc 60 fd b2 bb 44 2d 3d 3d a0 cb 98 bc
       -0.027577348 -0.0054623336 0.046185747 -0.018651783
0002f0 5a 03 16 3d 69 ed 2c bd 30 c7 ea 3b 4e 8a 5b bd
       0.03662429 -0.0422186 0.0071648583 -0.053598695
000300 9e 27 5d 3d 00 db 48 3c 18 ba fe 3c 0c c6 22 bd
       0.05399286 0.012259245 0.031094596 -0.039739653
000310 b1 99 3b 3c 66 13 2a bd 6b 8f 86 bc 70 a4 b8 3b
       0.011450217 -0.041522406 -0.016425809 0.005634837
000320 b0 20 b2 3c 02 fe 42 3d e8 75 5f 3c 5a 8f ce bc
       0.021744102 0.047605522 0.013638951 -0.02521484
000330 a6 bf 65 3d f0 51 12 bc a0 12 b8 3b 28 04 a0 3c
       0.056090973 -0.008930668 0.0056174546 0.019533232
000340 16 5b 6a bd 14 1f 68 bc 78 9a cc bc 5a 7f 39 bd
       -0.057215773 -0.014167566 -0.024976 -0.045287468
000350 70 2e 93 3c 88 4a 5e bd 8f ac 90 bc 98 2f 5c 3d
       0.017966479 -0.054270297 -0.017660407 0.053756326
000360 08 2a 22 3d f0 5c c5 bb 00 71 3b bd 20 5a 24 3c
       0.039590865 -0.006023042 -0.045762062 0.010031253
000370 ac d2 6b 3d 60 97 80 3c c0 1e e6 bb bd 41 93 bc
       0.05757396 0.015697181 -0.0070227087 -0.017975682
000380 19 54 3a 3b 70 75 44 bd 38 92 49 bd 74 35 53 bd
       0.0028431474 -0.04796356 -0.04921171 -0.05156465
000390 ce 77 5f 3d 18 b3 61 bd 66 83 1e bd a8 fe d0 3c
       0.054557614 -0.055102438 -0.03869953 0.025512055
0003a0 2f 40 dd 3c 8c fc d6 3c a0 c1 7d 3b 52 31 44 bc
       0.027008144 0.02624347 0.0038720146 -0.0119746495
0003b0 68 00 7a bc 70 85 81 3c c8 4d 0c 3c 7a 1f 1b bd
       -0.015258886 0.015810698 0.008563466 -0.037871815
0003c0 08 89 1b bc b3 34 39 bd da ab 17 3d dc c7 a7 3c
       -0.00949312 -0.045216274 0.037029125 0.020481043
0003d0 0c 48 e0 bc fb 50 1d 3d a4 5a 45 bd ef 4a 00 3d
       -0.027378105 0.038407307 -0.048182145 0.031321462
0003e0 c5 f9 ef 3c 3d 0d 48 bd 19 d6 40 3d 84 6e 4b bd
       0.029293904 -0.04884075 0.04707918 -0.049665943
0003f0 52 42 04 bc 5a a9 47 3d 18 eb 76 3c f0 dd 05 3d
       -0.008072453 0.04874549 0.015070699 0.03268236

policy_network.6.bias f4 [128]
000000 24 90 04 bd 1c 04 87 bd 07 8b 30 bc dc 3e 9c bc
       -0.032364026 -0.06592581 -0.010775334 -0.019072942
000010 79 94 0f 3d 5c 15 83 bd de 20 4d bd 56 cd 2e 3d
       0.035053704 -0.06400558 -0.050080173 0.042676292
000020 96 e3 ed 3b 80 2a d9 bb f6 f2 07 3d 9a 8a 43 3d
       0.0072597964 -0.006627381 0.03319069 0.047739603
000030 6d 42 3b bd b6 1b 8e bc b9 37 f0 3c 5b ec 42 bd
       -0.045717645 -0.017347198 0.029323446 -0.047588687
000040 73 ed b2 3c 06 60 7c bd 69 f2 08 bd ac 37 8b bd
       0.02184174 -0.061615013 -0.033434305 -0.06797728
000050 65 fc b2 bc 7b 0a fc bc b2 04 69 bd a2 fd a8 bc
       -0.021848867 -0.030766716 -0.056889243 -0.020628754
000060 f4 04 29 3d 03 79 13 3d 70 14 51 bd fa 6a ed 3c
       0.04126449 0.036004078 -0.05104488 0.028981674
000070 2f 64 23 bd 81 b3 ef 3b 3e 58 1c 3d 11 89 78 bd
       -0.039890464 0.0073150997 0.03817009 -0.06067759
000080 a9 ee 32 bd 16 39 20 3d b5 e2 7a bd d2 87 14 3d
       -0.043684635 0.03911694 -0.06125136 0.03626234
000090 b9 a4 5f bd f4 b8 22 3d 92 82 c0 3c 58 04 57 bd
       -0.05460045 0.039727166 0.02349976 -0.052494377
0000a0 ef 4f 84 3c 4a 60 0d bc fb 37 8f bd 43 a9 12 3b
       0.016151397 -0.008628914 -0.06993099 0.002237872
0000b0 87 c8 00 bc eb aa 20 bd f1 58 4c bd f9 96 11 bc
       -0.007860309 -0.0392255 -0.04988951 -0.008886092
0000c0 8b 74 e3 bc 8c ff 15 bd 86 f2 80 bd aa 14 55 3c
       -0.027765533 -0.03662066 -0.06296258 0.013005415
0000d0 19 68 67 bc 37 d0 6c bd d0 c5 20 ba 7c 61 30 3d
       -0.01412394 -0.057815757 -0.0006132992 0.04306172
0000e0 a0 90 ad 3c f7 75 d0 3c e4 19 05 bc 6f 5e f5 3c
       0.021187127 0.025446875 -0.008123849 0.029952256
0000f0 8b 6b b2 bc 14 36 0c 3d d1 7c 69 bd 89 78 86 bd
       -0.021779796 0.03423126 -0.0570038 -0.06565959
000100 2c 1f 4c bd 62 e9 1f 3c e9 b6 fc bc 7d ef 7a bd
       -0.049834415 0.009760233 -0.030848937 -0.06126355
000110 cf 00 35 bd 18 bc 51 bd 5d db 03 bd 36 f0 f6 3b
       -0.044190224 -0.05120477 -0.032191623 0.0075359596
000120 df f5 04 3d 24 19 5d 3d bf b7 8f 38 df 5a 8d bd
       0.032461043 0.053979054 6.852997e-05 -0.06902098
000130 75 ee 98 ba 5c 2e 7e bd 4a 57 3f 3d c7 79 c2 3c
       -0.0011667745 -0.06205593 0.046714105 0.023739709
000140 39 b9 ab bc 5c e3 2e bc e5 de 26 3c 44 44 74 bd
       -0.020962344 -0.010674324 0.010184978 -0.059635416
000150 1c d4 c0 3b 5f 1a 31 bd 1c 69 ab bc 46 93 db 3c
       0.0058846604 -0.04323804 -0.020924143 0.026803624
000160 a0 92 cc ba ff 31 e8 bc 1f 81 ea bb 90 8d 94 3c
       -0.0015607662 -0.028344152 -0.0071565057 0.018133909
000170 2b b7 5b 3c cd 78 73 3c 8a 47 97 3c 46 59 b0 bc
       0.01341037 0.014860344 0.01846673 -0.021526944
000180 e5 b5 25 bd 48 d8 20 bd 76 97 a5 bc c3 f2 1b bd
       -0.04045667 -0.039268762 -0.020213824 -0.038073312
000190 19 9e 07 bd 9e 38 81 bd 91 61 6d 3d c0 02 64 3d
       -0.033109758 -0.06309627 0.057954375 0.055666685
0001a0 15 58 91 bd 3d 9d 3d 3d a6 0f 2e 3d fd 1a dd 3c
       -0.070968784 0.046292532 0.042495392 0.026990408
0001b0 a8 4b e7 3b 49 e5 91 bc c5 91 4f bd 64 39 93 bd
       0.0070585795 -0.017809527 -0.050676126 -0.07188681
0001c0 63 b7 e3 bc 63 f9 dc 3b cf c8 87 3c 5c a8 24 bd
       -0.027797407 0.0067435964 0.016575245 -0.040199623
0001d0 8f 49 e7 bc 05 01 4a bc a2 ed 45 3d c9 97 1a bd
       -0.028233318 -0.012329345 0.048322327 -0.03774241
0001e0 94 14 34 bc 28 6c e2 3c 4a e8 02 bd 03 07 43 3d
       -0.010991234 0.027639464 -0.03195981 0.04761411
0001f0 fe f4 97 bc cd 9a 48 3c 6f 8c 18 3d 2f c4 2c 3d
       -0.018549439 0.012243939 0.037243303 0.042179283

policy_network.9.weight f4 [7, 128]
000000 48 cd d5 3c 67 e3 fd bc 1b 39 8b 3d a1 fd 9a 3d
       0.026098862 -0.030992223 0.067980014 0.07567907
000010 13 b4 76 bc 55 a4 8e bd 54 8a 87 3c c1 57 74 bd
       -0.0150575815 -0.069649376 0.016545452 -0.059654
000020 9a 78 20 bd 60 3c 35 bd 44 e9 d5 bc 4a 0d 7b bd
       -0.039177515 -0.04424703 -0.026112206 -0.06129197
000030 38 6e 32 3b 91 68 99 bd 0c 9a b4 bd 33 0d dd 3c
       0.002722634 -0.074906476 -0.088184446 0.026983833
000040 04 59 27 bc 57 c2 86 3c c5 3b a3 bd 44 4d 63 3d
       -0.010214094 0.01645009 -0.079703845 0.055493608
000050 d2 f3 63 bc 61 69 9e 3d 49 ef 9c bd 3e 70 96 bd
       -0.013913112 0.07734943 -0.076628275 -0.07345627
000060 92 e6 4c 3d 0d 45 cf 3c 43 1d 6e 3d 51 09 24 bc
       0.050024576 0.02530148 0.058133375 -0.010011987
000070 6b 8d 9a bd fd 80 09 bd c9 46 8f bc ae ea aa 3d
       -0.075465046 -0.03357028 -0.017489808 0.08345543
000080 06 39 9d bd c3 e4 d3 bc bc 23 61 bc 86 2c 6c bd
       -0.07676892 -0.025865918 -0.01374143 -0.05765965
000090 08 3b 8a 3d 02 f9 98 bd b2 de 03 3d 4a 68 a2 bd
       0.067495406 -0.074693695 0.0321948 -0.07930048
0000a0 be 19 3e 3c 5a 55 06 bd 49 1f 5b 39 8c 61 85 3d
       0.011602817 -0.03279624 0.00020897122 0.06512746
0000b0 8f fb 21 39 69 4b 79 bd db 5e 61 bd 58 ad fa bb
       0.0001544787 -0.060862932 -0.0550221 -0.0076500587
0000c0 19 45 15 3d 58 48 1f bd 68 fc 5a 3d c4 25 5b bd
       0.03644285 -0.03888735 0.05346337 -0.053502813
0000d0 8a c9 d2 bb eb 81 95 bd 3a 06 03 3c 2e b0 61 3d
       -0.0064327167 -0.073001705 0.00799709 0.05509966
0000e0 c9 c2 60 3d 6a 43 71 3d 2c 37 1c 3c b8 b1 91 3d
       0.05487326 0.05890218 0.009534638 0.07113975
0000f0 06 16 56 bd 90 d7 83 3d 55 e5 88 bd 05 6f 64 3d
       -0.052267097 0.064376 -0.066843666 0.05576994
000100 6b fb c6 3c 44 82 0e bd bf 71 a9 bc ec 90 33 3c
       0.024289807 -0.0347922 -0.020684121 0.010959845
000110 5a 6f 49 3d 9c 0e 0e 3d 23 d5 df 3c 33 fb 3f bd
       0.04917846 0.0346819 0.027323311 -0.04687042
000120 4a d8 59 3d 1e 06 d3 ba db 12 12 3c fe b0 49 3d
       0.053184785 -0.0016099846 0.008915628 0.04924106
000130 df 1f f5 bb 59 4f 73 3d 49 f8 85 bd 05 aa e1 ba
       -0.007480606 0.059401844 -0.06541497 -0.0017216807
000140 a8 59 4c bc a4 f6 51 39 e8 02 ba bc 81 14 28 3c
       -0.012472548 0.00020023674 -0.022706464 0.010258795
000150 97 5a b6 3c be 16 a5 3c 6b 7b 73 bd 50 9a 10 3d
       0.022259993 0.020152446 -0.059443872 0.035303414
000160 e6 4a 01 3c 63 59 01 3d c9 d3 2f bd 9e 6e 3e bc
       0.007891392 0.031579386 -0.042926583 -0.011623053
000170 df b2 9f 3d 1e 84 e4 bc b4 4c 23 bd ce 77 89 bd
       0.07797789 -0.02789503 -0.03986807 -0.06712304
000180 eb c1 1c bd 09 11 40 3d 71 7f 4c 3d e7 79 c9 bc
       -0.038270872 0.046891246 0.049926225 -0.02459426
000190 d6 d0 48 bc 41 c8 88 3d 6c 03 23 bd 7e 6d b4 bc
       -0.012256822 0.066788204 -0.039798185 -0.022024866
0001a0 5f a2 aa 3b 6a b6 19 bd 84 db 49 3d 59 2c 81 3d
       0.0052073444 -0.03752748 0.049281612 0.06307287
0001b0 29 77 4a bd 14 ad 81 bd 5a 0d 1b bd ad 4c 43 bd
       -0.049430046 -0.0633184 -0.03785453 -0.047680546
0001c0 94 f9 8f 3d 65 2d 85 bd d3 b3 6d 3b 46 b0 79 bd
       0.07030025 -0.06502799 0.0036270514 -0.060959123
0001d0 7a ae 90 bd 66 a4 94 bd e0 b8 83 3d 78 87 b0 bb
       -0.07064529 -0.07257919 0.064317465 -0.005387243
0001e0 be 10 fa 3c 14 e0 64 bd 5d 97 2d 3d e1 6d 9e bc
       0.030525561 -0.05587776 0.04238068 -0.019339504
0001f0 4e 81 94 bb a3 4c 93 bd dc e5 88 3d 51 2e 13 bd
       -0.004532016 -0.07192352 0.06684467 -0.035932843
000200 cd 8c 75 bd 7c 73 c3 39 65 e7 48 3d f9 72 aa 3c
       -0.05994873 0.0003727934 0.0490488 0.020806776
000210 42 e5 4f 3d 6a 2b 1f bd b1 d5 a0 3d a1 92 90 bd
       0.050755747 -0.038859762 0.078532584 -0.07059217
000220 ff 34 a1 3d 18 73 08 3d e1 4e 55 bd c8 68 3f 3d
       0.07871436 0.033312887 -0.052077178 0.046730787
000230 5a 8f 01 bb 42 6f 86 bd 1b 9e 98 3c 63 4b d0 b9
       -0.0019769282 -0.065641895 0.018630078 -0.0003972902
000240 62 c2 22 bd f0 1c d2 bb 0e e0 66 bd 42 26 04 bd
       -0.03973616 -0.006412141 -0.05636602 -0.032263048
000250 06 1f 55 bc 6b 9e 52 3d 6a 0f 50 3a 6c 73 55 3d
       -0.013007885 0.05142061 0.0007936867 0.052112028
000260 6c c5 61 3b 08 4f ef bc cf 3e 1f bd 7c 51 75 bd
       0.0034449948 -0.02921249 -0.03887826 -0.059892163
000270 b6 c2 9a bd 9a 91 7b 3c 61 53 1a 3c 4b 12 28 3d
       -0.075566694 0.015354538 0.009419293 0.04103307
000280 72 ad 58 bc 4e 8d 51 3d ff a2 83 bd 2b f3 7c bc
       -0.013224946 0.05116015 -0.064275734 -0.015438835
000290 e9 e0 48 bd 8f 73 36 bd 43 3c 51 bc a9 04 04 3d
       -0.049042616 -0.0445438 -0.012770715 0.032231007
0002a0 71 72 3f bc 38 f5 92 3d ce 88 ce 3c 0b 33 ab 3d
       -0.011685 0.07175678 0.025211718 0.08359345
0002b0 10 e0 a4 3c 06 9b 83 bd 2c d9 b5 3d b1 98 42 3c
       0.020126373 -0.06426053 0.08879313 0.011877225
0002c0 43 fd 0e 3d fe 31 e5 3c 92 c0 cf 3c 8d 9d 8e bd
       0.034909498 0.02797794 0.02536038 -0.06963644
0002d0 5f 3f fa bc ce 76 8e 3d da f3 cf 3c 57 cf 25 bd
       -0.030547796 0.06956254 0.025384832 -0.040480938
0002e0 16 3f 6e 3d 16 15 19 3d 09 d9 ac ba 81 9a 62 bd
       0.058165632 0.037373625 -0.001318724 -0.055323128
0002f0 75 d8 cb 3c b3 e0 34 3d 61 5a 63 3d 56 4a 95 bc
       0.024883488 0.044159602 0.055506114 -0.018223923
000300 75 ef 87 bd 72 58 83 3c 50 ad bb 3c 51 42 3e 3d
       -0.0663747 0.016033385 0.02290979 0.046449963
000310 dd 76 0c bd 9b a4 68 3d a7 4f 50 3b 84 f8 43 bd
       -0.034293044 0.056797605 0.0031785758 -0.047844425
000320 be bc 63 3c e5 08 5b 3c fe 02 80 bd fd 42 a3 b9
       0.01389998 0.01336882 -0.06250571 -0.00031139693
000330 40 75 31 3b 56 ed 80 3d 3f dd 3a bd 7a 14 94 3b
       0.0027077943 0.06295268 -0.045621153 0.0045190426
000340 6b a9 11 bb ca be 60 bc 4f d4 38 3c a6 cb 85 bd
       -0.0022226225 -0.013717363 0.011281087 -0.065329835
000350 a4 f8 16 3d de 57 9e bd 8e 27 3d bd 62 f6 5c bc
       0.036858216 -0.07731603 -0.0461803 -0.013486477
000360 c9 c1 4c 3c 87 87 e2 3c 11 bc 81 3d e3 3e 21 bb
       0.012497374 0.027652515 0.06334699 -0.0024604134
000370 c0 2d 05 3d a7 eb 21 3d 8e ee d9 bb 47 b8 8f bc
       0.032514334 0.039531376 -0.0066507524 -0.017543925
000380 98 e1 4a 3d 0b 18 66 bd 77 54 06 bc 82 f9 a3 bd
       0.04953155 -0.056175273 -0.008198849 -0.08006574
000390 4b fc f9 bb 51 ce 99 3d d5 f2 b5 3c 74 f5 0f 3d
       -0.0076289526 0.07510055 0.022210518 0.03514619
0003a0 a8 15 6c bb 1a d0 64 3c 75 79 79 bd 3c ef 4b 3d
       -0.003602365 0.013965631 -0.060906846 0.0497887
0003b0 a6 46 70 bd 89 ac 93 bc 3e f3 9d 3d 34 9b 19 bc
       -0.058661126 -0.018026607 0.077124104 -0.009375382
0003c0 eb bc 91 3a 8d 1c 3b bd 4b 91 a1 bd 3b 55 93 3c
       0.0011118924 -0.045681525 -0.078890406 0.017984977
0003d0 dc 67 b7 bd 67 73 be 3a 4a 26 48 bd 03 8e 6e 3d
       -0.089553565 0.0014530242 -0.04886464 0.0582409
0003e0 bb 37 b8 3c 5a 8f 85 39 52 d4 62 3b 8b a7 28 3c
       0.022487512 0.00025474542 0.0034611416 0.010293852
0003f0 36 b0 b2 bc 67 5e 77 3c 44 f2 cc bb 89 45 80 3d
       -0.02181254 0.015098191 -0.0062544663 0.06263263

policy_network.9.bias f4 [7]
000000 2d ae 17 3c 1c 01 30 3a 0d 6f 38 bc fa bc d2 39
       0.009257835 0.00067140325 -0.011256945 0.0004019512
000010 5a e2 1e bb 4b 19 cd 3b c3 5a 26 3d
       -0.0024243803 0.0062591187 0.0406139

exp_avg f4 [128, 15]
000000 33 42 1f 39 d4 57 7e 38 e0 0a d2 b8 9a 84 eb 38
       0.00015188083 6.0640115e-05 -0.00010015606 0.00011230372
000010 ce 17 96 38 25 dd 14 b9 1a 42 b4 b7 74 7f 55 b6
       7.156991e-05 -0.00014196763 -2.1488453e-05 -3.181366e-06
000020 e1 02 3b 36 9a 46 0c b8 88 72 06 b8 30 43 c8 b4
       2.7866847e-06 -3.3444354e-05 -3.2054755e-05 -3.7301788e-07
000030 fe c1 18 33 3b c4 46 b7 41 7f d5 b6 74 9c a4 b7
       3.5566693e-08 -1.1847408e-05 -6.362709e-06 -1.9623178e-05
000040 b7 e8 2d b7 a7 2c 80 37 d2 34 74 b7 b9 57 1a b7
       -1.0365787e-05 1.5279582e-05 -1.45558315e-05 -9.19954e-06
000050 6f 02 9c 37 97 08 f3 35 45 fa ea 34 83 fd 05 33
       1.8597782e-05 1.8107411e-06 4.3767992e-07 3.1197043e-08
000060 6e bb 93 36 15 31 88 36 a7 54 1f 34 2b 70 d7 33
       4.402761e-06 4.0588297e-06 1.4838825e-07 1.0032121e-07
000070 97 c8 c3 b5 ea b4 d3 b3 15 d1 bf b7 32 c8 06 b7
       -1.4587011e-06 -9.858361e-08 -2.2866336e-05 -8.033634e-06
000080 86 91 5b 37 61 bf 77 b7 4b 6f 1e b7 28 36 89 37
       1.30872995e-05 -1.4766906e-05 -9.443446e-06 1.6356891e-05
000090 5a 4d 60 36 e5 b2 8e b5 e8 94 90 b4 6d c1 99 36
       3.3423626e-06 -1.063189e-06 -2.6930434e-07 4.582273e-06
0000a0 d2 47 86 36 74 11 dc 33 75 1f c8 b2 e6 a8 8b b5
       4.001872e-06 1.0247723e-07 -2.329737e-08 -1.0405463e-06
0000b0 1b 1c 8d 34 00 00 00 00 00 00 00 00 00 00 00 00
       2.6283746e-07 0.0 0.0 0.0
0000c0 00 00 00 00 00 00 00 00 00 00 00 00 00 00 00 00
       0.0 0.0 0.0 0.0
0000d0 00 00 00 00 00 00 00 00 00 00 00 00 00 00 00 00
       0.0 0.0 0.0 0.0
0000e0 00 00 00 00 00 00 00 00 00 00 00 00 00 00 00 00
       0.0 0.0 0.0 0.0
0000f0 b2 52 13 39 10 53 6b 38 2f cc ca b8 0a dc e2 38
       0.00014049819 5.6105724e-05 -9.670143e-05 0.00010817505
000100 a2 68 86 38 52 ca 06 b9 94 31 9b b7 d0 0f 1e b6
       6.409107e-05 -0.00012854606 -1.8500526e-05 -2.3553039e-06
000110 52 55 5d 36 47 0a 01 b8 92 e3 f3 b7 5e 7b 97 b5
       3.298123e-06 -3.076557e-05 -2.9073828e-05 -1.1286281e-06
000120 9e 55 88 34 6c 6c 22 b7 22 78 ac b6 00 00 00 00
       2.539427e-07 -9.681196e-06 -5.1399848e-06 0.0
000130 00 00 00 00 00 00 00 00 00 00 00 00 00 00 00 00
       0.0 0.0 0.0 0.0
000140 00 00 00 00 00 00 00 00 00 00 00 00 00 00 00 00
       0.0 0.0 0.0 0.0
000150 00 00 00 00 00 00 00 00 00 00 00 00 00 00 00 00
       0.0 0.0 0.0 0.0
000160 00 00 00 00 00 00 00 00 7a d4 4e b7 82 63 c1 b6
       0.0 0.0 -1.2328028e-05 -5.7634325e-06
000170 9b fe 1c 37 ba 31 21 b7 72 b5 c2 b6 e4 2a 4c 37
       9.3576045e-06 -9.607926e-06 -5.8027736e-06 1.2169334e-05
000180 75 da c2 35 82 83 d4 34 4d 6d 60 b4 53 5d 3f 36
       1.4517706e-06 3.9583762e-07 -2.0901389e-07 2.851554e-06
000190 17 2a 2d 36 c1 46 c4 33 6a 85 ba b3 32 0a 65 b4
       2.5803508e-06 9.139831e-08 -8.685568e-08 -2.1330996e-07
0001a0 45 2c 1c 35 00 00 00 00 00 00 00 00 00 00 00 00
       5.817895e-07 0.0 0.0 0.0
0001b0 00 00 00 00 00 00 00 00 00 00 00 00 00 00 00 00
       0.0 0.0 0.0 0.0
0001c0 00 00 00 00 00 00 00 00 00 00 00 00 00 00 00 00
       0.0 0.0 0.0 0.0
0001d0 00 00 00 00 00 00 00 00 00 00 00 00 00 00 00 00
       0.0 0.0 0.0 0.0
0001e0 00 00 00 00 00 00 00 00 00 00 00 00 00 00 00 00
       0.0 0.0 0.0 0.0
0001f0 00 00 00 00 00 00 00 00 00 00 00 00 00 00 00 00
       0.0 0.0 0.0 0.0
000200 00 00 00 00 00 00 00 00 00 00 00 00 00 00 00 00
       0.0 0.0 0.0 0.0
000210 00 00 00 00 00 00 00 00 00 00 00 00 00 00 00 00
       0.0 0.0 0.0 0.0
000220 00 00 00 00 00 00 00 00 00 00 00 00 00 00 00 00
       0.0 0.0 0.0 0.0
000230 00 00 00 00 00 00 00 00 00 00 00 00 00 00 00 00
       0.0 0.0 0.0 0.0
000240 00 00 00 00 00 00 00 00 00 00 00 00 00 00 00 00
       0.0 0.0 0.0 0.0
000250 00 00 00 00 00 00 00 00 0d a5 71 b6 85 ac fb b5
       0.0 0.0 -3.600787e-06 -1.8751167e-06
000260 2e ed 3e 36 97 6f 4f b6 76 e7 f7 b5 3e 17 77 36
       2.8450263e-06 -3.0910358e-06 -1.8470298e-06 3.6819397e-06
000270 e8 8a f6 34 1a e9 0d 34 ad 67 d2 32 f8 20 55 35
       4.5922138e-07 1.321645e-07 2.4494364e-08 7.939666e-07
000280 7f 42 63 35 a9 d4 e4 33 53 93 13 34 6c b7 42 b4
       8.4660854e-07 1.065576e-07 1.3744038e-07 -1.8134386e-07
000290 19 87 12 35 00 00 00 00 00 00 00 00 00 00 00 00
       5.458583e-07 0.0 0.0 0.0
0002a0 00 00 00 00 00 00 00 00 00 00 00 00 00 00 00 00
       0.0 0.0 0.0 0.0
0002b0 00 00 00 00 00 00 00 00 00 00 00 00 00 00 00 00
       0.0 0.0 0.0 0.0
0002c0 00 00 00 00 00 00 00 00 00 00 00 00 00 00 00 00
       0.0 0.0 0.0 0.0
0002d0 00 00 00 00 00 00 00 00 00 00 00 00 00 00 00 00
       0.0 0.0 0.0 0.0
0002e0 00 00 00 00 00 00 00 00 00 00 00 00 00 00 00 00
       0.0 0.0 0.0 0.0
0002f0 00 00 00 00 00 00 00 00 00 00 00 00 00 00 00 00
       0.0 0.0 0.0 0.0
000300 00 00 00 00 00 00 00 00 00 00 00 00 00 00 00 00
       0.0 0.0 0.0 0.0
000310 00 00 00 00 00 00 00 00 00 00 00 00 00 00 00 00
       0.0 0.0 0.0 0.0
000320 00 00 00 00 00 00 00 00 00 00 00 00 00 00 00 00
       0.0 0.0 0.0 0.0
000330 00 00 00 00 00 00 00 00 00 00 00 00 00 00 00 00
       0.0 0.0 0.0 0.0
000340 00 00 00 00 00 00 00 00 e5 54 e2 b7 8e b6 22 b7
       0.0 0.0 -2.6980832e-05 -9.698457e-06
000350 2c 7a 82 37 f9 f4 90 b7 d9 37 3c b7 02 13 a3 37
       1.5554098e-05 -1.7280212e-05 -1.1218676e-05 1.9439965e-05
000360 e4 1a 80 36 51 80 84 b5 ed 2c 93 b4 08 77 b4 36
       3.8178277e-06 -9.872111e-07 -2.7413572e-07 5.378275e-06
000370 8b ee a1 36 73 f8 93 33 61 02 4d b3 40 96 18 36
       4.825944e-06 6.8904136e-08 -4.7732446e-08 2.2737222e-06
000380 fe 4c 17 35 00 00 00 00 00 00 00 00 00 00 00 00
       5.636392e-07 0.0 0.0 0.0
000390 00 00 00 00 00 00 00 00 00 00 00 00 00 00 00 00
       0.0 0.0 0.0 0.0
0003a0 00 00 00 00 00 00 00 00 00 00 00 00 00 00 00 00
       0.0 0.0 0.0 0.0
0003b0 00 00 00 00 00 00 00 00 00 00 00 00 00 00 00 00
       0.0 0.0 0.0 0.0
0003c0 8f 87 41 b8 c8 e8 8e b7 fc 49 ff 37 96 ce 16 b8
       -4.6141035e-05 -1.7036116e-05 3.043282e-05 -3.5955185e-05
0003d0 14 6d bb b7 2c 11 3e 38 3e dd e6 36 0f 1f ac 35
       -2.234293e-05 4.5315523e-05 6.88029e-06 1.2824038e-06
0003e0 5a 5d b0 b5 ba cf 30 37 99 37 23 37 e1 30 38 33
       -1.3140191e-06 1.0538783e-05 9.728502e-06 4.2885294e-08
0003f0 8d 01 a3 31 3c a3 46 36 6c ca c9 35 e1 cb 15 b7
       4.7441007e-09 2.9599314e-06 1.503458e-06 -8.928561e-06
