robot_state_berkeley_training/robot_state_epoch_13.pth (torch, 838065 bytes, 24 tensors)

policy_network.0.weight f4 [128, 15]
00000000: 6557 77bd 5e7f 06bd e3f2 6b3e e5d6 fc3d
00000010: 2e71 e03d 0240 253c 8c44 ec3d 7e87 a2bd
00000020: 6752 3d3e ef99 583e b72a 05be 9f52 113f
00000030: ac75 fc3d 75f7 9d3e 9afd ad3e 0e3d ea3d
00000040: c58e 2c3e 2676 eebd 7881 36be d012 43bd
00000050: 9323 e03d d509 c03d 2364 e8bd af45 f5be
00000060: d7c2 46bd 1470 10be eaa5 0d3e 9ab5 86be
00000070: 98bf 613e 6af1 1a3c 7688 383b e27b a2bd
00000080: 9d6f 67be e285 5a3d 8e91 34bd 0220 173e
00000090: 0c38 473e 881b 893e 1933 813e 9974 0fbe
000000a0: b651 873e 29bd 1abe 136d 9dbd 996c 373e
000000b0: b41f 51be 7dca 453e cc0a 05be 5d2d 54bd
000000c0: 5aa1 c3bd c978 04be 0089 41be c932 073c
000000d0: b085 383e ebc2 6f3e 31cb 73bd fa5c 7cbd
000000e0: ee07 123e 918d 85bd 91ce 903d 186a d1bb
000000f0: 3a42 8d3d d5e1 68bc d959 463e 7e3e 6dbe
00000100: 016c d9bb 8f02 87be c34e 8b3d 6cb9 81bd
00000110: 8d06 63be 7899 c03d c1d0 ddbd e96d 173f
00000120: 12a7 acbe 71b9 ae3e e4b3 a93e d1a6 803c
00000130: 92f1 983d 39bf 5e3c ef91 e7bd e76c 513d
00000140: 6273 a9bd aea0 44be 9f65 43be 3bb2 743e
00000150: c04a 58bc 76a9 16be eab8 de3d 64b4 6abe
00000160: 3592 80be bc4d 50be 4708 57bd 4f64 923e
00000170: 620f c13d 27f3 4f3e 3cdc 03be f927 d83d
00000180: 722d 4dbe a782 87be 5920 053e 5201 86bc
00000190: ccae 10be 0d35 0d3d cc10 49be 42e3 353c
000001a0: 0e3d c03d c538 383d d0e5 bcbb d47f 58be
000001b0: a3d0 263e 4e20 493e ee7c 223e 7219 d33d
000001c0: 6091 613d 1bc9 c8bd 024e ee3d 050c b0bd
000001d0: 8f97 023d 7708 1ebe 5a29 1abe da2d 34be
000001e0: a627 2dbd 04c5 1c3e 1991 51be b983 ed3d
000001f0: dfc8 653e c179 64be 5fc3 283e 12a7 42be
00000200: 78ff 403e 569b 30be 21d9 bc3d c218 803e
00000210: ca1b 503d fc4d 14be b7da aebd 969f dcbd
00000220: f118 3bbe 73a1 5ebe 4300 823e e31a dcbd
00000230: c3ef e9bd d240 823e 89f1 273e 1344 783e
00000240: 293f 213e 6b25 cbbd 63e1 bb3d a06c 4d3e
00000250: 8465 243e e0c8 53be c2c0 51be f851 3e3d
00000260: e55b 1abe 5765 bcbd 0a36 2ebe 49fd 0cbe
00000270: 3f3d 4ebe 7efd e5bd 8777 8ebe 2cda 593c
00000280: 16fd 72be 723c 21be 207f 233c 2740 5b3e
00000290: 3597 67bd 32c9 6b3e 8145 5b3d f0a8 0d3e
000002a0: 240b 233d ac02 c2bd b481 4fbe 9cba 66bb
000002b0: 1421 1dbe 43f4 72be 843a eb3d ab71 663c
000002c0: 6b03 803e 4399 363e 7497 04be c0ec 153e
000002d0: fc25 513e 3939 2bbe d905 6cbe d42a 4a3e
000002e0: 70fb 20be 4608 da3d 50ce 6fbe 5bed 78bd
000002f0: a62a 06b9 f82a 43be 43e2 2f3e b7d5 27bc
00000300: 0623 623e 2d9f 3d3e 2fcd 4bbd 6d4c 7f3e
00000310: 2e18 843d c179 4f3e e549 463e 08ac 083e
00000320: 50ad 2ebe e81d 2e3e 2cdd 81be 13c1 0ebe
00000330: 5b79 37be f8f2 07be ab27 6f3e 31cb 973b
00000340: 943a 67bd 3e2e 813e bad1 37be 407d 4ebe
00000350: 9be8 97be 94f2 c0bd 48bb d1bd 2fe8 403d
00000360: 95da e13c 0e0a 6c3e b12a e23e cf8b a0be
00000370: 0471 a1be 4a6f a7be 48bf 9a3e b912 a9bd
00000380: 6320 973d 0c31 7bbd ecb4 343e 443a 76be
00000390: fd6b 283e 2d14 513e 1abe 67bc 61e4 13be
000003a0: 2191 f3bd bf5d 45bd 6126 c93d 2ae4 e23d
000003b0: 6ed2 53be c2c9 44be 8aef b73d 95c8 07be
000003c0: 4866 44be d227 8f3e c614 2e3e 8812 dd3d
000003d0: b578 583e 28d4 143e 59fc c7bd 8c47 c03c
000003e0: c1a4 1c3e d27f 6fbe 246b bfbd 1aeb 39be
000003f0: dd69 24be e78e babe 77de 9cbe e5fd 2dbd
-0.06038608 -0.03283631 0.23041873 0.123456754 0.10959087 0.010086061 0.11536512 -0.07935999
0.18488465 0.21152471 -0.13004576 0.56766695 0.12327132 0.30852857 0.33982545 0.114374265
0.16851337 -0.11643629 -0.17822826 -0.047625363 0.10944285 0.09376875 -0.113472246 -0.47904727
-0.048525658 -0.14105254 0.13832822 -0.26310426 0.22045743 0.009456972 0.002815751 -0.07933785
-0.22601171 0.053350337 -0.044084124 0.14758304 0.19454974 0.26778817 0.25234297 -0.14009322
0.26429528 -0.15111221 -0.0768682 0.1791252 -0.2042225 0.19315524 -0.129924 -0.051801074
-0.0955226 -0.12936701 -0.18899918 0.008251854 0.18019748 0.23414199 -0.05951995 -0.061612107
0.14260837 -0.06521142 0.070706494 -0.006390821 0.06897397 -0.014213999 0.19370212 -0.2316837
-0.0066351895 -0.2636914 0.06802132 -0.063341945 -0.22170468 0.09404272 -0.10830832 0.59152085
-0.33721215 0.34125856 0.33145058 0.015704544 0.07467951 0.013595396 -0.113071315 0.051129248
-0.08273961 -0.1920192 -0.19081734 0.23896115 -0.013201416 -0.14713082 0.10875113 -0.22920376
-0.25111547 -0.20342153 -0.05249813 0.28592154 0.09426762 0.20307599 -0.12876981 0.10554499
-0.20036867 -0.26466867 0.13000621 -0.016358051 -0.1412918 0.03447442 -0.19635314 0.011101546
0.09386645 0.044976015 -0.0057647005 -0.21142513 0.16290526 0.1964123 0.1586797 0.10307588
0.05507028 -0.09803983 0.116359726 -0.085960425 0.03188282 -0.15432917 -0.15054837 -0.17595616
-0.04227414 0.1530953 -0.20465507 0.1159739 0.22439907 -0.2231207 0.16480778 -0.19009045
0.18847454 -0.17246756 0.092211016 0.2501889 0.05080775 -0.14482874 -0.0853781 -0.10772626
-0.18271233 -0.21741275 0.25390825 -0.10747316 -0.11422684 0.2544008 0.16400732 0.24244718
0.1574675 -0.09919246 0.091738485 0.20060968 0.1605435 -0.20682096 -0.20483688 0.04646489
-0.15074117 -0.091990165 -0.17012802 -0.13768496 -0.20140551 -0.112299904 -0.27825567 0.013296645
-0.23729357 -0.15745714 0.009979039 0.21411191 -0.056540687 0.23025969 0.05353308 0.13833976
0.039805546 -0.09473166 -0.20264322 -0.0035206443 -0.1534465 -0.23725991 0.1148577 0.0140651865
0.25002608 0.17831902 -0.129484 0.14641094 0.20424646 -0.16721047 -0.23049106 0.197429
-0.15720916 0.10646109 -0.23418546 -0.060773235 -0.00012795124 -0.1905936 0.17176156 -0.010243825
0.22083673 0.18517752 -0.049756225 0.24931498 0.064499244 0.20261289 0.19364126 0.13346875
-0.17058301 0.17003596 -0.25364053 -0.1394084 -0.17917387 -0.13276279 0.23354976 0.0046323766
-0.05645235 0.25230592 -0.17951098 -0.20164967 -0.2966965 -0.09421268 -0.10240799 0.047096428
0.027570048 0.2305071 0.44173196 -0.31356665 -0.31531537 -0.32702094 0.3022406 -0.08255524
0.07379224 -0.06132607 0.17647141 -0.24045664 0.16447444 0.20417853 -0.014144445 -0.14442588
-0.118929155 -0.048185106 0.09821773 0.11078675 -0.20685741 -0.1921759 0.08981235 -0.1326011
-0.19179642 0.27960068 0.17000112 0.1079455 0.21139796 0.14534056 -0.09764928 0.023471616
0.15297224 -0.23388603 -0.09346607 -0.1815609 -0.16056009 -0.3643715 -0.30638477 -0.04247846

policy_network.0.bias f4 [128]
00000000: 002d 78be 0233 133e f743 73bd 8638 953b
00000010: bce9 8b3d d132 bcbd 2e41 e73d 68df a53d
00000020: 7592 4c3e 27e6 1a3d a4ca d1bd da87 cd3d
00000030: a246 353e cfa4 303e 2769 d6bd 0c4a 7e3e
00000040: fa98 133e 1a5a 43be 1f13 8d3b ad02 c4bd
00000050: fce8 423e eb11 d9bd 0473 2fbe a2d8 80be
00000060: eb3d 253e 2434 42be 2836 c83d b069 80be
00000070: 3977 66be a6ee 143d 33bc 513d 6d5a de3d
00000080: 43b7 66be 6384 d9bc fb0a 80be df4c 44be
00000090: 8765 32be 046f b73d 94fe 8dbe d796 883c
000000a0: 033b a53d b345 a2bc b1be 343d ae09 363e
000000b0: 927f 00bd 4f78 26be b11f 5ebd 9d04 233b
000000c0: 155e 41be b084 08be 453a 713d 8ebf 04be
000000d0: 8eee 30be b2c3 343e 1161 343d 6ab0 1c3e
000000e0: cd00 07be ada8 1abe 8f8f 393e be98 ccbc
000000f0: e644 56be 6784 6ebe 823d aebd f2c6 0d3e
00000100: 42fa 2d3e 4890 d83d 8816 493d c11d 043e
00000110: a487 b6bd cc3d 05be 7753 16be e15c f3bc
00000120: 0353 07be efa9 723e 6c3f c5bd 3fe9 81be
00000130: 41d3 06be cf12 cc3d 91da 66be bf3f 8bbd
00000140: 51aa 6b3e 5ab8 f5bd ec31 a43d 3acc 273e
00000150: 0b2b 64bd c93b 1d3d 3015 37bd 29f1 e7bc
00000160: af16 4e3d c324 1b3e f22e 2fbe a3fb 7e3e
00000170: 3152 80be f1ae 08bd 7c2b 06be 5513 04bd
00000180: 5ae8 ac3d 3c44 683d c92a 0a3e fd56 36be
00000190: 653f ca3c 48fb 89be db51 683e fd80 61bd
000001a0: 7ad2 6dbe b72b 933d 4198 51be 83d0 8a3d
000001b0: 9317 30be 2abf 0d3e 5ac2 ab3d 4dc9 f3bd
000001c0: 6325 59be 6f93 8ebe 097f 523e dcb1 37bd
000001d0: 82c3 643e 0a3c a0bd c61a adbd 8fb7 943d
000001e0: 52d8 42be d81f 003d c983 0a3e c4e7 0bbe
000001f0: 9c08 283e 0c90 84bc 8662 08be a215 39be
-0.24235916 0.14374927 -0.05939099 0.0045538573 0.06831691 -0.0918938 0.11291729 0.08099252
0.19977744 0.037817147 -0.10243729 0.10035677 0.17702726 0.1725037 -0.10469275 0.24832934
0.14413825 -0.1907734 0.004305258 -0.09570823 0.19034189 -0.10599121 -0.17133719 -0.25165278
0.16136901 -0.18965203 0.097759545 -0.25080633 -0.22506417 0.036360405 0.05120487 0.10857091
-0.22530846 -0.026552385 -0.25008377 -0.19169949 -0.17421542 0.089567214 -0.2773329 0.016673489
0.08067896 -0.019808626 0.04412717 0.1777713 -0.03137166 -0.16256832 -0.054229442 0.0024874576
-0.18883546 -0.13331866 0.05889346 -0.12963697 -0.17278501 0.17652777 0.044037882 0.15301672
-0.13183899 -0.15103407 0.1812117 -0.024975177 -0.2092472 -0.23292695 -0.085078254 0.13845423
0.16989997 0.105743945 0.049093753 0.12901975 -0.0891259 -0.13011855 -0.14680277 -0.029707374
-0.1321526 0.23697637 -0.096312374 -0.25373265 -0.13166524 0.09964525 -0.22544314 -0.06799268
0.2301419 -0.11998053 0.08017334 0.163865 -0.05570511 0.038387094 -0.04469794 -0.028313236
0.0503146 0.15150742 -0.17107752 0.2490068 -0.25062707 -0.033369962 -0.13102525 -0.032245
0.08442755 0.0567057 0.13492884 -0.17806621 0.024688432 -0.26949525 0.22687475 -0.055054653
-0.23224822 0.07186072 -0.20468237 0.06778052 -0.17196493 0.13842455 0.08386679 -0.119036295
-0.21205668 -0.27846858 0.20556273 -0.044847354 0.22340205 -0.078239515 -0.08452372 0.072615735
-0.19027832 0.03128037 0.13526835 -0.1366263 0.16409534 -0.016181968 -0.13318834 -0.18074659

policy_network.3.weight f4 [256, 128]
00000000: 724e 14bd f707 4bbd 16ed 5bbc 7f54 b0bd
00000010: bd04 d1bd 0920 943d 1a63 bdbd f753 913d
00000020: 73f5 babc c7b7 f9bc af4a b9bd 715b a1bd
00000030: 8d88 bf3a b094 80bd b401 1d3d 59c0 953d
00000040: 4fef 453d c69c a8bd 6542 813d 223c c53c
00000050: 3d39 0c3d 1ea5 a5bd 97dd 61ba 5a5d 923d
00000060: bff1 613c 2dab 15bd cc0f 8b3d d090 41bd
00000070: 47d9 b2bc 6127 7abd 9254 cdbc f256 86bb
00000080: 9d94 853c 10fb 653d 6457 553d 5bb9 a4bd
00000090: bd90 13b9 584a fdbc 869a 9d3d 71f7 7abd
000000a0: c4dd 09bd 2bea 493d fd9e 0bbd aba7 a5bd
000000b0: 5452 babc e4c2 643d 7a60 acbc 8bd8 18bd
000000c0: 941d 8ebd 1a20 ba3c a406 8dbd f4c7 753c
000000d0: 1aa8 68bd 521f 6a3d eff6 8b3c a4bf 6dbc
000000e0: 5474 b5bd 5ac1 8fbd 1ba6 52bd 2d68 7fbd
000000f0: 144c 69bd 2fc9 643c 2746 94bc bfb1 e4ba
00000100: 9702 343d 9137 70bb 4b52 3d3d f25e 1c3d
00000110: 96fa 96bd c498 d1bb 08fe 523d 489b 59bd
00000120: 38e0 e3bb 0cb5 343c 95bc a6bd 9ae2 963c
00000130: 6718 34bd 7a11 95bc e757 e03c 16e1 303d
00000140: 5705 52bd b2e2 babd 09de b43c 1399 1abd
00000150: d2e4 0e3d e5d9 a73d bba8 583d 0654 f6bc
00000160: 1519 06bb cd3c febc 80ae 24bc 3fb2 a5bd
00000170: d640 aabd 6798 b2bd aae5 97bd 0977 353d
00000180: 02b5 183c 057c d03c 54c6 80bd a945 a33c
00000190: 47d7 b1bd 8234 f43c a761 66bd 64c7 493d
000001a0: 793b 7bbc d597 873d 6fd8 583c d237 413d
000001b0: a817 cd3c fe18 763d e2b9 ec3a aced a23d
000001c0: 813d 0c3c b6dc 85bc efb2 f2b9 a849 2dbd
000001d0: 92ed 1fbc abaf a9bb eb67 64bd 0a19 92bb
000001e0: 184a 41bc 5518 47bd 8ec5 95bd d671 f9bd
000001f0: 6ac7 843c 8722 7abd d32a f4bc 9d44 39bd
00000200: 8d44 84bd 9262 1d3d 4754 073d cea3 98bd
00000210: 4a6a 013d acc5 edbc d469 193d 08f0 5f3d
00000220: 3f9d 453c cbf0 90bd 262b 52bd 2295 9dbd
00000230: f91a fa3c 5a53 813d 63dd b03d 9211 1fbb
00000240: 23a6 48bc 3f0f 43bd 9e15 013e 2011 84bc
00000250: d976 c03b c1e6 89bd cc40 58bd dfb8 40bd
00000260: 0f24 f23c caa7 153c f1c5 29bd b2ea 62bd
00000270: 7583 f03c ccd9 d9bc 5d97 83bc 9df6 623d
00000280: e26b 1d3d bdc6 893d 093d 8f3d 967a 9bbd
00000290: 1899 33bd 1683 103d 335d 78bd 9925 18bd
000002a0: f9ae 7d3d f573 45bd 2845 d439 7301 1bbd
000002b0: 0b59 54bd ce55 d2bc a038 a7bd 7aad 653d
000002c0: 23fb aa3d 5426 3dbd a0f6 a9bd 8308 8bbd
000002d0: 83ea c3bc c4ef 503c 6849 513c 73ca 383d
000002e0: a07c 89bb 640d 0bbc 5560 053d da76 94bd
000002f0: 9058 8b3d 6d19 58bb abb7 8abd 27b4 ee3c
00000300: 8c07 4dbd 5bd6 843c 8c59 ea3c 17e7 afbd
00000310: c0d1 86bb 4255 8f3d 4d24 ac3d 5b46 823d
00000320: cafe 4c3d b3c4 653d 6b23 90bc d355 9abd
00000330: 6d7e aa3d 3371 223d 9372 c0bb efd1 5b3d
00000340: ccf1 483d f617 613d 0bad 1e3d e5d5 753d
00000350: c850 b1bd 6077 7dbd b3ef 44bc 41da 84bd
00000360: 0d92 da3c 1e6e 923d 7480 003d f567 313c
00000370: 2510 04bd 2924 253d 33eb a4bd 48f7 4abd
00000380: 0de4 353d 2b6e 81bd 9ed6 063d b167 b6bd
00000390: 6856 96ba 0fe4 acbd a88c 9bbd 2532 983d
000003a0: 04d2 b1bd e455 383d b549 953d 5d21 64ba
000003b0: 6b2a b03d eeea 183d e916 8d3d 94f4 863d
000003c0: a3ad a6bd eb50 963c 3fa4 bbbc 52b7 b63c
000003d0: 997f 313d f4ca b0bd 82e2 173d 7424 52bd
000003e0: 72a1 5c3d 6c97 863d a204 95bd 8682 1abe
000003f0: 2a35 45bc 15c5 1c3c 16d7 a23d bfe1 7cbd
-0.036207624 -0.049568143 -0.013423225 -0.08609866 -0.10205982 0.07232673 -0.09247418 0.07096093
-0.022822117 -0.03048314 -0.09047448 -0.07878769 0.0014612839 -0.0627836 0.038331702 0.07312078
0.048323926 -0.08233027 0.06311492 0.024076525 0.034234274 -0.08088134 -0.00086160883 0.07146712
0.013790547 -0.0365402 0.067901224 -0.047257245 -0.021832122 -0.06107271 -0.02506474 -0.00409972
0.016306216 0.056147635 0.052085295 -0.08043166 -0.00014072932 -0.030919239 0.07695489 -0.061271135
-0.033658758 0.049295586 -0.03408717 -0.08088621 -0.022744335 0.055849925 -0.021042097 -0.037315886
-0.06939235 0.022720385 -0.06886032 0.015001286 -0.05680094 0.057158776 0.01708552 -0.014511023
-0.088600785 -0.07019301 -0.05142794 -0.06235521 -0.05695732 0.0139639815 -0.018099857 -0.0017447992
0.043947782 -0.0036654214 0.04622106 0.038176484 -0.07372014 -0.006396385 0.051511794 -0.053126603
-0.006954219 0.011029493 -0.08141438 0.018418599 -0.043968584 -0.01819681 0.027385665 0.04318341
-0.051274624 -0.0912527 0.02207853 -0.03774364 0.03488619 0.08195857 0.05289529 -0.030069362
-0.0020461727 -0.031034851 -0.01005137 -0.08090638 -0.08313148 -0.08720475 -0.07416852 0.044302974
0.009320499 0.025449762 -0.06287828 0.019930677 -0.08683639 0.029810194 -0.056245472 0.04926242
-0.015334004 0.066207565 0.013235196 0.047172375 0.025035694 0.06008243 0.0018060768 0.079554886
0.008559586 -0.016340595 -0.00046291153 -0.042306572 -0.009761231 -0.005178412 -0.055763166 -0.0044585513
-0.0117974505 -0.04860719 -0.07313071 -0.121799156 0.01620837 -0.061068084 -0.029805576 -0.04523145
-0.064583875 0.038424082 0.033039358 -0.07453118 0.031595506 -0.029024921 0.03745444 0.05467227
0.012061416 -0.070771776 -0.05131068 -0.076944605 0.03053044 0.06314726 0.08635976 -0.0024271947
-0.012246641 -0.04762196 0.12605903 -0.016121447 0.0058735427 -0.06733466 -0.05279617 -0.047051307
0.02955821 0.009134242 -0.041448537 -0.055399604 0.029359559 -0.026593111 -0.016063387 0.05541097
0.038432963 0.067273594 0.069940634 -0.07591741 -0.043847173 0.035281263 -0.060635757 -0.03714523
0.061934445 -0.04820629 0.00040487316 -0.03784318 -0.05184273 -0.02567568 -0.08165097 0.056073643
0.08348682 -0.04617913 -0.08298993 -0.06788733 -0.023915535 0.012752477 0.012773849 0.045114946
-0.0041957647 -0.008487079 0.032562573 -0.07249232 0.06804001 -0.003297414 -0.06773313 0.029138638
-0.050056025 0.016215494 0.028607152 -0.08588999 -0.0041143596 0.069986835 0.08405361 0.063610755
0.050047673 0.05609579 -0.017595014 -0.07535901 0.08324895 0.039658736 -0.0058730333 0.053667005
0.04905872 0.05495449 0.038739245 0.06001844 -0.08657986 -0.061881423 -0.012020039 -0.06486941
0.02668097 0.071499094 0.031372502 0.010828008 -0.03224196 0.040317688 -0.08052673 -0.049552232
0.04440694 -0.06319841 0.03291952 -0.08906496 -0.0011469843 -0.08441936 -0.075951874 0.07431439
-0.086826354 0.045003787 0.07289449 -0.0008702481 0.086018406 0.03733342 0.068891354 0.06589618
-0.08138587 0.018349132 -0.022905467 0.02230421 0.043334577 -0.0863246 0.03708125 -0.051304296
0.053864904 0.0657185 -0.07276274 -0.15088853 -0.012036601 0.009568472 0.07951181 -0.061738726

policy_network.3.bias f4 [256]
00000000: 4609 06bd f8b8 d03c 3afb 723d 8e54 b5bd
00000010: 9bc5 2cba 3d6d cbbd 8c1b c2bd 917a 843d
00000020: 21bd 373d 59c1 80bd 8811 7f3d fca8 25bc
00000030: d3a6 8b3b 903b 083d 2052 863d 3fe3 033d
00000040: f3e4 2a3d 688f 77bd ed22 33bc 9f22 223d
00000050: 272e b6bc 295d 0dbd d3a4 8cbc 7fd8 6fbc
00000060: 67ed 1fbd bb16 97bd 6946 18bd 046c 2fbd
00000070: 59d3 81bd dbd6 9939 3d42 e43c 3c8e 463d
00000080: afec 8ebd c8d6 bbbd fd8d 99bc ec72 7d3b
00000090: 88e0 3f3d 5130 a5bb 17af 523d b5fb f2bc
000000a0: 2311 c6ba 2187 763d 5ba8 a8bd 77f5 ab3c
000000b0: ecb0 30bd 1f0c 8dbd efb2 2bbd 5d9f d53c
000000c0: 5d06 0f3d a3ba 1bbd 90fd 953c 6d66 92bb
000000d0: 2249 2f3d a079 8f3d c8d1 333d f975 9abd
000000e0: 3cb9 9fbd ef17 383d ae9b b3bd 11f0 42bd
000000f0: c1fd 023d 8a07 0bbb cd2d 85bd 28ea 673d
00000100: f10c 9abd e397 5aba e7ca 15bd 4974 b3bd
00000110: 2e82 1b3d 761d 273d cfe2 333d a9c1 0cbd
00000120: 8f6b 423d ea15 883d c17f 773d 83f9 95bd
00000130: 6ac4 07bd 2e04 96bc a8fd 933c 711c 613d
00000140: da24 e63b c82e b83c ba3b 333d c99f fe3b
00000150: 26e1 813c 96db bdbc c2a4 6fbd 57a4 d0bd
00000160: 88b6 3bbd 31c1 a93c 9d3b 76bd ee0a 86bd
00000170: 3a6e 5dbd 62bf 073d 1680 8c3b dd1e ffbc
00000180: a0ac a2bb a024 9dbc 25aa 9cbc d01c 18bd
00000190: a404 78bd da09 8d3c 75d5 3abd 2da9 7d3d
000001a0: 855c 9b3b 5906 b53d 313d 92bd b767 6d3d
000001b0: 906e 0a3b 47d7 893d e895 d83c 5077 663d
000001c0: b688 833d 04b3 a4bd 9188 cbbd 4145 073c
000001d0: 0566 d13c 3df0 d23c b639 483d 9d2e cebd
000001e0: 6e9f b8bb d095 1e3d 5196 f53b f8f1 c8bd
000001f0: 3515 1c3d fc92 72bc e046 d8bc e45c 8bbd
00000200: 184a e63c bcb3 8fbd b525 05bd af89 9fbc
00000210: 8f86 70bd 125b 16bd defd 4b3d 476e 39bd
00000220: 1f6d 53bd 3861 6cbd 4285 5f3d 2fd2 97bd
00000230: 3ac0 5b3d 4964 6d3c e7e9 5cbd 33e4 7dbc
00000240: 43de 2b3c c48b 8ebb d5ce f9bc d3bb 24bd
00000250: c967 9dbd c117 e73a e4fa 353d f51d aabd
00000260: ff11 103d 4316 88bd 6ddf 323d c8be ee3b
00000270: 650b 823d 54a8 62bd 6b9f 923d 345d 0f3d
00000280: 2585 6b3d ca1d f23c 85b9 45bc 814b 86bd
00000290: ffa2 85bd 6166 14bd 9c29 66bd 3df0 08bd
000002a0: 8dc0 6fbb 3d2c 37bd 6b0f e53c 7185 a53c
000002b0: 8de6 733c ba81 473d 1fd7 a8bd 46ea 3c3d
000002c0: 45aa 943c d8f8 aabd 7fbc f43c 1759 b1bd
000002d0: 3b08 d73b 9886 9ebd a62d 66bc 2e69 acbd
000002e0: 3f81 803c 9a0b a8bd c557 873d d168 b1bd
000002f0: 49aa 003d ecda 533d 9fa6 ab3b 0dd6 913c
00000300: 697f 2a3d b203 77bd c355 68bd bbe2 3c3d
00000310: 773a f1bc ffb9 65bd 106c 0ebc 9d6e 663d
00000320: 2091 c2bd 5d4f 85bd 12ba b2bd 3dfb d33c
00000330: 8844 0ebb a7f8 cdbc 427f b6bd 5f07 b0bc
00000340: 0c11 46bd bf44 aebd 2290 51bd 5f68 8cbd
00000350: 1f86 7e3d 7b4f 853d 814b dfbc 17bd cebd
00000360: 59e8 413c cc3b 48bd 5825 27bd 54a0 d2bd
00000370: 33f8 99bd d878 c33c c296 423d ec76 0e3d
00000380: ffb8 0cbd 513c c7bd 8cf3 773d bb97 9e3d
00000390: 813f 96ba 9577 86bc 3442 89bd b4d1 113d
000003a0: 4c0f 3e3d 218c babd c73b 8cbc 07c5 c0bd
000003b0: e779 223c e80a d3bc c9fe 383c 916c 28bd
000003c0: 7488 08bd 6aa9 fb3c d1af 763d 1261 473d
000003d0: 9403 c7bc fddd 90bd f85e b73d ee37 87bb
000003e0: 34bd 083d e558 403d ef71 13bd cdce 55bc
000003f0: f6c0 423d 0b66 87bd 5a69 8d3b 2e5d 9ebc
-0.032723688 0.025478825 0.05932162 -0.08854018 -0.0006590725 -0.09932945 -0.094779104 0.0646869
0.0448581 -0.06286878 0.06227258 -0.01011109 0.0042618304 0.03325993 0.06558633 0.03219914
0.04172225 -0.060439497 -0.01093362 0.0395838 -0.022238804 -0.034512673 -0.017168438 -0.014639019
-0.039044764 -0.07377382 -0.037176523 -0.04282762 -0.063391395 0.00029342514 0.027863616 0.04847549
-0.069787376 -0.09171826 -0.018744463 0.0038673235 0.04684499 -0.00504116 0.05143651 -0.029661039
-0.0015111308 0.060187463 -0.08235236 0.02099107 -0.043137476 -0.068870775 -0.04191869 0.026076967
0.034918178 -0.038019788 0.018309385 -0.0044677765 0.042794354 0.0700562 0.043901235 -0.07542033
-0.077990025 0.0449447 -0.08769928 -0.047592226 0.03198028 -0.002121421 -0.065028764 0.056619793
-0.075219996 -0.0008338673 -0.036570456 -0.08762414 0.037965946 0.04079958 0.043917473 -0.034364376
0.047465857 0.06644805 0.06042457 -0.07322981 -0.0331463 -0.01831254 0.018065289 0.054958764
0.007023436 0.022483245 0.04375813 0.0077705127 0.01585443 -0.023175996 -0.058506735 -0.10187595
-0.045828372 0.020722004 -0.060115445 -0.065450534 -0.0540602 0.0331415 0.00428773 -0.031142646
-0.004964426 -0.019182503 -0.0191241 -0.037136853 -0.0605513 0.017216612 -0.045613725 0.061928917
0.004741254 0.08839101 -0.071405776 0.05796024 0.002112303 0.06730514 0.026438668 0.05626613
0.0642256 -0.08041957 -0.09938157 0.0082562575 0.025561342 0.02574932 0.048883162 -0.100674845
-0.00563424 0.03871709 0.0074947258 -0.09811777 0.038106162 -0.014805552 -0.026400983 -0.06804827
0.028111503 -0.070167035 -0.032506663 -0.019474832 -0.058722075 -0.036707945 0.049802653 -0.045271184
-0.051617738 -0.057709903 0.054570444 -0.07413136 0.05365012 0.014489242 -0.053934004 -0.015496301
0.010490003 -0.0043501575 -0.030494133 -0.040218186 -0.07685811 0.0017630981 0.04442872 -0.08306495
0.035173412 -0.06644871 0.043670107 0.0072859265 0.063498296 -0.05533631 0.07159313 0.035000995
0.057500023 0.02955522 -0.012068157 -0.0655737 -0.0652523 -0.03623045 -0.056192026 -0.033432234
-0.0036583275 -0.044719923 0.027961453 0.020205231 0.014886511 0.0487077 -0.08244156 0.046121858
0.018147597 -0.083482444 0.029875038 -0.08659571 0.0065622604 -0.077405155 -0.014048969 -0.08418499
0.01568663 -0.08205338 0.066085376 -0.0866257 0.031412397 0.051722452 0.0052383686 0.017802263
0.041625414 -0.06030626 -0.056722414 0.046114665 -0.029446824 -0.056085583 -0.008692756 0.056257833
-0.09500337 -0.06509278 -0.08726896 0.025876636 -0.0021708328 -0.02514298 -0.08910991 -0.02148789
-0.0483561 -0.08509206 -0.051162846 -0.06855845 0.062139627 0.065093 -0.027257683 -0.1009466
0.011835181 -0.04888515 -0.0408071 -0.102844864 -0.07518043 0.023861334 0.047507055 0.03478138
-0.034356114 -0.09728301 0.060535 0.07743784 -0.0011463017 -0.016414443 -0.0670208 0.03560038
0.046401307 -0.09108759 -0.017118348 -0.0941258 0.009916759 -0.025762036 0.011291214 -0.041119162
-0.033333257 0.030720431 0.060226265 0.048676558 -0.024293698 -0.07073591 0.08953661 -0.0041265404
0.033383563 0.046959776 -0.035997327 -0.013049793 0.047547303 -0.0661126 0.0043155374 -0.01933154

policy_network.6.weight f4 [128, 256]
00000000: 74b6 613c 77f4 45bd 9593 da3d 4460 623c
00000010: dbf2 59bd d530 09bd 86e0 933d b5cb f6ba
00000020: fd06 a8bd 6bc6 d83c 4fde ad3d c63a 4e3d
00000030: 2fe9 b4bd ae4b 7e3d d30c 933d 6d0e 953d
00000040: 1192 d03c 8052 7f3b 57bf 2e3d d54b 1c3d
00000050: 11f7 4ebd a1c0 e53b d92e b4bd ba0f 0ebc
00000060: d246 d63b e0ce c0bb 9adc cabd ec8a 7d3d
00000070: c1e6 ffbc e0f5 2e3d f036 1bbd 9355 a0bd
00000080: ee79 903c 97e2 863d 7466 733b 2970 223c
00000090: 6e01 5fbd 1a64 86bd 7429 bdbb 199d 4fbd
000000a0: 3431 13bd 2420 37bd a88a 083d 6f77 03bc
000000b0: c84a 37bc b222 143d 4071 b73b 0063 713d
000000c0: d8f1 8c3d 83ee e0bc b641 8e3c df82 e93d
000000d0: b04f 80bc 71ee 5abc 56ed 4b3c 2269 bcbb
000000e0: d871 03bc 1fd2 983d 4c51 9bbc c9cb 63b9
000000f0: 5b7a f2bc ee59 5f3d bac0 94bc 297c 9cbc
00000100: 34a2 d53c b3c9 a2bb 612e 193d 0275 be3d
00000110: 92e6 a73d 7cab 7b3d a8a9 263d 81dc fbbb
00000120: 9fb5 1b3c c7f8 58bc 76b3 fa3b 5438 fbbc
00000130: 2664 b0bb d6b2 4cbd 712c 053c 27c2 98bc
00000140: 4ef1 253a cb90 2ebc 46c9 273d 996d 36bc
00000150: 9a95 1b3d b5a4 223c 36bb c3bb d874 873d
00000160: ebe4 923d 273f 79bd 7a1f 30bd 1e3e 54bd
00000170: 78e3 27bd 7647 58bd a0e2 4cbc 8294 1f3d
00000180: 56a9 18bd e852 dcbc e305 863d 1c2b c13d
00000190: f5bb 53bd 2494 0bbd c2e2 563d fbb1 5c3c
000001a0: 789b aa3d 371c 0ebd fb03 f03c d2a9 d6bb
000001b0: 06ba 15bc 9840 b2ba 1764 96bc 980a ed3c
000001c0: ba06 863d 78c3 d33c 822d b4bc 662b 0f3d
000001d0: 77c8 a83d 0ce9 c4bc 6d01 4f3c 474d 9bbb
000001e0: 8f13 27bb e668 26bd 99d0 96bd 182b 903c
000001f0: 267e 1e3c f4b9 4a3c 2d3e 323c de9b 3e3d
00000200: 1c57 ef3c 86db adbd 73a2 b3bc 2b1b 1e3d
00000210: 2d62 c03c dd16 443d 6d1c 563d 9ed3 603b
00000220: 32cb d93d 9ec7 be3d 4ba5 bebb 726a 79bd
00000230: 75ea 56bc 2352 c83c 8be2 faba 1ec6 783d
00000240: c142 aa3b 15a2 a5bc 9ca5 3abd c537 143d
00000250: 4c32 e93c 1034 bb3c 1692 813b b0d1 77bc
00000260: ab98 69bd 7e6c 27bd bc6d 393d c4d4 043d
00000270: ca3e 85bd 20f3 923c 24bb 643c 9e87 11bd
00000280: 78fa fdbb 76c8 74bc 7ac2 bb3b 20a9 d53c
00000290: 9b56 00bd de2c 0dbd 24ca 34bd 8858 973d
000002a0: 3463 0b3d 1e4e 7bbd 3421 273c da1b bf3c
000002b0: 163a d9bc 638e 16bd da6c 233d 8c49 8e3d
000002c0: 498d 433c aeb0 65bd 20ca 2f3d 1ac5 bebc
000002d0: f705 ca3b d329 dcbc 44ac 0bbd 7571 2abd
000002e0: 244a 51bc 60fd b2bb 5659 0b3e a0cb 98bc
000002f0: a170 1a3d 369f 87bd 30c7 ea3b d437 fabc
00000300: 9a69 323e f39a 3e3d d514 063d 9c29 9abb
00000310: 94f4 953c 6613 2abd 6355 16bd 70a4 b83b
00000320: a6e5 b93d 1b8a af3d e875 5f3c fc1c 51bd
00000330: 3d32 153d 2fee 86bc a012 b83b 2804 a03c
00000340: e994 2f3d 18c1 ecbc 1f9a b3bc c756 4fbd
00000350: b6be 7d3d dcc8 2abd 27b3 eb3c 350f 813d
00000360: d3be c93c f38b a0bc 788c 81bd 205a 243c
00000370: 12f2 3c3d 8e8e 4a3d 132f 7bbc 689d 96bc
00000380: 540a 5bbb c966 80bd ea44 12bd 5a33 843b
00000390: 3e45 5b3d a894 bbbd 6683 1ebd fccb 303d
000003a0: 9a80 083d c0ce 4e3d ff32 d23a 7095 8dbc
000003b0: dd0b 953c abed d33c 9901 d13c 7a1f 1bbd
000003c0: f120 7c3c e147 84bd 0fe7 c53d 130d ad3c
000003d0: ce79 593d f0af 1b3d 30ed 06b8 913e 9e3c
000003e0: 4934 c63b 27b0 fbbc 2d6c 0f3d 5d67 d3bb
000003f0: 07bc 223c a0cf 203d 18eb 763c 6d40 393d
0.01377641 -0.048328843 0.1067268 0.013816897 -0.05321012 -0.033493835 0.07220559 -0.001882902
-0.08204458 0.0264618 0.084896676 0.05034902 -0.08833539 0.062083893 0.071801804 0.07278142
0.025460275 0.0038959086 0.042662945 0.038158257 -0.05052859 0.0070114885 -0.08797998 -0.008670742
0.006539204 -0.0058840364 -0.09905358 0.061900064 -0.031237962 0.042714953 -0.03789419 -0.07828822
0.017636266 0.06586187 0.0037139924 0.009914436 -0.054444723 -0.065620616 -0.005772764 -0.05068693
-0.035935596 -0.044708386 0.033335358 -0.008024081 -0.011187263 0.0361659 0.0055982172 0.058932304
0.068820655 -0.027457481 0.017365318 0.11401915 -0.015662998 -0.013362513 0.012446722 -0.0057498375
-0.008022748 0.074619524 -0.018959664 -0.00021724323 -0.02959936 0.054529123 -0.018158305 -0.019102173
0.026078321 -0.004967892 0.037397746 0.09299661 0.08198275 0.061442837 0.04068914 -0.007686198
0.009503751 -0.013242907 0.007650788 -0.030666508 -0.0053830324 -0.04997524 0.008128271 -0.018647267
0.00063302077 -0.0106546385 0.040963434 -0.011134529 0.037984468 0.0099269645 -0.005973245 0.06614083
0.07172569 -0.060851242 -0.04299877 -0.051817052 -0.040988415 -0.052802525 -0.0125052035 0.038959987
-0.037270866 -0.026895002 0.065440916 0.094320506 -0.05169292 -0.034076825 0.052462347 0.013470168
0.083304346 -0.034694877 0.029298773 -0.006551006 -0.00913859 -0.0013599573 -0.018358273 0.028935716
0.06544252 0.025850043 -0.021994356 0.034953497 0.08241361 -0.024036907 0.012634617 -0.004739437
-0.0025493836 -0.040627383 -0.073640056 0.017598674 0.009673631 0.012373436 0.010879082 0.046535365
0.029216342 -0.084891364 -0.021928048 0.03860013 0.023484314 0.047873367 0.052273203 0.0034305821
0.106344596 0.09315418 -0.0058180443 -0.06089253 -0.013117422 0.024453228 -0.0019141001 0.060735814
0.005195946 -0.020218888 -0.045568094 0.036186 0.028466366 0.022851974 0.0039541824 -0.015125677
-0.05703036 -0.04087495 0.045270666 0.03242947 -0.06506117 0.017938197 0.013960633 -0.035529725
-0.0077508055 -0.014940372 0.0057299705 0.026081622 -0.031332593 -0.034466617 -0.04413809 0.07389933
0.034030154 -0.061353795 0.010200787 0.02332871 -0.026516955 -0.036756884 0.03989873 0.06947622
0.0119355405 -0.056076698 0.04291737 -0.023287345 0.006165262 -0.026875412 -0.034099832 -0.041612107
-0.012774024 -0.0054623336 0.13608298 -0.018651783 0.037705068 -0.06622164 0.0071648583 -0.030544199
0.17423096 0.04653449 0.03273471 -0.0047046673 0.0183051 -0.041522406 -0.036702525 0.005634837
0.09077005 0.085712634 0.013638951 -0.051053032 0.036424864 -0.016470997 0.0056174546 0.019533232
0.04286662 -0.028900668 -0.021924077 -0.050619867 0.061949454 -0.04169546 0.02877195 0.06301729
0.024627125 -0.019597983 -0.063256204 0.010031253 0.046129294 0.049452357 -0.015331048 -0.018385604
-0.0033422904 -0.06269605 -0.035710253 0.004034442 0.05353283 -0.09159213 -0.03869953 0.043163285
0.03332577 0.05049014 0.0016036927 -0.017283171 0.018194133 0.025870165 0.025513457 -0.037871815
0.015388713 -0.06459022 0.096632116 0.021124398 0.053094678 0.038009584 -3.2168988e-05 0.019316943
0.0060487133 -0.030723644 0.035015274 -0.006451531 0.0099325245 0.039260507 0.015070699 0.045227457

policy_network.6.bias f4 [128]
00000000: 974b 21bd 0815 9bbd 1517 4bbc b795 abbc
00000010: c36a 323d 91cf 95bd bf2a 51bd 9328 093c
00000020: 22d0 b9b8 6078 22b9 4872 c43c e5f5 583d
00000030: 7d3b 53bd 4b84 cdbc f3fa 8e3b b411 41bd
00000040: 7dc0 873c bd42 79bd e394 10bd c437 8bbd
00000050: 93d5 1fbd ac5e 28bd b204 69bd 1ac3 bdbc
00000060: a17a d93c 140c 9e3c ac9e 48bd dc55 6a3c
00000070: c142 22bd d255 a1bb 8d13 d93c 95ef 80bd
00000080: b4b9 33bd a34c 323d 89a9 7fbd 2893 4a3c
00000090: 6563 5fbd e4ce cd3c 986c 7f3c 73a5 5ebd
000000a0: aaa6 14bb faa1 3fbc 62f2 acbd a617 cabb
000000b0: 91bd 90bc c8c9 1fbd 334c 59bd d49b b4bb
000000c0: 0e6c 11bd df63 08bd 86f2 80bd 84bd 86bb
000000d0: eee4 de3b 9a05 6dbd 3a51 3ebb c07d 953d
000000e0: b7ed 8b3b 646c 1e3c 9395 b0bb fe42 a73b
000000f0: 8b20 e6bc 7cbc db3c f299 8abd df61 88bd
00000100: 2c1f 4cbd 75f8 693d c5ca 27bd 2293 7abd
00000110: a19f 4bbd 5e55 51bd 1570 17bd 6927 1bbb
00000120: e159 043c a788 773d 667f 3bbc df5a 8dbd
00000130: 27f4 dfbb 05a4 7ebd 9c9a 7b3d 4c24 8d3c
00000140: 9591 cfbc 629c ccbc 1ddb c03b 4444 74bd
00000150: 9f50 90bc cda4 3fbd 5895 dbbc 10ba ec3c
00000160: 1d90 60bc 579b 04bd ce97 833c 914e e6bb
00000170: ef88 c73b 3f23 823c dbb8 c63b 47af cfbc
00000180: 1380 2fbd 2fb4 4bbd 76b8 d4bc 69f7 22bd
00000190: 67ac 07bd d6af 81bd 35d0 4d3d 7cd3 973d
000001a0: c3a8 93bd 5433 f33c 3450 cd3c 9aae 8e3c
000001b0: d8dc 95bb fc57 70bc 93ad 70bd 2727 96bd
000001c0: c49d 20bd 6bcf b43b 5b4b 90b7 396c 2abd
000001d0: 8f49 e7bc f32b 8fbc 686d e83c 4472 89bd
000001e0: 1795 e73c 66a7 033b 432a 00bd ea55 153d
000001f0: 48d4 a7bc 5dfa a13a 14cf 033d 7c87 ed3c
-0.03937873 -0.07572371 -0.01239564 -0.020945413 0.043558847 -0.07314981 -0.051066156 0.00837149
-8.860255e-05 -0.00015494367 0.023980275 0.05296888 -0.051570404 -0.025087496 0.0043634116 -0.047136024
0.016571278 -0.060854662 -0.03529824 -0.06797746 -0.03902204 -0.04110591 -0.056889243 -0.02316432
0.026547732 0.019292869 -0.048979446 0.014302697 -0.039614443 -0.0049235607 0.02649858 -0.06295697
-0.043878272 0.043530118 -0.06241754 0.012364186 -0.05453815 0.025123067 0.015589856 -0.054357003
-0.0022682347 -0.011696333 -0.08444668 -0.00616737 -0.017668517 -0.039010793 -0.053051185 -0.00551174
-0.03550344 -0.03329837 -0.06296258 -0.0041119475 0.006802193 -0.05786667 -0.0029040114 0.072993755
0.004270281 0.009669397 -0.0053889244 0.0051044216 -0.02809169 0.026823275 -0.06767644 -0.066592924
-0.049834415 0.057121713 -0.04096486 -0.061175473 -0.04971278 -0.051106803 -0.036972124 -0.0023674613
0.008078069 0.060433056 -0.011443948 -0.06902098 -0.006834525 -0.06216814 0.061426744 0.017229222
-0.025337974 -0.024976913 0.0058854953 -0.059635416 -0.017616568 -0.046788026 -0.026804611 0.028897315
-0.013706234 -0.032374706 0.016063597 -0.007028409 0.006089322 0.015885947 0.006064517 -0.025352133
-0.04284675 -0.049732383 -0.025966864 -0.03978673 -0.0331234 -0.06332366 0.05024739 0.07413384
-0.07209923 0.029687561 0.025062658 0.01741724 -0.0045734458 -0.014669415 -0.058759283 -0.073316865
-0.039212957 0.00551789 -1.7201228e-05 -0.041607115 -0.028233318 -0.017477011 0.028372481 -0.067112476
0.028269334 0.002008879 -0.031290304 0.036458887 -0.020486966 0.0012357939 0.032179907 0.028995268

policy_network.9.weight f4 [7, 128]
00000000: a15c 1e3d 925c 03bd 34ef 8a3d 8ee4 9a3d
00000010: a94f 76b9 485c 96bd 6ce4 863c 2973 87bd
00000020: a969 1dbd 3de9 38bd b06e d5bc dbac 3cbd
00000030: 8b6a 063b 0bc6 97bd d75a afbd e4ce dc3c
00000040: 2642 20bc 8ea7 863c c777 a2bd 454d 633d
00000050: 262e f6bc 1816 dc3c 49ef 9cbd f568 96bd
00000060: cd5e 8a3b 5e77 d03c 6a9c a5bc 9199 323c
00000070: 008d 9abd 4d61 03bd 26f6 b9bc 451d b43d
00000080: 2b42 9dbd e351 30bd 1f80 61bc 66f4 54bd
00000090: 1c38 8a3d a438 92bd 38b5 073d 5a5c a2bd
000000a0: 0dab 583c 7281 06bd 6e82 6d3c ed05 853d
000000b0: 4619 cf38 9291 77bd f184 54bd 28d8 febb
000000c0: 4d1c d63c d7b9 11bd 68fc 5a3d 19af 52bd
000000d0: 856b 8f3d a871 95bd e75c 033c 2d3f 383d
000000e0: 0083 5f3d ddc2 b13c e0f1 2e3c 2dc0 903d
000000f0: b121 30bd 7626 7e3d 2c30 89bd af21 643d
00000100: 6bfb c63c 850a 80bc 75f4 043c 77d3 333c
00000110: 58d4 403d 932b 0e3d 8d9b d63c 1642 3ebd
00000120: a52d a23d 5fd8 09bd 4640 533c feb0 493d
00000130: 0e84 41bc ca37 733d 5982 02bd 8811 8f3b
00000140: d4e7 3bbc 6897 6139 1c83 22bc 8114 283c
00000150: b3f0 a53c e197 b03c e5ba 6bbd f7a7 133b
00000160: 3139 58bc 9132 013d eefc 7cbd c294 3abc
00000170: 360a a33d 6261 acbc baec 28bd 94fe 81bd
00000180: dbdf 1cbd 6d7e 2f3d db9b 4c3d d067 c9bc
00000190: 61d0 48bc cac4 883d 8b87 67bc 8654 b4ba
000001a0: 05b1 ac3b 79b6 cbbd 50b6 7c3d f116 843d
000001b0: f846 4cbd d076 81bd 0caa 3fbd 40c5 42bd
000001c0: 6877 8938 decd 84bd 9d06 4c3b b0a6 79bd
000001d0: 7aae 90bd 85fa 93bd 7fed 823d db78 463d
000001e0: b929 063d 0b09 5abd a4b8 2d3d f363 18bc
000001f0: 67f0 95bb d4a7 91bd 941c 413a c2ef d7bc
00000200: cc93 3dbc bf66 e339 cdff 483d ba16 a93c
00000210: 90a1 1e3d 9699 27bd 0fc2 a03d 55a3 1fbd
00000220: 7280 9d3d fe46 063d 69fa 53bd d4fc fb3c
00000230: 6963 1abb 1abc 88bd 8208 853c f73c f1b9
00000240: 07d8 d0bc 89ed d1bb 0afa 4bbd 4226 04bd
00000250: 6d48 62bc 454d 2d3c 6a0f 503a 0749 553d
00000260: 96ee 71bb aadc edbc 018f e9bc ba93 3abd
00000270: 6ac3 9abd e1ee 6e3c f6b0 dcbc 8949 243d
00000280: 77ae 58bc 0bfb 2a3d dfa6 83bd f438 4dbc
00000290: 5fe1 48bd f1d8 30bd 0cf4 5dbc 6af3 033d
000002a0: 8a7a 0f3c 82d1 923d 16c5 a53c ab12 ab3d
000002b0: 7bf5 a13c 97f1 65bd cbd7 b23d 1087 423c
000002c0: ec60 6abc 1c12 e23c 92c0 cf3c 7b96 8bbd
000002d0: 10ac 103d 5464 8e3d 3262 d13c 3b94 95bc
000002e0: b749 6c3d d1cc db3c 1ed8 a3ba 781d 60bd
000002f0: 93f9 873c 629d 363d f4cf 623d 359f 96bc
00000300: 75ef 87bd 0e3a 61b9 90b2 76bb 0e38 3e3d
00000310: eac7 fdbc 5aa7 683d d18f 0aba bc9a 43bd
00000320: eaa1 05bb 42c6 263b 1710 6dbd fd42 a3b9
00000330: fae8 5f39 44ea 803d 1e7b 19bd 70c9 f3bb
00000340: a70d 30bb a7ed 60bc 2177 c4bb a6cb 85bd
00000350: 489f 0c3d acab 9cbd 6535 3abd c24f 8abc
00000360: a609 673c e34d e33c ea73 333d 5ebe 26bb
00000370: 5101 eb3c dd3a 093d 32f6 b9bb d37d 76bc
00000380: 1e53 493d 3cfd 6cbd 5112 09bc 59fc a3bd
00000390: 18fc f9bb eecc 993d e90b 0d38 3d02 5d3c
000003a0: eabd 67bb e4ce 25bc 4f9a 33bd 272a 4a3d
000003b0: bf2c 6fbd ee7a 85bc e27e 7abb 1141 1bbc
000003c0: 8bf3 b5bc b296 3bbd aa61 9fbd aa22 933c
000003d0: dc67 b7bd a9c3 783b af0b 37bd 089c 2a3d
000003e0: 0672 0e3a 4bd5 a83a 64cd 653b 724f bebb
000003f0: f59f b2bc 7253 713c de1e 063c 0daf 6e3d
0.038662557 -0.032070704 0.067839056 0.075631246 -0.00023490064 -0.0734182 0.016466342 -0.06613762
-0.038430844 -0.04514431 -0.026053756 -0.046063285 0.0020510282 -0.074108206 -0.08562248 0.026954122
-0.009781396 0.016437318 -0.07933002 0.05549361 -0.030051302 0.026866004 -0.076628275 -0.07344238
0.004222727 0.025447544 -0.020216186 0.010900871 -0.07546425 -0.032075215 -0.02270038 0.08794645
-0.07678636 -0.043046843 -0.013763457 -0.05199089 0.06748983 -0.071397096 0.033131808 -0.07927771
0.013224375 -0.032838292 0.014496429 0.06495271 9.875237e-05 -0.06044156 -0.051884595 -0.0077772327
0.026136542 -0.03557762 0.05346337 -0.051436517 0.070029296 -0.07297069 0.008017755 0.044982124
0.05456829 0.021699363 0.010677785 0.070679046 -0.04300088 0.062048398 -0.06698641 0.055696186
0.024289807 -0.015630016 0.008114924 0.01097571 0.047077507 0.034709524 0.02619722 -0.046449743
0.07918862 -0.033653613 0.012893742 0.04924106 -0.011811269 0.059379376 -0.03186259 0.0043661036
-0.011468846 0.00021514075 -0.009918954 0.010258795 0.020256376 0.021556797 -0.057551283 0.0022530535
-0.013197229 0.031542365 -0.06176465 -0.011388006 0.07960932 -0.02104253 -0.041241385 -0.06347385
-0.038299423 0.04284518 0.049953323 -0.024585634 -0.012256713 0.066781595 -0.014131437 -0.00137581
0.005270126 -0.09946913 0.061697304 0.06449688 -0.04987237 -0.0632149 -0.04679303 -0.047551394
6.55491e-05 -0.064845785 0.0031131872 -0.06094998 -0.07064529 -0.07225517 0.06392955 0.0484551
0.032754634 -0.05323128 0.042412415 -0.0093011735 -0.0045757773 -0.07112089 0.0007366624 -0.026359443
-0.011570882 0.00043373366 0.049072076 0.02064072 0.038728297 -0.040917955 0.07849514 -0.038974125
0.076905146 0.032782547 -0.05175248 0.030760206 -0.0023557788 -0.066765025 0.016239408 -0.00046012524
-0.025493635 -0.00640649 -0.049799003 -0.032263048 -0.013811213 0.0105775045 0.0007936867 0.052071597
-0.003691589 -0.029035885 -0.028510572 -0.04555104 -0.075568035 0.01458332 -0.02693985 0.04010919
-0.013225189 0.04174332 -0.064283125 -0.012525786 -0.049043056 -0.04317564 -0.013546955 0.03221456
0.008757243 0.07168867 0.02023558 0.0835317 0.019770375 -0.0561386 0.087325655 0.011873022
-0.014305335 0.027596526 0.02536038 -0.06815811 0.03532034 0.0695273 0.025559518 -0.018259158
0.057687487 0.026831063 -0.0012500321 -0.054715604 0.016598498 0.044583686 0.0553741 -0.018386463
-0.0663747 -0.00021479299 -0.0037643053 0.046440177 -0.030979116 0.056800224 -0.00052857125 -0.047754988
-0.0020390698 0.002544776 -0.057876673 -0.00031139693 0.00021353728 0.062946826 -0.03747093 -0.0074397847
-0.0026863606 -0.013728536 -0.0059956466 -0.065329835 0.03433159 -0.07649931 -0.045461077 -0.016883735
0.014101421 0.0277471 0.043811716 -0.0025443058 0.028687151 0.033503402 -0.0056751007 -0.015044647
0.049151532 -0.05785869 -0.008366183 -0.08007116 -0.007628929 0.0750979 3.3628112e-05 0.013489303
-0.0035361 -0.010120127 -0.043848332 0.049356606 -0.058392283 -0.016293969 -0.00382226 -0.009475962
-0.022210857 -0.04579801 -0.077823 0.017960865 -0.089553565 0.003795842 -0.044688877 0.04165271
0.0005433861 0.0012880949 0.003506505 -0.0058078105 -0.02180479 0.014729368 0.00818607 0.05827241

policy_network.9.bias f4 [7]
00000000: 26b4 013c 978d 8f3b 1ca0 b73a b3ac 6cba
00000010: 0bc5 09bb cf4c af3a ebae e83c
0.007916486 0.0043808925 0.0014009508 -0.000902842 -0.0021021988 0.0013374331 0.02840372

exp_avg f4 [128, 15]
00000000: b680 cf38 d3e0 3738 f741 a2b8 28fb c938
00000010: 09d9 7e38 924e 1ab9 9e2c 9fb7 39a9 85b7
00000020: af3c 3336 ce3d eeb7 0e11 d9b7 c367 83b5
00000030: 488b 8bb5 1172 40b5 861b a0b4 52fd 17b7
00000040: 3987 0bb7 3465 bd36 7482 9db5 b40d 81b6
00000050: 75f0 9236 80a2 2535 eef3 95b5 553c 0f36
00000060: 8224 b435 f9a9 f935 b60d 0933 8c31 0435
00000070: 5354 2434 f245 4f34 5cac 10b7 132e deb6
00000080: 04df 9c37 cc01 b6b7 76f4 13b7 9b61 0038
00000090: e6e2 5135 0483 d436 8c60 f4b5 876d aa36
000000a0: ea2b 4736 7d5f c634 efe7 ef33 6f39 84b5
000000b0: c7dc 9db4 0000 0000 0000 0000 0000 0000
000000c0: 0000 0000 0000 0000 0000 0000 0000 0000
000000d0: 0000 0000 0000 0000 0000 0000 0000 0000
000000e0: 0000 0000 0000 0000 0000 0000 0000 0000
000000f0: d0b5 cc38 0e94 c937 6bd5 82b8 24dd bd38
00000100: 17af 4938 6644 d4b8 8aa1 8db7 bdcd 81b6
00000110: 7fc0 e536 3b7a beb7 8f0a b4b7 bec5 cfb5
00000120: adb0 0cb5 3ad2 8233 44cb 5db4 0000 0000
00000130: 0000 0000 0000 0000 0000 0000 0000 0000
00000140: 0000 0000 0000 0000 0000 0000 0000 0000
00000150: 0000 0000 0000 0000 0000 0000 0000 0000
00000160: 0000 0000 0000 0000 1fc9 8735 5b83 9634
00000170: aa80 18b5 8bf2 4335 2e8c f434 8d00 5cb5
00000180: f13d 22b4 c7db c732 3690 3933 289f 5db4
00000190: 14ca 58b4 949e 8231 6c72 e531 b884 0fb4
000001a0: b374 5fb4 0000 0000 0000 0000 0000 0000
000001b0: 0000 0000 0000 0000 0000 0000 0000 0000
000001c0: 0000 0000 0000 0000 0000 0000 0000 0000
000001d0: 0000 0000 0000 0000 0000 0000 0000 0000
000001e0: 0000 0000 0000 0000 0000 0000 0000 0000
000001f0: 0000 0000 0000 0000 0000 0000 0000 0000
00000200: 0000 0000 0000 0000 0000 0000 0000 0000
00000210: 0000 0000 0000 0000 0000 0000 0000 0000
00000220: 0000 0000 0000 0000 0000 0000 0000 0000
00000230: 0000 0000 0000 0000 0000 0000 0000 0000
00000240: 0000 0000 0000 0000 0000 0000 0000 0000
00000250: 0000 0000 0000 0000 2b83 96b7 eb13 50b6
00000260: f125 d336 abc4 32b7 e255 e6b6 c82c 2737
00000270: efaf 6236 411b e0b5 ce7e 0fb5 4e7f 4636
00000280: 97e1 6936 e4dd 5534 01d3 8e33 54f2 3835
00000290: c566 9e34 0000 0000 0000 0000 0000 0000
000002a0: 0000 0000 0000 0000 0000 0000 0000 0000
000002b0: 0000 0000 0000 0000 0000 0000 0000 0000
000002c0: 0000 0000 0000 0000 0000 0000 0000 0000
000002d0: 0000 0000 0000 0000 0000 0000 0000 0000
000002e0: 0000 0000 0000 0000 0000 0000 0000 0000
000002f0: 0000 0000 0000 0000 0000 0000 0000 0000
00000300: 0000 0000 0000 0000 0000 0000 0000 0000
00000310: 0000 0000 0000 0000 0000 0000 0000 0000
00000320: 0000 0000 0000 0000 0000 0000 0000 0000
00000330: 0000 0000 0000 0000 0000 0000 0000 0000
00000340: 0000 0000 0000 0000 ac6f f437 b0b2 0837
00000350: e96f 51b7 b78e 8037 e240 3737 2bf1 67b7
00000360: 7ccc 8bb6 7ea3 3e36 9665 6834 e027 93b6
00000370: 79b9 bdb6 ba90 a3b2 7358 d9b3 326c 33b3
00000380: 0931 cdb4 0000 0000 0000 0000 0000 0000
00000390: 0000 0000 0000 0000 0000 0000 0000 0000
000003a0: 0000 0000 0000 0000 0000 0000 0000 0000
000003b0: 0000 0000 0000 0000 0000 0000 0000 0000
000003c0: 6d0b 9637 6b5f 8636 a2ac 1db7 0c04 6037
000003d0: e25e 0d37 1fc5 7fb7 9e15 4db6 9889 c3b4
000003e0: 4093 9a35 232d 6cb6 814f 89b6 a807 7434
000003f0: d551 4234 d6a8 580f 8a92 af34 5d5f 8eb7
9.8945035e-05 4.3839984e-05 -7.737049e-05 9.6312084e-05 6.076045e-05 -0.00014715854 -1.8975054e-05 -1.5933636e-05
2.67084e-06 -2.8400591e-05 -2.5876358e-05 -9.790459e-07 -1.0396843e-06 -7.169156e-07 -2.9822348e-07 -9.059282e-06
-8.31653e-06 5.6444205e-06 -1.1735378e-06 -3.846095e-06 4.379132e-06 6.170376e-07 -1.1172358e-06 2.1343778e-06
1.342167e-06 1.8601414e-06 3.1910268e-08 4.924593e-07 1.5304367e-07 1.9303823e-07 -8.623199e-06 -6.6214793e-06
1.8700499e-05 -2.1696927e-05 -8.818801e-06 3.060848e-05 7.818875e-07 6.3333446e-06 -1.8207515e-06 5.0791455e-06
2.9678872e-06 3.694985e-07 1.1171493e-07 -9.851482e-07 -2.9404166e-07 0.0 0.0 0.0
0.0 0.0 0.0 0.0 0.0 0.0 0.0 0.0
0.0 0.0 0.0 0.0 9.761343e-05 2.403001e-05 -6.238635e-05 9.053413e-05
4.80852e-05 -0.00010121688 -1.6883732e-05 -3.8684507e-06 6.8471413e-06 -2.2706683e-05 -2.1462589e-05 -1.5480252e-06
-5.241116e-07 6.091837e-08 -2.0656177e-07 0.0 0.0 0.0 0.0 0.0
0.0 0.0 0.0 0.0 0.0 0.0 0.0 0.0
0.0 0.0 1.0116818e-06 2.803525e-07 -5.6811643e-07 7.299611e-07 4.5550536e-07 -8.195719e-07
-1.510996e-07 2.3266592e-08 4.3204828e-08 -2.064013e-07 -2.0190083e-07 3.801526e-09 6.6777854e-09 -1.3366196e-07
-2.0810948e-07 0.0 0.0 0.0 0.0 0.0 0.0 0.0
0.0 0.0 0.0 0.0 0.0 0.0 0.0 0.0
0.0 0.0 0.0 0.0 0.0 0.0 0.0 0.0
0.0 0.0 0.0 0.0 0.0 0.0 0.0 0.0
0.0 0.0 0.0 0.0 0.0 0.0 0.0 0.0
0.0 0.0 0.0 0.0 0.0 0.0 -1.7942473e-05 -3.100601e-06
6.292707e-06 -1.0655417e-05 -6.864532e-06 9.964402e-06 3.377903e-06 -1.6697232e-06 -5.3456176e-07 2.95784e-06
3.4851016e-06 1.9917894e-07 6.650772e-08 6.8897975e-07 2.9504568e-07 0.0 0.0 0.0
0.0 0.0 0.0 0.0 0.0 0.0 0.0 0.0
0.0 0.0 0.0 0.0 0.0 0.0 0.0 0.0
0.0 0.0 0.0 0.0 0.0 0.0 0.0 0.0
0.0 0.0 0.0 0.0 0.0 0.0 0.0 0.0
0.0 0.0 0.0 0.0 0.0 0.0 0.0 0.0
0.0 0.0 2.9139068e-05 8.147836e-06 -1.2483427e-05 1.5325246e-05 1.0922757e-05 -1.3824824e-05
-4.166328e-06 2.8407371e-06 2.164364e-07 -4.3855835e-06 -5.654231e-06 -1.9041511e-08 -1.0120939e-07 -4.177509e-08
-3.8219903e-07 0.0 0.0 0.0 0.0 0.0 0.0 0.0
0.0 0.0 0.0 0.0 0.0 0.0 0.0 0.0
1.7886714e-05 4.0046193e-06 -9.398123e-06 1.3352383e-05 8.4263465e-06 -1.524508e-05 -3.0559963e-06 -3.6421693e-07
1.151675e-06 -3.5193013e-06 -4.0921736e-06 2.2727056e-07 1.8097428e-07 1.0682139e-29 3.270291e-07 -1.6972126e-05

exp_avg_sq f4 [128, 15]
00000000: 72d2 1e34 d713 a732 cabb 8733 3bfa c533
00000010: 6f5a 2333 f292 2434 b8e6 7d31 fa9f ea2f
00000020: 7481 222f 7cfb 0132 cdd4 0032 ce7a 802d
00000030: fe54 512d e282 822e 788e df2c d460 5532
00000040: c241 d430 905d ae31 7717 0032 a93d 4d31
00000050: 35e7 4432 c735 a32f 1c2e 062e a8ad 6f2d
00000060: 5dea 2230 0b5a 2630 3a70 9e2b 197c 732b
00000070: 55a6 0d2d 5036 0f2c cc87 4732 b9cd bb30
00000080: 7142 a131 b602 f831 d4c0 4731 563d 4832
00000090: bfb3 a82f 7e88 272e 8021 842d 7867 2030
000000a0: 3fb3 1f30 b907 a42b 8b05 6b2b d717 7b2d
000000b0: 9439 c52b 0000 0000 0000 0000 0000 0000
000000c0: 0000 0000 0000 0000 0000 0000 0000 0000
000000d0: 0000 0000 0000 0000 0000 0000 0000 0000
000000e0: 0000 0000 0000 0000 0000 0000 0000 0000
000000f0: db3e c233 a381 3832 5b6e 2233 1877 7433
00000100: 2eaa bc32 1044 b533 9090 1331 7136 8a2f
00000110: 5365 012f 49be 9331 192c 9b31 0a2a e32c
00000120: 7264 cf2c 406d e92d 0a70 0e2d 0000 0000
00000130: 0000 0000 0000 0000 0000 0000 0000 0000
00000140: 0000 0000 0000 0000 0000 0000 0000 0000
00000150: 0000 0000 0000 0000 0000 0000 0000 0000
00000160: 0000 0000 0000 0000 0526 1e31 d4ab a82f
00000170: 5bd0 8630 9259 bf30 5ff6 1c30 fb24 1a31
00000180: 4da7 6b2e 6873 cc2c 9043 1f2c 5d30 fa2e
00000190: a4e4 f92e 4fce 702a 201d 2d2a a811 a62c
000001a0: 5121 ea2b 0000 0000 0000 0000 0000 0000
000001b0: 0000 0000 0000 0000 0000 0000 0000 0000
000001c0: 0000 0000 0000 0000 0000 0000 0000 0000
000001d0: 0000 0000 0000 0000 0000 0000 0000 0000
000001e0: 0000 0000 0000 0000 0000 0000 0000 0000
000001f0: 0000 0000 0000 0000 0000 0000 0000 0000
00000200: 0000 0000 0000 0000 0000 0000 0000 0000
00000210: 0000 0000 0000 0000 0000 0000 0000 0000
00000220: 0000 0000 0000 0000 0000 0000 0000 0000
00000230: 0000 0000 0000 0000 0000 0000 0000 0000
00000240: 0000 0000 0000 0000 0000 0000 0000 0000
00000250: 0000 0000 0000 0000 4dcc ad31 f382 3a30
00000260: dca9 0e31 d143 4531 2b3a a430 977e 9531
00000270: 8366 f72e ffe9 f72c a6f8 872c 922c 802f
00000280: bac3 832f 3f65 ec2a 0e3c ae2a 6618 652c
00000290: 7175 ea2b 0000 0000 0000 0000 0000 0000
000002a0: 0000 0000 0000 0000 0000 0000 0000 0000
000002b0: 0000 0000 0000 0000 0000 0000 0000 0000
000002c0: 0000 0000 0000 0000 0000 0000 0000 0000
000002d0: 0000 0000 0000 0000 0000 0000 0000 0000
000002e0: 0000 0000 0000 0000 0000 0000 0000 0000
000002f0: 0000 0000 0000 0000 0000 0000 0000 0000
00000300: 0000 0000 0000 0000 0000 0000 0000 0000
00000310: 0000 0000 0000 0000 0000 0000 0000 0000
00000320: 0000 0000 0000 0000 0000 0000 0000 0000
00000330: 0000 0000 0000 0000 0000 0000 0000 0000
00000340: 0000 0000 0000 0000 5e61 7a31 96ca fa2f
00000350: e8c3 cb30 5162 1331 4b99 6c30 94e5 5c31
00000360: 5981 b82e cca3 0d2d f66e 882c e77f 392f
00000370: e0ca 412f 5de8 b62a ef07 8c2a dae1 c92c
00000380: 944b 2e2c 0000 0000 0000 0000 0000 0000
00000390: 0000 0000 0000 0000 0000 0000 0000 0000
000003a0: 0000 0000 0000 0000 0000 0000 0000 0000
000003b0: 0000 0000 0000 0000 0000 0000 0000 0000
000003c0: 2147 af31 f9a0 4230 f487 1b31 3f03 5f31
000003d0: ee9d b830 56ea c131 1bad 092f 09ab a62d
000003e0: efea c02c 323e 952f 6a0d 912f 5aa6 302b
000003f0: e223 e12a f869 852c ffbb 092c 1d1e e131
1.4791456e-07 1.945038e-08 6.320586e-08 9.219044e-08 3.8033644e-08 1.5327149e-07 3.6947494e-09 4.2678022e-10
1.4779805e-10 7.565969e-09 7.498966e-09 1.4606451e-11 1.1899147e-11 5.934965e-11 6.3538584e-12 1.2420248e-08
1.544372e-09 5.0747033e-09 7.455916e-09 2.9866476e-09 1.1461272e-08 2.9687738e-10 3.0509026e-11 1.36241365e-11
5.9268307e-10 6.0518407e-10 1.1257724e-12 8.650316e-13 8.051855e-12 2.0351672e-12 1.1614201e-08 1.3664511e-09
4.69327e-09 7.218058e-09 2.9067921e-09 1.1655478e-08 3.068674e-10 3.8092633e-11 1.502154e-11 5.83547e-10
5.8098587e-10 1.1655044e-12 8.3496464e-13 1.4272992e-11 1.4013673e-12 0.0 0.0 0.0
0.0 0.0 0.0 0.0 0.0 0.0 0.0 0.0
0.0 0.0 0.0 0.0 9.045262e-08 1.0739686e-08 3.7818932e-08 5.6918992e-08
2.196347e-08 8.44085e-08 2.147349e-09 2.5140737e-10 1.1768479e-10 4.299896e-09 4.516107e-09 6.4563953e-12
5.8944455e-12 2.653755e-11 8.096643e-12 0.0 0.0 0.0 0.0 0.0
0.0 0.0 0.0 0.0 0.0 0.0 0.0 0.0
0.0 0.0 2.3013638e-09 3.0681113e-10 9.809001e-10 1.3922536e-09 5.7102584e-10 2.243097e-09
5.3581407e-11 5.8108414e-12 2.2632764e-12 1.1377275e-10 1.1363824e-10 2.138786e-13 1.5375591e-13 4.719964e-12
1.6635947e-12 0.0 0.0 0.0 0.0 0.0 0.0 0.0
0.0 0.0 0.0 0.0 0.0 0.0 0.0 0.0
0.0 0.0 0.0 0.0 0.0 0.0 0.0 0.0
0.0 0.0 0.0 0.0 0.0 0.0 0.0 0.0
0.0 0.0 0.0 0.0 0.0 0.0 0.0 0.0
0.0 0.0 0.0 0.0 0.0 0.0 5.058189e-09 6.7852496e-10
2.0760274e-09 2.8705822e-09 1.1949103e-09 4.3508623e-09 1.1250469e-10 7.046141e-12 3.8645363e-12 2.3314733e-10
2.3967833e-10 4.1992275e-13 3.095028e-13 3.2556401e-12 1.6659297e-12 0.0 0.0 0.0
0.0 0.0 0.0 0.0 0.0 0.0 0.0 0.0
0.0 0.0 0.0 0.0 0.0 0.0 0.0 0.0
0.0 0.0 0.0 0.0 0.0 0.0 0.0 0.0
0.0 0.0 0.0 0.0 0.0 0.0 0.0 0.0
0.0 0.0 0.0 0.0 0.0 0.0 0.0 0.0
0.0 0.0 3.6435135e-09 4.561868e-10 1.4825874e-09 2.1447202e-09 8.607414e-10 3.2144714e-09
8.390328e-11 8.051292e-12 3.8776716e-12 1.6871092e-10 1.7625323e-10 3.249093e-13 2.48745e-13 5.737838e-12
2.4768841e-12 0.0 0.0 0.0 0.0 0.0 0.0 0.0
0.0 0.0 0.0 0.0 0.0 0.0 0.0 0.0
5.1012568e-09 7.0805545e-10 2.263275e-09 3.2452616e-09 1.3432648e-09 5.64368e-09 1.2521577e-10 1.894797e-11
5.483051e-12 2.7147135e-10 2.6384878e-10 6.275862e-13 3.9992928e-13 3.7918522e-12 1.957323e-12 6.5517853e-09
