robot_state_berkeley_training/robot_state_epoch_20.pth (torch, 838065 bytes, 24 tensors)

policy_network.0.weight f4 [128, 15]
000000 0c 83 52 bd 04 8d 19 bd 77 a8 65 3e ce c6 08 3e
       -0.051394507 -0.037488 0.22427545 0.13357088
000010 1f 9e f6 3d 70 d7 09 3c 0a 8e d3 3d f6 b5 4d bd
       0.12041878 0.008413181 0.10329826 -0.05022236
000020 f1 26 7a 3e f3 5e 57 3e 3a 2b 13 be a2 f5 33 3f
       0.24428917 0.21032314 -0.14371958 0.7029668
000030 39 ac e0 3d c4 54 aa 3e 9d 1e bc 3e 60 06 e7 3d
       0.10970349 0.33267796 0.36742106 0.11280513
000040 90 27 5c 3e 51 53 e1 bd cc 6b 4e be ac a0 40 bd
       0.21499467 -0.110022195 -0.20158309 -0.04702823
000050 bd c2 df 3d 04 4d d7 3d 9e c5 06 be 13 8c 35 bf
       0.10925815 0.105127364 -0.13161322 -0.7091686
000060 04 be 2e bd b9 45 19 be f1 f6 c5 3d d4 07 99 be
       -0.04266168 -0.14968003 0.09666241 -0.29888785
000070 1d 2e 6e 3e bd 59 16 bd 36 17 71 3c c0 4c ae bd
       0.23259778 -0.036706675 0.014715007 -0.08510733
000080 a4 d9 76 be c1 82 97 3d 1b 14 0f bd d2 5a 0c 3e
       -0.24106461 0.07397986 -0.034931283 0.1370652
000090 40 2a 3c 3e 50 a3 86 3e 0d 6c b0 3e 58 2c 1d be
       0.18375492 0.26296473 0.34457436 -0.15348947
0000a0 ff f1 83 3e cd 0d 2b be 8c d6 66 bd 96 5c 61 3e
       0.25770566 -0.16704483 -0.05635695 0.22007975
0000b0 52 c0 4c be 7d ca 45 3e cc 0a 05 be 5d 2d 54 bd
       -0.1999524 0.19315524 -0.129924 -0.051801074
0000c0 5a a1 c3 bd c9 78 04 be 00 89 41 be c9 32 07 3c
       -0.0955226 -0.12936701 -0.18899918 0.008251854
0000d0 b0 85 38 3e eb c2 6f 3e 31 cb 73 bd fa 5c 7c bd
       0.18019748 0.23414199 -0.05951995 -0.061612107
0000e0 ee 07 12 3e 91 8d 85 bd 91 ce 90 3d 18 6a d1 bb
       0.14260837 -0.06521142 0.070706494 -0.006390821
0000f0 02 ad a1 3d c4 e0 88 3c 89 4e 42 3e 5e 24 70 be
       0.07894327 0.01670874 0.18975271 -0.23451373
000100 13 71 16 3c 96 14 89 be fd 94 73 3d 87 ce 1f bd
       0.009182232 -0.26773518 0.05946826 -0.03901532
000110 84 5f 9d be d5 bc c2 3d 2e da 04 be cf a4 3c 3f
       -0.30736935 0.09508673 -0.12973854 0.7368898
000120 89 40 e5 be e2 dc ad 3e 59 59 bd 3e d1 a6 80 3c
       -0.447758 0.33957583 0.3698223 0.015704544
000130 92 f1 98 3d 39 bf 5e 3c ef 91 e7 bd e7 6c 51 3d
       0.07467951 0.013595396 -0.113071315 0.051129248
000140 62 73 a9 bd ae a0 44 be 9f 65 43 be 3b b2 74 3e
       -0.08273961 -0.1920192 -0.19081734 0.23896115
000150 c0 4a 58 bc 76 a9 16 be ea b8 de 3d 64 b4 6a be
       -0.013201416 -0.14713082 0.10875113 -0.22920376
000160 35 92 80 be bc 4d 50 be 79 d0 40 bd 62 a2 96 3e
       -0.25111547 -0.20342153 -0.047073815 0.29420763
000170 cc 6d b3 3d 4e 0c 56 3e 5c 1b fa bd e6 51 cb 3d
       0.087611765 0.20903131 -0.1221225 0.0992773
000180 d6 6c 51 be 4f 11 8b be 9a 5d 00 3e d0 a2 b3 bc
       -0.20451674 -0.27161643 0.12535706 -0.021928221
000190 59 fe 16 be d4 37 f1 3c 04 7c 64 be 32 ed e7 3b
       -0.14745463 0.029445566 -0.22312933 0.0070778364
0001a0 16 7b dc 3d c5 38 38 3d d0 e5 bc bb d4 7f 58 be
       0.10765664 0.044976015 -0.0057647005 -0.21142513
0001b0 a3 d0 26 3e 4e 20 49 3e ee 7c 22 3e 72 19 d3 3d
       0.16290526 0.1964123 0.1586797 0.10307588
0001c0 60 91 61 3d 1b c9 c8 bd 02 4e ee 3d 05 0c b0 bd
       0.05507028 -0.09803983 0.116359726 -0.085960425
0001d0 8f 97 02 3d 77 08 1e be 5a 29 1a be da 2d 34 be
       0.03188282 -0.15432917 -0.15054837 -0.17595616
0001e0 a6 27 2d bd 04 c5 1c 3e 19 91 51 be b9 83 ed 3d
       -0.04227414 0.1530953 -0.20465507 0.1159739
0001f0 df c8 65 3e c1 79 64 be 5f c3 28 3e 12 a7 42 be
       0.22439907 -0.2231207 0.16480778 -0.19009045
000200 78 ff 40 3e 56 9b 30 be 21 d9 bc 3d c2 18 80 3e
       0.18847454 -0.17246756 0.092211016 0.2501889
000210 ca 1b 50 3d fc 4d 14 be b7 da ae bd 96 9f dc bd
       0.05080775 -0.14482874 -0.0853781 -0.10772626
000220 f1 18 3b be 73 a1 5e be 43 00 82 3e e3 1a dc bd
       -0.18271233 -0.21741275 0.25390825 -0.10747316
000230 c3 ef e9 bd d2 40 82 3e 89 f1 27 3e 13 44 78 3e
       -0.11422684 0.2544008 0.16400732 0.24244718
000240 29 3f 21 3e 6b 25 cb bd 63 e1 bb 3d a0 6c 4d 3e
       0.1574675 -0.09919246 0.091738485 0.20060968
000250 84 65 24 3e e0 c8 53 be 0d 06 3a be ff 10 88 3d
       0.1605435 -0.20682096 -0.1816637 0.06643867
000260 4b 29 2f be 3e 23 90 bd 92 7f 18 be 88 ae 1e be
       -0.17105596 -0.07037972 -0.14892414 -0.15496266
000270 99 19 69 be ee ec b4 bd e2 47 85 be 69 c2 89 bb
       -0.22763671 -0.08834253 -0.26031405 -0.0042040837
000280 27 99 86 be 1f 0d 32 be aa 88 7c bb de d8 82 3e
       -0.2628872 -0.17387818 -0.0038533607 0.25556082
000290 42 7a 85 bd 32 c9 6b 3e 81 45 5b 3d f0 a8 0d 3e
       -0.065174595 0.23025969 0.05353308 0.13833976
0002a0 24 0b 23 3d ac 02 c2 bd b4 81 4f be 9c ba 66 bb
       0.039805546 -0.09473166 -0.20264322 -0.0035206443
0002b0 14 21 1d be 43 f4 72 be 84 3a eb 3d ab 71 66 3c
       -0.1534465 -0.23725991 0.1148577 0.0140651865
0002c0 6b 03 80 3e 43 99 36 3e 74 97 04 be c0 ec 15 3e
       0.25002608 0.17831902 -0.129484 0.14641094
0002d0 fc 25 51 3e 39 39 2b be d9 05 6c be d4 2a 4a 3e
       0.20424646 -0.16721047 -0.23049106 0.197429
0002e0 70 fb 20 be 46 08 da 3d 50 ce 6f be 5b ed 78 bd
       -0.15720916 0.10646109 -0.23418546 -0.060773235
0002f0 a6 2a 06 b9 f8 2a 43 be 43 e2 2f 3e b7 d5 27 bc
       -0.00012795124 -0.1905936 0.17176156 -0.010243825
000300 06 23 62 3e 2d 9f 3d 3e 2f cd 4b bd 6d 4c 7f 3e
       0.22083673 0.18517752 -0.049756225 0.24931498
000310 2e 18 84 3d c1 79 4f 3e e5 49 46 3e 08 ac 08 3e
       0.064499244 0.20261289 0.19364126 0.13346875
000320 50 ad 2e be e8 1d 2e 3e 2c dd 81 be 13 c1 0e be
       -0.17058301 0.17003596 -0.25364053 -0.1394084
000330 5b 79 37 be f8 f2 07 be ab 27 6f 3e 31 cb 97 3b
       -0.17917387 -0.13276279 0.23354976 0.0046323766
000340 94 3a 67 bd 3e 2e 81 3e 21 0e 35 be b9 a6 69 be
       -0.05645235 0.25230592 -0.17681171 -0.22817506
000350 d2 0c a1 be c1 97 8c bd fd bf cb bd ee 96 17 3d
       -0.31455094 -0.06864882 -0.09948728 0.037009172
000360 b6 82 cc 3c 84 ad 4a 3e 31 b2 1e 3f 51 dc a7 be
       0.024964672 0.19792753 0.6199065 -0.32785276
000370 70 6c 9d be 57 d3 9d be 52 6e cb 3e 15 c5 f9 bd
       -0.30746794 -0.30825302 0.39732605 -0.121957935
000380 c9 30 b3 3d 0c 31 7b bd ec b4 34 3e 44 3a 76 be
       0.087495394 -0.06132607 0.17647141 -0.24045664
000390 fd 6b 28 3e 2d 14 51 3e 1a be 67 bc 61 e4 13 be
       0.16447444 0.20417853 -0.014144445 -0.14442588
0003a0 21 91 f3 bd bf 5d 45 bd 61 26 c9 3d 2a e4 e2 3d
       -0.118929155 -0.048185106 0.09821773 0.11078675
0003b0 6e d2 53 be c2 c9 44 be 8a ef b7 3d 95 c8 07 be
       -0.20685741 -0.1921759 0.08981235 -0.1326011
0003c0 10 5f 2e be 97 dd a7 3e c3 ac 11 3e 7c c1 01 3e
       -0.17028451 0.32786247 0.1422606 0.12671465
0003d0 7d 06 6c 3e 0e 86 fc 3d 1b af da bd bb cb 20 3c
       0.2304935 0.123302564 -0.1067793 0.009814198
0003e0 85 0c 95 3d d1 68 83 be db c8 e8 bd bf 47 a1 be
       0.072777785 -0.25665906 -0.11366435 -0.3150005
0003f0 a1 b9 5c be 65 b4 ba be 7f 65 9f be de 26 1e bd
       -0.21555187 -0.36465755 -0.31132123 -0.038611285

policy_network.0.bias f4 [128]
000000 67 a4 7f be 42 7c 11 3e 79 48 8e bd 86 38 95 3b
       -0.24965058 0.14207557 -0.06947417 0.0045538573
000010 7d d2 6b 3d d1 32 bc bd 6d 0d db 3d 68 df a5 3d
       0.057573784 -0.0918938 0.1069592 0.08099252
000020 75 92 4c 3e 27 e6 1a 3d 53 54 fe bd da 87 cd 3d
       0.19977744 0.037817147 -0.12418427 0.10035677
000030 a2 46 35 3e cf a4 30 3e 0f ff db bd 0c 4a 7e 3e
       0.17702726 0.1725037 -0.10742008 0.24832934
000040 95 29 fb 3d 73 d8 48 be 13 97 6e 3b ab 20 db bd
       0.122637905 -0.19613819 0.0036405965 -0.1069959
000050 fc e8 42 3e eb 11 d9 bd fc 3a 31 be d4 90 87 be
       0.19034189 -0.10599121 -0.17307657 -0.26477683
000060 a1 13 1e 3e a9 7f 4c be 28 36 c8 3d d4 1b 84 be
       0.15437175 -0.19970573 0.097759545 -0.2580248
000070 1e 52 63 be a6 ee 14 3d 33 bc 51 3d 80 9d 02 3e
       -0.22199294 0.036360405 0.05120487 0.12755394
000080 43 b7 66 be 63 84 d9 bc d2 92 88 be df 4c 44 be
       -0.22530846 -0.026552385 -0.26674515 -0.19169949
000090 87 65 32 be eb 6e c9 3d 80 4a 96 be 26 88 30 3c
       -0.17421542 0.09835609 -0.29353714 0.010774648
0000a0 03 3b a5 3d 44 c6 95 bc b1 be 34 3d ae 09 36 3e
       0.08067896 -0.018283017 0.04412717 0.1777713
0000b0 92 7f 00 bd 4f 78 26 be b1 1f 5e bd a8 d6 2a 3b
       -0.03137166 -0.16256832 -0.054229442 0.0026067887
0000c0 15 5e 41 be b0 84 08 be e8 62 5c 3d 8e bf 04 be
       -0.18883546 -0.13331866 0.05380526 -0.12963697
0000d0 8e ee 30 be b2 c3 34 3e 1a c3 30 3d 6a b0 1c 3e
       -0.17278501 0.17652777 0.043154813 0.15301672
0000e0 7e 6f 1a be ad a8 1a be 1d 63 3c 3e be 98 cc bc
       -0.15081593 -0.15103407 0.18397184 -0.024975177
0000f0 77 ee 5b be ac fa 70 be 47 eb c2 bd c7 a5 08 3e
       -0.21477686 -0.23533124 -0.09517532 0.13344489
000100 42 fa 2d 3e d1 ff ab 3d 88 16 49 3d 3c af d5 3d
       0.16989997 0.083984025 0.049093753 0.10433814
000110 b5 47 c4 bd 33 2d 1e be 77 53 16 be ec 69 05 bd
       -0.095839895 -0.1544693 -0.14680277 -0.032571718
000120 03 53 07 be ef a9 72 3e 6c 3f c5 bd 1e 3b 8a be
       -0.1321526 0.23697637 -0.096312374 -0.26998228
000130 86 84 0e be eb 54 a1 3d c8 a3 67 be bf 3f 8b bd
       -0.13917741 0.07877525 -0.22621071 -0.06799268
000140 51 aa 6b 3e 11 da 04 be ec 31 a4 3d 3a cc 27 3e
       0.2301419 -0.1297381 0.08017334 0.163865
000150 0b 2b 64 bd c9 3b 1d 3d 18 2a 35 bd 29 f1 e7 bc
       -0.05570511 0.038387094 -0.044229597 -0.028313236
000160 e8 81 21 3d 42 99 17 3e f2 2e 2f be e9 82 76 3e
       0.03943053 0.14804557 -0.17107752 0.24073376
000170 31 52 80 be a2 b2 51 bd 21 dc 14 be dd 31 40 bd
       -0.25062707 -0.05119575 -0.14537098 -0.046922553
000180 a2 fa b3 3d 3c 44 68 3d c9 2a 0a 3e 64 fc 36 be
       0.08788039 0.0567057 0.13492884 -0.17869717
000190 65 3f ca 3c 00 e0 8d be db 51 68 3e b0 d6 75 bd
       0.024688432 -0.2770996 0.22687475 -0.060019195
0001a0 61 39 70 be 53 a5 6a 3d 41 98 51 be 83 d0 8a 3d
       -0.23459388 0.05728657 -0.20468237 0.06778052
0001b0 45 63 34 be b9 3f 0c 3e d1 8b 95 3d 4d c9 f3 bd
       -0.17615993 0.13696183 0.073020585 -0.119036295
0001c0 63 25 59 be 99 3a 93 be ba 2e 5c 3e f9 65 46 bd
       -0.21205668 -0.28755644 0.215022 -0.048437092
0001d0 82 c3 64 3e 59 12 ba bd c6 1a ad bd e2 cc 9f 3d
       0.22340205 -0.09085531 -0.08452372 0.0780275
0001e0 52 d8 42 be d8 1f 00 3d c9 83 0a 3e cd ac 07 be
       -0.19027832 0.03128037 0.13526835 -0.13249512
0001f0 79 00 1e 3e 0c 90 84 bc 86 62 08 be a2 15 39 be
       0.15429868 -0.016181968 -0.13318834 -0.18074659

policy_network.3.weight f4 [256, 128]
000000 92 43 be bc 18 f9 99 bd 90 2b 9e 3c 7f 54 b0 bd
       -0.02322558 -0.07518214 0.019307882 -0.08609866
000010 9c 46 e8 bd 09 20 94 3d 5f 3a c0 bd f7 53 91 3d
       -0.11341593 0.07232673 -0.093861334 0.07096093
000020 73 f5 ba bc c7 b7 f9 bc df 66 b9 bd 71 5b a1 bd
       -0.022822117 -0.03048314 -0.09052824 -0.07878769
000030 8d 88 bf 3a b0 94 80 bd db fb 1f 3d 59 c0 95 3d
       0.0014612839 -0.0627836 0.039058547 0.07312078
000040 27 90 1d 3d 75 22 af bd 65 42 81 3d cc 4d 82 3c
       0.038467553 -0.08551494 0.06311492 0.015906237
000050 3d 39 0c 3d 1e a5 a5 bd b2 db 07 3d 97 ba b0 3d
       0.034234274 -0.08088134 0.033168502 0.08629339
000060 18 c9 3d 3b 16 7e 3b bd cc 0f 8b 3d aa 69 3d bd
       0.0028958973 -0.04577454 0.067901224 -0.046243347
000070 0a a8 f2 bc 61 27 7a bd 92 54 cd bc d2 3c 17 bc
       -0.029621143 -0.06107271 -0.02506474 -0.009230809
000080 9d 94 85 3c 10 fb 65 3d 4f df 37 3d 5b b9 a4 bd
       0.016306216 0.056147635 0.044890698 -0.08043166
000090 bd 90 13 b9 8c 5a 86 bc 6b 6a 9c 3d 28 89 87 bd
       -0.00014072932 -0.016400598 0.07637485 -0.06617957
0000a0 c4 dd 09 bd 06 e2 53 3d fd 9e 0b bd ab a7 a5 bd
       -0.033658758 0.051729225 -0.03408717 -0.08088621
0000b0 54 52 ba bc e4 c2 64 3d 7a 60 ac bc 8b d8 18 bd
       -0.022744335 0.055849925 -0.021042097 -0.037315886
0000c0 94 1d 8e bd 1a 20 ba 3c f1 19 c4 bd f4 c7 75 3c
       -0.06939235 0.022720385 -0.095752604 0.015001286
0000d0 1a a8 68 bd 52 1f 6a 3d ef f6 8b 3c a4 bf 6d bc
       -0.05680094 0.057158776 0.01708552 -0.014511023
0000e0 2e 93 e1 bd 5a c1 8f bd 4b 0d 12 bd 2d 68 7f bd
       -0.110144004 -0.07019301 -0.03565721 -0.06235521
0000f0 14 0c 5f bd f4 0a c2 3b b6 89 c4 bc 1f ab db 3b
       -0.054454878 0.005921716 -0.023991447 0.006703749
000100 97 02 34 3d dc 27 8f bb 4b 52 3d 3d 59 7a 06 3d
       0.043947782 -0.0043687653 0.04622106 0.032831524
000110 ce 27 b4 bd 62 63 85 bb 08 fe 52 3d b4 3c 1e bd
       -0.08796655 -0.0040706852 0.051511794 -0.03863211
000120 38 e0 e3 bb 0c b5 34 3c 95 bc a6 bd 22 92 95 3c
       -0.006954219 0.011029493 -0.08141438 0.018258158
000130 31 04 f9 bc 26 fe e3 bc 2f bc 1d 3d 16 e1 30 3d
       -0.030397506 -0.027831148 0.038509544 0.04318341
000140 57 05 52 bd c5 fa b5 bd 09 de b4 3c 13 99 1a bd
       -0.051274624 -0.08885721 0.02207853 -0.03774364
000150 d2 e4 0e 3d e5 d9 a7 3d 1e 73 5d 3d 06 54 f6 bc
       0.03488619 0.08195857 0.054064862 -0.030069362
000160 5d 0f a2 bc cb a3 ff bc 80 ae 24 bc d7 0a 9d bd
       -0.019782716 -0.031206032 -0.01005137 -0.07668083
000170 d6 40 aa bd 5c 7c b2 bd 33 d6 b9 bd 89 24 ed bb
       -0.08313148 -0.08715126 -0.090740584 -0.0072370213
000180 8f 86 03 3c 05 7c d0 3c 54 c6 80 bd a9 45 a3 3c
       0.008027687 0.025449762 -0.06287828 0.019930677
000190 47 d7 b1 bd e0 ab 83 3c a7 61 66 bd 2b 09 88 3c
       -0.08683639 0.016073167 -0.056245472 0.016605934
0001a0 0d ba 76 bc b3 f9 53 3d 6f d8 58 3c d2 37 41 3d
       -0.015059006 0.051751804 0.013235196 0.047172375
0001b0 76 42 a3 3d e1 2b 56 3d b2 b3 c2 3a ac ed a2 3d
       0.07971661 0.05228794 0.0014854579 0.079554886
0001c0 81 3d 0c 3c 3b 48 7d bc 39 f6 12 bc b1 27 26 bd
       0.008559586 -0.015459116 -0.008969837 -0.040565196
0001d0 92 ed 1f bc 52 cf 2e bc eb 67 64 bd 1a 61 f9 ba
       -0.009761231 -0.010669546 -0.055763166 -0.0019026131
0001e0 18 4a 41 bc 55 18 47 bd 8e c5 95 bd 22 d8 1e be
       -0.0117974505 -0.04860719 -0.07313071 -0.15512136
0001f0 2b 17 b9 3c 87 22 7a bd d3 2a f4 bc 9d 44 39 bd
       0.022594055 -0.061068084 -0.029805576 -0.04523145
000200 15 0d 3f bd 9d c3 3e 3d 0b ef e2 3c ce a3 98 bd
       -0.046643335 0.04657327 0.027701875 -0.07453118
000210 5a 16 82 3c ac c5 ed bc 53 21 1c 3d 08 f0 5f 3d
       0.015879799 -0.029024921 0.038117718 0.05467227
000220 3f 9d 45 3c cb f0 90 bd 62 04 36 bd 22 95 9d bd
       0.012061416 -0.070771776 -0.044437774 -0.076944605
000230 f9 1a fa 3c 5a 53 81 3d 19 68 c3 3d 92 11 1f bb
       0.03053044 0.06314726 0.095413394 -0.0024271947
000240 ef a3 95 bc 2a 05 35 bd cd 14 01 3e d6 bb 86 bb
       -0.018266646 -0.044194378 0.12605591 -0.0041117473
000250 d9 76 c0 3b c1 e6 89 bd 77 2d 57 bd 1f 8f 22 bd
       0.0058735427 -0.06733466 -0.052533593 -0.039687272
000260 d3 a6 0b 3d 80 e2 d7 3b f1 c5 29 bd a4 73 58 bd
       0.034094643 0.00658828 -0.041448537 -0.05284466
000270 19 cf 10 3d cc d9 d9 bc 5d 97 83 bc 86 1b 96 3d
       0.035353754 -0.026593111 -0.016063387 0.073294684
000280 e2 6b 1d 3d bd c6 89 3d 1b 57 8d 3d 96 7a 9b bd
       0.038432963 0.067273594 0.0690138 -0.07591741
000290 18 99 33 bd 8d a8 79 3d 2a 87 72 bd d5 23 0c bd
       -0.043847173 0.06095176 -0.059210934 -0.03421386
0002a0 f9 ae 7d 3d d6 31 71 bd 28 45 d4 39 73 01 1b bd
       0.061934445 -0.058885418 0.00040487316 -0.03784318
0002b0 0b 59 54 bd ce 55 d2 bc a0 38 a7 bd d3 11 66 3d
       -0.05184273 -0.02567568 -0.08165097 0.056169342
0002c0 23 fb aa 3d 54 26 3d bd df 2c e7 bd 83 08 8b bd
       0.08348682 -0.04617913 -0.11287855 -0.06788733
0002d0 83 ea c3 bc c4 ef 50 3c 5c c5 50 3c 73 ca 38 3d
       -0.023915535 0.012752477 0.012742367 0.045114946
0002e0 bd 81 9b bb 64 0d 0b bc 17 fd 13 3d da 76 94 bd
       -0.0047456906 -0.008487079 0.036130037 -0.07249232
0002f0 30 78 7b 3d 9d 54 2e bc f3 7e 85 bd 08 0b 14 3d
       0.061393917 -0.010640291 -0.06518354 0.036143333
000300 8c 07 4d bd e0 ad 9a 3c 8c 59 ea 3c 96 98 ac bd
       -0.050056025 0.018881738 0.028607152 -0.08427541
000310 fd 47 1e bc df 59 8e 3d 4d 24 ac 3d d3 6e ba 3d
       -0.009660718 0.06950735 0.08405361 0.09103169
000320 ca fe 4c 3d b3 c4 65 3d 6b 23 90 bc 99 80 92 bd
       0.050047673 0.05609579 -0.017595014 -0.07153434
000330 d3 89 fa 3d a3 79 23 3d 96 95 a3 3b ef d1 5b 3d
       0.12233319 0.039910924 0.0049921973 0.053667005
000340 cc f1 48 3d 0f 11 27 3d 0b ad 1e 3d e5 d5 75 3d
       0.04905872 0.040787753 0.038739245 0.06001844
000350 c8 50 b1 bd 60 77 7d bd 84 c8 b1 bc 41 da 84 bd
       -0.08657986 -0.061881423 -0.021702059 -0.06486941
000360 9b 9d 51 3d 26 51 8f 3d 74 80 00 3d 01 72 68 bc
       0.051175695 0.069979 0.031372502 -0.014187337
000370 25 10 04 bd a8 72 28 3d ff 6d a1 bd 20 e8 b2 bc
       -0.03224196 0.04112497 -0.07882308 -0.021839201
000380 9f a5 2f 3d 2b 6e 81 bd 9e d6 06 3d cd 7c b6 bd
       0.042882558 -0.06319841 0.03291952 -0.089105226
000390 68 56 96 ba c4 8b c2 bd a8 8c 9b bd 90 0d bb 3d
       -0.0011469843 -0.094993144 -0.075951874 0.09133446
0003a0 97 1a a6 bd fb 15 47 3d b5 49 95 3d 5d 21 64 ba
       -0.0811054 0.048604947 0.07289449 -0.0008702481
0003b0 e1 2d cf 3d aa 06 34 3d 44 e5 8b 3d 94 f4 86 3d
       0.101161726 0.043951668 0.06830838 0.06589618
0003c0 a3 ad a6 bd 51 46 8c 3c 35 21 8c bc ae 92 c1 3c
       -0.08138587 0.017123373 -0.017105678 0.023629513
0003d0 99 7f 31 3d a9 20 a9 bd 82 e2 17 3d 3c 8c 2c bd
       0.043334577 -0.082581826 0.03708125 -0.042125925
0003e0 72 a1 5c 3d 6c 97 86 3d a2 04 95 bd bc 0a 1c be
       0.053864904 0.0657185 -0.07276274 -0.1523847
0003f0 62 00 47 bc 15 c5 1c 3c 16 d7 a2 3d bf e1 7c bd
       -0.012146087 0.009568472 0.07951181 -0.061738726

policy_network.3.bias f4 [256]
000000 de 5f 35 bd 03 90 46 3d 97 72 82 3d 3c e0 b4 bd
       -0.04428088 0.048477184 0.063695125 -0.08831832
000010 c4 aa a2 bc 30 71 cb bd bb c2 c3 bd 57 f3 ec 3c
       -0.019856818 -0.09933698 -0.09558626 0.028924627
000020 63 1b 97 3c db 39 90 bd f7 8c 37 3d e9 da c2 bc
       0.018445676 -0.07042285 0.04481217 -0.023786025
000030 1e 39 71 3b c7 d2 a9 b8 b1 80 52 3d 78 ea 57 3c
       0.0036807726 -8.097808e-05 0.05139226 0.01317846
000040 fd cd 71 3d 68 8f 77 bd 1f 66 05 bc 2c 0c ab 3c
       0.059034336 -0.060439497 -0.008142023 0.020879827
000050 a2 d2 9b bb 40 ed 0d bd ae 8a 94 bc fc 91 98 bc
       -0.004755334 -0.034650087 -0.018132534 -0.018624298
000060 ab 77 33 bd bb 16 97 bd 67 23 37 bd 97 5d 38 bd
       -0.043815296 -0.07377382 -0.044711497 -0.04501113
000070 ab a0 7d bd 98 71 c3 bc 4c 8e 37 3d a8 17 ac 3d
       -0.061920803 -0.023857877 0.04481344 0.084029496
000080 ad 50 82 bd ac 68 bc bd e5 85 67 bc 37 7d b4 bb
       -0.06363044 -0.09199652 -0.014131044 -0.005508091
000090 6f a9 f0 3c 35 65 5d 3b 80 36 22 3d 27 7b e3 bc
       0.029377667 0.0033782248 0.039602757 -0.027768685
0000a0 85 7c bb bc b0 cf 2c 3d 45 47 af bd 99 12 83 3c
       -0.022886524 0.042190254 -0.085585155 0.016000079
0000b0 d7 de 26 bd 1f 0c 8d bd c7 1d 53 bd 34 d2 ce bb
       -0.04073986 -0.068870775 -0.05154207 -0.0063116793
0000c0 8d cc a4 3b 17 d1 5e bd e9 4a 03 3c 31 7f 31 bc
       0.005029267 -0.054398622 0.008013465 -0.010833547
0000d0 2a 1e 2c 3d 33 ed 60 3d 5c 46 d8 3c 69 61 83 bd
       0.042020954 0.05491371 0.026400737 -0.06415064
0000e0 1e 21 a0 bd 07 90 a3 3c be 99 a8 bd de e7 3d bd
       -0.078188166 0.019966139 -0.08232449 -0.046363704
0000f0 d3 f6 de 3b 65 1e ab 3c e2 98 c4 bd d7 19 17 3d
       0.006804326 0.020888517 -0.095994726 0.036889877
000100 23 89 8f bd 00 27 50 3b c6 61 05 bd 49 74 b3 bd
       -0.07008579 0.0031761527 -0.032563947 -0.08762414
000110 9a f6 e1 3c a8 58 91 3c 51 b2 50 3d d5 53 c4 bc
       0.02758341 0.01774247 0.050951306 -0.023965755
000120 4f 3d b4 3d 2f 80 77 3d c4 83 50 3d ed 8e 7f bd
       0.08800756 0.06042498 0.05090691 -0.062392164
000130 a2 a4 e0 bc 81 ea ca bc 69 90 f4 3c 87 b1 50 3d
       -0.027422253 -0.024770023 0.029854016 0.050950553
000140 dc 2c 0b 3d 17 a8 57 3c bc 29 bc 3c 03 89 73 3c
       0.033978328 0.013162634 0.02296912 0.014864209
000150 5f 0b 4b 3c 8f fa d2 bc 1a f4 87 bd f6 1f db bd
       0.012392848 -0.025754241 -0.066383556 -0.106994554
000160 8a 34 51 bd 92 1a c3 3b 9d 3b 76 bd ee 0a 86 bd
       -0.051075496 0.005954095 -0.060115445 -0.065450534
000170 04 03 64 bd 87 d6 70 3a d5 54 1c 3c b1 4b 34 bd
       -0.05566694 0.00091872405 0.00954171 -0.044017497
000180 38 73 0f 3c e5 df ac bc ce 80 86 bc b6 36 18 bd
       0.008755498 -0.021102855 -0.01641884 -0.03716155
000190 6b 2e 58 bd 25 41 b2 bc d2 a0 20 bd ce 36 37 3d
       -0.052778643 -0.021759579 -0.03921587 0.04473
0001a0 7c 66 98 39 01 dd b1 3d 99 ce 8e bd 1c 25 88 3d
       0.00029068056 0.08684731 -0.06972999 0.06647703
0001b0 fd e8 c8 bc 83 c7 58 3d 05 34 a3 3c 31 05 2d 3d
       -0.02452516 0.052924644 0.019922266 0.04224128
0001c0 4f 9b 4d 3d 04 b3 a4 bd 83 89 cb bd 17 18 f9 3c
       0.050196942 -0.08041957 -0.09938338 0.030406995
0001d0 7f 2f 2f 3a cb d2 ab 3b cc f9 09 3d 9d 2e ce bd
       0.00066827977 0.0052436343 0.03368549 -0.100674845
0001e0 47 fa 35 bc 59 0e 73 3d 1e f8 cf bb b3 48 02 be
       -0.011107034 0.059339855 -0.0063467165 -0.12723045
0001f0 b8 f7 44 3d bb 7d 0b bc 61 cd 02 bd 96 31 85 bd
       0.048087806 -0.008513863 -0.031934146 -0.065035984
000200 33 76 06 3b 6e c3 8f bd 07 b4 51 bd 60 62 dc bc
       0.002051723 -0.07019697 -0.051197078 -0.026902378
000210 75 a5 86 bd e1 33 65 bd 12 a7 15 3d 9a 9d 3f bd
       -0.06574527 -0.05595768 0.036536284 -0.04678116
000220 75 0e 08 bd fe f4 70 bd 94 fd 04 3d c0 fe 98 bd
       -0.033216912 -0.058827393 0.032468393 -0.07470465
000230 27 37 08 3d 1a 1f a8 3c 7e a6 72 bd ac b2 07 bd
       0.033255722 0.020522643 -0.05924081 -0.03312938
000240 8e e5 d0 bb 11 70 9e bc 31 78 47 bd 73 d2 33 bd
       -0.0063750213 -0.019340547 -0.048698608 -0.043901872
000250 1b 54 b3 bd ee e4 8d bc e0 00 12 3d d1 b4 d0 bd
       -0.08756276 -0.017321076 0.035645366 -0.10190738
000260 88 a0 73 3c ef 02 98 bd 71 a3 09 3d 48 38 86 ba
       0.014869817 -0.074224345 0.033603135 -0.0010240162
000270 9d 27 9a 3d 10 e7 2c bd 67 94 33 3d ea 8d 0e 3b
       0.07527087 -0.042212546 0.0438427 0.0021752068
000280 6d 71 3d 3d 1c b5 1b 3c fe c1 af bc 63 f7 8e bd
       0.04625075 0.009503629 -0.021454807 -0.06980779
000290 a1 c2 86 bd c7 f5 4c bd e2 a9 77 bd ac 46 1f bd
       -0.06580091 -0.05003908 -0.060464747 -0.038885757
0002a0 10 d9 a4 3c df 5c d1 bc df f7 b7 3c 9c f8 db 3b
       0.020123035 -0.02555698 0.022457061 0.006712986
0002b0 08 ae 15 3d aa 19 50 3d 9c 80 ad bd 0d a0 47 3d
       0.036542922 0.050805725 -0.08471796 0.04873662
0002c0 36 71 db 3c a3 94 e1 bc d3 5f f0 3c 0f 77 bd bd
       0.026787382 -0.027536696 0.029342568 -0.09251224
0002d0 75 1d 19 bb 15 ab 95 bd 0a 6e 84 bb b3 72 aa bd
       -0.0023363505 -0.07308022 -0.004041438 -0.083226584
0002e0 21 bb 9f bc 73 7f aa bd 91 8a 5f 3d 30 9d c5 bd
       -0.01949841 -0.0832509 0.054575507 -0.09649122
0002f0 83 eb 08 3c e0 cb 0a 3d 00 91 ac 3b 17 f8 ae bb
       0.008356932 0.033885837 0.005266309 -0.005339633
000300 ac 84 ca 3c e1 71 89 bd 25 de 7c bd e4 d0 13 bc
       0.024721466 -0.06711174 -0.06173529 -0.009021971
000310 ff ed 90 bc f5 8f 42 bd 82 15 fa bb a9 ef 67 3d
       -0.01769161 -0.04750057 -0.0076319585 0.056625042
000320 64 b3 cc bd 47 f0 84 bd d8 b6 b2 bd 9c 64 00 3c
       -0.099951535 -0.06491142 -0.08726281 0.007836487
000330 02 87 bb ba 06 ee 6f bc 42 7f b6 bd f6 3a b2 bc
       -0.0014307203 -0.014644152 -0.08910991 -0.02175663
000340 af 26 92 bd 5b 46 ae bd ce 6e 8a bd 4c 8c ab bd
       -0.071362846 -0.08509513 -0.067594156 -0.08376369
000350 a3 72 bb 3c d7 76 99 3d df 4c 33 3b ce cd ce bd
       0.022881811 0.0749337 0.0027359051 -0.10097848
000360 1d 5d fc 39 44 9f 4c bd 2d c3 17 bd 48 a0 df bd
       0.0004813456 -0.049956575 -0.03705137 -0.10919243
000370 d9 a3 99 bd b0 26 1c 3d d2 0c 0a 3d e1 8b f5 3c
       -0.075019546 0.038122833 0.033703633 0.029973926
000380 ab 3d f4 bc b6 e7 c6 bd 41 63 28 3d 10 17 1f 3d
       -0.029814562 -0.09712164 0.04111028 0.038840353
000390 9f df 07 bc 86 74 93 bb 45 9f 8f bd 20 ee 0e 3d
       -0.0082930615 -0.0044999747 -0.070128 0.034895062
0003a0 99 a0 6d 3d 4e 5d d2 bd 7e bc f4 bc d4 42 99 bd
       0.058014486 -0.10271703 -0.029875036 -0.074834496
0003b0 17 41 3a bc db 4f 9e bc f0 f1 79 3b 91 6c 28 bd
       -0.011368058 -0.019325187 0.003813859 -0.041119162
0003c0 20 bf 1c bd e4 4c 54 3b ad 0f 30 3d 5b aa 0f 3d
       -0.03826821 0.0032394463 0.0429837 0.035074573
0003d0 65 0a 8e bc 29 65 9b bd 6b 88 8c 3d 0f 79 fb 3b
       -0.01733894 -0.07587654 0.06861957 0.0076743434
0003e0 59 36 00 3c 06 0a f5 3c f4 85 a0 bc 96 e7 03 bd
       0.0078254575 0.029912006 -0.019595124 -0.03220328
0003f0 bd b3 5a 3d 9b b7 88 bd 70 ad 23 bc 53 4f 3c bc
       0.053394068 -0.06675645 -0.009990081 -0.011493522

policy_network.6.weight f4 [128, 256]
000000 da d2 48 bb e3 6b 42 bd 26 97 8c 3d 44 60 62 3c
       -0.0030643255 -0.04746617 0.06864767 0.013816897
000010 13 1a 85 bd d5 30 09 bd 21 c2 94 3d b0 cd d7 bb
       -0.06499114 -0.033493835 0.0726359 -0.006585799
000020 0a d2 b4 bd 2b b4 94 3c 75 9b 95 3d c6 3a 4e 3d
       -0.08829124 0.018152317 0.07305042 0.05034902
000030 6e 32 b5 bd ae 4b 7e 3d d3 0c 93 3d 5f 0e 95 3d
       -0.08847509 0.062083893 0.071801804 0.07278132
000040 be 90 d0 3c 80 52 7f 3b 4b 91 2e 3d 4b bf 0b 3d
       0.025459643 0.0038959086 0.04261903 0.034117978
000050 22 f7 4e bd 94 84 dd 3b ea 2e b4 bd 81 c3 1a bd
       -0.050528653 0.0067601893 -0.08798011 -0.037784103
000060 7b 7c 82 3b e0 ce c0 bb b6 02 f0 bd ec 8a 7d 3d
       0.0039821244 -0.0058840364 -0.11719267 0.061900064
000070 c1 e6 ff bc d6 85 4a 3d 1b 2b 22 bd 76 10 a0 bd
       -0.031237962 0.049444042 -0.03959189 -0.0781564
000080 11 83 83 3b 97 e2 86 3d 36 c2 04 39 ea 6b 22 3c
       0.004013427 0.06586187 0.0001266085 0.009913424
000090 68 f9 70 bd 1a 64 86 bd ad 42 b7 bb 19 9d 4f bd
       -0.058831602 -0.065620616 -0.005592665 -0.05068693
0000a0 4f d9 45 bd da 84 1c bd a8 8a 08 3d 6f 77 03 bc
       -0.048302945 -0.038212635 0.033335358 -0.008024081
0000b0 c8 4a 37 bc b2 22 14 3d 40 71 b7 3b 00 63 71 3d
       -0.011187263 0.0361659 0.0055982172 0.058932304
0000c0 d8 f1 8c 3d 83 ee e0 bc b6 41 8e 3c cf 82 e9 3d
       0.068820655 -0.027457481 0.017365318 0.11401903
0000d0 b0 4f 80 bc 16 b3 5a bc 56 ed 4b 3c a9 c9 b9 bb
       -0.015662998 -0.0133483615 0.012446722 -0.0056697917
0000e0 d8 71 03 bc a6 89 8b 3d 4c 51 9b bc 90 38 e3 bc
       -0.008022748 0.06813364 -0.018959664 -0.027736932
0000f0 f9 59 ed bc 70 b7 18 3d 69 3b 9b bc b4 52 9b bc
       -0.028973566 0.037284315 -0.018949227 -0.018960334
000100 fb 94 d5 3c 33 19 b6 bb 61 2e 19 3d 02 75 be 3d
       0.026072016 -0.005557203 0.037397746 0.09299661
000110 88 75 c3 3d 49 98 7d 3d 04 e4 21 3d 29 4e da bb
       0.09543902 0.06191281 0.039524093 -0.0066621494
000120 9a ea 0a 3b 30 a3 39 bd 76 b3 fa 3b c1 3a 7d bd
       0.0021196962 -0.045321643 0.007650788 -0.06182361
000130 be d2 82 bc 9b 9e 7c bd ea 86 05 3c 76 47 9a bc
       -0.01596963 -0.061674695 0.008149842 -0.018832903
000140 6e bb eb 3b 5d 21 19 bc 70 ca 05 3d 4c 13 7c bc
       0.007193974 -0.009346333 0.032663763 -0.01538546
000150 fb ad 8f 3d eb e0 22 3c 0d 39 ce bb d8 74 87 3d
       0.07015606 0.00994132 -0.006293422 0.06614083
000160 eb f4 92 3d 41 d9 79 bd 7a 1f 30 bd 1e 3e 54 bd
       0.07175621 -0.060998205 -0.04299877 -0.051817052
000170 73 5c 28 bd 76 47 58 bd a0 e2 4c bc 82 94 1f 3d
       -0.04110379 -0.052802525 -0.0125052035 0.038959987
000180 c6 70 12 bd e8 52 dc bc e3 05 86 3d 1c 2b c1 3d
       -0.03575208 -0.026895002 0.065440916 0.094320506
000190 6e e5 57 bd ce ac 0d bd 28 ee 3f 3d 2c ca 4c 3c
       -0.052709036 -0.034588628 0.046857983 0.012499373
0001a0 78 9b aa 3d 4b 08 f6 bc fb 03 f0 3c c8 a3 9b bb
       0.083304346 -0.030033251 0.029298773 -0.004749749
0001b0 18 82 44 bc d7 be 4b bc e3 64 96 bc 98 0a ed 3c
       -0.011993907 -0.0124356365 -0.018358653 0.028935716
0001c0 ba 06 86 3d 78 c3 d3 3c 82 2d b4 bc 66 2b 0f 3d
       0.06544252 0.025850043 -0.021994356 0.034953497
0001d0 cc 58 aa 3d 1f e9 c4 bc eb 48 2f 3d 47 4d 9b bb
       0.08317718 -0.024036942 0.04279415 -0.004739437
0001e0 10 e0 23 bb c0 62 2c bd 7c be 96 bd 18 2b 90 3c
       -0.0025005378 -0.042086363 -0.07360551 0.017598674
0001f0 26 7e 1e 3c 91 8c 42 3c fc c3 28 3c ce eb 9f 3c
       0.009673631 0.011874334 0.010300633 0.01952162
000200 1c 57 ef 3c 5c dc ad bd 11 a0 b1 bc 3f 15 1c 3d
       0.029216342 -0.08489296 -0.02168277 0.0381062
000210 b6 1f 12 3c e5 a6 45 3d 6d 1c 56 3d b6 03 5d 3b
       0.008918693 0.048254866 0.052273203 0.0033724136
000220 04 d4 d9 3d ec bf be 3d c5 eb af bb 72 6a 79 bd
       0.10636142 0.0931395 -0.005368682 -0.06089253
000230 44 7f 9f bb 23 52 c8 3c 68 e6 fa ba 38 d9 78 3d
       -0.004867466 0.024453228 -0.0019142153 0.06075403
000240 c1 42 aa 3b 4b 14 ab bc 9c a5 3a bd a7 72 18 3d
       0.005195946 -0.0208837 -0.045568094 0.037218716
000250 9b 40 7d 3c 10 34 bb 3c 2b 65 55 3b b0 d1 77 bc
       0.015457298 0.022851974 0.0032561522 -0.015125677
000260 ab 98 69 bd 7e 6c 27 bd f3 04 48 3d c4 d4 04 3d
       -0.05703036 -0.04087495 0.048832845 0.03242947
000270 7b b7 9b bd 20 f3 92 3c f3 cd c5 3b a0 4d 11 bd
       -0.076033555 0.017938197 0.006036514 -0.03547442
000280 64 56 77 3b f8 0f 8d bc e7 63 e4 bb 6e 24 0c 3d
       0.0037740702 -0.017219529 -0.006969917 0.03421443
000290 9b 56 00 bd 88 d7 16 bd 24 ca 34 bd 88 58 97 3d
       -0.031332593 -0.03682664 -0.04413809 0.07389933
0002a0 2d 25 03 3d fa 1a 83 bd 22 83 37 3c c6 b3 06 bc
       0.032017875 -0.0640163 0.011200698 -0.008221572
0002b0 e5 c1 d2 bc c4 33 04 bd 35 2b 24 3d e6 78 8c 3d
       -0.025727222 -0.03227593 0.040080268 0.06858997
0002c0 49 8d 43 3c ae b0 65 bd 10 ca 2f 3d 9a e7 a3 bc
       0.0119355405 -0.056076698 0.04291731 -0.020007897
0002d0 71 24 c9 3b 1d 3f 53 bd 7d bf 06 bd 75 71 2a bd
       0.0061383774 -0.05157386 -0.03289746 -0.041612107
0002e0 e7 0f 4f bc 60 fd b2 bb 56 59 0b 3e a0 cb 98 bc
       -0.012638069 -0.0054623336 0.13608298 -0.018651783
0002f0 bc ef 29 3d 04 aa 87 bd 30 c7 ea 3b 47 78 67 bd
       0.041488394 -0.06624225 0.0071648583 -0.05651119
000300 30 48 33 3e df 4d 3c 3d d5 14 06 3d 23 df 9f bb
       0.17508006 0.0459727 0.03273471 -0.004878895
000310 c7 d8 92 3c 02 a7 2e bd b4 77 16 bd 5b 78 3c 3c
       0.017925633 -0.04263974 -0.03673525 0.011503304
000320 a6 e5 b9 3d 1b 8a af 3d e8 75 5f 3c e7 69 7c bd
       0.09077005 0.085712634 0.013638951 -0.061624434
000330 76 04 12 3d 7c 0e 88 bc a0 12 b8 3b 28 04 a0 3c
       0.035648786 -0.01660847 0.0056174546 0.019533232
000340 39 8f 2f 3d 18 c1 ec bc 1f 9a b3 bc 28 10 b1 bd
       0.042861197 -0.028900668 -0.021924077 -0.0864566
000350 f9 f3 73 3d e8 f4 2d bd cd a9 11 3d 35 0f 81 3d
       0.059558842 -0.04246989 0.035562325 0.06301729
000360 cb ba c9 3c f3 8b a0 bc c3 00 83 bd 20 5a 24 3c
       0.024625203 -0.019597983 -0.0639663 0.010031253
000370 12 f2 3c 3d 8e 8e 4a 3d 4e 1b 98 bc af ea 95 bc
       0.046129294 0.049452357 -0.018567707 -0.018300382
000380 58 0a 5b bb c9 66 80 bd 5f 54 11 bd c1 cc 82 bc
       -0.0033422913 -0.06269605 -0.035480853 -0.015966775
000390 3e 45 5b 3d 5d 47 ca bd 66 83 1e bd 84 86 30 3d
       0.05353283 -0.09876893 -0.03869953 0.043097034
0003a0 52 bf 08 3d c0 ce 4e 3d 4c d6 d0 3a 22 51 8f bc
       0.033385582 0.05049014 0.0015933006 -0.017494742
0003b0 dd 0b 95 3c 18 27 d6 3c 93 01 d1 3c 7a 1f 1b bd
       0.018194133 0.026141688 0.025513446 -0.037871815
0003c0 f1 20 7c 3c 50 4f 8f bd 7d 21 c0 3d 13 0d ad 3c
       0.015388713 -0.069975495 0.093813874 0.021124398
0003d0 cb a2 60 3d 36 c4 27 3d 2d 87 c4 bc 61 0f 8e 3c
       0.05484275 0.040958606 -0.023990238 0.017341318
0003e0 5a 8f 38 bc 8d 0e 7f bd c1 5a 0f 3d 84 7d d0 bb
       -0.011264646 -0.062269736 0.03499866 -0.006362619
0003f0 b6 bd 22 3c 43 08 20 3d 18 eb 76 3c 6d 40 39 3d
       0.009932926 0.03907038 0.015070699 0.045227457

policy_network.6.bias f4 [128]
000000 0c fe 4a bd 9c 4d 9b bd 09 76 68 bc a1 07 ad bc
       -0.049558684 -0.07583162 -0.014188298 -0.021121802
000010 25 8f aa 3d 91 cf 95 bd bf 2a 51 bd 57 c5 75 3c
       0.08328084 -0.07314981 -0.051066156 0.015000663
000020 4f 9a 83 bc fd dd f9 3b f4 a5 9a 3c 58 37 c3 3d
       -0.016064791 0.00762534 0.01887796 0.0953204
000030 05 76 5a bd 4b 84 cd bc cc ac 46 3b 5c 14 48 bd
       -0.05333521 -0.025087496 0.0030315397 -0.04884754
000040 2a db 9b 3c 05 09 7b bd 81 ea 16 bd 45 17 89 bd
       0.019025404 -0.0612879 -0.036844734 -0.066938914
000050 93 d5 1f bd ac 5e 28 bd b2 04 69 bd b9 70 d4 bc
       -0.03902204 -0.04110591 -0.056889243 -0.025932657
000060 b2 92 9c 3c 47 f6 a7 3c 3e 37 42 bd 8c d4 4d 3c
       0.019112919 0.020503176 -0.047415964 0.012562882
000070 59 15 2a bd 8d ca d9 3a 8a 34 c5 3c 95 ef 80 bd
       -0.041524265 0.0016616151 0.024072904 -0.06295697
000080 b4 b9 33 bd 2c d9 8a 3d a7 dd 78 bd 04 57 8a 3c
       -0.043878272 0.067797035 -0.06075826 0.016887195
000090 65 63 5f bd 08 8a 8c 3d 2f f6 11 3d 19 e2 63 bd
       -0.05453815 0.06862265 0.03563517 -0.055635545
0000a0 6a 14 3c 3b fa a1 3f bc 62 f2 ac bd 40 2f f4 bb
       0.0028698691 -0.011696333 -0.08444668 -0.0074519217
0000b0 32 3a ab bc f5 0d 23 bd 33 4c 59 bd d5 39 00 bc
       -0.020901773 -0.039808232 -0.053051185 -0.007826288
0000c0 b4 31 2d bd ad 13 49 bd 86 f2 80 bd df f3 3a bc
       -0.04228373 -0.04909103 -0.06296258 -0.011410682
0000d0 89 4e 13 ba 03 94 6d bd 3a 51 3e bb aa bc c9 3d
       -0.00056193076 -0.058002483 -0.0029040114 0.09850438
0000e0 7e f1 2f bb 04 6b 1e 3c 8c bf d8 bb ca 75 24 bb
       -0.0026846821 0.009669069 -0.006614631 -0.0025094622
0000f0 58 1a e9 bc e8 19 bc 3c f2 99 8a bd df 61 88 bd
       -0.028454944 0.022961572 -0.06767644 -0.066592924
000100 2c 1f 4c bd 7c 46 b5 3d c5 ca 27 bd 22 93 7a bd
       -0.049834415 0.088513345 -0.04096486 -0.061175473
000110 a1 9f 4b bd 01 15 53 bd 29 ab 26 bd 6a dc 9b bb
       -0.04971278 -0.051533703 -0.040690575 -0.0047565
000120 fb f4 68 b9 80 1c c0 3d 6a e4 b5 bc 16 17 8d bd
       -0.00022216506 0.09380436 -0.022203643 -0.06889169
000130 f3 9a a5 3a 05 a4 7e bd f6 3f 9f 3d d4 5e 39 3c
       0.001263468 -0.06216814 0.077758715 0.011314113
000140 4b f5 dc bc 62 9c cc bc a1 bb 60 3b 44 44 74 bd
       -0.026972434 -0.024976913 0.0034291523 -0.059635416
000150 fd 59 9b bc cd a4 3f bd ef 45 c7 bc d5 26 c0 3c
       -0.018963808 -0.046788026 -0.02432534 0.023456017
000160 00 83 23 bd 7c 33 07 bd 5a 2e 51 3d b1 41 40 bc
       -0.039919853 -0.033008084 0.051069595 -0.011734412
000170 7c 38 80 3b 95 12 59 3c d8 25 ca 3b 47 af cf bc
       0.0039129835 0.013249059 0.006169062 -0.025352133
000180 13 80 2f bd 08 76 4e bd f0 1f ef bc 69 f7 22 bd
       -0.04284675 -0.050405532 -0.029190034 -0.03978673
000190 8a ac 09 bd c5 ae 81 bd 6a ea 0b 3d 89 a0 ae 3d
       -0.03361181 -0.06332163 0.0341591 0.085267134
0001a0 c3 a8 93 bd 07 42 d9 3c 8f e3 83 3d 63 97 35 3d
       -0.07209923 0.026520742 0.06439888 0.044333827
0001b0 c8 b7 76 bb b9 c3 a7 bc 51 0f 88 bd 27 27 96 bd
       -0.0037646163 -0.02047907 -0.066435464 -0.073316865
0001c0 71 23 a8 bb b6 3f 1d bb 88 dd 90 bb 73 da 2e bd
       -0.005131178 -0.0023994274 -0.00442094 -0.0426888
0001d0 8f 49 e7 bc 33 bc d2 bc e9 5f 7f 3c 44 72 89 bd
       -0.028233318 -0.025724506 0.015586832 -0.067112476
0001e0 61 48 25 3d 83 a0 29 bc 29 d8 39 bd 9f 8d ee 3c
       0.04035223 -0.01035321 -0.045372162 0.029120265
0001f0 98 a5 b2 bc 4f b3 98 3a fd 5f 8a 3c 17 d8 af 3c
       -0.021807477 0.0011650118 0.016891474 0.021465344

policy_network.9.weight f4 [7, 128]
000000 92 05 1d 3d 66 5c 03 bd 22 eb 8a 3d d4 e6 9a 3d
       0.03833539 -0.03207054 0.06783129 0.07563558
000010 d2 92 d4 3a 48 5c 96 bd 6c e4 86 3c 21 76 8f bd
       0.0016218072 -0.0734182 0.016466342 -0.07004953
000020 ce b4 1d bd 4a da 53 bd 48 08 d5 bc af a7 c8 bc
       -0.038502507 -0.05172185 -0.026004925 -0.02449402
000030 d8 ad 0d 3b 0b c6 97 bd e2 62 af bd 07 c7 d5 3c
       0.0021618512 -0.074108206 -0.08563782 0.02609588
000040 5f 84 85 bc cb 89 86 3c 03 77 a2 bd 71 44 63 3d
       -0.016298471 0.016423127 -0.07932856 0.055485193
000050 26 2e f6 bc 18 16 dc 3c 49 ef 9c bd df 4e 95 bd
       -0.030051302 0.026866004 -0.076628275 -0.07290434
000060 b4 1e 65 3c 03 8c d0 3c 25 71 99 bc 04 93 53 3c
       0.013984371 0.025457388 -0.01873071 0.012913469
000070 7c ac 9a bd 9f 2b ff bc f0 25 44 bc 45 1d b4 3d
       -0.0755243 -0.03114873 -0.011971936 0.08794645
000080 2b 42 9d bd e8 76 4b bd 4d 7e 61 bc 68 39 54 bd
       -0.07678636 -0.049673945 -0.013763023 -0.05181256
000090 1c 38 8a 3d ac 6b 7b bd 9d f2 06 3d a3 3a a2 bd
       0.06748983 -0.06138198 0.032946218 -0.0792134
0000a0 d5 de fd 3c 72 81 06 bd 6e 82 6d 3c 73 b4 84 3d
       0.030990044 -0.032838292 0.014496429 0.064797305
0000b0 95 43 5d 38 d5 9b 77 bd f1 84 54 bd 81 68 fe bb
       5.2753447e-05 -0.060451347 -0.051884595 -0.0077639227
0000c0 11 9e 6c bb 85 2c 54 bc 68 fc 5a 3d c4 0a 52 bd
       -0.0036104957 -0.012950067 0.05346337 -0.0512798
0000d0 64 43 83 3d f8 af 95 bd e7 5c 03 3c 04 24 c0 3c
       0.06409338 -0.07308954 0.008017755 0.023454674
0000e0 4c 9d 5f 3d ae c1 b1 3c 02 3c 2e 3c 56 c0 90 3d
       0.05459337 0.021698799 0.010634424 0.07067935
0000f0 35 0f 30 bd f7 dc 7d 3d 2c 30 89 bd af 21 64 3d
       -0.042983253 0.061978307 -0.06698641 0.055696186
000100 6b fb c6 3c 9c f5 02 3c 75 f4 04 3c 77 d3 33 3c
       0.024289807 0.007993128 0.008114924 0.01097571
000110 58 d4 40 3d f2 13 0e 3d 6b 30 d8 3c 4f 97 3e bd
       0.047077507 0.03468699 0.026390275 -0.046531018
000120 4b f5 94 3d 88 9d b3 bb e3 a6 58 3c 86 ab 49 3d
       0.072733484 -0.0054814257 0.013223383 0.049235843
000130 18 d7 be bc ca 37 73 3d 75 2b 6c bb 46 62 8f 3a
       -0.023295924 0.059379376 -0.0036036645 0.0010939322
000140 f0 68 3c bc 68 97 61 39 e1 bf 16 bb 81 14 28 3c
       -0.011499628 0.00021514075 -0.0023002552 0.010258795
000150 7a 34 9d 3c e1 97 b0 3c 20 12 81 bd ff 36 0c 3b
       0.019190062 0.021556797 -0.06302285 0.0021395085
000160 fb a5 af bc 66 22 01 3d 06 3d 92 bd 1f ab 3a bc
       -0.02144145 0.031526946 -0.071405455 -0.0113933375
000170 03 bb a8 3d 43 3a 83 bc 78 c6 2b bd 94 fe 81 bd
       0.08238795 -0.016018992 -0.04193732 -0.06347385
000180 db df 1c bd ed 31 30 3d 30 ba 4b 3d d0 67 c9 bc
       -0.038299423 0.043016363 0.04973811 -0.024585634
000190 d6 cf 47 bc 8b c4 88 3d e6 cf 52 bc 9a 6b 18 3c
       -0.012195548 0.066781126 -0.01286695 0.009302998
0001a0 05 b1 ac 3b 9e 31 ab bd a9 ca a8 3d a0 02 82 3d
       0.005270126 -0.08359073 0.08241779 0.06348157
0001b0 e5 b7 4c bd 07 07 83 bd bb 9a 60 bd 40 c5 42 bd
       -0.049980063 -0.06397825 -0.054835062 -0.047551394
0001c0 ed 6a 12 bb b3 b9 84 bd 5b 0b 45 3b f1 6f 79 bd
       -0.0022341565 -0.06480732 0.0030066583 -0.06089777
0001d0 7a ae 90 bd e7 dc 93 bd 18 13 76 3d db 78 46 3d
       -0.07064529 -0.07219868 0.060076803 0.0484551
0001e0 99 8f e5 3c 1e bb a9 bc 5d d6 89 3c 75 d4 1a bc
       0.028022574 -0.020719107 0.01682585 -0.009450068
0001f0 34 aa 97 bb 3f a1 91 bd 34 08 0e 3c 24 62 ca bc
       -0.004628444 -0.071108334 0.008668948 -0.024705
000200 5b 87 45 bc 23 7b e3 39 1c 1c 49 3d 76 1e a9 3c
       -0.012056197 0.00043388558 0.049099073 0.020644408
000210 86 2f af 3c 96 99 27 bd 0f c2 a0 3d 7f d6 57 bc
       0.021384966 -0.040917955 0.07849514 -0.013173698
000220 7a 40 9d 3d 45 2a d5 3c 2d da 53 bd fb 82 81 3c
       0.076783136 0.026021132 -0.05172174 0.015809527
000230 71 41 2e bb 1a bc 88 bd 45 ff 84 3c d9 46 11 ba
       -0.00265893 -0.066765025 0.016235003 -0.0005541868
000240 61 6c 2f bc be 23 d2 bb cf d2 4b bd e8 43 05 bd
       -0.010706992 -0.006412952 -0.04976159 -0.032535464
000250 6d 48 62 bc 45 4d 2d 3c 6a 0f 50 3a f7 03 57 3d
       -0.013811213 0.0105775045 0.0007936867 0.052494016
000260 4e d8 0b bd d4 f8 ed bc ff 85 00 bd eb 97 e8 bc
       -0.03414183 -0.029049315 -0.03137779 -0.028392753
000270 73 af 9a bd e5 0b 5d 3c 65 a0 12 bd 89 49 24 3d
       -0.075529955 0.013491605 -0.035797495 0.04010919
000280 77 ae 58 bc ed 41 fb 3c 37 a9 83 bd 5b f8 3c bc
       -0.013225189 0.030671084 -0.064287595 -0.011533822
000290 5f e1 48 bd 43 22 1b bd 77 cc 67 bc 5f 13 04 3d
       -0.049043056 -0.03787447 -0.014147869 0.032245036
0002a0 f4 e4 d0 3c 82 d1 92 3d 16 c5 a5 3c 0d 09 ab 3d
       0.025499798 0.07168867 0.02023558 0.08351336
0002b0 39 e4 a1 3c 7e 09 66 bd cb d7 b2 3d 6a d9 42 3c
       0.019762145 -0.056161396 0.087325655 0.011892656
0002c0 e2 7d 13 3c 7a 12 15 bc 92 c0 cf 3c ee 69 89 bd
       0.009002181 -0.009098643 0.02536038 -0.067096576
0002d0 b1 d5 83 3c 70 e0 8f 3d 32 62 d1 3c 8c 9a 30 bc
       0.016093107 0.0702523 0.025559518 -0.010779034
0002e0 ee 0f 6c 3d c4 cc db 3c ef 77 a1 ba 87 f4 5f bd
       0.05763238 0.026831038 -0.0012319068 -0.05467656
0002f0 ed 34 88 3c 7e de 36 3d f4 cf 62 3d 35 9f 96 bc
       0.0166268 0.04464578 0.0553741 -0.018386463
000300 75 ef 87 bd 13 4d e8 bb 90 b2 76 bb 0e 38 3e 3d
       -0.0663747 -0.007089266 -0.0037643053 0.046440177
000310 ea c7 fd bc 04 ab 68 3d d9 3a 8e ba ca 28 43 bd
       -0.030979116 0.05680372 -0.0010851278 -0.04764632
000320 45 c0 aa ba 78 03 32 bc 22 c6 66 bd 24 92 a4 b9
       -0.0013027271 -0.010865085 -0.056341298 -0.000313894
000330 51 18 b9 bb 44 ea 80 3d 11 7b c4 bc b8 90 0d bc
       -0.0056486507 0.062946826 -0.023984464 -0.008640461
000340 90 6e 25 bb a7 ed 60 bc b6 c0 87 3b a6 cb 85 bd
       -0.0025242902 -0.013728536 0.004142846 -0.065329835
000350 21 5e 0d 3d ac ab 9c bd 42 7d 39 bd 75 42 8a bc
       0.034513596 -0.07649931 -0.04528547 -0.016877392
000360 99 e7 13 3d ce 6f e3 3c ff e3 ad 3c c8 d3 27 bb
       0.03610954 0.027763274 0.021226881 -0.002560841
000370 b5 b0 9c 3c 7a 42 de 3c c3 04 b5 bb d3 7d 76 bc
       0.01912723 0.027131308 -0.0055242493 -0.015044647
000380 1e 53 49 3d a6 66 6c bd 70 6d ff bb 59 fc a3 bd
       0.049151532 -0.05771508 -0.0077950284 -0.08007116
000390 b1 7f f9 bb 5b cd 99 3d 4f 32 26 3b 3c 39 8c 3b
       -0.007614099 0.075098716 0.0025359576 0.004279284
0003a0 ea bd 67 bb 50 55 95 bc ed 5b b8 3c 7a 6c 36 3d
       -0.0035361 -0.018229157 0.022504771 0.044537045
0003b0 db 4b 6f bd 34 26 6b bc fa 85 eb 3a 11 41 1b bc
       -0.05842195 -0.01435237 0.0017969005 -0.009475962
0003c0 63 fc c8 bc bd f7 3a bd 56 35 9f bd 5f 41 93 3c
       -0.02453441 -0.045646418 -0.07773845 0.017975507
0003d0 dc 67 b7 bd 9a 3a 8f 3b 3a ac 21 bd 08 9c 2a 3d
       -0.089553565 0.0043709995 -0.03947089 0.04165271
0003e0 0c 4d 10 3a 0c be 6b 3c ef 12 3c 3c 81 52 ca 3b
       0.0005504645 0.014388572 0.0114791235 0.006174386
0003f0 51 2c b2 bc 14 64 71 3c fe 4b f5 3c 22 c8 61 3d
       -0.021749647 0.014733333 0.029943462 0.055122502

policy_network.9.bias f4 [7]
000000 c8 c8 89 3b a0 c0 89 3b 52 48 45 3b 01 a6 55 ba
       0.004204843 0.004203871 0.003010292 -0.00081500417
000010 b5 ad ff 39 57 d5 42 3b 27 ee bf 3c
       0.00048766812 0.0029729211 0.02342899

exp_avg f4 [128, 15]
000000 3e 14 c1 38 5d 6d 18 38 80 be 7d b8 d7 dc 9e 38
       9.2067276e-05 3.6341477e-05 -6.0497317e-05 7.575162e-05
000010 db d9 36 38 08 ad bb b8 de f6 7e b7 ad 9d 4c b6
       4.3595075e-05 -8.9490844e-05 -1.5197058e-05 -3.0490148e-06
000020 39 a8 58 35 bb 18 aa b7 db a8 ad b7 ea bb 3e b6
       8.0711067e-07 -2.0277095e-05 -2.0701837e-05 -2.8421587e-06
000030 2d cb d8 b5 68 b1 86 35 93 e3 2e b4 24 d4 f0 b8
       -1.6152386e-06 1.003541e-06 -1.6287804e-07 -0.00011483606
000040 f7 b5 6d b8 33 35 b5 38 be f5 af b8 4b 4f 6c b8
       -5.667467e-05 8.640662e-05 -8.390423e-05 -5.6340632e-05
000050 d6 28 ee 38 04 f8 50 37 38 2e 5d 35 ef 2b a3 34
       0.00011356331 1.2455512e-05 8.239617e-07 3.0393082e-07
000060 70 6e ea 37 fd cf be 37 cc f7 a3 b5 ec 1f e0 34
       2.79464e-05 2.2746617e-05 -1.2216565e-06 4.1746478e-07
000070 50 91 b9 34 82 2c fb 33 fb 43 8b b7 76 49 42 b6
       3.4564664e-07 1.1696194e-07 -1.6601747e-05 -2.8951013e-06
000080 21 18 e0 36 7e 6e 65 b7 20 80 11 b7 89 15 30 37
       6.678529e-06 -1.367519e-05 -8.672505e-06 1.04954315e-05
000090 0e 41 99 36 8c 97 80 35 2e d5 39 b5 cd 97 a4 35
       4.5673287e-06 9.580849e-07 -6.922809e-07 1.2263132e-06
0000a0 6a b0 c7 36 11 93 f2 34 c2 83 1a 35 e7 4b b1 35
       5.9511995e-06 4.5183018e-07 5.7561203e-07 1.3209618e-06
0000b0 9d d6 79 b3 00 00 00 00 00 00 00 00 00 00 00 00
       -5.817002e-08 0.0 0.0 0.0
0000c0 00 00 00 00 00 00 00 00 00 00 00 00 00 00 00 00
       0.0 0.0 0.0 0.0
0000d0 00 00 00 00 00 00 00 00 00 00 00 00 00 00 00 00
       0.0 0.0 0.0 0.0
0000e0 00 00 00 00 00 00 00 00 00 00 00 00 00 00 00 00
       0.0 0.0 0.0 0.0
0000f0 c5 2c be b7 f5 93 26 b7 30 6e 85 37 79 64 98 b7
       -2.2670612e-05 -9.92882e-06 1.5906146e-05 -1.8166598e-05
000100 09 92 5a b7 1a ff 4f 37 eb 39 56 36 2b cb 98 b5
       -1.3027814e-05 1.2397557e-05 3.1922198e-06 -1.1384012e-06
000110 ac 10 89 33 0e 42 33 36 a5 19 e2 36 36 78 36 b5
       6.382592e-08 2.6711527e-06 6.7383103e-06 -6.7975213e-07
000120 5a 3e c8 35 27 5e c9 b4 73 00 c8 b4 00 00 00 00
       1.4919308e-06 -3.7507672e-07 -3.725323e-07 0.0
000130 00 00 00 00 00 00 00 00 00 00 00 00 00 00 00 00
       0.0 0.0 0.0 0.0
000140 00 00 00 00 00 00 00 00 00 00 00 00 00 00 00 00
       0.0 0.0 0.0 0.0
000150 00 00 00 00 00 00 00 00 00 00 00 00 00 00 00 00
       0.0 0.0 0.0 0.0
000160 00 00 00 00 00 00 00 00 7d 97 8e 31 7a 4b ff af
       0.0 0.0 4.149966e-09 -4.643786e-10
000170 0c 65 4c b0 ff 29 f1 31 26 aa be 31 6c 58 ae b2
       -7.4358364e-10 7.0187975e-09 5.5490714e-09 -2.0296476e-08
000180 24 7d 5e b1 9b 5c a5 b1 59 20 92 30 a2 93 51 b1
       -3.2376386e-09 -4.81266e-09 1.0632092e-09 -3.0497422e-09
000190 1d 96 19 b1 7b cf 02 2f cc ab 8e 2d 61 68 0f 32
       -2.234976e-09 1.1897143e-10 1.6219824e-11 8.3474285e-09
0001a0 c8 14 7f b1 00 00 00 00 00 00 00 00 00 00 00 00
       -3.7119197e-09 0.0 0.0 0.0
0001b0 00 00 00 00 00 00 00 00 00 00 00 00 00 00 00 00
       0.0 0.0 0.0 0.0
0001c0 00 00 00 00 00 00 00 00 00 00 00 00 00 00 00 00
       0.0 0.0 0.0 0.0
0001d0 00 00 00 00 00 00 00 00 00 00 00 00 00 00 00 00
       0.0 0.0 0.0 0.0
0001e0 00 00 00 00 00 00 00 00 00 00 00 00 00 00 00 00
       0.0 0.0 0.0 0.0
0001f0 00 00 00 00 00 00 00 00 00 00 00 00 00 00 00 00
       0.0 0.0 0.0 0.0
000200 00 00 00 00 00 00 00 00 00 00 00 00 00 00 00 00
       0.0 0.0 0.0 0.0
000210 00 00 00 00 00 00 00 00 00 00 00 00 00 00 00 00
       0.0 0.0 0.0 0.0
000220 00 00 00 00 00 00 00 00 00 00 00 00 00 00 00 00
       0.0 0.0 0.0 0.0
000230 00 00 00 00 00 00 00 00 00 00 00 00 00 00 00 00
       0.0 0.0 0.0 0.0
000240 00 00 00 00 00 00 00 00 00 00 00 00 00 00 00 00
       0.0 0.0 0.0 0.0
000250 00 00 00 00 00 00 00 00 33 99 03 b4 8b ec a6 b2
       0.0 0.0 -1.2256059e-07 -1.943251e-08
000260 3e d9 30 33 be 04 98 b3 d3 d7 84 b3 1a 75 cd 33
       4.1175774e-08 -7.078914e-08 -6.185987e-08 9.567357e-08
000270 77 54 f2 32 c1 02 83 b1 90 2c e3 b1 a8 02 b8 32
       2.8210918e-08 -3.812915e-09 -6.6116357e-09 2.1421627e-08
000280 c3 26 02 33 32 b0 60 b1 e5 9d 49 b1 17 99 8f 32
       3.0303237e-08 -3.2696446e-09 -2.9339102e-09 1.6717008e-08
000290 a9 01 e8 30 00 00 00 00 00 00 00 00 00 00 00 00
       1.6880694e-09 0.0 0.0 0.0
0002a0 00 00 00 00 00 00 00 00 00 00 00 00 00 00 00 00
       0.0 0.0 0.0 0.0
0002b0 00 00 00 00 00 00 00 00 00 00 00 00 00 00 00 00
       0.0 0.0 0.0 0.0
0002c0 00 00 00 00 00 00 00 00 00 00 00 00 00 00 00 00
       0.0 0.0 0.0 0.0
0002d0 00 00 00 00 00 00 00 00 00 00 00 00 00 00 00 00
       0.0 0.0 0.0 0.0
0002e0 00 00 00 00 00 00 00 00 00 00 00 00 00 00 00 00
       0.0 0.0 0.0 0.0
0002f0 00 00 00 00 00 00 00 00 00 00 00 00 00 00 00 00
       0.0 0.0 0.0 0.0
000300 00 00 00 00 00 00 00 00 00 00 00 00 00 00 00 00
       0.0 0.0 0.0 0.0
000310 00 00 00 00 00 00 00 00 00 00 00 00 00 00 00 00
       0.0 0.0 0.0 0.0
000320 00 00 00 00 00 00 00 00 00 00 00 00 00 00 00 00
       0.0 0.0 0.0 0.0
000330 00 00 00 00 00 00 00 00 00 00 00 00 00 00 00 00
       0.0 0.0 0.0 0.0
000340 00 00 00 00 00 00 00 00 5e bb 13 b7 e6 ae 40 33
       0.0 0.0 -8.805508e-06 4.4862553e-08
000350 77 8e 96 36 00 da 3d b7 6f 94 aa b6 5b 58 dc 36
       4.4869334e-06 -1.1316035e-05 -5.0836748e-06 6.566797e-06
000360 bc e9 3b 36 0e 15 a1 35 e2 9a 65 b5 59 14 06 35
       2.8001223e-06 1.2001562e-06 -8.553453e-07 4.99485e-07
000370 13 4b 6e 36 cc ca 21 35 79 89 26 35 95 8d 74 31
       3.5508463e-06 6.027228e-07 6.203987e-07 3.5587153e-09
000380 b5 7d 28 33 00 00 00 00 00 00 00 00 00 00 00 00
       3.9229878e-08 0.0 0.0 0.0
000390 00 00 00 00 00 00 00 00 00 00 00 00 00 00 00 00
       0.0 0.0 0.0 0.0
0003a0 00 00 00 00 00 00 00 00 00 00 00 00 00 00 00 00
       0.0 0.0 0.0 0.0
0003b0 00 00 00 00 00 00 00 00 00 00 00 00 00 00 00 00
       0.0 0.0 0.0 0.0
0003c0 f7 66 1c b7 4f 43 77 b6 22 a3 8a 36 9e cf 6d b6
       -9.322298e-06 -3.6845047e-06 4.1317116e-06 -3.5436601e-06
0003d0 cb b7 6e b6 9b 66 6e 36 0a 1e ca 35 7b a2 2d b5
       -3.5571745e-06 3.5524488e-06 1.5058915e-06 -6.468396e-07
0003e0 9a 9d ca 34 c7 45 79 35 28 cd 1e 36 47 6c 22 b4
       3.7740102e-07 9.286127e-07 2.3663251e-06 -1.5126817e-07
0003f0 64 05 db b4 04 00 00 00 cb a9 d2 05 04 9d e3 b8
       -4.079585e-07 6e-45 1.9810677e-35 -0.0001085345
