robot_state_berkeley_training/robot_state_epoch_14.pth (torch, 838065 bytes, 24 tensors)

policy_network.0.weight f4 [128, 15]
-0.054926332 -0.029210731 0.2245923 0.12997396 0.11608648 0.0043386333 0.10993387 -0.08412542
0.20093076 0.20664647 -0.13718371 0.59898573 0.12316273 0.31636783 0.34166288 0.110071585
0.17891768 -0.115557596 -0.18509759 -0.04920246 0.111243255 0.103497304 -0.12853612 -0.5293666
-0.043667972 -0.14097643 0.14657126 -0.2824657 0.23544255 0.0032584453 -0.0052556945 -0.0929762
-0.21828382 0.047686715 -0.053873446 0.15382667 0.20051645 0.26206186 0.26747677 -0.135457
0.2763446 -0.17688842 -0.038638875 0.18856308 -0.20242654 0.19315524 -0.129924 -0.051801074
-0.0955226 -0.12936701 -0.18899918 0.008251854 0.18019748 0.23414199 -0.05951995 -0.061612107
0.14260837 -0.06521142 0.070706494 -0.006390821 0.077593274 -0.002669089 0.18735434 -0.2268335
0.0025749975 -0.2694634 0.059708346 -0.054721255 -0.23336652 0.08880236 -0.11906802 0.6324732
-0.3480292 0.33901367 0.33230066 0.015704544 0.07467951 0.013595396 -0.113071315 0.051129248
-0.08273961 -0.1920192 -0.19081734 0.23896115 -0.013201416 -0.14713082 0.10875113 -0.22920376
-0.25111547 -0.20342153 -0.052732527 0.2885827 0.09315527 0.20336814 -0.12812231 0.10537544
-0.19866858 -0.266518 0.12072801 -0.015947105 -0.14178924 0.02443113 -0.2199223 0.008630032
0.103987806 0.044976015 -0.0057647005 -0.21142513 0.16290526 0.1964123 0.1586797 0.10307588
0.05507028 -0.09803983 0.116359726 -0.085960425 0.03188282 -0.15432917 -0.15054837 -0.17595616
-0.04227414 0.1530953 -0.20465507 0.1159739 0.22439907 -0.2231207 0.16480778 -0.19009045
0.18847454 -0.17246756 0.092211016 0.2501889 0.05080775 -0.14482874 -0.0853781 -0.10772626
-0.18271233 -0.21741275 0.25390825 -0.10747316 -0.11422684 0.2544008 0.16400732 0.24244718
0.1574675 -0.09919246 0.091738485 0.20060968 0.1605435 -0.20682096 -0.18999463 0.057384305
-0.16167991 -0.080042794 -0.15751486 -0.1467798 -0.21529987 -0.07833834 -0.26644138 0.0017294901
-0.25031394 -0.15320256 0.0014802406 0.2043183 -0.06370011 0.23025969 0.05353308 0.13833976
0.039805546 -0.09473166 -0.20264322 -0.0035206443 -0.1534465 -0.23725991 0.1148577 0.0140651865
0.25002608 0.17831902 -0.129484 0.14641094 0.20424646 -0.16721047 -0.23049106 0.197429
-0.15720916 0.10646109 -0.23418546 -0.060773235 -0.00012795124 -0.1905936 0.17176156 -0.010243825
0.22083673 0.18517752 -0.049756225 0.24931498 0.064499244 0.20261289 0.19364126 0.13346875
-0.17058301 0.17003596 -0.25364053 -0.1394084 -0.17917387 -0.13276279 0.23354976 0.0046323766
-0.05645235 0.25230592 -0.18271539 -0.21042073 -0.29577968 -0.09281467 -0.10474067 0.0458307
0.028571 0.21277577 0.47369143 -0.315162 -0.3096213 -0.32426056 0.33009884 -0.09184602
0.08043584 -0.06132607 0.17647141 -0.24045664 0.16447444 0.20417853 -0.014144445 -0.14442588
-0.118929155 -0.048185106 0.09821773 0.11078675 -0.20685741 -0.1921759 0.08981235 -0.1326011
-0.17919269 0.29623 0.15593041 0.12102942 0.22470437 0.13125637 -0.109046094 0.011018378
0.15127154 -0.24758743 -0.1063508 -0.19693328 -0.17880902 -0.36465755 -0.3112942 -0.038986843
00000000: 6ffa 60bd 584b efbc 86fb 653e e517 053e
00000010: c0be ed3d 182b 8e3b 0225 e13d f349 acbd
00000020: cbc0 4d3e 229b 533e e379 0cbe 2157 193f
00000030: be3c fc3d f7fa a13e 70ee ae3e 366d e13d
00000040: 3236 373e 76a9 ecbd 398a 3dbe 8588 49bd
00000050: 81d3 e33d 65f6 d33d f99e 03be 9284 07bf
00000060: 30dd 32bd 205c 10be c716 163e 589f 90be
00000070: da17 713e a48b 553b f637 acbb 4e6a bebd
00000080: cb85 5fbe 2553 433d 67aa 5cbd bd84 1d3e
00000090: 2f54 4d3e f92c 863e b7f2 883e 3db5 0abe
000000a0: 0a7d 8d3e 3d22 35be cc43 1ebd ae16 413e
000000b0: e748 4fbe 7dca 453e cc0a 05be 5d2d 54bd
000000c0: 5aa1 c3bd c978 04be 0089 41be c932 073c
000000d0: b085 383e ebc2 6f3e 31cb 73bd fa5c 7cbd
000000e0: ee07 123e 918d 85bd 91ce 903d 186a d1bb
000000f0: 39e9 9e3d e2eb 2ebb d1d9 3f3e 0b47 68be
00000100: 4ac1 283b 1bf7 89be bd90 743d 6523 60bd
00000110: a2f7 6ebe 03de b53d efd9 f3bd c3e9 213f
00000120: e230 b2be 3393 ad3e 5023 aa3e d1a6 803c
00000130: 92f1 983d 39bf 5e3c ef91 e7bd e76c 513d
00000140: 6273 a9bd aea0 44be 9f65 43be 3bb2 743e
00000150: c04a 58bc 76a9 16be eab8 de3d 64b4 6abe
00000160: 3592 80be bc4d 50be 10fe 57bd 1dc1 933e
00000170: 31c8 be3d bd3f 503e 7f32 03be 14cf d73d
00000180: c76f 4bbe 0c75 88be 3f40 f73d 81a3 82bc
00000190: 3331 11be cb23 c83c 5033 61be fa64 0d3c
000001a0: 8ff7 d43d c538 383d d0e5 bcbb d47f 58be
000001b0: a3d0 263e 4e20 493e ee7c 223e 7219 d33d
000001c0: 6091 613d 1bc9 c8bd 024e ee3d 050c b0bd
000001d0: 8f97 023d 7708 1ebe 5a29 1abe da2d 34be
000001e0: a627 2dbd 04c5 1c3e 1991 51be b983 ed3d
000001f0: dfc8 653e c179 64be 5fc3 283e 12a7 42be
00000200: 78ff 403e 569b 30be 21d9 bc3d c218 803e
00000210: ca1b 503d fc4d 14be b7da aebd 969f dcbd
00000220: f118 3bbe 73a1 5ebe 4300 823e e31a dcbd
00000230: c3ef e9bd d240 823e 89f1 273e 1344 783e
00000240: 293f 213e 6b25 cbbd 63e1 bb3d a06c 4d3e
00000250: 8465 243e e0c8 53be f48d 42be ce0b 6b3d
00000260: 6b8f 25be 7aed a3bd 934b 21be 724d 16be
00000270: 9277 5cbe da6f a0bd 016b 88be 0fb0 e23a
00000280: 2629 80be 22e1 1cbe a204 c23a d138 513e
00000290: 3475 82bd 32c9 6b3e 8145 5b3d f0a8 0d3e
000002a0: 240b 233d ac02 c2bd b481 4fbe 9cba 66bb
000002b0: 1421 1dbe 43f4 72be 843a eb3d ab71 663c
000002c0: 6b03 803e 4399 363e 7497 04be c0ec 153e
000002d0: fc25 513e 3939 2bbe d905 6cbe d42a 4a3e
000002e0: 70fb 20be 4608 da3d 50ce 6fbe 5bed 78bd
000002f0: a62a 06b9 f82a 43be 43e2 2f3e b7d5 27bc
00000300: 0623 623e 2d9f 3d3e 2fcd 4bbd 6d4c 7f3e
00000310: 2e18 843d c179 4f3e e549 463e 08ac 083e
00000320: 50ad 2ebe e81d 2e3e 2cdd 81be 13c1 0ebe
00000330: 5b79 37be f8f2 07be ab27 6f3e 31cb 973b
00000340: 943a 67bd 3e2e 813e be19 3bbe 8878 57be
00000350: 6f70 97be 9e15 bebd 4782 d6bd f9b8 3b3d
00000360: bb0d ea3c e4e1 593e af87 f23e ea5c a1be
00000370: af86 9ebe 7b05 a6be b702 a93e c419 bcbd
00000380: 8cbb a43d 0c31 7bbd ecb4 343e 443a 76be
00000390: fd6b 283e 2d14 513e 1abe 67bc 61e4 13be
000003a0: 2191 f3bd bf5d 45bd 6126 c93d 2ae4 e23d
000003b0: 6ed2 53be c2c9 44be 8aef b73d 95c8 07be
000003c0: 4a7e 37be 75ab 973e 39ac 1f3e 46de f73d
000003d0: e718 663e 1268 063e 8f53 dfbd 6d86 343c
000003e0: ede6 1a3e 8f87 7dbe 73ce d9bd e1a8 49be
000003f0: b619 37be 65b4 babe f461 9fbe abb0 1fbd

policy_network.0.bias f4 [128]
-0.2483502 0.14608093 -0.05099801 0.0045538573 0.060165435 -0.0918938 0.11280763 0.08099252
0.19977744 0.037817147 -0.114795364 0.10035677 0.17702726 0.1725037 -0.10247354 0.24832934
0.13085295 -0.19549826 0.004235376 -0.09349922 0.19034189 -0.10599121 -0.17124772 -0.24677782
0.16043955 -0.20242332 0.097759545 -0.26486215 -0.22791468 0.036360405 0.05120487 0.12192739
-0.22530846 -0.026552385 -0.25200048 -0.19169949 -0.17421542 0.10170201 -0.2856983 0.0044387225
0.08067896 -0.022724804 0.04412717 0.1777713 -0.03137166 -0.16256832 -0.054229442 0.002437382
-0.18883546 -0.13331866 0.05401379 -0.12963697 -0.17278501 0.17652777 0.044150613 0.15301672
-0.13882507 -0.15103407 0.182299 -0.024975177 -0.21252336 -0.2288273 -0.088391915 0.14165896
0.16989997 0.10379425 0.049093753 0.12328341 -0.09142466 -0.14072509 -0.14680277 -0.029725185
-0.1321526 0.23697637 -0.096312374 -0.25749558 -0.13340068 0.09324903 -0.23271295 -0.06799268
0.2301419 -0.12523864 0.08017334 0.163865 -0.05570511 0.038387094 -0.041903526 -0.028313236
0.046197377 0.15049826 -0.17107752 0.24092457 -0.25062707 -0.029573267 -0.13718273 -0.030746935
0.08918452 0.0567057 0.13492884 -0.1789597 0.024688432 -0.27378535 0.22687475 -0.053764045
-0.23139432 0.067598835 -0.20468237 0.06778052 -0.17205964 0.13706501 0.08377302 -0.119036295
-0.21205668 -0.27818677 0.20579308 -0.040841993 0.22340205 -0.08523094 -0.08452372 0.07402406
-0.19027832 0.03128037 0.13526835 -0.13969351 0.1653136 -0.016181968 -0.13318834 -0.18074659
00000000: 844f 7ebe 3d96 153e 4ae3 50bd 8638 953b
00000010: 0870 763d d132 bcbd b007 e73d 68df a53d
00000020: 7592 4c3e 27e6 1a3d d519 ebbd da87 cd3d
00000030: a246 353e cfa4 303e a6dd d1bd 0c4a 7e3e
00000040: 51fe 053e b230 48be e9c8 8a3b 857c bfbd
00000050: fce8 423e eb11 d9bd 905b 2fbe 53b3 7cbe
00000060: 444a 243e 0f48 4fbe 2836 c83d 039c 87be
00000070: 7762 69be a6ee 143d 33bc 513d 11b5 f93d
00000080: 43b7 66be 6384 d9bc 3506 81be df4c 44be
00000090: 8765 32be 2549 d03d 0c47 92be b472 913b
000000a0: 033b a53d 5e29 babc b1be 343d ae09 363e
000000b0: 927f 00bd 4f78 26be b11f 5ebd 7cbc 1f3b
000000c0: 155e 41be b084 08be 903d 5d3d 8ebf 04be
000000d0: 8eee 30be b2c3 343e 46d7 343d 6ab0 1c3e
000000e0: 2928 0ebe ada8 1abe 97ac 3a3e be98 ccbc
000000f0: b99f 59be b451 6abe d206 b5bd 0c0f 113e
00000100: 42fa 2d3e 1492 d43d 8816 493d 037c fc3d
00000110: da3c bbbd 3d1a 10be 7753 16be 3b82 f3bc
00000120: 0353 07be efa9 723e 6c3f c5bd 76d6 83be
00000130: 309a 08be 59f9 be3d 4e4c 6ebe bf3f 8bbd
00000140: 51aa 6b3e 8f3e 00be ec31 a43d 3acc 273e
00000150: 0b2b 64bd c93b 1d3d 08a3 2bbd 29f1 e7bc
00000160: 7639 3d3d 371c 1a3e f22e 2fbe eeb4 763e
00000170: 3152 80be a343 f2bc a179 0cbe ffe0 fbbc
00000180: 60a6 b63d 3c44 683d c92a 0a3e 3641 37be
00000190: 653f ca3c 982d 8cbe db51 683e b037 5cbd
000001a0: a2f2 6cbe 4271 8a3d 4198 51be 83d0 8a3d
000001b0: 6730 30be c55a 0c3e 3091 ab3d 4dc9 f3bd
000001c0: 6325 59be 7f6e 8ebe 6cbb 523e ef49 27bd
000001d0: 82c3 643e 8f8d aebd c61a adbd ed99 973d
000001e0: 52d8 42be d81f 003d c983 0a3e d10b 0fbe
000001f0: f847 293e 0c90 84bc 8662 08be a215 39be

policy_network.3.weight f4 [256, 128]
-0.03880277 -0.047294836 0.0052837115 -0.08609866 -0.10437455 0.07232673 -0.093892895 0.07096093
-0.022822117 -0.03048314 -0.09046759 -0.07878769 0.0014612839 -0.0627836 0.040677696 0.07312078
0.049121536 -0.08353368 0.06311492 0.026516521 0.034234274 -0.08088134 0.052850246 0.075413965
0.024322605 -0.03500872 0.067901224 -0.04613069 -0.021546917 -0.06107271 -0.02506474 -0.00070943363
0.016306216 0.056147635 0.052534726 -0.08043166 -0.00014072932 -0.014282149 0.07680677 -0.06034526
-0.033658758 0.051781498 -0.03408717 -0.08088621 -0.022744335 0.055849925 -0.021042097 -0.037315886
-0.06939235 0.022720385 -0.080685996 0.015001286 -0.05680094 0.057158776 0.01708552 -0.014511023
-0.0868876 -0.07019301 -0.08059556 -0.06235521 -0.05587584 0.013287445 -0.018498503 0.0028372945
0.043947782 -0.0015465688 0.04622106 0.03857482 -0.07781638 -0.0047208886 0.051511794 -0.053126603
-0.006954219 0.011029493 -0.08141438 0.018091634 -0.03646962 -0.016619027 0.030521424 0.04318341
-0.051274624 -0.09503472 0.02207853 -0.03774364 0.03488619 0.08195857 0.053936042 -0.030069362
0.019712014 -0.031091407 -0.01005137 -0.08152784 -0.08313148 -0.08592499 -0.07471896 0.035714135
0.007769988 0.025449762 -0.06287828 0.019930677 -0.08683639 0.028269712 -0.056245472 0.048952
-0.015336006 0.07007873 0.013235196 0.047172375 0.038654365 0.061505325 0.0016814922 0.079554886
0.008559586 -0.015806494 0.004198229 -0.042303998 -0.009761231 -0.0051701404 -0.055763166 -0.0037014238
-0.0117974505 -0.04860719 -0.07313071 -0.12595613 0.017706228 -0.061068084 -0.029805576 -0.04523145
-0.062027305 0.041321557 0.032384187 -0.07453118 0.036272287 -0.029024921 0.038118288 0.05467227
0.012061416 -0.070771776 -0.05128308 -0.076944605 0.03053044 0.06314726 0.08671402 -0.0024271947
-0.011392631 -0.04483355 0.1260491 -0.008901329 0.0058735427 -0.06733466 -0.044030778 -0.044306017
0.040435135 0.009796501 -0.041448537 -0.053946283 0.029312715 -0.026593111 -0.016063387 0.057885148
0.038432963 0.067273594 0.0698903 -0.07591741 -0.043847173 0.04086629 -0.060069863 -0.03455905
0.061934445 -0.045077085 0.00040487316 -0.03784318 -0.05184273 -0.02567568 -0.08165097 0.056082547
0.08348682 -0.04617913 -0.09319449 -0.06788733 -0.023915535 0.012752477 0.01275886 0.045114946
-0.0016940107 -0.008487079 0.03169881 -0.07249232 0.068392016 -0.005996302 -0.068448775 0.03109329
-0.050056025 0.017778842 0.028607152 -0.08622443 0.0006093115 0.07087419 0.08405361 0.06356375
0.050047673 0.05609579 -0.017595014 -0.07544487 0.10497835 0.04116446 -0.0020484212 0.053667005
0.04905872 0.05819805 0.038739245 0.06001844 -0.08657986 -0.061881423 -0.011395137 -0.06486941
0.040228363 0.07149899 0.031372502 0.0139935445 -0.03224196 0.039880645 -0.08152427 -0.044675183
0.04352751 -0.06319841 0.03291952 -0.0894812 -0.0011469843 -0.08252635 -0.075951874 0.0761639
-0.08611711 0.048861507 0.07289449 -0.0008702481 0.09188457 0.03871087 0.06954178 0.06589618
-0.08138587 0.017848996 -0.020039447 0.022260875 0.043334577 -0.084811896 0.03708125 -0.050199784
0.053864904 0.0657185 -0.07276274 -0.1464816 -0.0094698435 0.009568472 0.07951181 -0.061738726
00000000: a7ef 1ebd 3bb8 41bd fc22 ad3b 7f54 b0bd
00000010: 53c2 d5bd 0920 943d eb4a c0bd f753 913d
00000020: 73f5 babc c7b7 f9bc 1247 b9bd 715b a1bd
00000030: 8d88 bf3a b094 80bd a89d 263d 59c0 953d
00000040: aa33 493d b513 abbd 6542 813d 2d39 d93c
00000050: 3d39 0c3d 1ea5 a5bd 8079 583d a372 9a3d
00000060: 3340 c73c 4e65 0fbd cc0f 8b3d 89f3 3cbd
00000070: 2983 b0bc 6127 7abd 9254 cdbc 49f9 39ba
00000080: 9d94 853c 10fb 653d a72e 573d 5bb9 a4bd
00000090: bd90 13b9 adff 69bc de4c 9d3d 972c 77bd
000000a0: c4dd 09bd d618 543d fd9e 0bbd aba7 a5bd
000000b0: 5452 babc e4c2 643d 7a60 acbc 8bd8 18bd
000000c0: 941d 8ebd 1a20 ba3c b33e a5bd f4c7 753c
000000d0: 1aa8 68bd 521f 6a3d eff6 8b3c a4bf 6dbc
000000e0: 20f2 b1bd 5ac1 8fbd 490f a5bd 2d68 7fbd
000000f0: 11de 64bd 95b3 593c 2c8a 97bc e7f1 393b
00000100: 9702 343d 3db6 caba 4b52 3d3d a100 1e3d
00000110: 325e 9fbd afb1 9abb 08fe 523d 489b 59bd
00000120: 38e0 e3bb 0cb5 343c 95bc a6bd e834 943c
00000130: 2b61 15bd a024 88bc 1108 fa3c 16e1 303d
00000140: 5705 52bd 90a1 c2bd 09de b43c 1399 1abd
00000150: d2e4 0e3d e5d9 a73d 0aec 5c3d 0654 f6bc
00000160: 177b a13c 68b3 febc 80ae 24bc 11f8 a6bd
00000170: d640 aabd 71f9 afbd 4106 99bd fc48 123d
00000180: 629b fe3b 057c d03c 54c6 80bd a945 a33c
00000190: 47d7 b1bd e295 e73c a761 66bd e481 483d
000001a0: df43 7bbc 7085 8f3d 6fd8 583c d237 413d
000001b0: 0a54 1e3d 02ed 7b3d 8465 dc3a aced a23d
000001c0: 813d 0c3c 9f7c 81bc 4c91 893b f546 2dbd
000001d0: 92ed 1fbc 486a a9bb eb67 64bd 9693 72bb
000001e0: 184a 41bc 5518 47bd 8ec5 95bd a5fa 00be
000001f0: a70c 913c 8722 7abd d32a f4bc 9d44 39bd
00000200: 5810 7ebd cb40 293d 48a5 043d cea3 98bd
00000210: 4092 143d acc5 edbc ec21 1c3d 08f0 5f3d
00000220: 3f9d 453c cbf0 90bd 350e 52bd 2295 9dbd
00000230: f91a fa3c 5a53 813d 1f97 b13d 9211 1fbb
00000240: 28a8 3abc 62a3 37bd 0413 013e e1d6 11bc
00000250: d976 c03b c1e6 89bd 9e59 34bd 3a7a 35bd
00000260: 509f 253d 8181 203c f1c5 29bd c7f6 5cbd
00000270: 3821 f03c ccd9 d9bc 5d97 83bc fa18 6d3d
00000280: e26b 1d3d bdc6 893d a522 8f3d 967a 9bbd
00000290: 1899 33bd 6963 273d d10b 76bd ca8d 0dbd
000002a0: f9ae 7d3d c0a2 38bd 2845 d439 7301 1bbd
000002b0: 0b59 54bd ce55 d2bc a038 a7bd d0b6 653d
000002c0: 23fb aa3d 5426 3dbd c1dc bebd 8308 8bbd
000002d0: 83ea c3bc c4ef 503c 8a0a 513c 73ca 383d
000002e0: 9109 deba 640d 0bbc 9dd6 013d da76 94bd
000002f0: 1d11 8c3d a07c c4bb df2e 8cbd 5bb7 fe3c
00000300: 8c07 4dbd efa4 913c 8c59 ea3c 6f96 b0bd
00000310: 34ba 1f3a 7d26 913d 4d24 ac3d b62d 823d
00000320: cafe 4c3d b3c4 653d 6b23 90bc d782 9abd
00000330: e4fe d63d 119c 283d ce3e 06bb efd1 5b3d
00000340: ccf1 483d 1461 6e3d 0bad 1e3d e5d5 753d
00000350: c850 b1bd 6077 7dbd abb2 3abc 41da 84bd
00000360: 7fc6 243d 106e 923d 7480 003d 2e45 653c
00000370: 2510 04bd e359 233d 32f6 a6bd 53fd 36bd
00000380: e749 323d 2b6e 81bd 9ed6 063d eb41 b7bd
00000390: 6856 96ba 9303 a9bd a88c 9bbd d2fb 9b3d
000003a0: 2b5e b0bd 0123 483d b549 953d 5d21 64ba
000003b0: fa2d bc3d 4a8f 1e3d ec6b 8e3d 94f4 863d
000003c0: a3ad a6bd 0f38 923c c429 a4bc 705c b63c
000003d0: 997f 313d dcb1 adbd 82e2 173d 4a9e 4dbd
000003e0: 72a1 5c3d 6c97 863d a204 95bd 46ff 15be
000003f0: 6727 1bbc 15c5 1c3c 16d7 a23d bfe1 7cbd

policy_network.3.bias f4 [256]
-0.024535159 0.032140575 0.05695496 -0.08857517 0.017019201 -0.0993626 -0.09501631 0.05234853
0.03921382 -0.06414006 0.055087272 -0.012398574 0.0073545147 0.03325993 0.062215533 0.017946199
0.04476785 -0.060439497 -0.008848985 0.04007778 -0.024381006 -0.039419565 -0.01772856 -0.007904455
-0.025523694 -0.07377382 -0.037549525 -0.04282762 -0.06340636 0.009522005 0.052806225 0.059233066
-0.06708604 -0.09222056 -0.01706057 0.0072186673 0.044094097 -0.009273434 0.044834614 -0.030974042
-0.0034525832 0.062852696 -0.081798546 0.021036945 -0.043840446 -0.068870775 -0.04195253 -0.0063078646
0.037829053 -0.03794269 0.01608496 -0.011174919 0.042417746 0.053401057 0.044310946 -0.07727832
-0.077990025 0.05184342 -0.08769928 -0.045432474 0.025289575 0.0074795717 -0.07560808 0.052614458
-0.0744563 -0.006245158 -0.034368634 -0.08762414 0.044895604 0.0401399 0.048479933 -0.036113646
0.055518515 0.06531946 0.059487063 -0.071472526 -0.033428654 -0.016934711 0.016105568 0.06314262
0.009653011 0.020606393 0.050005585 0.018459832 0.021280011 -0.022410782 -0.04832678 -0.10680746
-0.046060354 0.017541783 -0.060115445 -0.065450534 -0.055454787 0.030659633 0.00428773 -0.035367735
-0.0030211494 -0.01917339 -0.017514471 -0.03710273 -0.052248314 0.018970978 -0.04155967 0.05268044
0.0023376185 0.08439867 -0.071415976 0.056525867 0.005700646 0.06643395 0.026413899 0.05626597
0.062691875 -0.08041957 -0.09938157 0.029160295 0.026884682 0.022499762 0.05380542 -0.100674845
-0.005396549 0.04292491 0.0016108106 -0.09811777 0.03710682 -0.013676092 -0.028078299 -0.06804827
0.027531335 -0.070175484 -0.03066135 -0.019203383 -0.052147478 -0.044047326 0.04639768 -0.044366658
-0.049172733 -0.06319262 0.054692224 -0.07476379 0.05630093 0.012507876 -0.054431744 -0.01556087
0.010490003 0.00068132137 -0.032495126 -0.04687981 -0.08113269 -0.017391857 0.047346335 -0.083291
0.036580883 -0.067259006 0.043741517 0.0076150857 0.06606897 -0.05454979 0.054507982 0.028606307
0.05623421 0.018991677 -0.013010374 -0.057066604 -0.0652523 -0.036591217 -0.056192026 -0.033433985
0.007645725 -0.038666613 0.028161552 0.017712707 0.017655754 0.049070757 -0.08418588 0.048022922
0.020375038 -0.083482444 0.026191344 -0.08706265 -0.003481785 -0.07261372 -0.01660526 -0.08412267
0.017067784 -0.0832509 0.06570402 -0.08783213 0.020521421 0.04851644 0.0053057177 0.022739697
0.036495525 -0.06475185 -0.056722414 0.016886385 -0.023687117 -0.044277057 -0.0069226683 0.0587596
-0.09408617 -0.06565405 -0.0874086 0.017502585 -0.006566759 -0.021354944 -0.08910991 -0.02175663
-0.054919038 -0.08571784 -0.06754187 -0.06371185 0.056932803 0.056197163 -0.031426337 -0.1009681
0.011507803 -0.04888514 -0.04239369 -0.101037845 -0.075026624 0.024472844 0.042788953 0.03587101
-0.030262534 -0.09712164 0.054317072 0.06397556 -0.0011049438 -0.005876553 -0.0670208 0.03414586
0.045894414 -0.091101386 -0.023081945 -0.09484251 0.010063367 -0.022986455 0.011222073 -0.041119162
-0.033335004 0.023242552 0.051218916 0.04333551 -0.029736757 -0.08014435 0.08897624 -0.001958337
0.037686948 0.05015574 -0.03184258 -0.017779665 0.04725717 -0.07380319 0.0043155374 -0.019558307
00000000: f5fd c8bc d6a5 033d 9b49 693d e666 b5bd
00000010: da6b 8b3c 9e7e cbbd e997 c2bd 6a6b 563d
00000020: ac9e 203d dd5b 83bd 31a3 613d 6323 4bbc
00000030: 24fe f03b 903b 083d b7d5 7e3d e803 933c
00000040: 7e5e 373d 688f 77bd 55fb 10bc 9928 243d
00000050: adba c7bc 6976 21bd 7c3b 91bc b081 01bc
00000060: 1117 d1bc bb16 97bd 88cd 19bd 046c 2fbd
00000070: 32db 81bd 2f02 1c3c 574b 583d 5f9e 723d
00000080: 6864 89bd 22de bcbd 9cc2 8bbc 928a ec3b
00000090: 039c 343d 9aef 17bc 80a4 373d 46bd fdbc
000000a0: bc44 62bb eab8 803d ff85 a7bd ac55 ac3c
000000b0: 0a92 33bd 1f0c 8dbd 6bd6 2bbd 34b2 cebb
000000c0: a3f2 1a3d cb69 1bbd 9bc4 833c 0217 37bc
000000d0: 3bbe 2d3d 11bb 5a3d 657f 353d 1944 9ebd
000000e0: 3cb9 9fbd c459 543d ae9b b3bd 6717 3abd
000000f0: 152c cf3c 3217 f53b 69d8 9abd 4282 573d
00000100: 8b7c 98bd 2fa4 ccbb 20c6 0cbd 4974 b3bd
00000110: 74e4 373d bc69 243d e592 463d e7eb 13bd
00000120: 6267 633d 36c6 853d b5a8 733d 3060 92bd
00000130: 7cec 08bd aaba 8abc d3ef 833c eb50 813d
00000140: aa27 1e3c bdce a83c a8d2 4c3d 1339 973c
00000150: 6b53 ae3c d196 b7bc 4df2 45bd dfbd dabd
00000160: c8a9 3cbd c9b3 8f3c 9d3b 76bd ee0a 86bd
00000170: 8f24 63bd e929 fb3c 1680 8c3b c2dd 10bd
00000180: 7afe 45bb 8311 9dbc 827a 8fbc 08f9 17bd
00000190: 5402 56bd 0669 9b3c 793a 2abd 72c7 573d
000001a0: bb32 193b 36d9 ac3d 8a42 92bd ab87 673d
000001b0: 7ccc ba3b 860e 883d f661 d83c 2577 663d
000001c0: 9964 803d 04b3 a4bd 9188 cbbd 92e1 ee3c
000001d0: 443d dc3c 6c51 b83c 1263 5c3d 9d2e cebd
000001e0: 89d5 b0bb 08d2 2f3d d621 d33a f8f1 c8bd
000001f0: 52fd 173d b011 60bc 7604 e6bc e45c 8bbd
00000200: 6589 e13c 2ab8 8fbd 832d fbbc 6a50 9dbc
00000210: 9898 55bd f86a 34bd 7e0b 3e3d d0b9 35bd
00000220: 5969 49bd 226b 81bd f404 603d c21d 99bd
00000230: ce9b 663d d6ed 4c3c d2f3 5ebd 05f3 7ebc
00000240: 43de 2b3c b49a 323a 9c19 05bd 0b05 40bd
00000250: e528 a6bd 5e79 8ebc 3bee 413d 7994 aabd
00000260: d6d5 153d 17bf 89bd 4e2a 333d f887 f93b
00000270: 2b4f 873d 9a6f 5fbd c343 5f3d c657 ea3c
00000280: d855 663d 6f94 9b3c 7729 55bc acbe 69bd
00000290: ffa2 85bd ace0 15bd 9c29 66bd 13f2 08bd
000002a0: fd88 fa3b e260 1ebd 0eb3 e63c 3d1a 913c
000002b0: cda2 903c 6bfe 483d a669 acbd afb3 443d
000002c0: 8de9 a63c d8f8 aabd 3b8f d63c e74d b2bd
000002d0: a92e 64bb 81b6 94bd c107 88bc 8248 acbd
000002e0: bdd1 8b3c 737f aabd d48f 863d 55e1 b3bd
000002f0: 8a1c a83c 2db9 463d 96db ad3b 9a48 ba3c
00000300: 557c 153d 9e9c 84bd c355 68bd 5155 8a3c
00000310: 7c0b c2bc dc5b 35bd 8dd7 e2bb e8ad 703d
00000320: 40b0 c0bd a175 86bd 4803 b3bd 9561 8f3c
00000330: f82d d7bb 90f0 aebc 427f b6bd f63a b2bc
00000340: c9f2 60bd d68c afbd 6453 8abd 5c7b 82bd
00000350: 5f32 693d ff2e 663d e7b8 00bd 5dc8 cebd
00000360: 398b 3c3c c93b 48bd 02a5 2dbd eeec cebd
00000370: 8fa7 99bd 467b c83c 7843 2f3d 7bed 123d
00000380: 22e9 f7bc b6e7 c6bd 947b 5e3d 9e05 833d
00000390: c3d3 90ba 1990 c0bb 3442 89bd 87dc 0b3d
000003a0: c8fb 3b3d 5d93 babd 5916 bdbc ca3c c2bd
000003b0: d2e0 243c 174e bcbc c9dc 373c 916c 28bd
000003c0: 498a 08bd 2a67 be3c edca 513d 9380 313d
000003d0: 809a f3bc b922 a4bd 2d39 b63d 7157 00bb
000003e0: a15d 1a3d 1b70 4d3d 5d6d 02bd a9a6 91bc
000003f0: bc90 413d 2026 97bd 5a69 8d3b be38 a0bc

policy_network.6.weight f4 [128, 256]
0.014329758 -0.048328843 0.1067268 0.013816897 -0.051422566 -0.033493835 0.07262604 -0.0018829108
-0.08204458 0.037993368 0.09383884 0.05034902 -0.08833551 0.062083893 0.071801804 0.07278132
0.025459643 0.0038959086 0.04266286 0.038450267 -0.050528653 0.007011465 -0.08798011 -0.008257367
0.006574366 -0.0058840364 -0.09905358 0.061900064 -0.031237962 0.047695655 -0.037699196 -0.0782831
0.017813787 0.06586187 0.004206481 0.009913424 -0.05440398 -0.065620616 -0.005772764 -0.05068693
-0.035935596 -0.030028613 0.033335358 -0.008024081 -0.011187263 0.0361659 0.0055982172 0.058932304
0.068820655 -0.027457481 0.017365318 0.11401903 -0.015662998 -0.013340372 0.012446722 -0.005670716
-0.008022748 0.08395919 -0.018959664 0.00056424516 -0.028973566 0.05576937 -0.018158305 -0.019102259
0.02607829 -0.004967892 0.037397746 0.09299661 0.08198275 0.0614426 0.04068914 -0.006685433
0.010044621 -0.008972175 0.007650788 -0.030225575 -0.0053555933 -0.049484856 0.008128209 -0.018599754
0.0009648826 -0.009376399 0.04122201 -0.0111158155 0.052419443 0.009947598 -0.005973245 0.06614083
0.07179256 -0.060849458 -0.04299877 -0.051817052 -0.040988415 -0.052802525 -0.0125052035 0.038959987
-0.037271183 -0.026895002 0.065440916 0.094320506 -0.051693108 -0.033698604 0.052462347 0.013470059
0.083304346 -0.032718994 0.029298773 -0.0065512303 -0.0072914124 -0.0011844893 -0.018358653 0.028935716
0.06544252 0.025850043 -0.021994356 0.034953497 0.08241361 -0.024036942 0.012633861 -0.004739437
-0.0025016614 -0.040401913 -0.07358583 0.017598674 0.009673631 0.012373436 0.0108788675 0.046535365
0.029216342 -0.08489296 -0.021928048 0.03860013 0.023484314 0.047873367 0.052273203 0.0034305821
0.10636106 0.093171395 -0.0053789313 -0.06089253 -0.013117422 0.024453228 -0.0019142153 0.06074282
0.005195946 -0.020218888 -0.045568094 0.0363025 0.028466366 0.022851974 0.003953629 -0.015125677
-0.05703036 -0.04087495 0.045270666 0.03242947 -0.06506117 0.017938197 0.014116856 -0.03549336
-0.0033243897 -0.014899276 0.0057299705 0.03330152 -0.031332593 -0.034466617 -0.04413809 0.07389933
0.034030154 -0.061353795 0.01020074 0.025037894 -0.026145022 -0.035620946 0.040076025 0.069642186
0.0119355405 -0.056076698 0.04291731 -0.020083256 0.006165262 -0.026801642 -0.033744052 -0.041612107
-0.012641197 -0.0054623336 0.13608298 -0.018651783 0.037705068 -0.06622154 0.0071648583 -0.030215353
0.17466469 0.046756748 0.03273471 -0.003681143 0.0183051 -0.041522406 -0.036702525 0.005634837
0.09077005 0.085712634 0.013638951 -0.05104938 0.03652648 -0.0164712 0.0056174546 0.019533232
0.042861197 -0.028900668 -0.021924077 -0.050619867 0.06202486 -0.041473784 0.029108493 0.06301729
0.024625203 -0.019597983 -0.063256204 0.010031253 0.046129294 0.049452357 -0.015297384 -0.018385632
-0.0033422913 -0.06269605 -0.035382777 0.0040342784 0.05353283 -0.09159213 -0.03869953 0.043188754
0.033947628 0.05049014 0.0015933006 -0.017169803 0.018194133 0.025870165 0.025513446 -0.037871815
0.015388713 -0.06459022 0.09725234 0.021124398 0.053094678 0.038106017 0.009760234 0.019758556
0.0060487133 -0.029864773 0.035015274 -0.006364663 0.009932919 0.039370995 0.015070699 0.045227457
00000000: 5cc7 6a3c 77f4 45bd 9593 da3d 4460 623c
00000010: 78a0 52bd d530 09bd f6bc 943d 01cc f6ba
00000020: fd06 a8bd ef9e 1b3d 942e c03d c63a 4e3d
00000030: 3fe9 b4bd ae4b 7e3d d30c 933d 5f0e 953d
00000040: be90 d03c 8052 7f3b 40bf 2e3d 077e 1d3d
00000050: 22f7 4ebd 6ec0 e53b ea2e b4bd e849 07bc
00000060: c76d d73b e0ce c0bb 9adc cabd ec8a 7d3d
00000070: c1e6 ffbc 855c 433d 796a 1abd e452 a0bd
00000080: 38ee 913c 97e2 863d 85d6 893b ea6b 223c
00000090: b5d6 5ebd 1a64 86bd 7429 bdbb 199d 4fbd
000000a0: 3431 13bd 91fe f5bc a88a 083d 6f77 03bc
000000b0: c84a 37bc b222 143d 4071 b73b 0063 713d
000000c0: d8f1 8c3d 83ee e0bc b641 8e3c cf82 e93d
000000d0: b04f 80bc 9391 5abc 56ed 4b3c 6ad1 b9bb
000000e0: d871 03bc ccf2 ab3d 4c51 9bbc dae9 133a
000000f0: f959 edbc 6c6e 643d bac0 94bc 577c 9cbc
00000100: 23a2 d53c b3c9 a2bb 612e 193d 0275 be3d
00000110: 92e6 a73d 3cab 7b3d a8a9 263d 7a11 dbbb
00000120: 3292 243c 0800 13bc 76b3 fa3b a09b f7bc
00000130: f97d afbb a2b0 4abd 2e2c 053c 835e 98bc
00000140: 2df0 7c3a 789f 19bc 69d8 283d 1c1f 36bc
00000150: c5b5 563d 40fb 223c 36bb c3bb d874 873d
00000160: fa07 933d 483d 79bd 7a1f 30bd 1e3e 54bd
00000170: 78e3 27bd 7647 58bd a0e2 4cbc 8294 1f3d
00000180: aba9 18bd e852 dcbc e305 863d 1c2b c13d
00000190: 27bc 53bd 8c07 0abd c2e2 563d 86b1 5c3c
000001a0: 789b aa3d 5a04 06bd fb03 f03c b4ab d6bb
000001b0: cdec eebb de40 9bba e364 96bc 980a ed3c
000001c0: ba06 863d 78c3 d33c 822d b4bc 662b 0f3d
000001d0: 77c8 a83d 1fe9 c4bc 41fe 4e3c 474d 9bbb
000001e0: eaf2 23bb 7a7c 25bd 2bb4 96bd 182b 903c
000001f0: 267e 1e3c f4b9 4a3c 473d 323c de9b 3e3d
00000200: 1c57 ef3c 5cdc adbd 73a2 b3bc 2b1b 1e3d
00000210: 2d62 c03c dd16 443d 6d1c 563d 9ed3 603b
00000220: d4d3 d93d a5d0 be3d bf41 b0bb 726a 79bd
00000230: 75ea 56bc 2352 c83c 68e6 faba 77cd 783d
00000240: c142 aa3b 15a2 a5bc 9ca5 3abd eeb1 143d
00000250: 4c32 e93c 1034 bb3c 728d 813b b0d1 77bc
00000260: ab98 69bd 7e6c 27bd bc6d 393d c4d4 043d
00000270: ca3e 85bd 20f3 923c 634a 673c 7c61 11bd
00000280: 01de 59bb 181c 74bc 7ac2 bb3b 2d67 083d
00000290: 9b56 00bd de2c 0dbd 24ca 34bd 8858 973d
000002a0: 3463 0b3d 1e4e 7bbd 0121 273c 451c cd3c
000002b0: 162e d6bc 45e7 11bd c226 243d 90a0 8e3d
000002c0: 498d 433c aeb0 65bd 10ca 2f3d a485 a4bc
000002d0: f705 ca3b 1e8f dbbc 3437 0abd 7571 2abd
000002e0: 061d 4fbc 60fd b2bb 5659 0b3e a0cb 98bc
000002f0: a170 1a3d 299f 87bd 30c7 ea3b 3086 f7bc
00000300: 4ddb 323e 0184 3f3d d514 063d 553f 71bb
00000310: 94f4 953c 6613 2abd 6355 16bd 70a4 b83b
00000320: a6e5 b93d 1b8a af3d e875 5f3c 2819 51bd
00000330: ca9c 153d 9cee 86bc a012 b83b 2804 a03c
00000340: 398f 2f3d 18c1 ecbc 1f9a b3bc c756 4fbd
00000350: c80d 7e3d 6ae0 29bd ef74 ee3c 350f 813d
00000360: cbba c93c f38b a0bc 788c 81bd 205a 243c
00000370: 12f2 3c3d 8e8e 4a3d e1a1 7abc 779d 96bc
00000380: 580a 5bbb c966 80bd 88ed 10bd fb31 843b
00000390: 3e45 5b3d a894 bbbd 6683 1ebd b1e6 303d
000003a0: ab0c 0b3d c0ce 4e3d 4cd6 d03a b0a7 8cbc
000003b0: dd0b 953c abed d33c 9301 d13c 7a1f 1bbd
000003c0: f120 7c3c e147 84bd 3c2c c73d 130d ad3c
000003d0: ce79 593d 0e15 1c3d 63e9 1f3c b2dc a13c
000003e0: 4934 c63b f8a6 f4bc 2d6c 0f3d aa8e d0bb
000003f0: afbd 223c 7b43 213d 18eb 763c 6d40 393d

policy_network.6.bias f4 [128]
-0.03909234 -0.07583162 -0.012403645 -0.020938413 0.043639835 -0.07314981 -0.051066156 0.011533972
-0.00023669183 0.0027598557 0.022708097 0.0550822 -0.052147914 -0.025087496 0.0043634116 -0.047136024
0.014167408 -0.060857918 -0.03529824 -0.06797746 -0.03902204 -0.04110591 -0.056889243 -0.02316432
0.027788838 0.019292876 -0.049024146 0.011909819 -0.038847897 -0.004382953 0.019575667 -0.06295697
-0.043878272 0.047944076 -0.062307023 0.014663902 -0.05453815 0.034364063 0.014031293 -0.054357003
-0.0020831611 -0.011696333 -0.08444668 -0.006323957 -0.017726332 -0.039332528 -0.053051185 -0.0061513046
-0.032441884 -0.03329837 -0.06296258 -0.0035256632 0.016037777 -0.05786667 -0.0029040114 0.075774014
0.006367931 0.009669069 -0.0060212733 -0.0014255054 -0.02809169 0.023540728 -0.06767644 -0.066592924
-0.049834415 0.05833055 -0.04096486 -0.061175473 -0.04971278 -0.051327195 -0.036508575 -0.0051990123
0.009634645 0.062374324 -0.020296998 -0.06902098 -0.0005691597 -0.06216814 0.06733248 0.019042773
-0.024677798 -0.024976913 0.009731515 -0.059635416 -0.017658928 -0.046788026 -0.027239889 0.027097069
-0.030818976 -0.032550886 0.022018671 -0.00595827 0.0042416602 0.014300999 0.0053229863 -0.025352133
-0.04284675 -0.049732383 -0.026234128 -0.03978673 -0.0331234 -0.06332163 0.053369623 0.07001661
-0.07209923 0.022946753 0.028672112 0.019749807 0.0023683084 -0.01763557 -0.06290124 -0.073316865
-0.0352264 0.0019868808 3.9146296e-05 -0.041957475 -0.028233318 -0.017941011 0.03267072 -0.067112476
0.02961206 0.0019784526 -0.031290304 0.028643526 -0.020779 0.0012357939 0.022410179 0.021585349
00000000: 4a1f 20bd 9c4d 9bbd a838 4bbc 0987 abbc
00000010: afbf 323d 91cf 95bd bf2a 51bd fcf8 3c3c
00000020: 7b30 78b9 b2de 343b 5506 ba3c df9d 613d
00000030: 0d99 55bd 4b84 cdbc f3fa 8e3b b411 41bd
00000040: 6b1e 683c 2746 79bd e394 10bd c437 8bbd
00000050: 93d5 1fbd ac5e 28bd b204 69bd 1ac3 bdbc
00000060: 6ba5 e33c 180c 9e3c 8bcd 48bd 6721 433c
00000070: f91e 1fbd e09e 8fbb 265d a03c 95ef 80bd
00000080: b4b9 33bd 0261 443d a635 7fbd dd40 703c
00000090: 6563 5fbd 55c1 0c3d 82e3 653c 73a5 5ebd
000000a0: a585 08bb faa1 3fbc 62f2 acbd 3239 cfbb
000000b0: d036 91bc 251b 21bd 334c 59bd e290 c9bb
000000c0: c8e1 04bd df63 08bd 86f2 80bd d00e 67bb
000000d0: a861 833c 9a05 6dbd 3a51 3ebb 682f 9b3d
000000e0: 14aa d03b 046b 1e3c 1a4e c5bb 06d8 baba
000000f0: 8b20 e6bc 7cd8 c03c f299 8abd df61 88bd
00000100: 2c1f 4cbd 04ec 6e3d c5ca 27bd 2293 7abd
00000110: a19f 4bbd 773c 52bd 048a 15bd 7a5c aabb
00000120: a1da 1d3c 387c 7f3d e445 a6bc df5a 8dbd
00000130: a933 15ba 05a4 7ebd 9ce5 893d 97ff 9b3c
00000140: 1829 cabc 629c ccbc ef70 1f3c 4444 74bd
00000150: 75a9 90bc cda4 3fbd 3026 dfbc acfa dd3c
00000160: 1478 fcbc 1454 05bd 8060 b43c 973d c3bb
00000170: a0fd 8a3b bd4e 6a3c 726c ae3b 47af cfbc
00000180: 1380 2fbd 2fb4 4bbd f4e8 d6bc 69f7 22bd
00000190: 67ac 07bd c5ae 81bd 1b9a 5a3d de64 8f3d
000001a0: c3a8 93bd d4fa bb3c c7e1 ea3c 59ca a13c
000001b0: 9f35 1b3b 7978 90bc 5ed2 80bd 2727 96bd
000001c0: 8f49 10bd 5436 023b 0431 2438 9adb 2bbd
000001d0: 8f49 e7bc 07f9 92bc bcd1 053d 4472 89bd
000001e0: fe94 f23c eda8 013b 432a 00bd d4a5 ea3c
000001f0: b938 aabc 5dfa a13a 8d95 b73c c2d3 b03c

policy_network.9.weight f4 [7, 128]
0.038654868 -0.03207054 0.06784578 0.075631455 0.0008186552 -0.0734182 0.016466342 -0.073272616
-0.03846824 -0.045791633 -0.026026798 -0.04376978 0.0020200827 -0.074108206 -0.08562248 0.026954122
-0.0094133895 0.016437339 -0.07933002 0.05549361 -0.030051302 0.026866004 -0.076628275 -0.07344238
0.0066782483 0.025447544 -0.020272333 0.009286574 -0.07548607 -0.03211061 -0.017617043 0.08794645
-0.07678636 -0.0443199 -0.013755337 -0.052052617 0.06748983 -0.071435295 0.033435635 -0.07927771
0.012950266 -0.032838292 0.014496429 0.06492596 8.7702174e-05 -0.060428567 -0.051884595 -0.0077708852
-0.0026016948 -0.03557762 0.05346337 -0.05147723 0.08008927 -0.07297069 0.008017755 0.044067435
0.05457433 0.021698799 0.010631345 0.07067643 -0.04300088 0.061916277 -0.06698641 0.055696186
0.024289807 -0.011298685 0.008114924 0.01097571 0.047077507 0.034702 0.026434753 -0.046537824
0.07936198 -0.027159348 0.013191149 0.04924106 -0.02515062 0.059379376 -0.02515193 -0.00024298635
-0.011405714 0.00021514075 -0.011057398 0.010258795 0.020293584 0.021556797 -0.057573933 0.002223701
-0.02392941 0.03153349 -0.06260043 -0.011384736 0.079492345 -0.02034168 -0.04136277 -0.06347385
-0.038299423 0.04284518 0.049952045 -0.024585634 -0.012256713 0.066781126 -0.019387975 0.0013904449
0.005270126 -0.09715029 0.061640453 0.06452516 -0.049988665 -0.064040184 -0.052063607 -0.047551394
8.295753e-05 -0.064840175 0.0030981868 -0.06094307 -0.07064529 -0.07225081 0.06364529 0.0484551
0.032218985 -0.053140547 0.042412415 -0.010503629 -0.00458198 -0.07112089 -0.010576657 -0.024988722
-0.011567819 0.00043388558 0.04908194 0.020636667 0.035878845 -0.040917955 0.07849514 -0.03149148
0.07686985 0.03244938 -0.051762793 0.029463906 -0.0023797688 -0.066765025 0.016239408 -0.00046012524
-0.024319392 -0.0064064832 -0.049799003 -0.032263048 -0.013811213 0.0105775045 0.0007936867 0.052071597
-0.0051608216 -0.029035885 -0.028658384 -0.042038675 -0.07556103 0.014583015 -0.015967172 0.04010919
-0.013225189 0.040316977 -0.06427956 -0.012450448 -0.049043056 -0.0431529 -0.013706194 0.03221456
0.008654234 0.07168867 0.02023558 0.08351788 0.019775873 -0.05614145 0.087325655 0.011869136
0.014435941 0.027596526 0.02536038 -0.06808783 0.04103659 0.0695273 0.025559518 -0.016959604
0.057652116 0.026831038 -0.0012413843 -0.054671124 0.016598498 0.044600617 0.0553741 -0.018386463
-0.0663747 -0.0018487425 -0.0037643053 0.046440177 -0.030979116 0.056795385 -0.0006451086 -0.047658067
-0.0021323955 -0.0047004134 -0.056405865 -0.00031139693 -0.003912839 0.062946826 -0.03330705 -0.0033922598
-0.002694715 -0.013728536 -0.0048774034 -0.065329835 0.03431538 -0.07649931 -0.04551324 -0.016904242
0.020580767 0.027751936 0.041778293 -0.0025510562 0.027382428 0.03241057 -0.0056348257 -0.015044647
0.049151532 -0.05785869 -0.0083662 -0.08007116 -0.007628929 0.075098716 0.001334083 0.0125065455
-0.0035361 -0.009745727 -0.043185897 0.048799198 -0.05839705 -0.015627323 0.000468059 -0.009475962
-0.024009926 -0.045812335 -0.077820025 0.017965503 -0.089553565 0.0042756265 -0.04414439 0.04165271
0.00046060485 0.0014285984 0.003506505 -0.00148419 -0.02180434 0.014729368 0.0053367657 0.055535942
00000000: 9154 1e3d 665c 03bd baf2 8a3d aae4 9a3d
00000010: 059b 563a 485c 96bd 6ce4 863c f40f 96bd
00000020: e090 1dbd 0290 3bbd 2736 d5bc f147 33bd
00000030: 5d63 043b 0bc6 97bd d75a afbd e4ce dc3c
00000040: 9e3a 1abc 99a7 863c c777 a2bd 454d 633d
00000050: 262e f6bc 1816 dc3c 49ef 9cbd f568 96bd
00000060: 35d5 da3b 5e77 d03c 2a12 a6bc b726 183c
00000070: 7198 9abd 6a86 03bd 9e51 90bc 451d b43d
00000080: 2b42 9dbd c988 35bd 115e 61bc 2035 55bd
00000090: 1c38 8a3d ab4c 92bd cef3 083d 5a5c a2bd
000000a0: 5a2d 543c 7281 06bd 6e82 6d3c e7f7 843d
000000b0: bfec b738 f283 77bd f184 54bd e9a2 febb
000000c0: 3281 2abb d7b9 11bd 68fc 5a3d cad9 52bd
000000d0: d805 a43d a871 95bd e75c 033c 0e80 343d
000000e0: 5589 5f3d aec1 b13c 182f 2e3c cebe 903d
000000f0: b121 30bd ec9b 7d3d 2c30 89bd af21 643d
00000100: 6bfb c63c 1f1e 39bc 75f4 043c 77d3 333c
00000110: 58d4 403d af23 0e3d b28d d83c 729e 3ebd
00000120: 8988 a23d 487d debc b01f 583c feb0 493d
00000130: ac08 cebc ca37 733d 6c0b cebc 27ca 7eb9
00000140: 08df 3abc 6897 6139 172a 35bc 8114 283c
00000150: bb3e a63c e197 b03c a5d2 6bbd 83bb 113b
00000160: 9c07 c4bc 4329 013d a734 80bd 0b87 3abc
00000170: e2cc a23d 98a3 a6bc 026c 29bd 94fe 81bd
00000180: dbdf 1cbd 6d7e 2f3d 849a 4c3d d067 c9bc
00000190: 61d0 48bc 8bc4 883d 88d3 9ebc 973f b63a
000001a0: 05b1 ac3b bbf6 c6bd b37a 7c3d c425 843d
000001b0: eac0 4cbd 8027 83bd a640 55bd 40c5 42bd
000001c0: 7cf9 ad38 edca 84bd f30a 4b3b 719f 79bd
000001d0: 7aae 90bd 3cf8 93bd 7658 823d db78 463d
000001e0: 0ef8 033d e7a9 59bd a4b8 2d3d 6a17 2cbc
000001f0: 6f24 96bb d4a7 91bd b749 2dbc 26b5 ccbc
00000200: f386 3dbc 237b e339 250a 493d 3a0e a93c
00000210: b2f5 123d 9699 27bd 0fc2 a03d 36fd 00bd
00000220: f16d 9d3d a4e9 043d 3905 54bd 4a5e f13c
00000230: e5f5 1bbb 1abc 88bd 8208 853c f73c f1b9
00000240: 7639 c7bc 7aed d1bb 0afa 4bbd 4226 04bd
00000250: 6d48 62bc 454d 2d3c 6a0f 503a 0749 553d
00000260: 1c1c a9bb aadc edbc fdc4 eabc bf30 2cbd
00000270: bebf 9abd 99ed 6e3c 96cd 82bc 8949 243d
00000280: 77ae 58bc 6a23 253d 01a5 83bd f7fc 4bbc
00000290: 5fe1 48bd 18c1 30bd f28f 60bc 6af3 033d
000002a0: 7dca 0d3c 82d1 923d 16c5 a53c 6c0b ab3d
000002b0: 0301 a23c 94f4 65bd cbd7 b23d c476 423c
000002c0: ba84 6c3c 1c12 e23c 92c0 cf3c a271 8bbd
000002d0: fc15 283d 5464 8e3d 3262 d13c deee 8abc
000002e0: a024 6c3d c4cc db3c f2b5 a2ba d4ee 5fbd
000002f0: 93f9 873c 23af 363d f4cf 623d 359f 96bc
00000300: 75ef 87bd 8151 f2ba 90b2 76bb 0e38 3e3d
00000310: eac7 fdbc 47a2 683d 811c 29ba 1b35 43bd
00000320: a9bf 0bbb ed05 9abb d609 67bd fd42 a3b9
00000330: 4637 80bb 44ea 803d f96c 08bd ad50 5ebb
00000340: d199 30bb a7ed 60bc a0d2 9fbb a6cb 85bd
00000350: 498e 0c3d acab 9cbd 176c 3abd c47a 8abc
00000360: ff98 a83c 0758 e33c b71f 2b3d 9f2f 27bb
00000370: 1d51 e03c f2c0 043d 58a4 b8bb d37d 76bc
00000380: 1e53 493d 3cfd 6cbd 6312 09bc 59fc a3bd
00000390: 18fc f9bb 5bcd 993d 66dc ae3a 41e8 4c3c
000003a0: eabd 67bb 8bac 1fbc b2e3 30bd abe1 473d
000003b0: bf31 6fbd df04 80bc d165 f539 1141 1bbc
000003c0: 77b0 c4bc b7a5 3bbd 1b60 9fbd 642c 933c
000003d0: dc67 b7bd 8e1a 8c3b bfd0 34bd 089c 2a3d
000003e0: 567d f139 cf3f bb3a 64cd 653b 2789 c2ba
000003f0: 049f b2bc 7253 713c 09e0 ae3b a879 633d

policy_network.9.bias f4 [7]
0.006612405 0.004474714 0.0016255621 -0.001140689 -0.0027902052 0.0032670377 0.024222495
00000000: e0ac d83b 9fa0 923b d010 d53a 2c83 95ba
00000010: e0db 36bb cc1b 563b 416e c63c

exp_avg f4 [128, 15]
-3.0117804e-05 -1.2075657e-05 1.6419004e-05 -2.5580297e-05 -1.9033292e-05 5.54297e-05 1.0138285e-05 6.4405226e-06
1.845429e-07 9.3969265e-06 9.978964e-06 5.9394335e-07 -1.0082565e-06 2.41876e-07 5.990987e-08 4.551447e-06
-6.4625883e-06 -1.3034975e-06 9.585912e-06 -6.01739e-06 8.298294e-06 -1.4656158e-06 2.9820376e-06 2.2259364e-06
-3.0547088e-07 1.8811883e-06 -2.6045623e-06 3.8083294e-07 -1.0739956e-07 1.06458415e-07 -1.08526165e-05 1.8930941e-06
6.34426e-06 -1.1734843e-05 2.2897464e-06 -3.070996e-06 9.822279e-07 -2.3549342e-06 -1.9666384e-06 1.5557916e-06
-6.0645937e-07 2.0699695e-06 -3.833282e-07 3.0374042e-07 1.3008665e-07 0.0 0.0 0.0
0.0 0.0 0.0 0.0 0.0 0.0 0.0 0.0
0.0 0.0 0.0 0.0 0.00011253777 2.1994807e-05 -7.028644e-05 9.5501775e-05
4.168624e-05 -7.25963e-05 -1.3980706e-05 5.2794417e-06 8.730848e-06 -2.2037242e-05 -1.8110906e-05 -2.3316943e-06
-3.061648e-07 -3.6010093e-08 2.0697361e-07 0.0 0.0 0.0 0.0 0.0
0.0 0.0 0.0 0.0 0.0 0.0 0.0 0.0
0.0 0.0 -3.5857072e-05 -1.284483e-05 2.259572e-05 -2.7878064e-05 -1.9408242e-05 3.9470262e-05
5.9243657e-06 1.8283788e-06 -9.250384e-07 8.606459e-06 8.075111e-06 -3.970542e-07 2.0601696e-07 3.540033e-08
6.34203e-08 0.0 0.0 0.0 0.0 0.0 0.0 0.0
0.0 0.0 0.0 0.0 0.0 0.0 0.0 0.0
0.0 0.0 0.0 0.0 0.0 0.0 0.0 0.0
0.0 0.0 0.0 0.0 0.0 0.0 0.0 0.0
0.0 0.0 0.0 0.0 0.0 0.0 0.0 0.0
0.0 0.0 0.0 0.0 0.0 0.0 -1.679514e-05 -4.619868e-06
8.639847e-06 -1.1168527e-05 -7.2151993e-06 1.2077995e-05 2.5742033e-06 -7.372253e-07 -5.2437537e-07 3.192744e-06
3.3451008e-06 8.352376e-09 -6.895508e-08 -1.6485046e-07 5.4497082e-09 0.0 0.0 0.0
0.0 0.0 0.0 0.0 0.0 0.0 0.0 0.0
0.0 0.0 0.0 0.0 0.0 0.0 0.0 0.0
0.0 0.0 0.0 0.0 0.0 0.0 0.0 0.0
0.0 0.0 0.0 0.0 0.0 0.0 0.0 0.0
0.0 0.0 0.0 0.0 0.0 0.0 0.0 0.0
0.0 0.0 -8.39522e-06 6.734234e-07 6.2239255e-06 -1.1045292e-05 -1.3548803e-06 5.577021e-06
1.2147145e-06 -7.7414576e-08 -1.6653355e-06 1.9238094e-06 8.191681e-07 1.0254595e-06 -2.472325e-07 2.7795068e-07
-6.915695e-08 0.0 0.0 0.0 0.0 0.0 0.0 0.0
0.0 0.0 0.0 0.0 0.0 0.0 0.0 0.0
-5.383136e-05 -1.9720947e-05 3.4680386e-05 -4.2534786e-05 -3.0122088e-05 6.276757e-05 9.152767e-06 3.5710248e-06
-1.534208e-06 1.3435845e-05 1.2386601e-05 -8.537292e-07 2.2297348e-07 2.9808258e-13 1.9621846e-11 -1.3861314e-05
00000000: 7ea5 fcb7 8d98 4ab7 8bbb 8937 4595 d6b7
00000010: afa9 9fb7 307d 6838 9a17 2a37 ab1b d836
00000020: c426 4634 7ea7 1d37 536b 2737 7a6f 1f35
00000030: 6e53 87b5 2fdb 8134 cda7 8033 a2b8 9836
00000040: 36d9 d8b6 d5f3 aeb5 2ed3 2037 fde8 c9b6
00000050: e738 0b37 2db6 c4b5 041f 4836 4c61 1536
00000060: 99ff a3b4 237d fc35 0aca 2eb6 4875 cc34
00000070: 88a3 e6b3 229e e433 a213 36b7 3816 fe35
00000080: c7e0 d436 c4e0 44b7 8ba9 1936 4f17 4eb6
00000090: 18d5 8335 7609 1eb6 97fa 03b6 98d0 d035
000000a0: 92cb 22b5 cee9 0a36 3acc cdb4 c411 a334
000000b0: f2ad 0b34 0000 0000 0000 0000 0000 0000
000000c0: 0000 0000 0000 0000 0000 0000 0000 0000
000000d0: 0000 0000 0000 0000 0000 0000 0000 0000
000000e0: 0000 0000 0000 0000 0000 0000 0000 0000
000000f0: 4102 ec38 7d81 b837 bf66 93b8 2048 c838
00000100: 42d8 2e38 d73e 98b8 ad8e 6ab7 0f26 b136
00000110: b57a 1237 9edc b8b7 e0ec 97b7 347a 1cb6
00000120: f85e a4b4 84a9 1ab3 793c 5e34 0000 0000
00000130: 0000 0000 0000 0000 0000 0000 0000 0000
00000140: 0000 0000 0000 0000 0000 0000 0000 0000
00000150: 0000 0000 0000 0000 0000 0000 0000 0000
00000160: 0000 0000 0000 0000 3d65 16b8 2080 57b7
00000170: f08b bd37 b0db e9b7 e2ce a2b7 df8c 2538
00000180: eac9 c636 9e66 f535 2850 78b5 7664 1037
00000190: 567a 0737 b72a d5b4 8335 5d34 130b 1833
000001a0: ae31 8833 0000 0000 0000 0000 0000 0000
000001b0: 0000 0000 0000 0000 0000 0000 0000 0000
000001c0: 0000 0000 0000 0000 0000 0000 0000 0000
000001d0: 0000 0000 0000 0000 0000 0000 0000 0000
000001e0: 0000 0000 0000 0000 0000 0000 0000 0000
000001f0: 0000 0000 0000 0000 0000 0000 0000 0000
00000200: 0000 0000 0000 0000 0000 0000 0000 0000
00000210: 0000 0000 0000 0000 0000 0000 0000 0000
00000220: 0000 0000 0000 0000 0000 0000 0000 0000
00000230: 0000 0000 0000 0000 0000 0000 0000 0000
00000240: 0000 0000 0000 0000 0000 0000 0000 0000
00000250: 0000 0000 0000 0000 4ae3 8cb7 5d04 9bb6
00000260: dcf3 1037 7560 3bb7 171a f2b6 98a2 4a37
00000270: 7ac0 2c36 bde5 45b5 cdc2 0cb5 ed42 5636
00000280: 657c 6036 237e 0f32 7514 94b3 c001 31b4
00000290: 2440 bb31 0000 0000 0000 0000 0000 0000
000002a0: 0000 0000 0000 0000 0000 0000 0000 0000
000002b0: 0000 0000 0000 0000 0000 0000 0000 0000
000002c0: 0000 0000 0000 0000 0000 0000 0000 0000
000002d0: 0000 0000 0000 0000 0000 0000 0000 0000
000002e0: 0000 0000 0000 0000 0000 0000 0000 0000
000002f0: 0000 0000 0000 0000 0000 0000 0000 0000
00000300: 0000 0000 0000 0000 0000 0000 0000 0000
00000310: 0000 0000 0000 0000 0000 0000 0000 0000
00000320: 0000 0000 0000 0000 0000 0000 0000 0000
00000330: 0000 0000 0000 0000 0000 0000 0000 0000
00000340: 0000 0000 0000 0000 32d9 0cb7 4ec5 3435
00000350: 1dd7 d036 2b4f 39b7 55d9 b5b5 3f22 bb36
00000360: 4609 a335 1d3f a6b3 7e84 dfb5 cb1a 0136
00000370: cee4 5b35 85a2 8935 60bb 84b4 4039 9534
00000380: 6f83 94b3 0000 0000 0000 0000 0000 0000
00000390: 0000 0000 0000 0000 0000 0000 0000 0000
000003a0: 0000 0000 0000 0000 0000 0000 0000 0000
000003b0: 0000 0000 0000 0000 0000 0000 0000 0000
000003c0: fcc8 61b8 696e a5b7 c875 1138 6167 32b8
000003d0: b1ae fcb7 15a2 8338 d68e 1937 bda5 6f36
000003e0: fcea cdb5 846a 6137 0cd0 4f37 d32b 65b5
000003f0: 7c6a 6f34 3ace a72a 7898 ac2d e48d 68b7

exp_avg_sq f4 [128, 15]
1.739836e-07 2.2800679e-08 7.462951e-08 1.0914773e-07 4.4805486e-08 1.8199057e-07 4.3585446e-09 5.254649e-10
1.7996922e-10 8.982655e-09 8.791051e-09 1.727306e-11 1.33330335e-11 6.048444e-11 5.6594772e-12 2.3383148e-08
2.9453482e-09 9.513984e-09 1.3901949e-08 5.6936025e-09 2.1705688e-08 5.699003e-10 5.313826e-11 2.2867336e-11
1.1135824e-09 1.1537739e-09 2.4431629e-12 1.5247493e-12 8.968471e-12 1.8349864e-12 1.535562e-08 1.7343144e-09
6.08953e-09 9.496478e-09 3.772067e-09 1.4959719e-08 4.029485e-10 5.057266e-11 2.1229725e-11 7.525769e-10
7.6920814e-10 1.5230638e-12 1.0856727e-12 1.791086e-11 1.2490077e-12 0.0 0.0 0.0
0.0 0.0 0.0 0.0 0.0 0.0 0.0 0.0
0.0 0.0 0.0 0.0 1.1538336e-07 1.3099229e-08 4.7296854e-08 7.232222e-08
2.7488538e-08 1.0583226e-07 2.7514306e-09 3.341361e-10 1.6227023e-10 5.448784e-09 5.6841944e-09 7.877125e-12
6.6769923e-12 2.4177039e-11 7.207921e-12 0.0 0.0 0.0 0.0 0.0
0.0 0.0 0.0 0.0 0.0 0.0 0.0 0.0
0.0 0.0 2.7159615e-09 3.5048614e-10 1.1192568e-09 1.6258096e-09 6.9397693e-10 2.7775033e-09
6.837817e-11 7.509682e-12 2.647626e-12 1.3902891e-10 1.344921e-10 3.3195126e-13 1.9050295e-13 4.178395e-12
1.479802e-12 0.0 0.0 0.0 0.0 0.0 0.0 0.0
0.0 0.0 0.0 0.0 0.0 0.0 0.0 0.0
0.0 0.0 0.0 0.0 0.0 0.0 0.0 0.0
0.0 0.0 0.0 0.0 0.0 0.0 0.0 0.0
0.0 0.0 0.0 0.0 0.0 0.0 0.0 0.0
0.0 0.0 0.0 0.0 0.0 0.0 5.003305e-09 6.536791e-10
2.0070205e-09 2.8007656e-09 1.1668876e-09 4.191146e-09 1.1280978e-10 6.749478e-12 3.8556606e-12 2.2652255e-10
2.3639912e-10 4.0240673e-13 2.8725346e-13 3.1907597e-12 1.4769973e-12 0.0 0.0 0.0
0.0 0.0 0.0 0.0 0.0 0.0 0.0 0.0
0.0 0.0 0.0 0.0 0.0 0.0 0.0 0.0
0.0 0.0 0.0 0.0 0.0 0.0 0.0 0.0
0.0 0.0 0.0 0.0 0.0 0.0 0.0 0.0
0.0 0.0 0.0 0.0 0.0 0.0 0.0 0.0
0.0 0.0 4.6286064e-09 5.5868615e-10 1.8619143e-09 2.7348916e-09 1.0788547e-09 4.019026e-09
1.07016354e-10 1.1214153e-11 5.486477e-12 2.1140063e-10 2.242421e-10 4.3122342e-13 3.0408662e-13 5.309776e-12
2.1982808e-12 0.0 0.0 0.0 0.0 0.0 0.0 0.0
0.0 0.0 0.0 0.0 0.0 0.0 0.0 0.0
5.6703633e-09 7.822454e-10 2.4933204e-09 3.589486e-09 1.5054777e-09 6.3120504e-09 1.4208155e-10 2.0688432e-11
5.9290858e-12 3.035113e-10 2.92888e-10 7.822375e-13 4.639261e-13 3.3466405e-12 1.7288154e-12 8.966244e-09
00000000: 3fd0 3a34 39db c332 0244 a033 9964 ea33
00000010: 2770 4033 3069 4334 2ac2 9531 4e70 1030
00000020: d5e0 452f 2252 1a32 7407 1732 79ef 972d
00000030: a58e 6a2d b601 852e 0a20 c72c 16dc c832
00000040: 1d67 4a31 f272 2332 6bd5 6e32 75a1 c331
00000050: 5073 ba32 2ba7 1c30 5db4 692e aa24 c92d
00000060: b30c 9930 cf92 9e30 1cec 2b2c e296 d62b
00000070: 67c6 1d2d 2d20 012c 5ee7 8332 c35c ee30
00000080: 133c d131 f425 2332 749b 8131 c580 8032
00000090: f685 dd2f c16b 5e2e 17bd ba2d e4dd 4e30
000000a0: 3670 5330 285a d62b 7bcb 982b ac8b 9d2d
000000b0: 3fc8 af2b 0000 0000 0000 0000 0000 0000
000000c0: 0000 0000 0000 0000 0000 0000 0000 0000
000000d0: 0000 0000 0000 0000 0000 0000 0000 0000
000000e0: 0000 0000 0000 0000 0000 0000 0000 0000
000000f0: acc8 f733 050b 6132 7123 4b33 904f 9b33
00000100: ef1f ec32 e645 e333 ae13 3d31 7ab1 b72f
00000110: 026b 322f 0338 bb31 b44e c331 6b93 0a2d
00000120: 00ed ea2c daa9 d42d 2e9b fd2c 0000 0000
00000130: 0000 0000 0000 0000 0000 0000 0000 0000
00000140: 0000 0000 0000 0000 0000 0000 0000 0000
00000150: 0000 0000 0000 0000 0000 0000 0000 0000
00000160: 0000 0000 0000 0000 b3a3 3a31 8aae c02f
00000170: 59d4 9930 1773 df30 49c2 3e30 5bde 3e31
00000180: 7d5d 962e 9a1c 042d 644f 3a2c 29dd 182f
00000190: 29e0 132f 38df ba2a bd7c 562a a303 932c
000001a0: 7c43 d02b 0000 0000 0000 0000 0000 0000
000001b0: 0000 0000 0000 0000 0000 0000 0000 0000
000001c0: 0000 0000 0000 0000 0000 0000 0000 0000
000001d0: 0000 0000 0000 0000 0000 0000 0000 0000
000001e0: 0000 0000 0000 0000 0000 0000 0000 0000
000001f0: 0000 0000 0000 0000 0000 0000 0000 0000
00000200: 0000 0000 0000 0000 0000 0000 0000 0000
00000210: 0000 0000 0000 0000 0000 0000 0000 0000
00000220: 0000 0000 0000 0000 0000 0000 0000 0000
00000230: 0000 0000 0000 0000 0000 0000 0000 0000
00000240: 0000 0000 0000 0000 0000 0000 0000 0000
00000250: 0000 0000 0000 0000 89e9 ab31 94ae 3330
00000260: e1eb 0931 9777 4031 3560 a030 b601 9031
00000270: 4312 f82e e579 ed2c b4a8 872c 6e10 792f
00000280: 38f6 812f ec88 e22a 96b5 a12a 9e87 602c
00000290: 70de cf2b 0000 0000 0000 0000 0000 0000
000002a0: 0000 0000 0000 0000 0000 0000 0000 0000
000002b0: 0000 0000 0000 0000 0000 0000 0000 0000
000002c0: 0000 0000 0000 0000 0000 0000 0000 0000
000002d0: 0000 0000 0000 0000 0000 0000 0000 0000
000002e0: 0000 0000 0000 0000 0000 0000 0000 0000
000002f0: 0000 0000 0000 0000 0000 0000 0000 0000
00000300: 0000 0000 0000 0000 0000 0000 0000 0000
00000310: 0000 0000 0000 0000 0000 0000 0000 0000
00000320: 0000 0000 0000 0000 0000 0000 0000 0000
00000330: 0000 0000 0000 0000 0000 0000 0000 0000
00000340: 0000 0000 0000 0000 a709 9f31 0b92 1930
00000350: 49e6 ff30 b9f0 3b31 d346 9430 ba17 8a31
00000360: da54 eb2e 0e48 452d cb09 c12c fd6f 682f
00000370: 8a8e 762f d8c1 f22a 802f ab2a 36d2 ba2c
00000380: b5b0 1a2c 0000 0000 0000 0000 0000 0000
00000390: 0000 0000 0000 0000 0000 0000 0000 0000
000003a0: 0000 0000 0000 0000 0000 0000 0000 0000
000003b0: 0000 0000 0000 0000 0000 0000 0000 0000
000003c0: 0bd5 c231 a005 5730 f556 2b31 e8aa 7631
000003d0: 4ae9 ce30 62e1 d831 6738 1c2f 35fa b52d
000003e0: 759c d02c 6bdb a62f 5204 a12f 272e 5c2b
000003f0: 6695 022b b77f 6b2c 244f f32b f509 1a32
