robot_state_berkeley_training/robot_state_epoch_1.pth (torch, 838027 bytes, 24 tensors)

policy_network.0.weight f4 [128, 15]
-0.06507482 0.016785666 0.20917916 0.11892912 0.08776692 0.01393989 0.16123211 -0.109991655
0.06816179 0.20828861 -0.11012302 0.10863092 0.19489607 0.13050333 0.1618248 0.09825706
0.087870926 -0.097658016 -0.16953786 -0.07152514 0.13698249 0.09792081 -0.05375557 -0.21051884
-0.027402103 -0.118619345 0.11073159 -0.1867885 0.21964447 0.06639971 -0.009535499 -0.08642384
-0.2092551 0.039261457 -0.038113132 0.14331783 0.18477802 0.17776467 0.22681656 -0.12729685
0.2515369 0.06532752 -0.10517028 0.074249014 -0.108684674 0.19315524 -0.129924 -0.051801074
-0.0955226 -0.12936701 -0.18899918 0.008251854 0.18019748 0.23414199 -0.05951995 -0.061612107
0.14260837 -0.06521142 0.070706494 -0.006390821 0.06703368 -0.009633512 0.18305932 -0.2279901
-0.035303086 -0.2512584 0.098935954 -0.03034447 -0.20315933 0.09107292 -0.08085337 0.06211508
-0.20608039 0.21605307 0.18088394 0.015704544 0.07467951 0.013595396 -0.113071315 0.051129248
-0.08273961 -0.1920192 -0.19081734 0.23896115 -0.013201416 -0.14713082 0.10875113 -0.22920376
-0.25111547 -0.20342153 -0.11993817 0.22380307 0.15389638 0.13973594 -0.1952953 0.17299254
-0.123087026 -0.24136446 0.07374252 0.05274047 -0.07695017 0.03494697 -0.21363278 0.015034523
0.086903416 0.044976015 -0.0057647005 -0.21142513 0.16290526 0.1964123 0.1586797 0.10307588
0.05507028 -0.09803983 0.116359726 -0.085960425 0.03188282 -0.15432917 -0.15054837 -0.17595616
-0.04227414 0.1530953 -0.20465507 0.1159739 0.22439907 -0.2231207 0.16480778 -0.19009045
0.18847454 -0.17246756 0.092211016 0.2501889 0.05080775 -0.14482874 -0.0853781 -0.10772626
-0.18271233 -0.21741275 0.25390825 -0.10747316 -0.11422684 0.2544008 0.16400732 0.24244718
0.1574675 -0.09919246 0.091738485 0.20060968 0.1605435 -0.20682096 -0.2250344 0.008810532
-0.13974965 -0.096907035 -0.19187263 -0.118590735 -0.17129955 -0.10344228 -0.15137513 0.03144164
-0.21544185 -0.15704827 0.16126741 0.17201887 -0.023423877 0.23025969 0.05353308 0.13833976
0.039805546 -0.09473166 -0.20264322 -0.0035206443 -0.1534465 -0.23725991 0.1148577 0.0140651865
0.25002608 0.17831902 -0.129484 0.14641094 0.20424646 -0.16721047 -0.23049106 0.197429
-0.15720916 0.10646109 -0.23418546 -0.060773235 -0.00012795124 -0.1905936 0.17176156 -0.010243825
0.22083673 0.18517752 -0.049756225 0.24931498 0.064499244 0.20261289 0.19364126 0.13346875
-0.17058301 0.17003596 -0.25364053 -0.1394084 -0.17917387 -0.13276279 0.23354976 0.0046323766
-0.05645235 0.25230592 -0.2461622 -0.24819282 -0.22618216 -0.17121056 -0.15983707 0.10592543
0.08492939 0.21487047 0.27478653 -0.24603263 -0.26056385 -0.19521789 0.22981796 -0.014440023
0.08505934 -0.06132607 0.17647141 -0.24045664 0.16447444 0.20417853 -0.014144445 -0.14442588
-0.118929155 -0.048185106 0.09821773 0.11078675 -0.20685741 -0.1921759 0.08981235 -0.1326011
-0.22597228 0.21706544 0.21313968 0.07440538 0.17756546 0.18433675 -0.07374998 0.054931924
0.21588011 -0.19348668 -0.06476794 0.034806903 -0.020606713 -0.21795225 -0.17628995 -0.07688052
00000000: f245 85bd 1882 893c 1033 563e 1c91 f33d
00000010: 25bf b33d 2364 643c 081a 253e 4e43 e1bd
00000020: 6998 8b3d 9c49 553e 2e88 e1bd e379 de3d
00000030: d692 473e aaa2 053e 66b5 253e ff3a c93d
00000040: acf5 b33d ed00 c8bd 559b 2dbe c67b 92bd
00000050: 2345 0c3e b58a c83d cd2e 5cbd 4092 57be
00000060: 607a e0bc b3ee f2bd 3ec7 e23d 7c45 3fbe
00000070: 7bea 603e 92fc 873d c83a 1cbc fbfe b0bd
00000080: f846 56be 9fd0 203d 841c 1cbd e9c1 123e
00000090: 7336 3d3e f107 363e 9a42 683e 1b5a 02be
000000a0: 72c9 803e 6fca 853d 8463 d7bd de0f 983d
000000b0: 1296 debd 7dca 453e cc0a 05be 5d2d 54bd
000000c0: 5aa1 c3bd c978 04be 0089 41be c932 073c
000000d0: b085 383e ebc2 6f3e 31cb 73bd fa5c 7cbd
000000e0: ee07 123e 918d 85bd 91ce 903d 186a d1bb
000000f0: f448 893d e1d5 1dbc e773 3b3e 3d76 69be
00000100: f899 10bd f1a4 80be ef9e ca3d f794 f8bc
00000110: 0009 50be 7084 ba3d 7496 a5bd 626c 7e3d
00000120: bd06 53be 043d 5d3e a439 393e d1a6 803c
00000130: 92f1 983d 39bf 5e3c ef91 e7bd e76c 513d
00000140: 6273 a9bd aea0 44be 9f65 43be 3bb2 743e
00000150: c04a 58bc 76a9 16be eab8 de3d 64b4 6abe
00000160: 3592 80be bc4d 50be 25a2 f5bd a22c 653e
00000170: 0397 1d3e f016 0f3e 7efb 47be f524 313e
00000180: 0d15 fcbd 3f28 77be 5106 973d 6406 583d
00000190: 0d98 9dbd 8e24 0f3d 8dc2 5abe 5c53 763c
000001a0: 6bfa b13d c538 383d d0e5 bcbb d47f 58be
000001b0: a3d0 263e 4e20 493e ee7c 223e 7219 d33d
000001c0: 6091 613d 1bc9 c8bd 024e ee3d 050c b0bd
000001d0: 8f97 023d 7708 1ebe 5a29 1abe da2d 34be
000001e0: a627 2dbd 04c5 1c3e 1991 51be b983 ed3d
000001f0: dfc8 653e c179 64be 5fc3 283e 12a7 42be
00000200: 78ff 403e 569b 30be 21d9 bc3d c218 803e
00000210: ca1b 503d fc4d 14be b7da aebd 969f dcbd
00000220: f118 3bbe 73a1 5ebe 4300 823e e31a dcbd
00000230: c3ef e9bd d240 823e 89f1 273e 1344 783e
00000240: 293f 213e 6b25 cbbd 63e1 bb3d a06c 4d3e
00000250: 8465 243e e0c8 53be 6b6f 66be 0d5a 103c
00000260: 881a 0fbe 3277 c6bd 427a 44be b3df f2bd
00000270: 2669 2fbe 8cd9 d3bd 1502 1bbe f3c8 003d
00000280: ca9c 5cbe 43d1 20be 4923 253e b725 303e
00000290: 6ee3 bfbc 32c9 6b3e 8145 5b3d f0a8 0d3e
000002a0: 240b 233d ac02 c2bd b481 4fbe 9cba 66bb
000002b0: 1421 1dbe 43f4 72be 843a eb3d ab71 663c
000002c0: 6b03 803e 4399 363e 7497 04be c0ec 153e
000002d0: fc25 513e 3939 2bbe d905 6cbe d42a 4a3e
000002e0: 70fb 20be 4608 da3d 50ce 6fbe 5bed 78bd
000002f0: a62a 06b9 f82a 43be 43e2 2f3e b7d5 27bc
00000300: 0623 623e 2d9f 3d3e 2fcd 4bbd 6d4c 7f3e
00000310: 2e18 843d c179 4f3e e549 463e 08ac 083e
00000320: 50ad 2ebe e81d 2e3e 2cdd 81be 13c1 0ebe
00000330: 5b79 37be f8f2 07be ab27 6f3e 31cb 973b
00000340: 943a 67bd 3e2e 813e f211 7cbe 4226 7ebe
00000350: 4c9c 67be d251 2fbe 54ac 23be 6fef d83d
00000360: 76ef ad3d 0107 5c3e d2b0 8c3e faef 7bbe
00000370: a068 85be 33e7 47be 6655 6b3e d995 6cbc
00000380: 9733 ae3d 0c31 7bbd ecb4 343e 443a 76be
00000390: fd6b 283e 2d14 513e 1abe 67bc 61e4 13be
000003a0: 2191 f3bd bf5d 45bd 6126 c93d 2ae4 e23d
000003b0: 6ed2 53be c2c9 44be 8aef b73d 95c8 07be
000003c0: 4765 67be 6746 5e3e 4a41 5a3e d961 983d
000003d0: b8d3 353e c6c2 3c3e 3b0a 97bd 4c00 613d
000003e0: ad0f 5d3e 5f21 46be 0ea5 84bd af91 0e3d
000003f0: 69cf a8bc e02e 5fbe 5a85 34be 8973 9dbd

policy_network.0.bias f4 [128]
-0.23451419 0.16585281 -0.059255637 0.0045538573 0.08035403 -0.0918938 0.17986624 0.08099252
0.19977744 0.037817147 -0.08211215 0.10035677 0.17702726 0.1725037 -0.043698177 0.24832934
0.17904434 -0.15909313 0.009401956 -0.11026901 0.19034189 -0.10599121 -0.18784684 -0.17807138
0.15718608 -0.14674543 0.097759545 -0.21724632 -0.17400727 0.036360405 0.05120487 0.12907742
-0.22530846 -0.02430364 -0.18212025 -0.19169949 -0.17421542 0.08152451 -0.21690495 0.07903304
0.08067896 -0.009278111 0.04412717 0.1777713 -0.03137166 -0.16256832 -0.054229442 0.013555397
-0.18883546 -0.13331866 0.07451431 -0.12963697 -0.17278501 0.17652777 0.052998744 0.15301672
-0.07190929 -0.15103407 0.18657403 -0.024975177 -0.17192759 -0.2162765 -0.062675 0.1529747
0.1699004 0.1814712 0.049093753 0.1755966 -0.08167727 -0.0949023 -0.14680277 -0.029079996
-0.1321526 0.23697637 -0.096312374 -0.19681413 -0.13056143 0.14606445 -0.19101319 -0.06799268
0.2301419 -0.12762274 0.08017334 0.163865 -0.05570511 0.038387094 -0.04896595 -0.028313236
0.03787764 0.21333797 -0.17107752 0.25467092 -0.25062707 0.028236283 -0.07757985 -0.02334444
0.12873763 0.0567057 0.139688 -0.1699081 0.024688432 -0.25362965 0.22687475 -0.03549578
-0.20488033 0.083848245 -0.20468237 0.06778052 -0.18698159 0.23004547 0.13708651 -0.119036295
-0.21205668 -0.24497351 0.23543774 -0.00537186 0.22340205 -0.052785147 -0.08452372 0.11610952
-0.19027832 0.03128037 0.13526835 -0.14282863 0.19622447 -0.016181968 -0.13318834 -0.18074659
00000000: 7d24 70be 52d5 293e 0ab6 72bd 8638 953b
00000010: a790 a43d d132 bcbd db2e 383e 68df a53d
00000020: 7592 4c3e 27e6 1a3d 6a2a a8bd da87 cd3d
00000030: a246 353e cfa4 303e dcfc 32bd 0c4a 7e3e
00000040: 6657 373e 4fe9 22be a90a 1a3c b8d4 e1bd
00000050: fce8 423e eb11 d9bd ec5a 40be 5858 36be
00000060: 63f5 203e 6f44 16be 2836 c83d d275 5ebe
00000070: f62e 32be a6ee 143d 33bc 513d df2c 043e
00000080: 43b7 66be 6d18 c7bc bb7d 3abe df4c 44be
00000090: 8765 32be 53f6 a63d 551c 5ebe 13dc a13d
000000a0: 033b a53d 3803 18bc b1be 343d ae09 363e
000000b0: 927f 00bd 4f78 26be b11f 5ebd 7517 5e3c
000000c0: 155e 41be b084 08be f59a 983d 8ebf 04be
000000d0: 8eee 30be b2c3 343e 3615 593d 6ab0 1c3e
000000e0: 2e45 93bd ada8 1abe 430d 3f3e be98 ccbc
000000f0: c90d 30be 9677 5dbe c05b 80bd 66a5 1c3e
00000100: 5ffa 2d3e 96d3 393e 8816 493d 98cf 333e
00000110: 6a46 a7bd 235c c2bd 7753 16be 2c39 eebc
00000120: 0353 07be efa9 723e 6c3f c5bd a589 49be
00000130: e5b1 05be eb91 153e f698 43be bf3f 8bbd
00000140: 51aa 6b3e 89af 02be ec31 a43d 3acc 273e
00000150: 0b2b 64bd c93b 1d3d 8590 48bd 29f1 e7bc
00000160: 9625 1b3d 4575 5a3e f22e 2fbe 3a64 823e
00000170: 3152 80be c74f e73c 2fe2 9ebd d73c bfbc
00000180: ccd3 033e 3c44 683d 5f0a 0f3e 64fc 2dbe
00000190: 653f ca3c bfdb 81be db51 683e 0664 11bd
000001a0: 26cc 51be a1b8 ab3d 4198 51be 83d0 8a3d
000001b0: 1a78 3fbe 0a91 6b3e 6860 0c3e 4dc9 f3bd
000001c0: 6325 59be 56da 7abe 9716 713e 6e06 b0bb
000001d0: 82c3 643e 3d35 58bd c61a adbd d4ca ed3d
000001e0: 52d8 42be d81f 003d c983 0a3e ab41 12be
000001f0: 11ef 483e 0c90 84bc 8662 08be a215 39be

policy_network.3.weight f4 [256, 128]
-0.020464482 -0.0399227 -0.010431599 -0.08609866 -0.08332523 0.07232673 -0.08459504 0.07096093
-0.022822117 -0.03048314 -0.08704082 -0.07878769 0.0014612839 -0.0627836 0.046234727 0.07312078
0.057357043 -0.07493374 0.0511699 0.035355773 0.034234274 -0.08088134 0.0200394 0.08030072
0.024701346 -0.024611983 0.067901224 -0.037559483 -0.013070362 -0.06107271 -0.02506474 -0.0006509391
0.016306216 0.055994317 0.058838926 -0.08043166 -0.00014071401 -0.027496926 0.08366619 -0.053081762
-0.033658758 0.058554504 -0.03408717 -0.08088621 -0.022744335 0.055849925 -0.021042097 -0.037123173
-0.06939235 0.022720385 -0.056188054 0.015001286 -0.05680094 0.057158776 0.017226722 -0.014511023
-0.084961385 -0.07019301 -0.0010802953 -0.06235521 -0.050782446 0.020073911 -0.008592913 0.002163071
0.043947782 0.00437689 0.04622106 0.047077823 -0.058743995 -4.5830464e-05 0.051511794 -0.053126954
-0.006954219 0.011029493 -0.08141438 0.027000727 -0.04280437 -0.012558773 0.03440277 0.04318341
-0.051274624 -0.08090063 0.02207853 -0.03774364 0.03488619 0.08195857 0.057194408 -0.030069362
0.04672997 -0.02475456 -0.01005137 -0.06944239 -0.08313148 -0.08136443 -0.06702233 0.05381598
0.018791942 0.025449762 -0.06275363 0.019817296 -0.08683639 0.039175626 -0.056245472 0.055438347
-0.004067316 0.07101308 0.013235196 0.047172375 0.031703934 0.06916788 0.014392352 0.079554886
0.008559586 -0.009939102 0.0062144543 -0.03887033 -0.009761231 0.0038671412 -0.055763166 0.00056947535
-0.0117974505 -0.04860719 -0.07313071 -0.07347301 0.021966932 -0.061068084 -0.029805576 -0.04523145
-0.08244015 0.06231073 0.043450695 -0.07453118 0.061976347 -0.029024921 0.03260287 0.05467227
0.012061416 -0.070771776 -0.04693775 -0.076944605 0.03053044 0.06314726 0.07789705 -0.0024271947
-0.013280916 -0.042786863 0.07186031 -0.010785119 0.0058735427 -0.06733466 0.031410113 -0.045585
0.05912036 0.01245119 -0.041448537 -0.064257026 0.033262525 -0.026593111 -0.016063387 0.045831833
0.038432963 0.06711506 0.07957572 -0.07591741 -0.043847185 -0.004080722 -0.058798403 -0.033559646
0.061934445 -0.03466169 0.00040487316 -0.03784318 -0.05184273 -0.02567568 -0.08165097 0.059754636
0.08348682 -0.04617913 -0.062831715 -0.06788733 -0.023915516 0.012752477 0.011970286 0.045114946
0.005714536 -0.008487079 -0.018177789 -0.07249232 0.074581705 0.0076221395 -0.07197949 0.02615667
-0.050056163 0.0157472 0.028607152 -0.0813409 0.0004108909 0.07909087 0.08405361 0.06356247
0.050047673 0.05609579 -0.017595014 -0.0676854 0.07600669 0.04704206 -0.027743034 0.053667005
0.04905872 0.038981747 0.038739245 0.06001844 -0.08657986 -0.061881423 -0.0015113016 -0.06486941
0.02892281 0.073952615 0.031372502 0.051657077 -0.03224196 0.041201156 -0.0741124 -0.040601004
0.04933673 -0.06319841 0.029715074 -0.084467076 -0.0011469843 -0.06251548 -0.075951874 0.06993354
-0.098257646 0.04232439 0.07289449 -0.0008702481 0.07088858 0.037277192 0.07334274 0.06589618
-0.08138587 0.02718529 -0.02028065 0.028256288 0.043334577 -0.078620315 0.03708125 -0.05365724
0.053864904 0.0657185 -0.07276274 -0.09349886 -0.014127265 0.009568472 0.07951181 -0.061738726
00000000: 21a5 a7bc fc85 23bd 4ce9 2abc 7f54 b0bd
00000010: 6ba6 aabd 0920 943d 2a40 adbd f753 913d
00000020: 73f5 babc c7b7 f9bc 7542 b2bd 715b a1bd
00000030: 8d88 bf3a b094 80bd a060 3d3d 59c0 953d
00000040: 38ef 6a3d dc76 99bd 8797 513d 37d1 103d
00000050: 3d39 0c3d 1ea5 a5bd ab29 a43c b474 a43d
00000060: 7a5a ca3c 129f c9bc cc0f 8b3d f9d7 19bd
00000070: 1225 56bc 6127 7abd 9254 cdbc c9a3 2aba
00000080: 9d94 853c 4c5a 653d 1601 713d 5bb9 a4bd
00000090: a18c 13b9 3c41 e1bc 2e59 ab3d 436c 59bd
000000a0: c4dd 09bd d9d6 6f3d fd9e 0bbd aba7 a5bd
000000b0: 5452 babc e4c2 643d 7a60 acbc 780e 18bd
000000c0: 941d 8ebd 1a20 ba3c 7225 66bd f4c7 753c
000000d0: 1aa8 68bd 521f 6a3d 0e1f 8d3c a4bf 6dbc
000000e0: 3c00 aebd 5ac1 8fbd b298 8dba 2d68 7fbd
000000f0: 4101 50bd 0b72 a43c 4ac9 0cbc 4fc2 0d3b
00000100: 9702 343d 046c 8f3b 4b52 3d3d add4 403d
00000110: 8b9d 70bd 163a 40b8 08fe 523d a69b 59bd
00000120: 38e0 e3bb 0cb5 343c 95bc a6bd a130 dd3c
00000130: a353 2fbd 50c3 4dbc ebe9 0c3d 16e1 303d
00000140: 5705 52bd 3baf a5bd 09de b43c 1399 1abd
00000150: d2e4 0e3d e5d9 a73d af44 6a3d 0654 f6bc
00000160: ed67 3f3d 13ca cabc 80ae 24bc d037 8ebd
00000170: d640 aabd 65a2 a6bd 0143 89bd 256e 5c3d
00000180: 8ff1 993c 057c d03c fa84 80bd e257 a23c
00000190: 47d7 b1bd 9f76 203d a761 66bd 5213 633d
000001a0: 1f47 85bb 4e6f 913d 6fd8 583c d237 413d
000001b0: fcdb 013d e4a7 8d3d e6cd 6b3c aced a23d
000001c0: 813d 0c3c 9ed7 22bc 9fa2 cb3b 7f36 1fbd
000001d0: 92ed 1fbc dd6f 7d3b eb67 64bd d848 153a
000001e0: 184a 41bc 5518 47bd 8ec5 95bd 0479 96bd
000001f0: fff3 b33c 8722 7abd d32a f4bc 9d44 39bd
00000200: 62d6 a8bd 8939 7f3d 5bf9 313d cea3 98bd
00000210: e9da 7d3d acc5 edbc 968a 053d 08f0 5f3d
00000220: 3f9d 453c cbf0 90bd cc41 40bd 2295 9dbd
00000230: f91a fa3c 5a53 813d 7d88 9f3d 9211 1fbb
00000240: 3398 59bc 4741 2fbd 802b 933d 11b4 30bc
00000250: d976 c03b c1e6 89bd e4a7 003d 56b7 3abd
00000260: 3128 723d 1300 4c3c f1c5 29bd 3099 83bd
00000270: 493e 083d ccd9 d9bc 5d97 83bc 29ba 3b3d
00000280: e26b 1d3d 9f73 893d 98f8 a23d 967a 9bbd
00000290: 1b99 33bd 94b7 85bb 98d6 70bd d775 09bd
000002a0: f9ae 7d3d 6bf9 0dbd 2845 d439 7301 1bbd
000002b0: 0b59 54bd ce55 d2bc a038 a7bd 47c1 743d
000002c0: 23fb aa3d 5426 3dbd eaad 80bd 8308 8bbd
000002d0: 79ea c3bc c4ef 503c 051f 443c 73ca 383d
000002e0: 0141 bb3b 640d 0bbc 96e9 94bc da76 94bd
000002f0: 4bbe 983d 24c3 f93b fc69 93bd 8346 d63c
00000300: b107 4dbd 4600 813c 8c59 ea3c 0f96 a6bd
00000310: d86c d739 65fa a13d 4d24 ac3d 0a2d 823d
00000320: cafe 4c3d b3c4 653d 6b23 90bc a59e 8abd
00000330: 65a9 9b3d 2daf 403d 5c45 e3bc efd1 5b3d
00000340: ccf1 483d 53ab 1f3d 0bad 1e3d e5d5 753d
00000350: c850 b1bd 6077 7dbd de16 c6ba 41da 84bd
00000360: 87ef ec3c 7874 973d 7480 003d 5f96 533d
00000370: 2510 04bd 8bc2 283d 3ec8 97bd 3d4d 26bd
00000380: 5015 4a3d 2b6e 81bd 076d f33c 13fd acbd
00000390: 6856 96ba 1e08 80bd a88c 9bbd 5139 8f3d
000003a0: 4e3b c9bd 575c 2d3d b549 953d 5d21 64ba
000003b0: 082e 913d f8af 183d b834 963d 94f4 863d
000003c0: a3ad a6bd afb3 de3c 9b23 a6bc bb79 e73c
000003d0: 997f 313d b003 a1bd 82e2 173d b2c7 5bbd
000003e0: 72a1 5c3d 6c97 863d a204 95bd 557c bfbd
000003f0: 0b76 67bc 15c5 1c3c 16d7 a23d bfe1 7cbd

policy_network.3.bias f4 [256]
-0.021398941 0.030541638 0.09066574 -0.07704891 -0.0152197685 -0.089652374 -0.09112295 0.08114364
0.057469048 -0.07120854 0.0751928 0.0015577028 0.015343293 0.057195324 0.090528086 0.030806122
0.053094544 -0.06043945 0.0029029036 0.06727177 -0.027850935 -0.036522657 -0.020529324 -0.008086969
-0.043586843 -0.05562851 -0.023916818 -0.03492938 -0.059491664 0.0025327546 0.024596902 0.045594048
-0.0683636 -0.08932305 -0.048919287 0.022814289 0.072992034 0.0042418474 0.05881589 -0.017718587
-0.009030461 0.08609237 -0.083048165 0.03788795 -0.032981213 -0.06886871 -0.03664382 0.0419493
0.0603233 -0.028718863 0.047822166 -0.0030171997 0.08072091 0.07227458 0.0496581 -0.08158883
-0.06426302 0.080648206 -0.08769928 -0.046720337 0.036536247 -0.009971753 -0.074171096 0.067970105
-0.06641615 0.014093316 -0.033980917 -0.0830387 0.06952285 0.04343341 0.056715425 -0.025113992
0.033132385 0.06964991 0.06662578 -0.08064449 -0.029965134 -0.016473074 0.01753948 0.056925915
-0.007127471 0.033027776 0.075258404 0.013561519 0.018501665 -0.004105115 -0.050128803 -0.09562804
-0.037885565 0.033204578 -0.05111104 -0.065450534 -0.04531499 0.036268625 0.031674232 -0.0096586505
-0.012815973 -0.0073584784 -0.0060627866 -0.016806431 -0.046632454 0.06454782 -0.04680916 0.06983497
0.024423687 0.070051454 -0.066516005 0.034358628 0.04311553 0.07685746 0.057715986 0.079225734
0.076717965 -0.06635547 -0.08201726 0.008288662 0.052871585 0.047480892 0.061290134 -0.092638664
0.012490982 0.020643303 0.0296621 -0.085247226 0.05800496 -0.02077266 -0.04174678 -0.06804827
0.055763453 -0.051870506 -0.025633587 -0.009788976 -0.058890156 -0.029618531 0.051865306 -0.04202316
-0.03989859 -0.04491251 0.08415296 -0.06109647 0.06237782 0.028601669 -0.04925585 0.009456156
0.048502572 0.01559043 -0.015112726 -0.044277083 -0.08142642 0.002076714 0.067796655 -0.0780294
0.05071731 -0.05366561 0.06569646 0.03388679 0.06502218 -0.049747575 0.07529674 0.04233951
0.05443532 0.036664624 -0.0059869154 -0.068380974 -0.05535871 -0.029437428 -0.055942055 -0.028606778
0.012698208 -0.084523685 0.052874632 0.04307997 0.015811406 0.07052345 -0.08692358 0.035335407
0.023850063 -0.07308886 0.04011706 -0.08163938 0.017111404 -0.07451135 0.0033848516 -0.060931966
0.051364973 -0.06259846 0.07288771 -0.075488284 0.049535435 0.055174924 0.012288495 0.03935274
0.0463984 -0.0739049 -0.050224017 0.028432125 -0.037613742 -0.062338203 0.017596317 0.059949495
-0.085658066 -0.05628263 -0.08571934 0.043343175 -0.010501391 -0.023762234 -0.08910989 0.0063365265
-0.052985422 -0.07776292 -0.043686688 -0.08666526 0.056931913 0.06378879 -0.043547466 -0.09328798
0.0016435897 -0.034871027 -0.04761678 -0.091621086 -0.07527539 0.050616693 0.06496075 0.040039156
-0.028205262 -0.09148339 0.058232225 0.08568574 0.029949127 -0.009371577 -0.0670208 0.05290951
0.042532466 -0.092598215 -0.026876077 -0.09087053 0.025845157 -0.01045226 0.022571633 -0.023239572
-0.008659365 0.027660094 0.078341536 0.06448258 -0.015404253 -0.07176051 0.076245606 0.0175834
0.06836755 0.046623208 -0.026854217 0.0010705566 0.07738101 -0.052977234 0.03912633 0.00038386096
00000000: d54c afbc 7532 fa3c f6ae b93d d2cb 9dbd
00000010: 565c 79bc aa9b b7bd ab9e babd a32e a63d
00000020: aa64 6b3d c8d5 91bd affe 993d d52b cc3a
00000030: 6f62 7b3c a545 6a3d ca66 b93d 1f5d fc3c
00000040: aa79 593d 5b8f 77bd a43e 3e3b c8c5 893d
00000050: a527 e4bc c898 15bd 1d2d a8bc 357f 04bc
00000060: 1e88 32bd b8da 63bd 34ed c3bc 1c12 0fbd
00000070: 88ad 73bd 92fc 253b 717f c93c d3c0 3a3d
00000080: 3702 8cbd 01ef b6bd 975f 48bd 08e5 ba3c
00000090: d97c 953d 32ff 8a3b eee8 703d 9226 91bc
000000a0: 80f4 13bc 3251 b03d 2815 aabd 6530 1b3d
000000b0: 4f17 07bd 0a0b 8dbd d517 16bd 07d3 2b3d
000000c0: 9115 773d d243 ebbc 2de1 433d 36bc 45bb
000000d0: 0151 a53d b204 943d 4b66 4b3d 0b18 a7bd
000000e0: 559c 83bd e32a a53d ae9b b3bd d35d 3fbd
000000f0: 08a7 153d 9060 23bc 04e7 97bd e933 8b3d
00000100: 3105 88bd a7e7 663c 932f 0bbd 3210 aabd
00000110: ff61 8e3d 3be7 313d 6f4e 683d dcbb cdbc
00000120: d3b5 073d 9da4 8e3d 1973 883d f028 a5bd
00000130: 7179 f5bc 8af2 86bc f5ae 8f3c 262b 693d
00000140: 8f8d e9bb 2248 073d 1421 9a3d 2231 5e3c
00000150: ce90 973c 3384 86bb dc53 4dbd a2d8 c3bd
00000160: e52d 1bbd 8601 083d cf59 51bd ee0a 86bd
00000170: 369c 39bd 698e 143d d7bc 013d 513f 1ebc
00000180: 16fa 51bc 641f f1bb 57aa c6bb a4ad 89bc
00000190: ac01 3fbd a631 843d f6ba 3fbd a305 8f3d
000001a0: 2f14 c83c 2377 8f3d 8b39 88bd a2bb 0c3d
000001b0: e999 303d 7267 9d3d 9967 6c3d 1a41 a23d
000001c0: 4f1e 9d3d 60e5 87bd aaf8 a7bd 2bcd 073c
000001d0: e08f 583d 537b 423d 5d0b 7b3d 57b9 bdbd
000001e0: faa6 4c3c 251c a93c effd f23c 1996 aebd
000001f0: 9c96 6d3d 6d2b aabc acfe 2abd e45c 8bbd
00000200: 3868 643d 2b76 54bd 87fd d1bc f161 20bc
00000210: ce36 71bd 90a2 f2bc b770 543d 7a20 2cbd
00000220: b46c 23bd 2ef6 37bd 6358 ac3d 4b40 7abd
00000230: e37f 7f3d 0c4e ea3c 81c0 49bd feed 1a3c
00000240: a2aa 463d 016f 7f3c 5e9b 77bc e35b 35bd
00000250: e5c2 a6bd 7b19 083b f9d8 8a3d e1cd 9fbd
00000260: f4bc 4f3d 78d0 5bbd de8b 863d e0cc 0a3d
00000270: 592a 853d 1dc4 4bbd 2d35 9a3d 326c 2d3d
00000280: 92f7 5e3d a52d 163d e32d c4bb 530b 8cbd
00000290: d1bf 62bd c326 f1bc 7f23 65bd c358 eabc
000002a0: 250c 503c c11a adbd 1293 583d 9f74 303d
000002b0: ec86 813c 996e 903d fd04 b2bd dcbb 103d
000002c0: 3561 c33c 9daf 95bd c951 243d 8c32 a7bd
000002d0: 372d 8c3c 6899 98bd 63d4 5d3b cc93 79bd
000002e0: 1464 523d 9f33 80bd 2746 953d 9a99 9abd
000002f0: abe5 4a3d 1aff 613d af55 493c 5730 213d
00000300: 400c 3e3d 745b 97bd b3b7 4dbd 7dea e83c
00000310: de10 1abd 5856 7fbd 2726 903c 9a8d 753d
00000320: 7f6d afbd 9d88 66bd 9f8d afbd 9d88 313d
00000330: 070e 2cbc 04a9 c2bc 3f7f b6bd a3a2 cf3b
00000340: 3e07 59bd 2a42 9fbd d0f0 32bd 8e7d b1bd
00000350: 7031 693d b2a3 823d d45e 32bd c50d bfbd
00000360: b86d d73a ecd4 0ebd d009 43bd d6a3 bbbd
00000370: fc29 9abd 7353 4f3d 240a 853d 1900 243d
00000380: b90e e7bc a55b bbbd ea84 6e3d 017c af3d
00000390: df57 f53c 3e8b 19bc 3442 89bd a4b7 583d
000003a0: 8636 2e3d 22a4 bdbd 382b dcbc 541a babd
000003b0: 39b9 d33c f53f 2bbc 25e8 b83c ea60 bebc
000003c0: 02e0 0dbc 6c97 e23c 8771 a03d 710f 843d
000003d0: 1f62 7cbc 2df7 92bd a826 9c3d 100b 903c
000003e0: 4904 8c3d faf7 3e3d 60fd dbbc eb51 8c3a
000003f0: ef79 9e3d a8fe 58bd ee42 203d f240 c939

policy_network.6.weight f4 [128, 256]
-0.01213804 -0.04518767 0.05662307 0.0037481291 -0.044245943 -0.029297577 0.024050467 0.044216603
-0.05916463 0.020022769 0.052729577 0.0019990557 -0.03837832 0.062083893 -0.006846957 0.024560943
-0.009802662 0.0038959086 0.04685018 -0.006129451 -0.04502582 0.044805665 -0.053828336 -0.009184209
0.019707697 -0.0058840364 -0.04842376 0.061900064 -0.032362275 0.039268523 -0.048965987 -0.044462517
0.004366157 0.026783697 -0.023590125 -0.031176336 -0.033103768 -0.05148504 -0.06248558 -0.05946003
-0.021287978 -0.016669236 0.033335358 -0.028379045 -0.022071205 0.0361659 0.0055982172 0.04569608
0.049663417 -0.042804338 0.022333816 0.057386138 -0.015662998 -0.051784016 0.021927632 -0.0025315285
-0.008022748 -0.009481683 -0.018959664 0.018135568 -0.056016423 -0.034638826 -0.023989528 -0.0070552155
0.043432705 -0.027285196 0.023386791 0.047483332 0.056495592 0.037762467 0.028431952 0.0047275424
0.0033258703 -0.022753477 0.019664295 -0.02682591 -0.0057568257 -0.03757001 -0.006358311 -0.047132123
-0.0039284304 -0.043042146 0.024306605 -0.004140315 0.017289653 -0.043325726 0.006021923 0.054150674
0.01282794 -0.042756453 -0.04299877 -0.051817052 -0.03194815 -0.052802525 -0.0125052035 0.038959987
-0.036042262 -0.026895002 -0.0062614814 0.04469213 -0.056999452 -0.05446533 0.02688868 0.01103206
0.0026136222 -0.05901369 0.045384377 -0.008447413 -0.047265083 -0.01139475 -0.002397202 0.028935716
0.015399829 0.03261552 -0.02398336 0.034953497 0.033165775 -0.030332744 -0.024269506 -0.034371883
0.02605024 -0.03345946 -0.060311943 0.017598674 -0.02645044 0.030098269 -0.0015125822 0.046535365
0.029216342 -0.042368025 -0.05943086 0.022621453 0.008981399 0.011254631 -0.007349723 0.0041479114
0.0457479 0.05150967 0.017714053 -0.06089253 -0.007212989 0.04074789 0.00463257 0.031648446
-0.00742732 -0.050362237 -0.045568094 0.015380889 0.028466366 0.022851974 0.01121904 -0.015125677
-0.06166718 -0.04087495 0.021802232 0.03242947 -0.036356233 -0.048078366 -0.020291135 -0.065305695
-0.039995782 0.006264554 -0.029855914 0.0151638985 0.019858329 -0.034466617 -0.04413809 0.031232677
-0.03669572 -0.063302964 -0.019984873 0.015327899 -0.049516812 -0.0333156 0.040978435 0.04624334
-0.033620358 -0.056076698 -0.038504772 0.018008895 0.032631774 -0.052399646 -0.056015667 -0.03504554
-0.027577348 -0.0054623336 0.046185747 -0.018651783 0.03662429 -0.042218145 0.0071648583 -0.053598695
0.05399286 0.012259245 0.031094596 -0.039739653 0.011450661 -0.041522406 -0.016425725 0.005634837
0.021744102 0.047605522 0.013638951 -0.025214374 0.056091428 -0.008930224 0.0056174546 0.019533232
-0.057215773 -0.014167255 -0.024976 -0.045287468 0.017966479 -0.054269843 -0.017660117 0.053756326
0.039590865 -0.006023042 -0.045762014 0.010031253 0.05757396 0.015697181 -0.0070227087 -0.017975222
0.0028436182 -0.04796356 -0.049211685 -0.05156465 0.054557614 -0.055102028 -0.03869953 0.025512507
0.027008196 0.02624347 0.0038720146 -0.011974177 -0.015258886 0.015810698 0.008563466 -0.037871815
-0.00949312 -0.04521582 0.037029576 0.020481043 -0.027378105 0.038407356 -0.048182145 0.031321783
0.029294372 -0.048840746 0.047079634 -0.049665943 -0.00807198 0.048745945 0.015070699 0.03268236
00000000: a1de 46bc b516 39bd 98ed 673d 2ca3 753b
00000010: 3c3b 35bd 7901 f0bc 7c05 c53c 781c 353d
00000020: 9c56 72bd ca06 a43c f8fa 573d 9702 033b
00000030: 9632 1dbd ae4b 7e3d 705c e0bb 0834 c93c
00000040: 589b 20bc 8052 7f3b f9e5 3f3d 90d9 c8bb
00000050: ff6c 38bd 2586 373d 1a7b 5cbd 5d79 16bc
00000060: 0972 a13c e0ce c0bb fe57 46bd ec8a 7d3d
00000070: 4e8e 04bd 08d8 203d 8f90 48bd 541e 36bd
00000080: fb11 8f3b 7c69 db3c 1440 c1bc 8465 ffbc
00000090: d197 07bd fae1 52bd e1f0 7fbd 5c8c 73bd
000000a0: 2064 aebc ec8d 88bc a88a 083d 2c7b e8bc
000000b0: acce b4bc b222 143d 4071 b73b d02b 3b3d
000000c0: de6b 4b3d 9a53 2fbd 68f5 b63c ba0d 6b3d
000000d0: b04f 80bc 7a1b 54bd 94a1 b33c 00e8 25bb
000000e0: d871 03bc 1059 1bbc 4c51 9bbc 0b91 943c
000000f0: 7a71 65bd 71e1 0dbd b085 c4bc 702f e7bb
00000100: 7ee6 313d 3485 dfbc a895 bf3c e27d 423d
00000110: ec67 673d d1ac 1a3d 20ea e83c 80e9 9a3b
00000120: d8f6 593b 8065 babc 0417 a13c 03c2 dbbc
00000130: c1a3 bcbb 03e3 19bd 6159 d0bb 9d0d 41bd
00000140: 10ba 80bb f64c 30bd a51e c73c 7bab 87bb
00000150: 08a3 8d3c 5176 31bd 8d53 c53b 19cd 5d3d
00000160: 482c 523c 6421 2fbd 7a1f 30bd 1e3e 54bd
00000170: 10dc 02bd 7647 58bd a0e2 4cbc 8294 1f3d
00000180: 0da1 13bd e852 dcbc 1d2d cdbb 180f 373d
00000190: 4278 69bd 0a17 5fbd a645 dc3c d0bf 343c
000001a0: 4e49 2b3b 57b8 71bd f8e4 393d 0567 0abc
000001b0: 0899 41bd 0cb1 3abc 601a 1dbb 980a ed3c
000001c0: 904f 7c3c da97 053d c078 c4bc 662b 0f3d
000001d0: d6d8 073d 607c f8bc d8d0 c6bc 88c9 0cbd
000001e0: 5067 d53c c90c 09bd a809 77bd 182b 903c
000001f0: 98ae d8bc a590 f63c d641 c6ba de9b 3e3d
00000200: 1c57 ef3c 188a 2dbd c66d 73bd a050 b93c
00000210: b826 133c 5865 383c f2d5 f0bb 34eb 873b
00000220: 2662 3b3d cefb 523d 101d 913c 726a 79bd
00000230: f05a ecbb 42e7 263d d0cc 973b cda1 013d
00000240: e060 f3bb a248 4ebd 9ca5 3abd 2000 7c3c
00000250: 4c32 e93c 1034 bb3c 10d0 373c b0d1 77bc
00000260: ba96 7cbd 7e6c 27bd 989a b23c c4d4 043d
00000270: 46ea 14bd d2ed 44bd 9839 a6bc febe 85bd
00000280: 9ed2 23bd e346 cd3b 6494 f4bc 0072 783c
00000290: efad a23c de2c 0dbd 24ca 34bd acdb ff3c
000002a0: 404e 16bd fca4 81bd 51b7 a3bc de21 7b3c
000002b0: 24d2 4abd f075 08bd 01d9 273d a869 3d3d
000002c0: 80b5 09bd aeb0 65bd 2eb7 1dbd 6487 933c
000002d0: e5a8 053d 03a1 56bd af70 65bd ea8b 0fbd
000002e0: e4e9 e1bc 60fd b2bb 442d 3d3d a0cb 98bc
000002f0: 5a03 163d efec 2cbd 30c7 ea3b 4e8a 5bbd
00000300: 9e27 5d3d 00db 483c 18ba fe3c 0cc6 22bd
00000310: 8e9b 3b3c 6613 2abd 3e8f 86bc 70a4 b83b
00000320: b020 b23c 02fe 423d e875 5f3c 608e cebc
00000330: 20c0 653d 1350 12bc a012 b83b 2804 a03c
00000340: 165b 6abd c61d 68bc 789a ccbc 5a7f 39bd
00000350: 702e 933c 0e4a 5ebd f3ab 90bc 982f 5c3d
00000360: 082a 223d f05c c5bb f370 3bbd 205a 243c
00000370: acd2 6b3d 6097 803c c01e e6bb c640 93bc
00000380: ff5b 3a3b 7075 44bd 3192 49bd 7435 53bd
00000390: ce77 5f3d aab2 61bd 6683 1ebd 9bff d03c
000003a0: 4b40 dd3c 8cfc d63c a0c1 7d3b 572f 44bc
000003b0: 6800 7abc 7085 813c c84d 0c3c 7a1f 1bbd
000003c0: 0889 1bbc 3934 39bd 53ac 173d dcc7 a73c
000003d0: 0c48 e0bc 0851 1d3d a45a 45bd 454b 003d
000003e0: c0fa ef3c 3c0d 48bd 93d6 403d 846e 4bbd
000003f0: 5740 04bc d4a9 473d 18eb 763c f0dd 053d

policy_network.6.bias f4 [128]
-0.032363564 -0.064558655 -0.0017625934 -0.017622655 0.03647378 -0.06400558 -0.050042808 0.04464869
0.011667394 -0.006660097 0.039852124 0.04711718 -0.035971142 -0.014354332 0.047830813 -0.043123797
0.02233473 -0.06163032 -0.031155905 -0.05310334 -0.00774727 -0.030682147 -0.056893278 -0.019150155
0.047129605 0.04266261 -0.0506193 0.031627417 -0.038713824 0.019626107 0.039153952 -0.060677294
-0.041659772 0.041478954 -0.06079431 0.03889191 -0.05460043 0.04868849 0.03061836 -0.054554656
0.031145742 -0.008417896 -0.06324202 0.0021015014 -0.0051851375 -0.040255014 -0.04963675 -0.0061744866
-0.020503107 -0.036469378 -0.06296929 0.012670006 -0.013274702 -0.039558753 0.0031205236 0.04541515
0.035136197 0.0346445 -0.0035218233 0.033510387 -0.019589027 0.034812722 -0.05282128 -0.06469346
-0.049834415 0.010306654 -0.030277163 -0.06040045 -0.03533805 -0.053367153 -0.025034646 0.011546751
0.037296087 0.05081854 0.0030135738 -0.066323124 -0.0043503046 -0.061664425 0.046432603 0.014904722
-0.02180515 -0.0077293636 0.0041635875 -0.051006384 0.014488575 -0.038164414 -0.021503253 0.03440455
-0.0049078627 -0.020965299 -0.007745494 0.019459408 0.011811524 0.015414564 0.025186576 -0.009227547
-0.03489382 -0.032073077 -0.017231813 -0.038073298 -0.019503552 -0.06279215 0.061062463 0.055116877
-0.06576409 0.051590882 0.044229817 0.03445436 0.010590444 -0.015535398 -0.04738698 -0.06296567
-0.03923846 0.011532017 0.01834302 -0.035791583 -0.01970987 -0.010410459 0.050947536 -0.037660137
-0.016039664 0.03894703 -0.02837417 0.043679275 -0.013707324 0.016676188 0.047489118 0.050930418
00000000: a88f 04bd 5437 84bd d206 e7ba 635d 90bc
00000010: 8865 153d 5c15 83bd b0f9 4cbd 8be1 363d
00000020: 9928 3f3c f13c dabb fb3b 233d f2fd 403d
00000030: 7a56 13bd 6f2e 6bbc 3eea 433d 94a2 30bd
00000040: 53f7 b63c 1370 7cbd ab3a ffbc e382 59bd
00000050: d0dc fdbb 2059 fbbc ed08 69bd c9e0 9cbc
00000060: f90a 413d fdbe 2e3d 2f56 4fbd c08b 013d
00000070: 6392 1ebd eec6 a03c e55f 203d c188 78bd
00000080: 70a3 2abd d6e5 293d 7403 79bd 204d 1f3d
00000090: b3a4 5fbd 956d 473d 5bd3 fa3c b474 5fbd
000000a0: 5b25 ff3c 37eb 09bc 0885 81bd 58b9 093b
000000b0: 16e8 a9bb 71e2 24bd e84f 4bbd 5953 cabb
000000c0: 22f6 a7bc ea60 15bd 0bf6 80bd db95 4f3c
000000d0: 237e 59bc 5c08 22bd b381 4c3b 3c05 3a3d
000000e0: f9ea 0f3d 64e7 0d3d 64ce 66bb 3042 093d
000000f0: 2b79 a0bc c997 0e3d 205b 58bd 017e 84bd
00000100: 2c1f 4cbd 3ddd 283c d007 f8bc 7666 77bd
00000110: a2be 10bd 8497 5abd 7515 cdbc 952e 3d3c
00000120: c8c3 183d 1a27 503d 617f 453b 6bd4 87bd
00000130: 008d 8ebb d693 7cbd 1d30 3e3d ef32 743c
00000140: b7a0 b2bc 9a46 fdbb b46e 883b 12ec 50bd
00000150: 7d61 6d3c 4a52 1cbd 9727 b0bc c9eb 0c3d
00000160: 23d2 a0bb 6bbf abbc eacd fdbb 5669 9f3c
00000170: 1f85 413c 5e8d 7c3c 1454 ce3c 232f 17bc
00000180: d2ec 0ebd 0f5f 03bd bb29 8dbc bff2 1bbd
00000190: eac5 9fbc 2c99 80bd a21c 7a3d 3cc2 613d
000001a0: 53af 86bd f650 533d 532a 353d 0420 0d3d
000001b0: 8b83 2d3c 2f88 7ebc da18 42bd 25f4 80bd
000001c0: 82b8 20bd c9f0 3c3c 1a44 963c 329a 12bd
000001d0: 9876 a1bc a190 2abc 5dae 503d 8441 1abd
000001e0: 9d65 83bc ec86 1f3d f370 e8bc 0ae9 323d
000001f0: af94 60bc 809c 883c f383 423d 6a9c 503d

policy_network.9.weight f4 [7, 128]
0.026099363 -0.031102624 0.0744964 0.07559097 -0.015367692 -0.069649376 0.016606685 -0.06010545
-0.039126944 -0.046897333 -0.026591547 -0.07450076 0.008549114 -0.07532928 -0.091263555 0.029982505
-0.007842228 0.016458116 -0.08393733 0.052083634 -0.025936507 0.07699313 -0.076610684 -0.0733809
0.04900731 0.025445517 0.056975316 -0.009964474 -0.07548444 -0.032020304 -0.013292629 0.08345528
-0.07688544 -0.01963386 -0.013716226 -0.060152262 0.067495406 -0.075454585 0.032421518 -0.079268016
0.009472365 -0.032769777 0.008906794 0.06517113 0.00041532103 -0.060939364 -0.05508435 -0.0076651
0.036701217 -0.038941316 0.053454246 -0.054468058 -0.0069902325 -0.07618587 0.008057945 0.05540364
0.055196427 0.06720394 0.0094829695 0.0715085 -0.051386766 0.06439176 -0.06696104 0.055592634
0.024289807 -0.0347914 -0.020327432 0.010941147 0.04076452 0.034661073 0.027173465 -0.04730885
0.05364796 -0.008993247 0.009006519 0.049686737 0.015944349 0.05942198 -0.07184299 -0.014088241
-0.014464408 0.00012728128 -0.03322385 0.010537763 0.020145124 0.01997792 -0.05936726 0.03559378
0.008494696 0.031791758 -0.040431075 -0.013194141 0.07794891 -0.025326444 -0.04024499 -0.06755915
-0.044444792 0.04706807 0.048962332 -0.024594259 -0.01252694 0.06683714 -0.045652103 -0.023391161
0.0053490736 -0.03476094 0.049236532 0.063466 -0.04864888 -0.064653784 -0.006274275 -0.053585984
0.0770885 -0.06575118 0.003807572 -0.06101205 -0.07459422 -0.072454125 0.07036184 -0.006872243
0.031607375 -0.0700163 0.04259285 -0.015665704 -0.0045827134 -0.07721113 0.080697 -0.039016347
-0.059949186 0.00040919113 0.04981549 0.02080419 0.051303256 -0.038859762 0.078528605 -0.07084276
0.07946754 0.03253941 -0.053684454 0.053219292 -0.004144164 -0.0656478 0.019320853 -0.00012820071
-0.056381553 -0.0064129974 -0.059011597 -0.03561821 -0.02610069 0.05168785 0.000777195 0.052126203
0.00073869614 -0.02933453 -0.03957819 -0.061057158 -0.07568819 0.016097499 0.053299606 0.04103316
-0.013087492 0.05892043 -0.06430188 -0.017951127 -0.049042616 -0.04495275 -0.012905763 0.032166883
-0.018110804 0.071784094 -0.0013060884 0.08362596 0.020215094 -0.064295575 0.08888465 0.01180097
0.035184667 0.027996091 0.025368745 -0.07064924 -0.030434718 0.08738126 0.026219582 -0.052457966
0.058581445 0.04035514 -0.0015549759 -0.055573452 0.025677249 0.044223227 0.055534814 -0.018279068
-0.0663747 0.016032226 0.022900298 0.046461526 -0.038744047 0.057477925 0.0009899369 -0.047923848
0.015840033 0.037466027 -0.06259075 -0.00054793304 0.047027644 0.062973484 -0.04838637 0.041873943
-0.0059459824 -0.013711734 0.012643974 -0.06537099 0.0429899 -0.0782351 -0.04620165 -0.014402325
0.012670498 0.027685458 0.06589204 -0.0022646794 0.032522503 0.04299264 -0.00707877 -0.018708786
0.053897206 -0.05795078 -0.0078037446 -0.08006574 -0.007591853 0.07513717 0.055130586 0.036644563
-0.0032323154 0.018327463 -0.06144807 0.049742423 -0.059543703 -0.01772508 0.060475342 -0.004470837
0.035823338 -0.04629574 -0.08027483 0.018013356 -0.07953395 0.0014049959 -0.05406053 0.05898833
0.026196286 -0.002474247 0.003550929 0.039395176 -0.021864286 0.015045593 0.033043362 0.06729294
00000000: 55ce d53c eeca febc 9291 983d 70cf 9a3d
00000010: c6c8 7bbc 55a4 8ebd be0a 883c 2231 76bd
00000020: 9343 20bd 6b17 40bd 84d6 d9bc db93 98bd
00000030: 9511 0c3c 3d46 9abd 63e8 babd df9d f53c
00000040: b07c 00bc 2cd3 863c 56e7 abbd a655 553d
00000050: cc78 d4bc 93ae 9d3d 10e6 9cbd ba48 96bd
00000060: e4bb 483d 1e73 d03c f35e 693d 0842 23bc
00000070: 9697 9abd b927 03bd 54c9 59bc 9aea aa3d
00000080: 1d76 9dbd 30d7 a0bc 06ba 60bc 3862 76bd
00000090: 083b 8a3d ef87 9abd 6dcc 043d 4557 a2bd
000000a0: fa31 1b3c 9a39 06bd cded 113c 7178 853d
000000b0: 72bf d939 8e9b 79bd 21a0 61bd 852b fbbb
000000c0: 0454 163d ee80 1fbd d7f2 5a3d e619 5fbd
000000d0: 520e e5bb 5607 9cbd 7905 043c edee 623d
000000e0: a615 623d 38a2 893d 755e 1b3c 0c73 923d
000000f0: ee7a 52bd d4df 833d df22 89bd 1ab5 633d
00000100: 6bfb c63c 6d81 0ebd b785 a6bc 7f42 333c
00000110: b3f8 263d c5f8 0d3d e39a de3c edc6 41bd
00000120: f7bd 5b3d 6958 13bc 1490 133c 5284 4b3d
00000130: b99d 823c 7664 733d 6b22 93bd 5ed2 66bc
00000140: 20fc 6cbc cf76 0539 bb15 08bd 95a6 2c3c
00000150: 6307 a53c bca8 a33c 162b 73bd c9ca 113d
00000160: 562d 0b3c 1338 023d 0e9b 25bd 3d2c 58bc
00000170: aea3 9f3d 6779 cfbc eed7 24bd 745c 8abd
00000180: be0b 36bd 73ca 403d ba8c 483d e679 c9bc
00000190: cb3d 4dbc e9e1 883d b3fd 3abd d29e bfbc
000001a0: 4847 af3b 7d61 0ebd 3fac 493d 76fa 813d
000001b0: 0c44 47bd 3469 84bd 6f98 cdbb fa7c 5bbd
000001c0: 93e0 9d3d 8ea8 86bd 7588 793b c5e7 79bd
000001d0: dbc4 98bd d462 94bd de19 903d 8d30 e1bb
000001e0: bc76 013d b564 8fbd d775 2e3d 5d55 80bc
000001f0: 962a 96bb de20 9ebd 7844 a53d 9bcf 1fbd
00000200: 478d 75bd b488 d639 540b 4c3d 8c6d aa3c
00000210: 5d23 523d 6a2b 1fbd 9bd3 a03d 0216 91bd
00000220: e1bf a23d 0b48 053d 3be4 5bbd 79fc 593d
00000230: c4cb 87bb 5b72 86bd c446 9e3c 9e6d 06b9
00000240: 58f0 66bd 1f24 d2bb 25b6 71bd 66e4 11bd
00000250: 1dd1 d5bc a4b6 533d acbc 4b3a 4982 553d
00000260: 0fa5 413a f84e f0bc bd1c 22bd 1217 7abd
00000270: 6902 9bbd e7de 833c b050 5a3d 6312 283d
00000280: ec6c 56bc 8c56 713d b4b0 83bd 3e0e 93bc
00000290: e9e0 48bd 6020 38bd b272 53bc 6cc1 033d
000002a0: 1c5d 94bc 8a03 933d 0e31 abba 1644 ab3d
000002b0: 209a a53c 66ad 83bd 2809 b63d db58 413c
000002c0: cc1d 103d 0f58 e53c 1dd2 cf3c 8cb0 90bd
000002d0: 3b52 f9bc f2f4 b23d 73ca d63c 2ade 56bd
000002e0: 19f3 6f3d 6e4b 253d 55d0 cbba fda0 63bd
000002f0: 1859 d23c 6a23 353d 7978 633d fcbd 95bc
00000300: 75ef 87bd 0456 833c 6899 bb3c 714e 3e3d
00000310: 14b2 1ebd f96d 6b3d c5c0 813a cc4b 44bd
00000320: f5c2 813c fa75 193d 942f 80bd 2aa3 0fba
00000330: 0fa0 403d 3ef8 803d c930 46bd 0384 2b3d
00000340: 84d6 c2bb 2ea7 60bc ac28 4f3c 3ae1 85bd
00000350: 2d16 303d b939 a0bd f13d 3dbd bbf7 6bbc
00000360: ec97 4f3c 9dcc e23c 68f2 863d 046b 14bb
00000370: 5136 053d 0d19 303d 07f5 e7bb 2b43 99bc
00000380: 51c3 5c3d cc5d 6dbd 8eb6 ffbb 82f9 a3bd
00000390: 14c5 f8bb 84e1 993d 9cd0 613d 9c18 163d
000003a0: 41d5 53bb 7a23 963c f9b0 7bbd b6be 4b3d
000003b0: 19e4 73bd 3034 91bc feb4 773d 1980 92bb
000003c0: 7ebb 123d 9aa0 3dbd 2167 a4bd bf90 933c
000003d0: b2e2 a2bd d727 b83a 936e 5dbd bf9d 713d
000003e0: 9899 d63c fa26 22bb b4b6 683b d65c 213d
000003f0: bb1c b3bc ca81 763c 7a58 073d e2d0 893d

policy_network.9.bias f4 [7]
0.016697034 -0.010606289 -0.044041418 0.0063722087 -0.017650234 0.02678509 0.053136274
00000000: 38c8 883c 00c6 2dbc c664 34bd f6cd d03b
00000010: 3997 90bc 686c db3c 6ca5 593d

exp_avg f4 [128, 15]
-1.2863925e-05 -2.9464723e-06 8.168789e-06 -1.1481791e-05 -6.6742273e-06 1.1983368e-05 2.1389214e-06 -7.081553e-08
-8.640161e-07 2.806267e-06 2.8072918e-06 -1.6179106e-07 1.3974295e-07 -1.6876733e-06 -5.1090296e-07 1.0525102e-06
2.8598419e-07 -5.606482e-07 1.0732813e-06 9.772851e-07 -1.5752908e-06 -3.4989472e-07 -1.01462426e-07 5.6475884e-08
-2.123126e-07 -4.5488108e-07 6.843292e-08 -8.882085e-08 5.264528e-07 2.919845e-07 2.5920688e-06 9.2755687e-07
-1.8730806e-06 2.2064394e-06 1.3979292e-06 -2.725779e-06 -3.6659907e-07 -1.4068432e-07 1.3644322e-07 -5.8757274e-07
-6.130573e-07 2.873247e-08 -1.89039e-09 -1.3793634e-06 2.6072087e-08 0.0 0.0 0.0
0.0 0.0 0.0 0.0 0.0 0.0 0.0 0.0
0.0 0.0 0.0 0.0 2.9810968e-07 1.029056e-06 -2.2234762e-07 -2.7243083e-09
6.7073717e-07 -3.3594288e-06 -4.1193059e-07 -8.5054165e-07 -2.0977866e-07 -3.7402168e-07 -4.3647626e-07 -7.885609e-08
8.996071e-08 -1.2018087e-06 -7.1601414e-07 0.0 0.0 0.0 0.0 0.0
0.0 0.0 0.0 0.0 0.0 0.0 0.0 0.0
0.0 0.0 -1.5513282e-05 -6.5896356e-06 1.2312731e-05 -1.3621987e-05 -8.0587015e-06 1.5573298e-05
1.8328775e-06 6.1221033e-07 -5.649069e-07 3.441724e-06 3.5968908e-06 -5.405674e-08 1.07593806e-07 -9.954105e-07
-2.2135829e-07 0.0 0.0 0.0 0.0 0.0 0.0 0.0
0.0 0.0 0.0 0.0 0.0 0.0 0.0 0.0
0.0 0.0 0.0 0.0 0.0 0.0 0.0 0.0
0.0 0.0 0.0 0.0 0.0 0.0 0.0 0.0
0.0 0.0 0.0 0.0 0.0 0.0 0.0 0.0
0.0 0.0 0.0 0.0 0.0 0.0 -8.202896e-06 -2.736808e-06
4.8946627e-06 -5.7759726e-06 -3.910343e-06 6.6397856e-06 1.1608771e-06 -1.112829e-07 -2.1894385e-07 1.646149e-06
1.7117459e-06 -9.6676025e-08 2.1441814e-08 3.0597388e-07 1.3529286e-07 0.0 0.0 0.0
0.0 0.0 0.0 0.0 0.0 0.0 0.0 0.0
0.0 0.0 0.0 0.0 0.0 0.0 0.0 0.0
0.0 0.0 0.0 0.0 0.0 0.0 0.0 0.0
0.0 0.0 0.0 0.0 0.0 0.0 0.0 0.0
0.0 0.0 0.0 0.0 0.0 0.0 0.0 0.0
0.0 0.0 -6.210494e-07 -3.4192882e-07 3.4727827e-07 -4.822765e-07 -6.3111514e-07 1.1160201e-06
1.8805602e-07 6.1471205e-08 -1.2707525e-08 1.4882801e-07 2.8299948e-07 -7.278606e-08 1.7874614e-08 7.3784156e-07
2.1882612e-07 0.0 0.0 0.0 0.0 0.0 0.0 0.0
0.0 0.0 0.0 0.0 0.0 0.0 0.0 0.0
8.174101e-07 -2.7838024e-07 -3.1197777e-07 9.495567e-07 7.0390445e-07 -6.929457e-07 -2.845423e-07 8.251963e-08
1.5765899e-07 -1.3351355e-07 -2.8707385e-07 1.3769471e-07 -2.8286467e-08 1.2800355e-06 5.786912e-07 -1.0509556e-06
00000000: 23d2 57b7 02bc 45b6 ae0c 0937 eba1 40b7
00000010: 2df3 dfb6 2c0c 4937 648a 0f36 4013 98b3
00000020: bcee 67b5 4d53 3c36 e864 3c36 cab8 2db4
00000030: 400c 1634 0384 e2b5 fc24 09b5 fa43 8d35
00000040: 5e89 9934 737f 16b5 aa0d 9035 432b 8335
00000050: 946e d3b5 2ad9 bbb4 8fe3 d9b3 e48f 7233
00000060: 0bf8 63b4 6136 f4b4 65f5 9233 c7bd beb3
00000070: 9051 0d35 0bc2 9c34 67f3 2d36 39fd 7835
00000080: 8f66 fbb5 5712 1436 7ba0 bb35 87ec 36b6
00000090: fed0 c4b4 030f 17b4 3a81 1234 b1b9 1db5
000000a0: fa90 24b5 5fcf f632 18e8 01b1 9122 b9b5
000000b0: 20f5 df32 0000 0000 0000 0000 0000 0000
000000c0: 0000 0000 0000 0000 0000 0000 0000 0000
000000d0: 0000 0000 0000 0000 0000 0000 0000 0000
000000e0: 0000 0000 0000 0000 0000 0000 0000 0000
000000f0: e20b a034 181e 8a35 73be 6eb4 8a36 3bb1
00000100: b50c 3435 8c72 61b6 4f27 ddb4 c750 64b5
00000110: 853f 61b4 26cd c8b4 d754 eab4 9857 a9b3
00000120: 6c30 c133 d54d a1b5 1e34 40b5 0000 0000
00000130: 0000 0000 0000 0000 0000 0000 0000 0000
00000140: 0000 0000 0000 0000 0000 0000 0000 0000
00000150: 0000 0000 0000 0000 0000 0000 0000 0000
00000160: 0000 0000 0000 0000 8522 82b7 8a1c ddb6
00000170: c792 4e37 fd89 64b7 dc33 07b7 67a3 8237
00000180: 3101 f635 c656 2435 1ba4 17b5 5ef8 6636
00000190: 1d62 7136 042c 68b3 520e e733 0b9a 85b5
000001a0: 81ae 6db4 0000 0000 0000 0000 0000 0000
000001b0: 0000 0000 0000 0000 0000 0000 0000 0000
000001c0: 0000 0000 0000 0000 0000 0000 0000 0000
000001d0: 0000 0000 0000 0000 0000 0000 0000 0000
000001e0: 0000 0000 0000 0000 0000 0000 0000 0000
000001f0: 0000 0000 0000 0000 0000 0000 0000 0000
00000200: 0000 0000 0000 0000 0000 0000 0000 0000
00000210: 0000 0000 0000 0000 0000 0000 0000 0000
00000220: 0000 0000 0000 0000 0000 0000 0000 0000
00000230: 0000 0000 0000 0000 0000 0000 0000 0000
00000240: 0000 0000 0000 0000 0000 0000 0000 0000
00000250: 0000 0000 0000 0000 2c9f 09b7 01aa 37b6
00000260: d53c a436 3acf c1b6 9735 83b6 53cb de36
00000270: 6fcf 9b35 6cfa eeb3 d416 6bb4 40f1 dc35
00000280: 24bf e535 359c cfb3 0c2f b832 bb44 a434
00000290: 0545 1134 0000 0000 0000 0000 0000 0000
000002a0: 0000 0000 0000 0000 0000 0000 0000 0000
000002b0: 0000 0000 0000 0000 0000 0000 0000 0000
000002c0: 0000 0000 0000 0000 0000 0000 0000 0000
000002d0: 0000 0000 0000 0000 0000 0000 0000 0000
000002e0: 0000 0000 0000 0000 0000 0000 0000 0000
000002f0: 0000 0000 0000 0000 0000 0000 0000 0000
00000300: 0000 0000 0000 0000 0000 0000 0000 0000
00000310: 0000 0000 0000 0000 0000 0000 0000 0000
00000320: 0000 0000 0000 0000 0000 0000 0000 0000
00000330: 0000 0000 0000 0000 0000 0000 0000 0000
00000340: 0000 0000 0000 0000 31b6 26b5 5792 b7b4
00000350: 9071 ba34 ca75 01b5 e769 29b5 29ca 9535
00000360: 72ec 4934 2702 8433 4950 5ab2 88cd 1f34
00000370: 27ef 9734 8f4e 9cb3 b18a 9932 1610 4635
00000380: 77f6 6a34 0000 0000 0000 0000 0000 0000
00000390: 0000 0000 0000 0000 0000 0000 0000 0000
000003a0: 0000 0000 0000 0000 0000 0000 0000 0000
000003b0: 0000 0000 0000 0000 0000 0000 0000 0000
000003c0: ff6b 5b35 4a74 95b4 e67d a7b4 0ae5 7e35
000003d0: f2f3 3c35 de02 3ab5 32c3 98b4 a535 b133
000003e0: f948 2934 ed5b 0fb4 211f 9ab4 3cd9 1334
000003f0: 99fa f2b2 afcd ab35 5b57 1b35 8f0e 8db5

exp_avg_sq f4 [128, 15]
1.920688e-09 2.8023295e-10 8.174278e-10 1.0740614e-09 4.2720946e-10 1.5249303e-09 3.7131957e-11 1.6972879e-12
1.2699454e-12 8.405739e-11 8.964584e-11 9.789108e-14 6.43717e-14 1.3266526e-11 5.6625668e-12 2.566725e-09
4.0578865e-10 1.1440547e-09 1.4005249e-09 5.564375e-10 1.924482e-09 4.167459e-11 1.4218817e-12 1.1966887e-12
1.0988673e-10 1.1639686e-10 1.1621829e-13 6.827484e-14 2.063302e-11 6.4197194e-12 1.6733863e-09 2.2200158e-10
6.710058e-10 8.96218e-10 3.4296535e-10 1.2163646e-09 3.0644896e-11 1.8824553e-12 1.2251725e-12 7.254572e-11
7.04258e-11 2.1964109e-13 6.595251e-14 6.7768274e-12 4.552088e-12 0.0 0.0 0.0
0.0 0.0 0.0 0.0 0.0 0.0 0.0 0.0
0.0 0.0 0.0 0.0 3.1562803e-09 5.1438e-10 1.4378801e-09 1.7177219e-09
6.8302264e-10 2.333773e-09 4.8069482e-11 1.9009982e-12 1.5068635e-12 1.3282342e-10 1.4434454e-10 9.826662e-14
5.880847e-14 2.1755497e-11 1.8354413e-11 0.0 0.0 0.0 0.0 0.0
0.0 0.0 0.0 0.0 0.0 0.0 0.0 0.0
0.0 0.0 1.6803259e-09 2.610514e-10 7.570463e-10 9.429221e-10 3.762797e-10 1.3063048e-09
2.8530163e-11 1.1946838e-12 9.403366e-13 7.3149965e-11 7.75541e-11 5.596363e-14 4.3998635e-14 1.2927849e-11
5.7047843e-12 0.0 0.0 0.0 0.0 0.0 0.0 0.0
0.0 0.0 0.0 0.0 0.0 0.0 0.0 0.0
0.0 0.0 0.0 0.0 0.0 0.0 0.0 0.0
0.0 0.0 0.0 0.0 0.0 0.0 0.0 0.0
0.0 0.0 0.0 0.0 0.0 0.0 0.0 0.0
0.0 0.0 0.0 0.0 0.0 0.0 2.0130235e-09 3.3908337e-10
9.088001e-10 1.1036787e-09 4.4709608e-10 1.5921011e-09 3.422353e-11 1.1870789e-12 8.6505846e-13 8.8297675e-11
9.33263e-11 7.7089214e-14 3.4330798e-14 6.634807e-12 5.887237e-12 0.0 0.0 0.0
0.0 0.0 0.0 0.0 0.0 0.0 0.0 0.0
0.0 0.0 0.0 0.0 0.0 0.0 0.0 0.0
0.0 0.0 0.0 0.0 0.0 0.0 0.0 0.0
0.0 0.0 0.0 0.0 0.0 0.0 0.0 0.0
0.0 0.0 0.0 0.0 0.0 0.0 0.0 0.0
0.0 0.0 2.9734444e-09 4.516839e-10 1.3069025e-09 1.6375481e-09 6.571943e-10 2.2678477e-09
5.037138e-11 2.1887958e-12 1.6619632e-12 1.2721108e-10 1.3802001e-10 6.2985106e-14 8.9329795e-14 1.379765e-11
9.982635e-12 0.0 0.0 0.0 0.0 0.0 0.0 0.0
0.0 0.0 0.0 0.0 0.0 0.0 0.0 0.0
3.2963674e-09 5.144062e-10 1.4705173e-09 1.8477293e-09 7.223299e-10 2.6186708e-09 5.7002767e-11 1.5470367e-12
1.6470661e-12 1.4534057e-10 1.5327677e-10 1.01401025e-13 4.171228e-14 7.393857e-12 6.501849e-12 3.7862344e-09
00000000: 1afd 0331 480f 9a2f 5eb1 6030 2d9e 9330
00000010: 63dc ea2f b795 d130 de4e 232e 3edf ee2b
00000020: 9bba b22b 1bd8 b82e 1f22 c52e 5e6e dc29
00000030: c2f3 9029 1f63 692d de3b c72c 4e62 3031
00000040: ad15 df2f d93c 9d30 977c c030 cff3 1830
00000050: d83f 0431 6b49 372e b01c c82b 416b a82b
00000060: bba4 f12e 9bf5 ff2e a4d9 022a c4bd 9929
00000070: 6e7d b52d b1df e12c 0cfd e530 e417 742f
00000080: d671 3830 bc59 7630 158c bc2f 062d a730
00000090: 16c7 062e 4d77 042c 7e6d ac2b 9c87 9f2e
000000a0: 33de 9a2e 3c4b 772a 0983 9429 3c70 ee2c
000000b0: 9029 a02c 0000 0000 0000 0000 0000 0000
000000c0: 0000 0000 0000 0000 0000 0000 0000 0000
000000d0: 0000 0000 0000 0000 0000 0000 0000 0000
000000e0: 0000 0000 0000 0000 0000 0000 0000 0000
000000f0: dfe5 5831 4664 0d30 e99e c530 f714 ec30
00000100: 72bf 3b30 2b60 2031 6d69 532e 57c5 052c
00000110: 7b12 d42b 780a 122f 60b5 1e2f da46 dd29
00000120: c66c 8429 065d bf2d 7772 a12d 0000 0000
00000130: 0000 0000 0000 0000 0000 0000 0000 0000
00000140: 0000 0000 0000 0000 0000 0000 0000 0000
00000150: 0000 0000 0000 0000 0000 0000 0000 0000
00000160: 0000 0000 0000 0000 36f1 e630 b883 8f2f
00000170: 6618 5030 1f98 8130 a9dc ce2f 8489 b330
00000180: 37f4 fa2d 0523 a82b 3257 842b c5db a02e
00000190: 148b aa2e ac09 7c29 f926 4629 db6d 632d
000001a0: 21b8 c82c 0000 0000 0000 0000 0000 0000
000001b0: 0000 0000 0000 0000 0000 0000 0000 0000
000001c0: 0000 0000 0000 0000 0000 0000 0000 0000
000001d0: 0000 0000 0000 0000 0000 0000 0000 0000
000001e0: 0000 0000 0000 0000 0000 0000 0000 0000
000001f0: 0000 0000 0000 0000 0000 0000 0000 0000
00000200: 0000 0000 0000 0000 0000 0000 0000 0000
00000210: 0000 0000 0000 0000 0000 0000 0000 0000
00000220: 0000 0000 0000 0000 0000 0000 0000 0000
00000230: 0000 0000 0000 0000 0000 0000 0000 0000
00000240: 0000 0000 0000 0000 0000 0000 0000 0000
00000250: 0000 0000 0000 0000 7c55 0a31 be69 ba2f
00000260: 1fcf 7930 3eb0 9730 2ecb f52f 14d1 da30
00000270: 4584 162e 0611 a72b 087e 732b 2c2b c22e
00000280: 093a cd2e e896 ad29 b79c 1a29 0771 e92c
00000290: 8423 cf2c 0000 0000 0000 0000 0000 0000
000002a0: 0000 0000 0000 0000 0000 0000 0000 0000
000002b0: 0000 0000 0000 0000 0000 0000 0000 0000
000002c0: 0000 0000 0000 0000 0000 0000 0000 0000
000002d0: 0000 0000 0000 0000 0000 0000 0000 0000
000002e0: 0000 0000 0000 0000 0000 0000 0000 0000
000002f0: 0000 0000 0000 0000 0000 0000 0000 0000
00000300: 0000 0000 0000 0000 0000 0000 0000 0000
00000310: 0000 0000 0000 0000 0000 0000 0000 0000
00000320: 0000 0000 0000 0000 0000 0000 0000 0000
00000330: 0000 0000 0000 0000 0000 0000 0000 0000
00000340: 0000 0000 0000 0000 6355 4c31 dc50 f82f
00000350: 8b9e b330 1a10 e130 f0a5 3430 66d8 1b31
00000360: 2289 5d2e d705 1a2c 89e6 e92b bcde 0b2f
00000370: 2ec1 172f 71d4 8d29 1f27 c929 17bb 722d
00000380: cb9d 2f2d 0000 0000 0000 0000 0000 0000
00000390: 0000 0000 0000 0000 0000 0000 0000 0000
000003a0: 0000 0000 0000 0000 0000 0000 0000 0000
000003b0: 0000 0000 0000 0000 0000 0000 0000 0000
000003c0: 4f86 6231 1e66 0d30 3a1b ca30 32f3 fd30
000003d0: 738d 4630 25f4 3331 69b3 7a2e dfb9 d92b
000003e0: cfcd e72b bccd 1f2f 9387 282f b655 e429
000003f0: fcda 3b29 f912 022d 73c3 e42c 1218 8231
