robot_state_berkeley_training/robot_state_epoch_15.pth (torch, 838065 bytes, 24 tensors)

policy_network.0.weight f4 [128, 15]
-0.060058087 -0.036227915 0.23063698 0.12431737 0.110941894 0.010870768 0.11394209 -0.07299779
0.20089327 0.21309696 -0.13248332 0.62031376 0.12179948 0.32158077 0.3455238 0.11584932
0.19121999 -0.11937948 -0.18404618 -0.043360807 0.10674172 0.09925131 -0.12670891 -0.56216973
-0.047868345 -0.14790015 0.1483036 -0.29912516 0.22778137 -0.0047738296 0.019952744 -0.07160701
-0.24560302 0.075701825 -0.029494839 0.12867235 0.17791212 0.24738142 0.31429595 -0.1611846
0.25218776 -0.17160843 -0.013411496 0.18534692 -0.20337702 0.19315524 -0.129924 -0.051801074
-0.0955226 -0.12936701 -0.18899918 0.008251854 0.18019748 0.23414199 -0.05951995 -0.061612107
0.14260837 -0.06521142 0.070706494 -0.006390821 0.07991198 0.0034779294 0.18504621 -0.22542234
0.0067374283 -0.27227977 0.056206167 -0.05709102 -0.24462157 0.087633334 -0.12418946 0.6555356
-0.3752468 0.33041126 0.33357984 0.015704544 0.07467951 0.013595396 -0.113071315 0.051129248
-0.08273961 -0.1920192 -0.19081734 0.23896115 -0.013201416 -0.14713082 0.10875113 -0.22920376
-0.25111547 -0.20342153 -0.04683746 0.29439393 0.08740587 0.20925635 -0.12188494 0.09904709
-0.20476653 -0.2717066 0.12568644 -0.022165617 -0.14767896 0.02982293 -0.22305357 0.007891685
0.10452889 0.044976015 -0.0057647005 -0.21142513 0.16290526 0.1964123 0.1586797 0.10307588
0.05507028 -0.09803983 0.116359726 -0.085960425 0.03188282 -0.15432917 -0.15054837 -0.17595616
-0.04227414 0.1530953 -0.20465507 0.1159739 0.22439907 -0.2231207 0.16480778 -0.19009045
0.18847454 -0.17246756 0.092211016 0.2501889 0.05080775 -0.14482874 -0.0853781 -0.10772626
-0.18271233 -0.21741275 0.25390825 -0.10747316 -0.11422684 0.2544008 0.16400732 0.24244718
0.1574675 -0.09919246 0.091738485 0.20060968 0.1605435 -0.20682096 -0.18635517 0.060287192
-0.16485295 -0.076855585 -0.1545222 -0.14937481 -0.21803525 -0.07237104 -0.26251778 -0.0015737619
-0.25323752 -0.1545389 0.0058909156 0.21206236 -0.062127534 0.23025969 0.05353308 0.13833976
0.039805546 -0.09473166 -0.20264322 -0.0035206443 -0.1534465 -0.23725991 0.1148577 0.0140651865
0.25002608 0.17831902 -0.129484 0.14641094 0.20424646 -0.16721047 -0.23049106 0.197429
-0.15720916 0.10646109 -0.23418546 -0.060773235 -0.00012795124 -0.1905936 0.17176156 -0.010243825
0.22083673 0.18517752 -0.049756225 0.24931498 0.064499244 0.20261289 0.19364126 0.13346875
-0.17058301 0.17003596 -0.25364053 -0.1394084 -0.17917387 -0.13276279 0.23354976 0.0046323766
-0.05645235 0.25230592 -0.17903395 -0.21402317 -0.29902014 -0.087500766 -0.103499696 0.04455208
0.025716297 0.22482735 0.5035027 -0.31903967 -0.30959877 -0.33402073 0.35808256 -0.089653656
0.08355547 -0.06132607 0.17647141 -0.24045664 0.16447444 0.20417853 -0.014144445 -0.14442588
-0.118929155 -0.048185106 0.09821773 0.11078675 -0.20685741 -0.1921759 0.08981235 -0.1326011
-0.17781466 0.30431226 0.152462 0.12265487 0.2266632 0.12757781 -0.109476 0.0021168818
0.12931459 -0.25114474 -0.107189484 -0.22974668 -0.20360714 -0.36465755 -0.3112942 -0.041661326
00000000: 78ff 75bd b963 14bd 1a2c 6c3e 1b9a fe3d
00000010: 8135 e33d 4e1b 323c 785a e93d de7f 95bd
00000020: f7b6 4d3e 1736 5a3e b5a9 07be e2cc 1e3f
00000030: 0172 f93d 3ca6 a43e 7fe8 b03e 6942 ed3d
00000040: 2ccf 433e 3b7d f4bd 9a76 3cbe 1a9b 31bd
00000050: 679b da3d 4544 cb3d fbbf 01be 5bea 0fbf
00000060: 9911 44bd 2373 17be e6dc 173e ef26 99be
00000070: 853f 693e c96d 9cbb f073 a33c b2a6 92bd
00000080: 5c7f 7bbe 8f09 9b3d 299f f1bc afc2 033e
00000090: 982e 363e 8e51 7d3e 66eb a03e 930d 25be
000000a0: c11e 813e 1fba 2fbe e4bb 5bbc 95cb 3d3e
000000b0: 1142 50be 7dca 453e cc0a 05be 5d2d 54bd
000000c0: 5aa1 c3bd c978 04be 0089 41be c932 073c
000000d0: b085 383e ebc2 6f3e 31cb 73bd fa5c 7cbd
000000e0: ee07 123e 918d 85bd 91ce 903d 186a d1bb
000000f0: e4a8 a33d f9ed 633b c17c 3d3e 1dd5 66be
00000100: a5c5 dc3b 4168 8bbe 7038 663d 46d8 69bd
00000110: 147e 7abe 1b79 b33d 0b57 febd 2ed1 273f
00000120: 5920 c0be aa2b a93e faca aa3e d1a6 803c
00000130: 92f1 983d 39bf 5e3c ef91 e7bd e76c 513d
00000140: 6273 a9bd aea0 44be 9f65 43be 3bb2 743e
00000150: c04a 58bc 76a9 16be eab8 de3d 64b4 6abe
00000160: 3592 80be bc4d 50be a3d8 3fbd cdba 963e
00000170: d901 b33d 4c47 563e d09e f9bd 33d9 ca3d
00000180: 51ae 51be 211d 8bbe f2b3 003e ab94 b5bc
00000190: 2739 17be 384f f43c 2868 64be 204c 013c
000001a0: 3e13 d63d c538 383d d0e5 bcbb d47f 58be
000001b0: a3d0 263e 4e20 493e ee7c 223e 7219 d33d
000001c0: 6091 613d 1bc9 c8bd 024e ee3d 050c b0bd
000001d0: 8f97 023d 7708 1ebe 5a29 1abe da2d 34be
000001e0: a627 2dbd 04c5 1c3e 1991 51be b983 ed3d
000001f0: dfc8 653e c179 64be 5fc3 283e 12a7 42be
00000200: 78ff 403e 569b 30be 21d9 bc3d c218 803e
00000210: ca1b 503d fc4d 14be b7da aebd 969f dcbd
00000220: f118 3bbe 73a1 5ebe 4300 823e e31a dcbd
00000230: c3ef e9bd d240 823e 89f1 273e 1344 783e
00000240: 293f 213e 6b25 cbbd 63e1 bb3d a06c 4d3e
00000250: 8465 243e e0c8 53be e4d3 3ebe b4ef 763d
00000260: 36cf 28be 7666 9dbd 113b 1ebe b6f5 18be
00000270: a244 5fbe 4537 94bd bb68 86be b046 ceba
00000280: 59a8 81be 723f 1ebe 9508 c13b e026 593e
00000290: 7179 7ebd 32c9 6b3e 8145 5b3d f0a8 0d3e
000002a0: 240b 233d ac02 c2bd b481 4fbe 9cba 66bb
000002b0: 1421 1dbe 43f4 72be 843a eb3d ab71 663c
000002c0: 6b03 803e 4399 363e 7497 04be c0ec 153e
000002d0: fc25 513e 3939 2bbe d905 6cbe d42a 4a3e
000002e0: 70fb 20be 4608 da3d 50ce 6fbe 5bed 78bd
000002f0: a62a 06b9 f82a 43be 43e2 2f3e b7d5 27bc
00000300: 0623 623e 2d9f 3d3e 2fcd 4bbd 6d4c 7f3e
00000310: 2e18 843d c179 4f3e e549 463e 08ac 083e
00000320: 50ad 2ebe e81d 2e3e 2cdd 81be 13c1 0ebe
00000330: 5b79 37be f8f2 07be ab27 6f3e 31cb 973b
00000340: 943a 67bd 3e2e 813e ad54 37be e428 5bbe
00000350: 2b19 99be 9a33 b3bd a6f7 d3bd 3e7c 363d
00000360: fcaa d23c 2439 663e 8ee5 003f 2b59 a3be
00000370: bb83 9ebe c404 abbe 9956 b73e 569c b7bd
00000380: 211f ab3d 0c31 7bbd ecb4 343e 443a 76be
00000390: fd6b 283e 2d14 513e 1abe 67bc 61e4 13be
000003a0: 2191 f3bd bf5d 45bd 6126 c93d 2ae4 e23d
000003b0: 6ed2 53be c2c9 44be 8aef b73d 95c8 07be
000003c0: 0c15 36be d1ce 9b3e 001f 1c3e 7a32 fb3d
000003d0: 661a 683e c2a3 023e f434 e0bd 62bb 0a3b
000003e0: 0b6b 043e 0b96 80be 2986 dbbd b742 6bbe
000003f0: 647e 50be 65b4 babe f461 9fbe 11a5 2abd

policy_network.0.bias f4 [128]
-0.24275231 0.14046113 -0.07602829 0.0045538573 0.05696219 -0.0918938 0.10672736 0.08099252
0.19977744 0.037817147 -0.11788467 0.10035677 0.17702726 0.1725037 -0.10436117 0.24832934
0.12869847 -0.192302 0.0041323267 -0.094334185 0.19034189 -0.10599121 -0.17590918 -0.255406
0.16118996 -0.2000165 0.097759545 -0.26434007 -0.22053005 0.036360405 0.05120487 0.12849213
-0.22530846 -0.026552385 -0.2558678 -0.19169949 -0.17421542 0.09578095 -0.2784483 0.0073148785
0.08067896 -0.017870886 0.04412717 0.1777713 -0.03137166 -0.16256832 -0.054229442 0.0023422325
-0.18883546 -0.13331866 0.054254785 -0.12963697 -0.17278501 0.17652777 0.04386387 0.15301672
-0.13857739 -0.15103407 0.18525496 -0.024975177 -0.20791444 -0.23349868 -0.082909234 0.14063503
0.16989997 0.083564386 0.049093753 0.122037254 -0.08982769 -0.14695266 -0.14680277 -0.02992902
-0.1321526 0.23697637 -0.096312374 -0.25849262 -0.13339698 0.09271852 -0.22891933 -0.06799268
0.2301419 -0.13177538 0.08017334 0.163865 -0.05570511 0.038387094 -0.042659566 -0.028313236
0.037810054 0.15286776 -0.17107752 0.23704755 -0.25062707 -0.042147543 -0.13911465 -0.030629855
0.09284352 0.0567057 0.13492884 -0.179177 0.024688432 -0.27305955 0.22687475 -0.056256782
-0.23100194 0.070243575 -0.20468237 0.06778052 -0.17307787 0.14261657 0.08329946 -0.119036295
-0.21205668 -0.28755644 0.20086558 -0.048265275 0.22340205 -0.083028875 -0.08452372 0.07491292
-0.19027832 0.03128037 0.13526835 -0.14063554 0.16772021 -0.016181968 -0.13318834 -0.18074659
00000000: 1094 78be 0bd5 0f3e b8b4 9bbd 8638 953b
00000010: 2f51 693d d132 bcbd e093 da3d 68df a53d
00000020: 7592 4c3e 27e6 1a3d 856d f1bd da87 cd3d
00000030: a246 353e cfa4 303e 4fbb d5bd 0c4a 7e3e
00000040: 88c9 033e d1ea 44be 7868 873b 4832 c1bd
00000050: fce8 423e eb11 d9bd 8921 34be 93c4 82be
00000060: fb0e 253e 20d1 4cbe 2836 c83d 9557 87be
00000070: a1d2 61be a6ee 143d 33bc 513d 7193 033e
00000080: 43b7 66be 6384 d9bc 1b01 83be df4c 44be
00000090: 8765 32be cd28 c43d c790 8ebe a6b1 ef3b
000000a0: 033b a53d f765 92bc b1be 343d ae09 363e
000000b0: 927f 00bd 4f78 26be b11f 5ebd 2480 193b
000000c0: 155e 41be b084 08be 443a 5e3d 8ebf 04be
000000d0: 8eee 30be b2c3 343e 9aaa 333d 6ab0 1c3e
000000e0: 3be7 0dbe ada8 1abe 7ab3 3d3e be98 ccbc
000000f0: 86e7 54be 471a 6fbe 51cc a9bd a102 103e
00000100: 42fa 2d3e ce23 ab3d 8816 493d abee f93d
00000110: 94f7 b7bd c27a 16be 7753 16be b42d f5bc
00000120: 0353 07be efa9 723e 6c3f c5bd 2559 84be
00000130: 3899 08be 35e3 bd3d d469 6abe bf3f 8bbd
00000140: 51aa 6b3e 20f0 06be ec31 a43d 3acc 273e
00000150: 0b2b 64bd c93b 1d3d ccbb 2ebd 29f1 e7bc
00000160: b7de 1a3d 5e89 1c3e f22e 2fbe 98bc 723e
00000170: 3152 80be e7a2 2cbd 1274 0ebe 76eb fabc
00000180: be24 be3d 3c44 683d c92a 0a3e 2d7a 37be
00000190: 653f ca3c 76ce 8bbe db51 683e 836d 66bd
000001a0: c68b 6cbe dddb 8f3d 4198 51be 83d0 8a3d
000001b0: 533b 31be 140a 123e e898 aa3d 4dc9 f3bd
000001c0: 6325 59be 993a 93be b5af 4d3e cfb1 45bd
000001d0: 82c3 643e 0b0b aabd c61a adbd f26b 993d
000001e0: 52d8 42be d81f 003d c983 0a3e c302 10be
000001f0: d9be 2b3e 0c90 84bc 8662 08be a215 39be

policy_network.3.weight f4 [256, 128]
-0.038463384 -0.049616184 0.01507255 -0.08609866 -0.10803198 0.07232673 -0.093861334 0.07096093
-0.022822117 -0.03048314 -0.090465926 -0.07878769 0.0014612839 -0.0627836 0.0452241 0.07312078
0.048455942 -0.08558283 0.06311492 0.018544447 0.034234274 -0.08088134 0.060113758 0.07762854
0.024667123 -0.03614851 0.067901224 -0.046154495 -0.021207826 -0.06107271 -0.02506474 0.0038684576
0.016306216 0.056147635 0.053519756 -0.08043166 -0.00014072932 -0.007815824 0.07624355 -0.061573774
-0.033658758 0.04993124 -0.03408717 -0.08088621 -0.022744335 0.055849925 -0.021042097 -0.037315886
-0.06939235 0.022720385 -0.08884751 0.015001286 -0.05680094 0.057158776 0.01708552 -0.014511023
-0.08532968 -0.07019301 -0.087778494 -0.06235521 -0.05454408 0.009531132 -0.022460246 0.005788535
0.043947782 -0.004368906 0.04622106 0.039342556 -0.071498975 -0.004150899 0.051511794 -0.053126603
-0.006954219 0.011029493 -0.08141438 0.018622804 -0.03602645 -0.012189615 0.028461078 0.04318341
-0.051274624 -0.097783305 0.02207853 -0.03774364 0.03488619 0.08195857 0.05551635 -0.030069362
0.0042210277 -0.0310705 -0.01005137 -0.08703332 -0.08313148 -0.08472497 -0.08063996 0.020486696
0.00656478 0.025449762 -0.06287828 0.019930677 -0.08683639 0.022513619 -0.056245472 0.044315327
-0.015174103 0.07524939 0.013235196 0.047172375 0.052491903 0.0626182 0.0023744782 0.079554886
0.008559586 -0.015459116 0.006959395 -0.04056757 -0.009761231 -0.0051633925 -0.055763166 -0.0014596987
-0.0117974505 -0.04860719 -0.07313071 -0.13545081 0.02330833 -0.061068084 -0.029805576 -0.04523145
-0.063614845 0.041254587 0.04083077 -0.07453118 0.032782402 -0.029024921 0.038098797 0.05467227
0.012061416 -0.070771776 -0.051054068 -0.076944605 0.03053044 0.06314726 0.08888558 -0.0024271947
-0.011134657 -0.045032807 0.12605591 -0.008215683 0.0058735427 -0.06733466 -0.042807207 -0.041096304
0.045390166 0.011524772 -0.041448537 -0.053805858 0.030574793 -0.026593111 -0.016063387 0.062331248
0.038432963 0.067273594 0.070502 -0.07591741 -0.043847173 0.05358108 -0.060352232 -0.035074633
0.061934445 -0.046330463 0.00040487316 -0.03784318 -0.05184273 -0.02567568 -0.08165097 0.05611962
0.08348682 -0.04617913 -0.09886715 -0.06788733 -0.023915535 0.012752477 0.012762259 0.045114946
-0.00083348877 -0.008487079 0.034285877 -0.07249232 0.06797987 -0.006841014 -0.07010255 0.032631606
-0.050056025 0.018733526 0.028607152 -0.08654861 0.0016344344 0.07011894 0.08405361 0.06358744
0.050047673 0.05609579 -0.017595014 -0.07495497 0.104751945 0.040812306 0.0013514265 0.053667005
0.04905872 0.056651708 0.038739245 0.06001844 -0.08657986 -0.061881423 -0.015011329 -0.06486941
0.040209405 0.071395025 0.031372502 0.010893437 -0.03224196 0.04109249 -0.08145329 -0.041646156
0.04289389 -0.06319841 0.03291952 -0.089244105 -0.0011469843 -0.08419587 -0.075951874 0.07635144
-0.08574101 0.05060358 0.07289449 -0.0008702481 0.105545424 0.039229304 0.071094885 0.06589618
-0.08138587 0.017123373 -0.020006418 0.023634518 0.043334577 -0.08492744 0.03708125 -0.04769905
0.053864904 0.0657185 -0.07276274 -0.14743543 -0.0099870525 0.009568472 0.07951181 -0.061738726
00000000: c88b 1dbd 573a 4bbd dbf2 763c 7f54 b0bd
00000010: df3f ddbd 0920 943d 5f3a c0bd f753 913d
00000020: 73f5 babc c7b7 f9bc 3346 b9bd 715b a1bd
00000030: 8d88 bf3a b094 80bd e83c 393d 59c0 953d
00000040: bd79 463d 0d46 afbd 6542 813d 86ea 973c
00000050: 3d39 0c3d 1ea5 a5bd d839 763d b6fb 9e3d
00000060: b512 ca3c 7610 14bd cc0f 8b3d 7f0c 3dbd
00000070: 09bc adbc 6127 7abd 9254 cdbc f385 7d3b
00000080: 9d94 853c 10fb 653d 8837 5b3d 5bb9 a4bd
00000090: bd90 13b9 f10d 00bc 9425 9c3d c834 7cbd
000000a0: c4dd 09bd b384 4c3d fd9e 0bbd aba7 a5bd
000000b0: 5452 babc e4c2 643d 7a60 acbc 8bd8 18bd
000000c0: 941d 8ebd 1a20 ba3c aff5 b5bd f4c7 753c
000000d0: 1aa8 68bd 521f 6a3d eff6 8b3c a4bf 6dbc
000000e0: 54c1 aebd 5ac1 8fbd 36c5 b3bd 2d68 7fbd
000000f0: 9d69 5fbd 7728 1c3c 8dfe b7bc c0ad bd3b
00000100: 9702 343d 0a29 8fbb 4b52 3d3d a925 213d
00000110: 0e6e 92bd 4404 88bb 08fe 523d 489b 59bd
00000120: 38e0 e3bb 0cb5 343c 95bc a6bd da8e 983c
00000130: 7990 13bd f3b6 47bc 3527 e93c 16e1 303d
00000140: 5705 52bd 9d42 c8bd 09de b43c 1399 1abd
00000150: d2e4 0e3d e5d9 a73d 1d65 633d 0654 f6bc
00000160: 8c50 8a3b 9087 febc 80ae 24bc 863e b2bd
00000170: d640 aabd 4984 adbd 9026 a5bd b7d3 a73c
00000180: 5e1d d73b 057c d03c 54c6 80bd a945 a33c
00000190: 47d7 b1bd 7b6e b83c a761 66bd fd83 353d
000001a0: cd9c 78bc 5a1c 9a3d 6fd8 583c d237 413d
000001b0: c001 573d f93d 803d 229d 1b3b aced a23d
000001c0: 813d 0c3c 3b48 7dbc a30b e43b 2e2a 26bd
000001d0: 92ed 1fbc ad31 a9bb eb67 64bd 5c53 bfba
000001e0: 184a 41bc 5518 47bd 8ec5 95bd 9eb3 0abe
000001f0: 1cf1 be3c 8722 7abd d32a f4bc 9d44 39bd
00000200: 8048 82bd 92fa 283d 2a3e 273d cea3 98bd
00000210: d746 063d acc5 edbc 7c0d 1c3d 08f0 5f3d
00000220: 3f9d 453c cbf0 90bd 121e 51bd 2295 9dbd
00000230: f91a fa3c 5a53 813d a509 b63d 9211 1fbb
00000240: 236e 36bc 5274 38bd cd14 013e 129b 06bc
00000250: d976 c03b c1e6 89bd 9c56 2fbd 9954 28bd
00000260: 0aeb 393d 66d2 3c3c f1c5 29bd 8863 5cbd
00000270: fd77 fa3c ccd9 d9bc 5d97 83bc 0d4f 7f3d
00000280: e26b 1d3d bdc6 893d 5a63 903d 967a 9bbd
00000290: 1899 33bd d677 5b3d e733 77bd 6baa 0fbd
000002a0: f9ae 7d3d 03c5 3dbd 2845 d439 7301 1bbd
000002b0: 0b59 54bd ce55 d2bc a038 a7bd b0dd 653d
000002c0: 23fb aa3d 5426 3dbd dc7a cabd 8308 8bbd
000002d0: 83ea c3bc c4ef 503c cb18 513c 73ca 383d
000002e0: 7c7e 5aba 640d 0bbc 596f 0c3d da76 94bd
000002f0: 0839 8b3d 962a e0bb ed91 8fbd b8a8 053d
00000300: 8c07 4dbd 0d77 993c 8c59 ea3c 6640 b1bd
00000310: 853a d63a 859a 8f3d 4d24 ac3d 223a 823d
00000320: cafe 4c3d b3c4 653d 6b23 90bc fe81 99bd
00000330: 3088 d63d ce2a 273d 5922 b13a efd1 5b3d
00000340: ccf1 483d 9f0b 683d 0bad 1e3d e5d5 753d
00000350: c850 b1bd 6077 7dbd 14f2 75bc 41da 84bd
00000360: 9eb2 243d 8e37 923d 7480 003d 637a 323c
00000370: 2510 04bd 9950 283d fcd0 a6bd 2995 2abd
00000380: 81b1 2f3d 2b6e 81bd 9ed6 063d 9dc5 b6bd
00000390: 6856 96ba e26e acbd a88c 9bbd 255e 9c3d
000003a0: fc98 afbd b345 4f3d b549 953d 5d21 64ba
000003b0: 3328 d83d e8ae 203d 329a 913d 94f4 863d
000003c0: a3ad a6bd 5146 8c3c 80e4 a3bc 2d9d c13c
000003d0: 997f 313d 70ee adbd 82e2 173d 1460 43bd
000003e0: 72a1 5c3d 6c97 863d a204 95bd 50f9 16be
000003f0: bca0 23bc 15c5 1c3c 16d7 a23d bfe1 7cbd

policy_network.3.bias f4 [256]
-0.023612835 0.037478585 0.054803856 -0.08864061 -0.0010227783 -0.09933698 -0.09525647 0.058534097
0.051919702 -0.06871813 0.05468198 -0.015323911 0.008191825 0.03325993 0.05342423 0.01381693
0.055065386 -0.060439497 -0.015470312 0.041877247 -0.013553346 -0.03163823 -0.020189518 -0.014431924
-0.039171193 -0.07377382 -0.03716384 -0.04282762 -0.06343678 0.007671752 0.035711795 0.067441836
-0.06844939 -0.0922109 -0.015744355 0.012948994 0.0430079 -0.00876971 0.043701787 -0.0358261
-0.0051932856 0.054100886 -0.07808705 0.019864531 -0.043840446 -0.068870775 -0.04195253 -0.0063116793
0.024096677 -0.051920053 0.016069358 -0.011174929 0.042417746 0.048462093 0.045962404 -0.07352595
-0.077990025 0.04183222 -0.08769928 -0.039734375 0.016439058 0.007830435 -0.06637986 0.04522478
-0.07498258 -0.0021789584 -0.032381292 -0.08762414 0.041656844 0.036115486 0.02343282 -0.035980653
0.062455058 0.059013214 0.056597266 -0.05071758 -0.0211353 -0.018858673 0.011479911 0.060048647
0.011026918 0.017357241 0.044052813 0.018180279 0.010222208 -0.021451559 -0.06103764 -0.10699368
-0.044535737 0.025362322 -0.060115445 -0.065450534 -0.05559697 0.03457955 0.00428773 -0.035367735
0.00064447656 -0.01924812 -0.017255588 -0.037293565 -0.053304736 0.0023625342 -0.0459338 0.07108287
0.0023144148 0.080093905 -0.070997335 0.060792122 -0.0003705589 0.066951156 0.022937965 0.054678
0.069379196 -0.08041957 -0.09938157 0.0026285627 0.026867714 0.027273893 0.053128053 -0.100674845
-0.0042250715 0.042998232 0.0045023686 -0.09811777 0.037247524 -0.008173329 -0.014942355 -0.06769788
0.019980164 -0.070175484 -0.029318541 -0.026708897 -0.05272594 -0.05614938 0.042764835 -0.043125715
-0.046190538 -0.062196404 0.054219626 -0.0747848 0.05540417 0.012507258 -0.055672783 -0.017570885
0.010490003 -0.0072321366 -0.032495126 -0.03966028 -0.0806785 -0.017552633 0.04397258 -0.08218838
0.027104713 -0.06735954 0.0419556 -0.002322079 0.07758953 -0.035546795 0.06979669 0.02886342
0.051302757 0.020865742 -0.0056099496 -0.052951507 -0.0652523 -0.04195151 -0.055420175 -0.035594665
-0.0055646705 -0.02871013 0.021601304 0.023831077 0.016102532 0.045355216 -0.08094239 0.043675784
0.017588548 -0.047236934 0.041573316 -0.085857086 0.0012631068 -0.08020606 -0.020085923 -0.08421058
0.021547552 -0.0832509 0.06531874 -0.09166965 0.02156368 0.054683667 0.0052903756 0.03312476
0.039186493 -0.060801335 -0.056923732 0.0074088033 -0.024191154 -0.043055214 -0.007362755 0.06422688
-0.09408963 -0.06424166 -0.0874086 0.023306128 -0.005932328 -0.01296524 -0.08910991 -0.02175663
-0.061210416 -0.08569487 -0.067617066 -0.052449256 0.054728758 0.057085607 -0.024359498 -0.1009681
0.011683758 -0.04888514 -0.050919473 -0.10212649 -0.07568719 0.023779495 0.048377335 0.036271617
-0.032047555 -0.09712164 0.04992916 0.06944944 9.666936e-05 -0.009679813 -0.06636311 0.032104705
0.044321757 -0.09066506 -0.027442306 -0.09480588 0.010458874 -0.023241036 0.011073409 -0.041119162
-0.035424054 0.020413518 0.05644729 0.04182841 -0.02414741 -0.07820508 0.08448041 -0.007690643
0.043271996 0.044637933 -0.030208373 -0.015393523 0.048768662 -0.053244814 0.003931179 -0.018495753
00000000: b46f c1bc 2583 193d 027a 603d 3589 b5bd
00000010: bf0e 86ba 3071 cbbd d315 c3bd 73c1 6f3d
00000020: c1a9 543d 17bc 8cbd 36fa 5f3d 2411 7bbc
00000030: 0137 063c 903b 083d 5ed3 5a3d 6860 623c
00000040: 3e8c 613d 688f 77bd 3177 7dbc 7a87 2b3d
00000050: da0e 5ebc 1797 01bd 7d64 a5bc e073 6cbc
00000060: f971 20bd bb16 97bd 1c39 18bd 046c 2fbd
00000070: 24eb 81bd 5263 fb3b 8846 123d f21e 8a3d
00000080: 322f 8cbd 11d9 bcbd 4efa 80bc 0428 543c
00000090: 0d29 303d d4ae 0fbc a500 333d 63be 12bd
000000a0: 702c aabb e498 5d3d 1aec 9fbd f1ba a23c
000000b0: 0a92 33bd 1f0c 8dbd 6bd6 2bbd 34d2 cebb
000000c0: 6566 c53c 1faa 54bd e3a3 833c 0d17 37bc
000000d0: 3bbe 2d3d 3080 463d 1343 3c3d c694 96bd
000000e0: 3cb9 9fbd 4358 2b3d ae9b b3bd 83c0 22bd
000000f0: 34ab 863c 3a4b 003c 2af2 87bd 9e3d 393d
00000100: 7890 99bd dbcc 0ebb 3fa2 04bd 4974 b3bd
00000110: 5ea0 2a3d d5ed 133d 2ff6 bf3c 7360 13bd
00000120: e0d0 7f3d d7b7 713d 89d2 673d 3dbd 4fbd
00000130: f023 adbc 817d 9abc 3d16 3c3c 92f5 753d
00000140: 3faa 343c c630 8e3c b970 343d cfee 943c
00000150: 0c7b 273c 2ebb afbc 9b02 7abd 811f dbbd
00000160: 1b6b 36bd a5c4 cf3c 9d3b 76bd ee0a 86bd
00000170: a6b9 63bd 49a3 0d3d 1680 8c3b c2dd 10bd
00000180: 17f2 283a 3cae 9dbc 975b 8dbc 23c1 18bd
00000190: 1156 5abd bfd4 1a3b 1525 3cbd e593 913d
000001a0: 70ad 173b 4608 a43d 0d67 91bd 2901 793d
000001b0: 9347 c2b9 b01d 893d 66e8 bb3c 0af6 5f3d
000001c0: ae16 8e3d 04b3 a4bd 9188 cbbd f743 2c3b
000001d0: ae19 dc3c 806d df3c cd9c 593d 9d2e cebd
000001e0: 7872 8abb ea1e 303d 9b88 933b f8f1 c8bd
000001f0: dc90 183d 6de9 05bc c8d0 74bc 30a5 8abd
00000200: 71ad a33c 2ab8 8fbd 702d f0bc 9ecc dabc
00000210: 28f7 57bd e4fc 65bd 2e2a 2f3d 97a4 30bd
00000220: 4a32 3dbd a8c1 7ebd 6615 5e3d c628 99bd
00000230: 7cef 623d 3eeb 4c3c 2509 64bd d1f0 8fbc
00000240: 43de 2b3c 8ffb ecbb 9c19 05bd d172 22bd
00000250: c53a a5bd 8aca 8fbc 981c 343d 6252 a8bd
00000260: b40a de3c ccf3 89bd a3d9 2b3d 052e 18bb
00000270: 42e7 9e3d 8499 11bd 91f1 8e3d fb72 ec3c
00000280: d722 523d a2ee aa3c abd3 b7bb aee3 58bd
00000290: ffa2 85bd 59d5 2bbd 4400 63bd b6cb 11bd
000002a0: d757 b6bb 8231 ebbc 38f5 b03c 6439 c33c
000002b0: 75e9 833c 64c6 393d 20c5 a5bd 61e5 323d
000002c0: dc15 903c 847b 41bd c848 2a3d d7d5 afbd
000002d0: d58e a53a 1343 a4bd 3c8b a4bc 9976 acbd
000002e0: 7e84 b03c 737f aabd d5c5 853d 4cbd bbbd
000002f0: 51a6 b03c fbfb 5f3d e35a ad3b d4ad 073d
00000300: 0482 203d d20a 79bd dc28 69bd 8cc5 f23b
00000310: 872c c6bc aa5a 30bd 4443 f1bb 6289 833d
00000320: 10b2 c0bd 2291 83bd 4803 b3bd 7eec be3c
00000330: f963 c2bb 286c 54bc 427f b6bd f63a b2bc
00000340: c6b7 7abd cb80 afbd d17a 8abd 08d5 56bd
00000350: 432b 603d 99d2 693d 928d c7bc 5dc8 cebd
00000360: 3c6d 3f3c c93b 48bd f090 50bd b127 d1bd
00000370: e301 9bbd 37cd c23c 5027 463d 8c91 143d
00000380: 4c44 03bd b6e7 c6bd 8582 4c3d 823b 8e3d
00000390: f8ba ca38 1498 1ebc 62e9 87bd 3980 033d
000003a0: bb8a 353d 9aae b9bd b0ce e0bc 9629 c2bd
000003b0: b25b 2b3c fc63 bebc 3e6d 353c 916c 28bd
000003c0: d018 11bd 403a a73c 4635 673d 4454 2b3d
000003d0: cad0 c5bc fc29 a0bd 1104 ad3d ca01 fcbb
000003e0: fa3d 313d 44d6 363d 8d77 f7bc 1d35 7cbc
000003f0: a6c1 473d 3c17 5abd 1fd1 803b 6884 97bc

policy_network.6.weight f4 [128, 256]
-0.0029872712 -0.047466755 0.06873192 0.013816897 -0.06489842 -0.033493835 0.0726359 -0.0065787053
-0.088249266 0.0182356 0.07313745 0.05034902 -0.08847486 0.062083893 0.071801804 0.07278132
0.025459643 0.0038959086 0.042619098 0.034127753 -0.050528653 0.006760656 -0.08798011 -0.037716426
0.003987838 -0.0058840364 -0.117142685 0.061900064 -0.031237962 0.04952473 -0.03958825 -0.07815552
0.004048831 0.06586187 0.00014194967 0.009913424 -0.058821015 -0.065620616 -0.005593077 -0.05068693
-0.048269294 -0.038123146 0.033335358 -0.008024081 -0.011187263 0.0361659 0.0055982172 0.058932304
0.068820655 -0.027457481 0.017365318 0.11401903 -0.015662998 -0.013348351 0.012446722 -0.0056697917
-0.008022748 0.06821735 -0.018959664 -0.0276678 -0.028973566 0.037345976 -0.018928675 -0.018960334
0.026072022 -0.0055561103 0.037397746 0.09299661 0.09543874 0.0619121 0.03960355 -0.0066621494
0.002143886 -0.04523369 0.007650788 -0.061749306 -0.015945192 -0.061638433 0.0081498 -0.018830761
0.0071833725 -0.009346333 0.032681465 -0.015374031 0.07015591 0.0099413255 -0.0062928465 0.06614083
0.07175626 -0.06099798 -0.04299877 -0.051817052 -0.041103568 -0.052802525 -0.0125052035 0.038959987
-0.035754602 -0.026895002 0.065440916 0.094320506 -0.052706994 -0.03458682 0.04686743 0.012501334
0.083304346 -0.030035578 0.029298773 -0.0047524595 -0.011982208 -0.012412328 -0.018358653 0.028935716
0.06544252 0.025850043 -0.021994356 0.034953497 0.08317555 -0.024036942 0.042733774 -0.004739437
-0.0025005378 -0.04207981 -0.0736055 0.017598674 0.009673631 0.011875329 0.010301557 0.01961025
0.029216342 -0.08489296 -0.021683602 0.03810656 0.008952233 0.048254307 0.052273203 0.0033725211
0.10636142 0.093139544 -0.005368682 -0.06089253 -0.0048685456 0.024453228 -0.0019142153 0.060754012
0.005195946 -0.020882474 -0.045568094 0.03721772 0.015477665 0.022851974 0.003257574 -0.015125677
-0.05703036 -0.04087495 0.048832778 0.03242947 -0.07601105 0.017938197 0.0060532405 -0.035474278
0.003817425 -0.017213259 -0.0069445525 0.03419913 -0.031332593 -0.036823213 -0.04413809 0.07389933
0.032021508 -0.06400527 0.011198994 -0.008137733 -0.025726417 -0.03228331 0.040080268 0.06859533
0.0119355405 -0.056076698 0.04291731 -0.020007897 0.006138421 -0.05151979 -0.03289958 -0.041612107
-0.012638069 -0.0054623336 0.13608298 -0.018651783 0.041482862 -0.06624224 0.0071648583 -0.05644893
0.17508027 0.045978673 0.03273471 -0.004870963 0.01792879 -0.042637516 -0.03673519 0.011577226
0.09077005 0.085712634 0.013638951 -0.06159902 0.035652764 -0.016608208 0.0056174546 0.019533232
0.042861197 -0.028900668 -0.021924077 -0.08639352 0.05956379 -0.042466488 0.035551146 0.06301729
0.024625203 -0.019597983 -0.06396273 0.010031253 0.046129294 0.049452357 -0.018561015 -0.018300468
-0.0033422913 -0.06269605 -0.035480674 -0.015925758 0.05353283 -0.09875434 -0.03869953 0.043097198
0.03339024 0.05049014 0.0015933006 -0.017494079 0.018194133 0.026141206 0.025513446 -0.037871815
0.015388713 -0.069964305 0.093843505 0.021124398 0.054841682 0.04095341 -0.02390055 0.017346265
-0.011223988 -0.06219536 0.03499868 -0.006362619 0.009932926 0.039070986 0.015070699 0.045227457
00000000: 18c6 43bb 806c 42bd 52c3 8c3d 4460 623c
00000010: 76e9 84bd d530 09bd 21c2 943d 2e92 d7bb
00000020: 08bc b4bd d362 953c 16c9 953d c63a 4e3d
00000030: 4f32 b5bd ae4b 7e3d d30c 933d 5f0e 953d
00000040: be90 d03c 8052 7f3b 5d91 2e3d 8bc9 0b3d
00000050: 22f7 4ebd 7e88 dd3b ea2e b4bd 8a7c 1abd
00000060: 69ac 823b e0ce c0bb 81e8 efbd ec8a 7d3d
00000070: c1e6 ffbc 71da 4a3d 4a27 22bd 0010 a0bd
00000080: 0eac 843b 97e2 863d 53d8 1439 ea6b 223c
00000090: 4eee 70bd 1a64 86bd 2146 b7bb 199d 4fbd
000000a0: 06b6 45bd 0427 1cbd a88a 083d 6f77 03bc
000000b0: c84a 37bc b222 143d 4071 b73b 0063 713d
000000c0: d8f1 8c3d 83ee e0bc b641 8e3c cf82 e93d
000000d0: b04f 80bc 0bb3 5abc 56ed 4b3c a9c9 b9bb
000000e0: d871 03bc 8ab5 8b3d 4c51 9bbc 95a7 e2bc
000000f0: f959 edbc 18f8 183d 4f10 9bbc b452 9bbc
00000100: fe94 d53c 0810 b6bb 612e 193d 0275 be3d
00000110: 6375 c33d 8b97 7d3d 5537 223d 294e dabb
00000120: 7080 0c3b f646 39bd 76b3 fa3b d7ec 7cbd
00000130: 7e9f 82bc 9578 7cbd bd86 053c f842 9abc
00000140: 7f62 eb3b 5d21 19bc 00dd 053d 5ce3 7bbc
00000150: e7ad 8f3d f1e0 223c 3934 cebb d874 873d
00000160: f2f4 923d 05d9 79bd 7a1f 30bd 1e3e 54bd
00000170: 375c 28bd 7647 58bd a0e2 4cbc 8294 1f3d
00000180: 6b73 12bd e852 dcbc e305 863d 1c2b c13d
00000190: 4ae3 57bd e9aa 0dbd 10f8 3f3d 65d2 4c3c
000001a0: 789b aa3d 2c0d f6bc fb03 f03c 85ba 9bbb
000001b0: 0651 44bc 145d 4bbc e364 96bc 980a ed3c
000001c0: ba06 863d 78c3 d33c 822d b4bc 662b 0f3d
000001d0: f157 aa3d 1fe9 c4bc 9c09 2f3d 474d 9bbb
000001e0: 10e0 23bb e15b 2cbd 7bbe 96bd 182b 903c
000001f0: 267e 1e3c bd90 423c ddc7 283c ada5 a03c
00000200: 1c57 ef3c 5cdc adbd cfa1 b1bc a015 1c3d
00000210: 63ac 123c 4fa6 453d 6d1c 563d 8405 5d3b
00000220: 04d4 d93d f2bf be3d c5eb afbb 726a 79bd
00000230: 5288 9fbb 2352 c83c 68e6 faba 33d9 783d
00000240: c142 aa3b b911 abbc 9ca5 3abd 9c71 183d
00000250: 0896 7d3c 1034 bb3c 067d 553b b0d1 77bc
00000260: ab98 69bd 7e6c 27bd e104 483d c4d4 043d
00000270: aeab 9bbd 20f3 923c 435a c63b 7a4d 11bd
00000280: c42d 7a3b d202 8dbc 218f e3bb 6314 0c3d
00000290: 9b56 00bd f0d3 16bd 24ca 34bd 8858 973d
000002a0: fc28 033d 3215 83bd fc7b 373c 2054 05bc
000002b0: 35c0 d2bc 813b 04bd 352b 243d b57b 8c3d
000002c0: 498d 433c aeb0 65bd 10ca 2f3d 9ae7 a3bc
000002d0: cf24 c93b 6a06 53bd b6c1 06bd 7571 2abd
000002e0: e70f 4fbc 60fd b2bb 5659 0b3e a0cb 98bc
000002f0: efe9 293d 03aa 87bd 30c7 ea3b fe36 67bd
00000300: 3e48 333e 2254 3c3d d514 063d 999c 9fbb
00000310: 66df 923c ada4 2ebd a377 16bd 68ae 3d3c
00000320: a6e5 b93d 1b8a af3d e875 5f3c 414f 7cbd
00000330: a208 123d f00d 88bc a012 b83b 2804 a03c
00000340: 398f 2f3d 18c1 ecbc 1f9a b3bc 16ef b0bd
00000350: 29f9 733d 57f1 2dbd 149e 113d 350f 813d
00000360: cbba c93c f38b a0bc e4fe 82bd 205a 243c
00000370: 12f2 3c3d 8e8e 4a3d 450d 98bc ddea 95bc
00000380: 580a 5bbb c966 80bd 2f54 11bd bc76 82bc
00000390: 3e45 5b3d b73f cabd 6683 1ebd b086 303d
000003a0: 34c4 083d c0ce 4e3d 4cd6 d03a be4f 8fbc
000003b0: dd0b 953c 1526 d63c 9301 d13c 7a1f 1bbd
000003c0: f120 7c3c 7249 8fbd 0631 c03d 130d ad3c
000003d0: aca1 603d c3be 273d 16cb c3bc c119 8e3c
000003e0: d1e4 37bc 90c0 7ebd c75a 0f3d 847d d0bb
000003f0: b6bd 223c e608 203d 18eb 763c 6d40 393d

policy_network.6.bias f4 [128]
-0.04953189 -0.07583162 -0.012904349 -0.02089298 0.061862413 -0.07314981 -0.051066156 0.010182823
0.001595737 0.005447607 0.020486806 0.058134515 -0.05262969 -0.025087496 0.0043634116 -0.046831645
0.013090415 -0.061154075 -0.03529824 -0.06797746 -0.03902204 -0.04110591 -0.056889243 -0.02316432
0.02941929 0.019292876 -0.047374174 0.01394562 -0.03893242 0.0020622746 0.021805784 -0.06295697
-0.043878272 0.0417628 -0.062020805 0.012458079 -0.05453815 0.04894191 0.016393423 -0.054616686
-0.0019902515 -0.011696333 -0.08444668 -0.0066250274 -0.017836638 -0.039416898 -0.053051185 -0.0061513046
-0.043292575 -0.03329837 -0.06296258 -0.0032151511 -8.003168e-05 -0.058000837 -0.0029040114 0.07580576
0.006240024 0.009669069 -0.006358261 -0.0013952071 -0.02809169 0.023281494 -0.06767644 -0.066592924
-0.049834415 0.05923766 -0.04096486 -0.061175473 -0.04971278 -0.051323008 -0.03775979 -0.0060232943
0.01242163 0.07116306 -0.02035477 -0.06902098 -0.0036046694 -0.06216814 0.06353936 0.020152675
-0.025151387 -0.024976913 0.009033106 -0.059635416 -0.01764008 -0.046788026 -0.024050819 0.026120529
-0.02579537 -0.03255702 0.019559264 -0.011916754 0.0066305674 0.013906013 0.0076158056 -0.025352133
-0.04284675 -0.049732383 -0.026304219 -0.03978673 -0.0331234 -0.06332163 0.050906524 0.06949224
-0.07209923 0.021582255 0.05332301 0.017457196 0.00014922608 -0.018808343 -0.06267928 -0.073316865
-0.034091126 0.0021219533 0.0004119203 -0.04221469 -0.028233318 -0.017852359 0.027404018 -0.067112476
0.029860537 0.0019284813 -0.032548 0.033640284 -0.021637766 0.0012357939 0.018275294 0.021626757
00000000: f3e1 4abd 9c4d 9bbd c36c 53bc c127 abbc
00000010: 7163 7d3d 91cf 95bd bf2a 51bd dbd5 263c
00000020: 0c28 d13a d781 b23b f2d3 a73c 751e 6e3d
00000030: 3b92 57bd 4b84 cdbc f3fa 8e3b 8ad2 3fbd
00000040: 2e79 563c b27c 7abd e394 10bd c437 8bbd
00000050: 93d5 1fbd ac5e 28bd b204 69bd 1ac3 bdbc
00000060: b900 f13c 180c 9e3c 6c0b 42bd 2b7c 643c
00000070: 9a77 1fbd 3a27 073b 0ba2 b23c 95ef 80bd
00000080: b4b9 33bd 780f 2b3d 8709 7ebd f81c 4c3c
00000090: 6563 5fbd 5077 483d 804b 863c bfb5 5fbd
000000a0: e16e 02bb faa1 3fbc 62f2 acbd c216 d9bb
000000b0: 241e 92bc 9d73 21bd 334c 59bd e290 c9bb
000000c0: 8e53 31bd df63 08bd 86f2 80bd 49b5 52bb
000000d0: aed6 a7b8 4992 6dbd 3a51 3ebb 0d40 9b3d
000000e0: 1e79 cc3b 046b 1e3c f658 d0bb 62df b6ba
000000f0: 8b20 e6bc d5b8 be3c f299 8abd df61 88bd
00000100: 2c1f 4cbd 30a3 723d c5ca 27bd 2293 7abd
00000110: a19f 4bbd 1338 52bd 02aa 1abd 0e5f c5bb
00000120: 1884 4b3c f0bd 913d 0cbf a6bc df5a 8dbd
00000130: 513c 6cbb 05a4 7ebd ed20 823d 3917 a53c
00000140: 480a cebc 629c ccbc 98ff 133c 4444 74bd
00000150: ee81 90bc cda4 3fbd 3906 c5bc b8fa d53c
00000160: d050 d3bc 835a 05bd c03a a03c 7d3e 43bc
00000170: 3b45 d93b 0cd6 633c 028e f93b 47af cfbc
00000180: 1380 2fbd 2fb4 4bbd f27b d7bc 69f7 22bd
00000190: 67ac 07bd c5ae 81bd 5c83 503d f351 8e3d
000001a0: c3a8 93bd 45cd b03c 3b69 5a3d 6502 8f3c
000001b0: 9279 1c39 f413 9abc ff5d 80bd 2727 96bd
000001c0: 23a3 0bbd 7810 0b3b 02f7 d739 50e9 2cbd
000001d0: 8f49 e7bc 1c3f 92bc 647e e03c 4472 89bd
000001e0: 169e f43c 18c5 fc3a 0d51 05bd 65ca 093d
000001f0: af41 b1bc 5dfa a13a 12b6 953c 992a b13c

policy_network.9.weight f4 [7, 128]
0.03833613 -0.03207054 0.06784838 0.07563233 0.0059287143 -0.0734182 0.016466342 -0.07915093
-0.03854662 -0.045641642 -0.026022557 -0.03965932 0.0019701459 -0.074108206 -0.08562248 0.026495328
-0.010397205 0.016433835 -0.07933002 0.05549361 -0.030051302 0.026866004 -0.076628275 -0.07344238
0.022164764 0.025447544 -0.019462975 0.009812659 -0.0754943 -0.03237761 -0.02856068 0.08794645
-0.07678636 -0.04403593 -0.013752453 -0.0520613 0.06748983 -0.06922847 0.033433333 -0.079241976
0.013136138 -0.032838292 0.014496429 0.064932324 9.2653994e-05 -0.060425173 -0.051884595 -0.0077708852
-0.0030391694 -0.03557762 0.05346337 -0.051579162 0.07040207 -0.07308811 0.008017755 0.04394392
0.05457217 0.021698799 0.0106457565 0.07067639 -0.04300088 0.06191548 -0.06698641 0.055696186
0.024289807 -0.005774253 0.008114924 0.01097571 0.047077507 0.03469552 0.026415665 -0.04652566
0.07910748 -0.016459469 0.01319167 0.04924106 -0.026708415 0.059379376 -0.019241082 -0.0038055799
-0.011412088 0.00021514075 -0.010555432 0.010258795 0.020293867 0.021556797 -0.060128175 0.002203686
-0.025647273 0.031533226 -0.061314393 -0.011389515 0.08069541 -0.021088505 -0.041708227 -0.06347385
-0.038299423 0.04284518 0.04995172 -0.024585634 -0.012256713 0.066781126 -0.016400505 0.003918197
0.005270126 -0.0880185 0.074555114 0.06450544 -0.049981225 -0.0640702 -0.052791193 -0.047551394
0.006998509 -0.06493142 0.0030946503 -0.06092603 -0.07064529 -0.07226743 0.063411556 0.0484551
0.03296117 -0.05304987 0.04248659 -0.0145059675 -0.0045789583 -0.07112089 0.006286052 -0.024897074
-0.012055208 0.00043388558 0.04908183 0.02063916 0.033656903 -0.040917955 0.07849514 -0.026449509
0.076868296 0.03196696 -0.05175348 0.02776395 -0.0024137872 -0.066765025 0.016239408 -0.00048645068
-0.024245175 -0.006413279 -0.049799003 -0.032263048 -0.013811213 0.0105775045 0.0007936867 0.052071597
-0.012592097 -0.029035885 -0.030831426 -0.04015859 -0.07554868 0.014294159 -0.02716258 0.04010919
-0.013225189 0.039750967 -0.064289704 -0.012282667 -0.049043056 -0.0423628 -0.013822404 0.032229397
0.008731281 0.07168867 0.02023558 0.08350823 0.019776674 -0.056142192 0.087325655 0.011869136
-0.0035892609 0.027596526 0.02536038 -0.06783282 0.01253794 0.07024343 0.025559518 -0.015264403
0.057643674 0.026831038 -0.0012547087 -0.05467153 0.016598498 0.044607695 0.0553741 -0.018386463
-0.0663747 -0.003372912 -0.0037643053 0.046440177 -0.030979116 0.056802116 -0.00081618456 -0.047659818
-0.002704051 -0.0051040472 -0.0564009 -0.00031139693 -0.0062723565 0.062946826 -0.03140854 -0.0137510095
-0.0026881224 -0.013728536 -0.00082059 -0.065329835 0.03431611 -0.07649931 -0.045771997 -0.016895887
0.02066213 0.027752131 0.04091053 -0.0025587592 0.025907775 0.031520918 -0.005615719 -0.015044647
0.049151532 -0.05785869 -0.0083662 -0.08007116 -0.007628929 0.075098716 0.0014701261 0.010745085
-0.0035361 -0.014669429 -0.03494324 0.04879556 -0.05840204 -0.0154474005 0.00049577776 -0.009475962
-0.034647837 -0.04579362 -0.077791765 0.017964538 -0.089553565 0.0042672297 -0.043562144 0.04165271
-0.00059884 0.0014792616 0.0033460145 0.00031085807 -0.021806357 0.014729368 0.014747062 0.055443656
00000000: 5906 1d3d 665c 03bd 17f4 8a3d 1fe5 9a3d
00000010: a945 c23b 485c 96bd 6ce4 863c e219 a2bd
00000020: 10e3 1dbd bbf2 3abd 422d d5bc d071 22bd
00000030: 901d 013b 0bc6 97bd d75a afbd bb0c d93c
00000040: 0a59 2abc 40a0 863c c777 a2bd 454d 633d
00000050: 262e f6bc 1816 dc3c 49ef 9cbd f568 96bd
00000060: e192 b53c 5e77 d03c d170 9fbc 46c5 203c
00000070: c19c 9abd 639e 04bd 16f8 e9bc 451d b43d
00000080: 2b42 9dbd 055f 34bd f851 61bc 3b3e 55bd
00000090: 1c38 8a3d a8c7 8dbd 64f1 083d 9e49 a2bd
000000a0: f538 573c 7281 06bd 6e82 6d3c 3dfb 843d
000000b0: 3c4f c238 6380 77bd f184 54bd e9a2 febb
000000c0: cd2c 47bb d7b9 11bd 68fc 5a3d ac44 53bd
000000d0: f62e 903d 38af 95bd e75c 033c 8afe 333d
000000e0: 1187 5f3d aec1 b13c 8a6b 2e3c c8be 903d
000000f0: b121 30bd 169b 7d3d 2c30 89bd af21 643d
00000100: 6bfb c63c f235 bdbb 75f4 043c 77d3 333c
00000110: 58d4 403d e41c 0e3d aa65 d83c b191 3ebd
00000120: 1a03 a23d 02d6 86bc e021 583c feb0 493d
00000130: 9bcb dabc ca37 733d 799f 9dbc 0967 79bb
00000140: c4f9 3abc 6897 6139 b1f0 2cbc 8114 283c
00000150: 533f a63c e197 b03c f648 76bd b76b 103b
00000160: 3b1a d2bc fc28 013d cd24 7bbd 179b 3abc
00000170: a343 a53d cdc1 acbc 3fd6 2abd 94fe 81bd
00000180: dbdf 1cbd 6d7e 2f3d 2d9a 4c3d d067 c9bc
00000190: 61d0 48bc 8bc4 883d 5a5a 86bc 3864 803b
000001a0: 05b1 ac3b 0b43 b4bd 5ab0 983d 6e1b 843d
000001b0: 1db9 4cbd 3d37 83bd 943b 58bd 40c5 42bd
000001c0: c053 e53b c4fa 84bd 9ecf 4a3b 938d 79bd
000001d0: 7aae 90bd f200 94bd ebdd 813d db78 463d
000001e0: 4b02 073d d24a 59bd 6b06 2e3d 70aa 6dbc
000001f0: 160b 96bb d4a7 91bd 3afb cd3b f3f4 cbbc
00000200: 3583 45bc 237b e339 070a 493d 7513 a93c
00000210: d2db 093d 9699 27bd 0fc2 a03d a4ac d8bc
00000220: 206d 9d3d c9ef 023d 75fb 53bd 3971 e33c
00000230: a130 1ebb 1abc 88bd 8208 853c 4e0a ffb9
00000240: d19d c6bc 7c26 d2bb 0afa 4bbd 4226 04bd
00000250: 6d48 62bc 454d 2d3c 6a0f 503a 0749 553d
00000260: 154f 4ebc aadc edbc 3092 fcbc 557d 24bd
00000270: 44b9 9abd 0c32 6a3c 0f84 debc 8949 243d
00000280: 77ae 58bc e9d1 223d 52aa 83bd 3d3d 49bc
00000290: 5fe1 48bd 9e84 2dbd 5d77 62bc f902 043d
000002a0: a60d 0f3c 82d1 923d 16c5 a53c 5d06 ab3d
000002b0: b102 a23c 5bf5 65bd cbd7 b23d c476 423c
000002c0: ce39 6bbb 1c12 e23c 92c0 cf3c efeb 8abd
000002d0: ef6b 4d3c cadb 8f3d 3262 d13c 8c17 7abc
000002e0: c61b 6c3d c4cc db3c 0a75 a4ba 41ef 5fbd
000002f0: 93f9 873c 8fb6 363d f4cf 623d 359f 96bc
00000300: 75ef 87bd 130c 5dbb 90b2 76bb 0e38 3e3d
00000310: eac7 fdbc 56a9 683d 38f5 55ba f136 43bd
00000320: 7336 31bb da3f a7bb a104 67bd fd42 a3b9
00000330: 5788 cdbb 44ea 803d 3ea6 00bd ea4b 61bc
00000340: 362b 30bb a7ed 60bc dd1c 57ba a6cb 85bd
00000350: 0d8f 0c3d acab 9cbd 6b7b 3bbd 3e69 8abc
00000360: a143 a93c 7058 e33c cd91 273d dbb0 27bb
00000370: 8b3c d43c 141c 013d 1104 b8bb d37d 76bc
00000380: 1e53 493d 3cfd 6cbd 6312 09bc 59fc a3bd
00000390: 18fc f9bb 5bcd 993d 3fb1 c03a 270c 303c
000003a0: eabd 67bb 0b58 70bc a520 0fbd dadd 473d
000003b0: fa36 6fbd 1817 7dbc 15f7 013a 1141 1bbc
000003c0: e4ea 0dbd 1792 3bbd 4a51 9fbd 5e2a 933c
000003d0: dc67 b7bd 1ed4 8b3b 386e 32bd 089c 2a3d
000003e0: 79fb 1cba c8e3 c13a cf48 5b3b aafa a239
000003f0: 3fa3 b2bc 7253 713c a99d 713c e318 633d

policy_network.9.bias f4 [7]
0.008971098 0.0057298257 0.0008980175 -0.0018692818 -0.0024324288 0.0019008915 0.02386571
00000000: 83fb 123c 43c1 bb3b ef68 6b3a b002 f5ba
00000010: 6269 1fbb 5627 f93a 0582 c33c

exp_avg f4 [128, 15]
-6.258345e-05 -9.444759e-06 2.7605995e-05 -4.205453e-05 -1.9106099e-05 2.8105303e-05 8.130023e-06 -6.465482e-06
-3.605498e-06 9.8822175e-06 1.1042557e-05 9.532467e-07 -1.1221317e-06 4.4576402e-07 6.1973644e-08 7.0310925e-06
-2.9007442e-06 -3.1438692e-06 6.0221337e-06 -1.4883292e-06 1.2133499e-05 5.3377204e-07 3.763175e-06 1.548848e-06
8.8449667e-07 -1.2754113e-07 -4.9966206e-07 -1.1282194e-07 -2.6597354e-07 6.914538e-08 7.388593e-06 2.6342634e-06
-4.290355e-06 5.2969535e-06 3.9988277e-06 -8.15904e-06 -1.4094654e-06 -3.996144e-07 8.486731e-08 -1.7728847e-06
-1.6739381e-06 1.3164349e-07 -2.5029854e-09 -1.360729e-07 1.4378135e-08 0.0 0.0 0.0
0.0 0.0 0.0 0.0 0.0 0.0 0.0 0.0
0.0 0.0 0.0 0.0 -4.359534e-05 -1.0654609e-05 1.6708202e-05 -2.3636736e-05
-1.7609898e-05 2.3996245e-05 6.167696e-06 -5.9168597e-06 -4.4689511e-07 8.190352e-06 6.4745996e-06 -3.3805205e-07
1.053055e-06 3.1284827e-07 9.3515155e-08 0.0 0.0 0.0 0.0 0.0
0.0 0.0 0.0 0.0 0.0 0.0 0.0 0.0
0.0 0.0 7.769843e-08 2.083553e-08 -4.1739693e-08 5.7269688e-08 3.8577102e-08 -7.5295965e-08
-1.3138472e-08 -1.3567448e-09 3.3447027e-09 -1.7691164e-08 -1.6112608e-08 1.0997211e-09 -3.6243758e-10 -1.10034035e-08
-2.399628e-08 0.0 0.0 0.0 0.0 0.0 0.0 0.0
0.0 0.0 0.0 0.0 0.0 0.0 0.0 0.0
0.0 0.0 0.0 0.0 0.0 0.0 0.0 0.0
0.0 0.0 0.0 0.0 0.0 0.0 0.0 0.0
0.0 0.0 0.0 0.0 0.0 0.0 0.0 0.0
0.0 0.0 0.0 0.0 0.0 0.0 1.1204928e-05 2.8322486e-06
-5.6751646e-06 7.718223e-06 4.6323626e-06 -8.136824e-06 -1.6670458e-06 6.85378e-07 3.9791092e-07 -2.2788138e-06
-1.9662755e-06 -5.9527334e-08 -6.541361e-08 -9.890541e-08 -5.673e-08 0.0 0.0 0.0
0.0 0.0 0.0 0.0 0.0 0.0 0.0 0.0
0.0 0.0 0.0 0.0 0.0 0.0 0.0 0.0
0.0 0.0 0.0 0.0 0.0 0.0 0.0 0.0
0.0 0.0 0.0 0.0 0.0 0.0 0.0 0.0
0.0 0.0 0.0 0.0 0.0 0.0 0.0 0.0
0.0 0.0 2.9658751e-05 1.1518229e-05 -2.0261223e-05 2.421323e-05 1.5717078e-05 -3.4891225e-05
-4.6733226e-06 -2.3943726e-06 7.996793e-07 -7.239578e-06 -7.2621483e-06 2.0266032e-07 3.7550305e-07 3.3518677e-07
8.119634e-09 0.0 0.0 0.0 0.0 0.0 0.0 0.0
0.0 0.0 0.0 0.0 0.0 0.0 0.0 0.0
-4.3963562e-05 -1.6040909e-05 3.0419427e-05 -3.7804115e-05 -2.3807746e-05 5.051625e-05 6.959671e-06 2.8022866e-06
-1.5784385e-06 1.0896122e-05 1.00274665e-05 -4.4288257e-08 3.2388908e-07 5.6839493e-19 3.7415652e-17 -5.1463656e-05
00000000: 3c3f 83b8 ee74 1eb7 6c93 e737 b563 30b8
00000010: 0946 a0b7 aec3 eb37 2f66 0837 11f2 d8b6
00000020: fcf5 71b6 cdcb 2537 6c43 3937 9de2 7f35
00000030: 279c 96b5 5751 ef34 5f16 8533 a0ec eb36
00000040: 68aa 42b6 43fb 52b6 bc11 ca36 9ac2 c7b5
00000050: fb90 4b37 8948 0f35 db8a 7c36 03e2 cf35
00000060: 266e 6d35 3df2 08b4 8420 06b5 8448 f2b3
00000070: 20cb 8eb4 137d 9433 88eb f736 4dc8 3036
00000080: def5 8fb6 7cbc b136 ab2d 8636 cfe2 08b7
00000090: dd2c bdb5 968a d6b4 4c40 b633 dbf3 edb5
000000a0: 13ac e0b5 e359 0d34 fc00 2cb1 6f1b 12b4
000000b0: b503 7732 0000 0000 0000 0000 0000 0000
000000c0: 0000 0000 0000 0000 0000 0000 0000 0000
000000d0: 0000 0000 0000 0000 0000 0000 0000 0000
000000e0: 0000 0000 0000 0000 0000 0000 0000 0000
000000f0: 24da 36b8 32c1 32b7 9728 8c37 8147 c6b7
00000100: f8b8 93b7 8b4b c937 1bf4 ce36 7089 c6b6
00000110: ccec efb4 4b69 0937 6340 d936 857d b5b4
00000120: b256 8d35 8af5 a734 80d2 c833 0000 0000
00000130: 0000 0000 0000 0000 0000 0000 0000 0000
00000140: 0000 0000 0000 0000 0000 0000 0000 0000
00000150: 0000 0000 0000 0000 0000 0000 0000 0000
00000160: 0000 0000 0000 0000 2adb a633 d1f9 b232
00000170: 4745 33b3 b0f8 7533 f9af 2533 65b2 a1b3
00000180: 9cb7 61b2 3778 bab0 a2d8 6531 48f7 97b2
00000190: 0068 8ab2 ff24 9730 8e40 c7af 7b09 3db2
000001a0: 6120 ceb2 0000 0000 0000 0000 0000 0000
000001b0: 0000 0000 0000 0000 0000 0000 0000 0000
000001c0: 0000 0000 0000 0000 0000 0000 0000 0000
000001d0: 0000 0000 0000 0000 0000 0000 0000 0000
000001e0: 0000 0000 0000 0000 0000 0000 0000 0000
000001f0: 0000 0000 0000 0000 0000 0000 0000 0000
00000200: 0000 0000 0000 0000 0000 0000 0000 0000
00000210: 0000 0000 0000 0000 0000 0000 0000 0000
00000220: 0000 0000 0000 0000 0000 0000 0000 0000
00000230: 0000 0000 0000 0000 0000 0000 0000 0000
00000240: 0000 0000 0000 0000 0000 0000 0000 0000
00000250: 0000 0000 0000 0000 cdfc 3b37 a911 3e36
00000260: 4b6d beb6 847d 0137 b16f 9b36 6583 08b7
00000270: 42bf dfb5 d1fa 3735 76a0 d534 b9ed 18b6
00000280: 5bf4 03b6 ffaa 7fb3 8379 8cb3 d365 d4b3
00000290: 4ba7 73b3 0000 0000 0000 0000 0000 0000
000002a0: 0000 0000 0000 0000 0000 0000 0000 0000
000002b0: 0000 0000 0000 0000 0000 0000 0000 0000
000002c0: 0000 0000 0000 0000 0000 0000 0000 0000
000002d0: 0000 0000 0000 0000 0000 0000 0000 0000
000002e0: 0000 0000 0000 0000 0000 0000 0000 0000
000002f0: 0000 0000 0000 0000 0000 0000 0000 0000
00000300: 0000 0000 0000 0000 0000 0000 0000 0000
00000310: 0000 0000 0000 0000 0000 0000 0000 0000
00000320: 0000 0000 0000 0000 0000 0000 0000 0000
00000330: 0000 0000 0000 0000 0000 0000 0000 0000
00000340: 0000 0000 0000 0000 afcb f837 6b3e 4137
00000350: a5f6 a9b7 841d cb37 2bd8 8337 2b58 12b8
00000360: 89cf 9cb6 02af 20b6 8ba9 5635 80eb f2b6
00000370: 61ad f3b6 d89a 5934 bf98 c934 b8f3 b334
00000380: 877e 0b32 0000 0000 0000 0000 0000 0000
00000390: 0000 0000 0000 0000 0000 0000 0000 0000
000003a0: 0000 0000 0000 0000 0000 0000 0000 0000
000003b0: 0000 0000 0000 0000 0000 0000 0000 0000
000003c0: 8465 38b8 978f 86b7 392d ff37 dc8f 1eb8
000003d0: bfb6 c7b7 69e1 5338 1e87 e936 eb0e 3c36
000003e0: bcda d3b5 7dce 3637 a43b 2837 7437 3eb3
000003f0: fae2 ad34 b5c2 2721 9b8c 2c24 aeda 57b8

exp_avg_sq f4 [128, 15]
1.8004962e-07 2.378102e-08 7.72238e-08 1.12344935e-07 4.6190205e-08 1.8657124e-07 4.4866844e-09 5.3895133e-10
1.7860499e-10 9.247119e-09 9.054157e-09 1.8795665e-11 1.4498754e-11 5.6057315e-11 5.1270316e-12 3.8668713e-08
4.8810094e-09 1.5867606e-08 2.3091538e-08 9.491618e-09 3.6330793e-08 9.423363e-10 8.951306e-11 3.846779e-11
1.8540741e-09 1.91723e-09 4.0177566e-12 2.6399024e-12 9.165023e-12 1.691269e-12 2.0532266e-08 2.4713422e-09
8.34183e-09 1.2655159e-08 5.1428035e-09 2.038255e-08 5.333707e-10 6.0309084e-11 2.5234965e-11 1.0203922e-09
1.0320301e-09 1.991815e-12 1.5032194e-12 1.7320319e-11 1.1288561e-12 0.0 0.0 0.0
0.0 0.0 0.0 0.0 0.0 0.0 0.0 0.0
0.0 0.0 0.0 0.0 1.2848494e-07 1.4390251e-08 5.2501598e-08 8.056763e-08
3.0277103e-08 1.14736515e-07 3.0334528e-09 3.5223557e-10 1.8072947e-10 5.9635e-09 6.299149e-09 8.110986e-12
7.397805e-12 2.345925e-11 6.5300916e-12 0.0 0.0 0.0 0.0 0.0
0.0 0.0 0.0 0.0 0.0 0.0 0.0 0.0
0.0 0.0 2.396982e-09 3.0930522e-10 9.877676e-10 1.4348286e-09 6.1245525e-10 2.4512263e-09
6.034752e-11 6.62714e-12 2.3370013e-12 1.2270031e-10 1.1869179e-10 2.9295693e-13 1.6821883e-13 3.6879783e-12
1.3087865e-12 0.0 0.0 0.0 0.0 0.0 0.0 0.0
0.0 0.0 0.0 0.0 0.0 0.0 0.0 0.0
0.0 0.0 0.0 0.0 0.0 0.0 0.0 0.0
0.0 0.0 0.0 0.0 0.0 0.0 0.0 0.0
0.0 0.0 0.0 0.0 0.0 0.0 0.0 0.0
0.0 0.0 0.0 0.0 0.0 0.0 4.4845105e-09 5.814897e-10
1.7897281e-09 2.5039815e-09 1.0424566e-09 3.732045e-09 1.0107493e-10 6.1501156e-12 3.4978125e-12 2.0233773e-10
2.1126684e-10 3.5821823e-13 2.5487717e-13 2.8395595e-12 1.3066772e-12 0.0 0.0 0.0
0.0 0.0 0.0 0.0 0.0 0.0 0.0 0.0
0.0 0.0 0.0 0.0 0.0 0.0 0.0 0.0
0.0 0.0 0.0 0.0 0.0 0.0 0.0 0.0
0.0 0.0 0.0 0.0 0.0 0.0 0.0 0.0
0.0 0.0 0.0 0.0 0.0 0.0 0.0 0.0
0.0 0.0 6.0914687e-09 7.322883e-10 2.478832e-09 3.675912e-09 1.4643671e-09 5.5448153e-09
1.4551677e-10 1.5249664e-11 7.705318e-12 2.851006e-10 3.0147082e-10 6.296428e-13 4.7981535e-13 6.281273e-12
1.9670138e-12 0.0 0.0 0.0 0.0 0.0 0.0 0.0
0.0 0.0 0.0 0.0 0.0 0.0 0.0 0.0
6.803778e-09 9.420166e-10 3.020435e-09 4.3633057e-09 1.8492192e-09 7.823788e-09 1.739573e-10 2.705676e-11
7.449652e-12 3.703805e-10 3.574192e-10 1.1917711e-12 6.048081e-13 2.9532208e-12 1.5255815e-12 1.1872089e-08
00000000: aa53 4134 0447 cc32 3cd6 a533 4842 f133
00000010: ab62 4633 5054 4834 4b29 9a31 5425 1430
00000020: d660 442f 42dd 1e32 9b8c 1b32 1354 a52d
00000030: 9510 7f2d ed8a 762e 3264 b42c b314 2633
00000040: d0b5 a731 3c4d 8832 d45a c632 9410 2332
00000050: 210a 1c33 8383 8130 5fd7 c42e e22e 292e
00000060: 6fd2 fe30 44c0 0331 bc5c 8d2c 41c4 392c
00000070: 983b 212d 6306 ee2b ee5e b032 50d4 2931
00000080: c24f 0f32 fa69 5932 94b4 b031 b415 af32
00000090: a09c 1230 ff9e 842e 17f8 dd2d dc3d 8c30
000000a0: 55d7 8d30 5929 0c2c 308f d32b e459 982d
000000b0: 54df 9e2b 0000 0000 0000 0000 0000 0000
000000c0: 0000 0000 0000 0000 0000 0000 0000 0000
000000d0: 0000 0000 0000 0000 0000 0000 0000 0000
000000e0: 0000 0000 0000 0000 0000 0000 0000 0000
000000f0: acf5 0934 fe38 7732 1e7e 6133 8604 ad33
00000100: 070a 0233 1165 f633 1175 5031 c0a4 c12f
00000110: d3b6 462f 80e7 cc31 e76f d831 a2b0 0e2d
00000120: c024 022d 8959 ce2d d6c1 e52c 0000 0000
00000130: 0000 0000 0000 0000 0000 0000 0000 0000
00000140: 0000 0000 0000 0000 0000 0000 0000 0000
00000150: 0000 0000 0000 0000 0000 0000 0000 0000
00000160: 0000 0000 0000 0000 27b8 2431 d70a aa2f
00000170: fcc1 8730 8b33 c530 b559 2830 6e72 2831
00000180: a2b4 842e f82b e92c ac73 242c 11e9 062f
00000190: c580 022f 8beb a42a c765 3d2a 5bc2 812c
000001a0: 0132 b82b 0000 0000 0000 0000 0000 0000
000001b0: 0000 0000 0000 0000 0000 0000 0000 0000
000001c0: 0000 0000 0000 0000 0000 0000 0000 0000
000001d0: 0000 0000 0000 0000 0000 0000 0000 0000
000001e0: 0000 0000 0000 0000 0000 0000 0000 0000
000001f0: 0000 0000 0000 0000 0000 0000 0000 0000
00000200: 0000 0000 0000 0000 0000 0000 0000 0000
00000210: 0000 0000 0000 0000 0000 0000 0000 0000
00000220: 0000 0000 0000 0000 0000 0000 0000 0000
00000230: 0000 0000 0000 0000 0000 0000 0000 0000
00000240: 0000 0000 0000 0000 0000 0000 0000 0000
00000250: 0000 0000 0000 0000 2c16 9a31 b3d6 1f30
00000260: 76fa f530 8212 2c31 2e46 8f30 6a3b 8031
00000270: 2144 de2e 5163 d82c fd22 762c 0279 5e2f
00000280: 544a 682f b0a8 c92a ac7b 8f2a f5d0 472c
00000290: 02e6 b72b 0000 0000 0000 0000 0000 0000
000002a0: 0000 0000 0000 0000 0000 0000 0000 0000
000002b0: 0000 0000 0000 0000 0000 0000 0000 0000
000002c0: 0000 0000 0000 0000 0000 0000 0000 0000
000002d0: 0000 0000 0000 0000 0000 0000 0000 0000
000002e0: 0000 0000 0000 0000 0000 0000 0000 0000
000002f0: 0000 0000 0000 0000 0000 0000 0000 0000
00000300: 0000 0000 0000 0000 0000 0000 0000 0000
00000310: 0000 0000 0000 0000 0000 0000 0000 0000
00000320: 0000 0000 0000 0000 0000 0000 0000 0000
00000330: 0000 0000 0000 0000 0000 0000 0000 0000
00000340: 0000 0000 0000 0000 204d d131 354a 4930
00000350: 1358 2a31 549b 7c31 d642 c930 b684 be31
00000360: 54ff 1f2f 3123 862d ab8d 072d 58bc 9c2f
00000370: 3fbc a52f 8c3a 312b 570e 072b ad00 dd2c
00000380: 926a 0a2c 0000 0000 0000 0000 0000 0000
00000390: 0000 0000 0000 0000 0000 0000 0000 0000
000003a0: 0000 0000 0000 0000 0000 0000 0000 0000
000003b0: 0000 0000 0000 0000 0000 0000 0000 0000
000003c0: aac6 e931 4378 8130 0e90 4f31 0bec 9531
000003d0: 9e27 fe30 6269 0632 a144 3f2f 68fe ed2d
000003e0: 400e 032d 6c9e cb2f 487e c42f 14ba a72b
000003f0: 043d 2a2b 7fd0 4f2c deb4 d62b 00f6 4b32
