robot_state_berkeley_training/robot_state_epoch_3.pth (torch, 838027 bytes, 24 tensors)

policy_network.0.weight f4 [128, 15]
000000 b6 ee 84 bd 5c 31 4e ba 31 f2 5c 3e 4b 5c f8 3d
       -0.06490843 -0.00078656315 0.21576764 0.121269785
000010 15 c5 ba 3d 1b c9 46 3c 79 5b 18 3e 8c 0d d2 bd
       0.09119622 0.012132908 0.14878644 -0.1025649
000020 62 46 e5 3d 2b 29 54 3e b9 7a e3 bd 70 61 4f 3e
       0.11195065 0.2071883 -0.11107392 0.20252013
000030 24 cc 45 3e 24 b9 4e 3e 2d 3f 73 3e 4e 84 cc 3d
       0.19316155 0.20187813 0.23754568 0.099861726
000040 b8 93 b6 3d 0e 93 c7 bd 4d 11 2e be 72 be 92 bd
       0.08914894 -0.09744845 -0.16998787 -0.07165231
000050 db 3a 0d 3e 8c fc c3 3d 15 a9 0d bd 9c af 62 be
       0.13791983 0.09569654 -0.034585077 -0.22137302
000060 71 e4 e4 bc 42 6c f3 bd 96 b4 c0 3d ba 45 3d be
       -0.02794096 -0.11885883 0.09409444 -0.1848363
000070 4f 66 68 3e 4b 8b a2 3d 95 78 98 bb ae d9 ab bd
       0.22695278 0.07936724 -0.0046530464 -0.083911285
000080 b5 d3 58 be c6 e6 2d 3d 88 e8 0c bd 7d a7 10 3e
       -0.2117451 0.04245641 -0.034401447 0.14126392
000090 a6 00 37 3e 91 8e 46 3e db 5c 67 3e ac 0b 06 be
       0.17871341 0.19390322 0.22594015 -0.1309039
0000a0 42 bc 7d 3e 37 f2 88 3d d0 c6 e4 bd 76 52 01 3e
       0.24778846 0.06686824 -0.11170733 0.12629113
0000b0 75 08 db bd 7d ca 45 3e cc 0a 05 be 5d 2d 54 bd
       -0.106949724 0.19315524 -0.129924 -0.051801074
0000c0 5a a1 c3 bd c9 78 04 be 00 89 41 be c9 32 07 3c
       -0.0955226 -0.12936701 -0.18899918 0.008251854
0000d0 b0 85 38 3e eb c2 6f 3e 31 cb 73 bd fa 5c 7c bd
       0.18019748 0.23414199 -0.05951995 -0.061612107
0000e0 ee 07 12 3e 91 8d 85 bd 91 ce 90 3d 18 6a d1 bb
       0.14260837 -0.06521142 0.070706494 -0.006390821
0000f0 8e 6c 89 3d 26 dd b5 bc 6d 90 3f 3e 8b 09 67 be
       0.06710158 -0.022200178 0.18707438 -0.22562234
000100 a0 6a 00 bd 21 47 82 be 0f 32 b8 3d a2 19 18 bd
       -0.031351686 -0.25444892 0.08993923 -0.03713382
000110 6f b0 25 be 2c 04 b7 3d 8a e5 a8 bd 2c 80 33 3e
       -0.16180585 0.089363426 -0.08246906 0.17529362
000120 98 3a 41 be d8 17 86 3e a8 27 75 3e d1 a6 80 3c
       -0.18870008 0.26190066 0.23940909 0.015704544
000130 92 f1 98 3d 39 bf 5e 3c ef 91 e7 bd e7 6c 51 3d
       0.07467951 0.013595396 -0.113071315 0.051129248
000140 62 73 a9 bd ae a0 44 be 9f 65 43 be 3b b2 74 3e
       -0.08273961 -0.1920192 -0.19081734 0.23896115
000150 c0 4a 58 bc 76 a9 16 be ea b8 de 3d 64 b4 6a be
       -0.013201416 -0.14713082 0.10875113 -0.22920376
000160 35 92 80 be bc 4d 50 be 2e b4 cd bd ba 58 72 3e
       -0.25111547 -0.20342153 -0.10044132 0.23666659
000170 52 35 0b 3e 8f 83 25 3e 41 d7 30 be 1e 19 19 3e
       0.13594559 0.16163467 -0.17269613 0.14950988
000180 5d f3 18 be 6b 69 89 be 8f 27 f2 3d 7d 72 00 3d
       -0.14936586 -0.2683824 0.118239515 0.031359185
000190 95 dd c9 bd d1 08 c8 3d 65 8d 4f be 9b b1 7f 3c
       -0.098567165 0.097673066 -0.20268781 0.015606309
0001a0 fa 33 e3 3d c5 38 38 3d d0 e5 bc bb d4 7f 58 be
       0.11093898 0.044976015 -0.0057647005 -0.21142513
0001b0 a3 d0 26 3e 4e 20 49 3e ee 7c 22 3e 72 19 d3 3d
       0.16290526 0.1964123 0.1586797 0.10307588
0001c0 60 91 61 3d 1b c9 c8 bd 02 4e ee 3d 05 0c b0 bd
       0.05507028 -0.09803983 0.116359726 -0.085960425
0001d0 8f 97 02 3d 77 08 1e be 5a 29 1a be da 2d 34 be
       0.03188282 -0.15432917 -0.15054837 -0.17595616
0001e0 a6 27 2d bd 04 c5 1c 3e 19 91 51 be b9 83 ed 3d
       -0.04227414 0.1530953 -0.20465507 0.1159739
0001f0 df c8 65 3e c1 79 64 be 5f c3 28 3e 12 a7 42 be
       0.22439907 -0.2231207 0.16480778 -0.19009045
000200 78 ff 40 3e 56 9b 30 be 21 d9 bc 3d c2 18 80 3e
       0.18847454 -0.17246756 0.092211016 0.2501889
000210 ca 1b 50 3d fc 4d 14 be b7 da ae bd 96 9f dc bd
       0.05080775 -0.14482874 -0.0853781 -0.10772626
000220 f1 18 3b be 73 a1 5e be 43 00 82 3e e3 1a dc bd
       -0.18271233 -0.21741275 0.25390825 -0.10747316
000230 c3 ef e9 bd d2 40 82 3e 89 f1 27 3e 13 44 78 3e
       -0.11422684 0.2544008 0.16400732 0.24244718
000240 29 3f 21 3e 6b 25 cb bd 63 e1 bb 3d a0 6c 4d 3e
       0.1574675 -0.09919246 0.091738485 0.20060968
000250 84 65 24 3e e0 c8 53 be fe f2 60 be 15 bd 42 3c
       0.1605435 -0.20682096 -0.21967694 0.011885901
000260 9b c3 12 be 31 2f bd bd a6 1c 3e be a6 02 fd bd
       -0.1433243 -0.09237517 -0.18565616 -0.12354021
000270 9b fa 36 be c9 3f d1 bd db 97 16 be b5 14 d9 3c
       -0.17869036 -0.10217244 -0.14706366 0.026499132
000280 84 6e 62 be 9b 32 f5 bd 14 5c 1c 3e 35 b8 3a 3e
       -0.22112471 -0.11972543 0.152695 0.18234332
000290 99 ca d2 bb 32 c9 6b 3e 81 45 5b 3d f0 a8 0d 3e
       -0.006432843 0.23025969 0.05353308 0.13833976
0002a0 24 0b 23 3d ac 02 c2 bd b4 81 4f be 9c ba 66 bb
       0.039805546 -0.09473166 -0.20264322 -0.0035206443
0002b0 14 21 1d be 43 f4 72 be 84 3a eb 3d ab 71 66 3c
       -0.1534465 -0.23725991 0.1148577 0.0140651865
0002c0 6b 03 80 3e 43 99 36 3e 74 97 04 be c0 ec 15 3e
       0.25002608 0.17831902 -0.129484 0.14641094
0002d0 fc 25 51 3e 39 39 2b be d9 05 6c be d4 2a 4a 3e
       0.20424646 -0.16721047 -0.23049106 0.197429
0002e0 70 fb 20 be 46 08 da 3d 50 ce 6f be 5b ed 78 bd
       -0.15720916 0.10646109 -0.23418546 -0.060773235
0002f0 a6 2a 06 b9 f8 2a 43 be 43 e2 2f 3e b7 d5 27 bc
       -0.00012795124 -0.1905936 0.17176156 -0.010243825
000300 06 23 62 3e 2d 9f 3d 3e 2f cd 4b bd 6d 4c 7f 3e
       0.22083673 0.18517752 -0.049756225 0.24931498
000310 2e 18 84 3d c1 79 4f 3e e5 49 46 3e 08 ac 08 3e
       0.064499244 0.20261289 0.19364126 0.13346875
000320 50 ad 2e be e8 1d 2e 3e 2c dd 81 be 13 c1 0e be
       -0.17058301 0.17003596 -0.25364053 -0.1394084
000330 5b 79 37 be f8 f2 07 be ab 27 6f 3e 31 cb 97 3b
       -0.17917387 -0.13276279 0.23354976 0.0046323766
000340 94 3a 67 bd 3e 2e 81 3e 93 50 73 be f7 f8 73 be
       -0.05645235 0.25230592 -0.23761205 -0.23825441
000350 6e 1c 71 be c0 10 26 be 63 1f 1a be e0 75 c3 3d
       -0.23546001 -0.16217327 -0.15051036 0.09543967
000360 73 2d 9c 3d 81 b6 4c 3e 3d 67 90 3e a4 03 83 be
       0.07625856 0.19991495 0.28203765 -0.25588715
000370 ae e9 89 be 8f f6 4b be 50 8a 65 3e a5 d7 f4 bc
       -0.26936096 -0.19918273 0.22416043 -0.029887984
000380 d9 75 8d 3d 0c 31 7b bd ec b4 34 3e 44 3a 76 be
       0.06907243 -0.06132607 0.17647141 -0.24045664
000390 fd 6b 28 3e 2d 14 51 3e 1a be 67 bc 61 e4 13 be
       0.16447444 0.20417853 -0.014144445 -0.14442588
0003a0 21 91 f3 bd bf 5d 45 bd 61 26 c9 3d 2a e4 e2 3d
       -0.118929155 -0.048185106 0.09821773 0.11078675
0003b0 6e d2 53 be c2 c9 44 be 8a ef b7 3d 95 c8 07 be
       -0.20685741 -0.1921759 0.08981235 -0.1326011
0003c0 c8 49 62 be 9e f3 69 3e 38 1a 53 3e 28 0f 9f 3d
       -0.22098458 0.22846839 0.2061547 0.07766563
0003d0 fe 0e 3a 3e d2 47 39 3e b8 7c 95 bd a2 83 71 3d
       0.18169782 0.18093804 -0.07299179 0.058963425
0003e0 a3 38 4b 3e 21 49 4a be 51 b3 8d bd 4e ae 48 3c
       0.19845824 -0.19754459 -0.069189675 0.012248589
0003f0 8f 01 c6 bc 42 b6 92 be 4b dd 5b be 81 e3 89 bd
       -0.024170665 -0.28654677 -0.21471135 -0.06732846

policy_network.0.bias f4 [128]
000000 60 11 71 be 0a 73 29 3e f0 ba 80 bd 86 38 95 3b
       -0.23541784 0.1654779 -0.062856555 0.0045538573
000010 dc 63 a1 3d d1 32 bc bd 29 34 22 3e 68 df a5 3d
       0.07880375 -0.0918938 0.1584021 0.08099252
000020 75 92 4c 3e 27 e6 1a 3d 3b ff b2 bd da 87 cd 3d
       0.19977744 0.037817147 -0.087400876 0.10035677
000030 a2 46 35 3e cf a4 30 3e 49 1c 59 bd 0c 4a 7e 3e
       0.17702726 0.1725037 -0.05300549 0.24832934
000040 9f ef 32 3e 98 bd 2c be 57 31 78 3c f5 2f db bd
       0.1747422 -0.168692 0.015148482 -0.107025065
000050 fc e8 42 3e eb 11 d9 bd 71 f4 39 be 64 9a 3d be
       0.19034189 -0.10599121 -0.18159653 -0.18515927
000060 47 03 1e 3e 7c 12 19 be 28 36 c8 3d 41 60 67 be
       0.15430938 -0.14948457 0.097759545 -0.22595312
000070 ca cf 33 be a6 ee 14 3d 33 bc 51 3d 25 ce fb 3d
       -0.17559734 0.036360405 0.05120487 0.12295178
000080 43 b7 66 be d1 b9 d0 bc 9a 09 4e be df 4c 44 be
       -0.22530846 -0.02547923 -0.2012085 -0.19169949
000090 87 65 32 be 74 ed ac 3d b2 54 6e be 86 89 8b 3d
       -0.17421542 0.08443728 -0.23274496 0.0681334
0000a0 03 3b a5 3d 23 f9 71 bc b1 be 34 3d ae 09 36 3e
       0.08067896 -0.0147688715 0.04412717 0.1777713
0000b0 92 7f 00 bd 4f 78 26 be b1 1f 5e bd 56 41 2f 3c
       -0.03137166 -0.16256832 -0.054229442 0.01069673
0000c0 15 5e 41 be b0 84 08 be 52 d3 85 3d 8e bf 04 be
       -0.18883546 -0.13331866 0.06534447 -0.12963697
0000d0 8e ee 30 be b2 c3 34 3e 0e 34 4d 3d 6a b0 1c 3e
       -0.17278501 0.17652777 0.05009847 0.15301672
0000e0 5f e8 ac bd ad a8 1a be df dc 38 3e be 98 cc bc
       -0.08442759 -0.15103407 0.18053006 -0.024975177
0000f0 5d 19 3a be c8 04 69 be 19 79 74 bd 8d ef 13 3e
       -0.18173738 -0.2275573 -0.0596858 0.1444685
000100 42 fa 2d 3e 50 61 29 3e 88 16 49 3d 1e 82 2a 3e
       0.16989997 0.16541028 0.049093753 0.16651198
000110 ba 85 b3 bd eb f3 d3 bd 77 53 16 be 77 8e f0 bc
       -0.08765741 -0.10349258 -0.14680277 -0.029364808
000120 03 53 07 be ef a9 72 3e 6c 3f c5 bd 88 84 53 be
       -0.1321526 0.23697637 -0.096312374 -0.20656025
000130 2f 7f 0d be 02 81 0d 3e 03 38 4d be bf 3f 8b bd
       -0.13818048 0.13818744 -0.20040898 -0.06799268
000140 51 aa 6b 3e 56 56 db bd ec 31 a4 3d 3a cc 27 3e
       0.2301419 -0.10709827 0.08017334 0.163865
000150 0b 2b 64 bd c9 3b 1d 3d d9 d5 49 bd 29 f1 e7 bc
       -0.05570511 0.038387094 -0.049276207 -0.028313236
000160 5c 42 28 3d 66 65 50 3e f2 2e 2f be 67 00 83 3e
       0.04107891 0.2035118 -0.17107752 0.25586244
000170 31 52 80 be 4b f0 8b 3c f7 9f b2 bd 77 d6 c8 bc
       -0.25062707 0.017082354 -0.08721917 -0.024516327
000180 c9 a4 f9 3d 3c 44 68 3d c9 2a 0a 3e fb 94 34 be
       0.121896334 0.0567057 0.13492884 -0.17634957
000190 65 3f ca 3c cc 39 85 be db 51 68 3e be f2 10 bd
       0.024688432 -0.26020658 0.22687475 -0.035387747
0001a0 39 6b 52 be 05 7e 9d 3d 41 98 51 be 83 d0 8a 3d
       -0.20548715 0.07690052 -0.20468237 0.06778052
0001b0 92 95 38 be 14 81 5c 3e d7 e2 03 3e 4d c9 f3 bd
       -0.18025807 0.21533614 0.12879501 -0.119036295
0001c0 63 25 59 be 3f 79 84 be f5 07 6e 3e 7f d1 bd bc
       -0.21205668 -0.25873753 0.23245223 -0.023171185
0001d0 82 c3 64 3e 60 57 54 bd c6 1a ad bd d9 e0 d9 3d
       0.22340205 -0.05184114 -0.08452372 0.106385894
0001e0 52 d8 42 be d8 1f 00 3d c9 83 0a 3e e1 b2 01 be
       -0.19027832 0.03128037 0.13526835 -0.12665893
0001f0 aa 32 41 3e 0c 90 84 bc 86 62 08 be a2 15 39 be
       0.18866983 -0.016181968 -0.13318834 -0.18074659

policy_network.3.weight f4 [256, 128]
000000 42 ac f1 bc e7 bb 36 bd b2 17 72 bc 7f 54 b0 bd
       -0.029501084 -0.04461279 -0.014776157 -0.08609866
000010 97 fa c1 bd 09 20 94 3d a6 c9 b7 bd f7 53 91 3d
       -0.09471624 0.07232673 -0.08974008 0.07096093
000020 73 f5 ba bc c7 b7 f9 bc 0e 25 b9 bd 71 5b a1 bd
       -0.022822117 -0.03048314 -0.09040271 -0.07878769
000030 8d 88 bf 3a b0 94 80 bd 1e af 24 3d 59 c0 95 3d
       0.0014612839 -0.0627836 0.040206067 0.07312078
000040 8a 8e 53 3d 9d 88 a1 bd 87 97 51 3d ce 36 0f 3d
       0.051649608 -0.07887385 0.0511699 0.034964375
000050 3d 39 0c 3d 1e a5 a5 bd b3 38 6c 3c 6c dc 98 3d
       0.034234274 -0.08088134 0.014417815 0.07463917
000060 4d 8f aa 3c ca 85 05 bd cc 0f 8b 3d bb 2f 32 bd
       0.020820284 -0.032598294 0.067901224 -0.04350255
000070 c7 d1 95 bc 61 27 7a bd 92 54 cd bc 01 23 79 bb
       -0.018288506 -0.06107271 -0.02506474 -0.0038015249
000080 9d 94 85 3c 10 fb 65 3d 3b db 5d 3d 5b b9 a4 bd
       0.016306216 0.056147635 0.054164153 -0.08043166
000090 bd 90 13 b9 20 af ef bc a3 67 a3 3d 4b c0 6b bd
       -0.00014072932 -0.02925831 0.079787515 -0.05755643
0000a0 c4 dd 09 bd 16 cd 61 3d fd 9e 0b bd ab a7 a5 bd
       -0.033658758 0.055127226 -0.03408717 -0.08088621
0000b0 54 52 ba bc e4 c2 64 3d 7a 60 ac bc b7 67 18 bd
       -0.022744335 0.055849925 -0.021042097 -0.037208285
0000c0 94 1d 8e bd 1a 20 ba 3c e6 aa 80 bd f4 c7 75 3c
       -0.06939235 0.022720385 -0.06282596 0.015001286
0000d0 1a a8 68 bd 52 1f 6a 3d dc ef 8b 3c a4 bf 6d bc
       -0.05680094 0.057158776 0.017082147 -0.014511023
0000e0 89 9a b7 bd 5a c1 8f bd 8f c3 45 bd 2d 68 7f bd
       -0.08965022 -0.07019301 -0.048282202 -0.06235521
0000f0 3a da 60 bd 54 74 87 3c ca 01 70 bc 46 55 10 bb
       -0.054895617 0.016534962 -0.014648864 -0.0022023483
000100 97 02 34 3d f3 c6 3c ba 4b 52 3d 3d 69 73 29 3d
       0.043947782 -0.00072012766 0.04622106 0.04136983
000110 18 04 8d bd 23 86 8c bb 08 fe 52 3d 48 9b 59 bd
       -0.068855464 -0.0042884513 0.051511794 -0.053126603
000120 38 e0 e3 bb 0c b5 34 3c 95 bc a6 bd b8 e8 b2 3c
       -0.006954219 0.011029493 -0.08141438 0.021839485
000130 1e 83 34 bd 50 81 8f bc 11 b1 ef 3c 16 e1 30 3d
       -0.044070356 -0.017517716 0.029259237 0.04318341
000140 57 05 52 bd 2a 87 a9 bd 09 de b4 3c 13 99 1a bd
       -0.051274624 -0.082777336 0.02207853 -0.03774364
000150 d2 e4 0e 3d e5 d9 a7 3d eb b0 5f 3d 06 54 f6 bc
       0.03488619 0.08195857 0.05461208 -0.030069362
000160 93 25 0a 3d b0 6f e7 bc 80 ae 24 bc ef 39 9f bd
       0.03372724 -0.028251499 -0.01005137 -0.07774722
000170 d6 40 aa bd 90 10 af bd 3b d2 8e bd 4e 3a 4e 3d
       -0.08313148 -0.08548081 -0.06973692 0.050348572
000180 f5 1b 65 3c 05 7c d0 3c 54 c6 80 bd a9 45 a3 3c
       0.013983716 0.025449762 -0.06287828 0.019930677
000190 47 d7 b1 bd 0c 94 06 3d a7 61 66 bd 66 1f 5a 3d
       -0.08683639 0.032856032 -0.056245472 0.0532526
0001a0 23 f9 44 bc 00 58 8a 3d 6f d8 58 3c d2 37 41 3d
       -0.012022289 0.06755066 0.013235196 0.047172375
0001b0 dd ad e2 3c 11 43 83 3d 64 5b ba 3b ac ed a2 3d
       0.027670795 0.06409276 0.005687164 0.079554886
0001c0 81 3d 0c 3c 4b 4e 6e bc 6f 79 35 3a bc 37 29 bd
       0.008559586 -0.014545034 0.0006922697 -0.041312918
0001d0 92 ed 1f bc 68 10 3d bb eb 67 64 bd 08 1d 57 bb
       -0.009761231 -0.002884889 -0.055763166 -0.00328237
0001e0 18 4a 41 bc 55 18 47 bd 8e c5 95 bd 97 8c af bd
       -0.0117974505 -0.04860719 -0.07313071 -0.08571737
0001f0 f5 f6 92 3c 87 22 7a bd d3 2a f4 bc 9d 44 39 bd
       0.017940024 -0.061068084 -0.029805576 -0.04523145
000200 a2 f3 a0 bd 42 35 60 3d c5 28 17 3d ce a3 98 bd
       -0.07858969 0.05473829 0.036904115 -0.07453118
000210 85 e3 6d 3d ac c5 ed bc c9 25 ca 3c 08 f0 5f 3d
       0.058078308 -0.029024921 0.02467622 0.05467227
000220 3f 9d 45 3c cb f0 90 bd fe 06 4b bd 22 95 9d bd
       0.012061416 -0.070771776 -0.049567215 -0.076944605
000230 f9 1a fa 3c 5a 53 81 3d ea 3f 97 3d 92 11 1f bb
       0.03053044 0.06314726 0.073852375 -0.0024271947
000240 9b fa 97 bc 8b de 4c bd 6c a9 94 3d 45 43 7a bc
       -0.018552115 -0.05001692 0.07258877 -0.015274827
000250 d9 76 c0 3b c1 e6 89 bd fd a5 ae bc ce 2e 4b bd
       0.0058735427 -0.06733466 -0.021319384 -0.049605183
000260 4f f9 44 3d 6e 85 10 3c f1 c5 29 bd 8b 74 8a bd
       0.04808932 0.008820875 -0.041448537 -0.0676051
000270 8d d5 dd 3c cc d9 d9 bc 5d 97 83 bc 3b 5a 2f 3d
       0.027079368 -0.026593111 -0.016063387 0.04281066
000280 e2 6b 1d 3d 46 47 89 3d 5c ec 92 3d 96 7a 9b bd
       0.038432963 0.067030475 0.07173988 -0.07591741
000290 18 99 33 bd 07 f4 27 bc c8 48 81 bd 1d e2 1d bd
       -0.043847173 -0.010251052 -0.0631271 -0.038545717
0002a0 f9 ae 7d 3d 44 ca 2a bd 28 45 d4 39 73 01 1b bd
       0.061934445 -0.0416968 0.00040487316 -0.03784318
0002b0 0b 59 54 bd ce 55 d2 bc a0 38 a7 bd ca 9a 7e 3d
       -0.05184273 -0.02567568 -0.08165097 0.062159337
0002c0 23 fb aa 3d 54 26 3d bd 26 fc 80 bd 83 08 8b bd
       0.08348682 -0.04617913 -0.062980935 -0.06788733
0002d0 83 ea c3 bc c4 ef 50 3c c2 75 50 3c 73 ca 38 3d
       -0.023915535 0.012752477 0.012723388 0.045114946
0002e0 99 b1 3e 3a 64 0d 0b bc 4a dd aa 3b da 76 94 bd
       0.0007274389 -0.008487079 0.005214368 -0.07249232
0002f0 10 5c 8d 3d ff 41 a1 3b 3f 0d 95 bd 96 a1 c3 3c
       0.06902325 0.0049211974 -0.07277917 0.023880761
000300 8c 07 4d bd 79 25 33 3c 8c 59 ea 3c b1 cb ac bd
       -0.050056025 0.010934227 0.028607152 -0.084372886
000310 76 ad da 3b fb ec 97 3d 4d 24 ac 3d de 5b 82 3d
       0.00667351 0.07418247 0.08405361 0.063651785
000320 ca fe 4c 3d b3 c4 65 3d 6b 23 90 bc 8e 87 93 bd
       0.050047673 0.05609579 -0.017595014 -0.072035894
000330 05 49 a0 3d f2 22 2a 3d 0d b3 df bc ef d1 5b 3d
       0.07826427 0.041537233 -0.027307058 0.053667005
000340 cc f1 48 3d e5 c2 12 3d 0b ad 1e 3d e5 d5 75 3d
       0.04905872 0.035830397 0.038739245 0.06001844
000350 c8 50 b1 bd 60 77 7d bd 99 ba 79 bb 41 da 84 bd
       -0.08657986 -0.061881423 -0.0038105606 -0.06486941
000360 9d 02 f4 3b f2 2b 91 3d 74 80 00 3d e6 26 c6 3c
       0.0074466006 0.0708846 0.031372502 0.02418847
000370 25 10 04 bd 6e 1f 09 3d 27 e7 9e bd d2 98 29 bd
       -0.03224196 0.03347724 -0.077589326 -0.041405506
000380 f8 ef 2a 3d 2b 6e 81 bd 9e d6 06 3d 30 3f b4 bd
       0.04173276 -0.06319841 0.03291952 -0.088011146
000390 68 56 96 ba f9 aa 87 bd a8 8c 9b bd c0 e0 87 3d
       -0.0011469843 -0.06624407 -0.075951874 0.066346645
0003a0 cc 27 d2 bd 53 c0 19 3d b5 49 95 3d 5d 21 64 ba
       -0.10261497 0.03753693 0.07289449 -0.0008702481
0003b0 34 82 7e 3d 0e 3b 01 3d 84 c4 8f 3d 94 f4 86 3d
       0.06213589 0.03155046 0.07019904 0.06589618
0003c0 a3 ad a6 bd 22 e3 ac 3c bb b3 e2 bc 1f 6b c6 3c
       -0.08138587 0.0211044 -0.027673593 0.024221001
0003d0 99 7f 31 3d d8 c0 a9 bd 82 e2 17 3d 0f 04 6e bd
       0.043334577 -0.08288735 0.03708125 -0.05810934
0003e0 72 a1 5c 3d 6c 97 86 3d a2 04 95 bd 39 89 c7 bd
       0.053864904 0.0657185 -0.07276274 -0.0974297
0003f0 26 8a 98 bc 15 c5 1c 3c 16 d7 a2 3d bf e1 7c bd
       -0.018620562 0.009568472 0.07951181 -0.061738726

policy_network.3.bias f4 [256]
000000 9f 1f e1 bc de 59 c8 3c 29 2e a9 3d 7d 9a a3 bd
       -0.027480898 0.024456915 0.082607575 -0.07988451
000010 35 c3 a7 bc 04 c6 b1 bd d2 87 ba bd 04 5f a3 3d
       -0.020478824 -0.086803466 -0.09107937 0.07977107
000020 70 4f 50 3d 03 1d 95 bd 0e cd 8f 3d 9e ce e9 ba
       0.050857008 -0.07280924 0.07021533 -0.0017838066
000030 2c 8e 0f 3c ba 07 61 3d 8f 53 b3 3d cb 7a 06 3d
       0.008761924 0.05493901 0.08756172 0.03283195
000040 fd 2e 5e 3d 68 8f 77 bd be 04 5e bb b5 94 81 3d
       0.05424403 -0.060439497 -0.0033877338 0.06327192
000050 fe 44 c2 bc 6c 14 19 bd ea c0 aa bc b6 da b4 bb
       -0.023714539 -0.03737299 -0.020843942 -0.0055192364
000060 2b a8 48 bd b8 da 63 bd f9 32 f5 bc 1c 12 0f bd
       -0.048988502 -0.05562851 -0.029931532 -0.03492938
000070 85 c1 72 bd f5 85 e7 3a 05 10 cb 3c 78 e6 3a 3d
       -0.059266586 0.0017663824 0.024787912 0.04562995
000080 0e b7 89 bd 6c 59 ba bd d7 16 49 bd 96 a9 c8 3c
       -0.06724368 -0.09099087 -0.049094047 0.024494927
000090 96 29 8c 3d d9 f3 99 3b 70 33 68 3d 89 74 b9 bc
       0.068438694 0.0046982584 0.05668968 -0.022638576
0000a0 d9 6b 28 bc 43 77 aa 3d 1d 12 aa bd 79 4b 0a 3d
       -0.010279619 0.083235286 -0.08304236 0.033763383
0000b0 10 09 08 bd 1f 0c 8d bd d6 17 16 bd 87 be 19 3d
       -0.033211768 -0.068870775 -0.036643825 0.037535217
0000c0 b4 1d 6e 3d 74 a3 eb bc d4 3b 33 3d 49 05 9e bb
       0.058133796 -0.028764464 0.04375823 -0.0048224074
0000d0 01 51 a5 3d 2f 7d 87 3d 89 c1 44 3d 93 2c 84 bd
       0.08072091 0.06615674 0.048036132 -0.06453814
0000e0 6a b3 7b bd 79 29 99 3d ae 9b b3 bd 02 05 66 bd
       -0.0614504 0.074786134 -0.08769928 -0.05615712
0000f0 a5 00 0b 3d cd d0 46 bc ec 27 98 bd e9 e1 83 3d
       0.03393616 -0.012134743 -0.074294895 0.06439573
000100 9a 3e 97 bd 47 83 47 3c ba ef 14 bd 4b ba b2 bd
       -0.07384987 0.012177295 -0.036361434 -0.08726939
000110 5f 5c 81 3d 30 b3 16 3d fc 0a 5a 3d 08 57 ef bc
       0.063164465 0.03679198 0.05323313 -0.029216304
000120 ba fc f2 3c d0 0b 8e 3d ae 59 81 3d 79 70 b1 bd
       0.029661525 0.06935847 0.06315933 -0.086640306
000130 40 d2 06 bd a3 4b 99 bc 96 07 ad 3c 01 5c 5a 3d
       -0.032915354 -0.018712824 0.021121781 0.053310398
000140 e9 a2 6d bb d5 b4 fb 3c 71 ee 8f 3d a8 3c 4b 3c
       -0.0036260432 0.030725876 0.07027901 0.012404598
000150 65 3d c1 3c a3 6d 3c bc c4 40 5f bd e0 29 d2 bd
       0.023588846 -0.011500749 -0.054505125 -0.10261893
000160 ad 94 10 bd db b9 fd 3c 42 0c 4a bd ee 0a 86 bd
       -0.03529804 0.030972412 -0.049328096 -0.065450534
000170 74 e4 38 bd 18 dc 26 3d d7 bc 01 3d 94 de 82 bc
       -0.045139745 0.04073724 0.031674232 -0.015975274
000180 ae 11 86 bc 9e 5a dc bb e8 3b 60 bc d3 7a b9 bc
       -0.016365852 -0.0067246696 -0.013686158 -0.022641575
000190 7a 0d 58 bd d9 76 83 3d 79 cc 21 bd 52 7b 85 3d
       -0.052747227 0.06419153 -0.03950164 0.06517662
0001a0 7c fa a4 3c b1 d5 8c 3d 31 b6 8d bd e1 e6 06 3d
       0.020138972 0.06876696 -0.06919516 0.032935027
0001b0 98 52 f0 3c 9a 84 97 3d 8c 09 40 3d 89 3e a2 3d
       0.029336259 0.073983386 0.046884105 0.07922084
0001c0 c2 a9 99 3d b2 36 8e bd 13 0b a6 bd 2b cd 07 3c
       0.07503082 -0.06944026 -0.08107581 0.008288662
0001d0 56 bb 47 3d d2 9a 3b 3d 3e aa 7e 3d 62 b8 c1 bd
       0.04876264 0.045801945 0.062174074 -0.09458996
0001e0 c3 d9 21 3c e9 3a 48 3c b4 61 d5 3c f8 f1 c8 bd
       0.009878579 0.0122210765 0.026047565 -0.09811777
0001f0 d5 cc 5f 3d dd 1a c0 bc 92 f7 2f bd e4 5c 8b bd
       0.054638702 -0.02345031 -0.04296071 -0.06804827
000200 cd db 55 3d 36 22 81 bd ba 61 e4 bc 8b 6e 57 bc
       0.05221157 -0.06305353 -0.02787863 -0.013148914
000210 3b dc 7a bd 0b 9b d4 bc e5 57 4a 3d 5a 1c 36 bd
       -0.061245184 -0.025952836 0.04940023 -0.044460632
000220 72 25 32 bd 7b 0e 3a bd f3 24 9b 3d 4f 40 7a bd
       -0.043492742 -0.045423966 0.07575407 -0.061096486
000230 64 25 7f 3d 8d 56 d4 3c e9 4a 54 bd 0b 8d 98 3b
       0.062291518 0.025920177 -0.051829252 0.0046554855
000240 09 9f 46 3d f7 15 7e 3c 16 95 91 bc a9 62 30 bd
       0.04849151 0.0155081665 -0.017771285 -0.04306284
000250 43 31 a6 bd 8b 32 e8 ba 61 de 84 3d e1 cd 9f bd
       -0.08114865 -0.0017715258 0.06487728 -0.0780294
000260 78 06 4e 3d 3c 04 83 bd 34 71 7e 3d 81 c0 f2 3c
       0.050299138 -0.06397292 0.062119678 0.029632809
000270 18 0c 85 3d 89 89 4b bd b6 da 90 3d 70 d9 27 3d
       0.06496447 -0.04969171 0.07072966 0.04097885
000280 ea ec 50 3d 3f 03 02 3d f0 47 0e bc 06 86 89 bd
       0.05100719 0.031741377 -0.008684143 -0.06715016
000290 a8 ea 56 bd 98 04 f7 bc 65 65 65 bd 04 ee f3 bc
       -0.05246988 -0.030153558 -0.0560049 -0.02977658
0002a0 96 6f 36 3c 07 02 92 bd 77 30 4e 3d 9c 67 1d 3d
       0.011135003 -0.07129293 0.05033919 0.038428888
0002b0 da 6c 73 3c 77 7c 88 3d be 81 b5 bd bc 2d 32 3d
       0.014857495 0.06664365 -0.08862637 0.043500647
0002c0 98 c4 c1 3c 11 b5 95 bd 1d a9 18 3d b6 b6 be bd
       0.023653314 -0.07309926 0.037270654 -0.09312193
0002d0 74 f3 1d 3c 4f 39 9d bd 05 fd 45 ba 7b 34 85 bd
       0.009640563 -0.07676946 -0.00075526565 -0.065041505
0002e0 ff 9f 41 3d 9f 33 80 bd f2 b9 8d 3d d1 68 b1 bd
       0.047271725 -0.06259846 0.06920232 -0.0866257
0002f0 4f 8a 29 3d a3 b7 63 3d 35 34 6e 3c e3 4e 06 3d
       0.041391667 0.05559505 0.014538814 0.032790076
000300 9f 34 29 3d ed d9 92 bd 09 e6 4e bd fb b8 e9 3c
       0.04130995 -0.07170472 -0.050512347 0.028530588
000310 ed 08 2b bd 58 56 7f bd ca 5a 86 3c 03 ea 50 3d
       -0.04175656 -0.062338203 0.016400713 0.05100442
000320 6e f4 aa bd fc 68 69 bd 9f 8d af bd cc 88 28 3d
       -0.083474025 -0.056984887 -0.08571934 0.041146085
000330 51 06 72 bc 9a 23 e3 bc 42 7f b6 bd fe a1 cf 3b
       -0.014772014 -0.027726937 -0.08910991 0.0063364496
000340 28 23 5d bd c7 85 97 bd 99 d8 56 bd 8e 7d b1 bd
       -0.053988606 -0.07398563 -0.052452657 -0.08666526
000350 2e e0 7c 3d 5c 72 78 3d 0a 13 3d bd 2e 58 c0 bd
       0.061737232 0.060655937 -0.046160735 -0.09391819
000360 75 d2 c4 3a 56 68 1c bd b9 7c 50 bd 78 40 cc bd
       0.0015016334 -0.03818544 -0.050900195 -0.09973234
000370 2a 57 9a bd fc 52 47 3d d0 fb 7f 3d 59 08 21 3d
       -0.075361565 0.048663124 0.062496006 0.0393146
000380 74 f7 06 bd 48 ff bb bd 69 a9 69 3d b7 bd a3 3d
       -0.032950833 -0.091795504 0.057046328 0.079951696
000390 39 30 cd 3c 5f 64 5b bc 34 42 89 bd e5 4f 47 3d
       0.025047408 -0.01339063 -0.0670208 0.048660178
0003a0 ab 2c 2a 3d ad b7 bb bd 65 60 b8 bc d4 db c9 bd
       0.041546505 -0.09165893 -0.022506902 -0.09856382
0003b0 2a b9 d3 3c 17 36 71 bc c5 00 83 3c c1 93 be bc
       0.025845129 -0.014722369 0.015991578 -0.023263814
0003c0 52 e8 0d bc b3 f2 cc 3c 96 ed 90 3d 58 0f 84 3d
       -0.0086613465 0.025018072 0.07076566 0.06448239
0003d0 33 c6 82 bc f5 1b 97 bd cd 40 9c 3d e4 f3 47 3c
       -0.01596365 -0.07378379 0.07629547 0.012204144
0003e0 84 fe 81 3d be 8d 34 3d e1 7e f7 bc 61 44 20 3a
       0.06347373 0.04408049 -0.030211868 0.0006113705
0003f0 c0 5d 9b 3d 90 08 68 bd 0c f3 dd 3c cc 69 80 3a
       0.07586241 -0.05664879 0.027093433 0.0009797155

policy_network.6.weight f4 [128, 256]
000000 43 df 46 bc 2f 17 39 bd 98 ed 67 3d 4c 9b 75 3b
       -0.012138191 -0.045188125 0.05662307 0.0037476597
000010 3c 3b 35 bd 64 02 f0 bc 7c 05 c5 3c 78 1c 35 3d
       -0.044245943 -0.029298015 0.024050467 0.044216603
000020 9c 56 72 bd eb 05 a4 3c 80 fa 57 3d 06 02 03 3b
       -0.05916463 0.020022353 0.05272913 0.001999022
000030 96 32 1d bd ae 4b 7e 3d 70 5c e0 bb 08 34 c9 3c
       -0.03837832 0.062083893 -0.006846957 0.024560943
000040 3f 9d 20 bc 80 52 7f 3b 7e e5 3f 3d 90 d9 c8 bb
       -0.009803115 0.0038959086 0.04684972 -0.006129451
000050 76 6d 38 bd 1c 86 37 3d 1a 7b 5c bd 17 7b 16 bc
       -0.045026265 0.04480563 -0.053828336 -0.00918462
000060 0f 71 a1 3c e0 ce c0 bb fe 57 46 bd ec 8a 7d 3d
       0.01970723 -0.0058840364 -0.04842376 0.061900064
000070 55 8e 04 bd 08 d8 20 3d 94 90 48 bd ce 1e 36 bd
       -0.0323623 0.039268523 -0.048966005 -0.04446297
000080 1c 0e 8f 3b 7c 69 db 3c 14 40 c1 bc 84 65 ff bc
       0.0043656956 0.026783697 -0.023590125 -0.031176336
000090 4b 98 07 bd fa e1 52 bd f9 f0 7f bd ca 8c 73 bd
       -0.033104222 -0.05148504 -0.06248567 -0.05946044
0000a0 d1 64 ae bc ec 8d 88 bc a8 8a 08 3d 26 7c e8 bc
       -0.021288307 -0.016669236 0.033335358 -0.028379511
0000b0 ac ce b4 bc b2 22 14 3d 40 71 b7 3b d0 2b 3b 3d
       -0.022071205 0.0361659 0.0055982172 0.04569608
0000c0 de 6b 4b 3d 9a 53 2f bd 68 f5 b6 3c ba 0d 6b 3d
       0.049663417 -0.042804338 0.022333816 0.057386138
0000d0 b0 4f 80 bc e8 1b 54 bd 94 a1 b3 3c 00 e8 25 bb
       -0.015662998 -0.051784426 0.021927632 -0.0025315285
0000e0 d8 71 03 bc 10 59 1b bc 4c 51 9b bc 11 90 94 3c
       -0.008022748 -0.009481683 -0.018959664 0.018135102
0000f0 e8 71 65 bd 71 e1 0d bd b0 85 c4 bc 70 2f e7 bb
       -0.056016833 -0.034638826 -0.023989528 -0.0070552155
000100 04 e6 31 3d 2d 86 df bc a8 95 bf 3c e2 7d 42 3d
       0.04343225 -0.02728566 0.023386791 0.047483332
000110 ec 67 67 3d 57 ac 1a 3d 20 ea e8 3c 80 e9 9a 3b
       0.056495592 0.037762012 0.028431952 0.0047275424
000120 38 ef 59 3b 80 65 ba bc 1f 16 a1 3c 61 c2 db bc
       0.0033254158 -0.022753477 0.019663868 -0.026826086
000130 be a7 bc bb 7d e3 19 bd 7c 5a d0 bb da 0d 41 bd
       -0.005757301 -0.037570465 -0.006358443 -0.04713235
000140 10 ba 80 bb f7 4c 30 bd 62 1e c7 3c 59 af 87 bb
       -0.0039284304 -0.04304215 0.02430648 -0.004140776
000150 08 a3 8d 3c cb 76 31 bd 0e 50 c5 3b a1 cc 5d 3d
       0.017289653 -0.04332618 0.006021506 0.054150227
000160 48 2c 52 3c de 21 2f bd 7a 1f 30 bd 1e 3e 54 bd
       0.01282794 -0.042756908 -0.04299877 -0.051817052
000170 10 dc 02 bd 76 47 58 bd a0 e2 4c bc 82 94 1f 3d
       -0.03194815 -0.052802525 -0.0125052035 0.038959987
000180 87 a1 13 bd e8 52 dc bc fc 30 cd bb 18 0f 37 3d
       -0.036042716 -0.026895002 -0.006261943 0.04469213
000190 42 78 69 bd 0a 17 5f bd c5 44 dc 3c de bd 34 3c
       -0.056999452 -0.05446533 0.02688826 0.011031596
0001a0 bb 48 2b 3b 9a b8 71 bd f8 e4 39 3d fe 68 0a bc
       0.002613588 -0.05901394 0.045384377 -0.008447884
0001b0 08 99 41 bd ec b2 3a bc 60 1a 1d bb 98 0a ed 3c
       -0.047265083 -0.011395197 -0.002397202 0.028935716
0001c0 90 4f 7c 3c 60 97 05 3d c0 78 c4 bc 66 2b 0f 3d
       0.015399829 0.032615066 -0.02398336 0.034953497
0001d0 c0 d8 07 3d 57 7d f8 bc d8 d0 c6 bc 88 c9 0c bd
       0.033165693 -0.030333204 -0.024269506 -0.034371883
0001e0 50 67 d5 3c 43 0d 09 bd 22 0a 77 bd 18 2b 90 3c
       0.02605024 -0.033459913 -0.060312398 0.017598674
0001f0 98 ae d8 bc aa 8f f6 3c f0 50 c6 ba de 9b 3e 3d
       -0.02645044 0.030097801 -0.0015130322 0.046535365
000200 1c 57 ef 3c 18 8a 2d bd 1b 6e 73 bd a0 50 b9 3c
       0.029216342 -0.042368025 -0.059431177 0.022621453
000210 c4 24 13 3c 58 65 38 3c 12 d8 f0 bb 76 e7 87 3b
       0.008980934 0.011254631 -0.0073499763 0.0041474653
000220 26 62 3b 3d 60 fb 52 3d 10 1d 91 3c 72 6a 79 bd
       0.0457479 0.05150926 0.017714053 -0.06089253
000230 f0 5a ec bb 42 e7 26 3d d0 cc 97 3b 55 a1 01 3d
       -0.007212989 0.04074789 0.00463257 0.031648
000240 e0 60 f3 bb a2 48 4e bd 9c a5 3a bd 20 00 7c 3c
       -0.00742732 -0.050362237 -0.045568094 0.015380889
000250 4c 32 e9 3c 10 34 bb 3c 10 d0 37 3c b0 d1 77 bc
       0.028466366 0.022851974 0.01121904 -0.015125677
000260 ba 96 7c bd 7e 6c 27 bd 98 9a b2 3c c4 d4 04 3d
       -0.06166718 -0.04087495 0.021802232 0.03242947
000270 58 ea 14 bd d7 ed 44 bd 98 39 a6 bc 33 bf 85 bd
       -0.0363563 -0.048078384 -0.020291135 -0.06530609
000280 9e d2 23 bd f2 42 cd 3b 64 94 f4 bc 00 72 78 3c
       -0.039995782 0.006264084 -0.029855914 0.0151638985
000290 f6 ac a2 3c de 2c 0d bd 24 ca 34 bd ac db ff 3c
       0.019857865 -0.034466617 -0.04413809 0.031232677
0002a0 40 4e 16 bd 11 a5 81 bd 8d b7 a3 bc f1 1f 7b 3c
       -0.03669572 -0.06330312 -0.019984985 0.01532744
0002b0 9d d2 4a bd f0 75 08 bd a9 d8 27 3d 31 69 3d 3d
       -0.049517263 -0.0333156 0.040978108 0.046242896
0002c0 cb b5 09 bd ae b0 65 bd 2e b7 1d bd 64 87 93 3c
       -0.033620637 -0.056076698 -0.038504772 0.018008895
0002d0 6b a8 05 3d 03 a1 56 bd 20 71 65 bd 04 8c 0f bd
       0.03263132 -0.052399646 -0.056016088 -0.03504564
0002e0 e4 e9 e1 bc 60 fd b2 bb 44 2d 3d 3d a0 cb 98 bc
       -0.027577348 -0.0054623336 0.046185747 -0.018651783
0002f0 5a 03 16 3d 69 ed 2c bd 30 c7 ea 3b 4e 8a 5b bd
       0.03662429 -0.0422186 0.0071648583 -0.053598695
000300 9e 27 5d 3d 00 db 48 3c 18 ba fe 3c 0c c6 22 bd
       0.05399286 0.012259245 0.031094596 -0.039739653
000310 b1 99 3b 3c 66 13 2a bd 6b 8f 86 bc 70 a4 b8 3b
       0.011450217 -0.041522406 -0.016425809 0.005634837
000320 b0 20 b2 3c 02 fe 42 3d e8 75 5f 3c 5a 8f ce bc
       0.021744102 0.047605522 0.013638951 -0.02521484
000330 a6 bf 65 3d f0 51 12 bc a0 12 b8 3b 28 04 a0 3c
       0.056090973 -0.008930668 0.0056174546 0.019533232
000340 16 5b 6a bd 14 1f 68 bc 78 9a cc bc 5a 7f 39 bd
       -0.057215773 -0.014167566 -0.024976 -0.045287468
000350 70 2e 93 3c 88 4a 5e bd 8f ac 90 bc 98 2f 5c 3d
       0.017966479 -0.054270297 -0.017660407 0.053756326
000360 08 2a 22 3d f0 5c c5 bb 00 71 3b bd 20 5a 24 3c
       0.039590865 -0.006023042 -0.045762062 0.010031253
000370 ac d2 6b 3d 60 97 80 3c c0 1e e6 bb bd 41 93 bc
       0.05757396 0.015697181 -0.0070227087 -0.017975682
000380 19 54 3a 3b 70 75 44 bd 38 92 49 bd 74 35 53 bd
       0.0028431474 -0.04796356 -0.04921171 -0.05156465
000390 ce 77 5f 3d 18 b3 61 bd 66 83 1e bd a8 fe d0 3c
       0.054557614 -0.055102438 -0.03869953 0.025512055
0003a0 2f 40 dd 3c 8c fc d6 3c a0 c1 7d 3b 52 31 44 bc
       0.027008144 0.02624347 0.0038720146 -0.0119746495
0003b0 68 00 7a bc 70 85 81 3c c8 4d 0c 3c 7a 1f 1b bd
       -0.015258886 0.015810698 0.008563466 -0.037871815
0003c0 08 89 1b bc b3 34 39 bd da ab 17 3d dc c7 a7 3c
       -0.00949312 -0.045216274 0.037029125 0.020481043
0003d0 0c 48 e0 bc fb 50 1d 3d a4 5a 45 bd ef 4a 00 3d
       -0.027378105 0.038407307 -0.048182145 0.031321462
0003e0 c5 f9 ef 3c 3d 0d 48 bd 19 d6 40 3d 84 6e 4b bd
       0.029293904 -0.04884075 0.04707918 -0.049665943
0003f0 52 42 04 bc 5a a9 47 3d 18 eb 76 3c f0 dd 05 3d
       -0.008072453 0.04874549 0.015070699 0.03268236

policy_network.6.bias f4 [128]
000000 24 90 04 bd 4d d5 86 bd 0c d4 03 bc 0e 1e 92 bc
       -0.032364026 -0.06583653 -0.008046161 -0.017836597
000010 ec 25 15 3d 5c 15 83 bd b4 8f 4c bd 9d e4 2f 3d
       0.03641312 -0.06400558 -0.049941733 0.042942632
000020 61 72 10 3c fa ab 68 bb f1 a0 0c 3d 5e a9 40 3d
       0.008816333 -0.0035502897 0.034333173 0.04703652
000030 5b e8 33 bd b6 1b 8e bc 9e 7e 17 3d 73 fd 3a bd
       -0.043922763 -0.017347198 0.036985986 -0.045651864
000040 d2 14 b4 3c 06 60 7c bd 9b 25 05 bd af fd 3a bd
       0.021982584 -0.061615013 -0.032506566 -0.045652088
000050 65 fc b2 bc 75 e5 fc bc b2 04 69 bd cf fb a4 bc
       -0.021848867 -0.030871132 -0.056889243 -0.020139603
000060 93 7a 35 3d 55 3d 15 3d 2b cc 54 bd c9 ba 09 3d
       0.04430635 0.036435444 -0.051952522 0.033625398
000070 be fb 1f bd ee 60 2c 3c 3d 07 2a 3d 11 89 78 bd
       -0.03905844 0.010521157 0.04151081 -0.06067759
000080 24 77 31 bd f9 0e 19 3d 0a ca 7a bd 63 b2 19 3d
       -0.043326512 0.037367795 -0.061227836 0.03752364
000090 b9 a4 5f bd f1 11 2e 3d 02 90 d1 3c 18 50 61 bd
       -0.05460045 0.04249758 0.025581364 -0.055008024
0000a0 e0 0e fb 3c 2f b1 08 bc 4b c9 8f bd 01 ca 1a 3b
       0.030646741 -0.008343025 -0.070208155 0.002361894
0000b0 84 af f9 bb c2 0f 27 bd 9c 97 4b bd 27 65 03 bc
       -0.0076198 -0.040786512 -0.049705133 -0.008019722
0000c0 8b 74 e3 bc 18 61 15 bd 86 f2 80 bd e5 4c 55 3c
       -0.027765533 -0.03646955 -0.06296258 0.013018821
0000d0 f0 a4 66 bc 0f 34 24 bd f7 de 89 3a 67 b5 3f 3d
       -0.01407741 -0.04008871 0.0010518719 0.046803858
0000e0 5a 66 fc 3c 95 0f e4 3c 3a 2d f5 bb cb 46 02 3d
       0.030810524 0.027839461 -0.007482198 0.031805795
0000f0 f0 9a ac bc 5b aa 0d 3d f9 4f 6a bd 94 78 86 bd
       -0.021069974 0.03458629 -0.057205174 -0.06565967
000100 2c 1f 4c bd b9 21 22 3c e9 b6 fc bc e7 42 7a bd
       -0.049834415 0.009895735 -0.030848937 -0.06109896
000110 c3 bf 10 bd 40 d3 4a bd 27 50 ff bc f7 96 1a 3c
       -0.03533913 -0.04951787 -0.03116615 0.009435407
000120 7f 36 07 3d 0a d6 60 3d 25 59 73 3a 4c 5b 8d bd
       0.033010956 0.054891624 0.0009282998 -0.06902179
000130 3d 9c 12 3c cb 68 7d bd 3a f8 31 3d b1 cb ab 3c
       0.008948383 -0.061867516 0.043449618 0.020971151
000140 15 a2 94 bc e9 60 f4 bb 4a 76 0a 3c 7c 40 74 bd
       -0.018143693 -0.0074578417 0.008451054 -0.05963181
000150 fe a7 0e 3c c6 9b 24 bd a1 27 b0 bc 38 54 ea 3c
       0.008707045 -0.04018762 -0.021503272 0.028604612
000160 51 a9 1d bc cd 2d e8 bc c8 ae fd bb f3 e7 5d 3c
       -0.009622888 -0.028342152 -0.007741783 0.013544071
000170 22 2b 46 3c 13 6a 9c 3c d0 33 cc 3c f4 bd 89 bc
       0.012095245 0.019093549 0.02492705 -0.01681421
000180 77 09 24 bd b1 50 1a bd b1 32 99 bc c3 f2 1b bd
       -0.04004809 -0.03767461 -0.01870093 -0.038073312
000190 e9 8e bb bc 00 29 81 bd 77 5c 7a 3d ce 54 5d 3d
       -0.022895293 -0.06306648 0.061123338 0.054035954
0001a0 75 57 92 bd 89 ec 1d 3d 91 be 2b 3d 55 fe f2 3c
       -0.07145587 0.038555656 0.041929785 0.02966229
0001b0 6d e7 f8 3b 51 a9 9f bc f0 98 4d bd 64 39 93 bd
       0.0075959475 -0.019489916 -0.05019468 -0.07188681
0001c0 66 b5 fa bc 79 a6 24 3c 58 ad 96 3c f4 79 24 bd
       -0.030604076 0.010049456 0.018393204 -0.040155366
0001d0 8f 49 e7 bc 3d 67 23 bc 2a 6a 68 3d c1 96 39 bd
       -0.028233318 -0.009973344 0.05674187 -0.045309786
0001e0 31 d6 47 bc 0b 09 32 3d 4a 08 02 bd a3 f9 43 3d
       -0.012197063 0.043465655 -0.031746186 0.047845494
0001f0 4e f2 8c bc ee e6 a1 3c 9d fe 15 3d 3c 4a 46 3d
       -0.017205384 0.019763436 0.03661977 0.04841064

policy_network.9.weight f4 [7, 128]
000000 48 cd d5 3c f8 e5 fd bc 2c d6 8b 3d 06 1e 9b 3d
       0.026098862 -0.030993447 0.068279594 0.07574086
000010 75 cc 78 bc 55 a4 8e bd 21 ce 87 3c ca 06 75 bd
       -0.015185465 -0.069649376 0.016577782 -0.059820928
000020 55 1d 21 bd 4e da 35 bd bc c8 d5 bc 31 f3 84 bd
       -0.039334614 -0.044397645 -0.026096694 -0.064916976
000030 97 8b 35 3b 91 68 99 bd d2 9d b7 bd 05 ea de 3c
       0.002770161 -0.074906476 -0.08965649 0.027211199
000040 57 35 23 bc 57 c2 86 3c 9b 15 a7 bd a1 45 58 3d
       -0.009961448 0.01645009 -0.08158418 0.05280078
000050 d2 f3 63 bc 7a f1 9d 3d 49 ef 9c bd 81 6f 96 bd
       -0.013913112 0.077120736 -0.076628275 -0.073454864
000060 e7 f5 48 3d 46 6e cf 3c 5d 51 6b 3d 8f 39 25 bc
       0.049062636 0.025321137 0.05745064 -0.010084524
000070 e3 9e 9a bd 30 ae 08 bd 6e 39 af bc ae ea aa 3d
       -0.075498365 -0.033369243 -0.02138969 0.08345543
000080 e8 42 9d bd 03 34 bd bc 2d 22 61 bc 58 48 70 bd
       -0.07678777 -0.02309609 -0.013741058 -0.058662742
000090 08 3b 8a 3d 14 7c 99 bd c6 63 04 3d bc 7e a2 bd
       0.067495406 -0.07494369 0.032321714 -0.07934329
0000a0 f7 75 29 3c 9b 79 06 bd ce 6c f0 38 d6 69 85 3d
       0.010343066 -0.032830816 0.00011464358 0.06514327
0000b0 19 be 48 39 df 4c 79 bd 74 9d 61 bd 5a 49 fa bb
       0.00019144303 -0.060864326 -0.0550818 -0.0076381387
0000c0 19 45 15 3d bf 80 1f bd 68 fc 5a 3d 39 83 5e bd
       0.03644285 -0.03894114 0.05346337 -0.054324362
0000d0 f1 7e da bb 10 13 ae bd 20 a8 04 3c 38 b2 68 3d
       -0.0066679646 -0.0849973 0.008096725 0.056810588
0000e0 d1 da 60 3d ae 3b 73 3d 2e c7 1b 3c c0 34 92 3d
       0.05489618 0.059383087 0.009507937 0.071389675
0000f0 a1 9f 51 bd f7 d7 83 3d 4d e4 88 bd 88 37 64 3d
       -0.051177625 0.064376764 -0.0668417 0.05571702
000100 6b fb c6 3c 9e 80 0e bd bf 71 a9 bc 87 94 33 3c
       0.024289807 -0.034790628 -0.020684121 0.010960705
000110 06 f8 26 3d 9f b9 0e 3d 4d b9 df 3c 2b c2 40 bd
       0.040763877 0.03484499 0.027310038 -0.047060173
000120 5d 7f 56 3d 38 0e 33 bb a8 d0 11 3c 01 b1 49 3d
       0.052367557 -0.0027321707 0.008899845 0.04924107
000130 a5 c7 f0 39 5c 64 73 3d e7 9c 8e bd 92 8e 74 bc
       0.00045925114 0.059421882 -0.069635205 -0.01492657
000140 a0 7d 55 bc d7 27 02 39 04 04 ec bc 04 15 28 3c
       -0.01303044 0.00012412608 -0.028810509 0.010258917
000150 c8 3c a9 3c db 79 a2 3c 16 2b 73 bd 0d 6f 11 3d
       0.020658866 0.019833496 -0.05936726 0.035506297
000160 c0 ba 06 3c db 58 01 3d d1 f9 2a bd c9 29 3d bc
       0.008223236 0.03157888 -0.04174215 -0.011545607
000170 b9 ae 9f 3d 3d 92 d6 bc df 50 24 bd dd 65 89 bd
       0.077969976 -0.026192779 -0.040116187 -0.06708882
000180 e7 fb 1c bd 3f 4f 40 3d 00 08 4b 3d e7 79 c9 bc
       -0.03832617 0.046950575 0.049568176 -0.02459426
000190 0f 92 49 bc 72 c7 88 3d ae d9 27 bd 23 b8 be bc
       -0.0123028895 0.06678666 -0.04097908 -0.023281163
0001a0 c8 da a9 3b 44 17 13 bd 39 8f 48 3d db 9c 81 3d
       0.0051835515 -0.03591086 0.048964713 0.06328746
0001b0 3a 83 47 bd 60 5c 82 bd 61 68 19 bd ad 4c 43 bd
       -0.04870913 -0.063652754 -0.03745306 -0.047680546
0001c0 5c 7e 98 3d 5e f8 85 bd f9 37 73 3b 59 b0 79 bd
       0.07445976 -0.06541513 0.003711222 -0.060959194
0001d0 7a ae 90 bd 05 b1 94 bd 59 b4 86 3d 08 98 ea bb
       -0.07064529 -0.07260326 0.06577367 -0.007159237
0001e0 96 82 fd 3c a0 a3 8c bd a1 69 2d 3d f0 ed da bc
       0.030946057 -0.068671465 0.042337064 -0.026724786
0001f0 c0 6e 95 bb f3 ba 97 bd b3 b8 87 3d 1f a4 1a bd
       -0.0045603216 -0.074087046 0.066270255 -0.037754174
000200 cd 8c 75 bd f2 40 c3 39 06 2b 49 3d 8a 2b aa 3c
       -0.05994873 0.00037241686 0.049113296 0.020772714
000210 ed 61 51 3d 6a 2b 1f bd 8b e6 a0 3d 68 b7 90 bd
       0.05111878 -0.038859762 0.078564726 -0.07066232
000220 9f 2d a2 3d 16 4c 07 3d 8d 5b 56 bd f4 75 4a 3d
       0.07918858 0.033031546 -0.052333403 0.049428895
000230 61 f1 f5 ba 42 6f 86 bd 9a af 9a 3c 01 0d f8 b8
       -0.0018763953 -0.065641895 0.018882561 -0.00011827984
000240 43 32 35 bd f0 1c d2 bb b6 fd 6b bd d7 32 0a bd
       -0.044237386 -0.006412141 -0.057615004 -0.03373989
000250 06 1f 55 bc 82 78 53 3d 6a 0f 50 3a fc 73 55 3d
       -0.013007885 0.051628597 0.0007936867 0.052112564
000260 a4 1d 93 3a 4c 7f ef bc 7e ff 1e bd 58 67 78 bd
       0.0011224044 -0.029235505 -0.038817875 -0.06064543
000270 20 e9 9a bd 87 13 7e 3c 3a b5 6d 3c 4b 12 28 3d
       -0.07563996 0.015507585 0.01450854 0.04103307
000280 74 c9 58 bc 2e 1d 57 3d 5e a6 83 bd b2 5e 82 bc
       -0.013231624 0.052518062 -0.064282164 -0.015914295
000290 e9 e0 48 bd 60 91 36 bd 3e 73 51 bc 81 fd 03 3d
       -0.049042616 -0.044572234 -0.012783824 0.032224182
0002a0 e1 06 6e bc 96 0c 93 3d bb a6 cd 3c 49 36 ab 3d
       -0.014528007 0.07180135 0.025103917 0.083599634
0002b0 34 01 a5 3c 74 9b 83 bd 45 fb b5 3d 55 1e 42 3c
       0.020142175 -0.06426135 0.088858165 0.011848052
0002c0 43 fd 0e 3d 70 58 e5 3c 92 c0 cf 3c 70 7b 90 bd
       0.034909498 0.027996272 0.02536038 -0.07054794
0002d0 1a 0c f8 bc 79 2e 8e 3d 93 61 d2 3c 38 13 30 bd
       -0.030279208 0.06942458 0.025681293 -0.04298708
0002e0 32 85 6e 3d d9 1d 22 3d 99 e1 ad ba 01 24 63 bd
       0.058232494 0.039579246 -0.0013266086 -0.055454258
0002f0 22 4c c9 3c 59 d1 34 3d eb 57 63 3d 89 7c 95 bc
       0.024572436 0.044144962 0.055503767 -0.01824786
000300 75 ef 87 bd 55 55 83 3c 50 ad bb 3c 71 3f 3e 3d
       -0.0663747 0.0160319 0.02290979 0.04644722
000310 00 b2 1e bd d8 1d 6a 3d d9 d5 54 3b 82 e3 43 bd
       -0.038743973 0.057157367 0.0032476096 -0.04782439
000320 04 e2 75 3c d6 da 78 3c 00 1e 80 bd 73 cb a2 b9
       0.0150075 0.015188893 -0.06255722 -0.0003105063
000330 ce f3 33 3b 99 f0 80 3d ab e9 38 bd a2 97 ae 3c
       0.0027458551 0.0629589 -0.04514472 0.021312539
000340 95 c2 34 bb eb ec 60 bc 24 ae 2a 3c a6 cb 85 bd
       -0.00275818 -0.013728361 0.010417495 -0.065329835
000350 3e 05 2e 3d 1b 52 9f bd ed 3d 3d bd e6 c2 5b bc
       0.042485468 -0.07779332 -0.046201635 -0.013413167
000360 52 2b 4c 3c 81 7c e2 3c a3 1c 83 3d 9e ca 1f bb
       0.0124615 0.027647259 0.064019464 -0.0024382244
000370 b0 2d 05 3d 35 65 24 3d 39 a9 d9 bb 5f 30 91 bc
       0.032514274 0.04013558 -0.0066424874 -0.01772326
000380 8f 1c 4b 3d 1c 3c 66 bd 2a 38 ff bb 82 f9 a3 bd
       0.049587782 -0.05620967 -0.0077886777 -0.08006574
000390 b5 5f f9 bb 7d ce 99 3d 48 1c d9 3c 59 3f 16 3d
       -0.007610286 0.07510088 0.026502743 0.036681507
0003a0 c0 33 6d bb 9c 99 81 3c e2 d9 79 bd bf c4 4b 3d
       -0.0036194175 0.015820317 -0.060998805 0.04974818
0003b0 ca d5 73 bd b3 fe 90 bc 43 17 9e 3d 34 9b 19 bc
       -0.059530057 -0.017699575 0.077192806 -0.009375382
0003c0 83 cb 05 3d a6 39 3b bd 85 30 a3 bd 36 56 93 3c
       0.032664787 -0.045709275 -0.07968239 0.017985445
0003d0 dc 67 b7 bd 22 59 c4 3a e5 c6 4c bd 98 07 6e 3d
       -0.089553565 0.0014980177 -0.049994368 0.05811271
0003e0 cf 82 c8 3c 27 b4 14 bb a0 1b 64 3b 82 73 7f 3c
       0.024476437 -0.0022690387 0.0034806505 0.015591504
0003f0 86 b0 b2 bc bc 49 86 3c f9 0e d3 bb 6b 69 83 3d
       -0.021812689 0.016392581 -0.006440994 0.06416591

policy_network.9.bias f4 [7]
000000 cc b3 41 3c a0 0b e0 ba e3 0e 7d bc 67 db eb 38
       0.011822652 -0.0017093308 -0.015445444 0.0001124654
000010 d5 01 6e bb 52 90 36 3c 81 28 34 3d
       -0.003631701 0.011142807 0.04398394

exp_avg f4 [128, 15]
000000 1f 0b 97 b8 9a a1 c9 b7 51 d7 47 38 12 46 85 b8
       -7.2023126e-05 -2.4036319e-05 4.7645826e-05 -6.354986e-05
000010 41 10 36 b8 ad fa c4 38 cb 32 6b 37 bd 79 ea 36
       -4.340732e-05 9.3927e-05 1.4018918e-05 6.9879156e-06
000020 98 b0 50 b6 a2 24 a0 37 33 47 94 37 81 78 b5 b5
       -3.1097206e-06 1.9090545e-05 1.767613e-05 -1.3520622e-06
000030 07 c8 db 34 e6 71 ee 34 1b 3a e3 b3 38 59 f1 35
       4.0937468e-07 4.4413827e-07 -1.05810805e-07 1.7981865e-06
000040 88 e3 8b b5 63 fe 18 b4 00 ce 26 36 a7 6e 83 35
       -1.0422527e-06 -1.4248648e-07 2.4855835e-06 9.792465e-07
000050 00 aa 7b b6 5e 7e 8b b5 2a d4 05 b5 ff 56 01 35
       -3.7500868e-06 -1.0393085e-06 -4.98551e-07 4.818284e-07
000060 95 cd 3a b5 3a 5b f9 b4 6d 05 b3 b3 49 5a 18 34
       -6.958956e-07 -4.644624e-07 -8.336324e-08 1.4188949e-07
000070 d8 e2 d0 34 10 49 42 35 1a 5b 9c b4 12 d7 39 b2
       3.890807e-07 7.237695e-07 -2.912355e-07 -1.0817319e-08
000080 b0 b6 83 35 9d 14 0f b6 dd 2d d9 b5 fe 65 ab 36
       9.81343e-07 -2.132066e-06 -1.6181108e-06 5.1080706e-06
000090 f1 53 99 34 a7 ba 65 35 bc ee 50 b4 fc 31 5e 35
       2.8559546e-07 8.558076e-07 -1.945836e-07 8.277418e-07
0000a0 8a af 50 34 a1 c8 36 b4 81 cb 3e 34 d9 53 33 b5
       1.943537e-07 -1.7023059e-07 1.7769163e-07 -6.680471e-07
0000b0 00 2a 23 34 00 00 00 00 00 00 00 00 00 00 00 00
       1.5195837e-07 0.0 0.0 0.0
0000c0 00 00 00 00 00 00 00 00 00 00 00 00 00 00 00 00
       0.0 0.0 0.0 0.0
0000d0 00 00 00 00 00 00 00 00 00 00 00 00 00 00 00 00
       0.0 0.0 0.0 0.0
0000e0 00 00 00 00 00 00 00 00 00 00 00 00 00 00 00 00
       0.0 0.0 0.0 0.0
0000f0 fb 19 83 b8 18 8f a1 b7 38 f6 21 38 84 95 5e b8
       -6.251406e-05 -1.9259329e-05 3.86147e-05 -5.3068172e-05
000100 17 9f 13 b8 39 45 9d 38 45 a2 4b 37 b8 96 99 36
       -3.5195695e-05 7.499237e-05 1.2137524e-05 4.5773013e-06
000110 2b 7d 33 b6 0f f8 83 37 24 ec 76 37 bd 43 2c b5
       -2.6745936e-06 1.5731928e-05 1.4717723e-05 -6.4173565e-07
000120 d4 67 45 34 3d 62 4d b2 a4 d2 8e b5 00 00 00 00
       1.8384827e-07 -1.1954907e-08 -1.0641129e-06 0.0
000130 00 00 00 00 00 00 00 00 00 00 00 00 00 00 00 00
       0.0 0.0 0.0 0.0
000140 00 00 00 00 00 00 00 00 00 00 00 00 00 00 00 00
       0.0 0.0 0.0 0.0
000150 00 00 00 00 00 00 00 00 00 00 00 00 00 00 00 00
       0.0 0.0 0.0 0.0
000160 00 00 00 00 00 00 00 00 36 b0 a2 b7 f4 08 be b6
       0.0 0.0 -1.939396e-05 -5.6634835e-06
000170 20 e9 3d 37 b3 3f 83 b7 be de 33 b7 09 26 b9 37
       1.13195565e-05 -1.564608e-05 -1.0721093e-05 2.207143e-05
000180 6d c6 82 36 87 87 98 35 fa 66 5e b5 29 27 9f 36
       3.8974017e-06 1.1364326e-06 -8.2851295e-07 4.743128e-06
000190 c3 40 95 36 8e c2 91 b4 9f 39 8e 33 7f 9c 5b 34
       4.4480853e-06 -2.7149912e-07 6.6228715e-08 2.0452897e-07
0001a0 46 67 8f b4 00 00 00 00 00 00 00 00 00 00 00 00
       -2.6710967e-07 0.0 0.0 0.0
0001b0 00 00 00 00 00 00 00 00 00 00 00 00 00 00 00 00
       0.0 0.0 0.0 0.0
0001c0 00 00 00 00 00 00 00 00 00 00 00 00 00 00 00 00
       0.0 0.0 0.0 0.0
0001d0 00 00 00 00 00 00 00 00 00 00 00 00 00 00 00 00
       0.0 0.0 0.0 0.0
0001e0 00 00 00 00 00 00 00 00 00 00 00 00 00 00 00 00
       0.0 0.0 0.0 0.0
0001f0 00 00 00 00 00 00 00 00 00 00 00 00 00 00 00 00
       0.0 0.0 0.0 0.0
000200 00 00 00 00 00 00 00 00 00 00 00 00 00 00 00 00
       0.0 0.0 0.0 0.0
000210 00 00 00 00 00 00 00 00 00 00 00 00 00 00 00 00
       0.0 0.0 0.0 0.0
000220 00 00 00 00 00 00 00 00 00 00 00 00 00 00 00 00
       0.0 0.0 0.0 0.0
000230 00 00 00 00 00 00 00 00 00 00 00 00 00 00 00 00
       0.0 0.0 0.0 0.0
000240 00 00 00 00 00 00 00 00 00 00 00 00 00 00 00 00
       0.0 0.0 0.0 0.0
000250 00 00 00 00 00 00 00 00 f8 56 80 b7 2d b2 a4 b6
       0.0 0.0 -1.5299287e-05 -4.9083233e-06
000260 f9 6e 1f 37 59 0f 57 b7 3e b8 10 b7 c9 b4 99 37
       9.502976e-06 -1.2818572e-05 -8.625966e-06 1.8323206e-05
000270 36 9a 44 36 3d b5 96 35 d9 2e 1e b5 f6 89 82 36
       2.9296039e-06 1.1228618e-06 -5.892776e-07 3.8903627e-06
000280 c2 21 6c 36 65 5a 3c b4 f7 1b 04 34 c0 8d 1e b5
       3.518639e-06 -1.754175e-07 1.2303632e-07 -5.906586e-07
000290 fc 3e 9d b4 00 00 00 00 00 00 00 00 00 00 00 00
       -2.9289356e-07 0.0 0.0 0.0
0002a0 00 00 00 00 00 00 00 00 00 00 00 00 00 00 00 00
       0.0 0.0 0.0 0.0
0002b0 00 00 00 00 00 00 00 00 00 00 00 00 00 00 00 00
       0.0 0.0 0.0 0.0
0002c0 00 00 00 00 00 00 00 00 00 00 00 00 00 00 00 00
       0.0 0.0 0.0 0.0
0002d0 00 00 00 00 00 00 00 00 00 00 00 00 00 00 00 00
       0.0 0.0 0.0 0.0
0002e0 00 00 00 00 00 00 00 00 00 00 00 00 00 00 00 00
       0.0 0.0 0.0 0.0
0002f0 00 00 00 00 00 00 00 00 00 00 00 00 00 00 00 00
       0.0 0.0 0.0 0.0
000300 00 00 00 00 00 00 00 00 00 00 00 00 00 00 00 00
       0.0 0.0 0.0 0.0
000310 00 00 00 00 00 00 00 00 00 00 00 00 00 00 00 00
       0.0 0.0 0.0 0.0
000320 00 00 00 00 00 00 00 00 00 00 00 00 00 00 00 00
       0.0 0.0 0.0 0.0
000330 00 00 00 00 00 00 00 00 00 00 00 00 00 00 00 00
       0.0 0.0 0.0 0.0
000340 00 00 00 00 00 00 00 00 01 9b bc 37 63 57 e6 36
       0.0 0.0 2.2483526e-05 6.8647073e-06
000350 14 bc 6c b7 2e 9d a4 37 46 ea 5b 37 f5 8f ee b7
       -1.41104865e-05 1.9623516e-05 1.3107963e-05 -2.8438846e-05
000360 5e f4 96 b6 6c 40 02 b6 08 e8 87 35 50 8b c3 b6
       -4.4987964e-06 -1.9409008e-06 1.0125814e-06 -5.827671e-06
000370 8e 7e b7 b6 cd 2a 9d 34 b0 bc c8 b3 d3 1d f9 34
       -5.468558e-06 2.927467e-07 -9.347548e-08 4.6401564e-07
000380 54 ac 3a 35 00 00 00 00 00 00 00 00 00 00 00 00
       6.954117e-07 0.0 0.0 0.0
000390 00 00 00 00 00 00 00 00 00 00 00 00 00 00 00 00
       0.0 0.0 0.0 0.0
0003a0 00 00 00 00 00 00 00 00 00 00 00 00 00 00 00 00
       0.0 0.0 0.0 0.0
0003b0 00 00 00 00 00 00 00 00 00 00 00 00 00 00 00 00
       0.0 0.0 0.0 0.0
0003c0 0c d9 64 36 bb 8a 1e 35 3f 4d d9 b5 26 87 36 36
       3.4100985e-06 5.9061466e-07 -1.6190241e-06 2.719878e-06
0003d0 fa a2 b5 35 3b cb 52 b6 13 4a 47 b5 42 64 b4 b3
       1.3532983e-06 -3.1410734e-06 -7.424107e-07 -8.40014e-08
0003e0 4c 19 81 34 54 98 4c b5 03 9b 35 b5 ec aa a5 b3
       2.4046528e-07 -7.621759e-07 -6.7653326e-07 -7.714502e-08
0003f0 e0 35 52 33 f7 7f 3c 34 9c e3 a4 b3 6a 7b ff 36
       4.8943434e-08 1.7555418e-07 -7.678247e-08 7.6139595e-06
