robot_state_berkeley_training/robot_state_epoch_12.pth (torch, 838065 bytes, 24 tensors)

policy_network.0.weight f4 [128, 15]
-0.06290635 -0.03383783 0.23244952 0.120731354 0.106225595 0.011928115 0.11950263 -0.08047135
0.17896047 0.21286692 -0.12637211 0.5422586 0.1324455 0.28554142 0.33264157 0.10953143
0.15319647 -0.11261432 -0.17806724 -0.055720735 0.118084766 0.09928239 -0.091641866 -0.4375628
-0.042282175 -0.13395658 0.10372422 -0.25470123 0.23468442 0.029461794 0.006656776 -0.07111496
-0.2274274 0.053977303 -0.03799093 0.14325324 0.18695842 0.25997505 0.23008823 -0.14214127
0.25635606 -0.12368276 -0.09708477 0.18448459 -0.20445643 0.19315524 -0.129924 -0.051801074
-0.0955226 -0.12936701 -0.18899918 0.008251854 0.18019748 0.23414199 -0.05951995 -0.061612107
0.14260837 -0.06521142 0.070706494 -0.006390821 0.07223452 -0.01747042 0.19040711 -0.22593535
-0.0061046793 -0.2664216 0.065423414 -0.0606892 -0.19427593 0.08926485 -0.10817235 0.5413151
-0.31729302 0.3155888 0.3305277 0.015704544 0.07467951 0.013595396 -0.113071315 0.051129248
-0.08273961 -0.1920192 -0.19081734 0.23896115 -0.013201416 -0.14713082 0.10875113 -0.22920376
-0.25111547 -0.20342153 -0.051471196 0.28661135 0.09344463 0.20391834 -0.12802736 0.105188385
-0.20088115 -0.2617441 0.13115025 -0.017026447 -0.1420175 0.034003247 -0.19674502 0.009207376
0.08897378 0.044976015 -0.0057647005 -0.21142513 0.16290526 0.1964123 0.1586797 0.10307588
0.05507028 -0.09803983 0.116359726 -0.085960425 0.03188282 -0.15432917 -0.15054837 -0.17595616
-0.04227414 0.1530953 -0.20465507 0.1159739 0.22439907 -0.2231207 0.16480778 -0.19009045
0.18847454 -0.17246756 0.092211016 0.2501889 0.05080775 -0.14482874 -0.0853781 -0.10772626
-0.18271233 -0.21741275 0.25390825 -0.10747316 -0.11422684 0.2544008 0.16400732 0.24244718
0.1574675 -0.09919246 0.091738485 0.20060968 0.1605435 -0.20682096 -0.20986982 0.035020918
-0.14529245 -0.09426923 -0.17357102 -0.13297702 -0.19945079 -0.10370802 -0.25467116 0.018322103
-0.23303258 -0.1230582 0.006396214 0.22283389 -0.03965759 0.23025969 0.05353308 0.13833976
0.039805546 -0.09473166 -0.20264322 -0.0035206443 -0.1534465 -0.23725991 0.1148577 0.0140651865
0.25002608 0.17831902 -0.129484 0.14641094 0.20424646 -0.16721047 -0.23049106 0.197429
-0.15720916 0.10646109 -0.23418546 -0.060773235 -0.00012795124 -0.1905936 0.17176156 -0.010243825
0.22083673 0.18517752 -0.049756225 0.24931498 0.064499244 0.20261289 0.19364126 0.13346875
-0.17058301 0.17003596 -0.25364053 -0.1394084 -0.17917387 -0.13276279 0.23354976 0.0046323766
-0.05645235 0.25230592 -0.17990768 -0.19669981 -0.29549634 -0.09718325 -0.10133574 0.046692345
0.026922774 0.22309385 0.41482252 -0.31242493 -0.31707218 -0.31777427 0.2767855 -0.083116606
0.06772906 -0.06132607 0.17647141 -0.24045664 0.16447444 0.20417853 -0.014144445 -0.14442588
-0.118929155 -0.048185106 0.09821773 0.11078675 -0.20685741 -0.1921759 0.08981235 -0.1326011
-0.17418422 0.29269204 0.15235342 0.12653495 0.22772679 0.12996241 -0.11346445 0.016647281
0.18902645 -0.24989326 -0.111075096 -0.16353485 -0.13258837 -0.3643715 -0.30479488 -0.050509095
00000000: 0bd5 80bd 8999 0abd 3f07 6e3e 0042 f73d
00000010: ce8c d93d 246e 433c cbbd f43d 2ace a4bd
00000020: 6a41 373e c9f9 593e b167 01be 76d1 0a3f
00000030: cb9f 073e 7c32 923e ff4f aa3e 0452 e03d
00000040: 89df 1c3e 56a2 e6bd 4257 36be 6d3b 64bd
00000050: 6dd6 f13d 9154 cb3d bbae bbbd 3b08 e0be
00000060: 1330 2dbd ea2b 09be 5d6d d43d 3368 82be
00000070: 1d51 703e dc59 f13c 1621 da3b b8a4 91bd
00000080: bae2 68be 4e17 5d3d 619c 1bbd fab0 123e
00000090: 0772 3f3e 731b 853e 409c 6b3e 7b8d 11be
000000a0: 1a41 833e 634d fdbd 61d4 c6bd 87e9 3c3e
000000b0: 075d 51be 7dca 453e cc0a 05be 5d2d 54bd
000000c0: 5aa1 c3bd c978 04be 0089 41be c932 073c
000000d0: b085 383e ebc2 6f3e 31cb 73bd fa5c 7cbd
000000e0: ee07 123e 918d 85bd 91ce 903d 186a d1bb
000000f0: b1ef 933d 201e 8fbc 15fa 423e 995b 67be
00000100: c309 c8bb 6968 88be b6fc 853d 3d95 78bd
00000110: 45f0 46be 7dd0 b63d 7789 ddbd a093 0a3f
00000120: 3b74 a2be db94 a13e ed3a a93e d1a6 803c
00000130: 92f1 983d 39bf 5e3c ef91 e7bd e76c 513d
00000140: 6273 a9bd aea0 44be 9f65 43be 3bb2 743e
00000150: c04a 58bc 76a9 16be eab8 de3d 64b4 6abe
00000160: 3592 80be bc4d 50be 76d3 52bd b9be 923e
00000170: e65f bf3d f8cf 503e 9b19 03be 026d d73d
00000180: cab3 4dbe 5303 86be 404c 063e 0c7b 8bbc
00000190: 096d 11be fd46 0b3d 8777 49be 89da 163c
000001a0: e337 b63d c538 383d d0e5 bcbb d47f 58be
000001b0: a3d0 263e 4e20 493e ee7c 223e 7219 d33d
000001c0: 6091 613d 1bc9 c8bd 024e ee3d 050c b0bd
000001d0: 8f97 023d 7708 1ebe 5a29 1abe da2d 34be
000001e0: a627 2dbd 04c5 1c3e 1991 51be b983 ed3d
000001f0: dfc8 653e c179 64be 5fc3 283e 12a7 42be
00000200: 78ff 403e 569b 30be 21d9 bc3d c218 803e
00000210: ca1b 503d fc4d 14be b7da aebd 969f dcbd
00000220: f118 3bbe 73a1 5ebe 4300 823e e31a dcbd
00000230: c3ef e9bd d240 823e 89f1 273e 1344 783e
00000240: 293f 213e 6b25 cbbd 63e1 bb3d a06c 4d3e
00000250: 8465 243e e0c8 53be 1de8 56be 1872 0f3d
00000260: 8bc7 14be 3a10 c1bd 9abc 31be 212b 08be
00000270: d43c 4cbe df64 d4bd 4264 82be 3c18 963c
00000280: 18a0 6ebe f005 fcbd 5597 d13b 912e 643e
00000290: ff6f 22bd 32c9 6b3e 8145 5b3d f0a8 0d3e
000002a0: 240b 233d ac02 c2bd b481 4fbe 9cba 66bb
000002b0: 1421 1dbe 43f4 72be 843a eb3d ab71 663c
000002c0: 6b03 803e 4399 363e 7497 04be c0ec 153e
000002d0: fc25 513e 3939 2bbe d905 6cbe d42a 4a3e
000002e0: 70fb 20be 4608 da3d 50ce 6fbe 5bed 78bd
000002f0: a62a 06b9 f82a 43be 43e2 2f3e b7d5 27bc
00000300: 0623 623e 2d9f 3d3e 2fcd 4bbd 6d4c 7f3e
00000310: 2e18 843d c179 4f3e e549 463e 08ac 083e
00000320: 50ad 2ebe e81d 2e3e 2cdd 81be 13c1 0ebe
00000330: 5b79 37be f8f2 07be ab27 6f3e 31cb 973b
00000340: 943a 67bd 3e2e 813e b839 38be ad6b 49be
00000350: 4c4b 97be 0308 c7bd 1d89 cfbd 7940 3f3d
00000360: 268d dc3c b772 643e 9e63 d43e 29f6 9fbe
00000370: 4957 a2be 4fb3 a2be d4b6 8d3e 0a39 aabd
00000380: 89b5 8a3d 0c31 7bbd ecb4 343e 443a 76be
00000390: fd6b 283e 2d14 513e 1abe 67bc 61e4 13be
000003a0: 2191 f3bd bf5d 45bd 6126 c93d 2ae4 e23d
000003b0: 6ed2 53be c2c9 44be 8aef b73d 95c8 07be
000003c0: 595d 32be bbdb 953e 8902 1c3e 6192 013e
000003d0: 3631 693e de14 053e 0d60 e8bd e15f 883c
000003e0: 2690 413e 05e4 7fbe 577b e3bd ae75 27be
000003f0: 3fc5 07be e78e babe 130e 9cbe a0e2 4ebd

policy_network.0.bias f4 [128]
-0.2398056 0.15061626 -0.06445234 0.0045538573 0.06608304 -0.0918938 0.11221291 0.08099252
0.19977744 0.037817147 -0.09767793 0.10035677 0.17702726 0.1725037 -0.10515036 0.24832934
0.12735575 -0.1828837 0.004354965 -0.08869915 0.19034189 -0.10599121 -0.17523617 -0.25165844
0.15715723 -0.20324774 0.097759545 -0.25218323 -0.21678807 0.036360405 0.05120487 0.12554741
-0.22530846 -0.026552385 -0.25414023 -0.19169949 -0.17421542 0.095518254 -0.28451866 0.017997876
0.08067896 -0.0141300475 0.04412717 0.1777713 -0.03137166 -0.16256832 -0.054229442 0.0022790637
-0.18883546 -0.13331866 0.05818053 -0.12963697 -0.17278501 0.17652777 0.044309355 0.15301672
-0.1290925 -0.15103407 0.18590543 -0.024975177 -0.2208689 -0.2345781 -0.088514246 0.13960555
0.16989997 0.11097946 0.049093753 0.12764151 -0.08924731 -0.13643579 -0.14680277 -0.029421976
-0.1321526 0.23697637 -0.096312374 -0.25328445 -0.13808286 0.106434464 -0.23063251 -0.06799268
0.2301419 -0.124657 0.08017334 0.163865 -0.05570511 0.038387094 -0.049867216 -0.028313236
0.048941575 0.16368382 -0.17107752 0.24428289 -0.25062707 -0.02709909 -0.13389239 -0.03435365
0.103214264 0.0567057 0.13492884 -0.17845328 0.024688432 -0.27393845 0.22687475 -0.050790504
-0.23207639 0.06898037 -0.20468237 0.06778052 -0.18064232 0.14768508 0.08241342 -0.119036295
-0.21205668 -0.28178075 0.20736994 -0.04330888 0.22340205 -0.079878554 -0.08452372 0.0786137
-0.19027832 0.03128037 0.13526835 -0.13069293 0.16487397 -0.016181968 -0.13318834 -0.18074659
00000000: 998f 75be 263b 1a3e 97ff 83bd 8638 953b
00000010: 8b56 873d d132 bcbd e2cf e53d 68df a53d
00000020: 7592 4c3e 27e6 1a3d 5e0b c8bd da87 cd3d
00000030: a246 353e cfa4 303e 1259 d7bd 0c4a 7e3e
00000040: 8c69 023e dd45 3bbe 18b4 8e3b e6a7 b5bd
00000050: fce8 423e eb11 d9bd 1c71 33be 60d9 80be
00000060: d3ed 203e 2d20 50be 2836 c83d 291e 81be
00000070: b1fd 5dbe a6ee 143d 33bc 513d 808f 003e
00000080: 43b7 66be 6384 d9bc ab1e 82be df4c 44be
00000090: 8765 32be 139f c33d 6eac 91be 4870 933c
000000a0: 033b a53d b781 67bc b1be 343d ae09 363e
000000b0: 927f 00bd 4f78 26be b11f 5ebd 585c 153b
000000c0: 155e 41be b084 08be b54e 6e3d 8ebf 04be
000000d0: 8eee 30be b2c3 343e ba7d 353d 6ab0 1c3e
000000e0: d330 04be ada8 1abe fe5d 3e3e be98 ccbc
000000f0: 752b 62be 3e35 70be f546 b5bd c2f4 0e3e
00000100: 42fa 2d3e 3349 e33d 8816 493d 75b4 023e
00000110: 4bc7 b6bd d3b5 0bbe 7753 16be 5b06 f1bc
00000120: 0353 07be efa9 723e 6c3f c5bd 80ae 81be
00000130: 9865 0dbe 50fa d93d ee2a 6cbe bf3f 8bbd
00000140: 51aa 6b3e 2b4c ffbd ec31 a43d 3acc 273e
00000150: 0b2b 64bd c93b 1d3d 9141 4cbd 29f1 e7bc
00000160: f676 483d bb9c 273e f22e 2fbe 4b25 7a3e
00000170: 3152 80be e9fe ddbc 161b 09be 6ab6 0cbd
00000180: 0062 d33d 3c44 683d c92a 0a3e 75bc 36be
00000190: 653f ca3c a941 8cbe db51 683e b409 50bd
000001a0: 6fa5 6dbe 9545 8d3d 4198 51be 83d0 8a3d
000001b0: 4dfa 38be c23a 173e 5ec8 a83d 4dc9 f3bd
000001c0: 6325 59be 9145 90be c958 543e a764 31bd
000001d0: 82c3 643e 5e97 a3bd c61a adbd 3800 a13d
000001e0: 52d8 42be d81f 003d c983 0a3e 5ed4 05be
000001f0: b9d4 283e 0c90 84bc 8662 08be a215 39be

policy_network.3.weight f4 [256, 128]
-0.036196414 -0.049346976 -0.016479062 -0.08609866 -0.102084525 0.07232673 -0.09247418 0.07096093
-0.022822117 -0.03048314 -0.09062594 -0.07878769 0.0014612839 -0.0627836 0.038067754 0.07312078
0.048000235 -0.08218816 0.06311492 0.026886363 0.034234274 -0.08088134 -0.00040364292 0.07120637
0.014036087 -0.036529277 0.067901224 -0.047833413 -0.021664787 -0.06107271 -0.02506474 -0.0037883634
0.016306216 0.056147635 0.052156955 -0.08043166 -0.00014072932 -0.029669443 0.07715892 -0.061002206
-0.033658758 0.04995473 -0.03408717 -0.08088621 -0.022744335 0.055849925 -0.021042097 -0.037315886
-0.06939235 0.022720385 -0.06937586 0.015001286 -0.05680094 0.057158776 0.01708552 -0.014511023
-0.088197745 -0.07019301 -0.054359596 -0.06235521 -0.057147395 0.014333424 -0.0181662 -0.0015049084
0.043947782 -0.003448028 0.04622106 0.03789611 -0.07372014 -0.0065028854 0.051511794 -0.053126603
-0.006954219 0.011029493 -0.08141438 0.018415812 -0.04406787 -0.01837456 0.026587011 0.04318341
-0.051274624 -0.091730505 0.02207853 -0.03774364 0.03488619 0.08195857 0.053153027 -0.030069362
0.005059411 -0.03096688 -0.01005137 -0.08235655 -0.08313148 -0.087052844 -0.07405003 0.045358684
0.009927655 0.025449762 -0.06287828 0.019930677 -0.08683639 0.030047646 -0.056245472 0.050765608
-0.015334004 0.065896995 0.013235196 0.047172375 0.023025336 0.06029421 0.0018041718 0.079554886
0.008559586 -0.016353784 -0.00043198824 -0.042306572 -0.009761231 -0.0051880637 -0.055763166 -0.0049063307
-0.0117974505 -0.04860719 -0.07313071 -0.121328674 0.015808605 -0.061068084 -0.029805576 -0.04523145
-0.06078343 0.040760946 0.036644716 -0.07453118 0.047231704 -0.029024921 0.037438784 0.05467227
0.012061416 -0.070771776 -0.0434868 -0.076944605 0.03053044 0.06314726 0.08462473 -0.0024271947
-0.0116428975 -0.048774887 0.12605803 -0.015000884 0.0058735427 -0.06733466 -0.0518671 -0.04602483
0.0323715 0.008898639 -0.041448537 -0.054072414 0.030840276 -0.026593111 -0.016063387 0.0563656
0.038432963 0.067273594 0.071479656 -0.07591741 -0.043847173 0.033657394 -0.060605723 -0.036487665
0.061934445 -0.048426915 0.00040487316 -0.03784318 -0.05184273 -0.02567568 -0.08165097 0.05605712
0.08348682 -0.04617913 -0.07349677 -0.06788733 -0.023915535 0.012752477 0.012774174 0.045114946
-0.0019254877 -0.008487079 0.036736265 -0.07249232 0.07158652 0.0012655687 -0.0656485 0.030774709
-0.050056025 0.017884566 0.028607152 -0.08453177 -0.0008852343 0.07192018 0.08405361 0.06354068
0.050047673 0.05609579 -0.017595014 -0.074718334 0.08161724 0.044552807 -0.0056105983 0.053667005
0.04905872 0.067089364 0.038739245 0.06001844 -0.08657986 -0.061881423 -0.007031655 -0.06486941
0.035290226 0.07279597 0.031372502 0.011951282 -0.03224196 0.03944235 -0.07904049 -0.04716528
0.044578142 -0.06319841 0.03291952 -0.089024015 -0.0011469843 -0.07984109 -0.075951874 0.07152002
-0.087021746 0.04530127 0.07289449 -0.0008702481 0.08422769 0.037438035 0.068791576 0.06589618
-0.08138587 0.01869784 -0.02510159 0.022338104 0.043334577 -0.08510763 0.03708125 -0.051810693
0.053864904 0.0657185 -0.07276274 -0.1310623 -0.012224032 0.009568472 0.07951181 -0.061738726
00000000: b142 14bd 0e20 4abd 19ff 86bc 7f54 b0bd
00000010: b111 d1bd 0920 943d 1a63 bdbd f753 913d
00000020: 73f5 babc c7b7 f9bc 189a b9bd 715b a1bd
00000030: 8d88 bf3a b094 80bd efec 1b3d 59c0 953d
00000040: e59b 443d 4452 a8bd 6542 813d ca40 dc3c
00000050: 3d39 0c3d 1ea5 a5bd 09a0 d3b9 a5d4 913d
00000060: 9ef7 653c b99f 15bd cc0f 8b3d f8ec 43bd
00000070: 5a7a b1bc 6127 7abd 9254 cdbc 3146 78bb
00000080: 9d94 853c 10fb 653d 88a2 553d 5bb9 a4bd
00000090: bd90 13b9 550d f3bc 7f05 9e3d 73dd 79bd
000000a0: c4dd 09bd 559d 4c3d fd9e 0bbd aba7 a5bd
000000b0: 5452 babc e4c2 643d 7a60 acbc 8bd8 18bd
000000c0: 941d 8ebd 1a20 ba3c ee14 8ebd f4c7 753c
000000d0: 1aa8 68bd 521f 6a3d eff6 8b3c a4bf 6dbc
000000e0: 05a1 b4bd 5ac1 8fbd 2ba8 5ebd 2d68 7fbd
000000f0: 6313 6abd bdd6 6a3c 48d1 94bc 5940 c5ba
00000100: 9702 343d 4ff8 61bb 4b52 3d3d f438 1b3d
00000110: 96fa 96bd 2816 d5bb 08fe 523d 489b 59bd
00000120: 38e0 e3bb 0cb5 343c 95bc a6bd c2dc 963c
00000130: 8380 34bd 3f86 96bc 01cd d93c 16e1 303d
00000140: 5705 52bd 34dd bbbd 09de b43c 1399 1abd
00000150: d2e4 0e3d e5d9 a73d fdb6 593d 0654 f6bc
00000160: 6ac9 a53b 41ae fdbc 80ae 24bc 8daa a8bd
00000170: d640 aabd c348 b2bd 8ba7 97bd 07ca 393d
00000180: 9aa7 223c 057c d03c 54c6 80bd a945 a33c
00000190: 47d7 b1bd 7b26 f63c a761 66bd 99ef 4f3d
000001a0: 793b 7bbc 01f5 863d 6fd8 583c d237 413d
000001b0: a19f bc3c 10f7 763d f679 ec3a aced a23d
000001c0: 813d 0c3c 5ff8 85bc 7b7c e2b9 a849 2dbd
000001d0: 92ed 1fbc a200 aabb eb67 64bd 49c5 a0bb
000001e0: 184a 41bc 5518 47bd 8ec5 95bd 2b7b f8bd
000001f0: 0c81 813c 8722 7abd d32a f4bc 9d44 39bd
00000200: 0cf8 78bd f3f4 263d c518 163d cea3 98bd
00000210: 0876 413d acc5 edbc 6959 193d 08f0 5f3d
00000220: 3f9d 453c cbf0 90bd 371f 32bd 2295 9dbd
00000230: f91a fa3c 5a53 813d bb4f ad3d 9211 1fbb
00000240: dac1 3ebc 2dc8 47bd 5b15 013e 45c6 75bc
00000250: d976 c03b c1e6 89bd 9972 54bd 8884 3cbd
00000260: fa97 043d 99cb 113c f1c5 29bd 097b 5dbd
00000270: bfa4 fc3c ccd9 d9bc 5d97 83bc 9edf 663d
00000280: e26b 1d3d bdc6 893d ed63 923d 967a 9bbd
00000290: 1899 33bd 56dc 093d b53d 78bd 1774 15bd
000002a0: f9ae 7d3d 4d5b 46bd 2845 d439 7301 1bbd
000002b0: 0b59 54bd ce55 d2bc a038 a7bd 279c 653d
000002c0: 23fb aa3d 5426 3dbd 7985 96bd 8308 8bbd
000002d0: 83ea c3bc c4ef 503c c54a 513c 73ca 383d
000002e0: a560 fcba 640d 0bbc c478 163d da76 94bd
000002f0: f49b 923d 70e1 a53a b972 86bd 3e1b fc3c
00000300: 8c07 4dbd a782 923c 8c59 ea3c fe1e adbd
00000310: 110f 68ba e34a 933d 4d24 ac3d 9e21 823d
00000320: cafe 4c3d b3c4 653d 6b23 90bc ed05 99bd
00000330: f126 a73d 017d 363d 1cd9 b7bb efd1 5b3d
00000340: ccf1 483d 2666 893d 0bad 1e3d e5d5 753d
00000350: c850 b1bd 6077 7dbd cc69 e6bb 41da 84bd
00000360: 7c8c 103d 0e16 953d 7480 003d 4fcf 433c
00000370: 2510 04bd 4d8e 213d fbdf a1bd 6130 41bd
00000380: 9297 363d 2b6e 81bd 9ed6 063d 3952 b6bd
00000390: 6856 96ba ba83 a3bd a88c 9bbd 1779 923d
000003a0: 7538 b2bd d38d 393d b549 953d 5d21 64ba
000003b0: 917f ac3d a058 193d 99e2 8c3d 94f4 863d
000003c0: a3ad a6bd 362c 993c daa1 cdbc 66fe b63c
000003d0: 997f 313d e94c aebd 82e2 173d 7337 54bd
000003e0: 72a1 5c3d 6c97 863d a204 95bd 3235 06be
000003f0: 4e47 48bc 15c5 1c3c 16d7 a23d bfe1 7cbd

policy_network.3.bias f4 [256]
-0.032943152 0.028229779 0.059489865 -0.088759944 -0.0066506746 -0.09936417 -0.09476312 0.0656254
0.042205337 -0.06815749 0.067092456 -0.010849441 0.0049076905 0.03325993 0.075912185 0.023569006
0.04431797 -0.060439497 -0.0035964935 0.05329419 -0.02383831 -0.030467102 0.0067950552 -0.010913338
-0.05454758 -0.07377382 -0.03761892 -0.04282762 -0.06340076 0.028350933 0.030495752 0.046220563
-0.07332029 -0.09154607 -0.022782046 0.00089799165 0.05533284 -0.005462837 0.060095247 -0.033689607
-0.0074795936 0.07044441 -0.08629166 0.021460908 -0.035666298 -0.068870775 -0.03292171 0.020981107
0.035576276 -0.03787941 0.037201177 0.009291719 0.047091626 0.061719052 0.043797318 -0.07642974
-0.077990025 0.05089076 -0.08769928 -0.05308624 0.023759924 -0.0063915625 -0.080671646 0.05262689
-0.075053714 -0.0046340823 -0.037841156 -0.08762414 0.04137115 0.035860565 0.04360432 -0.03289855
0.046378024 0.06523606 0.063817024 -0.0641502 -0.03441779 -0.018555697 0.016977735 0.05457685
0.0075519076 0.030477002 0.060240474 0.012838323 0.013178506 -0.025611445 -0.06583472 -0.10255573
-0.04914193 0.028445898 -0.060115445 -0.065450534 -0.05300391 0.029523147 0.004300059 -0.021002678
-0.0091797635 -0.019182503 -0.019409537 -0.023657149 -0.063945234 0.022559967 -0.048894465 0.0631793
0.0042891237 0.09280597 -0.071327075 0.05094889 0.00512189 0.06300966 0.051614754 0.07329645
0.06472008 -0.08041957 -0.0993827 0.005048048 0.0328044 0.028557714 0.057425503 -0.100674845
-0.0057077347 0.028387344 0.006987352 -0.09811777 0.060453795 -0.011626239 -0.03515448 -0.06804827
0.02741096 -0.051590193 -0.033692 -0.018694803 -0.06258687 -0.044054147 0.045819174 -0.045238655
-0.052565783 -0.05332047 0.07094911 -0.074076876 0.05604889 0.01449485 -0.05444901 -0.00015407073
0.01060354 -0.0057019168 -0.02177554 -0.04533727 -0.079675116 -0.0010929777 0.061116263 -0.08306495
0.052896135 -0.06397292 0.0436538 0.021061117 0.061963715 -0.05605656 0.07318292 0.026604269
0.064486034 0.040799238 -0.01683897 -0.07008009 -0.0652523 -0.03630346 -0.056200646 -0.031842105
-0.0017222514 -0.051455207 0.031316694 0.027799567 -0.00039186954 0.05017024 -0.08460007 0.05413718
0.016502747 -0.083482444 0.028373089 -0.08820759 -0.0015795266 -0.080512494 -0.007490261 -0.08437999
0.013463789 -0.058935817 0.06610109 -0.0866257 0.032307606 0.051473755 0.0051926686 0.025346149
0.034789093 -0.070119135 -0.056722414 0.030127557 -0.035490938 -0.062338203 0.004995825 0.088947
-0.09532461 -0.06516365 -0.08726143 0.030617846 -0.008153927 -0.019132337 -0.08910991 0.007807354
-0.05060206 -0.086259626 -0.05108555 -0.06445016 0.05646082 0.07562922 -0.031110587 -0.10066804
0.008302657 -0.04959265 -0.03373454 -0.10269413 -0.07533179 0.03851527 0.051090617 0.039230663
-0.032907896 -0.09728301 0.052909505 0.07913037 0.0096355425 -0.011231018 -0.0670208 0.034879357
0.035753272 -0.08933228 -0.016949689 -0.097277276 0.009916759 -0.02350011 0.012956389 -0.041119162
-0.033517726 0.025659451 0.05777808 0.053416427 -0.02625743 -0.0734808 0.099128336 -0.00974101
0.046513725 0.049996946 -0.03679869 -0.014922818 0.04646466 -0.06871683 0.004315539 -0.015956746
00000000: 66ef 06bd 2342 e73c a5ab 733d c6c7 b5bd
00000010: e7ed d9bb 717f cbbd 2b13 c2bd 9c66 863d
00000020: 81df 2c3d 2796 8bbd c567 893d dbc1 31bc
00000030: b1d0 a03b 903b 083d d977 9b3d ca13 c13c
00000040: c286 353d 688f 77bd 26b3 6bbb 024b 5a3d
00000050: 8f48 c3bc 2596 f9bc 0ea9 de3b dbcd 32bc
00000060: 496d 5fbd bb16 97bd 4c16 1abd 046c 2fbd
00000070: 42d8 81bd 3740 e83c 3ad2 f93c c651 3d3d
00000080: f328 96bd 827c bbbd 6aa1 babc 3367 6b3a
00000090: b0a4 623d 9901 b3bb 6f26 763d 1dfe 09bd
000000a0: 6117 f5bb 2945 903d afb9 b0bd c9ce af3c
000000b0: d316 12bd 1f0c 8dbd ead8 06bd 92e0 ab3c
000000c0: 6eb8 113d 7127 1bbd 4360 183d 4b3c 183c
000000d0: 26e3 403d 1ecd 7c3d d164 333d 3287 9cbd
000000e0: 3cb9 9fbd d472 503d ae9b b3bd f570 59bd
000000f0: 2ca4 c23c 5070 d1bb 2d37 a5bd 4b8f 573d
00000100: c3b5 99bd 80d9 97bb 54ff 1abd 4974 b3bd
00000110: cc74 293d 87e2 123d 729a 323d a1c0 06bd
00000120: e2f6 3d3d 7c9a 853d 80b2 823d 2e61 83bd
00000130: abf9 0cbd 1e02 98bc e414 8b3c fa8b 5f3d
00000140: fe75 f73b e8aa f93c b7be 763d d457 523c
00000150: a9ea 573c 18cf d1bc 5bd4 86bd bd08 d2bd
00000160: 0c49 49bd 5f07 e93c 9d3b 76bd ee0a 86bd
00000170: a11a 59bd 87da f13c 82e7 8c3b cf0d acbc
00000180: b866 16bc a024 9dbc c000 9fbc a3cc c1bc
00000190: b8f5 82bd aecf b83c 9045 48bd 2664 813d
000001a0: c78b 8c3b 0e11 be3d ee13 92bd c9af 503d
000001b0: 87d5 a73b 350b 813d fe69 533d 731c 963d
000001c0: f68b 843d 04b3 a4bd 2889 cbbd 196a a53b
000001d0: e85d 063d def1 e93c 0137 6b3d 9d2e cebd
000001e0: f307 bbbb 938c e83c 28f6 e43b f8f1 c8bd
000001f0: 669e 773d fb7b 3ebc 25fe 0fbd e45c 8bbd
00000200: f38c e03c 3d50 53bd 9f00 0abd d825 99bc
00000210: 8b2d 80bd 1f72 34bd e3ac 3b3d 2b4c 39bd
00000220: 384f 57bd 9166 5abd c44d 913d 9eb5 97bd
00000230: 8593 653d cf7b 6d3c ed05 5fbd 0c8e 21b9
00000240: 78ba 2d3c 25d7 babb 9e62 b2bc 93b3 39bd
00000250: b52c a3bd 3f42 8fba 0c55 7a3d f51d aabd
00000260: 9ea9 583d 3c04 83bd 54ce 323d 5d88 ac3c
00000270: aacd 7d3d 909b 65bd ede0 953d 32f1 d93c
00000280: 4111 843d 1a1d 273d e1f1 89bc 2686 8fbd
00000290: ffa2 85bd f0b2 14bd a632 66bd de6c 02bd
000002a0: 2bbd e1ba b2c2 52bd ef45 003d ebbb e33c
000002b0: d773 cdb9 4f7f 4d3d cd42 adbd f3be 5d3d
000002c0: c530 873c d8f8 aabd ae6e e83c 2ea6 b4bd
000002d0: 1e08 cfba bce3 a4bd dd70 f5bb 6bcf acbd
000002e0: 3997 5c3c af66 71bd 0260 873d d168 b1bd
000002f0: fb54 043d 25d6 523d 4327 aa3b baa2 cf3c
00000300: 027f 0e3d 9f9a 8fbd c355 68bd 11ce f63c
00000310: f25e 11bd 5856 7fbd 04b4 a33b d829 b63d
00000320: 8d39 c3bd 8574 85bd 1fb6 b2bd 47d2 fa3c
00000330: 0c98 05bc 6bbb 9cbc 427f b6bd d5d4 ff3b
00000340: 1b44 4fbd e3a8 b0bd 153f 51bd 72fe 83bd
00000350: 7643 673d 7ee3 9a3d a1db febc 0c2b cebd
00000360: de07 083c aa21 4bbd 3b2d 0abd 4d51 d2bd
00000370: 8e47 9abd 30c2 1d3d 6544 513d 55b0 203d
00000380: 6eca 06bd 513c c7bd a3b7 583d 1a0f a23d
00000390: 65de 1d3c 4e02 38bc 3442 89bd a8dd 0e3d
000003a0: 0672 123d d8f3 b6bd 13da 8abc 4f39 c7bd
000003b0: e779 223c 4d83 c0bc 0947 543c 916c 28bd
000003c0: e249 09bd c533 d23c b5a8 6c3d 2fcb 5a3d
000003d0: d219 d7bc 1a7d 96bd cc03 cb3d c298 1fbc
000003e0: 2d85 3e3d 99c9 4c3d 39ba 16bd d67e 74bc
000003f0: ba51 3e3d 69bb 8cbd 5d69 8d3b b9b7 82bc

policy_network.6.weight f4 [128, 256]
0.013395391 -0.048203684 0.1067268 0.013816897 -0.05321012 -0.033493835 0.07220559 -0.0005389062
-0.081566304 0.020022353 0.07874094 0.05034902 -0.0843387 0.062083893 0.071801804 0.072826
0.025685513 0.0038959086 0.042710733 0.039331436 -0.050332107 0.007982301 -0.08253397 -0.008955263
0.0066229836 -0.0058840364 -0.09905358 0.061900064 -0.031237962 0.039268523 -0.037190527 -0.07828084
0.017516172 0.06586187 0.003375033 0.0134689985 -0.05408839 -0.06549754 -0.005768181 -0.050684784
-0.035935596 -0.054818105 0.033335358 -0.008024081 -0.011187263 0.0361659 0.0055982172 0.05893891
0.068820655 -0.027457481 0.017365318 0.116219506 -0.015662998 -0.013377758 0.012446722 -0.0057623773
-0.008022748 0.06818874 -0.018959664 -0.000755121 -0.02802697 0.053675488 -0.018158305 -0.01895747
0.02612695 -0.004967892 0.03732292 0.09299661 0.08198275 0.062039245 0.04068914 0.0045485003
0.009131492 -0.014742084 0.007650788 -0.030969998 -0.0053763827 -0.050312757 0.008151539 -0.018172165
0.0004085541 -0.004364324 0.04524904 -0.0110859135 0.028038772 0.0099269645 -0.005973245 0.06614083
0.072014794 -0.06064904 -0.04299877 -0.051817052 -0.040988415 -0.052802525 -0.0125052035 0.038959987
-0.036279712 -0.026895002 0.065440916 0.09447424 -0.048599973 -0.033020925 0.052462347 0.013809105
0.083304346 -0.036013618 0.029298773 -0.0060038045 -0.010410915 -0.0014807284 0.002653736 0.028935716
0.06544252 0.025850043 -0.021994356 0.034953497 0.08241361 -0.023897612 0.027471915 -0.004739437
-0.0025493836 -0.040621158 -0.07333899 0.017598674 0.009708172 0.012373436 0.011431341 0.046535365
0.029216342 -0.042368025 -0.021928048 0.03860013 0.023484314 0.047873367 0.052273203 0.0034305821
0.106344596 0.09356154 0.009186793 -0.06089253 -0.013117422 0.024453228 0.00463257 0.060730986
0.005195946 -0.020302264 -0.045568094 0.036105804 0.028466366 0.022851974 0.008321876 -0.015125677
-0.05703036 -0.04087495 0.045270666 0.03242947 -0.06506117 0.017938197 0.013856786 -0.035364646
-0.010459531 -0.0146224275 0.0057299705 0.026081622 -0.031332593 -0.034466617 -0.04413809 0.07389933
0.034030154 -0.061353795 0.0102399 0.022882646 -0.026641494 -0.02767497 0.05440664 0.06936198
0.0119355405 -0.056076698 0.043823197 -0.0013094784 0.006165262 -0.026581356 -0.034344714 -0.041612107
-0.012202587 -0.0054623336 0.13608298 -0.018651783 0.037705068 -0.06615549 0.0071648583 -0.030768054
0.17393243 0.046381522 0.03273471 -0.0049290266 0.0183051 -0.041522406 -0.036702525 0.005634837
0.09077015 0.085712634 0.013638951 -0.05103771 0.036354925 -0.01596029 0.0056174546 0.019533232
0.05245582 -0.028900668 -0.021924077 -0.050619867 0.061899174 -0.041826703 0.02854032 0.06301729
0.06125676 -0.019597983 -0.063256204 0.010031253 0.046129294 0.049452357 -0.014991698 -0.018304765
-0.003324258 -0.06269605 -0.025167665 0.004423864 0.05353283 -0.09159213 -0.03869953 0.043521725
0.032897845 0.05049014 0.035025045 -0.014170107 0.018194133 0.025870165 0.026407262 -0.037871815
0.015388713 -0.06453058 0.11921102 0.021124398 0.053094678 0.037943196 -0.006089423 0.019259157
0.0060487133 -0.031312007 0.035015274 0.005052482 0.009989326 0.04082232 0.015070699 0.045227457
00000000: 5878 5b3c 3a71 45bd 9593 da3d 4460 623c
00000010: dbf2 59bd d530 09bd 86e0 933d 6245 0dba
00000020: 3c0c a7bd eb05 a43c ee42 a13d c63a 4e3d
00000030: c5b9 acbd ae4b 7e3d d30c 933d cc25 953d
00000040: 6d6a d23c 8052 7f3b 73f1 2e3d 001a 213d
00000050: 0a29 4ebd 32c8 023c 9207 a9bd 18b9 12bc
00000060: 9d05 d93b e0ce c0bb 9adc cabd ec8a 7d3d
00000070: c1e6 ffbc 08d8 203d 1855 18bd b451 a0bd
00000080: 137e 8f3c 97e2 863d a82f 5d3b 13ad 5c3c
00000090: ca8b 5dbd 9323 86bd 0203 bdbb d99a 4fbd
000000a0: 3431 13bd f388 60bd a88a 083d 6f77 03bc
000000b0: c84a 37bc b222 143d 4071 b73b ed69 713d
000000c0: d8f1 8c3d 83ee e0bc b641 8e3c 7e04 ee3d
000000d0: b04f 80bc 622e 5bbc 56ed 4b3c 53d2 bcbb
000000e0: d871 03bc 8aa6 8b3d 4c51 9bbc 50f3 45ba
000000f0: d198 e5bc d4da 5b3d bac0 94bc b24c 9bbc
00000100: 2f08 d63c b3c9 a2bb ebdf 183d 0275 be3d
00000110: 92e6 a73d dd1c 7e3d a8a9 263d 960b 953b
00000120: 419c 153c c888 71bc 76b3 fa3b cbb4 fdbc
00000130: 5e2c b0bb c014 4ebd 088e 053c cbdd 94bc
00000140: 3433 d639 9a02 8fbb 0f57 393d b1a1 35bc
00000150: 91b1 e53c b5a4 223c 36bb c3bb d874 873d
00000160: 7e7c 933d 216b 78bd 7a1f 30bd 1e3e 54bd
00000170: 78e3 27bd 7647 58bd a0e2 4cbc 8294 1f3d
00000180: 099a 14bd e852 dcbc e305 863d b67b c13d
00000190: c410 47bd f340 07bd c2e2 563d 963f 623c
000001a0: 789b aa3d 0483 13bd fb03 f03c 90bb c4bb
000001b0: 8b92 2abc 0015 c2ba 4dea 2d3b 980a ed3c
000001c0: ba06 863d 78c3 d33c 822d b4bc 662b 0f3d
000001d0: 77c8 a83d edc4 c3bc c80c e13c 474d 9bbb
000001e0: 8f13 27bb 5f62 26bd c132 96bd 182b 903c
000001f0: 060f 1f3c f4b9 4a3c 854a 3b3c de9b 3e3d
00000200: 1c57 ef3c 188a 2dbd 73a2 b3bc 2b1b 1e3d
00000210: 2d62 c03c dd16 443d 6d1c 563d 9ed3 603b
00000220: 32cb d93d 319d bf3d 3484 163c 726a 79bd
00000230: 75ea 56bc 2352 c83c d0cc 973b 0ec1 783d
00000240: c142 aa3b ef50 a6bc 9ca5 3abd aee3 133d
00000250: 4c32 e93c 1034 bb3c 7a58 083c b0d1 77bc
00000260: ab98 69bd 7e6c 27bd bc6d 393d c4d4 043d
00000270: ca3e 85bd 20f3 923c 9307 633c 85da 10bd
00000280: 745e 2bbc e892 6fbc 7ac2 bb3b 20a9 d53c
00000290: 9b56 00bd de2c 0dbd 24ca 34bd 8858 973d
000002a0: 3463 0b3d 1e4e 7bbd 41c5 273c 6374 bb3c
000002b0: 433f dabc 9eb6 e2bc 7fd9 5e3d a70d 8e3d
000002c0: 498d 433c aeb0 65bd f47f 333d cea2 abba
000002d0: f705 ca3b 25c1 d9bc 0bad 0cbd 7571 2abd
000002e0: 5ced 47bc 60fd b2bb 5659 0b3e a0cb 98bc
000002f0: a170 1a3d 887c 87bd 30c7 ea3b 490d fcbc
00000300: 581b 323e 8dfa 3d3d d514 063d ac83 a1bb
00000310: 94f4 953c 6613 2abd 6355 16bd 70a4 b83b
00000320: b3e5 b93d 1b8a af3d e875 5f3c eb0c 51bd
00000330: e7e8 143d 27bf 82bc a012 b83b 2804 a03c
00000340: eadb 563d 18c1 ecbc 1f9a b3bc c756 4fbd
00000350: fd89 7d3d 7a52 2bbd 64cd e93c 350f 813d
00000360: 5ee8 7a3d f38b a0bc 788c 81bd 205a 243c
00000370: 12f2 3c3d 8e8e 4a3d bd9f 75bc e0f3 95bc
00000380: cbdb 59bb c966 80bd 6b2c cebc 10f6 903b
00000390: 3e45 5b3d a894 bbbd 6683 1ebd d643 323d
000003a0: e4bf 063d c0ce 4e3d 6c76 0f3d bd29 68bc
000003b0: dd0b 953c abed d33c 0b54 d83c 7a1f 1bbd
000003c0: f120 7c3c 9c28 84bd e824 f43d 130d ad3c
000003d0: ce79 593d 536a 1b3d c889 c7bb 61c5 9d3c
000003e0: 4934 c63b 0541 00bd 2d6c 0f3d 4a8f a53b
000003f0: 45aa 233c 4e35 273d 18eb 763c 6d40 393d

policy_network.6.bias f4 [128]
-0.0388076 -0.06827028 -0.0123954825 -0.02090279 0.03885154 -0.07314981 -0.051066156 0.0168126
0.007231767 0.0033698624 0.025250847 0.047857553 -0.049094852 -0.025087496 0.004424123 -0.047136024
0.01826067 -0.060726196 -0.03529824 -0.06797746 -0.03798376 -0.04110591 -0.056889243 -0.02316432
0.031238582 0.019678075 -0.048963204 0.011954053 -0.039614633 -0.004516421 0.029069824 -0.06295697
-0.043878272 0.0388781 -0.06258965 0.012938193 -0.05453815 0.025855241 0.013405522 -0.054357003
-0.0022887103 -0.01142613 -0.08444668 -0.0057845493 -0.017294865 -0.039010793 -0.053051185 -0.0047550136
-0.040942248 -0.033305023 -0.06296258 -0.0013164403 0.003014514 -0.05786667 -0.0029040114 0.07094047
0.004498917 0.018139435 -0.0052155927 0.0045608925 -0.028090836 0.030579459 -0.06767544 -0.066592924
-0.049834415 0.046928626 -0.040971 -0.061172508 -0.04971278 -0.051106803 -0.036260366 -0.0025572614
0.00820829 0.05263577 -0.011520335 -0.06902098 -0.008033913 -0.06216814 0.05190305 0.018924361
-0.025109129 -0.024976913 0.007813299 -0.059635416 -0.017031157 -0.046788026 -0.026292391 0.0374018
-0.011586568 -0.03240125 0.010267686 -0.006933179 0.008192725 0.014862828 0.0032422484 -0.025352133
-0.04284675 -0.049714494 -0.025966864 -0.03978673 -0.0331234 -0.06332366 0.052019663 0.07001258
-0.07209923 0.028648153 0.026473012 0.0151384855 -0.004043475 -0.014070691 -0.05900915 -0.073316865
-0.043607436 0.005137826 5.92697e-05 -0.041836515 -0.028233318 -0.017616838 0.03373765 -0.067112416
0.020462291 0.002034843 -0.03129037 0.043875497 -0.020406993 0.0012357939 0.01731662 0.02856985
00000000: b8f4 1ebd 4ad1 8bbd 6c16 4bbc 543c abbc
00000010: cb22 1f3d 91cf 95bd bf2a 51bd 94ba 893c
00000020: 75f8 ec3b e9d8 5c3b ddda ce3c 4806 443d
00000030: af17 49bd 4b84 cdbc 3cf8 903b b411 41bd
00000040: 6797 953c 08bc 78bd e394 10bd c437 8bbd
00000050: dc94 1bbd ac5e 28bd b204 69bd 1ac3 bdbc
00000060: 0ee8 ff3c ea33 a13c a48d 48bd efda 433c
00000070: f442 22bd 7cfe 93bb d723 ee3c 95ef 80bd
00000080: b4b9 33bd a53e 1f3d 012f 80bd b7fa 533c
00000090: 6563 5fbd 5fce d33c d6a2 5b3c 73a5 5ebd
000000a0: 30fe 15bb aa34 3bbc 62f2 acbd 518c bdbb
000000b0: f6ad 8dbc c8c9 1fbd 334c 59bd f2cf 9bbb
000000c0: 0fb3 27bd d96a 08bd 86f2 80bd 688c acba
000000d0: 278f 453b 9a05 6dbd 3a51 3ebb 3d49 913d
000000e0: a76b 933b 2799 943c 90e7 aabb 8a73 953b
000000f0: c11e e6bc c681 fa3c 6c99 8abd df61 88bd
00000100: 2c1f 4cbd 3b38 403d 35d1 27bd 0690 7abd
00000110: a19f 4bbd 5e55 51bd c085 14bd ba97 27bb
00000120: 107c 063c 9b98 573d cabf 3cbc df5a 8dbd
00000130: aca0 03bc 05a4 7ebd 4b98 543d 4307 9b3c
00000140: a9b1 cdbc 629c ccbc 5a03 003c 4444 74bd
00000150: ed84 8bbc cda4 3fbd 2463 d7bc a132 193d
00000160: 97d5 3dbc 2cb7 04bd cc39 283c b92f e3bb
00000170: c73a 063c 3883 733c e77b 543b 47af cfbc
00000180: 1380 2fbd 6da1 4bbd 76b8 d4bc 69f7 22bd
00000190: 67ac 07bd d6af 81bd 9212 553d c162 8f3d
000001a0: c3a8 93bd 88af ea3c eedd d83c 6907 783c
000001b0: 207f 84bb c188 66bc 94b3 71bd 2727 96bd
000001c0: b69d 32bd 355b a83b 5b98 7838 c45c 2bbd
000001d0: 8f49 e7bc 3051 90bc 7d30 0a3d 3c72 89bd
000001e0: 89a0 a73c 005b 053b 552a 00bd cbb6 333d
000001f0: 912c a7bc 5dfa a13a 96db 8d3c 510b ea3c

policy_network.9.weight f4 [7, 128]
0.038909752 -0.03222838 0.067839056 0.07562787 -0.0028916567 -0.0734182 0.016466342 -0.07499968
-0.038590208 -0.04437848 -0.026032671 -0.0485459 0.0020588287 -0.074108206 -0.085623115 0.026954122
-0.010473049 0.016436279 -0.07933002 0.05549361 -0.0294534 0.026866004 -0.076628275 -0.07344238
0.0059311134 0.025447076 -0.020614473 0.0076584374 -0.07546381 -0.032070983 -0.029207448 0.08794645
-0.07678636 -0.0428489 -0.013767744 -0.052026823 0.06748983 -0.07140405 0.033018667 -0.07927771
0.012841984 -0.03281863 0.014496429 0.064963266 6.106755e-05 -0.06044156 -0.051884595 -0.0077745207
-0.014683136 -0.03557797 0.05346337 -0.05160539 0.04985763 -0.07297069 0.008017755 0.045822237
0.05456346 0.07292229 0.010650642 0.07068245 -0.0430009 0.062137023 -0.06698641 0.055696186
0.024289807 -0.021415904 0.008116356 0.010975711 0.047077507 0.034709524 0.026267523 -0.04644683
0.07690494 -0.032196373 0.012045305 0.04924106 -0.019812588 0.059379376 -0.036568366 -0.0031639778
-0.01144819 0.00021514075 -0.012305867 0.010258795 0.020237485 0.021556797 -0.05753231 0.03617321
-0.015047261 0.03154258 -0.06320754 -0.011387426 0.07898896 -0.021887887 -0.04119015 -0.06347385
-0.038299423 0.042847056 0.049953323 -0.024585634 -0.012256713 0.066781595 -0.016146261 -0.0044951476
0.005270126 -0.105686314 0.06344231 0.064423785 -0.049873274 -0.063440576 -0.049015056 -0.047551394
0.00075576286 -0.06488542 0.0031134894 -0.060953222 -0.07064529 -0.07238079 0.063727394 0.048454847
0.0325355 -0.053232275 0.042412415 -0.0104167955 -0.004579493 -0.07112089 0.058881424 -0.028100884
-0.011718424 0.0003644386 0.049072076 0.020639602 0.040835302 -0.040917955 0.07849514 -0.04511271
0.07688737 0.03320372 -0.05180831 0.032670237 -0.0023377044 -0.066765025 0.016239595 -0.00046012524
-0.026959471 -0.006406824 -0.049799003 -0.032263048 -0.013745402 0.0105775045 0.0007936867 0.052071597
0.0063005006 -0.02903864 -0.028254379 -0.04757806 -0.075568154 0.014589823 -0.023562929 0.04010919
-0.013225189 0.04223402 -0.06427864 -0.012541081 -0.049043056 -0.043160483 -0.013470616 0.03221456
0.008980455 0.071694426 0.02023558 0.0834922 0.019773975 -0.0561386 0.087325655 0.011869784
0.0069506383 0.027597344 0.02536038 -0.06819907 0.012178933 0.0695273 0.025559518 -0.023861617
0.05768753 0.016585667 -0.001228308 -0.054727815 0.01659853 0.044653893 0.0553741 -0.018386463
-0.0663747 0.0019507225 -0.003763267 0.046440177 -0.030979116 0.056800224 -0.0005233854 -0.047795933
-0.0003378066 0.008923331 -0.057996616 -0.00031139693 0.008878311 0.062946826 -0.04001856 -0.0053958152
-0.002679918 -0.013728536 -0.0013979893 -0.065329835 0.034343608 -0.07649931 -0.045483492 -0.014120916
0.013469736 0.027746702 0.045311976 -0.002543962 0.029749962 0.035507005 -0.0055981753 -0.015044647
0.049151532 -0.057854444 -0.008366183 -0.08007116 -0.007628929 0.0750979 0.004980299 0.014428267
-0.0035361 -0.010951862 -0.044863746 0.049457815 -0.05839029 -0.017046163 -0.0030518265 -0.009475962
-0.026545754 -0.045737617 -0.077827916 0.01797116 -0.089553565 0.003821766 -0.044848293 0.04165382
0.00060344103 0.0012877284 0.003506505 0.004426511 -0.021805784 0.014729368 0.00549463 0.058732603
00000000: d55f 1f3d e801 04bd 34ef 8a3d c9e2 9a3d
00000010: f381 3dbb 485c 96bd 6ce4 863c 6f99 99bd
00000020: c410 1ebd 36c6 35bd 7842 d5bc 11d8 46bd
00000030: 6aed 063b 0bc6 97bd 2c5b afbd e4ce dc3c
00000040: 2797 2bbc 60a5 863c c777 a2bd 454d 633d
00000050: 4248 f1bc 1816 dc3c 49ef 9cbd f568 96bd
00000060: c959 c23b 6376 d03c afdf a8bc a1f3 fa3b
00000070: c58c 9abd dd5c 03bd 7544 efbc 451d b43d
00000080: 2b42 9dbd 5482 2fbd 1b92 61bc 141a 55bd
00000090: 1c38 8a3d 493c 92bd 953e 073d 5a5c a2bd
000000a0: 2f67 523c d46c 06bd 6e82 6d3c 760b 853d
000000b0: 6411 8038 9291 77bd f184 54bd 68c1 febb
000000c0: 8991 70bc 35ba 11bd 68fc 5a3d 2c60 53bd
000000d0: 8437 4c3d a871 95bd e75c 033c 19b0 3b3d
000000e0: ef7d 5f3d 4858 953d 0880 2e3c f6c1 903d
000000f0: b621 30bd 6483 7e3d 2c30 89bd af21 643d
00000100: 6bfb c63c 6870 afbc 77fa 043c 78d3 333c
00000110: 58d4 403d 932b 0e3d fd2e d73c 083f 3ebd
00000120: 5680 9d3d 58e0 03bd ac59 453c feb0 493d
00000130: 024e a2bc ca37 733d b6c8 15bd bd5a 4fbb
00000140: 3091 3bbc 6897 6139 8c9e 49bc 8114 283c
00000150: 15c9 a53c e197 b03c 00a7 6bbd 5c2a 143d
00000160: c988 76bc cb32 013d f472 81bd 5492 3abc
00000170: f7c4 a13d 3a4e b3bc 01b7 28bd 94fe 81bd
00000180: dbdf 1cbd 6580 2f3d db9b 4c3d d067 c9bc
00000190: 61d0 48bc cac4 883d 2a45 84bc 084c 93bb
000001a0: 05b1 ac3b 1172 d8bd 0bee 813d 9ef0 833d
000001b0: eb47 4cbd 22ed 81bd 03c4 48bd 40c5 42bd
000001c0: 631e 463a a6e2 84bd af0b 4c3b 16aa 79bd
000001d0: 7aae 90bd 613c 94bd 8283 823d 9778 463d
000001e0: f243 053d 160a 5abd a4b8 2d3d 35ab 2abc
000001f0: 920f 96bb d4a7 91bd a62d 713d d333 e6bc
00000200: a2fe 3fbc 1f12 bf39 cdff 483d 6214 a93c
00000210: eb42 273d 9699 27bd 0fc2 a03d 1bc8 38bd
00000220: 2077 9d3d a000 083d f334 54bd 3ad1 053d
00000230: 2c34 19bb 1abc 88bd e608 853c f73c f1b9
00000240: 1cda dcbc 56f0 d1bb 0afa 4bbd 4226 04bd
00000250: 6534 61bc 454d 2d3c 6a0f 503a 0749 553d
00000260: 6e74 ce3b 71e2 edbc ba75 e7bc 36e1 42bd
00000270: 7ac3 9abd 270a 6f3c 0b07 c1bc 8949 243d
00000280: 77ae 58bc 94fd 2c3d 85a4 83bd 1b79 4dbc
00000290: 5fe1 48bd 0cc9 30bd dcb3 5cbc 6af3 033d
000002a0: c222 133c 87d4 923d 16c5 a53c f5fd aa3d
000002b0: 08fd a13c 97f1 65bd cbd7 b23d 7c79 423c
000002c0: 2ec2 e33b d313 e23c 92c0 cf3c f4ab 8bbd
000002d0: 268a 473c 5464 8e3d 3262 d13c 7079 c3bc
000002e0: c249 6c3d aade 873c 2dff a0ba 462a 60bd
000002f0: a4f9 873c 00e7 363d f4cf 623d 359f 96bc
00000300: 75ef 87bd 63af ff3a 25a1 76bb 0e38 3e3d
00000310: eac7 fdbc 5aa7 683d cd33 09ba abc5 43bd
00000320: a21b b1b9 2a33 123c dc8d 6dbd fd42 a3b9
00000330: 5676 113c 44ea 803d 80ea 23bd 61cf b0bb
00000340: 90a1 2fbb a7ed 60bc bd3c b7ba a6cb 85bd
00000350: e2ab 0c3d acab 9cbd e64c 3abd 6a5b 67bc
00000360: 2bb0 5c3c 0d4d e33c 0d99 393d 9ab8 26bb
00000370: 31b6 f33c cb6f 113d e670 b7bb d37d 76bc
00000380: 1e53 493d c8f8 6cbd 5112 09bc 59fc a3bd
00000390: 18fc f9bb eecc 993d c731 a33b 8a64 6c3c
000003a0: eabd 67bb 706f 33bc 0cc3 37bd 4794 4a3d
000003b0: a82a 6fbd 65a4 8bbc 2701 48bb 1141 1bbc
000003c0: 7b76 d9bc 5e57 3bbd 3e64 9fbd 4138 933c
000003d0: dc67 b7bd 9876 7a3b d8b2 37bd 329d 2a3d
000003e0: 3e30 1e3a ffc8 a83a 64cd 653b 440c 913b
000003f0: 0ba2 b2bc 7253 713c 4c0c b43b 9991 703d

policy_network.9.bias f4 [7]
0.008026384 0.004901335 0.0016590448 -9.731681e-05 -0.0021611305 0.00314246 0.028345093
00000000: 1881 033c 619b a03b 4e74 d93a 9116 ccb8
00000010: c1a1 0dbb bbf1 4d3b f833 e83c

exp_avg f4 [128, 15]
-8.529949e-05 -2.327047e-05 4.2946922e-05 -5.733678e-05 -3.7782043e-05 7.015998e-05 1.5320718e-05 -1.4452199e-06
-2.1864375e-06 1.7923696e-05 1.6466287e-05 -3.3318776e-07 8.280895e-09 -4.1571312e-07 -1.0623743e-07 -1.0516713e-06
-4.4021067e-06 1.3040777e-06 1.6011803e-06 -2.1846324e-06 4.4859503e-06 5.144103e-09 1.3658365e-06 1.2420077e-06
2.3220484e-07 1.3252351e-06 -2.8588155e-07 -4.4218623e-08 -5.1424576e-07 -6.464101e-08 2.604142e-06 8.972615e-07
6.9599605e-07 -1.5921871e-07 9.0800535e-07 -2.6905543e-06 -9.28815e-07 -7.993748e-07 -2.9033438e-07 -4.503789e-07
-9.3240334e-07 -5.316375e-08 2.3730384e-07 -7.645013e-07 -1.5752929e-07 0.0 0.0 0.0
0.0 0.0 0.0 0.0 0.0 0.0 0.0 0.0
0.0 0.0 0.0 0.0 -5.059609e-05 -1.874913e-05 2.2428438e-05 -2.4458115e-05
-2.0931302e-05 3.4945384e-05 8.97887e-06 -3.5547787e-06 1.4741719e-06 1.0333141e-05 8.291726e-06 -1.2500776e-07
3.0267017e-07 -3.6692452e-07 -5.1526865e-07 0.0 0.0 0.0 0.0 0.0
0.0 0.0 0.0 0.0 0.0 0.0 0.0 0.0
0.0 0.0 1.2776403e-06 3.1737244e-07 -6.4600215e-07 8.321845e-07 4.9224656e-07 -8.2107465e-07
-1.5485938e-07 9.1358764e-08 4.762423e-08 -2.4647585e-07 -2.1611916e-07 -1.0049422e-08 7.77802e-09 -6.907473e-08
-3.546767e-08 0.0 0.0 0.0 0.0 0.0 0.0 0.0
0.0 0.0 0.0 0.0 0.0 0.0 0.0 0.0
0.0 0.0 0.0 0.0 0.0 0.0 0.0 0.0
0.0 0.0 0.0 0.0 0.0 0.0 0.0 0.0
0.0 0.0 0.0 0.0 0.0 0.0 0.0 0.0
0.0 0.0 0.0 0.0 0.0 0.0 -2.8478116e-06 -1.7056544e-06
1.1091263e-06 -1.0298553e-06 -2.1980416e-06 4.1384087e-06 7.620783e-07 5.4431905e-07 2.8739416e-07 6.5116024e-07
1.0382937e-06 -1.5761225e-07 -2.5801956e-08 2.8641557e-07 2.4857e-07 0.0 0.0 0.0
0.0 0.0 0.0 0.0 0.0 0.0 0.0 0.0
0.0 0.0 0.0 0.0 0.0 0.0 0.0 0.0
0.0 0.0 0.0 0.0 0.0 0.0 0.0 0.0
0.0 0.0 0.0 0.0 0.0 0.0 0.0 0.0
0.0 0.0 0.0 0.0 0.0 0.0 0.0 0.0
0.0 0.0 2.4992107e-05 8.211482e-06 -1.3057736e-05 1.7030277e-05 1.2216445e-05 -2.394812e-05
-4.635463e-06 -7.567373e-07 3.1224872e-07 -5.44188e-06 -5.5346823e-06 5.1161255e-08 -3.2851094e-08 2.0391442e-07
1.330094e-07 0.0 0.0 0.0 0.0 0.0 0.0 0.0
0.0 0.0 0.0 0.0 0.0 0.0 0.0 0.0
-8.240388e-06 -3.966238e-06 6.8756244e-06 -7.3945125e-06 -4.7846106e-06 1.0245503e-05 1.0058761e-06 5.6870863e-07
-2.4179067e-07 2.123161e-06 2.0139928e-06 -6.323792e-08 3.404854e-08 5.6020216e-24 1.8720843e-13 -2.2060385e-05
00000000: d1e2 b2b8 f434 c3b7 e821 3438 e67c 70b8
00000010: 2978 1eb8 da22 9338 fe84 8037 61f9 c1b5
00000020: b6ba 12b6 d85a 9637 1521 8a37 fae0 b2b4
00000030: c343 0e32 2d2f dfb4 a524 e4b3 2727 8db5
00000040: cfb5 93b6 c507 af35 23e8 d635 b39b 12b6
00000050: 0586 9636 02c0 b031 c951 b735 0fb3 a635
00000060: fb53 7934 bbde b135 437b 99b4 e4ea 3db3
00000070: b30a 0ab5 c5d0 8ab3 d2c2 2e36 57db 7035
00000080: 7cd4 3a35 b5f5 2ab4 a7bd 7335 5f8f 34b6
00000090: ae53 79b5 9e94 56b5 41df 9bb4 9bcb f1b4
000000a0: 454a 7ab5 2956 64b3 95cd 7e34 2138 4db5
000000b0: 5225 29b4 0000 0000 0000 0000 0000 0000
000000c0: 0000 0000 0000 0000 0000 0000 0000 0000
000000d0: 0000 0000 0000 0000 0000 0000 0000 0000
000000e0: 0000 0000 0000 0000 0000 0000 0000 0000
000000f0: 2337 54b8 7347 9db7 b424 bc37 672b cdb7
00000100: a195 afb7 5292 1238 f4a3 1637 a28e 6eb6
00000110: 29dc c535 815c 2d37 b11c 0b37 df39 06b4
00000120: ac7e a234 b9fd c4b4 fe50 0ab5 0000 0000
00000130: 0000 0000 0000 0000 0000 0000 0000 0000
00000140: 0000 0000 0000 0000 0000 0000 0000 0000
00000150: 0000 0000 0000 0000 0000 0000 0000 0000
00000160: 0000 0000 0000 0000 637b ab35 5663 aa34
00000170: ee68 2db5 4963 5f35 ed22 0435 d267 5cb5
00000180: 6c47 26b4 0331 c433 658b 4c33 6253 84b4
00000190: 620e 68b4 d3a5 2cb2 18a0 0532 3c56 94b3
000001a0: 1e55 18b3 0000 0000 0000 0000 0000 0000
000001b0: 0000 0000 0000 0000 0000 0000 0000 0000
000001c0: 0000 0000 0000 0000 0000 0000 0000 0000
000001d0: 0000 0000 0000 0000 0000 0000 0000 0000
000001e0: 0000 0000 0000 0000 0000 0000 0000 0000
000001f0: 0000 0000 0000 0000 0000 0000 0000 0000
00000200: 0000 0000 0000 0000 0000 0000 0000 0000
00000210: 0000 0000 0000 0000 0000 0000 0000 0000
00000220: 0000 0000 0000 0000 0000 0000 0000 0000
00000230: 0000 0000 0000 0000 0000 0000 0000 0000
00000240: 0000 0000 0000 0000 0000 0000 0000 0000
00000250: 0000 0000 0000 0000 081d 3fb6 d7ed e4b5
00000260: 4add 9435 8f39 8ab5 1182 13b6 a9dc 8a36
00000270: 9f91 4c35 521d 1235 274b 9a34 64cb 2e35
00000280: 805b 8b35 203c 29b4 1aa3 ddb2 a8c4 9934
00000290: 3373 8534 0000 0000 0000 0000 0000 0000
000002a0: 0000 0000 0000 0000 0000 0000 0000 0000
000002b0: 0000 0000 0000 0000 0000 0000 0000 0000
000002c0: 0000 0000 0000 0000 0000 0000 0000 0000
000002d0: 0000 0000 0000 0000 0000 0000 0000 0000
000002e0: 0000 0000 0000 0000 0000 0000 0000 0000
000002f0: 0000 0000 0000 0000 0000 0000 0000 0000
00000300: 0000 0000 0000 0000 0000 0000 0000 0000
00000310: 0000 0000 0000 0000 0000 0000 0000 0000
00000320: 0000 0000 0000 0000 0000 0000 0000 0000
00000330: 0000 0000 0000 0000 0000 0000 0000 0000
00000340: 0000 0000 0000 0000 24a6 d137 0cc4 0937
00000350: 8d12 5bb7 3edc 8e37 3bf5 4c37 32e4 c8b7
00000360: 538a 9bb6 9722 4bb5 23a3 a734 6599 b6b6
00000370: 8fb6 b9b6 65bc 5b33 2918 0db3 92f3 5a34
00000380: 58d1 0e34 0000 0000 0000 0000 0000 0000
00000390: 0000 0000 0000 0000 0000 0000 0000 0000
000003a0: 0000 0000 0000 0000 0000 0000 0000 0000
000003b0: 0000 0000 0000 0000 0000 0000 0000 0000
000003c0: 3240 0ab7 ba15 85b6 2ab5 e636 611e f8b6
000003d0: 7e8b a0b6 1ae4 2b37 a401 8735 5ca9 1835
000003e0: 75cf 81b4 a17b 0e36 2228 0736 6acd 87b3
000003f0: c43c 1233 bcb7 d818 28c7 522a 510e b9b7

exp_avg_sq f4 [128, 15]
1.1861436e-07 1.5769489e-08 5.1002957e-08 7.417329e-08 3.069917e-08 1.2400338e-07 2.9660545e-09 3.6476114e-10
1.1782082e-10 6.0766414e-09 6.0647958e-09 1.2990452e-11 1.038423e-11 3.7713995e-11 7.0068114e-12 7.517728e-09
9.386185e-10 3.0549094e-09 4.454256e-09 1.787474e-09 6.8517267e-09 1.7889248e-10 1.6912369e-11 8.278006e-12
3.575715e-10 3.6225506e-10 7.081229e-13 5.0315204e-13 8.681672e-12 2.2175024e-12 8.261927e-09 1.0334925e-09
3.4218264e-09 5.1456985e-09 2.1165818e-09 8.622832e-09 2.1729003e-10 2.5749307e-11 9.333542e-12 4.2570325e-10
4.1944026e-10 8.1845674e-13 6.21938e-13 1.34391595e-11 1.5500176e-12 0.0 0.0 0.0
0.0 0.0 0.0 0.0 0.0 0.0 0.0 0.0
0.0 0.0 0.0 0.0 6.649446e-08 8.188763e-09 2.8351536e-08 4.2399197e-08
1.6667919e-08 6.519619e-08 1.6041506e-09 1.9861836e-10 8.2911324e-11 3.2478056e-09 3.3875283e-09 5.354824e-12
4.69682e-12 1.82739e-11 8.962845e-12 0.0 0.0 0.0 0.0 0.0
0.0 0.0 0.0 0.0 0.0 0.0 0.0 0.0
0.0 0.0 2.5974605e-09 3.4692335e-10 1.1085713e-09 1.5730048e-09 6.451447e-10 2.5363955e-09
6.054429e-11 6.54365e-12 2.5500873e-12 1.2852354e-10 1.2842233e-10 2.412253e-13 1.7313097e-13 5.342984e-12
1.8747684e-12 0.0 0.0 0.0 0.0 0.0 0.0 0.0
0.0 0.0 0.0 0.0 0.0 0.0 0.0 0.0
0.0 0.0 0.0 0.0 0.0 0.0 0.0 0.0
0.0 0.0 0.0 0.0 0.0 0.0 0.0 0.0
0.0 0.0 0.0 0.0 0.0 0.0 0.0 0.0
0.0 0.0 0.0 0.0 0.0 0.0 2.6689062e-09 3.6069103e-10
1.090703e-09 1.494937e-09 6.1810485e-10 2.237071e-09 5.775047e-11 3.905742e-12 2.1731007e-12 1.2181298e-10
1.2401111e-10 2.3566275e-13 1.5070435e-13 3.3323242e-12 1.8166325e-12 0.0 0.0 0.0
0.0 0.0 0.0 0.0 0.0 0.0 0.0 0.0
0.0 0.0 0.0 0.0 0.0 0.0 0.0 0.0
0.0 0.0 0.0 0.0 0.0 0.0 0.0 0.0
0.0 0.0 0.0 0.0 0.0 0.0 0.0 0.0
0.0 0.0 0.0 0.0 0.0 0.0 0.0 0.0
0.0 0.0 2.9429237e-09 3.907042e-10 1.2397415e-09 1.7468352e-09 7.0978046e-10 2.690008e-09
6.607873e-11 6.853601e-12 2.8851606e-12 1.3914421e-10 1.4396692e-10 2.719769e-13 2.2261492e-13 6.356488e-12
2.7886775e-12 0.0 0.0 0.0 0.0 0.0 0.0 0.0
0.0 0.0 0.0 0.0 0.0 0.0 0.0 0.0
4.5146e-09 6.3119293e-10 1.994352e-09 2.8356053e-09 1.1658308e-09 4.8149835e-09 1.085457e-10 1.4842443e-11
4.5641763e-12 2.347771e-10 2.3118579e-10 5.005226e-13 3.3406505e-13 4.296993e-12 2.214465e-12 3.686289e-09
00000000: efb8 fe33 7975 8732 580e 5b33 3349 9f33
00000010: 18da 0333 ca25 0534 62d3 4b31 9187 c82f
00000020: 9d8b 012f b4ca d031 8262 d031 cb87 642d
00000030: 6aae 362d 2fde 252e bf87 f62c 5127 0132
00000040: b400 8130 89ee 5131 0d0c 9931 26ab f530
00000050: 6d6c eb31 c2b1 442f 45c3 942d d3a0 112d
00000060: b793 c42f de26 c72f a251 472b ed9f 0d2b
00000070: c6ba 182d f90a 1c2c 57f0 0d32 c90a 8e30
00000080: 6825 6b31 0bce b031 4d73 1131 9e23 1432
00000090: b5e9 6e2f 497e e22d 8932 242d 6808 ea2f
000000a0: f896 e62f 0660 662b 5b0f 2f2b 986c 6c2d
000000b0: 4525 da2b 0000 0000 0000 0000 0000 0000
000000c0: 0000 0000 0000 0000 0000 0000 0000 0000
000000d0: 0000 0000 0000 0000 0000 0000 0000 0000
000000e0: 0000 0000 0000 0000 0000 0000 0000 0000
000000f0: b7cb 8e33 8fae 0c32 b089 f332 691a 3633
00000100: 242d 8f32 fc01 8c33 0879 dc30 1962 5a2f
00000110: ed52 b62e 0030 5f31 07ca 6831 f767 bc2c
00000120: 3241 a52c 2abd a02d 11ad 1d2d 0000 0000
00000130: 0000 0000 0000 0000 0000 0000 0000 0000
00000140: 0000 0000 0000 0000 0000 0000 0000 0000
00000150: 0000 0000 0000 0000 0000 0000 0000 0000
00000160: 0000 0000 0000 0000 027f 3231 1fb9 be2f
00000170: 635c 9830 3031 d830 0656 3130 be4c 2e31
00000180: 6823 852e f63b e62c 4a72 332c 2950 0d2f
00000190: ac33 0d2f 3bcc 872a 9bed 422a 52fd bb2c
000001a0: d3ec 032c 0000 0000 0000 0000 0000 0000
000001b0: 0000 0000 0000 0000 0000 0000 0000 0000
000001c0: 0000 0000 0000 0000 0000 0000 0000 0000
000001d0: 0000 0000 0000 0000 0000 0000 0000 0000
000001e0: 0000 0000 0000 0000 0000 0000 0000 0000
000001f0: 0000 0000 0000 0000 0000 0000 0000 0000
00000200: 0000 0000 0000 0000 0000 0000 0000 0000
00000210: 0000 0000 0000 0000 0000 0000 0000 0000
00000220: 0000 0000 0000 0000 0000 0000 0000 0000
00000230: 0000 0000 0000 0000 0000 0000 0000 0000
00000240: 0000 0000 0000 0000 0000 0000 0000 0000
00000250: 0000 0000 0000 0000 e567 3731 c04a c62f
00000260: b3e7 9530 6b76 cd30 43e7 2930 f8ba 1931
00000270: 40fd 7d2e cc6b 892c 1aeb 182c 4eef 052f
00000280: 065a 082f 95aa 842a 92ad 292a d17d 6a2c
00000290: 15ab ff2b 0000 0000 0000 0000 0000 0000
000002a0: 0000 0000 0000 0000 0000 0000 0000 0000
000002b0: 0000 0000 0000 0000 0000 0000 0000 0000
000002c0: 0000 0000 0000 0000 0000 0000 0000 0000
000002d0: 0000 0000 0000 0000 0000 0000 0000 0000
000002e0: 0000 0000 0000 0000 0000 0000 0000 0000
000002f0: 0000 0000 0000 0000 0000 0000 0000 0000
00000300: 0000 0000 0000 0000 0000 0000 0000 0000
00000310: 0000 0000 0000 0000 0000 0000 0000 0000
00000320: 0000 0000 0000 0000 0000 0000 0000 0000
00000330: 0000 0000 0000 0000 0000 0000 0000 0000
00000340: 0000 0000 0000 0000 763c 4a31 baca d62f
00000350: 8763 aa30 4d15 f030 5c1a 4330 1fdb 3831
00000360: 054f 912e c023 f12c 6f06 4b2c 9dfd 182f
00000370: 164b 1e2f 011c 992a 62a4 7a2a 27a6 df2c
00000380: 593c 442c 0000 0000 0000 0000 0000 0000
00000390: 0000 0000 0000 0000 0000 0000 0000 0000
000003a0: 0000 0000 0000 0000 0000 0000 0000 0000
000003b0: 0000 0000 0000 0000 0000 0000 0000 0000
000003c0: d71e 9b31 4180 2d30 030d 0931 7fdc 4231
000003d0: 063b a030 0b71 a531 ccb1 ee2e 368e 822d
000003e0: 7296 a02c f011 812f 0431 7e2f 74e2 0c2b
000003f0: d90f bc2a df2f 972c 41d4 1b2c e251 7d31
