robot_state_berkeley_training/robot_state_epoch_8.pth (torch, 838027 bytes, 24 tensors)

policy_network.0.weight f4 [128, 15]
00000000: 25ea 77bd 9885 b6bc 9060 653e 4791 003e
00000010: 0d33 d53d f229 fb3b 869f ff3d a70c bcbd
00000020: a0ef 2a3e f1ff 523e 92ea fabd 722b d03e
00000030: dd38 143e db46 8e3e 4294 a33e 6939 ea3d
00000040: 8083 013e a5d7 efbd 8db6 24be 47e4 6cbd
00000050: aa66 f73d 203d bd3d 96af 76bd 36b5 98be
00000060: 531d 36bd a55e 08be 9d61 e93c 056c 4ebe
00000070: 85e8 7a3e da75 813d 9d96 2c3a e3b4 94bd
00000080: fdd0 5fbe 231b 363d 2d0e 1fbd 10ca 173e
00000090: 3b24 3f3e e6b8 823e cb5d 483e 62b2 07be
000000a0: 9fca 813e 1f8e 4fbd 67f3 07be 12cb 353e
000000b0: e074 27be 7dca 453e cc0a 05be 5d2d 54bd
000000c0: 5aa1 c3bd c978 04be 0089 41be c932 073c
000000d0: b085 383e ebc2 6f3e 31cb 73bd fa5c 7cbd
000000e0: ee07 123e 918d 85bd 91ce 903d 186a d1bb
000000f0: bf72 8b3d bc65 febc fcc5 443e a8c4 65be
00000100: 7aff 8dbc c7b0 85be 5e79 943d 5d72 5ebd
00000110: c81e 19be 3fd4 b73d 62c5 c2bd 178f cd3e
00000120: 5e07 8cbe bd9a a13e c0ed a33e d1a6 803c
00000130: 92f1 983d 39bf 5e3c ef91 e7bd e76c 513d
00000140: 6273 a9bd aea0 44be 9f65 43be 3bb2 743e
00000150: c04a 58bc 76a9 16be eab8 de3d 64b4 6abe
00000160: 3592 80be bc4d 50be 0157 90bd 8bfb 863e
00000170: 825f dc3d e43e 433e 9d4b 17be c06c 003e
00000180: 6fb1 33be 3cc1 81be c721 1e3e b4b9 8b3b
00000190: 3a97 00be 5357 bd3c 05f5 37be e163 2c3c
000001a0: eca0 a93d c538 383d d0e5 bcbb d47f 58be
000001b0: a3d0 263e 4e20 493e ee7c 223e 7219 d33d
000001c0: 6091 613d 1bc9 c8bd 024e ee3d 050c b0bd
000001d0: 8f97 023d 7708 1ebe 5a29 1abe da2d 34be
000001e0: a627 2dbd 04c5 1c3e 1991 51be b983 ed3d
000001f0: dfc8 653e c179 64be 5fc3 283e 12a7 42be
00000200: 78ff 403e 569b 30be 21d9 bc3d c218 803e
00000210: ca1b 503d fc4d 14be b7da aebd 969f dcbd
00000220: f118 3bbe 73a1 5ebe 4300 823e e31a dcbd
00000230: c3ef e9bd d240 823e 89f1 273e 1344 783e
00000240: 293f 213e 6b25 cbbd 63e1 bb3d a06c 4d3e
00000250: 8465 243e e0c8 53be 1490 52be 14db e63c
00000260: cc96 1ebe 4e24 a5bd 084b 2dbe 3201 0fbe
00000270: 7535 4bbe 5466 f8bd 270c 29be df00 473c
00000280: f0e5 72be 9351 cfbd 9f11 b43d 77c5 613e
00000290: d07b 65bc 32c9 6b3e 8145 5b3d f0a8 0d3e
000002a0: 240b 233d ac02 c2bd b481 4fbe 9cba 66bb
000002b0: 1421 1dbe 43f4 72be 843a eb3d ab71 663c
000002c0: 6b03 803e 4399 363e 7497 04be c0ec 153e
000002d0: fc25 513e 3939 2bbe d905 6cbe d42a 4a3e
000002e0: 70fb 20be 4608 da3d 50ce 6fbe 5bed 78bd
000002f0: a62a 06b9 f82a 43be 43e2 2f3e b7d5 27bc
00000300: 0623 623e 2d9f 3d3e 2fcd 4bbd 6d4c 7f3e
00000310: 2e18 843d c179 4f3e e549 463e 08ac 083e
00000320: 50ad 2ebe e81d 2e3e 2cdd 81be 13c1 0ebe
00000330: 5b79 37be f8f2 07be ab27 6f3e 31cb 973b
00000340: 943a 67bd 3e2e 813e 6846 5dbe 05b7 5dbe
00000350: e197 84be 6ba9 0ebe e249 09be 5a71 a03d
00000360: cb8d 783d 4b9d 5d3e c6ac 9d3e 0ec7 8dbe
00000370: 9f48 92be ba6f 9fbe 6616 703e 0281 88bd
00000380: a8e4 603d 0c31 7bbd ecb4 343e 443a 76be
00000390: fd6b 283e 2d14 513e 1abe 67bc 61e4 13be
000003a0: 2191 f3bd bf5d 45bd 6126 c93d 2ae4 e23d
000003b0: 6ed2 53be c2c9 44be 8aef b73d 95c8 07be
000003c0: eb4f 43be 2b16 883e ecd3 2e3e 20b0 e23d
000003d0: 52c3 573e d29c 183e b1de c6bd cb94 013d
000003e0: bb8c 5b3e ed18 6cbe 894a c5bd dbb7 adbd
000003f0: 797f 82bd 338e b7be 1dee 8dbe c396 48bd
-0.060526032 -0.0222805 0.22400117 0.12555419 0.10410128 0.0076649124 0.124815986 -0.09182101
0.16692972 0.20605446 -0.12251772 0.40658146 0.14474817 0.27788433 0.3194905 0.11436731
0.1264782 -0.11711053 -0.16085263 -0.05783489 0.120801285 0.09240174 -0.060226046 -0.29825753
-0.04446156 -0.13317354 0.028488928 -0.20158394 0.24502762 0.063213065 0.00065837224 -0.07261064
-0.21857066 0.044459473 -0.03883188 0.14823174 0.18666165 0.2553169 0.19567029 -0.13251641
0.253499 -0.050672647 -0.13276444 0.17753246 -0.16353178 0.19315524 -0.129924 -0.051801074
-0.0955226 -0.12936701 -0.18899918 0.008251854 0.18019748 0.23414199 -0.05951995 -0.061612107
0.14260837 -0.06521142 0.070706494 -0.006390821 0.068089955 -0.03105437 0.1921615 -0.224383
-0.017333735 -0.26111433 0.072497115 -0.054308284 -0.14953148 0.089760296 -0.09510304 0.4014823
-0.2734937 0.31563368 0.32017326 0.015704544 0.07467951 0.013595396 -0.113071315 0.051129248
-0.08273961 -0.1920192 -0.19081734 0.23896115 -0.013201416 -0.14713082 0.10875113 -0.22920376
-0.25111547 -0.20342153 -0.07047845 0.26363787 0.10760404 0.1906696 -0.14774938 0.12541485
-0.17548154 -0.2534274 0.15442573 0.004264081 -0.12557688 0.023112928 -0.17964561 0.01052186
0.082826465 0.044976015 -0.0057647005 -0.21142513 0.16290526 0.1964123 0.1586797 0.10307588
0.05507028 -0.09803983 0.116359726 -0.085960425 0.03188282 -0.15432917 -0.15054837 -0.17595616
-0.04227414 0.1530953 -0.20465507 0.1159739 0.22439907 -0.2231207 0.16480778 -0.19009045
0.18847454 -0.17246756 0.092211016 0.2501889 0.05080775 -0.14482874 -0.0853781 -0.10772626
-0.18271233 -0.21741275 0.25390825 -0.10747316 -0.11422684 0.2544008 0.16400732 0.24244718
0.1574675 -0.09919246 0.091738485 0.20060968 0.1605435 -0.20682096 -0.20562774 0.028180636
-0.15487212 -0.08063565 -0.16923153 -0.139653 -0.19844611 -0.121288925 -0.16508542 0.012146204
-0.23720527 -0.10122981 0.087924235 0.22047983 -0.01400657 0.23025969 0.05353308 0.13833976
0.039805546 -0.09473166 -0.20264322 -0.0035206443 -0.1534465 -0.23725991 0.1148577 0.0140651865
0.25002608 0.17831902 -0.129484 0.14641094 0.20424646 -0.16721047 -0.23049106 0.197429
-0.15720916 0.10646109 -0.23418546 -0.060773235 -0.00012795124 -0.1905936 0.17176156 -0.010243825
0.22083673 0.18517752 -0.049756225 0.24931498 0.064499244 0.20261289 0.19364126 0.13346875
-0.17058301 0.17003596 -0.25364053 -0.1394084 -0.17917387 -0.13276279 0.23354976 0.0046323766
-0.05645235 0.25230592 -0.21608889 -0.21651848 -0.25897124 -0.13931815 -0.1340709 0.0783412
0.0606821 0.21642034 0.30795878 -0.2769093 -0.2857103 -0.31139928 0.23446044 -0.06665231
0.054905564 -0.06132607 0.17647141 -0.24045664 0.16447444 0.20417853 -0.014144445 -0.14442588
-0.118929155 -0.048185106 0.09821773 0.11078675 -0.20685741 -0.1921759 0.08981235 -0.1326011
-0.19073455 0.26579413 0.1707303 0.110687494 0.21070603 0.14903572 -0.09710444 0.03163604
0.21440403 -0.23056383 -0.09633357 -0.08482333 -0.0637197 -0.35850677 -0.2772073 -0.048971903

policy_network.0.bias f4 [128]
00000000: ad42 77be 2b93 193e 3cb9 79bd 8638 953b
00000010: 7c38 953d d132 bcbd f94a 063e 68df a53d
00000020: 7592 4c3e 27e6 1a3d e46f d2bd da87 cd3d
00000030: a246 353e cfa4 303e b7ea 92bd 0c4a 7e3e
00000040: 1900 143e a3e2 3dbe c3f0 993c 5150 c0bd
00000050: fce8 423e eb11 d9bd 8d02 32be cc91 60be
00000060: 3d9a 223e 69b5 35be 2836 c83d e8e2 7bbe
00000070: db14 48be a6ee 143d 33bc 513d e6b7 f53d
00000080: 43b7 66be 5489 d4bc 0716 6ebe df4c 44be
00000090: 8765 32be f056 c83d 7503 8bbe 38e9 2c3d
000000a0: 033b a53d 9f57 48bc b1be 343d ae09 363e
000000b0: 927f 00bd 4f78 26be b11f 5ebd 299d 323c
000000c0: 155e 41be b084 08be a4c2 9f3d 8ebf 04be
000000d0: 8eee 30be b2c3 343e 83b8 373d 6ab0 1c3e
000000e0: 06f2 d6bd ada8 1abe 5768 3a3e be98 ccbc
000000f0: 189d 53be bcab 6ebe 94e7 a3bd 6081 033e
00000100: 42fa 2d3e f4cd 0c3e 8816 493d 1b08 0e3e
00000110: 473d b5bd 41a4 fabd 7753 16be 8144 f3bc
00000120: 0353 07be efa9 723e 6c3f c5bd 0221 77be
00000130: 9736 0dbe afeb 013e 2a60 63be bf3f 8bbd
00000140: 51aa 6b3e 2efc f4bd ec31 a43d 3acc 273e
00000150: 0b2b 64bd c93b 1d3d 990f 51bd 29f1 e7bc
00000160: af16 513d 6d1c 363e f22e 2fbe e261 7e3e
00000170: 3152 80be 542d 06bb ea97 e8bd cd79 a5bc
00000180: 8cc9 cf3d 3c44 683d c92a 0a3e 391c 36be
00000190: 653f ca3c 824c 89be db51 683e 79a8 52bd
000001a0: 1389 5fbe daad 953d 4198 51be 83d0 8a3d
000001b0: a046 31be cb24 393e 3a4d cd3d 4dc9 f3bd
000001c0: 6325 59be 2b93 8abe b1ae 623e 7495 c9bc
000001d0: 82c3 643e dc5c 83bd c61a adbd fc33 9f3d
000001e0: 52d8 42be d81f 003d c983 0a3e 9867 03be
000001f0: 27a5 2b3e 0c90 84bc 8662 08be a215 39be
-0.24146529 0.14997546 -0.06096767 0.0045538573 0.07286164 -0.0918938 0.13114537 0.08099252
0.19977744 0.037817147 -0.10275248 0.10035677 0.17702726 0.1725037 -0.071736746 0.24832934
0.14453162 -0.18543486 0.018791562 -0.09390319 0.19034189 -0.10599121 -0.17383786 -0.21930617
0.1587915 -0.17744984 0.097759545 -0.24598277 -0.19539206 0.036360405 0.05120487 0.119979665
-0.22530846 -0.02594439 -0.2325059 -0.19169949 -0.17421542 0.09782207 -0.27151075 0.042214602
0.08067896 -0.012227922 0.04412717 0.1777713 -0.03137166 -0.16256832 -0.054229442 0.010901728
-0.18883546 -0.13331866 0.07800797 -0.12963697 -0.17278501 0.17652777 0.0448537 0.15301672
-0.10495381 -0.15103407 0.18203865 -0.024975177 -0.20665395 -0.23307699 -0.080031544 0.12842321
0.16989997 0.1375044 0.049093753 0.1387028 -0.08849578 -0.1223836 -0.14680277 -0.029695751
-0.1321526 0.23697637 -0.096312374 -0.24133685 -0.13790356 0.12687562 -0.22204652 -0.06799268
0.2301419 -0.11962162 0.08017334 0.163865 -0.05570511 0.038387094 -0.051040266 -0.028313236
0.051047023 0.17784281 -0.17107752 0.24842027 -0.25062707 -0.0020473795 -0.113571 -0.02019968
0.10145864 0.0567057 0.13492884 -0.17784204 0.024688432 -0.26816183 0.22687475 -0.0514302
-0.21829633 0.0730855 -0.20468237 0.06778052 -0.17312098 0.18080442 0.100244954 -0.119036295
-0.21205668 -0.27065405 0.22136952 -0.024607398 0.22340205 -0.06414196 -0.08452372 0.07773587
-0.19027832 0.03128037 0.13526835 -0.12832487 0.1676222 -0.016181968 -0.13318834 -0.18074659

policy_network.3.weight f4 [256, 128]
00000000: 883a 18bd 7191 4bbd 41a0 a0bc 7f54 b0bd
00000010: dac9 cbbd 0920 943d b4cd bdbd f753 913d
00000020: 73f5 babc c7b7 f9bc 05af b9bd 715b a1bd
00000030: 8d88 bf3a b094 80bd e821 173d 59c0 953d
00000040: 2258 443d bf79 a7bd cade 6c3d 5fa2 a83c
00000050: 3d39 0c3d 1ea5 a5bd ee85 97bc 1593 903d
00000060: 769f 3e3c 3851 18bd cc0f 8b3d 0ee3 44bd
00000070: 48d4 babc 6127 7abd 9254 cdbc b333 8bbb
00000080: 9d94 853c 10fb 653d 0e11 553d 5bb9 a4bd
00000090: bd90 13b9 ecf9 0fbd c597 9d3d 67ec 79bd
000000a0: c4dd 09bd c352 4c3d fd9e 0bbd aba7 a5bd
000000b0: 5452 babc e4c2 643d 7a60 acbc b767 18bd
000000c0: 941d 8ebd 1a20 ba3c 9744 82bd f4c7 753c
000000d0: 1aa8 68bd 521f 6a3d eff6 8b3c a4bf 6dbc
000000e0: a55b b6bd 5ac1 8fbd b457 55bd 2d68 7fbd
000000f0: fdb8 69bd acb8 7e3c 8936 91bc c979 66bb
00000100: 9702 343d f6df 7abb 4b52 3d3d cd5a 1c3d
00000110: 77dc 97bd eece f1bb 08fe 523d 489b 59bd
00000120: 38e0 e3bb 0cb5 343c 95bc a6bd 18eb 9a3c
00000130: eef1 34bd 2377 9ebc bbf3 d93c 16e1 303d
00000140: 5705 52bd 2448 b9bd 09de b43c 1399 1abd
00000150: d2e4 0e3d e5d9 a73d 3330 5a3d 0654 f6bc
00000160: 5066 de3a 01cd febc 80ae 24bc 32b3 abbd
00000170: d640 aabd c132 b3bd 8678 96bd 76d1 383d
00000180: 554a 253c 057c d03c 54c6 80bd a945 a33c
00000190: 47d7 b1bd 6426 fe3c a761 66bd c2df 4f3d
000001a0: de01 7abc e660 823d 6fd8 583c d237 413d
000001b0: b018 953c ec7a 763d f081 fb3a aced a23d
000001c0: 813d 0c3c 3e9b 87bc d606 0abb 3172 2dbd
000001d0: 92ed 1fbc 1627 81bb eb67 64bd fed6 babb
000001e0: 184a 41bc 5518 47bd 8ec5 95bd 4a6c babd
000001f0: 97f1 7a3c 8722 7abd d32a f4bc 9d44 39bd
00000200: f56c 8dbd 003b 603d ef0b 173d cea3 98bd
00000210: dc1c 6b3d acc5 edbc 42df 043d 08f0 5f3d
00000220: 3f9d 453c cbf0 90bd 1a52 49bd 2295 9dbd
00000230: f91a fa3c 5a53 813d 186f a33d 9211 1fbb
00000240: 3f6e 4dbc 6d5a 4fbd 7bb1 e63d 3079 83ba
00000250: d976 c03b c1e6 89bd 3d4b 32bd 6b25 3cbd
00000260: 30d3 3f3d 9415 3e3c f1c5 29bd 6d22 73bd
00000270: f2a0 ec3c ccd9 d9bc 5d97 83bc 9438 303d
00000280: e26b 1d3d ebc5 893d e60a 983d 967a 9bbd
00000290: 1899 33bd afec 3c3c 982a 78bd 5ebe 0cbd
000002a0: f9ae 7d3d 07e4 16bd 2845 d439 7301 1bbd
000002b0: 0b59 54bd ce55 d2bc a038 a7bd a9f3 813d
000002c0: 23fb aa3d 5426 3dbd e3d8 7dbd 8308 8bbd
000002d0: 83ea c3bc c4ef 503c fc8a 513c 73ca 383d
000002e0: bf7d ca39 640d 0bbc e830 b33c da76 94bd
000002f0: 94e4 8e3d eb6a a83b 8fc7 85bd 2a45 e03c
00000300: 8c07 4dbd 1453 8c3c 8c59 ea3c 1992 a2bd
00000310: b32c 483c b23b 993d 4d24 ac3d 07b7 813d
00000320: cafe 4c3d b3c4 653d 6b23 90bc 3379 98bd
00000330: 0eba af3d 395f 313d a6f8 35bc efd1 5b3d
00000340: ccf1 483d cc21 823d 0bad 1e3d e5d5 753d
00000350: c850 b1bd 6077 7dbd 23d7 243b 41da 84bd
00000360: 5d1c 113d c37a 963d 7480 003d dd51 6c3c
00000370: 2510 04bd 74dd 103d 5723 99bd 1e2f 0dbd
00000380: 5eec 303d 2b6e 81bd 9ed6 063d 2fa2 b5bd
00000390: 6856 96ba 6e57 90bd a88c 9bbd ab18 923d
000003a0: e977 b4bd 0104 333d b549 953d 5d21 64ba
000003b0: 3591 aa3d ade5 173d c487 8e3d 94f4 863d
000003c0: a3ad a6bd 8893 9f3c ea2a c8bc d6eb b73c
000003d0: 997f 313d 8b60 b6bd 82e2 173d f29a 5dbd
000003e0: 72a1 5c3d 6c97 863d a204 95bd 8561 e8bd
000003f0: eebc 88bc 15c5 1c3c 16d7 a23d bfe1 7cbd
-0.037165195 -0.04969925 -0.019607665 -0.08609866 -0.099506095 0.07232673 -0.092677504 0.07096093
-0.022822117 -0.03048314 -0.090665855 -0.07878769 0.0014612839 -0.0627836 0.03689757 0.07312078
0.047935612 -0.08177518 0.057829656 0.020585237 0.034234274 -0.08088134 -0.01849648 0.07059304
0.011634698 -0.03718683 0.067901224 -0.0480681 -0.022806302 -0.06107271 -0.02506474 -0.0042481064
0.016306216 0.056147635 0.052018218 -0.08043166 -0.00014072932 -0.035150453 0.07694963 -0.061016466
-0.033658758 0.049883615 -0.03408717 -0.08088621 -0.022744335 0.055849925 -0.021042097 -0.037208285
-0.06939235 0.022720385 -0.06360739 0.015001286 -0.05680094 0.057158776 0.01708552 -0.014511023
-0.089041986 -0.07019301 -0.052085593 -0.06235521 -0.057061184 0.015546959 -0.0177262 -0.0035167804
0.043947782 -0.0038280464 0.04622106 0.038172532 -0.07415097 -0.0073794043 0.051511794 -0.053126603
-0.006954219 0.011029493 -0.08141438 0.01891093 -0.044176035 -0.019343918 0.026605478 0.04318341
-0.051274624 -0.09046963 0.02207853 -0.03774364 0.03488619 0.08195857 0.053268623 -0.030069362
0.0016967747 -0.031103613 -0.01005137 -0.08383788 -0.08313148 -0.08749915 -0.07347207 0.045121633
0.010088523 0.025449762 -0.06287828 0.019930677 -0.08683639 0.031024165 -0.056245472 0.0507505
-0.015259234 0.06366138 0.013235196 0.047172375 0.018200248 0.06017582 0.0019188505 0.079554886
0.008559586 -0.016553517 -0.0021061203 -0.04234523 -0.009761231 -0.003941427 -0.055763166 -0.0057018986
-0.0117974505 -0.04860719 -0.07313071 -0.09102686 0.015316389 -0.061068084 -0.029805576 -0.04523145
-0.069055475 0.054743767 0.036876615 -0.07453118 0.05740057 -0.029024921 0.032439478 0.05467227
0.012061416 -0.070771776 -0.049150564 -0.076944605 0.03053044 0.06314726 0.07980174 -0.0024271947
-0.012538492 -0.050623346 0.112643205 -0.0010030624 0.0058735427 -0.06733466 -0.043528784 -0.045934122
0.046832263 0.011601824 -0.041448537 -0.059359003 0.028885338 -0.026593111 -0.016063387 0.043022707
0.038432963 0.06727203 0.07423954 -0.07591741 -0.043847173 0.011531039 -0.060587496 -0.034361236
0.061934445 -0.036838558 0.00040487316 -0.03784318 -0.05184273 -0.02567568 -0.08165097 0.063453026
0.08348682 -0.04617913 -0.061974417 -0.06788733 -0.023915535 0.012752477 0.012789484 0.045114946
0.0003862213 -0.008487079 0.021873906 -0.07249232 0.069771916 0.0051396987 -0.065322034 0.02737673
-0.050056025 0.017129458 0.028607152 -0.07938022 0.012217688 0.07482089 0.08405361 0.06333738
0.050047673 0.05609579 -0.017595014 -0.07444992 0.08580409 0.043303702 -0.011106646 0.053667005
0.04905872 0.063541025 0.038739245 0.06001844 -0.08657986 -0.061881423 0.0025152646 -0.06486941
0.03542744 0.07347634 0.031372502 0.014423815 -0.03224196 0.035367444 -0.07477444 -0.034468763
0.043194167 -0.06319841 0.03291952 -0.08868825 -0.0011469843 -0.07047926 -0.075951874 0.07133611
-0.088119335 0.04370499 0.07289449 -0.0008702481 0.08328477 0.03708427 0.06959489 0.06589618
-0.08138587 0.019479528 -0.024434526 0.022451323 0.043334577 -0.08905133 0.03708125 -0.054102845
0.053864904 0.0657185 -0.07276274 -0.113467254 -0.016691651 0.009568472 0.07951181 -0.061738726

policy_network.3.bias f4 [256]
00000000: 2808 09bd 3725 ed3c ac79 a53d 2b34 b3bd
00000010: 59de f2ba e8c7 cbbd f40e bcbd cf6d 913d
00000020: cc9f 473d 7100 9cbd 0c77 763d 2afc 32bc
00000030: 0568 eb3b 903b 083d f557 a53d bcc2 043d
00000040: 5d10 633d 688f 77bd 1361 e2bb c4cc 803d
00000050: 630b 00bd 00d8 1fbd fce9 9fbc 5d0a 62bc
00000060: 6fe6 68bd bb16 97bd 399d 1dbd 046c 2fbd
00000070: fd9b 80bd f585 e73a e6d5 923c ac31 503d
00000080: 6b66 97bd 8012 bbbd 67e2 cebc 9ece 483c
00000090: f340 5a3d a543 c5ba ae28 5d3d f517 09bd
000000a0: 17fa 4ebc be75 8e3d c49e aebd c5b2 bf3c
000000b0: c8ad 0ebd 1f0c 8dbd 1928 1bbd 13b4 013d
000000c0: c423 393d dc46 1dbd 777e 1a3d 477a f23b
000000d0: ba09 983d 749d 7a3d 8361 333d c46d 98bd
000000e0: 3cb9 9fbd 5140 a13d ae9b b3bd fd8c 49bd
000000f0: 5691 da3c 7c40 2dbb 5a7e 9abd 01d4 a43d
00000100: 3282 9abd 978c 5ab8 be6e 19bd fa38 b3bd
00000110: cf95 733d 4aaa 113d c2ff 463d 6a71 0ebd
00000120: d3b7 e63c 238d 933d 113d 803d 6b02 a4bd
00000130: 9108 10bd 853b c6bc 6cd8 8a3c c401 653d
00000140: adac 393c 7fdc e33c b883 793d 0669 db3b
00000150: 9339 bf3c a5e6 86bc 1907 70bd 3310 e0bd
00000160: ad6d 27bd 6dd4 ae3c 98d0 76bd ee0a 86bd
00000170: 84ba 57bd ecc2 ef3c d7bc 013d 6433 72bc
00000180: cdb4 6ebc 9f1f 9ebc 9fb2 90bc 811a cbbc
00000190: e1d1 4cbd 2ced 733d 36be 40bd 1556 7f3d
000001a0: e061 7a3c b0df 883d 0d4a 91bd d634 323d
000001b0: 1d4c a93c 4264 923d 14bf 0e3d 958c 913d
000001c0: 6d39 8c3d 27ef a5bd 3956 abbd 2bcd 073c
000001d0: dc44 5f3d 3fb3 593d 15bd 7b3d dfca cdbd
000001e0: 5b7f 34bb 2abb f43c 6c45 973c f8f1 c8bd
000001f0: d68b 6b3d 518f c4bc 81d8 2abd e45c 8bbd
00000200: 7a69 0f3d b6ab 82bd ca9b 0abd 026f 55bc
00000210: 9ec1 83bd 1075 eebc 4849 433d d810 3abd
00000220: 81a8 57bd 2b3f 46bd 855c 9a3d 9eb5 97bd
00000230: 8186 7f3d 4fb9 c73c 630f 60bd 1a8d dd3a
00000240: 0431 3a3d f928 4c3c 6562 b2bc 932c 49bd
00000250: 5680 a6bd 745f f2ba 1794 7f3d fabb a8bd
00000260: 30b8 543d 3c04 83bd cd9a 653d cd23 d13c
00000270: cbc7 773d 032c 51bd ee02 873d c0d0 103d
00000280: d3c9 5a3d 15a0 ec3c 3844 6bbb ea0e 8fbd
00000290: ba4a 64bd d29f 0ebd 73a5 65bd ea44 e7bc
000002a0: db69 023c abe5 84bd 0c0a 443d 54eb 173d
000002b0: 615e 383a 6324 893d 7f6f b1bd fa4d 223d
000002c0: 03a7 913c c72b 9dbd 1416 083d b6b6 bebd
000002d0: 6201 323a d150 9ebd b183 bb38 b384 8cbd
000002e0: 7d27 4b3d 0f2c 83bd b78b 883d d168 b1bd
000002f0: ffe4 1d3d ef91 483d 4327 aa3b b8ce e83c
00000300: bdea 283d 34cf 89bd 2f3e 52bd 0fc5 233d
00000310: e28e 0bbd 5856 7fbd dd5f 103c e4c0 403d
00000320: db15 babd c89e 7dbd a278 b0bd 0895 033d
00000330: c2f4 15bc d3f3 0abd 427f b6bd fea1 cf3b
00000340: 3199 6bbd c257 afbd 894f 5ebd 60ca 89bd
00000350: 9a61 5b3d ee6c 803d 505e 37bd 2892 c9bd
00000360: 90e5 a93b b746 39bd fec1 55bd dc4c cfbd
00000370: 28c5 99bd fc7b 3d3d cc6a 753d 12cd 233d
00000380: fec4 ebbc 0891 c3bd 80a3 8a3d 13b2 903d
00000390: 761b 813c 78d5 1bbb 3442 89bd f530 1b3d
000003a0: aa4f 423d a15c a6bd 06f3 c7bc f2f8 ccbd
000003b0: e779 223c 6aba 80bc 7c0e 5e3c c193 bebc
000003c0: 7d45 96bc 594a dd3c 6178 893d 8e1e 613d
000003d0: a7c0 7fbc 2f13 87bd f10b 983d fe50 ed3b
000003e0: 6a70 4b3d bef4 4d3d 7e95 03bd 6325 11bc
000003f0: 7526 7c3d 51da 7bbd 95ed dd3c c64a 7abc
-0.033455044 0.02894841 0.08079848 -0.087501846 -0.00185294 -0.099502385 -0.091825396 0.071010225
0.04873638 -0.07617272 0.060172126 -0.010924378 0.007184031 0.03325993 0.08073417 0.032412276
0.055435527 -0.060439497 -0.006908545 0.06289056 -0.03126086 -0.039024353 -0.019520752 -0.013796416
-0.056860384 -0.07377382 -0.038480017 -0.04282762 -0.062797524 0.0017663824 0.01792426 0.05082862
-0.073925816 -0.09134388 -0.025254441 0.012256293 0.053284597 -0.0015050067 0.053993873 -0.033470113
-0.012632868 0.06956051 -0.08526376 0.023400674 -0.0348337 -0.068870775 -0.037880037 0.031665873
0.045200124 -0.038397655 0.037718263 0.0073998305 0.0742373 0.061185315 0.043794166 -0.07442811
-0.077990025 0.078735955 -0.08769928 -0.049206723 0.02668063 -0.002643614 -0.07543631 0.08048249
-0.07544364 -5.2106185e-05 -0.037459128 -0.08751102 0.05946904 0.03556279 0.048583753 -0.03477613
0.028163826 0.07204654 0.062616475 -0.08008274 -0.03516442 -0.024198303 0.016948901 0.055909887
0.011332673 0.027815102 0.060916632 0.0066958694 0.023342883 -0.016467402 -0.05860052 -0.1094059
-0.04087608 0.021341527 -0.060257524 -0.065450534 -0.05266811 0.02926775 0.031674232 -0.01478276
-0.014569473 -0.019302187 -0.017663298 -0.024792911 -0.050004844 0.059552357 -0.0470564 0.062337954
0.015282124 0.0668329 -0.07094202 0.04350742 0.020666176 0.07148029 0.034850195 0.07106892
0.068468906 -0.08102255 -0.08366055 0.008288662 0.05450903 0.053149458 0.06145962 -0.1004846
-0.002754173 0.029874403 0.01846572 -0.09811777 0.057506405 -0.02399412 -0.04171038 -0.06804827
0.0350127 -0.063804075 -0.03383998 -0.013026955 -0.06433414 -0.029108554 0.04767731 -0.04542622
-0.052650932 -0.048400085 0.07537178 -0.074076876 0.062384132 0.024380354 -0.054702174 0.0016903013
0.0454569 0.0124609405 -0.021775434 -0.049114775 -0.08129947 -0.0018491582 0.06239709 -0.08238979
0.051933467 -0.06397292 0.056055833 0.025529766 0.06049327 -0.051067363 0.06592356 0.03535533
0.05341513 0.028884927 -0.0035898816 -0.069852665 -0.055735327 -0.034820385 -0.056065988 -0.028231103
0.007959808 -0.06489118 0.047861144 0.03708966 0.00070331065 0.06696393 -0.08663844 0.039625145
0.017779833 -0.076743655 0.03322418 -0.09312193 0.0006790367 -0.07730258 8.941384e-05 -0.06861248
0.049598206 -0.06404888 0.066672735 -0.0866257 0.038548466 0.048967298 0.0051926686 0.028418884
0.04123949 -0.06728974 -0.051328834 0.03998285 -0.03407181 -0.062338203 0.008811918 0.047058955
-0.090862 -0.061919004 -0.08616759 0.03212455 -0.009152593 -0.033923935 -0.08910991 0.0063364496
-0.05751914 -0.0856166 -0.05427507 -0.06728053 0.053559877 0.06270777 -0.044767678 -0.0984233
0.0051848367 -0.045233455 -0.05218696 -0.10122082 -0.07508308 0.04626082 0.059916303 0.039990492
-0.028780457 -0.09549147 0.067694664 0.07065215 0.015760165 -0.002377836 -0.0670208 0.037888486
0.047439255 -0.08123136 -0.024407875 -0.1000842 0.009916759 -0.01571389 0.013553258 -0.023263814
-0.018343681 0.02701299 0.067124136 0.05496078 -0.015609897 -0.06595456 0.07424153 0.007242321
0.049667753 0.050282232 -0.03212499 -0.008859011 0.061560113 -0.0614875 0.027090827 -0.015276616

policy_network.6.weight f4 [128, 256]
00000000: 5878 5b3c a25f 48bd eb79 d73d ea99 633c
00000010: a919 2abd d530 09bd 0975 683d 781c 353d
00000020: 70a9 66bd eb05 a43c e5d2 b63d bf40 4e3d
00000030: 269f a0bd ae4b 7e3d bb9b 833d 90ce 443d
00000040: 4b66 e03a 8052 7f3b 45e7 2f3d 8a1b 1f3d
00000050: 0a73 4dbd 5da3 043c 8936 5fbd bfee 18bc
00000060: cb9d da3b e0ce c0bb 9adc cabd ec8a 7d3d
00000070: c1e6 ffbc 08d8 203d fdb1 16bd fb31 a0bd
00000080: b968 8e3c 24ec 863d a728 c13a bde0 873c
00000090: 4c41 5dbd fae1 52bd d8ea c0bb 106e 50bd
000000a0: c84d 13bd afc6 50bd a88a 083d 6f77 03bc
000000b0: c84a 37bc b222 143d 4071 b73b 5275 723d
000000c0: 6efb 8c3d 83ee e0bc b641 8e3c 0cce be3d
000000d0: b04f 80bc 622e 5bbc 56ed 4b3c 8f66 c3bb
000000e0: d871 03bc 8aa6 8b3d 4c51 9bbc f308 8439
000000f0: 9b3b edbc 814e 5c3d b085 c4bc 1a30 99bc
00000100: 6cbf d63c b3c9 a2bb 444a 0a3d 0275 be3d
00000110: 92e6 a73d 8e3b 7f3d 533a 6b3d 80e9 9a3b
00000120: 291f 033c 23a4 17bc 76b3 fa3b 931e f1bc
00000130: fc0e b2bb 20f9 4fbd 9302 063c de41 9cbc
00000140: 0c67 bfba ee3b 3cbc 51d8 413d e1cf 32bc
00000150: 91b1 e53c 714d 2a3c 36bb c3bb 47f2 863d
00000160: e94c 923d 1619 77bd 7a1f 30bd 1e3e 54bd
00000170: 78e3 27bd 7647 58bd a0e2 4cbc 8294 1f3d
00000180: 7c08 14bd e852 dcbc 72b6 863d b67b c13d
00000190: d59b 41bd ae91 07bd 4c22 713d e9cc 663c
000001a0: d87b aa3d 8521 0dbd fb03 f03c 7093 efbb
000001b0: 1618 65bc be8d 84ba e991 a73b 980a ed3c
000001c0: ba06 863d 78c3 d33c 822d b4bc 662b 0f3d
000001d0: 2706 b23d b47b c5bc 136a 183a 474d 9bbb
000001e0: 613e bab9 8475 29bd 224e 96bd 182b 903c
000001f0: 9f1d 4e3c 0e4f 4d3c 492c 5e3c de9b 3e3d
00000200: 1c57 ef3c 188a 2dbd b9eb b3bc 2b1b 1e3d
00000210: 801c bf3c dd16 443d 6d1c 563d 9ed3 603b
00000220: 32cb d93d 2187 bf3d 3484 163c 726a 79bd
00000230: 23d3 80ba 2352 c83c d0cc 973b 0ec1 783d
00000240: c142 aa3b 5fbd cbbc 9ca5 3abd ecc2 123d
00000250: 4c32 e93c 1034 bb3c df79 453c b0d1 77bc
00000260: ab98 69bd 7e6c 27bd bc6d 393d c4d4 043d
00000270: b90e 85bd 20f3 923c 6042 6a3c 49dd 11bd
00000280: d883 cfbb c169 69bc ba39 33bb f2b0 d53c
00000290: 9b56 00bd de2c 0dbd 24ca 34bd 8858 973d
000002a0: 1fef 083d 1e4e 7bbd b5e3 273c 31ce c83c
000002b0: 3412 dfbc 9e88 d5bc 7f6b 713d 9aeb 8c3d
000002c0: 498d 433c aeb0 65bd ae5c 473d 6487 933c
000002d0: c27a cb3b 51d4 debc a503 11bd 8e1b 1fbd
000002e0: efe9 45bc 60fd b2bb 8a6e fa3d a0cb 98bc
000002f0: a170 1a3d 4861 87bd 30c7 ea3b 1429 f4bc
00000300: 652f 313e fc4b 363d 113e 043d 838b c3bb
00000310: 94f4 953c 6613 2abd 6355 16bd 70a4 b83b
00000320: c236 c23d 1b8a af3d e875 5f3c 5198 51bd
00000330: 79a6 123d 8e9b 77bc a012 b83b 2804 a03c
00000340: e9a9 693d 18c1 ecbc 1f9a b3bc 5a7f 39bd
00000350: 0cff 7b3d d2c5 2fbd f32f dc3c 9db3 7f3d
00000360: 785a 7d3d f38b a0bc ae8a 81bd 205a 243c
00000370: 12f2 3c3d 152f 0b3d af4a 74bc 1f4d 92bc
00000380: 0d5c 75bb c966 80bd 1f97 d2bc 1c74 9e3b
00000390: ce77 5f3d 0cc9 bbbd 6683 1ebd fb8b 323d
000003a0: 619f f13c f69d 4e3d 3e13 363d bf2d 57bc
000003b0: dd0b 953c abed d33c 0b54 d83c 7a1f 1bbd
000003c0: f120 7c3c 15ea 84bd 1717 f53d 130d ad3c
000003d0: ce79 593d 5534 153d bb8c 2ebc 8b94 933c
000003e0: 309d cc3b 72d1 f5bc 0077 0e3d 461e d63b
000003f0: 4773 223c 800b 2b3d 18eb 763c b874 3c3d
0.013395391 -0.048919328 0.10521301 0.013891676 -0.041528378 -0.033493835 0.05675224 0.044216603
-0.056313932 0.020022353 0.08926944 0.050354715 -0.07842855 0.062083893 0.064261876 0.048048556
0.001712033 0.0038959086 0.042945165 0.038844623 -0.050158538 0.0080955895 -0.05449537 -0.009334265
0.0066716424 -0.0058840364 -0.09905358 0.061900064 -0.031237962 0.039268523 -0.036790837 -0.07822033
0.01738392 0.06588009 0.0014736847 0.016586656 -0.05401735 -0.05148504 -0.0058873706 -0.050886214
-0.03596285 -0.05097073 0.033335358 -0.008024081 -0.011187263 0.0361659 0.0055982172 0.059193917
0.06883894 -0.027457481 0.017365318 0.09316644 -0.015662998 -0.013377758 0.012446722 -0.0059631537
-0.008022748 0.06818874 -0.018959664 0.0002518367 -0.028959086 0.053785805 -0.023989528 -0.018699694
0.026214324 -0.004967892 0.03376223 0.09299661 0.08198275 0.062312655 0.05742867 0.0047275424
0.008003035 -0.009255442 0.007650788 -0.029433524 -0.005433915 -0.050774693 0.008179325 -0.019074377
-0.0014602854 -0.011488898 0.047325436 -0.01091382 0.028038772 0.01039444 -0.005973245 0.065891795
0.07143576 -0.06032666 -0.04299877 -0.051817052 -0.040988415 -0.052802525 -0.0125052035 0.038959987
-0.036140904 -0.026895002 0.065777674 0.09447424 -0.047267754 -0.033097915 0.0588706 0.01408694
0.083244026 -0.034455795 0.029298773 -0.007311277 -0.013982793 -0.0010113043 0.0051138294 0.028935716
0.06544252 0.025850043 -0.021994356 0.034953497 0.0869258 -0.024106838 0.0005814146 -0.004739437
-0.0003552316 -0.041371837 -0.073391214 0.017598674 0.012580304 0.012531055 0.013560363 0.046535365
0.029216342 -0.042368025 -0.021962987 0.03860013 0.02332902 0.047873367 0.052273203 0.0034305821
0.106344596 0.09351946 0.009186793 -0.06089253 -0.0009828549 0.024453228 0.00463257 0.060730986
0.005195946 -0.024870573 -0.045568094 0.035830423 0.028466366 0.022851974 0.012052982 -0.015125677
-0.05703036 -0.04087495 0.045270666 0.03242947 -0.06496949 0.017938197 0.014298052 -0.035611425
-0.0063328557 -0.014246405 -0.002734764 0.02608535 -0.031332593 -0.034466617 -0.04413809 0.07389933
0.03343117 -0.061353795 0.010247161 0.024512382 -0.02723036 -0.02606612 0.058940407 0.06880875
0.0119355405 -0.056076698 0.04867237 0.018008895 0.006209702 -0.02720085 -0.035403866 -0.038844638
-0.0120797 -0.0054623336 0.12228115 -0.018651783 0.037705068 -0.06610352 0.0071648583 -0.029804744
0.17303236 0.044506058 0.032285754 -0.005967559 0.0183051 -0.041522406 -0.036702525 0.005634837
0.094831005 0.085712634 0.013638951 -0.05117065 0.035803292 -0.015112771 0.0056174546 0.019533232
0.057046805 -0.028900668 -0.021924077 -0.045287468 0.06152253 -0.042913266 0.026878333 0.062427152
0.061853856 -0.019597983 -0.06325279 0.010031253 0.046129294 0.033980448 -0.014910384 -0.01785904
-0.00374389 -0.06269605 -0.025706826 0.0048356187 0.054557614 -0.09169206 -0.03869953 0.043590527
0.029494943 0.050443612 0.044451945 -0.013133465 0.018194133 0.025870165 0.026407262 -0.037871815
0.015388713 -0.0648996 0.11967295 0.021124398 0.053094678 0.03642686 -0.01065367 0.018015167
0.006244324 -0.030007098 0.034781456 0.0065343706 0.00991518 0.041759014 0.015070699 0.04600975

policy_network.6.bias f4 [128]
00000000: a0f2 1fbd fc33 87bd 7abc 41bc cc36 a9bc
00000010: 437c f03c 81ad 93bd 9d2a 51bd c296 0d3d
00000020: aea3 2a3c c00d 13bc 0afb fa3c 7877 313d
00000030: 1e74 3fbd b61b 8ebc 5100 4c3c a197 3fbd
00000040: 293e 8d3c 99a6 78bd 85b1 11bd c437 8bbd
00000050: 65fc b2bc 2d57 ebbc b204 69bd 17c3 bdbc
00000060: 9352 1d3d 2eb6 113d ed24 0fbd 0e8a cc3c
00000070: f442 22bd 8d6f 593b a4ab 073d 95ef 80bd
00000080: b4b9 33bd 0964 2c3d a446 7cbd 1c27 a03c
00000090: 4765 5fbd da89 f53c cc2c b13c 96a9 5dbd
000000a0: cef5 6c3c fb23 23bc 62f2 acbd b5b8 d739
000000b0: 97bf 5fbc a0bc 12bd 334c 59bd 7689 2ebc
000000c0: ab0b d0bc 40e2 0abd 86f2 80bd 7b21 ae3b
000000d0: 01f5 6bbc 9a05 6dbd 3a51 3ebb 690c 423d
000000e0: 701f 323c e9ef 963c dc63 dabb 7db6 503c
000000f0: 5bee e4bc 70e5 0d3d 3ef7 6cbd df61 88bd
00000100: 2c1f 4cbd 3a34 353c f5f1 f5bc 102d 79bd
00000110: a19f 4bbd 2e83 51bd 8ebd 07bd 735b 4d3a
00000120: 9606 a73c 4987 493d 9dea dfba df5a 8dbd
00000130: 7833 353b 745a 7fbd 101b 3c3d 36d0 df3c
00000140: 506e babc 629c ccbc 107c 353c 4444 74bd
00000150: bcea 6bbb cda4 3fbd 81e2 b5bc fe7a a33c
00000160: 419d 48bc 2ed0 e8bc 38cd b1bb cb4f e73b
00000170: 8f89 4a3c 5458 293c 03cf 463c 47af cfbc
00000180: 1380 2fbd 17b3 24bd 406b c0bc 29f7 20bd
00000190: 67ac 07bd d6af 81bd 430a 683d 09cf 853d
000001a0: c3a8 93bd b76c 1f3d 38aa 1d3d 9703 a73c
000001b0: db6b 95bb 94d9 adbc c591 4fbd d768 95bd
000001c0: 239b fbbc e938 b23b a540 533c 9771 2bbd
000001d0: 8f49 e7bc a6b7 74bc dada 3a3d d0a5 7bbd
000001e0: f45e e83b 15f7 a93c acdf 01bd c1b5 353d
000001f0: bc35 98bc e699 f23a 4856 c03c 1396 013d
-0.039049745 -0.06601712 -0.0118247215 -0.020656012 0.029356128 -0.072108276 -0.05106603 0.034567602
0.010415001 -0.008975446 0.030637283 0.043326825 -0.046741597 -0.017347198 0.012451247 -0.046775464
0.017241554 -0.060705755 -0.035569686 -0.06797746 -0.021848867 -0.028728092 -0.056889243 -0.023164315
0.038408827 0.03557413 -0.034947325 0.024968173 -0.039614633 0.0033178062 0.033122674 -0.06295697
-0.043878272 0.04208759 -0.061590806 0.019549899 -0.054539945 0.02997296 0.021627806 -0.054116808
0.014462901 -0.009957309 -0.08444668 0.00041145613 -0.013656518 -0.035824418 -0.053051185 -0.01065289
-0.025396189 -0.033907175 -0.06296258 0.00531405 -0.014401675 -0.05786667 -0.0029040114 0.047375116
0.010871753 0.018424945 -0.006664736 0.012738821 -0.027945688 0.034642637 -0.057852976 -0.066592924
-0.049834415 0.011059815 -0.0300226 -0.06083399 -0.04971278 -0.051150493 -0.033139758 0.00078337564
0.020388883 0.049201284 -0.001708347 -0.06902098 0.0027649086 -0.062342122 0.045924246 0.027320962
-0.02275768 -0.024976913 0.011076942 -0.059635416 -0.0035998067 -0.046788026 -0.022202732 0.019956108
-0.0122445235 -0.02841958 -0.0054260753 0.0070590726 0.012361898 0.0103360005 0.012134316 -0.025352133
-0.04284675 -0.040209856 -0.02348864 -0.03929821 -0.0331234 -0.06332366 0.05665041 0.065336294
-0.07209923 0.038922038 0.03849241 0.020387454 -0.0045599765 -0.021221913 -0.050676126 -0.07295387
-0.030713623 0.005438913 0.01289383 -0.041856375 -0.028233318 -0.014936363 0.04561887 -0.061437428
0.0070913974 0.0207477 -0.03170745 0.044362787 -0.01858031 0.0018509 0.023478642 0.031637263

policy_network.9.weight f4 [7, 128]
00000000: 6374 233d ebef fdbc 10ee 8a3d f7e5 9a3d
00000010: 82f6 7bbc ddf2 95bd 6de4 863c 3874 7abd
00000020: 4e24 1dbd f018 33bd ff52 d5bc 9648 67bd
00000030: 706a 313b 9168 99bd 8cee afbd ab0b dd3c
00000040: 6591 41bc 6ea5 863c 113c a1bd 454d 633d
00000050: d2f3 63bc 904a 9e3d 49ef 9cbd f568 96bd
00000060: 5a00 ed3b c025 d03c 4dc3 f33c 9430 d5bb
00000070: c58c 9abd 5252 04bd 55dc 3cbc 451d b43d
00000080: 2b42 9dbd f1ba 12bd 0c37 61bc f34e 54bd
00000090: 1c38 8a3d 67ef 96bd 03e5 043d fd5d a2bd
000000a0: 2120 243c a159 06bd 6e82 6d3c 9165 853d
000000b0: c7a0 9238 5b08 70bd f184 54bd c74c fdbb
000000c0: 0a48 143d 40d0 11bd 68fc 5a3d 43e4 57bd
000000d0: f4b2 093c a871 95bd e75c 033c 0b88 563d
000000e0: 9184 5f3d cd93 933d 81e0 1b3c f0b7 903d
000000f0: 4a36 30bd 6711 833d 93eb 88bd af21 643d
00000100: 6bfb c63c 7e01 0fbd 30fc abbc 73d2 333c
00000110: 58d4 403d e92b 0e3d 0f11 e13c 4d4a 3fbd
00000120: 24d1 7e3d 1456 19bc 0e50 1b3c feb0 493d
00000130: 54a6 08bc 4931 733d 28cf 6dbd 65fe 70ba
00000140: f14b 3abc 6897 6139 71db a2bc 8114 283c
00000150: a588 a53c e197 b03c fc8a 77bd 0709 143d
00000160: 7938 fa3b 2e05 013d 3645 3fbd 370e 3cbc
00000170: d1b6 9f3d b397 d8bc 96c0 23bd 94fe 81bd
00000180: dbdf 1cbd 017a 363d 7e09 4d3d f66c c9bc
00000190: 61d0 48bc cac4 883d 34ad cbbc 46b6 87bc
000001a0: 05b1 ac3b f50e 87bd 7424 4a3d 4e15 823d
000001b0: 5ebd 4bbd d000 7fbd 5a0d 1bbd 4efc 42bd
000001c0: f09d 1d3c 1421 85bd a564 603b 94a3 79bd
000001d0: 7aae 90bd 23ab 96bd ad53 823d f017 4f3d
000001e0: ee8f 113d 3b19 61bd 66bf 2d3d a84e a4bc
000001f0: bea8 95bb 909f 91bd 7b65 883d b089 04bd
00000200: 6129 41bc 1936 c739 7101 493d 1f75 aa3c
00000210: b0fa 503d 823c 27bd 0fc2 a03d fc49 7dbd
00000220: ed79 9d3d 9ae7 083d 74e1 54bd 7ccd 303d
00000230: 91cb 02bb 426f 86bd bf74 883c 826e e9b9
00000240: 4165 06bd a5f0 d1bb 8656 4cbd 4226 04bd
00000250: 061f 55bc d197 523d 6a0f 503a 0749 553d
00000260: e178 b6bc 9ff9 eebc 3693 bfbc c622 60bd
00000270: 7ac3 9abd fc34 713c 85ac 7ebc 8949 243d
00000280: 77ae 58bc d6f0 3f3d a49e 83bd 834b 50bc
00000290: 5fe1 48bd 940e 35bd e776 57bc 1bff 033d
000002a0: b4ff 2fbc e0b8 923d 16c5 a53c f82a ab3d
000002b0: a34b a23c 8360 6abd cbd7 b23d c08e 423c
000002c0: 67ba 123d fc37 e23c 92c0 cf3c e424 8dbd
000002d0: 6013 3bbd 5464 8e3d 3262 d13c a3ee c9bc
000002e0: c852 6c3d b9a7 7e3c e5a3 d0ba e795 60bd
000002f0: 1637 883c 14e4 343d 0c3e 633d 359f 96bc
00000300: 75ef 87bd 3767 833c 2aba bb3c 1139 3e3d
00000310: eac7 fdbc 81a8 683d 0a4c 4b3b 9cd3 43bd
00000320: 688c d33b 4a8d 643c 26a9 7ebd fd42 a3b9
00000330: 539e 603a baeb 803d 56be 28bd 8497 7b3b
00000340: c50d 27bb a7ed 60bc 642d f13a a6cb 85bd
00000350: ede4 123d acab 9cbd 86ca 3abd 0a53 5ebc
00000360: afe0 493c 3506 e33c a5f2 743d e5a2 24bb
00000370: 4fbf 043d 1b72 1b3d 428c d8bb d37d 76bc
00000380: 1e53 493d 4b46 60bd 2ddd 08bc 8bfb a3bd
00000390: 18fc f9bb eecc 993d 9dda 193c 623e ec3c
000003a0: eabd 67bb 6fe4 a0ba 14f1 77bd 1994 4b3d
000003b0: 9177 6fbd e278 8ebc 3ef3 9d3d 7cb2 1abc
000003c0: 0ce1 83bc aa3a 3bbd e34e a0bd 0148 933c
000003d0: dc67 b7bd 5848 333b 5291 40bd 06a8 353d
000003e0: 0682 303c cae0 6639 bf8e 653b eebf 9d3b
000003f0: 04a4 b2bc 2bfe 713c 9e67 cbbb e817 743d
0.039905917 -0.03099819 0.06783688 0.075633936 -0.015378596 -0.07321713 0.016466344 -0.06114599
-0.0383647 -0.043724954 -0.026040552 -0.056465708 0.0027071498 -0.074906476 -0.08590421 0.026983103
-0.01181445 0.016436305 -0.07872785 0.05549361 -0.013913112 0.077290654 -0.076628275 -0.07344238
0.007232708 0.025408626 0.029756213 -0.006506035 -0.07546381 -0.03230507 -0.011527141 0.08794645
-0.07678636 -0.035822812 -0.013746034 -0.051833104 0.06748983 -0.07369881 0.032444965 -0.07928083
0.010017426 -0.03280032 0.014496429 0.06513513 6.9917696e-05 -0.05860172 -0.051884595 -0.0077301
0.036201514 -0.035598993 0.05346337 -0.05270792 0.008404482 -0.07297069 0.008017755 0.052375834
0.054569785 0.07205925 0.009513975 0.07066333 -0.043020524 0.063998036 -0.06685557 0.055696186
0.024289807 -0.034913532 -0.020994276 0.010975468 0.047077507 0.034709845 0.027473954 -0.046701718
0.06221117 -0.0093589015 0.009479536 0.04924106 -0.008340437 0.059373174 -0.058058888 -0.0009193181
-0.011370645 0.00021514075 -0.019880028 0.010258795 0.020206759 0.021556797 -0.06043528 0.03614142
0.0076361266 0.03149908 -0.046696864 -0.011477998 0.07798541 -0.026439523 -0.039978586 -0.06347385
-0.038299423 0.044549946 0.05005788 -0.02458809 -0.012256713 0.066781595 -0.024862863 -0.016566407
0.005270126 -0.0659465 0.04935117 0.0635172 -0.04974114 -0.062256634 -0.03785453 -0.047603898
0.009620175 -0.0650045 0.0034239676 -0.060947016 -0.07064529 -0.073568605 0.06363616 0.050559938
0.035537653 -0.054955702 0.04241886 -0.020057037 -0.004567235 -0.07110512 0.06659981 -0.03235787
-0.011789651 0.00037996544 0.04907364 0.0208078 0.051020324 -0.04082919 0.07849514 -0.061838135
0.07689271 0.033423997 -0.05197282 0.043164715 -0.001995776 -0.065641895 0.016657231 -0.00044523558
-0.032811407 -0.006406861 -0.049887203 -0.032263048 -0.013007885 0.051414315 0.0007936867 0.052071597
-0.022274436 -0.029171763 -0.023385625 -0.054720663 -0.075568154 0.014722105 -0.015544062 0.04010919
-0.013225189 0.04686054 -0.06426743 -0.012713316 -0.049043056 -0.044203356 -0.013150907 0.03222571
-0.010742117 0.07164168 0.02023558 0.08357805 0.019811457 -0.057220947 0.087325655 0.011874855
0.0358223 0.027614586 0.02536038 -0.06891802 -0.045672774 0.0695273 0.025559518 -0.024649924
0.057696134 0.015542918 -0.0015917985 -0.054830458 0.01662783 0.044162825 0.055479094 -0.018386463
-0.0663747 0.016040428 0.022915918 0.04644114 -0.030979116 0.056801323 0.0031020665 -0.04780923
0.0064559467 0.013949702 -0.06217303 -0.00031139693 0.0008568514 0.06294961 -0.041197143 0.003838987
-0.0025490385 -0.013728536 0.0018400368 -0.065329835 0.035862852 -0.07649931 -0.045603298 -0.013569603
0.012321635 0.02771292 0.059801716 -0.0025121507 0.03240901 0.037950616 -0.006608517 -0.015044647
0.049151532 -0.054754537 -0.008353514 -0.080069624 -0.007628929 0.0750979 0.0093905 0.02883834
-0.0035361 -0.001227511 -0.060532644 0.049701784 -0.058463637 -0.017391626 0.077124104 -0.009441968
-0.016098522 -0.045710243 -0.078275464 0.01797867 -0.089553565 0.0027356353 -0.04701359 0.044349693
0.0107731875 0.0002201825 0.003502771 0.0048141396 -0.021806724 0.014770071 -0.0062074205 0.05959311

policy_network.9.bias f4 [7]
00000000: 048b 2b3c cff1 123b 15c3 c83a d16b 88ba
00000010: 96c1 47bb 3783 813b 0d19 f03c
0.010470156 0.0022421961 0.0015316928 -0.0010408108 -0.0030480376 0.0039524096 0.02930882

exp_avg f4 [128, 15]
00000000: fd2a a438 cf39 0338 93b9 69b8 3a75 8c38
00000010: 187b 1f38 57ed aab8 9616 4ab7 e84c 90b6
00000020: 497a 0036 115b 99b7 ab5c 91b7 12e9 d9b5
00000030: 4a63 7cb5 1d3a abb6 9483 6eb4 73f3 de37
00000040: a26b 2137 612a 91b7 11e8 a337 a253 5537
00000050: a93e bdb7 e148 71b6 b1bb 32b4 e232 5835
00000060: ff06 b3b6 de46 c2b6 bc18 9134 daa8 3e34
00000070: be4f 9f34 2a05 1434 08f6 5337 32b4 8f36
00000080: 2eb1 ddb6 0cbb 1a37 b206 0b37 be1f 69b7
00000090: 578b 39b6 f4be 9db5 f774 0334 fcaa 0fb6
000000a0: 0e76 93b6 3c4b f434 7a2a 48b4 19ef a0b6
000000b0: 0470 2e34 0000 0000 0000 0000 0000 0000
000000c0: 0000 0000 0000 0000 0000 0000 0000 0000
000000d0: 0000 0000 0000 0000 0000 0000 0000 0000
000000e0: 0000 0000 0000 0000 0000 0000 0000 0000
000000f0: 9841 8838 e4af b737 9daf 3fb8 1f4d 7338
00000100: 2de5 ef37 6398 84b8 5c96 20b7 deaa 28b6
00000110: f669 4c36 0f4a 79b7 b515 61b7 24fb 06b6
00000120: c40c 65b4 3e15 39b5 1ba7 1eb5 0000 0000
00000130: 0000 0000 0000 0000 0000 0000 0000 0000
00000140: 0000 0000 0000 0000 0000 0000 0000 0000
00000150: 0000 0000 0000 0000 0000 0000 0000 0000
00000160: 0000 0000 0000 0000 2099 d034 a999 23b5
00000170: 5691 59b3 c826 1935 8d1d d5b3 a7da 8333
00000180: 11fa a3b2 bdf0 0b34 d7db 7934 016d bcb2
00000190: 58a3 c032 c36c b3b2 4455 9133 d947 c735
000001a0: 1ec4 c5b3 0000 0000 0000 0000 0000 0000
000001b0: 0000 0000 0000 0000 0000 0000 0000 0000
000001c0: 0000 0000 0000 0000 0000 0000 0000 0000
000001d0: 0000 0000 0000 0000 0000 0000 0000 0000
000001e0: 0000 0000 0000 0000 0000 0000 0000 0000
000001f0: 0000 0000 0000 0000 0000 0000 0000 0000
00000200: 0000 0000 0000 0000 0000 0000 0000 0000
00000210: 0000 0000 0000 0000 0000 0000 0000 0000
00000220: 0000 0000 0000 0000 0000 0000 0000 0000
00000230: 0000 0000 0000 0000 0000 0000 0000 0000
00000240: 0000 0000 0000 0000 0000 0000 0000 0000
00000250: 0000 0000 0000 0000 eda8 03b7 7db9 bcb5
00000260: fde8 6f36 00aa b6b6 3ba2 57b6 a8e7 a936
00000270: 17f9 aa35 b7fa ffb4 cf27 c8b4 2065 bb35
00000280: b6eb ca35 3b4b 4933 d1e2 53b1 a46c 7235
00000290: 1993 cfb2 0000 0000 0000 0000 0000 0000
000002a0: 0000 0000 0000 0000 0000 0000 0000 0000
000002b0: 0000 0000 0000 0000 0000 0000 0000 0000
000002c0: 0000 0000 0000 0000 0000 0000 0000 0000
000002d0: 0000 0000 0000 0000 0000 0000 0000 0000
000002e0: 0000 0000 0000 0000 0000 0000 0000 0000
000002f0: 0000 0000 0000 0000 0000 0000 0000 0000
00000300: 0000 0000 0000 0000 0000 0000 0000 0000
00000310: 0000 0000 0000 0000 0000 0000 0000 0000
00000320: 0000 0000 0000 0000 0000 0000 0000 0000
00000330: 0000 0000 0000 0000 0000 0000 0000 0000
00000340: 0000 0000 0000 0000 f72e 9135 9905 05b3
00000350: bb55 5a35 32df 0db5 a0b9 cc34 0dfd 1435
00000360: bba8 ecb4 f0e3 9f34 96ed 22b4 8592 1e34
00000370: af93 eab4 6e20 5a33 fccc 5d33 f4a5 d8b4
00000380: 5b07 19b2 0000 0000 0000 0000 0000 0000
00000390: 0000 0000 0000 0000 0000 0000 0000 0000
000003a0: 0000 0000 0000 0000 0000 0000 0000 0000
000003b0: 0000 0000 0000 0000 0000 0000 0000 0000
000003c0: df2b 0fb7 d379 5bb6 4bc3 b936 ab9a e0b6
000003d0: 268b 81b6 288c fe36 545f af35 9070 2a34
000003e0: 00fe 23b4 3ce1 f135 3905 ef35 3429 6c34
000003f0: 3b18 0234 4c5a 3b33 88e2 9734 7277 80b7
7.8281366e-05 3.1286672e-05 -5.572436e-05 6.697555e-05 3.8023194e-05 -8.15044e-05 -1.2045397e-05 -4.3004875e-06
1.9144666e-06 -1.8281427e-05 -1.7328499e-05 -1.6235592e-06 -9.40218e-07 -5.1029624e-06 -2.2213345e-07 2.6577827e-05
9.621408e-06 -1.7305081e-05 1.9539179e-05 1.2715262e-05 -2.2559734e-05 -3.595422e-06 -1.6645824e-07 8.0540315e-07
-5.33543e-06 -5.7899006e-06 2.702635e-07 1.7756557e-07 2.9674078e-07 1.3785453e-07 1.2633864e-05 4.2827096e-06
-6.6069397e-06 9.2226655e-06 8.2866045e-06 -1.3895273e-05 -2.7648255e-06 -1.1752986e-06 1.2242877e-07 -2.1408187e-06
-4.3946848e-06 4.5503282e-07 -1.8641904e-07 -4.796206e-06 1.6245764e-07 0.0 0.0 0.0
0.0 0.0 0.0 0.0 0.0 0.0 0.0 0.0
0.0 0.0 0.0 0.0 6.497203e-05 2.1897205e-05 -4.57015e-05 5.800754e-05
2.8597738e-05 -6.322635e-05 -9.571751e-06 -2.5133409e-06 3.0460046e-06 -1.48588e-05 -1.3416099e-05 -2.011374e-06
-2.1331931e-07 -6.894878e-07 -5.910276e-07 0.0 0.0 0.0 0.0 0.0
0.0 0.0 0.0 0.0 0.0 0.0 0.0 0.0
0.0 0.0 3.8854432e-07 -6.0945837e-07 -5.0656432e-08 5.7053376e-07 -9.923961e-08 6.1399355e-08
-1.9089414e-08 1.3032964e-07 2.326991e-07 -2.193565e-08 2.2426022e-08 -2.0887802e-08 6.7675984e-08 1.4847566e-06
-9.209201e-08 0.0 0.0 0.0 0.0 0.0 0.0 0.0
0.0 0.0 0.0 0.0 0.0 0.0 0.0 0.0
0.0 0.0 0.0 0.0 0.0 0.0 0.0 0.0
0.0 0.0 0.0 0.0 0.0 0.0 0.0 0.0
0.0 0.0 0.0 0.0 0.0 0.0 0.0 0.0
0.0 0.0 0.0 0.0 0.0 0.0 -7.84754e-06 -1.4061076e-06
3.5749392e-06 -5.4438133e-06 -3.2131927e-06 5.063561e-06 1.2738482e-06 -4.767987e-07 -3.7281868e-07 1.3962017e-06
1.5118774e-06 4.686738e-08 -3.0833471e-09 9.031012e-07 -2.4164864e-08 0.0 0.0 0.0
0.0 0.0 0.0 0.0 0.0 0.0 0.0 0.0
0.0 0.0 0.0 0.0 0.0 0.0 0.0 0.0
0.0 0.0 0.0 0.0 0.0 0.0 0.0 0.0
0.0 0.0 0.0 0.0 0.0 0.0 0.0 0.0
0.0 0.0 0.0 0.0 0.0 0.0 0.0 0.0
0.0 0.0 1.081701e-06 -3.0971567e-08 8.133608e-07 -5.2851385e-07 3.813302e-07 5.5502534e-07
-4.4081193e-07 2.9781904e-07 -1.5173859e-07 1.47682e-07 -4.369335e-07 5.0786575e-08 5.1642004e-08 -4.0353882e-07
-8.907445e-09 0.0 0.0 0.0 0.0 0.0 0.0 0.0
0.0 0.0 0.0 0.0 0.0 0.0 0.0 0.0
-8.533679e-06 -3.2704454e-06 5.5361647e-06 -6.693726e-06 -3.8606986e-06 7.586106e-06 1.306626e-06 1.5873434e-07
-1.5272963e-07 1.8021451e-06 1.7808408e-06 2.1994202e-07 1.2116008e-07 4.3621455e-08 2.8290765e-07 -1.531441e-05

exp_avg_sq f4 [128, 15]
00000000: 54af 7433 e98f 0032 3f9a d432 2b22 1c33
00000010: bc97 7e32 9682 8233 556f c330 ec7c 472f
00000020: d6f8 8d2e 3798 4b31 1750 4831 432f e02c
00000030: b00f a22c 9b4e 502e 4a9e 382d 51b4 6431
00000040: 14b8 0330 2efb c530 5e00 0431 dcaf 5430
00000050: 1033 4831 3264 952e 7e17 e22c 7b9d 3f2c
00000060: 1588 2a2f 7b09 2d2f 53d4 a42a 18e4 592a
00000070: dcbf 352d 2eab 642c 53d4 9b31 eb4a 2730
00000080: 1516 0831 9aac 4631 dd85 a530 01cf ab31
00000090: 9de9 fc2e 5746 902d 51bc b02c 9204 842f
000000a0: 6ec7 812f a4a1 242b 4236 c52a db5b 332d
000000b0: 441e 202c 0000 0000 0000 0000 0000 0000
000000c0: 0000 0000 0000 0000 0000 0000 0000 0000
000000d0: 0000 0000 0000 0000 0000 0000 0000 0000
000000e0: 0000 0000 0000 0000 0000 0000 0000 0000
000000f0: e575 2833 162c b631 5855 9832 062e df32
00000100: 316c 3432 0838 3b33 dafb 8530 0724 172f
00000110: 525a 4f2e f8f0 0e31 212b 0e31 02c4 862c
00000120: dd1b 772c 0c69 e72d ac56 7a2d 0000 0000
00000130: 0000 0000 0000 0000 0000 0000 0000 0000
00000140: 0000 0000 0000 0000 0000 0000 0000 0000
00000150: 0000 0000 0000 0000 0000 0000 0000 0000
00000160: 0000 0000 0000 0000 c849 1a31 07ee a82f
00000170: d6b1 8330 2686 b530 28ba 1230 9f25 0b31
00000180: 0f07 552e 04d4 a42c ca25 0c2c 3e74 ea2e
00000190: 3aa6 ea2e 234b 622a 6b53 162a f509 042d
000001a0: 22b6 542c 0000 0000 0000 0000 0000 0000
000001b0: 0000 0000 0000 0000 0000 0000 0000 0000
000001c0: 0000 0000 0000 0000 0000 0000 0000 0000
000001d0: 0000 0000 0000 0000 0000 0000 0000 0000
000001e0: 0000 0000 0000 0000 0000 0000 0000 0000
000001f0: 0000 0000 0000 0000 0000 0000 0000 0000
00000200: 0000 0000 0000 0000 0000 0000 0000 0000
00000210: 0000 0000 0000 0000 0000 0000 0000 0000
00000220: 0000 0000 0000 0000 0000 0000 0000 0000
00000230: 0000 0000 0000 0000 0000 0000 0000 0000
00000240: 0000 0000 0000 0000 0000 0000 0000 0000
00000250: 0000 0000 0000 0000 1596 0531 9caf 9d2f
00000260: 11cd 6630 49a7 9830 98a3 f82f 6d71 e430
00000270: 7881 2d2e 6928 452c aed0 c32b 251e c42e
00000280: df08 ca2e e555 2f2a 84ee d729 a990 9e2c
00000290: 5c1c 472c 0000 0000 0000 0000 0000 0000
000002a0: 0000 0000 0000 0000 0000 0000 0000 0000
000002b0: 0000 0000 0000 0000 0000 0000 0000 0000
000002c0: 0000 0000 0000 0000 0000 0000 0000 0000
000002d0: 0000 0000 0000 0000 0000 0000 0000 0000
000002e0: 0000 0000 0000 0000 0000 0000 0000 0000
000002f0: 0000 0000 0000 0000 0000 0000 0000 0000
00000300: 0000 0000 0000 0000 0000 0000 0000 0000
00000310: 0000 0000 0000 0000 0000 0000 0000 0000
00000320: 0000 0000 0000 0000 0000 0000 0000 0000
00000330: 0000 0000 0000 0000 0000 0000 0000 0000
00000340: 0000 0000 0000 0000 3bf1 2c31 a993 c42f
00000350: 39cb 9730 0ce3 cd30 2add 2630 2bbc 1e31
00000360: e032 652e e18f ca2c eaf2 1d2c 8022 032f
00000370: 4b3c 072f bd3c 742a 4578 3f2a 5b2e 1a2d
00000380: 4f36 9e2c 0000 0000 0000 0000 0000 0000
00000390: 0000 0000 0000 0000 0000 0000 0000 0000
000003a0: 0000 0000 0000 0000 0000 0000 0000 0000
000003b0: 0000 0000 0000 0000 0000 0000 0000 0000
000003c0: 2669 7a31 3180 0e30 4788 de30 cc7a 1b31
000003d0: c2ef 7b30 0800 8031 0e26 b72e 9e0c 332d
000003e0: 29bf 6f2c 5375 4b2f c39e 492f 19ac ca2a
000003f0: 4089 722a 4be7 ef2c 500f 7a2c 782d 4f31
5.6970137e-08 7.483302e-09 2.4750191e-08 3.6352656e-08 1.4819246e-08 6.07735e-08 1.421976e-09 1.8143326e-10
6.45614e-11 2.9626912e-09 2.9149356e-09 6.37171e-12 4.6060586e-12 4.736354e-11 1.0494336e-11 3.3280865e-09
4.7919113e-10 1.4405026e-09 1.9208737e-09 7.737506e-10 2.9132856e-09 6.793534e-11 6.4259145e-12 2.7230152e-12
1.5509756e-10 1.5737626e-10 2.9279582e-13 1.9352608e-13 1.033126e-11 3.2495773e-12 4.535232e-09 6.086071e-10
1.9803157e-09 2.8910905e-09 1.2043376e-09 5.0002886e-09 1.1501131e-10 1.6402142e-11 5.023128e-12 2.4013908e-10
2.3606667e-10 5.8488826e-13 3.503188e-13 1.0195368e-11 2.2754168e-12 0.0 0.0 0.0
0.0 0.0 0.0 0.0 0.0 0.0 0.0 0.0
0.0 0.0 0.0 0.0 3.9222773e-08 5.301909e-09 1.7733939e-08 2.5981546e-08
1.0501979e-08 4.359029e-08 9.748604e-10 1.374617e-10 4.714657e-11 2.0800695e-09 2.0688236e-09 3.8302703e-12
3.5116278e-12 2.630831e-11 1.42301e-11 0.0 0.0 0.0 0.0 0.0
0.0 0.0 0.0 0.0 0.0 0.0 0.0 0.0
0.0 0.0 2.245189e-09 3.072815e-10 9.582048e-10 1.3207611e-09 5.3379035e-10 2.0248547e-09
4.8436862e-11 4.684699e-12 1.9916174e-12 1.0661737e-10 1.0670616e-10 2.00989e-13 1.3351618e-13 7.505542e-12
3.0228116e-12 0.0 0.0 0.0 0.0 0.0 0.0 0.0
0.0 0.0 0.0 0.0 0.0 0.0 0.0 0.0
0.0 0.0 0.0 0.0 0.0 0.0 0.0 0.0
0.0 0.0 0.0 0.0 0.0 0.0 0.0 0.0
0.0 0.0 0.0 0.0 0.0 0.0 0.0 0.0
0.0 0.0 0.0 0.0 0.0 0.0 1.943936e-09 2.8682912e-10
8.396493e-10 1.1107001e-09 4.5227178e-10 1.6621421e-09 3.9450637e-11 2.8017816e-12 1.3913504e-12 8.918403e-11
9.187472e-11 1.5572923e-13 9.589294e-14 4.5066906e-12 2.8295343e-12 0.0 0.0 0.0
0.0 0.0 0.0 0.0 0.0 0.0 0.0 0.0
0.0 0.0 0.0 0.0 0.0 0.0 0.0 0.0
0.0 0.0 0.0 0.0 0.0 0.0 0.0 0.0
0.0 0.0 0.0 0.0 0.0 0.0 0.0 0.0
0.0 0.0 0.0 0.0 0.0 0.0 0.0 0.0
0.0 0.0 2.5166418e-09 3.575711e-10 1.1044455e-09 1.4980244e-09 6.070474e-10 2.3098987e-09
5.2113758e-11 5.757159e-12 2.2445886e-12 1.1926637e-10 1.2299599e-10 2.1692626e-13 1.7005935e-13 8.7641795e-12
4.4966596e-12 0.0 0.0 0.0 0.0 0.0 0.0 0.0
0.0 0.0 0.0 0.0 0.0 0.0 0.0 0.0
3.6439558e-09 5.184147e-10 1.6191358e-09 2.262527e-09 9.1653984e-10 3.725294e-09 8.3286364e-11 1.01777736e-11
3.4070058e-12 1.8504424e-10 1.8337247e-10 3.6001825e-13 2.1541536e-13 6.8184672e-12 3.5535637e-12 3.014831e-09
