robot_state_berkeley_training/robot_state_epoch_5.pth (torch, 838027 bytes, 24 tensors)

policy_network.0.weight f4 [128, 15]
-0.068867035 -0.017875686 0.22562622 0.11798085 0.09207853 0.015481379 0.14228171 -0.09268266
0.13476929 0.21211089 -0.10999201 0.30331743 0.15230829 0.25530526 0.2956678 0.10691879
0.10640703 -0.1078625 -0.164581 -0.06612046 0.13143182 0.09587414 -0.037462726 -0.2521787
-0.035161216 -0.12475502 0.041041117 -0.203037 0.24128884 0.07045558 -0.004728802 -0.07930737
-0.21300974 0.040424462 -0.037950847 0.14674993 0.18583295 0.222567 0.20468326 -0.1288145
0.25181046 0.02766317 -0.13197501 0.15431266 -0.13845222 0.19315524 -0.129924 -0.051801074
-0.0955226 -0.12936701 -0.18899918 0.008251854 0.18019748 0.23414199 -0.05951995 -0.061612107
0.14260837 -0.06521142 0.070706494 -0.006390821 0.06668677 -0.031432018 0.1926158 -0.22635248
-0.026228802 -0.25588834 0.080003165 -0.037549026 -0.15011348 0.09047753 -0.08626139 0.2857726
-0.22352754 0.30370972 0.2911411 0.015704544 0.07467951 0.013595396 -0.113071315 0.051129248
-0.08273961 -0.1920192 -0.19081734 0.23896115 -0.013201416 -0.14713082 0.10875113 -0.22920376
-0.25111547 -0.20342153 -0.09631767 0.237887 0.13374455 0.16460013 -0.17065969 0.148476
-0.15318747 -0.25165045 0.12699041 0.028890993 -0.1015881 0.08383121 -0.18138193 0.0062303636
0.10310004 0.044976015 -0.0057647005 -0.21142513 0.16290526 0.1964123 0.1586797 0.10307588
0.05507028 -0.09803983 0.116359726 -0.085960425 0.03188282 -0.15432917 -0.15054837 -0.17595616
-0.04227414 0.1530953 -0.20465507 0.1159739 0.22439907 -0.2231207 0.16480778 -0.19009045
0.18847454 -0.17246756 0.092211016 0.2501889 0.05080775 -0.14482874 -0.0853781 -0.10772626
-0.18271233 -0.21741275 0.25390825 -0.10747316 -0.11422684 0.2544008 0.16400732 0.24244718
0.1574675 -0.09919246 0.091738485 0.20060968 0.1605435 -0.20682096 -0.21338004 0.01888671
-0.14865 -0.086313576 -0.17757665 -0.1321341 -0.18917437 -0.122833945 -0.15139489 0.019614339
-0.22951233 -0.112861596 0.12241939 0.20490402 -0.007846628 0.23025969 0.05353308 0.13833976
0.039805546 -0.09473166 -0.20264322 -0.0035206443 -0.1534465 -0.23725991 0.1148577 0.0140651865
0.25002608 0.17831902 -0.129484 0.14641094 0.20424646 -0.16721047 -0.23049106 0.197429
-0.15720916 0.10646109 -0.23418546 -0.060773235 -0.00012795124 -0.1905936 0.17176156 -0.010243825
0.22083673 0.18517752 -0.049756225 0.24931498 0.064499244 0.20261289 0.19364126 0.13346875
-0.17058301 0.17003596 -0.25364053 -0.1394084 -0.17917387 -0.13276279 0.23354976 0.0046323766
-0.05645235 0.25230592 -0.21810752 -0.21937169 -0.25495404 -0.14255638 -0.1336127 0.07906994
0.05864866 0.21254836 0.2992435 -0.27448013 -0.2862343 -0.25870752 0.21636942 -0.050270844
0.05511984 -0.06132607 0.17647141 -0.24045664 0.16447444 0.20417853 -0.014144445 -0.14442588
-0.118929155 -0.048185106 0.09821773 0.11078675 -0.20685741 -0.1921759 0.08981235 -0.1326011
-0.20659111 0.24594359 0.18920162 0.09340469 0.19615981 0.16536735 -0.08397554 0.044036854
0.2078091 -0.21330345 -0.0826526 -0.016398415 -0.04350172 -0.3322836 -0.23760255 -0.0631013
00000000: 290a 8dbd 0870 92bc 8f0a 673e f29f f13d
00000010: ab93 bc3d 9ca5 7d3c 4cb2 113e 68d0 bdbd
00000020: f600 0a3e 9933 593e 7e43 e1bd 6c4c 9b3e
00000030: b4f6 1b3e 5fb7 823e c561 973e 3df8 da3d
00000040: eeeb d93d 04e7 dcbd ec87 28be 2a6a 87bd
00000050: 1096 063e a959 c43d 8472 19bd 911d 81be
00000060: 3505 10bd 8f7f ffbd bb1a 283d eee8 4fbe
00000070: 6c14 773e 044b 903d 11f4 9abb e76b a2bd
00000080: 3a1f 5abe 1f94 253d 5972 1bbd 9d45 163e
00000090: fe4a 3e3e 9be8 633e 7d98 513e f3e7 03be
000000a0: 4ded 803e df9d e23c 7524 07be 2304 1e3e
000000b0: 6bc6 0dbe 7dca 453e cc0a 05be 5d2d 54bd
000000c0: 5aa1 c3bd c978 04be 0089 41be c932 073c
000000d0: b085 383e ebc2 6f3e 31cb 73bd fa5c 7cbd
000000e0: ee07 123e 918d 85bd 91ce 903d 186a d1bb
000000f0: 1393 883d dcbe 00bd 143d 453e f2c8 67be
00000100: c9dd d6bc cc03 83be b3d8 a33d 02cd 19bd
00000110: 59b7 19be 494c b93d d0a9 b0bd c950 923e
00000120: 67e4 64be d77f 9b3e 7210 953e d1a6 803c
00000130: 92f1 983d 39bf 5e3c ef91 e7bd e76c 513d
00000140: 6273 a9bd aea0 44be 9f65 43be 3bb2 743e
00000150: c04a 58bc 76a9 16be eab8 de3d 64b4 6abe
00000160: 3592 80be bc4d 50be 3342 c5bd a698 733e
00000170: 55f4 083e f08c 283e 6ac1 2ebe 180a 183e
00000180: 2ddd 1cbe 54d8 80be c609 023e ceac ec3c
00000190: 6c0d d0bd b3af ab3d 2fbc 39be 1428 cc3b
000001a0: 1d26 d33d c538 383d d0e5 bcbb d47f 58be
000001b0: a3d0 263e 4e20 493e ee7c 223e 7219 d33d
000001c0: 6091 613d 1bc9 c8bd 024e ee3d 050c b0bd
000001d0: 8f97 023d 7708 1ebe 5a29 1abe da2d 34be
000001e0: a627 2dbd 04c5 1c3e 1991 51be b983 ed3d
000001f0: dfc8 653e c179 64be 5fc3 283e 12a7 42be
00000200: 78ff 403e 569b 30be 21d9 bc3d c218 803e
00000210: ca1b 503d fc4d 14be b7da aebd 969f dcbd
00000220: f118 3bbe 73a1 5ebe 4300 823e e31a dcbd
00000230: c3ef e9bd d240 823e 89f1 273e 1344 783e
00000240: 293f 213e 6b25 cbbd 63e1 bb3d a06c 4d3e
00000250: 8465 243e e0c8 53be 4c80 5abe 4db8 9a3c
00000260: b537 18be 2cc5 b0bd a7d6 35be 294e 07be
00000270: edb6 41be 5d90 fbbd 4307 1bbe 40ae a03c
00000280: 4805 6bbe fb23 e7bd 04b7 fa3d 5cd2 513e
00000290: 258f 00bc 32c9 6b3e 8145 5b3d f0a8 0d3e
000002a0: 240b 233d ac02 c2bd b481 4fbe 9cba 66bb
000002b0: 1421 1dbe 43f4 72be 843a eb3d ab71 663c
000002c0: 6b03 803e 4399 363e 7497 04be c0ec 153e
000002d0: fc25 513e 3939 2bbe d905 6cbe d42a 4a3e
000002e0: 70fb 20be 4608 da3d 50ce 6fbe 5bed 78bd
000002f0: a62a 06b9 f82a 43be 43e2 2f3e b7d5 27bc
00000300: 0623 623e 2d9f 3d3e 2fcd 4bbd 6d4c 7f3e
00000310: 2e18 843d c179 4f3e e549 463e 08ac 083e
00000320: 50ad 2ebe e81d 2e3e 2cdd 81be 13c1 0ebe
00000330: 5b79 37be f8f2 07be ab27 6f3e 31cb 973b
00000340: 943a 67bd 3e2e 813e 9457 5fbe f9a2 60be
00000350: 5689 82be 4dfa 11be c5d1 08be 6cef a13d
00000360: 9439 703d 47a6 593e 7236 993e a988 8cbe
00000370: 4d8d 92be 5075 84be f28f 5d3e cde8 4dbd
00000380: 57c5 613d 0c31 7bbd ecb4 343e 443a 76be
00000390: fd6b 283e 2d14 513e 1abe 67bc 61e4 13be
000003a0: 2191 f3bd bf5d 45bd 6126 c93d 2ae4 e23d
000003b0: 6ed2 53be c2c9 44be 8aef b73d 95c8 07be
000003c0: 9f8c 53be a3d8 7b3e 12be 413e f54a bf3d
000003d0: 1ede 483e 0f56 293e 5efb abbd fd5f 343d
000003e0: e9cb 543e 386c 5abe c445 a9bd f855 86bc
000003f0: dc2e 32bd 1321 aabe 154e 73be 413b 81bd

policy_network.0.bias f4 [128]
-0.2323421 0.15887512 -0.059867036 0.0045538573 0.07751836 -0.0918938 0.1556519 0.08099252
0.19977744 0.037817147 -0.095054284 0.10035677 0.17702726 0.1725037 -0.07081186 0.24832934
0.16011289 -0.17251912 0.014424468 -0.08761518 0.19034189 -0.10599121 -0.17407784 -0.20152426
0.1626016 -0.15624683 0.097759545 -0.23567222 -0.18403277 0.036360405 0.05120487 0.11791052
-0.22530846 -0.025395306 -0.22006644 -0.19169949 -0.17421542 0.088026285 -0.24919096 0.046979215
0.08067896 -0.013395165 0.04412717 0.1777713 -0.03137166 -0.16256832 -0.054229442 0.009953118
-0.18883546 -0.13331866 0.058535658 -0.12963697 -0.17278501 0.17652777 0.046921454 0.15301672
-0.10098882 -0.15103407 0.18383113 -0.024975177 -0.19407268 -0.22662525 -0.070011385 0.14079985
0.16989997 0.15173356 0.049093753 0.15498295 -0.09104388 -0.108451255 -0.14680277 -0.029395806
-0.1321526 0.23697637 -0.096312374 -0.22131081 -0.13666365 0.13425319 -0.21271312 -0.06799268
0.2301419 -0.11473858 0.08017334 0.163865 -0.05570511 0.038387094 -0.047207605 -0.028313236
0.04578472 0.19726896 -0.17107752 0.25921342 -0.25062707 0.0021899624 -0.10098621 -0.027961932
0.11726811 0.0567057 0.13492884 -0.17802228 0.024688432 -0.2667474 0.22687475 -0.040704936
-0.21989982 0.07047169 -0.20468237 0.06778052 -0.17463246 0.20264521 0.11182622 -0.119036295
-0.21205668 -0.26749748 0.22124873 -0.025380917 0.22340205 -0.060575154 -0.08452372 0.09695783
-0.19027832 0.03128037 0.13526835 -0.12853387 0.1744572 -0.016181968 -0.13318834 -0.18074659
00000000: 16eb 6dbe 29b0 223e 2337 75bd 8638 953b
00000010: f2c1 9e3d d132 bcbd 3663 1f3e 68df a53d
00000020: 7592 4c3e 27e6 1a3d d2ab c2bd da87 cd3d
00000030: a246 353e cfa4 303e cf05 91bd 0c4a 7e3e
00000040: a2f4 233e daa8 30be 9b54 6c3c 966f b3bd
00000050: fce8 423e eb11 d9bd 7641 32be 605c 4ebe
00000060: 0981 263e 2bff 1fbe 2836 c83d 0f54 71be
00000070: 1673 3cbe a6ee 143d 33bc 513d 127b f13d
00000080: 43b7 66be d109 d0bc 1959 61be df4c 44be
00000090: 8765 32be 2047 b43d ea2b 7fbe 476d 403d
000000a0: 033b a53d 6577 5bbc b1be 343d ae09 363e
000000b0: 927f 00bd 4f78 26be b11f 5ebd 6712 233c
000000c0: 155e 41be b084 08be 16c3 6f3d 8ebf 04be
000000d0: 8eee 30be b2c3 343e b630 403d 6ab0 1c3e
000000e0: 3ad3 cebd ada8 1abe 3a3e 3c3e be98 ccbc
000000f0: fdba 46be 7310 68be 2162 8fbd d62d 103e
00000100: 42fa 2d3e 0b60 1b3e 8816 493d dab3 1e3e
00000110: 3775 babd b11b debd 7753 16be 79cf f0bc
00000120: 0353 07be efa9 723e 6c3f c5bd 4d9f 62be
00000130: 8ef1 0bbe ab79 093e 78d1 59be bf3f 8bbd
00000140: 51aa 6b3e 10fc eabd ec31 a43d 3acc 273e
00000150: 0b2b 64bd c93b 1d3d c35c 41bd 29f1 e7bc
00000160: c288 3b3d e000 4a3e f22e 2fbe 9fb7 843e
00000170: 3152 80be 7985 0f3b dcd1 cebd 6c10 e5bc
00000180: 432a f03d 3c44 683d c92a 0a3e 794b 36be
00000190: 653f ca3c 1d93 88be db51 683e 38ba 26bd
000001a0: 6b2d 61be 7653 903d 4198 51be 83d0 8a3d
000001b0: dad2 32be 3a82 4f3e 2505 e53d 4dc9 f3bd
000001c0: 6325 59be 6ef5 88be 078f 623e a4eb cfbc
000001d0: 82c3 643e a71d 78bd c61a adbd d491 c63d
000001e0: 52d8 42be d81f 003d c983 0a3e 629e 03be
000001f0: e9a4 323e 0c90 84bc 8662 08be a215 39be

policy_network.3.weight f4 [256, 128]
-0.031216186 -0.045543183 -0.014853522 -0.08609866 -0.095317215 0.07232673 -0.090624906 0.07096093
-0.022822117 -0.03048314 -0.090674505 -0.07878769 0.0014612839 -0.0627836 0.039832555 0.07312078
0.05107264 -0.07939662 0.057829656 0.0350987 0.034234274 -0.08088134 0.01403252 0.07388676
0.02013414 -0.03337804 0.067901224 -0.044207152 -0.018695597 -0.06107271 -0.02506474 -0.004110196
0.016306216 0.056147635 0.053571153 -0.08043166 -0.00014072932 -0.030058501 0.07926511 -0.057971448
-0.033658758 0.05499574 -0.03408717 -0.08088621 -0.022744335 0.055849925 -0.021042097 -0.037208285
-0.06939235 0.022720385 -0.06352847 0.015001286 -0.05680094 0.057158776 0.017083561 -0.014511023
-0.08936772 -0.07019301 -0.052375253 -0.06235521 -0.05518222 0.016341465 -0.015925715 -0.0028186075
0.043947782 -0.0014449422 0.04622106 0.04082404 -0.070442036 -0.0047286595 0.051511794 -0.053126603
-0.006954219 0.011029493 -0.08141438 0.021274203 -0.044206418 -0.017899273 0.02827338 0.04318341
-0.051274624 -0.086576395 0.02207853 -0.03774364 0.03488619 0.08195857 0.054283272 -0.030069362
0.03226455 -0.02866907 -0.01005137 -0.079330124 -0.08313148 -0.08547138 -0.07056779 0.049821917
0.013400703 0.025449762 -0.06287828 0.019930677 -0.08683639 0.03222306 -0.056245472 0.052954353
-0.013494058 0.066860065 0.013235196 0.047172375 0.0265092 0.063468955 0.0046963906 0.079554886
0.008559586 -0.014934531 -8.732237e-05 -0.041491605 -0.009761231 -0.0035894886 -0.055763166 -0.003966665
-0.0117974505 -0.04860719 -0.07313071 -0.0881438 0.017436022 -0.061068084 -0.029805576 -0.04523145
-0.0755096 0.055267867 0.035545226 -0.07453118 0.06285149 -0.029024921 0.029750537 0.05467227
0.012061416 -0.070771776 -0.04770308 -0.076944605 0.03053044 0.06314726 0.075942166 -0.0024271947
-0.016162356 -0.04911375 0.11539033 -0.009023399 0.0058735427 -0.06733466 -0.039442085 -0.047981743
0.042526755 0.008196166 -0.041448537 -0.064247765 0.027278865 -0.026593111 -0.016063387 0.044285122
0.038432963 0.06734009 0.07286507 -0.07591741 -0.043847173 -0.0048560165 -0.060030818 -0.035058476
0.061934445 -0.04015841 0.00040487316 -0.03784318 -0.05184273 -0.02567568 -0.08165097 0.062022142
0.08348682 -0.04617913 -0.05272075 -0.06788733 -0.023915535 0.012752477 0.012808133 0.045114946
0.0017991555 -0.008487079 0.005646862 -0.07249232 0.07018343 0.00536011 -0.06763207 0.027038595
-0.050056025 0.015162729 0.028607152 -0.08277632 0.016204689 0.07577661 0.08405361 0.0633406
0.050047673 0.05609579 -0.017595014 -0.07206479 0.08338467 0.044244677 -0.019341158 0.053667005
0.04905872 0.05920123 0.038739245 0.06001844 -0.08657986 -0.061881423 -0.0035381871 -0.06486941
0.017756913 0.07427841 0.031372502 0.018508848 -0.03224196 0.034421846 -0.07458376 -0.035277564
0.043252856 -0.06319841 0.03291952 -0.08820863 -0.0011469843 -0.06550813 -0.075951874 0.06966718
-0.08920013 0.040333416 0.07289449 -0.0008702481 0.07120956 0.03405739 0.073532015 0.06589618
-0.08138587 0.019762162 -0.024969675 0.023369694 0.043334577 -0.079427205 0.03708125 -0.057364177
0.053864904 0.0657185 -0.07276274 -0.087498166 -0.017443616 0.009568472 0.07951181 -0.061738726
00000000: 16b9 ffbc 7d8b 3abd 305c 73bc 7f54 b0bd
00000010: ac35 c3bd 0920 943d 8d99 b9bd f753 913d
00000020: 73f5 babc c7b7 f9bc 8eb3 b9bd 715b a1bd
00000030: 8d88 bf3a b094 80bd 7627 233d 59c0 953d
00000040: 8b31 513d b29a a2bd cade 6c3d a8c3 0f3d
00000050: 3d39 0c3d 1ea5 a5bd a8e8 653c f151 973d
00000060: 5af0 a43c 69b7 08bd cc0f 8b3d 8f12 35bd
00000070: 8227 99bc 6127 7abd 9254 cdbc d3ae 86bb
00000080: 9d94 853c 10fb 653d 6d6d 5b3d 5bb9 a4bd
00000090: bd90 13b9 3f3d f6bc bf55 a23d 7873 6dbd
000000a0: c4dd 09bd 3743 613d fd9e 0bbd aba7 a5bd
000000b0: 5452 babc e4c2 643d 7a60 acbc b767 18bd
000000c0: 941d 8ebd 1a20 ba3c 371b 82bd f4c7 753c
000000d0: 1aa8 68bd 521f 6a3d d3f2 8b3c a4bf 6dbc
000000e0: 6c06 b7bd 5ac1 8fbd 6f87 56bd 2d68 7fbd
000000f0: c006 62bd 89de 853c a576 82bc 63b8 38bb
00000100: 9702 343d 3764 bdba 4b52 3d3d 1c37 273d
00000110: ea43 90bd dff2 9abb 08fe 523d 489b 59bd
00000120: 38e0 e3bb 0cb5 343c 95bc a6bd 3d47 ae3c
00000130: ca11 35bd 7fa1 92bc 939d e73c 16e1 303d
00000140: 5705 52bd f74e b1bd 09de b43c 1399 1abd
00000150: d2e4 0e3d e5d9 a73d 2358 5e3d 0654 f6bc
00000160: d527 043d 66db eabc 80ae 24bc d577 a2bd
00000170: d640 aabd 9e0b afbd d885 90bd 1112 4c3d
00000180: 9f8e 5b3c 057c d03c 54c6 80bd a945 a33c
00000190: 47d7 b1bd 54fc 033d a761 66bd aae6 583d
000001a0: 2e16 5dbc eeed 883d 6fd8 583c d237 413d
000001b0: d229 d93c 03fc 813d 2ee4 993b aced a23d
000001c0: 813d 0c3c f7af 74bc d720 b7b8 1af3 29bd
000001d0: 92ed 1fbc a03d 6bbb eb67 64bd ccfa 81bb
000001e0: 184a 41bc 5518 47bd 8ec5 95bd bd84 b4bd
000001f0: fdd5 8e3c 8722 7abd d32a f4bc 9d44 39bd
00000200: c7a4 9abd 8f60 623d df97 113d cea3 98bd
00000210: 48b8 803d acc5 edbc 66b7 f33c 08f0 5f3d
00000220: 3f9d 453c cbf0 90bd 4e64 43bd 2295 9dbd
00000230: f91a fa3c 5a53 813d 9187 9b3d 9211 1fbb
00000240: eb66 84bc 802b 49bd c451 ec3d e1d6 13bc
00000250: d976 c03b c1e6 89bd 068e 21bd 8188 44bd
00000260: 8930 2e3d 3649 063c f1c5 29bd 5594 83bd
00000270: ed77 df3c ccd9 d9bc 5d97 83bc 5164 353d
00000280: e26b 1d3d 9ae9 893d 483a 953d 967a 9bbd
00000290: 1899 33bd 381f 9fbb e0e2 75bd 7a99 0fbd
000002a0: f9ae 7d3d 257d 24bd 2845 d439 7301 1bbd
000002b0: 0b59 54bd ce55 d2bc a038 a7bd ee0a 7e3d
000002c0: 23fb aa3d 5426 3dbd b7f1 57bd 8308 8bbd
000002d0: 83ea c3bc c4ef 503c 34d9 513c 73ca 383d
000002e0: a4d1 eb3a 640d 0bbc 5009 b93b da76 94bd
000002f0: 55bc 8f3d dda3 af3b af82 8abd 0b80 dd3c
00000300: 8c07 4dbd 186d 783c 8c59 ea3c a286 a9bd
00000310: b2bf 843c c430 9b3d 4d24 ac3d b7b8 813d
00000320: cafe 4c3d b3c4 653d 6b23 90bc b496 93bd
00000330: 95c5 aa3d e839 353d 5971 9ebc efd1 5b3d
00000340: ccf1 483d fd7c 723d 0bad 1e3d e5d5 753d
00000350: c850 b1bd 6077 7dbd eee0 67bb 41da 84bd
00000360: f276 913c 471f 983d 7480 003d de9f 973c
00000370: 2510 04bd ecfd 0c3d 5fbf 98bd 357f 10bd
00000380: e829 313d 2b6e 81bd 9ed6 063d baa6 b4bd
00000390: 6856 96ba 2029 86bd a88c 9bbd abad 8e3d
000003a0: 8fae b6bd a734 253d b549 953d 5d21 64ba
000003b0: 51d6 913d c37f 0b3d f497 963d 94f4 863d
000003c0: a3ad a6bd 42e4 a13c 348d ccbc cd71 bf3c
000003d0: 997f 313d bbaa a2bd 82e2 173d b3f6 6abd
000003e0: 72a1 5c3d 6c97 863d a204 95bd 3d32 b3bd
000003f0: eae5 8ebc 15c5 1c3c 16d7 a23d bfe1 7cbd

policy_network.3.bias f4 [256]
-0.028309073 0.027663562 0.07588105 -0.08548163 -0.02017435 -0.10021499 -0.09405027 0.071010225
0.050512858 -0.07660297 0.06363078 -0.0056528263 0.008277681 0.05493901 0.08244304 0.02930843
0.045019146 -0.060439497 -0.0045976024 0.062921874 -0.026243197 -0.03847181 -0.021005755 -0.00870079
-0.052635297 -0.056025222 -0.033718977 -0.03492938 -0.061328925 0.0017663824 0.028197411 0.043892916
-0.07330763 -0.08800585 -0.042052448 0.014154663 0.06316574 -0.0015902359 0.05277338 -0.029485544
-0.0048498474 0.08187766 -0.08304236 0.035030477 -0.03425514 -0.068870775 -0.036643825 0.03765381
0.048500393 -0.036879 0.04349115 -0.0031647752 0.0742373 0.06536605 0.046317287 -0.06556105
-0.077990025 0.074673355 -0.08769928 -0.052752774 0.028748306 -0.016065633 -0.07357547 0.06832117
-0.07103106 0.0031509337 -0.036574565 -0.08732831 0.061860647 0.04253713 0.052667204 -0.035052348
0.032582305 0.067203015 0.070643835 -0.081763186 -0.035152256 -0.025630511 0.016298972 0.05213408
-0.0016673898 0.029573465 0.06456545 0.010499627 0.024582334 -0.010557655 -0.05319767 -0.103051595
-0.03844792 0.031928927 -0.0601427 -0.065450534 -0.042660475 0.029101867 0.031674232 -0.015975274
-0.011719542 -0.019302187 -0.016735708 -0.02099996 -0.05090865 0.05677557 -0.046390742 0.058806296
0.022295246 0.06865946 -0.07103222 0.030431194 0.027884057 0.06888732 0.047553536 0.07990535
0.070793025 -0.07827237 -0.08345149 0.008288662 0.049329944 0.045310892 0.058411967 -0.09600918
0.0071506505 0.021063488 0.02327608 -0.09811777 0.05105372 -0.024955366 -0.044519812 -0.06804827
0.03496356 -0.063804075 -0.024550214 -0.0134125585 -0.06333633 -0.028146993 0.048007622 -0.045021597
-0.037409063 -0.04739309 0.075964294 -0.07407523 0.062454898 0.024550939 -0.05399317 -0.00562908
0.048298478 0.013205744 -0.01777187 -0.04361875 -0.081019476 -0.0018883732 0.061514284 -0.08238979
0.0513837 -0.06397292 0.058713924 0.030297317 0.0660526 -0.051050946 0.079674624 0.03510929
0.047664974 0.02832895 -0.0096755 -0.070608296 -0.058019463 -0.033169 -0.05606506 -0.027968246
0.011604504 -0.06874642 0.046396736 0.038347676 0.0078717945 0.06631045 -0.091244146 0.047195885
0.019500809 -0.07600028 0.046221726 -0.09312193 0.005142189 -0.07930095 -0.0016835246 -0.06511098
0.0518246 -0.06259846 0.06726028 -0.0866257 0.041484937 0.050822344 0.0051926686 0.031531874
0.03983844 -0.07174711 -0.050873425 0.028524563 -0.036523584 -0.062338203 0.01931664 0.04854301
-0.08905816 -0.059435334 -0.08616759 0.03732332 -0.017391564 -0.03280536 -0.08910991 0.0063364496
-0.054221805 -0.081892855 -0.055004276 -0.08666526 0.06554396 0.06269892 -0.043594133 -0.09664204
-0.0021395034 -0.040365886 -0.049559496 -0.10011981 -0.0752166 0.0479013 0.058766752 0.038144264
-0.033200618 -0.09215413 0.051721267 0.077810325 0.015736029 -0.010413924 -0.0670208 0.051193453
0.038900517 -0.091024145 -0.026174009 -0.099959515 0.025845129 -0.016240075 0.015220531 -0.023263814
-0.007981635 0.028719515 0.06819911 0.06456291 -0.019955281 -0.06381276 0.07667371 0.008599166
0.052692022 0.04555088 -0.03452374 0.003901928 0.068991035 -0.06361239 0.027090827 0.0023749685
00000000: 6ee8 e7bc b29e e23c 8667 9b3d fe10 afbd
00000010: ae44 a5bc 843d cdbd 6e9d c0bd cf6d 913d
00000020: 92e6 4e3d 05e2 9cbd db50 823d 583b b9bb
00000030: 1c9f 073c ba07 613d e6d7 a83d 3c18 f03c
00000040: ff65 383d 688f 77bd 7ca7 96bb 2fdd 803d
00000050: f9fb d6bc 9e94 1dbd 4314 acbc c28d 0ebc
00000060: 1c98 57bd b47a 65bd e91c 0abd 1c12 0fbd
00000070: 0a34 7bbd f585 e73a 42fe e63c 0fc9 333d
00000080: 5022 96bd 693c b4bd 303f 2cbd f6e8 673c
00000090: 0a5d 813d 766f d0ba e628 583d ab8b f1bc
000000a0: 78eb 9ebb 79af a73d 1d12 aabd 1e7c 0f3d
000000b0: 1e4f 0cbd 1f0c 8dbd d617 16bd e23a 1a3d
000000c0: 59a8 463d 6f0e 17bd c723 323d 1e68 4fbb
000000d0: ba09 983d a3de 853d 32b7 3d3d df44 86bd
000000e0: 3cb9 9fbd 58ee 983d ae9b b3bd 4b13 58bd
000000f0: 9181 eb3c 139c 83bc bcae 96bd f8eb 8b3d
00000100: bb78 91bd e57f 4e3b 36cf 15bd 2fd9 b2bd
00000110: 9761 7d3d 6a3b 2e3d 91b9 573d 0d93 0fbd
00000120: 0675 053d bca1 893d b7ad 903d 7573 a7bd
00000130: d0fb 0fbd 14f7 d1bc 6c85 853c 8c8a 553d
00000140: 518c daba 0d44 f23c e43a 843d a106 2c3c
00000150: e460 c93c 04fa 2cbc cde5 59bd b70c d3bd
00000160: 917b 1dbd e8c7 023d 3158 76bd ee0a 86bd
00000170: c0bc 2ebd 0a67 ee3c d7bc 013d 94de 82bc
00000180: 5203 40bc 9f1f 9ebc 5319 89bc 1c08 acbc
00000190: 9785 50bd 808d 683d 3804 3ebd dfde 703d
000001a0: 85a4 b63c 559d 8c3d 5779 91bd d74a f93c
000001b0: 1b6d e43c cc14 8d3d 7fc7 423d 6ba5 a33d
000001c0: effb 903d 444d a0bd 9de8 aabd 2bcd 073c
000001d0: 320e 4a3d ea97 393d 6341 6f3d 76a0 c4bd
000001e0: 0150 ea3b 568d ac3c 7aad be3c f8f1 c8bd
000001f0: b51d 513d 326f ccbc 685a 36bd e45c 8bbd
00000200: f335 0f3d b6ab 82bd 881d c9bc 59c0 5bbc
00000210: 7ab6 81bd 8694 e6bc a4a3 443d 9168 38bd
00000220: 3f3a 19bd 421f 42bd 2b93 9b3d c1b4 97bd
00000230: b5d0 7f3d 0d1f c93c f127 5dbd 2574 b8bb
00000240: a0d4 453d e85c 583c 5096 91bc 93a9 32bd
00000250: 8aed a5bd 4a83 f7ba 67f6 7b3d fabb a8bd
00000260: b777 523d 3c04 83bd 037e 703d 1432 f83c
00000270: 9646 873d cc1a 51bd 732c a33d c2ce 0f3d
00000280: 593c 433d 1d12 e83c fd85 1ebc 159b 90bd
00000290: d1a5 6dbd 38dc 07bd 7aa4 65bd aa1d e5bc
000002a0: d120 3e3c ecca 8cbd 810a 3e3d 7412 1d3d
000002b0: b3f8 003c c6cd 873d 36de babd 7950 413d
000002c0: 29c0 9f3c 09a6 9bbd fe52 3d3d b6b6 bebd
000002d0: cf7f a83b 8968 a2bd b6a9 dcba e858 85bd
000002e0: 0846 543d 9f33 80bd c2bf 893d d168 b1bd
000002f0: 1cec 293d 172b 503d 4327 aa3b 9127 013d
00000300: a22d 233d 26f0 92bd a760 50bd 58ac e93c
00000310: c199 15bd 5856 7fbd ee3d 9e3c 09d5 463d
00000320: 2064 b6bd 7772 73bd a278 b0bd 56e0 183d
00000330: c178 8ebc ea5e 06bd 427f b6bd fea1 cf3b
00000340: af17 5ebd 71b7 a7bd 2a4c 61bd 8e7d b1bd
00000350: e93b 863d 4b68 803d c38f 32bd 43ec c5bd
00000360: e936 0cbb b356 25bd e6fe 4abd 9d0b cdbd
00000370: 290b 9abd 2734 443d 68b5 703d 293d 1c3d
00000380: 5ffd 07bd 4ebb bcbd aed9 533d 055b 9f3d
00000390: d8e8 803c 2a9f 2abc 3442 89bd 3ab0 513d
000003a0: 2656 1f3d de6a babd e06a d6bc 93b7 ccbd
000003b0: 2ab9 d33c e809 85bc 895f 793c c193 bebc
000003c0: 67c5 02bc 3045 eb3c faab 8b3d 8f39 843d
000003d0: 4279 a3bc 44b0 82bd 1b07 9d3d 84e3 0c3c
000003e0: 97d3 573d 8f93 3a3d c468 0dbd 7db7 7f3b
000003f0: 2c4b 8d3d 3647 82bd 95ed dd3c 5ca5 1b3b

policy_network.6.weight f4 [128, 256]
0.03458048 -0.041597135 0.11515876 0.01512179 -0.04714174 -0.03237697 0.055606443 0.044216603
-0.05643529 0.020022353 0.076395586 0.052601054 -0.07388093 0.062083893 0.03932573 0.034968376
0.0002307995 0.0038959086 0.04593278 0.03658956 -0.050673407 0.007270141 -0.05448739 -0.010392782
0.0075472514 -0.0058840364 -0.08046017 0.061900064 -0.031572193 0.039268523 -0.035108186 -0.062409423
0.031395137 0.0852758 0.0131585775 0.019183287 -0.04945404 -0.05148504 -0.011261212 -0.037938375
-0.034739535 -0.050590757 0.033335358 -0.0023999973 -0.011266237 0.0361659 0.0055982172 0.04569608
0.067299545 -0.022669809 0.025822643 0.077295475 -0.015662998 -0.016910912 0.021704433 -0.0027947105
-0.008022748 0.06396899 -0.018959664 0.00017682994 -0.031694077 0.030299926 -0.023989528 -0.014821877
0.0290602 -0.007198541 0.0234484 0.09187165 0.06975681 0.07179276 0.035647016 0.0047275424
0.016718952 -0.0006232007 0.008562571 -0.030908488 -0.011504908 -0.040422328 0.009558285 -0.010097078
0.009960039 -0.016916068 0.046042625 -0.008666425 0.017289653 0.014987556 -0.004341395 0.06808993
0.056322243 -0.052460015 -0.04299877 -0.051817052 -0.027319627 -0.052802525 -0.0125052035 0.038959987
-0.02968233 -0.026895002 0.054847267 0.08949002 -0.051799994 -0.028178355 0.04256569 0.016137524
0.07912654 -0.034551784 0.03798617 0.002400706 -0.03193445 0.002176901 0.0046186494 0.028935716
0.046479017 0.026566584 -0.02201014 0.034953497 0.073682345 -0.020109557 -0.0034638075 -0.0025374363
0.003454022 -0.030564997 -0.06376044 0.017598674 0.010629691 0.013971945 0.009079162 0.046535365
0.029216342 -0.042368025 -0.0168709 0.022621453 0.027386855 0.068648264 0.04915288 0.007137065
0.10807641 0.100475356 0.009403469 -0.06089253 -0.00026399613 0.024733782 0.00463257 0.06340566
-0.0059443223 -0.03213204 -0.045568094 0.048036903 0.028466366 0.022851974 0.017240476 -0.015125677
-0.056888007 -0.04087495 0.041076526 0.03242947 -0.053507216 0.018107869 0.017493455 -0.034393348
-0.016104734 -0.009253985 -0.008921458 0.024486095 -0.02963664 -0.034466617 -0.04413809 0.0568693
0.027515957 -0.04481445 0.015477395 0.020322021 -0.023123795 -0.040580444 0.05942055 0.07680055
0.010111605 -0.056076698 0.042062912 0.018008895 0.009042423 -0.03769613 -0.029973544 -0.039243612
-0.009419591 -0.0054623336 0.10787502 -0.018651783 0.037670273 -0.06538917 0.0071648583 -0.032725815
0.12983382 0.047039814 0.031094596 -0.016271396 0.018616104 -0.041522406 -0.035507396 0.005634837
0.041871447 0.08468192 0.013638951 -0.038466007 0.047975093 -0.015327533 0.0056174546 0.019533232
7.8744575e-05 -0.028859643 -0.021814737 -0.045287468 0.07069398 -0.034700595 0.030123817 0.06273838
0.043702293 -0.01946227 -0.06340124 0.010031253 0.04626988 0.026810506 -0.009383979 -0.017308174
0.0041587674 -0.062342167 -0.02875186 0.0041896584 0.054557614 -0.08635109 -0.03869953 0.045851026
0.035825063 0.054043934 0.046674613 -0.012142092 -0.015258886 0.025138885 0.026780056 -0.037871815
-0.00949312 -0.062347926 0.10529784 0.02106734 0.041508153 0.04164686 -0.022841519 0.020948663
0.0067848237 -0.022650078 0.043517794 0.0045303158 0.011352682 0.053084403 0.015070699 0.045243155
00000000: 43a4 0d3d c261 2abd 5bd8 eb3d 62c1 773c
00000010: b217 41bd b79d 04bd 95c3 633d 781c 353d
00000020: b128 67bd eb05 a43c 4a75 9c3d 3474 573d
00000030: e34e 97bd ae4b 7e3d 0414 213d 003b 0f3d
00000040: c502 7239 8052 7f3b 0324 3c3d efde 153d
00000050: eb8e 4fbd 5d3a ee3b 2b2e 5fbd 7d46 2abc
00000060: ef4e f73b e0ce c0bb 4dc8 a4bd ec8a 7d3d
00000070: d851 01bd 08d8 203d 9acd 0fbd 06a1 7fbd
00000080: 3098 003d 14a5 ae3d 1397 573c 4526 9d3c
00000090: 5290 4abd fae1 52bd f280 38bc 4565 1bbd
000000a0: 0b4b 0ebd 4138 4fbd a88a 083d 4649 1dbb
000000b0: 0696 38bc b222 143d 4071 b73b d02b 3b3d
000000c0: 58d4 893d 09b6 b9bc 028a d33c 174d 9e3d
000000d0: b04f 80bc c188 8abc 7fcd b13c 7627 37bb
000000e0: d871 03bc 2d02 833d 4c51 9bbc 6d6b 3939
000000f0: a6d1 01bd 8d37 f83c b085 c4bc 75d7 72bc
00000100: a80f ee3c bde1 ebbb dc16 c03c 3427 bc3d
00000110: a9dc 8e3d 1508 933d 9b02 123d 80e9 9a3b
00000120: 2ff6 883c 4b5e 23ba 074a 0c3c cc33 fdbc
00000130: 157f 3cbc e291 25bd 5a9a 1c3c 376e 25bc
00000140: 6e2f 233c 9193 8abc 3197 3c3d 9ffd 0dbc
00000150: 08a3 8d3c 5e8e 753c 4342 8ebb bc72 8b3d
00000160: 27b2 663d 50e0 56bd 7a1f 30bd 1e3e 54bd
00000170: 69cd dfbc 7647 58bd a0e2 4cbc 8294 1f3d
00000180: 5c28 f3bc e852 dcbc 87a7 603d 8b46 b73d
00000190: 3b2c 54bd 4bd6 e6bc 5c59 2e3d d732 843c
000001a0: 180d a23d 2c86 0dbd 6397 1b3d 2a55 1d3b
000001b0: b3cd 02bd 57aa 0e3b 0a58 973b 980a ed3c
000001c0: c860 3e3d 2aa2 d93c 9c4e b4bc 662b 0f3d
000001d0: c5e6 963d ccbc a4bc 0c01 63bb 1e4b 26bb
000001e0: e05c 623b 7263 fabc d594 82bd 182b 903c
000001f0: 2828 2e3c 96ea 643c c4c0 143c de9b 3e3d
00000200: 1c57 ef3c 188a 2dbd d734 8abc a050 b93c
00000210: 665a e03c 7697 8c3d 8854 493d 0ade e93b
00000220: 2a57 dd3d 06c6 cd3d 0211 1a3c 726a 79bd
00000230: f668 8ab9 809e ca3c d0cc 973b d4da 813d
00000240: 97c8 c2bb e39c 03bd 9ca5 3abd 58c2 443d
00000250: 4c32 e93c 1034 bb3c e63b 8d3c b0d1 77bc
00000260: 6603 69bd 7e6c 27bd dc3f 283d c4d4 043d
00000270: 622a 5bbd f456 943c 6f4e 8f3c 0ae0 0cbd
00000280: 13ee 83bc 079e 17bc 4f2b 12bc 1097 c83c
00000290: 8ac8 f2bc de2c 0dbd 24ca 34bd c8ef 683d
000002a0: 2569 e13c 5b8f 37bd e694 7d3c 5e7a a63c
000002b0: 1d6e bdbc ae37 26bd f662 733d 9b49 9d3d
000002c0: 25ab 253c aeb0 65bd 294a 2c3d 6487 933c
000002d0: ac26 143c 4267 1abd 148b f5bc e9bd 20bd
000002e0: a154 1abc 60fd b2bb 94ed dc3d a0cb 98bc
000002f0: 254c 1a3d c2ea 85bd 30c7 ea3b 810b 06bd
00000300: 28f3 043e d2ac 403d 18ba fe3c 974b 85bc
00000310: cd80 983c 6613 2abd 3470 11bd 70a4 b83b
00000320: 6581 2b3d b76d ad3d e875 5f3c 888e 1dbd
00000330: 8881 443d 5520 7bbc a012 b83b 2804 a03c
00000340: ac23 a538 0f6b ecbc d2b4 b2bc 5a7f 39bd
00000350: 01c8 903d 3622 0ebd 39c6 f63c fb7c 803d
00000360: 2d01 333d 576f 9fbc 82d8 81bd 205a 243c
00000370: 7c85 3d3d b5a1 db3c 43bf 19bc dfc9 8dbc
00000380: 4546 883b 805a 7fbd 0589 ebbc 6749 893b
00000390: ce77 5f3d d7d8 b0bd 6683 1ebd 49ce 3b3d
000003a0: 4dbd 123d 2c5d 5d3d e12d 3f3d a0ef 46bc
000003b0: 6800 7abc 10f0 cd3c d961 db3c 7a1f 1bbd
000003c0: 0889 1bbc 8a60 7fbd 65a6 d73d 6a95 ac3c
000003d0: 7404 2a3d e695 2a3d 231e bbbc 889c ab3c
000003e0: 3a53 de3b a88c b9bc b73f 323d 0b73 943b
000003f0: 9900 3a3c 086f 593d 18eb 763c e350 393d

policy_network.6.bias f4 [128]
-0.028464474 -0.06588334 -0.010783307 -0.019560723 0.03224752 -0.06400558 -0.05010616 0.038669992
0.0063989414 -0.008038911 0.03339957 0.04519597 -0.045978494 -0.017347198 0.026603593 -0.047434837
0.018383931 -0.06149159 -0.035051826 -0.06797746 -0.021848867 -0.031312883 -0.056889243 -0.021017037
0.04230303 0.0345677 -0.053749505 0.0301881 -0.03989048 0.00884779 0.035712317 -0.06295646
-0.04368522 0.03836077 -0.061555907 0.03366057 -0.05460045 0.039275154 0.0235261 -0.052798714
0.017287506 -0.00930801 -0.077313654 0.002237872 -0.008670441 -0.038571678 -0.051868122 -0.009178828
-0.027171427 -0.036621097 -0.06296258 0.008797591 -0.014123964 -0.05786667 -0.0010093326 0.043960795
0.023635512 0.020870246 -0.008123866 0.024740139 -0.024246357 0.033956856 -0.056237403 -0.06565959
-0.049834415 0.009756874 -0.030848937 -0.0614517 -0.04971278 -0.050323404 -0.032594007 0.0063171824
0.029141605 0.05095055 0.0011043088 -0.06902098 -0.007350256 -0.06205637 0.04545906 0.020111283
-0.023160778 -0.024974843 0.007569212 -0.059635416 0.00014357938 -0.046787698 -0.019010711 0.023375753
-0.005875416 -0.02830633 -0.0082392795 0.009451582 0.014498271 0.009048799 0.017289773 -0.020300884
-0.042846665 -0.035510525 -0.019762563 -0.038073312 -0.0331234 -0.06322218 0.0633908 0.05890549
-0.07110308 0.043526992 0.04253726 0.028047726 0.007750366 -0.016573431 -0.050676126 -0.07168958
-0.02825339 0.0058110156 0.015246265 -0.04061621 -0.028233318 -0.012247195 0.04776571 -0.0514801
-0.004600388 0.027683416 -0.031914186 0.051572867 -0.018042797 0.006193293 0.037244428 0.044291366
00000000: 542e e9bc d8ed 86bd 78ac 30bc cf3d a0bc
00000010: fa15 043d 5c15 83bd 1e3c 4dbd 6d64 1e3d
00000020: 36ae d13b a3b5 03bc fdcd 083d 691f 393d
00000030: f253 3cbd b61b 8ebc c7ef d93c 084b 42bd
00000040: e699 963c 9bde 7bbd 8192 0fbd c437 8bbd
00000050: 65fc b2bc f041 00bd b204 69bd ec2b acbc
00000060: f145 2d3d dc96 0d3d 7128 5cbd 094d f73c
00000070: 3364 23bd 52f6 103c 1447 123d 51ef 80bd
00000080: 46ef 32bd 2f20 1d3d 0c22 7cbd aadf 093d
00000090: b9a4 5fbd fcde 203d cfb9 c03c 7743 58bd
000000a0: 879e 8d3c a080 18bc 9f56 9ebd 43a9 123b
000000b0: 770e 0ebc 56fd 1dbd ab73 54bd cc62 16bc
000000c0: 9d96 debc 0100 16bd 86f2 80bd c523 103c
000000d0: 3368 67bc 9a05 6dbd 954b 84ba 3c10 343d
000000e0: 439f c13c 14f8 aa3c f719 05bc d5ab ca3c
000000f0: 4ca0 c6bc 5816 0b3d 3159 66bd 8978 86bd
00000100: 2c1f 4cbd 4cdb 1f3c e9b6 fcbc c7b4 7bbd
00000110: a19f 4bbd ea1f 4ebd 4b81 05bd 5e00 cf3b
00000120: 60ba ee3c 86b1 503d 74be 903a df5a 8dbd
00000130: 6bda f0bb d22e 7ebd 4833 3a3d 6bc0 a43c
00000140: acbb bdbc 0b98 ccbc 2707 f83b 4444 74bd
00000150: cc8d 1639 75a4 3fbd 5abc 9bbc 827e bf3c
00000160: 9086 c0bb ade2 e7bc 0bfe 06bc cfda 1a3c
00000170: 288a 6d3c 6a41 143c 48a3 8d3c 0a4e a6bc
00000180: fc7f 2fbd 7c73 11bd 19e5 a1bc c3f2 1bbd
00000190: 67ac 07bd a17a 81bd 09d3 813d e246 713d
000001a0: 7e9e 91bd 5c49 323d 8d3b 2e3d 58c4 e53c
000001b0: c8f6 fd3b 01c5 87bc c591 4fbd fdd1 92bd
000001c0: a773 e7bc 556a be3b 78cb 793c 2f5d 26bd
000001d0: 8f49 e7bc 75a8 48bc faa5 433d ccdc 52bd
000001e0: dabe 96bb 55c8 e23c 73b8 02bd 123e 533d
000001f0: 7dce 93bc 1bf1 ca3b 9d8d 183d dd6a 353d

policy_network.9.weight f4 [7, 128]
0.04104638 -0.0309935 0.06797914 0.075595126 -0.01508183 -0.069649376 0.016560106 -0.058627553
-0.03916499 -0.043703143 -0.026035443 -0.060273636 0.0027012867 -0.074906476 -0.0880468 0.026951632
-0.0088692 0.01645044 -0.07896002 0.05549361 -0.013913112 0.07740432 -0.076628275 -0.073418856
0.053906996 0.025386317 0.058227696 -0.010206829 -0.075465046 -0.032633 -0.007895551 0.08794637
-0.07676887 -0.028308492 -0.013744486 -0.054498944 0.067495406 -0.07417934 0.032175858 -0.07926452
0.011693131 -0.032765727 0.014803062 0.06512746 0.00016335786 -0.06088744 -0.052566584 -0.007655337
0.03593723 -0.038887206 0.05346337 -0.05265215 -0.006432575 -0.07297069 0.007983825 0.052478336
0.054843806 0.070734635 0.009534638 0.07089424 -0.05261509 0.06434482 -0.06685889 0.05576994
0.024289807 -0.034726944 -0.020684121 0.010965064 0.047077507 0.034704674 0.027378075 -0.04689282
0.056047864 -0.0041937735 0.009099497 0.04924106 -0.005563535 0.05940181 -0.06308529 0.012651852
-0.012389421 0.0002151438 -0.012369395 0.010258795 0.020525638 0.021556715 -0.05937527 0.035963874
0.007715367 0.03158472 -0.043311115 -0.011382553 0.07794753 -0.02739596 -0.039889812 -0.06680592
-0.038299423 0.047865395 0.04989377 -0.02459426 -0.012256713 0.06678471 -0.02889744 -0.021835227
0.005224971 -0.03765762 0.049275666 0.063317925 -0.049333595 -0.061362896 -0.03785453 -0.047689732
0.04413599 -0.065019555 0.0035353366 -0.060953427 -0.07064529 -0.072675906 0.06430219 -0.0027563781
0.032730468 -0.05585782 0.042384196 -0.005479402 -0.004517371 -0.07138438 0.06684555 -0.038076196
-0.012140762 0.00037752138 0.049048442 0.020829028 0.0507124 -0.038859762 0.078533016 -0.06962625
0.07866605 0.033197924 -0.052077368 0.046362787 -0.001984169 -0.065641895 0.018613152 -0.00040657882
-0.03647945 -0.0064122337 -0.055932164 -0.032263048 -0.013007885 0.05162619 0.0007936867 0.052157726
0.0012103817 -0.029173598 -0.038921334 -0.05925499 -0.075566694 0.015370679 0.002453545 0.040109262
-0.013224935 0.049549364 -0.06427545 -0.014114355 -0.049042616 -0.044393472 -0.012780662 0.0322168
-0.011378491 0.07171338 0.020549035 0.08359345 0.02017167 -0.06423232 0.087566055 0.01188445
0.036470126 0.027977891 0.02536038 -0.06901134 -0.030547958 0.0695273 0.025428912 -0.03655977
0.058142222 0.017771525 -0.001318724 -0.0549697 0.024905695 0.044109467 0.055500112 -0.018223923
-0.0663747 0.016052842 0.02290979 0.04644863 -0.030979116 0.056803368 0.0032072305 -0.047699682
0.012758462 0.014814513 -0.0624624 -0.00031139693 0.0022026396 0.06295268 -0.043940354 0.001344958
-0.0022097302 -0.013728536 0.003950136 -0.065329835 0.035819847 -0.07649931 -0.046178743 -0.0133489575
0.01262722 0.027658174 0.06275594 -0.0025113844 0.032487232 0.03922787 -0.006666877 -0.017625496
0.049151532 -0.05521539 -0.008054598 -0.08006574 -0.007628929 0.07509726 0.016174404 0.035345986
-0.003582701 0.009304163 -0.06085802 0.049758513 -0.058689654 -0.017433194 0.077124104 -0.009383056
0.0022675274 -0.045687545 -0.0787044 0.017981816 -0.089553565 0.0013047879 -0.04883233 0.035608426
0.021427386 0.00024948604 0.0034970294 0.006344224 -0.021816298 0.015172303 -0.0062542856 0.061833292
00000000: 4020 283d 15e6 fdbc a638 8b3d 9ed1 9a3d
00000010: c819 77bc 55a4 8ebd 0fa9 873c 7223 70bd
00000020: 786b 20bd 1102 33bd 4848 d5bc 7de1 76bd
00000030: 1208 313b 9168 99bd e151 b4bd abc9 dc3c
00000040: 1f50 11bc 13c3 863c cab5 a1bd 454d 633d
00000050: d2f3 63bc 2886 9e3d 49ef 9cbd a05c 96bd
00000060: 95cd 5c3d f7f6 cf3c 2a80 6e3d 8b3a 27bc
00000070: 6b8d 9abd 2eaa 05bd 575c 01bc 3a1d b43d
00000080: ff38 9dbd 36e7 e7bc 8d30 61bc 493a 5fbd
00000090: 083b 8a3d 56eb 97bd d5ca 033d 7055 a2bd
000000a0: 8c94 3f3c 5b35 06bd 8b88 723c 8c61 853d
000000b0: 0b4b 2b39 1c65 79bd 0f50 57bd 9fd9 fabb
000000c0: eb32 133d 3148 1fbd 68fc 5a3d c8a9 57bd
000000d0: 5ac8 d2bb a871 95bd 97ce 023c 86f3 563d
000000e0: e6a3 603d 52dd 903d 2c37 1c3c 0031 913d
000000f0: ec82 57bd 38c7 833d 50ed 88bd 056f 643d
00000100: 6bfb c63c d73d 0ebd bf71 a9bc d0a6 333c
00000110: 58d4 403d 7d26 0e3d fc47 e03c b012 40bd
00000120: 7292 653d ec6b 89bb 0f16 153c feb0 493d
00000130: 504e b6bb 504f 733d dc32 81bd b749 4f3c
00000140: 00fd 4abc 3998 6139 01a9 4abc 8114 283c
00000150: 6225 a83c b597 b03c 7c33 73bd db4e 133d
00000160: 30d1 fc3b fb5e 013d ff66 31bd e37d 3abc
00000170: f4a2 9f3d 7e6d e0bc 8063 23bd 8bd1 88bd
00000180: dbdf 1cbd 810e 443d 695d 4c3d e779 c9bc
00000190: 61d0 48bc 6cc6 883d 53ba ecbc cadf b2bc
000001a0: 3c36 ab3b e03e 1abd 48d5 493d d4ac 813d
000001b0: 0612 4abd a957 7bbd 5a0d 1bbd 4f56 43bd
000001c0: f1c7 343d f928 85bd 1bb1 673b 4daa 79bd
000001d0: 7aae 90bd 1bd7 94bd deb0 833d 5aa4 34bb
000001e0: 6210 063d 2bcb 64bd 0d9b 2d3d 8e8c b3bb
000001f0: 7406 94bb f931 92bd 52e6 883d c9f5 1bbd
00000200: 0cea 46bc 10ee c539 05e7 483d a3a1 aa3c
00000210: ceb7 4f3d 6a2b 1fbd ebd5 a03d 3598 8ebd
00000220: ab1b a13d 8cfa 073d 144f 55bd e8e6 3d3d
00000230: d508 02bb 426f 86bd 9c7a 983c 162a d5b9
00000240: 7a6b 15bd b71d d2bb 2019 65bd 4226 04bd
00000250: 061f 55bc fc75 533d 6a0f 503a 57a3 553d
00000260: aca5 9e3a 78fd eebc fa6b 1fbd 5cb5 72bd
00000270: b6c2 9abd 4dd5 7b3c a8cb 203b 9c49 243d
00000280: 66ad 58bc 46f4 4a3d d9a2 83bd e53f 67bc
00000290: e9e0 48bd eed5 35bd fb65 51bc c3f5 033d
000002a0: da6c 3abc 77de 923d 7356 a83c 0b33 ab3d
000002b0: 0f3f a53c 3c8c 83bd d555 b33d ffb6 423c
000002c0: b361 153d e431 e53c 92c0 cf3c d155 8dbd
000002d0: b63f fabc 5464 8e3d 4b50 d03c b3bf 15bd
000002e0: 8a26 6e3d 9795 913c 09d9 acba e827 61bd
000002f0: 0707 cc3c 21ac 343d 1654 633d 564a 95bc
00000300: 75ef 87bd 4081 833c 50ad bb3c eb40 3e3d
00000310: eac7 fdbc a6aa 683d 6630 523b be60 43bd
00000320: de08 513c 92b8 723c 93d8 7fbd fd42 a3b9
00000330: 295a 103b 56ed 803d cdfa 33bd 4d49 b03a
00000340: 1fd1 10bb a7ed 60bc 2470 813b a6cb 85bd
00000350: d5b7 123d acab 9cbd ec25 3dbd 96b5 5abc
00000360: 66e2 4e3c 6593 e23c 3086 803d 0a96 24bb
00000370: 5511 053d 67ad 203d d175 dabb 5863 90bc
00000380: 1e53 493d 8829 62bd 6ff7 03bc 82f9 a3bd
00000390: 18fc f9bb 98cc 993d 2f80 843c f4c6 103d
000003a0: c0cb 6abb 7d70 183c 4246 79bd 95cf 4b3d
000003b0: 9064 70bd 0fd0 8ebc 3ef3 9d3d 64bb 19bc
000003c0: cc9a 143b dd22 3bbd c62f a1bd 9a4e 933c
000003d0: dc67 b7bd 6b05 ab3a 6904 48bd 24da 113d
000003e0: 7c88 af3c 73cd 8239 6b2e 653b 35e3 cf3b
000003f0: 18b8 b2bc 4095 783c c0f0 ccbb e844 7d3d

policy_network.9.bias f4 [7]
0.011706306 0.002879492 -0.0040562227 -9.064022e-05 -0.0025596935 0.0047757532 0.037920237
00000000: cecb 3f3c dcb5 3c3b 10ea 84bb 1916 beb8
00000010: 88c0 27bb ec7d 9c3b 4052 1b3d

exp_avg f4 [128, 15]
-4.2826625e-05 -1.4976609e-05 3.2985485e-05 -4.4796616e-05 -2.7378393e-05 5.358916e-05 7.601973e-06 4.4380868e-06
-2.7158294e-06 1.003842e-05 1.2443193e-05 -9.580682e-08 1.3851455e-06 -6.192611e-07 2.0526288e-06 1.6275939e-05
4.973481e-06 -9.32891e-06 1.2107419e-05 8.040555e-06 -1.3845853e-05 -2.7609797e-06 2.2629447e-07 4.9610924e-07
-3.3858323e-06 -3.3914687e-06 9.064854e-08 -2.2362113e-07 1.857338e-07 -9.57116e-09 1.1127542e-05 2.7443612e-06
-8.188654e-06 1.2772724e-05 7.758733e-06 -1.63199e-05 -2.6160237e-06 -1.6418777e-06 9.988315e-07 -2.9472565e-06
-3.4360432e-06 7.562348e-08 -2.9613372e-07 -2.1565835e-07 5.1922575e-07 0.0 0.0 0.0
0.0 0.0 0.0 0.0 0.0 0.0 0.0 0.0
0.0 0.0 0.0 0.0 -5.4732296e-05 -1.840324e-05 4.1096624e-05 -5.496764e-05
-3.490678e-05 7.3113544e-05 9.87119e-06 6.171051e-06 -3.3571253e-06 1.39790845e-05 1.5177947e-05 -8.7320046e-07
7.8254715e-07 -7.312954e-07 2.7571116e-07 0.0 0.0 0.0 0.0 0.0
0.0 0.0 0.0 0.0 0.0 0.0 0.0 0.0
0.0 0.0 -1.8619376e-05 -7.860269e-06 1.2301423e-05 -1.2637577e-05 -8.194956e-06 1.425632e-05
2.1564274e-06 -2.421339e-07 -2.06183e-07 3.5942244e-06 3.831105e-06 -3.7918603e-08 -2.9614387e-08 6.946554e-07
9.0999646e-07 0.0 0.0 0.0 0.0 0.0 0.0 0.0
0.0 0.0 0.0 0.0 0.0 0.0 0.0 0.0
0.0 0.0 0.0 0.0 0.0 0.0 0.0 0.0
0.0 0.0 0.0 0.0 0.0 0.0 0.0 0.0
0.0 0.0 0.0 0.0 0.0 0.0 0.0 0.0
0.0 0.0 0.0 0.0 0.0 0.0 1.5141116e-05 6.0650086e-06
-9.834895e-06 1.0018338e-05 6.2264958e-06 -1.0647395e-05 -1.5319523e-06 4.8675804e-07 2.739123e-07 -2.8405336e-06
-2.9546563e-06 3.417744e-08 1.5416185e-07 -7.9451866e-07 -5.109444e-07 0.0 0.0 0.0
0.0 0.0 0.0 0.0 0.0 0.0 0.0 0.0
0.0 0.0 0.0 0.0 0.0 0.0 0.0 0.0
0.0 0.0 0.0 0.0 0.0 0.0 0.0 0.0
0.0 0.0 0.0 0.0 0.0 0.0 0.0 0.0
0.0 0.0 0.0 0.0 0.0 0.0 0.0 0.0
0.0 0.0 -2.8130733e-05 -1.1019125e-05 1.8112962e-05 -1.9850808e-05 -1.25020415e-05 2.1648068e-05
3.4854647e-06 -4.1729933e-07 -4.5453285e-07 5.4312573e-06 5.8415935e-06 4.3789242e-08 6.9864676e-08 1.260766e-06
7.475361e-07 0.0 0.0 0.0 0.0 0.0 0.0 0.0
0.0 0.0 0.0 0.0 0.0 0.0 0.0 0.0
1.01286705e-05 3.839925e-06 -7.157233e-06 9.104636e-06 6.129322e-06 -1.1201327e-05 -1.7941019e-06 -8.211762e-07
3.842188e-07 -2.1784074e-06 -2.8279787e-06 6.139653e-08 -2.6833615e-07 -1.8481987e-07 -3.3811463e-07 2.5877996e-05
00000000: bda0 33b8 0c44 7bb7 e559 0a38 00e4 3bb8
00000010: a7aa e5b7 ecc4 6038 7314 ff36 e0ea 9436
00000020: 9841 36b6 b06a 2837 1bc3 5037 5bbe cdb3
00000030: 3de9 b935 4c3b 26b5 e5bf 0936 5088 8837
00000040: e0e1 a636 5d83 1cb7 f820 4b37 ece5 0637
00000050: 7c4b 68b7 4549 39b6 5afb 7234 5e2c 0535
00000060: 2838 63b6 fd98 63b6 90aa c233 821c 70b4
00000070: 1e6e 4734 686e 24b2 6eb0 3a37 c42b 3836
00000080: 0062 09b7 6f4a 5637 812b 0237 b8e6 88b7
00000090: f28e 2fb6 7d5e dcb5 970f 8635 7bc9 45b6
000000a0: c696 66b6 7366 a233 4ffc 9eb4 b78f 67b4
000000b0: ec60 0b35 0000 0000 0000 0000 0000 0000
000000c0: 0000 0000 0000 0000 0000 0000 0000 0000
000000d0: 0000 0000 0000 0000 0000 0000 0000 0000
000000e0: 0000 0000 0000 0000 0000 0000 0000 0000
000000f0: 5b90 65b8 a860 9ab7 2a5f 2c38 0e8d 66b8
00000100: df68 12b8 8954 9938 709c 2537 ed10 cf36
00000110: f94a 61b6 b687 6a37 c9a4 7e37 e165 6ab5
00000120: 3b10 5235 3d4e 44b5 7405 9434 0000 0000
00000130: 0000 0000 0000 0000 0000 0000 0000 0000
00000140: 0000 0000 0000 0000 0000 0000 0000 0000
00000150: 0000 0000 0000 0000 0000 0000 0000 0000
00000160: 0000 0000 0000 0000 ce30 9cb7 99df 03b7
00000170: 3662 4e37 fb05 54b7 117d 09b7 6e2e 6f37
00000180: 24b7 1036 a1fe 81b4 2763 5db4 4e34 7136
00000190: f18c 8036 f2db 22b3 ba62 feb2 5b78 3a35
000001a0: 7b46 7435 0000 0000 0000 0000 0000 0000
000001b0: 0000 0000 0000 0000 0000 0000 0000 0000
000001c0: 0000 0000 0000 0000 0000 0000 0000 0000
000001d0: 0000 0000 0000 0000 0000 0000 0000 0000
000001e0: 0000 0000 0000 0000 0000 0000 0000 0000
000001f0: 0000 0000 0000 0000 0000 0000 0000 0000
00000200: 0000 0000 0000 0000 0000 0000 0000 0000
00000210: 0000 0000 0000 0000 0000 0000 0000 0000
00000220: 0000 0000 0000 0000 0000 0000 0000 0000
00000230: 0000 0000 0000 0000 0000 0000 0000 0000
00000240: 0000 0000 0000 0000 0000 0000 0000 0000
00000250: 0000 0000 0000 0000 9906 7e37 0782 cb36
00000260: 8d00 25b7 6f14 2837 31ed d036 37a2 32b7
00000270: 7b9d cdb5 c2a9 0235 380e 9334 ff9f 3eb6
00000280: 9c48 46b6 7eca 1233 b087 2534 e846 55b5
00000290: d527 09b5 0000 0000 0000 0000 0000 0000
000002a0: 0000 0000 0000 0000 0000 0000 0000 0000
000002b0: 0000 0000 0000 0000 0000 0000 0000 0000
000002c0: 0000 0000 0000 0000 0000 0000 0000 0000
000002d0: 0000 0000 0000 0000 0000 0000 0000 0000
000002e0: 0000 0000 0000 0000 0000 0000 0000 0000
000002f0: 0000 0000 0000 0000 0000 0000 0000 0000
00000300: 0000 0000 0000 0000 0000 0000 0000 0000
00000310: 0000 0000 0000 0000 0000 0000 0000 0000
00000320: 0000 0000 0000 0000 0000 0000 0000 0000
00000330: 0000 0000 0000 0000 0000 0000 0000 0000
00000340: 0000 0000 0000 0000 4afa ebb7 c8de 38b7
00000350: 4af1 9737 4985 a6b7 dcbf 51b7 df98 b537
00000360: d4e7 6936 2f09 e0b4 8506 f4b4 253e b636
00000370: e802 c436 c812 3c33 8308 9633 9737 a935
00000380: 4aaa 4835 0000 0000 0000 0000 0000 0000
00000390: 0000 0000 0000 0000 0000 0000 0000 0000
000003a0: 0000 0000 0000 0000 0000 0000 0000 0000
000003b0: 0000 0000 0000 0000 0000 0000 0000 0000
000003c0: 4fee 2937 b4d8 8036 2a28 f0b6 1dc0 1837
000003d0: 7aaa cd36 55ed 3bb7 dfcc f0b5 cc6e 5cb5
000003e0: a146 ce34 c130 12b6 4ec8 3db6 19d9 8333
000003f0: d70f 90b4 e672 46b4 1f86 b5b4 9314 d937

exp_avg_sq f4 [128, 15]
2.141068e-08 2.8805731e-09 9.245448e-09 1.3153653e-08 5.3600484e-09 2.0908383e-08 4.961261e-10 5.30754e-11
2.1215266e-11 1.0566786e-09 1.0619543e-09 2.4785827e-12 1.5764448e-12 4.8614373e-11 1.3235621e-11 3.142745e-09
4.601959e-10 1.348379e-09 1.7553075e-09 7.090796e-10 2.553425e-09 6.0122345e-11 4.502178e-12 2.0851016e-12
1.4053929e-10 1.4496795e-10 2.27077e-13 1.5461073e-13 1.4151915e-11 4.518474e-12 2.526037e-09 3.3707176e-10
1.0700884e-09 1.5160034e-09 6.0579847e-10 2.3726985e-09 5.7038135e-11 6.2459872e-12 2.4221532e-12 1.2273899e-10
1.2153924e-10 3.072126e-13 1.8701264e-13 8.568245e-12 3.1596884e-12 0.0 0.0 0.0
0.0 0.0 0.0 0.0 0.0 0.0 0.0 0.0
0.0 0.0 0.0 0.0 1.9602226e-08 2.7013831e-09 8.771267e-09 1.2415047e-08
5.011049e-09 2.0023345e-08 4.4707282e-10 5.449204e-11 2.1439751e-11 9.890238e-10 9.971735e-10 1.9254437e-12
1.2728478e-12 3.5565537e-11 1.9775608e-11 0.0 0.0 0.0 0.0 0.0
0.0 0.0 0.0 0.0 0.0 0.0 0.0 0.0
0.0 0.0 2.1614242e-09 3.041542e-10 9.206882e-10 1.2308373e-09 4.981038e-10 1.8154312e-09
4.354629e-11 3.4201817e-12 1.6600147e-12 9.8352666e-11 1.011439e-10 1.7119878e-13 9.902059e-14 9.8997616e-12
4.3361525e-12 0.0 0.0 0.0 0.0 0.0 0.0 0.0
0.0 0.0 0.0 0.0 0.0 0.0 0.0 0.0
0.0 0.0 0.0 0.0 0.0 0.0 0.0 0.0
0.0 0.0 0.0 0.0 0.0 0.0 0.0 0.0
0.0 0.0 0.0 0.0 0.0 0.0 0.0 0.0
0.0 0.0 0.0 0.0 0.0 0.0 2.1592734e-09 3.3220257e-10
9.554603e-10 1.2412303e-09 5.006059e-10 1.8563827e-09 4.2084263e-11 3.2028653e-12 1.4508228e-12 9.917887e-11
1.0252093e-10 1.587574e-13 8.893036e-14 5.6723515e-12 3.9922926e-12 0.0 0.0 0.0
0.0 0.0 0.0 0.0 0.0 0.0 0.0 0.0
0.0 0.0 0.0 0.0 0.0 0.0 0.0 0.0
0.0 0.0 0.0 0.0 0.0 0.0 0.0 0.0
0.0 0.0 0.0 0.0 0.0 0.0 0.0 0.0
0.0 0.0 0.0 0.0 0.0 0.0 0.0 0.0
0.0 0.0 2.6634064e-09 3.886278e-10 1.160526e-09 1.5197342e-09 6.131998e-10 2.2296867e-09
5.0675804e-11 4.005042e-12 1.9363443e-12 1.1995635e-10 1.264592e-10 1.4357917e-13 1.2930524e-13 1.1926742e-11
6.41818e-12 0.0 0.0 0.0 0.0 0.0 0.0 0.0
0.0 0.0 0.0 0.0 0.0 0.0 0.0 0.0
3.3638101e-09 4.944887e-10 1.4775833e-09 1.9718014e-09 7.896496e-10 3.0146436e-09 6.886204e-11 4.9122147e-12
2.373613e-12 1.5854047e-10 1.6187218e-10 2.100556e-13 1.3268244e-13 8.887669e-12 5.013124e-12 3.2831715e-09
00000000: 95ea b732 94f3 4531 e9d5 1e32 61fa 6132
00000010: 7c2b b831 059a b332 c55f 0830 976d 692e
00000020: 889c ba2d 933a 9130 32f4 9130 2d6a 2e2c
00000030: 69dd dd2b ebce 552e f0d7 682d c1f7 5731
00000040: d1fe fc2f de51 b930 643f f130 0ae9 4230
00000050: 5478 2f31 df35 842e 0468 9e2c dab9 122c
00000060: 4b86 1a2f da64 1f2f 7daa 7f2a 8213 2e2a
00000070: 8ff6 782d ccfa 9e2c 8396 2d31 a24e b92f
00000080: 6312 9330 a15b d030 4785 2630 f40c 2331
00000090: 3bdb 7a2e dac2 db2c a271 2a2c f4f3 062f
000000a0: 41a2 052f 00f2 ac2a b98e 522a f2bb 162d
000000b0: e357 5e2c 0000 0000 0000 0000 0000 0000
000000c0: 0000 0000 0000 0000 0000 0000 0000 0000
000000d0: 0000 0000 0000 0000 0000 0000 0000 0000
000000e0: 0000 0000 0000 0000 0000 0000 0000 0000
000000f0: c061 a832 3ca3 3931 71b0 1632 f449 5532
00000100: a72d ac31 cdff ab32 e8c7 f52f 95a8 6f2e
00000110: 0796 bc2d 2eee 8730 ec0c 8930 b67d 072c
00000120: 2d23 b32b 3c6b 1c2e b6f2 ad2d 0000 0000
00000130: 0000 0000 0000 0000 0000 0000 0000 0000
00000140: 0000 0000 0000 0000 0000 0000 0000 0000
00000150: 0000 0000 0000 0000 0000 0000 0000 0000
00000160: 0000 0000 0000 0000 2d88 1431 e635 a72f
00000170: ac13 7d30 3d2a a930 f0ea 0830 cf82 f930
00000180: c484 3f2e 84ac 702c 55a0 e92b a147 d82e
00000190: f46a de2e b0c0 402a 7cf9 de29 9028 2e2d
000001a0: 9790 982c 0000 0000 0000 0000 0000 0000
000001b0: 0000 0000 0000 0000 0000 0000 0000 0000
000001c0: 0000 0000 0000 0000 0000 0000 0000 0000
000001d0: 0000 0000 0000 0000 0000 0000 0000 0000
000001e0: 0000 0000 0000 0000 0000 0000 0000 0000
000001f0: 0000 0000 0000 0000 0000 0000 0000 0000
00000200: 0000 0000 0000 0000 0000 0000 0000 0000
00000210: 0000 0000 0000 0000 0000 0000 0000 0000
00000220: 0000 0000 0000 0000 0000 0000 0000 0000
00000230: 0000 0000 0000 0000 0000 0000 0000 0000
00000240: 0000 0000 0000 0000 0000 0000 0000 0000
00000250: 0000 0000 0000 0000 5762 1431 5ba1 b62f
00000260: 4551 8330 e997 aa30 029b 0930 a923 ff30
00000270: ab16 392e b161 612c 662f cc2b be18 da2e
00000280: 2772 e12e b5be 322a dd40 c829 0094 c72c
00000290: 6077 8c2c 0000 0000 0000 0000 0000 0000
000002a0: 0000 0000 0000 0000 0000 0000 0000 0000
000002b0: 0000 0000 0000 0000 0000 0000 0000 0000
000002c0: 0000 0000 0000 0000 0000 0000 0000 0000
000002d0: 0000 0000 0000 0000 0000 0000 0000 0000
000002e0: 0000 0000 0000 0000 0000 0000 0000 0000
000002f0: 0000 0000 0000 0000 0000 0000 0000 0000
00000300: 0000 0000 0000 0000 0000 0000 0000 0000
00000310: 0000 0000 0000 0000 0000 0000 0000 0000
00000320: 0000 0000 0000 0000 0000 0000 0000 0000
00000330: 0000 0000 0000 0000 0000 0000 0000 0000
00000340: 0000 0000 0000 0000 2407 3731 80a6 d52f
00000350: 6180 9f30 e5de d030 1a8e 2830 1039 1931
00000360: e2df 5e2e 36ea 8c2c 1442 082c b6e4 032f
00000370: 1a0b 0b2f e1a7 212a b395 112a 45d1 512d
00000380: d3d1 e12c 0000 0000 0000 0000 0000 0000
00000390: 0000 0000 0000 0000 0000 0000 0000 0000
000003a0: 0000 0000 0000 0000 0000 0000 0000 0000
000003b0: 0000 0000 0000 0000 0000 0000 0000 0000
000003c0: c628 6731 8dec 0730 d713 cb30 4c80 0731
000003d0: a70e 5930 2c2a 4f31 e26d 972e 4cd5 ac2c
000003e0: 3607 272c 2d51 2e2f f8fa 312f 6880 6c2a
000003f0: 1c63 152a 815a 1c2d 3562 b02c 2a9e 6131
