checkpoints/checkpoint_episode_9000.pth (torch, 752493 bytes, 8 tensors)

network.0.weight f4 [256, 128]
0	0x3c8abc18	0.016935393
1	0xbd8dfc73	-0.069329165
2	0xbda10798	-0.078627765
3	0x3bb19220	0.005419031
4	0xbd162b21	-0.036662225
5	0x3d9ae6c9	0.0756355
6	0x3dadb486	0.08481698
7	0x3d44dac2	0.048060186
8	0xbd7c3ed6	-0.061583363
9	0xbd9eeab3	-0.07759609
10	0xbd16226a	-0.036653914
11	0x3d219aa1	0.039454106
12	0x3c55ed55	0.013057073
13	0x3d7e28b2	0.06205053
14	0xbd9223ee	-0.07135759
15	0xbcb72254	-0.022355236
16	0x3d514ad1	0.05109674
17	0x3d654642	0.055975206
18	0x3d482845	0.04886653
19	0xbcf03119	-0.029320287
20	0xbd3856ae	-0.04500454
21	0xbd85a8ee	-0.065263614
22	0x3d535aba	0.051600195
23	0x3da3d594	0.07999721
24	0xbd895fb1	-0.06707705
25	0xbd4c807f	-0.04992723
26	0xbd18aa44	-0.037271753
27	0xbcbd4366	-0.023103427
28	0xbd77910a	-0.060441054
29	0x3d5c29f8	0.053750962
30	0xba08062e	-0.0005188909
31	0x3cabb8ac	0.020962082
32	0x3cf1e2e9	0.029527145
33	0x3cb2ebfd	0.021841044
34	0x3d121360	0.03566301
35	0x3c9b6119	0.018967198
36	0x3baf18a6	0.0053435145
37	0x3b826108	0.003978852
38	0xbb4a341b	-0.0030853811
39	0xbd2adab5	-0.04171248
40	0xbd31bcda	-0.043392994
41	0xbd0933a1	-0.033496503
42	0xb869eb75	-5.5770815e-05
43	0x3c815438	0.015787229
44	0x3da1759f	0.078837626
45	0xbcab2cee	-0.020895448
46	0xbd3ab31d	-0.045580972
47	0x3bad2ad2	0.0052846456
48	0xbd6ebeff	-0.058287617
49	0x3d21cde2	0.039502986
50	0x3d1db6b1	0.038504306
51	0x3d891965	0.06694297
52	0x3b1ffb45	0.0024411243
53	0xbd185e27	-0.037199166
54	0xbdacf4f4	-0.084451586
55	0x3d846249	0.06464059
56	0x3d11a4d5	0.035557587
57	0xbd8507b4	-0.0649561
58	0x3c95bc91	0.018278392
59	0xbdad385e	-0.08458017
60	0x3bca12b2	0.0061667794
61	0x3d522345	0.051303167
62	0x3c673bb5	0.014113356
63	0x3cb30939	0.021854984
64	0xbc14bfa5	-0.009078895
65	0xbbd12691	-0.0063827713
66	0x3d31a2cc	0.043368146
67	0x3daf92af	0.085728996
68	0x3d1a19a7	0.03762212
69	0xbd0b5751	-0.03401882
70	0xbdae2d1d	-0.085046984
71	0xbc773a36	-0.015089562
72	0xbcd57c43	-0.02606023
73	0xbd98c1fe	-0.07458876
74	0xbc93069c	-0.017947488
75	0xbd2c2a49	-0.042032514
76	0x3cc21c59	0.023695158
77	0xbd86058b	-0.06544026
78	0x3d78c38d	0.060733367
79	0xbd7e8c1f	-0.06214535
80	0xbc5c09d9	-0.013430082
81	0xbd6d02ec	-0.057864115
82	0xbd69e8c9	-0.057106767
83	0xbd6a7a6a	-0.05724565
84	0x3d6fc8d5	0.058541138
85	0xbd08957e	-0.03334569
86	0xbd3b1052	-0.04566986
87	0xba80d3d0	-0.000982875
88	0xbd9e5ed3	-0.0773293
89	0x3d3908f6	0.04517456
90	0x3d84bb01	0.06480981
91	0xbd324040	-0.043518305
92	0x3c0e939d	0.008702186
93	0xbbbb6044	-0.005718263
94	0xbd849d6b	-0.064753376
95	0xbc854d59	-0.016272234
96	0xbca14824	-0.01968772
97	0xbd3c734c	-0.046008393
98	0xbc02e411	-0.007988946
99	0xbd871340	-0.065954685
100	0x3da33a3a	0.0797009
101	0x3dae370b	0.08506592
102	0x3c663ba6	0.014052307
103	0xbd19cf79	-0.037551377
104	0xbdade570	-0.08491027
105	0x3d48ac06	0.04899218
106	0x3d55090c	0.05201058
107	0xbac46a5d	-0.0014985312
108	0xbc114286	-0.008865958
109	0xbd2569c3	-0.040384065
110	0xbd57d473	-0.05269284
111	0xbb6beab2	-0.0035998044
112	0xbd0b661c	-0.034032926
113	0x3cfb1878	0.030651316
114	0xbc31b455	-0.010846217
115	0xbd537dc6	-0.05163362
116	0x3b72168d	0.003693971
117	0xbd8256b7	-0.06364196
118	0xbd46c794	-0.048530176
119	0x3ac19ae2	0.001477089
120	0xbd29c6dc	-0.041449413
121	0xbbb98654	-0.005661765
122	0xbdb1db16	-0.086843655
123	0x3cab9d02	0.02094889
124	0x3ae7a637	0.0017673437
125	0x3d749470	0.059711874
126	0x3bb18fa7	0.005418736
127	0xbcd6f367	-0.02623911
128	0xbd17442f	-0.03693026
129	0xbd94095b	-0.07228347
130	0x3d603c96	0.05474528
131	0xbda61019	-0.08108539
132	0xbd9605bb	-0.07325312
133	0x3c1e3f08	0.0096585825
134	0x3c9d1f37	0.019179923
135	0xbc95a47b	-0.018266907
136	0xbc64454b	-0.013932536
137	0xbd8dec80	-0.069298744
138	0xbcdd75e0	-0.027033746
139	0x3c264889	0.01014913
140	0x3da71eb5	0.08160154
141	0xbd97374d	-0.07383595
142	0xbd523d74	-0.051328138
143	0xbd8cd33a	-0.06876226
144	0x3d10e932	0.035378642
145	0x3d9b0e2e	0.07571064
146	0x3c1526e2	0.009103509
147	0xbc0f0a3b	-0.0087304665
148	0xbd4153ac	-0.047198936
149	0xbd92a389	-0.07160098
150	0x3d5937a9	0.053031597
151	0x3cca3b11	0.024686368
152	0xbd7cbd44	-0.061703935
153	0xbc2f52da	-0.010700906
154	0xbd089fee	-0.033355646
155	0xbcb3f352	-0.02196661
156	0xbd8cadb6	-0.0686907
157	0xbcda0dc0	-0.026617885
158	0xbd8227f3	-0.06355276
159	0x3d9d99ea	0.076953724
160	0x3d306d54	0.043073013
161	0x3d7ec01d	0.062194932
162	0x3da8dc9a	0.082452014
163	0x3b731b1e	0.003709502
164	0x3d0ce43c	0.03439735
165	0xbda35583	-0.079752944
166	0x3db29f49	0.087217875
167	0x3d5a462f	0.05328959
168	0x3d9dc737	0.07704013
169	0x3d2bdf3c	0.04196094
170	0xbd75ec31	-0.060039703
171	0x3da421e7	0.08014279
172	0xbda3bd8a	-0.07995136
173	0x3c93b6b3	0.018031454
174	0x3d013422	0.03154386
175	0xbcb6cd25	-0.022314617
176	0xbdada8ab	-0.084794365
177	0x3d9f8311	0.07788671
178	0x3d599f65	0.053130526
179	0xbd10c374	-0.03534265
180	0x3da92905	0.08259777
181	0xbd81daa8	-0.063405335
182	0x3cbaef81	0.022819282
183	0x3d923db6	0.07140677
184	0xbd3812e9	-0.04493991
185	0x3d95affc	0.07308957
186	0x3ce32147	0.027725829
187	0x3ca9f69f	0.02074748
188	0xbc15e49b	-0.009148742
189	0xbd3908cc	-0.045174405
190	0x3c4645ce	0.012101604
191	0x3d61f8f8	0.055169076
192	0x3c2fe7e0	0.010736436
193	0x3c38b17d	0.011272785
194	0x3ce5f923	0.0280729
195	0x3d8fc103	0.07019236
196	0x3d4e282f	0.05033129
197	0x3d335707	0.043784168
198	0xbd374df0	-0.04475206
199	0x3dacdc3a	0.084404424
200	0x3c732a30	0.014841601
201	0x3cd01622	0.025401179
202	0xbda4eb0c	-0.08052644
203	0xbda2d16a	-0.07950099
204	0x3d60802b	0.05480973
205	0x3d348998	0.044076532
206	0xbd112e95	-0.035444815
207	0xbd520496	-0.051273905
208	0xbd9406a0	-0.07227826
209	0x3cf855c8	0.030314341
210	0xbd5688f0	-0.052376688
211	0xbce357d1	-0.027751835
212	0xbceb51ce	-0.028725531
213	0x3da99987	0.08281236
214	0x3cd88a69	0.026433187
215	0x3d708971	0.058724824
216	0xbdab4bc9	-0.08364064
217	0x3c86d28b	0.016457817
218	0xbba4813f	-0.00502029
219	0xbd3e9d68	-0.046536833
220	0x3cf21cb1	0.029554697
221	0xbda04b5d	-0.078268744
222	0xbc22a9f6	-0.009928217
223	0x3d26611b	0.04061995
224	0xbc53dfff	-0.012931823
225	0x3d2aaf4f	0.041671094
226	0x3d56a136	0.052399836
227	0x3d31acee	0.04337781
228	0x3c008641	0.007844509
229	0x3d9dd467	0.07706528
230	0x3d4a9dda	0.049466945
231	0x3da5e101	0.08099557
232	0x3d751a8e	0.059839778
233	0xbda63ade	-0.08116697
234	0x3d6e3d8d	0.05816417
235	0xbd844061	-0.06457592
236	0x3d6e42ad	0.058169056
237	0x3da5a1d3	0.08087506
238	0xbc2e602e	-0.010643048
239	0xbb97cf79	-0.004632887
240	0xbdb0f5e6	-0.086406514
241	0x3da12c00	0.078697205
242	0x3d37ed4a	0.04490403
243	0xbdb26879	-0.08711333
244	0x3d9d269c	0.0767338
245	0x3d1dd716	0.0385352
246	0x3d431318	0.04762563
247	0x3cb47ae3	0.022031253
248	0xbd19e937	-0.037575927
249	0xbd5a5563	-0.053304087
250	0x3cf592b8	0.029977188
251	0xbda2a613	-0.079418324
252	0xbc2325ed	-0.009957773
253	0xbca1a980	-0.019734144
254	0xbd165553	-0.036702465
255	0xbd0ac969	-0.033883486

network.0.bias f4 [256]
0	0xbd760115	-0.060059626
1	0x3d617b78	0.05504939
2	0x3d9238ca	0.07139738
3	0xbca1eaf9	-0.019765364
4	0xbbc76297	-0.006084751
5	0x3d73b26e	0.059496336
6	0x3c451565	0.012029027
7	0xbd05d739	-0.032675955
8	0x3d8308a7	0.06398135
9	0xbd7e5872	-0.062096067
10	0x3d9b3bf1	0.07579792
11	0x3d7f829a	0.06238041
12	0xbd9d2439	-0.076729245
13	0xbd6942bf	-0.05694842
14	0xbd283f7f	-0.04107618
15	0xbdb259f9	-0.08708567
16	0x3c33491b	0.010942723
17	0x3cb05739	0.021525966
18	0xba204fc5	-0.0006115402
19	0xbda46bd8	-0.08028382
20	0x3d602f34	0.054732516
21	0xbd35a23a	-0.044344164
22	0xbc68a5f8	-0.014199726
23	0x3da63080	0.081147194
24	0xbc604572	-0.013688432
25	0xbc352a4b	-0.011057447
26	0x3c4d0a7b	0.012514706
27	0x3d482007	0.04885867
28	0xbd84209a	-0.06451531
29	0x3d9046b2	0.07044734
30	0x3ca7388e	0.02041271
31	0xbd59b069	-0.053146753
32	0xbce3b78a	-0.02779748
33	0xbd7bb28d	-0.061449576
34	0xbd015bb9	-0.031581614
35	0xbcdc5d06	-0.026899826
36	0xbd14bbd8	-0.036311954
37	0xbd2efc1c	-0.0427209
38	0x3cc7c826	0.02438743
39	0x3d98db52	0.07463707
40	0x3d88a19c	0.066714495
41	0xbc1581ec	-0.009125214
42	0xbd95a562	-0.07306935
43	0xbc5d35e2	-0.013501616
44	0xbd8b8140	-0.06811762
45	0x3d0ea408	0.0348244
46	0xbca03c9d	-0.019560153
47	0x3c34d2b3	0.011036563
48	0x3cca776f	0.024715154
49	0x3dad8649	0.084728785
50	0x3d4ee5db	0.050512176
51	0x3b928c86	0.004472318
52	0x3dac2a8a	0.08406551
53	0xbd48dbe9	-0.049037848
54	0xbd44e21e	-0.048067205
55	0x3bde4898	0.006783556
56	0x3d2356ac	0.03987758
57	0xbd350337	-0.04419252
58	0x3cfa8729	0.030582028
59	0x3da3e804	0.08003238
60	0xbc898b60	-0.016790092
61	0x3d20816c	0.039185926
62	0x3d5027a8	0.05081907
63	0x3c87145f	0.016489206
64	0x3d4ab62b	0.049490135
65	0xbd9c3610	-0.07627499
66	0xbd627c7b	-0.055294495
67	0xbd648007	-0.05578616
68	0xbc5e4ac2	-0.013567628
69	0x3c4eb949	0.012617418
70	0xbd840251	-0.06445754
71	0xbc83b142	-0.016075734
72	0x3d15661d	0.036474336
73	0x3cc7f8da	0.024410654
74	0x3c3c50dc	0.011493888
75	0x3cc7ed18	0.024405047
76	0xbd270f0e	-0.04078584
77	0xbd7fe659	-0.062475536
78	0x3d69f1b9	0.05711529
79	0x3cf2d0ce	0.029640581
80	0xbdb1f410	-0.08689129
81	0x3d193676	0.037405454
82	0x3b6ef867	0.0036463977
83	0xba55835a	-0.0008144878
84	0x3d564d52	0.052319832
85	0x3d929d7f	0.07158946
86	0x3d2f64c8	0.042820722
87	0xbd764829	-0.06012741
88	0x3d70fb8b	0.05883364
89	0x3d9a3a14	0.07530609
90	0xbd8d4bcb	-0.06899222
91	0xbd85bff3	-0.06530752
92	0xbc910b59	-0.017705606
93	0xbdabdd32	-0.08391799
94	0x3da2f116	0.0795614
95	0x3c4151bd	0.011799273
96	0x3d49b4b4	0.049244598
97	0x3b146741	0.0022644552
98	0x3dabbfef	0.08386218
99	0xbd46878e	-0.04846912
100	0xbd3c4269	-0.04596177
101	0x3d992bd5	0.074790634
102	0xbd2bea18	-0.041971296
103	0x3d05ab16	0.032633863
104	0x3cb8e149	0.022568362
105	0x3d9faf64	0.07797125
106	0xbcd9eb41	-0.026601436
107	0xbd81fc1d	-0.06346915
108	0x39393d69	0.00017665852
109	0x3b95abbb	0.004567591
110	0x3d27369c	0.040823564
111	0x3c514526	0.012772834
112	0xbcd948d7	-0.02652399
113	0xba30bf0e	-0.00067423366
114	0xbda3a7a0	-0.07990956
115	0xbce4ace8	-0.02791448
116	0x3c5661f6	0.013084879
117	0x3d023b33	0.031794738
118	0xbd768e4b	-0.060194295
119	0x3d603d97	0.054746237
120	0x3ccbf469	0.024896817
121	0xbdb354d2	-0.087564126
122	0x3ba34e46	0.004983696
123	0x3da5d899	0.08097953
124	0xbdaa48bf	-0.083146565
125	0xbc419ac0	-0.01181668
126	0x3cd3aef0	0.025840253
127	0xbd10e812	-0.03537757
128	0xbd9d2866	-0.07673721
129	0xbc17824f	-0.009247377
130	0xbcb5ed42	-0.02220786
131	0xbc5556b8	-0.013021164
132	0xbb53a888	-0.0032296497
133	0xbbf5d8bf	-0.007502645
134	0x3d89775d	0.0671222
135	0xbd133cfa	-0.035946824
136	0xbbfb42c3	-0.0076678707
137	0xbda5c766	-0.08094673
138	0xbdac5af7	-0.08415788
139	0x3d0663ba	0.03280995
140	0x3d9f7aa3	0.07787063
141	0x3d3ecfa5	0.046584744
142	0x3d2f486f	0.042793687
143	0xbda44d98	-0.08022612
144	0x3d0da368	0.034579664
145	0x3d60b345	0.054858465
146	0x3dac265e	0.084057555
147	0xbda7acb5	-0.08187238
148	0xbd6ca6f1	-0.057776395
149	0x3ca8abf6	0.02058981
150	0xbd185b2e	-0.03719633
151	0xb9c50045	-0.0003757497
152	0xbc9059b0	-0.017620891
153	0x3c0a96e8	0.00845883
154	0xbbfd9ecf	-0.0077398787
155	0x3d999942	0.07499935
156	0x3d722443	0.059116613
157	0x3d8b7fb3	0.06811466
158	0xbbe8fca2	-0.0071101943
159	0xbc8cf69f	-0.017207442
160	0x3d8b069b	0.06788369
161	0xbc06628e	-0.008202208
162	0x3db465eb	0.08808502
163	0x3d115ae8	0.035487086
164	0x3d8e8cd7	0.06960457
165	0xba164dec	-0.0005733657
166	0x3cd0297d	0.025410408
167	0xbc11f3b3	-0.0089082
168	0x3d47bfeb	0.04876701
169	0xbd89d033	-0.06729164
170	0x3da6184c	0.08110103
171	0xbd9d9ba9	-0.076957054
172	0xbd467ef8	-0.04846093
173	0x3d1d9561	0.038472537
174	0x3d428494	0.047489718
175	0x3da33301	0.079687126
176	0x3d507f6f	0.05090278
177	0xbd682be7	-0.056682494
178	0x3d7bbb1a	0.06145773
179	0xbc1641c5	-0.009170954
180	0x3d1a46be	0.03766512
181	0x3d9430d3	0.07235875
182	0x3cfd8516	0.03094725
183	0xbc077eba	-0.00826996
184	0xbc6ba0b7	-0.014381579
185	0x3d87ba82	0.066273704
186	0x3ac527de	0.0015041789
187	0x3ac860b5	0.001528761
188	0x3ce0bfe8	0.027435258
189	0x3cd64e07	0.026160253
190	0xbd9a1951	-0.0752436
191	0x3d89bd03	0.06725504
192	0x3d47738d	0.048694182
193	0xbdb0b29c	-0.08627817
194	0x3d8756c7	0.06608348
195	0x3c2db19d	0.010601428
196	0x3c925f17	0.017867608
197	0xbd661f87	-0.05618241
198	0xbda08114	-0.0783712
199	0xbd0ae0ee	-0.033905916
200	0xbc27ae82	-0.010234477
201	0x3d643241	0.05571199
202	0xbd8ec24a	-0.069706514
203	0xbbc24af3	-0.005929345
204	0xbd2766b1	-0.04086942
205	0xbd460fdd	-0.048354972
206	0xbcab1599	-0.020884322
207	0x3d9f3635	0.07774011
208	0xbdb1de4c	-0.08684978
209	0x3cf47161	0.02983922
210	0x3da4834f	0.080328576
211	0xbd8baf35	-0.068205275
212	0x3d89f940	0.06736994
213	0xbd00df42	-0.031462915
214	0xbccf8423	-0.025331562
215	0x3b975a45	0.0046189153
216	0xbc76c6d2	-0.015062051
217	0x3ca4812e	0.020081129
218	0x3d76e394	0.06027563
219	0x3d9dc5e8	0.07703763
220	0xbd9e1f2d	-0.0772079
221	0x3d9bee69	0.076138325
222	0xbd8ab2b1	-0.06772364
223	0x3da3f0be	0.08004902
224	0xbd3bee71	-0.045881692
225	0xbba8a28c	-0.00514633
226	0xba2603f2	-0.00063329854
227	0x3d37714b	0.04478578
228	0x3c905145	0.017616877
229	0xb81f95cd	-3.8048067e-05
230	0x3c86b7be	0.016445037
231	0x3d81cbc2	0.06337692
232	0xbd810e09	-0.06301505
233	0x3a8963d8	0.0010482026
234	0x3da38638	0.079845846
235	0x3d3af313	0.04564197
236	0xbcfe4aa3	-0.031041449
237	0xbd024d27	-0.03181186
238	0x3db37295	0.08762089
239	0xbd9d7f43	-0.07690289
240	0xbd3e9981	-0.04653311
241	0x3d22c444	0.039737955
242	0xbd77c796	-0.060493074
243	0xbcb7c5fb	-0.022433272
244	0xbd0f480c	-0.03498082
245	0xbd9be688	-0.0761233
246	0xbd4d839b	-0.050174337
247	0x3dab8875	0.083756365
248	0xbd2c83e1	-0.042117957
249	0x3d9f68e9	0.07783682
250	0xbd9b28bf	-0.07576131
251	0x3d93d235	0.07217828
252	0xbd1bd79b	-0.038047414
253	0xbc3561ab	-0.011070649
254	0x3d5259f3	0.051355314
255	0x3cf8979c	0.03034573

network.2.weight f4 [256, 256]
0	0x3a4ab000	0.00077319145
1	0xbbaeda40	-0.005336076
2	0xbd70c2c2	-0.058779486
3	0x3c5a24a8	0.013314404
4	0x3d14f59e	0.03636705
5	0x3d6a4132	0.05719108
6	0xbd2d8ada	-0.042368747
7	0xbd6ce444	-0.05783488
8	0x3d2d064a	0.042242326
9	0x3a2fc300	0.00067047775
10	0x3d0dc87c	0.034615025
11	0x3d4d91b6	0.05018779
12	0xbd797632	-0.060903735
13	0x3cf23850	0.029567868
14	0x3d4e8a36	0.050424777
15	0x3d183a84	0.03716518
16	0xbd2fd982	-0.04293204
17	0x3d536824	0.051612988
18	0xbd53ada2	-0.05167926
19	0x3d5bcd7a	0.053662755
20	0xbb85d760	-0.0040845126
21	0x3d067334	0.03282471
22	0x3d7f6626	0.062353276
23	0xbd7f96a0	-0.062399507
24	0xbbaa5ab0	-0.005198799
25	0xbcba10c0	-0.022713065
26	0x3d09fe80	0.033689976
27	0x3d109d3e	0.035306208
28	0xbd1eafc0	-0.038741827
29	0x3cb46334	0.02201996
30	0x3caca9cc	0.02107706
31	0xbd007d70	-0.031369627
32	0x3d152390	0.03641087
33	0xbc3016c8	-0.010747619
34	0x3d1d7d02	0.038449295
35	0x3ccf9aa4	0.025342293
36	0xbce32ea8	-0.027732208
37	0xbd7439c0	-0.059625387
38	0x3b00ede0	0.0019673035
39	0xbc47df78	-0.012199275
40	0xbd4d7bb0	-0.050166786
41	0xbd10f57a	-0.035390355
42	0xbb7edc80	-0.0038888752
43	0xbcd7e3e8	-0.026353791
44	0x3d79c77e	0.060981266
45	0xbd1fd92a	-0.039025463
46	0x3d0977aa	0.033561386
47	0x3d631b9c	0.055446252
48	0x3d18bc98	0.037289232
49	0x3d246d0c	0.040143058
50	0xbcdb26e8	-0.02675195
51	0x3cd5bfb8	0.026092395
52	0x3d2b0864	0.04175605
53	0xbc9d4e70	-0.019202441
54	0x3d661fbe	0.056182615
55	0x3adbd1c0	0.0016770884
56	0xbd6fbb42	-0.058528192
57	0x3b889150	0.004167713
58	0x3cbaa350	0.022782952
59	0x3b968eb0	0.0045946464
60	0x3d43000c	0.047607467
61	0x3ccba79c	0.024860196
62	0xbd347970	-0.044061124
63	0x3d11f4a4	0.035633698
64	0x3d12a8ce	0.035805516
65	0xbd6dc134	-0.05804558
66	0xbd66c5ec	-0.056341097
67	0x3c148868	0.009065725
68	0x3d5c2d7e	0.053754322
69	0xbc9f0cb8	-0.019415244
70	0x3c58b268	0.013226129
71	0x3d75f838	0.060051173
72	0x3d25443a	0.04034827
73	0x3cae5f6c	0.021285735
74	0x3cce73b0	0.025201648
75	0xbcd18230	-0.025574774
76	0x3cdad1ac	0.026711307
77	0xbc9f5d90	-0.019453794
78	0x3caf363c	0.021388166
79	0x3b94c860	0.004540488
80	0x3d11306e	0.035446577
81	0xbd718acc	-0.058970258
82	0xbce1432c	-0.02749785
83	0x3c96c014	0.018402137
84	0x3d062be0	0.032756686
85	0x3d73228a	0.05935911
86	0x3cb91d90	0.022597104
87	0xbd118220	-0.035524487
88	0xbbed17e0	-0.007235512
89	0x3b6e65e0	0.003637664
90	0xbd5277ea	-0.05138389
91	0x3d3f3a26	0.046686314
92	0x3d39ddb8	0.045377463
93	0x392ba000	0.00016367435
94	0x3cc8d8bc	0.02451741
95	0x3d08326c	0.03325121
96	0x3d635e9e	0.055510156
97	0xbd223520	-0.039601445
98	0xbd63af2c	-0.05558698
99	0xbcb93984	-0.022610433
100	0xbd1fda36	-0.03902646
101	0xbd3f5d1e	-0.046719663
102	0xbce377cc	-0.027767085
103	0xbbdcccf0	-0.0067382976
104	0x3d5a4ac2	0.05329395
105	0xbd354e96	-0.0442644
106	0xbd7f24ba	-0.062290885
107	0x3d0b96fc	0.034079537
108	0x3d4f4f76	0.05061289
109	0x3cbea774	0.023273207
110	0xbcafa8e8	-0.021442845
111	0xbc8adfd4	-0.016952433
112	0xbd42343c	-0.047413096
113	0xbc8b5f74	-0.017013289
114	0x3d3a18f8	0.04543397
115	0xbd11852a	-0.035527386
116	0xbd269274	-0.040667012
117	0xba6c0400	-0.00090032816
118	0xbc830b10	-0.015996486
119	0x3c9b5e0c	0.018965743
120	0xbd320faa	-0.04347197
121	0xbc300830	-0.01074414
122	0xbaeb6840	-0.0017960146
123	0x3c8d5670	0.01725313
124	0xbcb0359c	-0.021509938
125	0xbcbe572c	-0.023234926
126	0x3d0d2f42	0.034468897
127	0x3ce57a6c	0.028012477
128	0xbd6d51c2	-0.0579393
129	0xbd264ee2	-0.040602572
130	0xbd3288b2	-0.043587394
131	0xbd772a7a	-0.060343243
132	0xbbfafff0	-0.0076599047
133	0x39420600	0.00018503517
134	0x3d482d46	0.0488713
135	0xbd789b90	-0.06069523
136	0xbd552f52	-0.05204708
137	0x3aa67280	0.0012698919
138	0x3cbebb08	0.023282543
139	0x3d080e1c	0.03321658
140	0xbce71ff0	-0.028213471
141	0xbd62511c	-0.055253133
142	0xbc14a3f0	-0.009072289
143	0xbab87d00	-0.0014075339
144	0xbabf9340	-0.0014616027
145	0xbd59c6a2	-0.053167947
146	0x3d0a6de6	0.033796214
147	0xbce89b30	-0.028394312
148	0x3d52fbf8	0.051509827
149	0x3c2ec280	0.01066649
150	0x3cc7b1b8	0.024376735
151	0x3d20c2da	0.039248325
152	0x3d2334e0	0.039845347
153	0xbd2db82c	-0.042411968
154	0xbcf710b0	-0.030159324
155	0x3d441bec	0.04787819
156	0x3d004702	0.03131772
157	0x3c4cfe38	0.012511782
158	0xbc469e20	-0.012122661
159	0x3d5b51b0	0.0535447
160	0xbd685c4a	-0.05672864
161	0xbc86af70	-0.016441077
162	0xbd7afd58	-0.061276764
163	0x3cc33de8	0.02383323
164	0x3d04ceaa	0.032423653
165	0xbc16df68	-0.009208538
166	0xbd641f88	-0.055694133
167	0x3d3163e0	0.04330814
168	0xbd4bd302	-0.04976178
169	0x38a2ac00	7.7567995e-05
170	0xbd59e6b8	-0.053198546
171	0x3d75a2e4	0.059969798
172	0xbccd8158	-0.02508609
173	0xbd626916	-0.055276
174	0x3c812a94	0.015767373
175	0xbd156876	-0.036476575
176	0x3c2035c8	0.009778447
177	0xbd19a792	-0.037513323
178	0xbd222826	-0.03958907
179	0xbd72fdac	-0.05932395
180	0x3c9d0580	0.019167662
181	0xbb30bcc0	-0.0026967973
182	0x3d2e81ae	0.04260414
183	0x3d4e8022	0.050415166
184	0x3d45471e	0.048163526
185	0xbd5cc902	-0.053902633
186	0xbd75c98c	-0.060006663
187	0xbd58fc7e	-0.05297517
188	0xbd7e1fb0	-0.06204194
189	0x3d149256	0.03627237
190	0xbd7a6046	-0.06112697
191	0xbd77121e	-0.060320012
192	0x3d41bdec	0.047300264
193	0x3bd9a2c0	0.0066417158
194	0x3d38acc4	0.045086637
195	0x3d19edca	0.03758029
196	0xbae15880	-0.0017192513
197	0x3d3a422e	0.04547327
198	0xbd48c6e8	-0.049017817
199	0xbceb9968	-0.028759673
200	0x3ce80eb0	0.028327316
201	0xbca082e0	-0.019593656
202	0x3ba02360	0.0048870295
203	0x3d1a90f8	0.03773591
204	0xbd7c97ec	-0.06166832
205	0xbd3f2f66	-0.046676062
206	0x3d7138f8	0.05889222
207	0x3d0b4be8	0.034007937
208	0x3d275c8c	0.040859744
209	0x3d54b9cc	0.051935002
210	0xbd48491c	-0.048897848
211	0xbd7a1338	-0.061053485
212	0xbd474446	-0.048649095
213	0x3ce9f3c0	0.028558612
214	0xbc64ba60	-0.013960451
215	0xbd58a710	-0.0528937
216	0x3d38d13c	0.045121416
217	0x3cc6dda0	0.0242756
218	0xbd1ef012	-0.038803168
219	0x3ce7e454	0.028307118
220	0x3d6a74fc	0.05724047
221	0xbd6d9536	-0.058003627
222	0xbd6ab826	-0.057304524
223	0xbd5b352c	-0.053517506
224	0x3d46bf10	0.048522055
225	0x3d7ba8b0	0.06144017
226	0x3bcb8200	0.0062105656
227	0x3c156f08	0.00912071
228	0x3caaa1f4	0.020829178
229	0x3d4c4c12	0.049877234
230	0x3cf1f074	0.029533602
231	0xbca1ef04	-0.019767292
232	0xbd4ac48a	-0.04950384
233	0xbd469e3e	-0.048490755
234	0x3ceab28c	0.02864959
235	0x3d4edc48	0.050503045
236	0x3d2417ae	0.040061645
237	0x3c92eb08	0.017934337
238	0xbca46318	-0.020066783
239	0xbc272a10	-0.0102029
240	0x3d5fbd56	0.054623924
241	0x3cae0628	0.02124317
242	0x3d1c23da	0.03812013
243	0xbc8035f8	-0.015650734
244	0xbcfa49bc	-0.030552737
245	0xbd0c6db4	-0.03428431
246	0x3d0edf6c	0.03488104
247	0xbd386c02	-0.04502488
248	0xbbe2cac0	-0.0069211423
249	0xbd2c8390	-0.042117655
250	0x3d50b848	0.050956994
251	0xbd574cb6	-0.05256339
252	0xbccc6b80	-0.024953604
253	0x3d2fd134	0.04292412
254	0xbc951340	-0.018197656
255	0xbc25da58	-0.010122858

network.2.bias f4 [256]
0	0xbc31f128	-0.010860719
1	0xbd0922b8	-0.033480376
2	0x3c2460f0	0.010032877
3	0x3d57f37a	0.05272243
4	0x3ba635e0	0.0050723404
5	0xbd2c855c	-0.04211937
6	0x3d6792f0	0.056536615
7	0x3c214588	0.009843238
8	0xbcef685c	-0.029224567
9	0x3d3dacd2	0.046307392
10	0xbb058540	-0.0020373613
11	0x3d6300f8	0.055420846
12	0xbca43304	-0.020043857
13	0x3d29d4ca	0.041462697
14	0x3d2528a8	0.040321976
15	0xbbf9fed0	-0.007629253
16	0x3d3f09de	0.04664027
17	0xbd512550	-0.051060975
18	0xbd2ad8b2	-0.041710563
19	0xbd23f8ee	-0.04003232
20	0xbd3f8fa6	-0.046767853
21	0x3d04e9f6	0.032449685
22	0xbc8d8294	-0.017274179
23	0xbcbaa93c	-0.022785775
24	0x3d305ed8	0.0430592
25	0x3c8d8874	0.01727698
26	0xbc85f3ec	-0.016351663
27	0x3d3dda56	0.0463508
28	0xbd00c77a	-0.031440236
29	0xbd087436	-0.033313952
30	0xbd62e1a2	-0.05539096
31	0x3d6502a2	0.055910714
32	0x3d535bd0	0.05160123
33	0xbc84eb24	-0.016225405
34	0x3cfea410	0.03108409
35	0x3d21638c	0.039401576
36	0x3c51e3a8	0.012810625
37	0xbd159d5c	-0.036527023
38	0x3d3bdd9c	0.04586564
39	0x3d0705f6	0.03296467
40	0x3d5d1908	0.05397895
41	0xbd194ebe	-0.03742861
42	0x3bd874b0	0.006605707
43	0x3d603358	0.054736465
44	0x3d4c2adc	0.04984556
45	0x3d287100	0.04112339
46	0xbbbe33c0	-0.005804509
47	0x3c8a38e4	0.01687283
48	0x3d05c4b6	0.0326583
49	0xbd7d1ae2	-0.061793216
50	0x3c047a60	0.008085817
51	0xbcf03994	-0.02932433
52	0x3d4ad5ce	0.049520306
53	0x3c4440f0	0.011978373
54	0xbd05d956	-0.03267797
55	0xbcd7a3e0	-0.026323259
56	0xbc947400	-0.01812172
57	0x3d3111fe	0.04323005
58	0xba2a8100	-0.0006504208
59	0x3b3d7160	0.0028906688
60	0x3d7b9cf6	0.061428986
61	0x3cdf95b4	0.027293064
62	0x3c054ec8	0.008136459
63	0x3d215866	0.039390944
64	0x3d4dc598	0.05023727
65	0xbcd278b0	-0.025692314
66	0x3d050434	0.03247471
67	0xbd629082	-0.055313595
68	0x3cbccc3c	0.023046605
69	0xbcf0fc68	-0.029417232
70	0x3d4c7d58	0.049924225
71	0xbc8295e8	-0.015940621
72	0x3c6639c0	0.014051855
73	0x3c175ba0	0.009238154
74	0xbd0c6f2e	-0.034285717
75	0x3d66afec	0.056320116
76	0xbd017632	-0.03160686
77	0x3c44da10	0.012014881
78	0x3cb1c128	0.02169855
79	0xbc6c8f50	-0.014438465
80	0x3c7374d8	0.014859401
81	0xbd6232f8	-0.05522439
82	0x3b6221a0	0.0034504905
83	0x3c7c9fa8	0.015418924
84	0xbd1a1e24	-0.0376264
85	0x3cb88da0	0.02252847
86	0xbc1508f0	-0.009096369
87	0x3d3c3af4	0.04595466
88	0xbb0543c0	-0.0020334572
89	0xbc3172c0	-0.010830581
90	0xbceb1f50	-0.028701454
91	0xbc004810	-0.007829681
92	0xbd485bc4	-0.04891564
93	0xbcc914fc	-0.024546139
94	0x3d1fc466	0.03900566
95	0xb9781a00	-0.00023660809
96	0x3d619b74	0.055079892
97	0x3bf4cbe0	0.007470593
98	0xbd125e28	-0.035734326
99	0x3d6abb9e	0.057307832
100	0xb6964000	-4.477799e-06
101	0x3ce348b8	0.027744636
102	0xbd782dd8	-0.060590595
103	0xbcd0d09c	-0.025490098
104	0xbccbde88	-0.024886385
105	0x3d484650	0.04889518
106	0x3c1848b8	0.009294681
107	0xbd12797e	-0.035760395
108	0x3d13f9e4	0.036126986
109	0xbca76044	-0.020431645
110	0xbd14c0aa	-0.03631655
111	0x3a939880	0.0011260659
112	0xbd226fbe	-0.039657347
113	0xbd6f59de	-0.058435313
114	0x3cd68d1c	0.026190333
115	0x3d2d79da	0.042352535
116	0x3c14ef98	0.009090327
117	0xbd0fea84	-0.03513576
118	0xbd7b836e	-0.061404638
119	0xbc15eaa0	-0.009150177
120	0x3cbf1728	0.023326471
121	0x3c2f9990	0.0107177645
122	0xbc348900	-0.0110189915
123	0xbd48e954	-0.049050644
124	0xbce8e094	-0.0284274
125	0x3d1656f6	0.036704026
126	0x3ce3e390	0.027818471
127	0xbd50c17e	-0.05096578
128	0x3c980a64	0.018559642
129	0xbcd6cef0	-0.026221722
130	0xbd3b0afe	-0.04566478
131	0x3d434b28	0.047679096
132	0x3d3c519a	0.04597626
133	0xbbd87f60	-0.006606981
134	0xbd4b7b18	-0.04967794
135	0x3d5a1cc2	0.05325008
136	0xbd5fc14a	-0.054627694
137	0x3d51c30c	0.0512114
138	0x3b79c4e0	0.0038111731
139	0xbd21dcd0	-0.039517224
140	0xbd41a848	-0.047279626
141	0xbd7f1a84	-0.062281147
142	0xbd09662e	-0.03354471
143	0xbbcc74b0	-0.006239496
144	0xbae80dc0	-0.0017704293
145	0x3ca53c20	0.020170271
146	0x3d2f5c0a	0.042812385
147	0x3d3660e6	0.044526003
148	0x3d1d6102	0.038422592
149	0xbcd367bc	-0.0258063
150	0x3c1f3f70	0.0097197145
151	0x3c33d3b8	0.010975771
152	0x3c87ba7c	0.016568415
153	0x3d353b88	0.044246227
154	0x3d124b1a	0.035716154
155	0xbd61ad7c	-0.05509709
156	0xbc0a0dd0	-0.008426145
157	0x3d492482	0.049107082
158	0xbcc4526c	-0.023965083
159	0xbc6df838	-0.014524512
160	0xbd6a73e4	-0.05723943
161	0xbd7a51ca	-0.061113156
162	0x3d203060	0.039108634
163	0xbd171ff2	-0.0368957
164	0xbcef027c	-0.02917599
165	0x3d66652e	0.056248836
166	0x3cb8778c	0.022517942
167	0x3d643ae6	0.055720232
168	0x3d2d8d64	0.04237117
169	0xbd3d39e8	-0.0461978
170	0xbb996150	-0.00468079
171	0xb75ac000	-1.3038516e-05
172	0xbca85f38	-0.020553216
173	0x3cbfb8e4	0.023403592
174	0x3cf636d4	0.030055441
175	0xbc9c4450	-0.019075543
176	0xbc894698	-0.016757295
177	0xba8384c0	-0.001003407
178	0xbc880248	-0.01660265
179	0x3cff6d00	0.031179905
180	0x3d1142a4	0.035463944
181	0xbc268ca8	-0.010165371
182	0x3cbb6964	0.022877403
183	0x3d014228	0.031557232
184	0x3d4a6540	0.049412966
185	0x3ae13a40	0.0017183498
186	0x3cfc2fc0	0.030784488
187	0x3d0c03fa	0.03418348
188	0xbc8f02c0	-0.017457366
189	0x3c91bb5c	0.017789535
190	0xbc96d4a8	-0.01841195
191	0xbd509bd8	-0.050929874
192	0xbc00e420	-0.007866889
193	0x3d665e9c	0.05624257
194	0xbd59ac30	-0.053142726
195	0xbaf1ed80	-0.0018457621
196	0x3d4c978a	0.049949206
197	0x3d072020	0.03298962
198	0x3d367a82	0.044550426
199	0xbd3d0186	-0.04614403
200	0x3ca08e00	0.01959896
201	0x3b5a1a80	0.0033279955
202	0x3cf19248	0.029488698
203	0xbd34e86a	-0.04416696
204	0xbca8b744	-0.0205952
205	0x3d04366c	0.032278463
206	0xbc6e87a0	-0.014558703
207	0xbc9f0230	-0.019410223
208	0x3b369640	0.0027860552
209	0x3d20b2de	0.03923308
210	0xbca59d44	-0.020216592
211	0xbd4b4138	-0.049622744
212	0x3c45fc00	0.012084007
213	0x3d3e4cc6	0.046459936
214	0x3b638b80	0.00347206
215	0xbd1f5936	-0.038903438
216	0xbd7edeb0	-0.06222409
217	0x3bb29330	0.005449675
218	0xbcb693fc	-0.022287361
219	0xba578d00	-0.000822261
220	0x3cc27e14	0.02374176
221	0x3b95bbb0	0.0045694932
222	0xbcad7b2c	-0.021176897
223	0x3c16c848	0.009203024
224	0x3d3358ca	0.043785848
225	0x3d6adcec	0.057339594
226	0x3d69a8b4	0.057045653
227	0xbd0a8a56	-0.033823334
228	0xbceced3c	-0.028921716
229	0xbd037d1a	-0.032101728
230	0x3d4e6e9e	0.05039846
231	0x3d6f5264	0.058428183
232	0xbd22121e	-0.03956806
233	0xbd4f3eee	-0.050597124
234	0xbc9efd20	-0.019407809
235	0x3d326236	0.043550692
236	0x3c11b350	0.008892849
237	0x3d2ac346	0.041690134
238	0x3d0c3088	0.03422597
239	0xbd23af06	-0.039961837
240	0xbc19d968	-0.009390213
241	0x3c820d04	0.015875347
242	0x3d180954	0.03711827
243	0x3d61e1ec	0.055147097
244	0x3d338aa6	0.043833397
245	0x3d048094	0.032349184
246	0x3cc4c000	0.024017334
247	0x3ca5fd00	0.020262241
248	0xbc984b6c	-0.018590651
249	0xbc26e430	-0.01018624
250	0x3d25715c	0.04039131
251	0x3cb28ddc	0.02179616
252	0x3d71407a	0.05889938
253	0x3d6f4f52	0.058425255
254	0x3cadfbf0	0.021238297
255	0x3c407bc0	0.011748254

network.4.weight f4 [256, 256]
0	0xbd06e800	-0.032936096
1	0xbcf7d480	-0.030252695
2	0xbc081020	-0.008304626
3	0xbc055620	-0.00813821
4	0xbc801334	-0.015634157
5	0x3c9b5dc8	0.018965617
6	0xbce41060	-0.02783984
7	0x3d513b4e	0.051081948
8	0x3cf137ac	0.029445492
9	0x3ca13e14	0.019682921
10	0x3ccc8670	0.024966449
11	0xbc20a228	-0.009804286
12	0x3c57e658	0.013177477
13	0x3cdbd708	0.026835933
14	0x3cb191c0	0.021675944
15	0x3d6d2c22	0.057903416
16	0x3c45d480	0.01207459
17	0xbc36c930	-0.011156365
18	0x3cb73f1c	0.02236896
19	0x3d49bb62	0.049250968
20	0x3ab48e00	0.001377523
21	0xbca0e36c	-0.019639693
22	0xbc38eb40	-0.011286557
23	0x3c6973e8	0.014248826
24	0x3d5aabda	0.053386547
25	0x3c81f6d0	0.01586476
26	0xbd05d2a8	-0.0326716
27	0x3d3c2dc2	0.045942076
28	0x3d2642dc	0.040591106
29	0x3c39ef10	0.011348501
30	0xbd6efb6c	-0.058345243
31	0x3d450ee0	0.04810989
32	0xbc3f0668	-0.011659242
33	0xbd63c058	-0.055603355
34	0xbc9001cc	-0.017578982
35	0x3d62b3ac	0.05534713
36	0xbd44591c	-0.047936544
37	0x3d2f7784	0.04283859
38	0xbccb90ec	-0.024849378
39	0xbd06f10c	-0.032944724
40	0x3d279fc6	0.040923856
41	0x3c523938	0.012831025
42	0xbab2d3c0	-0.0013643429
43	0x3bc041a0	0.005867198
44	0xbd3a3f2e	-0.04547041
45	0xbc1660b8	-0.009178333
46	0xbd3e69a4	-0.046487466
47	0xbd2990b2	-0.041397758
48	0xbd51c430	-0.05121249
49	0xbcfc77e8	-0.030818895
50	0xbc237b68	-0.009978153
51	0x3d76f00e	0.060287528
52	0xbb29bb60	-0.0025899038
53	0xbbfa3390	-0.0076355413
54	0xbd28a4d8	-0.041172832
55	0x3d71b22c	0.05900781
56	0xbc397958	-0.0113204345
57	0xbd6ca248	-0.05777195
58	0xbd141ffc	-0.036163315
59	0xbd3a39fc	-0.045465454
60	0x3ca375a4	0.019953556
61	0x3d6054f4	0.054768518
62	0x3d0596ce	0.03261452
63	0xbd2ae75e	-0.041724555
64	0x3d46d93c	0.048547015
65	0xbd6294ee	-0.05531781
66	0xbc147660	-0.009061426
67	0xbd670eca	-0.05641059
68	0xbc98bc64	-0.01864452
69	0xbcf14ed8	-0.029456541
70	0x3cee2f84	0.029075392
71	0xbcbb55fc	-0.022868149
72	0x3d3339ec	0.04375641
73	0xbc31bc38	-0.0108480975
74	0x3d3169dc	0.043313846
75	0x3c8ad548	0.016947404
76	0xbd02db8a	-0.03194765
77	0x3b3a78e0	0.0028453395
78	0xbd680cf0	-0.056652963
79	0x3d3f57c4	0.04671456
80	0x3c0056b8	0.007833175
81	0xbd025ff0	-0.031829774
82	0xbb80a9e0	-0.0039265007
83	0x3c131050	0.008976057
84	0x3d00547c	0.03133057
85	0xbd027828	-0.03185287
86	0xbb899800	-0.004199028
87	0x3c247368	0.010037281
88	0xbd7cc43a	-0.061710574
89	0xbc62ff00	-0.013854742
90	0x3ca22c5c	0.019796543
91	0x3b6d9aa0	0.0036255494
92	0x3d025648	0.031820565
93	0x3c7b1790	0.015325442
94	0x3d00c3b6	0.031436644
95	0xbd136282	-0.035982616
96	0xbd6917e8	-0.056907564
97	0x3c68d498	0.014210843
98	0xbceca0e8	-0.02888532
99	0x3c884ec4	0.01663912
100	0x3d7567de	0.05991351
101	0xbd2388a2	-0.039925225
102	0x3d7ebb7a	0.06219051
103	0xb9371800	-0.0001746118
104	0xbc009bc8	-0.007849641
105	0xbc7c0ed8	-0.015384398
106	0x3d243ba6	0.040095948
107	0x3cc8505c	0.02445238
108	0x3d704e6c	0.05866854
109	0xbb486dc0	-0.0030582994
110	0xbcd711a8	-0.026253536
111	0xbd2bdeaa	-0.041960396
112	0xbd338c50	-0.043834984
113	0xba718700	-0.0009213537
114	0x3d706004	0.058685318
115	0xbd29cfac	-0.041457817
116	0x3cf863b0	0.030320972
117	0xbd03684e	-0.032081895
118	0x3c9b2788	0.018939748
119	0x3a6aa480	0.0008950904
120	0x3ce23794	0.027614392
121	0x3ac6c780	0.0015165657
122	0x3cd96c04	0.026540764
123	0xbd07bc24	-0.03313841
124	0x3c339600	0.010961056
125	0x3d52ddfa	0.051481225
126	0xbd5a15c0	-0.0532434
127	0x3c223f28	0.009902753
128	0xbcfb013c	-0.030640237
129	0x3d6d8440	0.05798745
130	0x3d614102	0.054993637
131	0x3bcad2a0	0.0061896592
132	0x3c72d650	0.014821604
133	0xbd671ada	-0.056422092
134	0x3b0f07e0	0.0021824762
135	0xbb7fe320	-0.003904529
136	0x3d47d2e2	0.048785098
137	0xbbc63310	-0.0060485676
138	0xbcb497b0	-0.022044986
139	0x3d076934	0.033059314
140	0x3c91e6b0	0.017810196
141	0x3d13254c	0.03592424
142	0x3d1ef5a4	0.03880848
143	0xbc21b560	-0.009869903
144	0x3d11f542	0.035634287
145	0xbb044ea0	-0.0020188466
146	0xbd4f9b76	-0.05068537
147	0x3c0837d0	0.008314088
148	0x3cdeef28	0.027213648
149	0x3d014c5e	0.03156697
150	0x3cbaf738	0.022822961
151	0x3d2cfb52	0.042231865
152	0x3d22ca60	0.03974378
153	0xbcc9eff8	-0.024650559
154	0xbd467258	-0.04844889
155	0xbcb2da64	-0.021832652
156	0x3c9e7790	0.019344121
157	0xbc5d0420	-0.013489753
158	0xbc066c48	-0.008204527
159	0x3c7a8da0	0.015292555
160	0xbd29e64e	-0.0414794
161	0x3cf2acac	0.029623352
162	0xbbcab9e0	-0.006186709
163	0x3c16f128	0.00921277
164	0xbc8d471c	-0.017245822
165	0xbcd96640	-0.026538014
166	0x3d3a2aba	0.045450903
167	0x3cfc80e8	0.030823186
168	0xbc246e80	-0.010036111
169	0xbd49d71c	-0.04927741
170	0x3bd59ee0	0.0065191835
171	0x3d6c2072	0.05764813
172	0x3d4165ee	0.04721635
173	0x3ce4a0c4	0.02790869
174	0xbb336380	-0.002737254
175	0xbcad982c	-0.021190725
176	0x3cc5b000	0.024131775
177	0x3cfffaf8	0.0312476
178	0xbd27129a	-0.040789224
179	0xbc367b48	-0.011137791
180	0xbd1cd246	-0.03828647
181	0xbd251224	-0.040300503
182	0xbd53cc8e	-0.05170875
183	0x3d04eeb4	0.032454208
184	0x3c410640	0.011781275
185	0x3cd41580	0.025889158
186	0x3b616fc0	0.0034398884
187	0x3ca9f4c0	0.020746589
188	0x3d3d8658	0.0462707
189	0xbd5e8bc0	-0.054332495
190	0xbbe27740	-0.0069111884
191	0xbd3c1e1e	-0.04592716
192	0x3d215af8	0.039393395
193	0x3d063dbc	0.03277372
194	0x3cfc86ec	0.030826055
195	0x3d3890d4	0.045059994
196	0x3d5bc246	0.05365207
197	0xbca09880	-0.019603968
198	0xbd78e876	-0.060768567
199	0xbd47f4c2	-0.048817404
200	0x3d0d21ce	0.034456067
201	0xbac0b740	-0.001470305
202	0xbd14b9d2	-0.036310025
203	0xbd2ae9d0	-0.041726887
204	0x3cd105b8	0.025515422
205	0xbbed55f0	-0.0072429106
206	0x39cb4400	0.0003876984
207	0x3d0de110	0.034638464
208	0xba9c1a00	-0.0011909604
209	0x3d54f4fe	0.051991455
210	0x3d74da3e	0.059778444
211	0xbd0dcfe6	-0.034622096
212	0x3d179948	0.037011415
213	0xbd5ba7b6	-0.05362674
214	0xbb0b84a0	-0.0021288767
215	0xbd153c9c	-0.036434755
216	0x3d403fd2	0.046935864
217	0xbd4731c2	-0.048631437
218	0xbd693c50	-0.056942284
219	0xbd4bbdd6	-0.04974159
220	0xbc48d678	-0.012258165
221	0xbd195760	-0.037436843
222	0xbbc68a10	-0.006058939
223	0xbab5b880	-0.0013864189
224	0x3ce6bb44	0.028165467
225	0x3c970738	0.01843606
226	0xbd15a530	-0.03653449
227	0xbbb92110	-0.0056496933
228	0x3d2713f2	0.040790506
229	0x3c561958	0.013067566
230	0xbc602c98	-0.013682507
231	0xbc5e06e8	-0.013551451
232	0x3d46c492	0.048527308
233	0x3c0be438	0.008538298
234	0xbd2d3b6c	-0.042292997
235	0x3cc0f194	0.023552693
236	0x3cd2a0b0	0.025711387
237	0x3d7bf98c	0.061517283
238	0xbc3be3b8	-0.011467867
239	0x3d72617c	0.059175
240	0xbd4feda0	-0.050763726
241	0xbd3fedf2	-0.04685778
242	0xbcb3e790	-0.021961004
243	0xbc0e6850	-0.008691862
244	0xbd743518	-0.059620947
245	0xbce25ac0	-0.027631164
246	0x3caa35d4	0.02077762
247	0x3c386610	0.011254802
248	0xbd7f2818	-0.062294096
249	0x3b5b1d40	0.0033434182
250	0x3d6a25b6	0.05716487
251	0x3d12f5dc	0.035879
252	0xbd23723c	-0.039903864
253	0x3d6fae18	0.058515638
254	0x3cb3d514	0.02195219
255	0xbd2a7236	-0.041612826

network.4.bias f4 [256]
0	0xbcd57e8c	-0.026061319
1	0x3d5af138	0.0534527
2	0x3d5244dc	0.0513352
3	0x3d0721ae	0.032991104
4	0xbc1e54d8	-0.009663783
5	0xbd5ac52a	-0.053410687
6	0xbd0d1760	-0.03444612
7	0x3d23c600	0.03998375
8	0x3d49dbd0	0.049281895
9	0x3d244b6a	0.040110983
10	0x3bf81160	0.0075704306
11	0x3cee1634	0.029063322
12	0x3d724d08	0.059155494
13	0xbd63dd5e	-0.055631034
14	0x3b74dca0	0.0037362948
15	0xbc824f60	-0.01590699
16	0x3d4992b2	0.049212165
17	0xbd76e356	-0.0602754
18	0x3d778930	0.060433567
19	0x3c58f7a8	0.01324264
20	0xbc84d3e8	-0.016214326
21	0xbd763b72	-0.060115285
22	0xbc5a5360	-0.013325542
23	0x3afcab80	0.0019277185
24	0x3d1c1c28	0.03811279
25	0xbcde2ed4	-0.027121939
26	0xbc4823f0	-0.012215599
27	0xbcba9614	-0.022776641
28	0xbd39c1f4	-0.045350984
29	0x3cc8351c	0.024439387
30	0xbcf9b980	-0.030483961
31	0xbd22790a	-0.039666213
32	0xbd73124c	-0.05934362
33	0xbc84e9b0	-0.016224712
34	0x3ce0c188	0.027436033
35	0xbc93d9bc	-0.01804816
36	0x3d2ffdc2	0.04296661
37	0xbcb2260c	-0.021746658
38	0x3c043678	0.008069627
39	0xbcbf0580	-0.023318052
40	0x3c6620d0	0.014045909
41	0x3d073f5e	0.033019416
42	0x3c4508d0	0.012026027
43	0x3cbff80c	0.023433708
44	0xbd3d7984	-0.046258464
45	0x3ce4b254	0.027917065
46	0xbd6af55e	-0.057362907
47	0xbd65f9aa	-0.0561463
48	0xbd53f41c	-0.051746473
49	0x3d5a3614	0.05327423
50	0x3d2631dc	0.040574893
51	0x3ab65600	0.0013911128
52	0x3ce567cc	0.028003596
53	0x3c16a340	0.009194195
54	0x3cb92848	0.022602215
55	0x3c9d4724	0.019198962
56	0x3ceadb14	0.028668918
57	0xbd15494a	-0.036446847
58	0xb9873c00	-0.0002579391
59	0xbcab5d10	-0.0209184
60	0x3d1886ee	0.037238054
61	0xbc04dd88	-0.008109458
62	0xbd1098fc	-0.035302147
63	0x3d7a89c6	0.061166547
64	0xbcc3cc90	-0.023901254
65	0x3d144416	0.036197744
66	0xbd15e528	-0.036595494
67	0xbc211290	-0.009831086
68	0xbd647b88	-0.05578187
69	0x3d44c898	0.048042864
70	0x3cef9268	0.029244617
71	0xbbc4cee0	-0.0060061067
72	0x3d3cd0fe	0.046097748
73	0x3bbdb850	0.005789794
74	0x3cab5788	0.020915762
75	0x3cf8066c	0.0302765
76	0x3d731e5c	0.059355125
77	0x3cd9bf08	0.026580349
78	0xbbaef270	-0.0053389594
79	0x3d0d6964	0.034524336
80	0xbd5cabee	-0.053874902
81	0xbd0179de	-0.031610362
82	0xbd02ef98	-0.031966776
83	0x3d5e9086	0.054337047
84	0x3b9ffbb0	0.0048822984
85	0x3cad8224	0.02118022
86	0x3d62ed2c	0.055401966
87	0x3cc54888	0.024082437
88	0x3cb9aad8	0.022664472
89	0xbc480b60	-0.012209743
90	0xbc4970b0	-0.012294933
91	0xbd73dc5e	-0.05953633
92	0xbd4b0222	-0.04956258
93	0xbd009cd8	-0.031399578
94	0x3bb042a0	0.005379036
95	0xbd6b50f6	-0.057450257
96	0xbbfd44d0	-0.0077291504
97	0xbce96d74	-0.028494574
98	0xbc48b460	-0.012250036
99	0x3d5dfb24	0.054194584
100	0x3d169dba	0.036771514
101	0x3c3955d8	0.011311971
102	0x3ba97830	0.005171798
103	0x3c8e1cac	0.017347656
104	0x3d433f60	0.04766786
105	0xbc831ad0	-0.016003996
106	0x3d7ef30a	0.0622435
107	0xbc475ea0	-0.012168556
108	0x3ce07a90	0.027402192
109	0xbd0667cc	-0.032813832
110	0x3d5ae466	0.053440474
111	0xbc355908	-0.01106859
112	0xbc196150	-0.00936158
113	0x3ce37f28	0.027770594
114	0x3ce31080	0.027717829
115	0x3d65d2d2	0.056109257
116	0xbc2b41e0	-0.010452718
117	0xbd772c34	-0.06034489
118	0x3ca8ae28	0.020590857
119	0x3d4476ac	0.047964737
120	0xbd584fa6	-0.052810334
121	0xbd1379a0	-0.036004663
122	0x3cfef76c	0.03112384
123	0xbd70386c	-0.058647558
124	0x3d60ed6e	0.05491393
125	0x3c9c7680	0.019099474
126	0x3d5b5c44	0.05355479
127	0xbcaf37f8	-0.021388993
128	0xbc5ff600	-0.013669491
129	0xbb3fb140	-0.0029249936
130	0xbc408928	-0.011751451
131	0xbc96f3a8	-0.018426731
132	0x3c30b490	0.010785237
133	0x3d6f12b0	0.05836743
134	0x3cc6e128	0.024277285
135	0x3c839388	0.01606156
136	0x3d2ab66a	0.04167787
137	0xbc754a90	-0.01497139
138	0x3d4ced26	0.05003085
139	0xbcdb3b80	-0.02676177
140	0xbd58b8ba	-0.052910544
141	0x3cefe09c	0.029281907
142	0x3bbf7180	0.0058423877
143	0x3cb0316c	0.021507941
144	0xbc7d8998	-0.015474699
145	0x3c81fa9c	0.01586657
146	0x3c487b30	0.012236401
147	0xbd19056c	-0.037358686
148	0x3bf75730	0.0075482354
149	0x3d2e5874	0.042564824
150	0xbc0a8270	-0.00845395
151	0x3d51babe	0.05120348
152	0x3d4424aa	0.047886528
153	0xbd17b18c	-0.037034556
154	0xbd4d3b42	-0.05010534
155	0xbd7e18e2	-0.06203545
156	0xbd3c3866	-0.045952223
157	0xbc2bce60	-0.010486215
158	0xbd14ebcc	-0.036357686
159	0x3d64983c	0.055809245
160	0xbcaad460	-0.020853221
161	0x3d65414e	0.055970483
162	0xbcb36a40	-0.02190125
163	0x3d04afee	0.032394342
164	0x3d5a57b8	0.05330631
165	0xbc315d40	-0.010825455
166	0xbd026988	-0.031838924
167	0x3cb4006c	0.021972857
168	0x3c8caca4	0.017172165
169	0x3c37bd28	0.011214532
170	0x3cca1f44	0.024673112
171	0xbc5a5c80	-0.013327718
172	0x3d39a488	0.045322925
173	0x3d2aad02	0.0416689
174	0x3be240a0	0.0069046766
175	0xbd6ca474	-0.057774022
176	0xbd4e41f4	-0.050355867
177	0x3d2eda48	0.042688638
178	0x3d0cc280	0.034365177
179	0xbd0e9852	-0.034813233
180	0xbc195730	-0.009359166
181	0x3c9a65bc	0.018847339
182	0xbd0dccb8	-0.034619063
183	0xbcbce178	-0.02305673
184	0x3cc2a728	0.023761347
185	0xbd20cfb6	-0.03926059
186	0xbca7dd54	-0.02049128
187	0x3d0ca5c4	0.034337774
188	0xbc044ed8	-0.008075438
189	0xbb7f3340	-0.003894046
190	0x3d266ab4	0.040629104
191	0x3bbd1300	0.0057700872
192	0x3d2dfb20	0.04247582
193	0xbc9558e0	-0.018230855
194	0x3c579bc8	0.0131597
195	0xbd62b3b8	-0.055347174
196	0xbb977e20	-0.0046231896
197	0x3d68aab4	0.05680342
198	0x3d7acfaa	0.0612332
199	0xbc584e28	-0.013202228
200	0xbc7fda98	-0.015616082
201	0x3d626aa6	0.05527749
202	0x3beacba0	0.0071653873
203	0xbb85cb40	-0.004083067
204	0xbb6912c0	-0.0035564154
205	0xbd526764	-0.051368132
206	0x3d3b7ebc	0.04577516
207	0x3d4d90fa	0.05018709
208	0xbc629290	-0.013828889
209	0xbd25799c	-0.04039918
210	0x3cd98390	0.026551992
211	0x3d63fd2e	0.055661373
212	0x3d0e3578	0.03471896
213	0x3b6bb2a0	0.0035964623
214	0x3d30d4aa	0.043171562
215	0x3d68eb30	0.056864917
216	0x3c4eb000	0.012615204
217	0x3cf29888	0.029613748
218	0xbd443c02	-0.04790879
219	0xbc4fe900	-0.012689829
220	0xbd70b2e8	-0.05876437
221	0x3d05ac28	0.032634884
222	0x392e9e00	0.00016652793
223	0xbd18bbd2	-0.037288494
224	0xbd760ee0	-0.06007278
225	0x3d60a3fe	0.054843895
226	0x3cc0f554	0.023554482
227	0x3d688b2c	0.05677335
228	0xbb1d7ae0	-0.0024029538
229	0x3d4090b0	0.047012985
230	0x3d4f2c6e	0.05057948
231	0xbbaa1420	-0.0051903874
232	0xbd2b048c	-0.041752383
233	0x3a0a6080	0.0005278662
234	0x3d0d6a38	0.034525126
235	0xbd57b7f6	-0.052665673
236	0x3c9367ac	0.01799377
237	0x3d251032	0.04029865
238	0xbc07e1e0	-0.008293599
239	0xbc216058	-0.00984963
240	0xbcdd3be0	-0.02700609
241	0xbc54b8e0	-0.012983531
242	0x3cc8ba8c	0.024503015
243	0xbd450cdc	-0.048107967
244	0xbc9d26d8	-0.019183561
245	0xbb9c5a00	-0.004771471
246	0xbc2b99a8	-0.010473646
247	0xbbd7d3b0	-0.0065865144
248	0x3d03274e	0.032019906
249	0xbd2123f6	-0.039340936
250	0xbc48e048	-0.012260504
251	0x3c8036f8	0.015651211
252	0x3d252b2a	0.040324368
253	0x3d051740	0.032492876
254	0xbd430de8	-0.047620684
255	0x3d4f24ae	0.05057209

network.6.weight f4 [7, 256]
0	0x3c400fc0	0.011722505
1	0x3cebf2e4	0.028802343
2	0x3d05965a	0.03261409
3	0x3c3b13a8	0.011418261
4	0xbcc9cbd4	-0.024633326
5	0x3d0b8124	0.034058705
6	0x3be8ec60	0.007108256
7	0xbcec42a8	-0.028840378
8	0xbc507838	-0.012723975
9	0x3c42a4c0	0.0118801
10	0xbb9f8680	-0.0048683286
11	0xbd7d67f2	-0.061866708
12	0x3bbbc310	0.0057300404
13	0xbd0100b0	-0.031494796
14	0x3d6c0814	0.05762489
15	0x3d72b4a6	0.05925431
16	0x3d3b5740	0.045737505
17	0xbd7b202e	-0.061309986
18	0xbd46ded8	-0.048552364
19	0xbd5814aa	-0.05275408
20	0x3cac0774	0.020999648
21	0xbd7b541e	-0.061359517
22	0x3d1e6d06	0.03867819
23	0xbd51b8b4	-0.051201537
24	0x3c3af100	0.011409998
25	0xbc914538	-0.017733201
26	0xbcfdfe0c	-0.031004928
27	0xbd1448ba	-0.03620217
28	0xbb786f80	-0.0037908256
29	0xbcb182f8	-0.021668896
30	0xbd5a733e	-0.05333256
31	0xbb8348b0	-0.0040064678
32	0xbc9d68b4	-0.019214965
33	0xbd4a16fc	-0.049338326
34	0x3c3f4ba0	0.011675745
35	0xbbe65980	-0.007029712
36	0x3d2bc3d4	0.041934803
37	0xbbac3950	-0.0052558556
38	0x3d216500	0.03940296
39	0x3ac1b9c0	0.0014780089
40	0x3cf71218	0.030159995
41	0xbcab548c	-0.020914339
42	0xbd36c03a	-0.044616915
43	0xbb29fde0	-0.0025938675
44	0x3c11f730	0.008909032
45	0x3d47b19e	0.048753373
46	0x3d10c466	0.03534355
47	0xbaee0ec0	-0.0018162355
48	0x3d383972	0.04497666
49	0x3bb5dba0	0.005549863
50	0x3d7e3906	0.0620661
51	0xbc792ae8	-0.015207984
52	0x3d395cae	0.0452544
53	0x3c86bc0c	0.01644709
54	0x3bf48d60	0.0074631423
55	0xbca051b8	-0.019570217
56	0x3bf0d050	0.0073490515
57	0x3d425cc4	0.04745175
58	0xbb011840	-0.0019698292
59	0xbcc4cdf4	-0.024023987
60	0x3d3ea452	0.046543427
61	0x3ca19828	0.019725874
62	0xbcb0118c	-0.021492742
63	0x3d51b224	0.05119528
64	0x3cd7c788	0.026340261
65	0xbd473e0c	-0.048643157
66	0xbd4e99aa	-0.050439514
67	0x3d0529ea	0.032510675
68	0x3d4d2808	0.050087005
69	0x3cfa1708	0.03052856
70	0xbd38a6d0	-0.04508096
71	0x3b3f3ee0	0.0029181764
72	0xbd73d8e0	-0.059533
73	0xbcaa2bec	-0.020772897
74	0x3ceb51bc	0.028725497
75	0x3d473ebe	0.04864382
76	0xbd287cc8	-0.041134626
77	0xbcbe0b40	-0.023198724
78	0x3bd648a0	0.0065394193
79	0x3d43a658	0.04776606
80	0x3d303f8e	0.04302936
81	0xbbc70b50	-0.0060743466
82	0x3baa3a20	0.0051949173
83	0xbd2f9626	-0.042867802
84	0x3c7cf620	0.01543954
85	0x3d2b038a	0.041751422
86	0x3d589484	0.05287601
87	0xbd211f9c	-0.039336786
88	0x3d556c42	0.052105196
89	0x3c9b9614	0.018992461
90	0xbcaa2cb8	-0.020773277
91	0x3d059340	0.03261113
92	0x3cc461fc	0.023972504
93	0x3c955170	0.018227309
94	0xbd1e38d0	-0.0386284
95	0xbd2eac98	-0.042645067
96	0xbd1b4e64	-0.037916556
97	0xbd65690a	-0.056008376
98	0xbb1ca8e0	-0.0023904368
99	0x3d540394	0.051761225
100	0xbd6b75c8	-0.05748537
101	0x3d29249c	0.04129468
102	0x3d3a1fc4	0.04544045
103	0xbd0a0af4	-0.033701852
104	0xbbc8c3f0	-0.006126873
105	0x3cdface0	0.027304113
106	0x3d273a74	0.04082723
107	0x3d0bcd20	0.03413117
108	0xbc7bbc28	-0.015364684
109	0x3d1e013c	0.038575396
110	0xbd6df804	-0.058097854
111	0xbce8841c	-0.028383307
112	0xbc441780	-0.011968493
113	0x3d486d60	0.048932433
114	0x3c1575c8	0.0091223195
115	0x3cbf4c28	0.023351744
116	0x3c36c2b8	0.011154823
117	0x3d122868	0.035683066
118	0x3cb09d38	0.021559343
119	0x3c2489d8	0.01004263
120	0x3d389136	0.04506036
121	0x3c4da4b8	0.012551479
122	0x3cc8f97c	0.024533026
123	0x3d7e0f3a	0.06202624
124	0xbbc0c5f0	-0.005882971
125	0x3d65771e	0.056021802
126	0xbd4612ea	-0.04835788
127	0x3d289696	0.041159235
128	0xbc991b50	-0.018689781
129	0xbd41bf8c	-0.047301814
130	0x3d350376	0.044192754
131	0x3b28daa0	0.0025765076
132	0xbd467ca6	-0.048458718
133	0xbc643cf0	-0.013930544
134	0x3d70250c	0.05862908
135	0xbd6e5f8e	-0.058196597
136	0xbce6f4cc	-0.0281929
137	0x3d61a41a	0.05508814
138	0xbd71d224	-0.059038296
139	0xbaef9880	-0.0018279701
140	0xbd2c707e	-0.04209947
141	0xbd714734	-0.058905795
142	0x3cbc4b68	0.022985175
143	0xbc4aff80	-0.0123900175
144	0xbd4c7e1a	-0.049924947
145	0xbd0cc2ec	-0.03436558
146	0xbcecb404	-0.028894432
147	0x3ad1c700	0.0016004741
148	0x3d1a9a4c	0.037744805
149	0x3d5ae616	0.053442083
150	0x3cf19fe0	0.02949518
151	0xbd6a6c8c	-0.057232425
152	0xbd5d44ce	-0.054020695
153	0x3d089c36	0.0333521
154	0xbd52a7cc	-0.051429555
155	0x3d6be1ae	0.05758827
156	0xbca74994	-0.020420827
157	0xbd2b31fe	-0.041795723
158	0xbcbda728	-0.023150995
159	0xbd65997a	-0.05605457
160	0xbb66cc60	-0.0035217032
161	0xbd06a660	-0.03287351
162	0xbd7f138e	-0.06227451
163	0xbd785172	-0.060624547
164	0x3b1eb140	0.0024214536
165	0xbc6cbe40	-0.014449656
166	0xbd4a31f6	-0.049364053
167	0xbc2579c0	-0.010099828
168	0x3d142c7e	0.036175244
169	0xbd68c1f8	-0.056825608
170	0xbc037b80	-0.00802505
171	0x3cc24000	0.023712158
172	0xbcf3a130	-0.029739946
173	0x3ccd103c	0.025032155
174	0x3a311380	0.000675492
175	0x3d065818	0.032798856
176	0xbc4eb140	-0.012615502
177	0xbd701352	-0.058612175
178	0x3ccee4b0	0.025255531
179	0x3ce8ebc0	0.028432727
180	0x3c9602fc	0.01831197
181	0xbd276686	-0.04086926
182	0x3c051e58	0.00812491
183	0x3d2d442c	0.042301342
184	0xbc449e80	-0.01200068
185	0x3d443c78	0.04790923
186	0x3c9dfe44	0.019286282
187	0xbc101b70	-0.008795604
188	0xbd085edc	-0.03329359
189	0xbd462fae	-0.048385315
190	0x3d73e2cc	0.059542462
191	0xbc4fc288	-0.012680657
192	0xbcbce2e0	-0.023057401
193	0x3c524c60	0.012835592
194	0xbd7cd904	-0.0617304
195	0xbd6305b4	-0.05542536
196	0x3d1af638	0.03783247
197	0x3cb667a8	0.022266224
198	0xbd257728	-0.04039684
199	0xbd078c02	-0.033092506
200	0xbd35d374	-0.04439111
201	0xbc7f5018	-0.015583061
202	0x3cf6d3b0	0.030130237
203	0x3c880c9c	0.016607575
204	0x3ce0cf60	0.027442634
205	0x3ca113cc	0.01966276
206	0xbcd03e00	-0.025420189
207	0xbd4949b0	-0.04914254
208	0xbd498856	-0.049202286
209	0xbcda3734	-0.026637651
210	0x3d0e5d6e	0.03475707
211	0xbc0f8be0	-0.008761376
212	0x3c05ee28	0.008174457
213	0xbb9a3d10	-0.0047069862
214	0xbd6efea0	-0.058348298
215	0xbd10e81e	-0.035377614
216	0x3ce77c24	0.028257437
217	0xbca53b14	-0.020169772
218	0x3cd24f58	0.0256726
219	0xbd43b77a	-0.0477824
220	0xbd634ab0	-0.05549115
221	0x3c9732ac	0.01845678
222	0xbbcb2250	-0.0061991587
223	0x3d3e5bb4	0.046474174
224	0xbd6c7d0c	-0.05773644
225	0xbd4ad88a	-0.049522914
226	0x3d199916	0.03749951
227	0x3cf2a924	0.029621668
228	0x3b2485c0	0.0025104135
229	0x3d7d81c2	0.061891325
230	0x3d26273e	0.040564768
231	0x3cc724d0	0.024309546
232	0x3d038d02	0.032116897
233	0xbc1ef1d0	-0.009701207
234	0xbce69d8c	-0.028151296
235	0x3cec3db0	0.028838009
236	0xbcc5aab0	-0.024129242
237	0x3d01a594	0.03165205
238	0x3d0138ca	0.0315483
239	0xbba23ca0	-0.0049510747
240	0x3d437892	0.047722407
241	0xbd6620fc	-0.0561838
242	0x3d0a3164	0.03373851
243	0xbca78af0	-0.020451993
244	0xbd5fcd7c	-0.054639325
245	0xbd6a460e	-0.057195716
246	0x3cdc6de8	0.026907876
247	0xbd0fa864	-0.0350727
248	0xbceb4cb8	-0.028723106
249	0x3d08d03e	0.03340172
250	0xbcd3df50	-0.02586332
251	0xbd70a314	-0.058749273
252	0xbc87e0a4	-0.01658661
253	0xbd7d53aa	-0.061847366
254	0xbb9caf00	-0.004781604
255	0xbc84e2a8	-0.01622136

network.6.bias f4 [7]
0	0x3939b400	0.0001771003
1	0x3cf93048	0.03041853
2	0x3bc229a0	0.0059253722
3	0xbd28dea8	-0.041227967
4	0xbc9c5334	-0.019082643
5	0x3d48e552	0.049046822
6	0xbc3579a8	-0.011076368
