checkpoints/checkpoint_episode_5.pth (torch, 670659 bytes, 8 tensors)

network.0.weight f4 [256, 128]
0.048223432 -0.029827239 0.05669316 0.06436242 -0.087706886 -0.014295273 -0.05672407 0.0780016
-0.006948414 0.046160776 0.08065645 0.084882066 -0.059913874 -0.065241076 -0.037365057 -0.005406092
-0.03462354 -0.03436925 0.043365926 -0.07869478 0.0412454 0.08687046 0.058497317 0.04410066
-0.041718826 0.0472624 0.045209598 0.022540988 -0.087545104 -0.06925252 -0.06630067 0.0003693539
0.020175075 -0.011434187 0.021003354 -0.0592255 -0.028681172 0.04410772 0.07507401 0.07860877
0.053908486 0.07288656 0.03357734 -0.05252884 -0.062175516 0.065555535 0.027302032 -0.0029401325
-0.0003570154 0.041246675 -0.07432232 0.06472965 -0.08550194 -0.003278066 -0.079289526 -0.01195292
0.03960968 0.003603155 -0.08216899 -0.056279592 -0.024987759 0.07902757 -0.05369657 -0.062257428
0.032180183 0.026047194 0.0615641 0.0130689265 0.01161998 -0.07764421 0.01914214 0.079052374
-0.056332804 -0.032106835 0.038817648 -0.0105334455 0.034219246 -0.044256244 -0.012737462 0.061490323
-0.04935239 -0.03971392 0.0868232 -0.011941825 -0.080110386 -0.06174217 -0.007419594 -0.04501688
-0.077673756 0.052793056 0.0649622 0.038876884 -0.021383826 -0.010830413 0.08148428 0.009697452
-0.04085319 0.04503437 0.078851305 -0.014325387 0.04577449 -0.07395881 0.072587915 0.039243467
0.0416257 -0.02032733 0.031339638 0.07083074 0.062819004 0.075054854 0.019394094 -0.0755007
0.07157851 0.06329513 -0.0647324 -0.077931315 -0.07965482 0.056974363 -0.02212384 0.064959176
-0.021625811 0.07933562 0.082470424 -0.05928894 -0.05197959 -0.078328766 0.028599681 0.0055406033
-0.06970422 0.026344487 -0.08772239 -0.002994228 -0.08211555 -0.04419924 0.050949544 0.050859172
0.0040162154 -0.07191836 -0.07594129 -0.02529088 -0.06686126 -0.06065496 -0.05411016 0.03126643
0.034827594 -0.010214763 0.07933819 0.018768402 0.0017893655 0.042396642 -0.041279275 0.03211849
-0.07426577 0.0035352882 -0.063558914 -0.05925987 0.04221796 0.06457205 0.0171976 0.020285636
0.046647057 0.04284417 0.008769937 -0.022465419 0.073675275 -0.0811278 -0.022378122 0.025180686
0.054942768 0.08066518 -0.029393116 -0.020621272 0.03269296 0.034674782 0.0069009983 0.079248086
0.06791916 -0.05950229 0.053342316 0.025197767 -0.033848535 -0.08769887 -0.0074845636 0.0767656
0.08183992 -0.02956026 0.0057546464 0.012085039 -0.026496027 0.08290417 -0.06040713 -0.0883695
0.0203252 -0.06556658 0.08558052 0.04786721 -0.06897888 -0.050889947 0.06369791 0.024011439
-0.03261556 0.058838937 0.00873329 0.013679655 0.009895332 -0.037605587 -0.0041795555 0.07623392
0.04178293 -0.087131284 -0.07045401 -0.052155197 -0.007796092 0.058606215 0.083131865 -0.0035768766
-0.033159263 0.06789288 0.009725364 -0.03406735 -0.07469835 -0.06617408 0.04319402 0.008974286
0.05584238 0.047499835 0.042552363 0.026003815 -0.049060542 0.0074013975 -0.008538719 0.07478092
0.021048367 -0.026219817 0.055395562 -0.018713538 -0.007176881 -0.03808798 -0.06636718 0.05952238
0.020033946 0.071435496 0.06620396 0.052487586 -0.06065727 0.008654286 -0.057858773 -0.027068919
0.07924559 -0.038149375 0.030775597 -0.008038531 0.019312961 -0.014677714 0.002852425 -0.01818256
00000000: ef85 453d 4158 f4bc 1637 683d 72d0 833d
00000010: ab9f b3bd b936 6abc 8057 68bd 4ebf 9f3d
00000020: 85af e3bb 1513 3d3d 352f a53d a6d6 ad3d
00000030: 4068 75bd 1d9d 85bd 1a0c 19bd 9625 b1bb
00000040: 6ad1 0dbd c5c6 0cbd 78a0 313d bb2a a1bd
00000050: f0f0 283d 24e9 b13d e29a 6f3d e5a2 343d
00000060: 5ce1 2abd 3896 413d b32d 393d e1a7 b83c
00000070: d94a b3bd 44d4 8dbd a5c8 87bd d7a5 c139
00000080: 3346 a53c 7556 3bbc 3a0f ac3c 7096 72bd
00000090: c7f4 eabc 4caa 343d 67c0 993d a3fd a03d
000000a0: 25cf 5c3d 8c45 953d 6588 093d 7b28 57bd
000000b0: c1ab 7ebd fb41 863d 83a8 df3c 3daf 40bb
000000c0: cc2d bbb9 46f2 283d 4d36 98bd fb90 843d
000000d0: a41b afbd d2d4 56bb 8c62 a2bd 2ed6 43bc
000000e0: c33d 223d e922 6c3b 3748 a8bd 6e85 66bd
000000f0: 21b3 ccbc 35d9 a13d eff0 5bbd a501 7fbd
00000100: 5ecf 033d ed60 d53c a32a 7c3d 0d1f 563c
00000110: bb61 3e3c ed03 9fbd facf 9c3c 36e6 a13d
00000120: 3abd 66bd 7582 03bd 41ff 1e3d 7994 2cbc
00000130: 7b29 0c3d 0946 35bd cab0 50bc 47dd 7b3d
00000140: bb25 4abd 10ab 22bd 5dd0 b13d a5a7 43bc
00000150: ea10 a4bd 5ce5 7cbd 1120 f3bb 9f63 38bd
00000160: 6b13 9fbd 883d 583d e70a 853d 5e3d 1f3d
00000170: 222d afbc 0b72 31bc 3be1 a63d 10e2 1e3c
00000180: ad55 27bd f675 383d cb7c a13d 07b5 6abc
00000190: 087e 3b3d b777 97bd f9a8 943d c2bd 203d
000001a0: b67f 2a3d 8085 a6bc fe5d 003d b50f 913d
000001b0: 40a7 803d 5cb6 993d 5de0 9e3c 1ca0 9abd
000001c0: c197 923d e1a0 813d 6c92 84bd 749a 9fbd
000001d0: 1122 a3bd f35d 693d 0e3d b5bc 5109 853d
000001e0: 9d28 b1bc b77a a23d 41e6 a83d f6d8 72bd
000001f0: 8de8 54bd d56a a0bd e149 ea3c f38d b53b
00000200: 16c1 8ebd 65d0 d73c cca7 b3bd cf3a 44bb
00000210: 332c a8bd 430a 35bd 78b0 503d b551 503d
00000220: 759a 833b ef49 93bd 1b87 9bbd d22e cfbc
00000230: 8eee 88bd 5671 78bd 9da2 5dbd 3a11 003d
00000240: 61a7 0e3d d25b 27bc 107c a23d 31c0 993c
00000250: 2589 ea3a 1aa8 2d3d 7514 29bd ae8e 033d
00000260: a718 98bd 4bb0 673b 2d2b 82bd 7aba 72bd
00000270: bdec 2c3d 5a3e 843d fbe1 8c3c 102e a63c
00000280: fc10 3f3d 5e7d 2f3d c8af 0f3c 6609 b8bc
00000290: 10e3 963d 5526 a6bd 5352 b7bc ba47 ce3c
000002a0: ab0b 613d c933 a53d d5c9 f0bc f1ed a8bc
000002b0: 0ee9 053d 2507 0e3d c521 e23b d24c a23d
000002c0: 3319 8b3d acb8 73bd 797d 5a3d 8c6b ce3c
000002d0: c3a4 0abd 779b b3bd 1241 f5bb 4837 9d3d
000002e0: b09b a73d 5c28 f2bc 7991 bc3b 5400 463c
000002f0: 320e d9bc a9c9 a93d 776d 77bd 12fb b4bd
00000300: 0981 a63c c547 86bd d744 af3d 6810 443d
00000310: cd44 8dbd fa71 50bd 0d74 823d a3b3 c43c
00000320: e597 05bd 1901 713d 1316 0f3c a220 603c
00000330: 0820 223c 5108 1abd a7f4 88bb 8820 9c3d
00000340: 9424 2b3d e371 b2bd 314a 90bd b0a0 55bd
00000350: 5c76 ffbb 120d 703d 0a41 aa3d 086a 6abb
00000360: 02d2 07bd 6c0b 8b3d 2257 1f3c 358a 0bbd
00000370: 73fb 98bd 4786 87bd 36ec 303d e208 133c
00000380: fbba 643d 308f 423d 634b 2e3d f405 d53c
00000390: b5f3 48bd 6c87 f23b fce5 0bbc bd26 993d
000003a0: a06d ac3c f1ca d6bc 75e6 623d 224d 99bc
000003b0: 0b2c ebbb 2402 1cbd 84eb 87bd bdcd 733d
000003c0: 3b1e a43c c64c 923d f195 873d 39fd 563d
000003d0: c273 78bd b5ca 0d3c 52fd 6cbd a3bf ddbc
000003e0: 834b a23d 8542 1cbd 1b1d fc3c 0bb4 03bc
000003f0: 3736 9e3c cb7a 70bc c0ef 3a3b 98f3 94bc

network.0.bias f4 [256]
-0.053554397 -0.06301255 -0.07327944 0.062383857 -0.06326432 -0.059926927 -0.057200428 -0.08251125
0.06912514 -0.020186348 0.015280624 -0.08550983 0.007729774 0.007374771 0.02728197 -0.06580411
0.054835968 -0.045032073 -0.08705856 0.010893853 0.028224459 0.05212391 0.07802791 0.026578456
-0.08134916 0.0035257735 -0.008033558 0.06207574 0.014858091 -0.023067413 0.031480502 -0.03639549
-0.026341591 0.03281777 0.025009075 -0.005240107 -0.07779665 -0.06739078 0.02631272 -0.088285476
0.022597253 0.005588145 0.010600881 -0.084375426 -0.011793605 -0.026018577 0.024362922 -0.06456327
0.035586998 0.028411675 0.0020654483 -0.01136908 0.03449907 0.05593266 -0.048866678 0.025377134
0.04331228 -0.012212702 0.006086015 -0.07783084 -0.049478564 0.04413401 -0.034407634 -0.07970928
0.015413408 0.025200855 0.014225931 0.01867961 -0.0050825095 0.04715066 -0.022494921 0.061247125
-0.045769054 0.013968372 0.0870882 -0.04796735 0.026377182 -0.015681598 -0.0688239 -0.023643117
-0.034302805 -0.043322936 0.040184163 -0.06740497 0.011806828 -0.07346015 0.08675236 -0.013195051
-0.073811114 0.06594784 0.0025422978 -0.015229637 0.03733358 -0.07154567 -0.0039127236 -0.06280726
0.0847231 -0.007533043 0.039846957 0.03525962 -0.04368128 0.07597683 -0.06038641 -0.06720477
0.056783795 0.026815604 0.06890406 -0.00092378515 -0.031727187 0.07379958 -0.07504417 0.034194484
0.03404259 0.042500388 0.031628788 -0.07081131 -0.010415834 0.08386088 -0.06873519 0.07567519
-0.028900936 0.005560149 -0.01344848 0.07490857 0.08667511 -0.024436615 0.055714455 0.015400837
-0.08833398 -0.0679889 -0.0231243 0.01885868 0.03912082 0.07026832 0.074359946 0.0028748366
-0.00419437 -0.05472472 -0.044326365 0.027030291 -0.06639783 -0.041607127 0.05080581 -0.051984914
-0.0043565617 0.054375187 -0.010431081 0.049781643 0.032264423 -0.05978578 -0.01538538 -0.027125701
-0.013962566 0.08781713 0.043489836 0.046348255 0.015019862 0.027663283 0.0046423594 -0.075722955
-0.013452684 -0.04763662 -0.07819841 -0.05003246 0.049788494 -0.03637671 -0.045421362 -0.07222861
0.0005283107 -0.040877923 -0.0336074 -0.08673471 -0.08257017 -0.010306759 0.0813494 -0.052699238
-0.02435031 0.057288576 0.01746814 -0.06964646 0.02035912 0.060751542 -0.072149925 0.056327082
-0.018746233 -0.08525801 0.05515386 -0.015199218 -0.06736481 -0.050212365 -0.022348534 -0.009152114
-0.014662298 0.054702204 -0.008709077 0.014871283 -0.037894484 0.029457822 -0.035647836 0.0034574007
0.065086976 0.06385848 0.00767944 0.0844913 -0.025997989 0.022214888 0.020329058 0.0054669096
-0.07740529 -0.07815512 0.045394093 0.0766844 -0.06831184 -0.00095058 -0.0022988787 -0.006530117
-0.009836031 -0.045088023 -0.04958647 -0.06382571 0.046823777 0.027283119 -0.049750812 -0.028683048
0.0065365336 0.03975734 -0.057421245 -0.0115330005 -0.06762605 -0.0044510234 0.05080461 0.08557712
0.02662878 0.0716171 0.05420147 -0.0551986 0.0327363 0.056990158 0.044047702 -0.050545935
0.06390384 -0.012342346 -0.079266265 -0.03869576 -0.04040475 0.039663304 -0.044944093 -0.026415685
-0.08081681 -0.012022388 0.07586149 -0.01789201 -0.03230202 0.065501995 -0.015811801 -0.072511315
00000000: db5b 5bbd b90c 81bd 8813 96bd 3786 7f3d
00000010: b990 81bd f075 75bd ff4a 6abd a9fb a8bd
00000020: 7b91 8d3d d75d a5bc 955b 7a3c c71f afbd
00000030: 0b4a fd3b 10a8 f13b 707e df3c 4ec4 86bd
00000040: ae9b 603d 8d73 38bd c24b b2bd 227c 323c
00000050: fb36 e73c e27f 553d 19cd 9f3d 10bb d93c
00000060: 639a a6bd aa10 673b 2f9f 03bc 2243 7e3d
00000070: 5a6f 733c dff7 bcbc b3f1 003d 7013 15bd
00000080: 52ca d7bc ed6b 063d d5df cc3c 34b5 abbb
00000090: da53 9fbd 2d04 8abd c68d d73c 04cf b4bd
000000a0: e01d b93c c21c b73b 51af 2d3c 06cd acbd
000000b0: f739 41bc e924 d5bc c094 c73c bf39 84bd
000000c0: acc3 113d 9abf e83c 795c 073b 6145 3abc
000000d0: e64e 0d3d a519 653d 6d28 48bd b5e3 cf3c
000000e0: 3868 313d c917 48bc 326d c73b c765 9fbd
000000f0: 09aa 4abd ddc5 343d 05ef 0cbd 9e3e a3bd
00000100: 8588 7c3c 0672 ce3c e113 693c fb05 993c
00000110: 2e8b a6bb 0d21 413d 4547 b8bc 44de 7a3d
00000120: 5578 3bbd 99db 643c 4c5b b23d 6979 44bd
00000130: f614 d83c b276 80bc 8bf3 8cbd 36af c1bc
00000140: 1981 0cbd 6473 31bd 2698 243d 9e0b 8abd
00000150: 6d71 413c 4672 96bd 39ab b13d 0e30 58bc
00000160: 482a 97bd a90f 873d ae9c 263b ba85 79bc
00000170: 19eb 183d 8986 92bd 4e36 80bb 18a1 80bd
00000180: 4e83 ad3d bfd7 f6bb 9036 233d 646c 103d
00000190: 24eb 32bd be99 9b3d be57 77bd a8a2 89bd
000001a0: 2096 683d 66ac db3c 921d 8d3d 2c2a 72ba
000001b0: 5ef4 01bd 3c24 973d c2b0 99bd 840f 0c3d
000001c0: 3e70 0b3d e314 2e3d 308d 013d 8505 91bd
000001d0: 2da7 2abc 41bf ab3d 09c5 8cbd 98fb 9a3d
000001e0: a8c1 ecbc e931 b63b 0357 5cbc aa69 993d
000001f0: b882 b13d 4c2f c8bc d734 643d cb53 7c3c
00000200: 72e8 b4bd c43d 8bbd 2c6f bdbc 857d 9a3c
00000210: 273d 203d d6e8 8f3d 074a 983d c167 3c3b
00000220: ed70 89bb 0727 60bd 908f 35bd a16e dd3c
00000230: 96fb 87bd 3c6c 2abd c119 503d 22ee 54bd
00000240: 7dc1 8ebb 84b8 5e3d 20e7 2abc d6e7 4b3d
00000250: b327 043d efe1 74bd f612 7cbc b836 debc
00000260: 3fc3 64bc 78d9 b33d 6622 323d abd7 3d3d
00000270: de15 763c 1c9e e23c ef1e 983b a314 9bbd
00000280: a568 5cbc 9e1e 43bd 7d26 a0bd d6ee 4cbd
00000290: 05ef 4b3d bfff 14bd c00b 3abd 98ec 93bd
000002a0: 557e 0a3a 9c6f 27bd eaa7 09bd f8a1 b1bd
000002b0: 8d1a a9bd aedd 28bc 849a a63d 28db 57bd
000002c0: 4d7a c7bc 6da7 6a3d 5819 8f3c cea2 8ebd
000002d0: 2bc8 a63c 9cd6 783d 57c3 93bd 3ab7 663d
000002e0: b391 99bc c09b aebd 04e9 613d 2406 79bc
000002f0: 90f6 89bd 7bab 4dbd 4614 b7bc c0f2 15bc
00000300: 233a 70bc 6b0f 603d 84b0 0ebc afa6 733c
00000310: 3f37 1bbd 8851 f13c 7703 12bd 8f95 623b
00000320: 524c 853d 3cc8 823d d0a3 fb3b c609 ad3d
00000330: bcf9 d4bc fffb b53c 2089 a63c c323 b33b
00000340: aa86 9ebd cb0f a0bd 28ef 393d b60c 9d3d
00000350: 14e7 8bbd 5830 79ba c9a8 16bb 97fa d5bb
00000360: 4e27 21bc 38ae 38bd 2f1b 4bbd 0eb7 82bd
00000370: 4aca 3f3d d980 df3c 82c7 4bbd b6f8 eabc
00000380: 6b30 d63b 98d8 223d 8a32 6bbd e9f4 3cbc
00000390: 877f 8abd e4d9 91bb 7f18 503d 0f43 af3d
000003a0: 9924 da3c fcab 923d 5c02 5e3d ed17 62bd
000003b0: 8016 063d 836e 693d 5d6b 343d 4109 4fbd
000003c0: 04e0 823d 8d37 4abc 5a56 a2bd 727f 1ebd
000003d0: 737f 25bd fd75 223d 4c17 38bd b565 d8bc
000003e0: 4983 a5bd 8df9 44bc 455d 9b3d 4492 92bc
000003f0: 1f4f 04bd e925 863d c087 81bc d080 94bd

network.2.weight f4 [256, 256]
0.006135978 0.0006975755 -0.055429332 0.048408195 -0.0048643947 0.014135331 -0.027486555 -0.036425732
-0.022812285 0.031769723 0.053945385 0.011903629 0.02860479 -0.02236066 -0.024043754 0.046690613
-0.02582287 -0.0018637627 -0.048635818 0.03304486 0.0012927577 0.036225557 -0.034213185 0.0012258291
0.03179556 0.05454535 -0.009888448 -0.002579242 0.023129262 0.031860746 0.021274805 -0.040776566
0.060027055 0.03928508 -0.047731027 -0.004035786 -0.05531232 0.02140525 -0.042488895 -0.050478034
0.019366793 -0.027560495 -0.042079203 0.0022258833 0.028165117 -0.049213782 0.03657105 -0.037472084
0.056751758 -0.03220383 -0.059435114 -0.06103371 -0.055528283 0.021829031 0.02665551 0.050312176
0.020880677 0.05711416 0.027749918 0.033791676 0.0054539964 -0.010507569 0.008973263 -0.05918785
0.01519236 -0.060871564 -0.05784025 0.045661457 0.0019836873 -0.03200697 -0.053135186 0.025327586
0.018809766 0.05495499 0.061015137 0.028483734 -0.02428966 -0.023977935 -0.0020546168 0.03939332
-0.06025835 0.046904452 -0.003284134 -0.00069256127 0.03267935 0.055228584 -0.02845376 0.03981258
0.0027913228 -0.04415313 -0.00028487295 -0.020896532 0.011216685 0.013668656 0.052118793 0.05949595
0.026884474 -0.039512657 -0.013050698 0.017401442 -0.042268105 0.053442925 -0.005358711 0.048975423
0.018641256 -0.018191755 0.0136249885 0.009641737 -0.038411207 0.061360538 -0.03979443 -0.026081763
0.04745982 0.030254006 -0.014319375 0.047790423 -0.059313245 -0.053044647 -0.0009329766 0.028476313
0.023171954 -0.04812795 -0.043958753 0.017470784 0.014859386 0.025434203 0.042977497 -0.038038783
-0.029330723 -0.049462482 0.04327204 -0.008353561 -0.021899976 -0.06040831 0.013225883 0.045847088
-0.022421017 0.025490269 0.045879416 0.057987012 0.035150856 0.01250492 -0.038504355 -0.041095972
0.057231188 -0.042401195 0.05326616 0.020220019 -0.018230408 -0.057148494 -0.009698845 0.056469493
-0.018138424 0.005470395 0.032192893 0.062151477 0.05770587 -0.06007535 -0.0034754723 0.048294194
0.050820984 -0.007357307 0.036343567 0.018871836 0.033146948 -0.04616122 -0.043988504 -0.012280703
-0.041501284 -0.04561948 0.022621036 -0.00636255 -0.05158042 -0.0025110096 0.051048666 0.02668757
-0.049920738 0.04908532 -0.06213884 0.03153514 0.00049878657 -0.0045248494 0.062156945 -0.03382813
0.020921357 -0.005830914 0.0480927 0.050413042 -0.060836636 -0.029496484 -0.04787188 0.002130635
-0.06189254 -0.03447727 -0.020795844 0.029939532 0.057702363 0.011261724 -0.06060683 -0.022762537
0.059372045 -0.03835102 -0.033581346 -0.0559147 0.046310544 -0.029716283 0.048162118 -0.030925207
-0.009379886 -0.012164697 0.005335994 -0.012788087 0.013960518 -0.03271626 -0.032341152 0.018946372
0.031530783 -0.05051461 0.03505806 0.03922628 -0.031055473 -0.055966012 -0.05115337 0.05993531
-0.05348759 0.043095797 0.057014562 0.017378949 -0.009374775 0.05213052 -0.046614237 0.052513316
0.054973073 -0.03366164 0.0176562 -0.02171056 0.026890896 0.028758511 0.047997095 -0.004476145
0.061472103 0.001450412 0.039269716 0.0034606904 -0.05828269 -0.018095106 -0.025084846 0.056500852
-0.0039718747 -0.022336729 -0.011872821 -0.015425257 0.037601158 0.020283006 0.008645907 0.061755702
00000000: 5010 c93b 80dd 363a de09 63bd ac47 463d
00000010: 8065 9fbb e097 673c 7c2b e1bc 2633 15bd
00000020: d4e0 babc f820 023d d6f5 5c3d 7007 433c
00000030: 9854 ea3c b42d b7bc 68f7 c4bc a83e 3f3d
00000040: 7c8a d3bc 8049 f4ba 5a36 47bd 0c5a 073d
00000050: c071 a93a 4061 143d 2023 0cbd 00ac a03a
00000060: 103c 023d f26a 5f3d 2803 22bc 8008 29bb
00000070: 9479 bd3c 6a80 023d 8048 ae3c 5405 27bd
00000080: eede 753d 64e9 203d 9c81 43bd a03e 84bb
00000090: 2c8f 62bd 105a af3c d608 2ebd 0ec2 4ebd
000000a0: 1ca7 9e3c 8cc6 e1bc 3e5b 2cbd 20e0 113b
000000b0: 88ba e63c 6494 49bd 86cb 153d 547c 19bd
000000c0: 8874 683d 2ae8 03bd 3c72 73bd 7cfe 79bd
000000d0: a071 63bd ccd2 b23c a85c da3c 2414 4e3d
000000e0: f40d ab3c 8af0 693d cc53 e33c 2469 0a3d
000000f0: 70b7 b23b f027 2cbc 9804 133c f66e 72bd
00000100: 60e9 783c 7654 79bd e6e9 6cbd 8207 3b3d
00000110: c000 023b be19 03bd 48a4 59bd cc7b cf3c
00000120: f016 9a3c 7c18 613d 02eb 793d b856 e93c
00000130: 1cfb c6bc 606d c4bc c0a6 06bb e45a 213d
00000140: 76d1 76bd e21e 403d a03a 57bb 008d 35ba
00000150: c8da 053d 5e37 623d dc17 e9bc 8412 233d
00000160: a0ee 363b ead9 34bd 005b 95b9 342f abbc
00000170: 30c6 373c 80f2 5f3c 847a 553d 06b2 733d
00000180: d43c dc3c 06d8 21bd 98d2 55bc 788d 8e3c
00000190: 5221 2dbd f8e6 5a3d 2098 afbb 749a 483d
000001a0: 8cb5 983c e006 95bc 583b 5f3c 60f8 1d3c
000001b0: 1255 1dbd 3055 7b3d 7cff 22bd 6ca9 d5bc
000001c0: 3a65 423d 40d7 f73c d09b 6abc e4bf 433d
000001d0: 72f2 72bd 5845 59bd 0093 74ba 2847 e93c
000001e0: 1cd3 bd3c d021 45bd 180e 34bd e41e 8f3c
000001f0: c874 733c 645b d03c 2c09 303d 8ece 1bbd
00000200: fc46 f0bc 2c99 4abd 063e 313d 60dd 08bc
00000210: 9467 b3bc b46e 77bd 60b1 583c 28ca 3b3d
00000220: 48ac b7bc f8d0 d03c 0eec 3b3d ca83 6d3d
00000230: 58fa 0f3d 70e1 4c3c beb6 1dbd 4054 28bd
00000240: 406b 6a3d e0ac 2dbd 9e2d 5a3d 74a4 a53c
00000250: f057 95bc 8a14 6abd e8e7 1ebc 8e4c 673d
00000260: 0897 94bc 0041 b33b b2dc 033d 8c92 7e3d
00000270: fe5c 6c3d 9211 76bd c0c4 63bb 22d0 453d
00000280: aa29 503d 9015 f1bb fedc 143d 1c99 9a3c
00000290: 18c5 073d 8c13 3dbd 4a2d 34bd 0035 49bc
000002a0: 40fd 29bd 7edb 3abd c04f b93c f07c d0bb
000002b0: fe45 53bd c08f 24bb 6818 513d e49f da3c
000002c0: b079 4cbd b00d 493d 4c85 7ebd fe2a 013d
000002d0: 00c1 023a 3045 94bb 4898 7e3d 5e8f 0abd
000002e0: 4463 ab3c 4011 bfbb dafc 443d e87d 4e3d
000002f0: d62f 79bd 9ca2 f1bc 4e15 44bd 20a2 0b3b
00000300: 0883 7dbd 0a38 0dbd 0c5c aabc c043 f53c
00000310: 5059 6c3d 1883 383c de3e 78bd 8078 babc
00000320: 1a30 733d f615 1dbd 988c 09bd d006 65bd
00000330: 20b0 3d3d 906f f3bc a445 453d dc56 fdbc
00000340: 18ae 19bc 704e 47bc 90d9 ae3b 2085 51bc
00000350: a8ba 643c 7c01 06bd 2878 04bd 6c35 9b3c
00000360: 6c26 013d 68e8 4ebd 0a99 0f3d bcab 203d
00000370: 0c68 febc 9e3c 65bd 3286 51bd ba7e 753d
00000380: ce15 5bbd 3885 303d 1a88 693d 4c5e 8e3c
00000390: a898 19bc d086 553d 92ee 3ebd 3418 573d
000003a0: 722b 613d cae0 09bd bca3 903c 58da b1bc
000003b0: 4c4a dc3c f896 eb3c 9a98 443d a0ac 92bb
000003c0: 2cca 7b3d c01b be3a 48d9 203d c0cc 623b
000003d0: d4b9 6ebd 303c 94bc bc7e cdbc 706d 673d
000003e0: 8026 82bb 84fb b6bc 3886 42bc 38ba 7cbc
000003f0: ac03 1a3d 8c28 a63c 90a7 0d3c 8cf3 7c3d

network.2.bias f4 [256]
0.014418244 0.03953129 -0.047186397 0.02674035 -0.026789345 -0.037539907 -0.03858134 0.0052881613
0.047154784 -0.013274021 0.027768567 0.01288905 0.055250473 -0.017251305 -0.02288068 -0.052209333
0.024558209 0.04034859 -0.051133685 0.06082914 0.03961035 0.015482545 0.025412709 -0.009865269
0.012637824 -4.5396388e-05 0.04298 0.05412335 0.0030246153 0.0140025765 0.031154238 -0.0072565973
-0.038822733 0.047317587 0.012048468 0.003618598 -0.0032201782 0.05207575 0.055371754 -0.0016361326
0.046989404 -0.017550282 0.05991303 -0.055123217 -0.004336402 0.043622047 0.049780153 0.028761141
-0.026390597 -0.027653217 -0.03482598 -0.05805605 0.010559894 0.055469096 0.028277911 -0.04902462
-0.060563505 -0.014501587 -0.05638507 0.049800254 -0.014017597 -0.012253515 -0.060950555 0.04574295
0.04118772 0.052815437 0.0013225451 -0.002457574 0.033334084 0.025307037 0.0005991161 0.021000445
0.011130147 0.055827864 -0.008748122 0.047635734 -0.020264156 0.046586342 -0.042525597 0.047070928
0.01733715 -0.04485219 -0.048764974 -0.0020147935 0.0489083 -0.021784596 0.033115566 -0.04451272
0.0159332 0.008569866 0.04231143 0.031033397 -0.05863045 -0.03523712 0.03227683 0.01738441
-0.046332218 -0.040422298 -0.05760859 -0.011898257 0.006050989 0.021619618 -0.04627604 -0.049654648
-0.008991204 0.0032095462 -0.009255931 -0.052807845 -0.06215886 0.012633875 0.05123791 -0.03873063
0.04665254 -0.019557834 -0.002451077 -0.031692915 0.026211485 0.032375395 -0.0067722946 0.03804303
0.0058610663 -0.022457913 0.036981367 0.05721186 -0.03835485 0.0011460632 0.039869554 0.05570136
0.043317392 0.018464923 0.036540948 0.047783688 0.05389625 -0.009726077 0.00024820864 -0.006519884
0.03613302 -0.034129255 -0.026956826 0.056483872 -0.046311937 -0.057182945 0.007334709 -0.033555247
-0.005132504 0.00323347 -0.028480388 -0.054319806 0.050575957 0.060188524 0.05809532 0.026276067
-0.040318802 0.062135093 -0.022519499 -0.037331976 0.056490317 -0.04942189 0.004348539 0.015834987
-0.042882293 -0.015715063 -0.040929392 -0.004489027 -0.05869452 -0.010124832 0.0006421283 0.0063483566
0.03549739 0.05273989 -0.04563754 -0.027767591 -0.0077469274 0.014122799 0.047009133 0.0076982453
-0.005688615 -0.039067194 0.0016722009 0.053693026 0.010177791 -0.02494704 -0.024474062 -0.022462398
-0.027544506 0.013602339 -0.054651298 -0.0006372109 0.01851862 0.056618847 -0.03310839 -0.018673077
-0.043226235 0.061725415 -0.024121322 0.040012367 -0.0127892345 -0.042519808 -0.021379717 -0.029034987
-0.038464442 -0.06195201 -0.039966106 0.0047903135 0.041808486 0.052411698 0.002288796 -0.032555982
0.04092326 -0.045048743 -0.031836517 0.018060423 0.056959905 -0.008177735 -0.049520694 -0.031137608
0.052544273 -0.05026281 -0.0015013814 0.05685971 0.01212398 -0.060991287 -0.019747637 0.044153467
0.015583031 0.049291708 -0.0111690685 0.05420512 0.04106483 0.0037901625 -0.039002366 0.0019863173
-0.055631198 -0.050128356 -0.016567238 -0.03254375 0.019212589 0.0065002292 -0.011361942 -0.042479187
0.016012795 -0.00943967 0.009347133 0.023804978 0.05192157 0.042181425 -0.015732206 -0.05216884
-0.0076714307 0.037291817 0.05012334 0.03150689 -0.020304792 -0.025830656 0.006995581 0.015696593
00000000: 803a 6c3c 90eb 213d 8646 41bd 940e db3c
00000010: 5475 dbbc 72c3 19bd 7807 1ebd 5048 ad3b
00000020: 6025 413d 487b 59bc e87a e33c 982c 533c
00000030: 524e 623d 9c52 8dbc 4470 bbbc 74d9 55bd
00000040: 4c2e c93c 9044 253d 8e71 51bd fa27 793d
00000050: 763e 223d 80aa 7d3c 502e d03c f0a1 21bc
00000060: e00e 4f3c 0068 3eb8 cc0b 303d 72b0 5d3d
00000070: a038 463b 106b 653c 2c37 ff3c c0c8 edbb
00000080: 9604 1fbd 16d0 413d f066 453c 0026 6d3b
00000090: a009 53bb 624d 553d 7ecd 623d 8073 d6ba
000000a0: f677 403d 9cc5 8fbc 5e67 753d e2c8 61bd
000000b0: 6018 8ebb 08ad 323d 46e6 4b3d 7c9c eb3c
000000c0: 1831 d8bc 0089 e2bc b0a5 0ebd 2ecc 6dbd
000000d0: 6803 2d3c 9033 633d 14a7 e73c 0ace 48bd
000000e0: 7011 78bd 1098 6dbc 08f4 66bd 5afb 4b3d
000000f0: 10aa 65bc f8c2 48bc 4aa7 79bd f65c 3b3d
00000100: 74b4 283d 0055 583d 4059 ad3a 400f 21bb
00000110: 5289 083d b450 cf3c 000e 1d3a 2009 ac3c
00000120: 385b 363c c2ab 643d 4854 0fbc b01d 433d
00000130: 0401 a6bc 52d1 3e3d 522f 2ebd 72cd 403d
00000140: a406 8e3c eeb6 37bd c8bd 47bd a00a 04bb
00000150: 1254 483d 9c75 b2bc 30a4 073d f852 36bd
00000160: 5886 823c a068 0c3c c04e 2d3d c039 fe3c
00000170: 7c26 70bd cc54 10bd b634 043d c069 8e3c
00000180: dac6 3dbd da91 25bd fcf6 6bbd e8f0 42bc
00000190: 6047 c63b a01b b13c f28b 3dbd ac62 4bbd
000001a0: d84f 13bc 4057 523b 30a6 17bc 0a4d 58bd
000001b0: 4a9a 7ebd 50fe 4e3c d8de 513d 02a4 1ebd
000001c0: bc16 3f3d c037 a0bc 40a2 20bb 6ed0 01bd
000001d0: 78b9 d63c 109c 043d 20ea ddbb 02d3 1b3d
000001e0: 300e c03b a8f9 b7bc c679 173d fc56 6a3d
000001f0: fa19 1dbd 8037 963a 424e 233d 1c27 643d
00000200: 946d 313d c043 973c f6ab 153d d4b8 433d
00000210: 50c2 5c3d 205a 1fbc 0022 8239 c0a4 d5bb
00000220: 3800 143d 1ecb 0bbd 90d4 dcbc a25b 673d
00000230: 96b1 3dbd aa38 6abd 0058 f03b 3a71 09bd
00000240: 902e a8bb a0e8 533b b44f e9bc 727e 5ebd
00000250: bc28 4f3d 3e88 763d 5cf5 6d3d e840 d73c
00000260: 5425 25bd 5e81 7e3d d07a b8bc 6ae9 18bd
00000270: 6462 673d 9c6e 4abd 307e 8e3b 60b8 813c
00000280: 58a5 2fbd e0bc 80bc 94a5 27bd b018 93bb
00000290: aa69 70bd a0e2 25bc 8054 283a e005 d03b
000002a0: b665 113d c805 583d 6eee 3abd dc78 e3bc
000002b0: f0d9 fdbb 5063 673c a68c 403d 9041 fc3b
000002c0: 9067 babb ec04 20bd c02d db3a 38ed 5b3d
000002d0: c0c0 263c bc5d ccbc d47d c8bc 1003 b8bc
000002e0: 04a5 e1bc 58dc 5e3c 0ada 5fbd 800a 27ba
000002f0: 5cb4 973c 2ae9 673d aa9c 07bd 48f8 98bc
00000300: fe0d 31bd cad3 7c3d 149a c5bc 02e4 233d
00000310: f089 51bc 4029 2ebd 8424 afbc c8da edbc
00000320: e48c 1dbd 64c1 7dbd 80b3 23bd 10f8 9c3b
00000330: 603f 2b3d a6ad 563d a0ff 153b 6c59 05bd
00000340: 269f 273d 0885 38bd 0267 02bd 74f3 933c
00000350: ca4e 693d e8fb 05bc 36d6 4abd 4c14 ffbc
00000360: aa38 573d 60e0 4dbd 00ca c4ba bae5 683d
00000370: a8a3 463c 00d2 79bd ccc5 a1bc 44da 343d
00000380: f84f 7f3c 1ae6 493d 78fe 36bc 3006 5e3d
00000390: 9833 283d 6064 783b f2c0 1fbd e02c 023b
000003a0: 8add 63bd 6453 4dbd 04b8 87bc 984c 05bd
000003b0: b863 9d3c e0ff d43b 7027 3abc a8fe 2dbd
000003c0: 442d 833c d8a8 1abc b824 193c a802 c33c
000003d0: b6ab 543d 6ec6 2c3d d4e0 80bc feae 55bd
000003e0: a060 fbbb 4ebf 183d 224e 4d3d 5e0d 013d
000003f0: 3c56 a6bc d09a d3bc 303b e53b 2496 803c

network.4.weight f4 [256, 256]
0.004441604 -0.0053534955 0.0052884594 0.014115997 -0.032545514 0.027694575 0.05626417 -0.021318085
0.014236912 0.015591428 -0.0066156685 0.032637417 0.035612553 0.022401482 -0.013578847 0.026607431
0.04755588 -0.043511376 0.04677555 0.05863484 -0.040398568 0.022652194 -0.018722102 0.0021905378
0.027408056 0.034611806 0.02731847 -0.00070215017 0.059734076 0.04307779 0.04291784 -0.04381538
-0.034581803 -0.057183303 -0.053027585 -0.054560065 0.00095743686 -0.017884992 -0.032554284 -0.036842518
0.02873084 0.05375644 -0.038253352 0.036197633 -0.02298487 -0.036241367 -0.00449986 -0.057969093
0.057264596 -0.01805441 -0.030811734 -0.050717056 -0.058013707 0.01288911 -0.048047274 0.057885714
0.051709488 0.038112216 0.008650146 0.049142748 -0.018827565 0.02642332 -0.03460881 -0.013094492
-0.053309835 -0.056618243 0.012498215 0.012511678 0.054764003 0.006071821 0.049427368 -0.016554415
0.041987464 -0.035807334 -0.048712373 -0.023972958 -0.056746148 -0.02341251 -0.05130902 -0.027567096
0.03891156 -0.028502531 -0.038268812 0.03214643 -0.006362617 0.05999825 0.010473803 -0.040941566
-0.0031371787 -0.037208557 0.02860307 -0.05027754 -0.057215415 0.028401434 0.00016898662 -0.011843979
-0.032218345 -0.021275409 0.004370913 0.042324737 0.005622193 0.04514703 -0.033214547 -0.040786438
0.027272925 0.051491052 -0.033192053 0.0360763 0.00063854456 -0.051074706 0.032829106 -0.020848557
-0.021929659 -0.0075769946 0.05051198 0.035429128 -0.03217668 -0.0101905465 0.020722114 -0.01502239
-0.016537875 0.03661135 0.04534264 -0.0050693005 -0.05903682 0.0029188246 0.013650559 0.01573772
-0.010564253 -0.0045723245 -0.024543487 -0.053170294 0.037377104 -0.0055047944 0.04852537 -0.0044839308
-0.031768426 -0.026498795 -0.027185306 0.030495718 0.03420171 -0.026296467 0.0020189062 0.011618301
0.036798418 0.048956312 -0.015540138 0.0072670206 -0.018089607 0.047484316 0.032802753 0.0053950325
-0.008085951 -0.041712426 0.062282972 -0.043951564 -0.006916046 -0.04726047 -0.018499516 0.019472249
0.047145 -0.008497141 -0.037385605 0.0046672374 0.053987317 -0.053731665 0.052977175 0.049814805
-0.0117807835 -0.038851842 -0.051517256 0.035369426 0.015112154 0.00024408847 -0.00902576 -0.06148441
-0.057844825 0.026034258 0.003987968 -0.026751928 0.0570693 -0.00830432 0.011748865 0.034076653
-0.038768686 -0.05467367 -0.021647118 0.02981764 0.0363146 -0.003451191 -0.058574654 -0.059602767
-0.025613293 0.02719368 0.028650448 0.05673422 0.06043321 -0.044531025 -0.052428894 -0.036364883
0.035317242 0.022286743 -0.055996716 0.02645018 0.036890462 0.035450406 -0.001647614 -0.0037526488
0.059895925 -0.0033876076 -0.015888162 -0.037738122 0.047269545 -0.027178518 -0.0550607 -0.04261502
0.04534486 -0.02747228 0.008704469 -0.030347213 -0.03959529 0.05428338 0.056584604 -0.0533377
-0.046254523 0.052348383 0.041046195 -0.045454517 -0.057252884 -0.03194072 0.037285805 0.018106796
-0.010595448 0.015592329 0.01091557 -0.020788945 -0.038997672 -0.055687502 0.022247814 -0.0082620755
0.04298885 -0.012975074 0.054867275 -0.0032354444 0.0071385875 0.041327916 0.0026596934 -0.061216563
0.025911495 0.025487013 -0.018102594 0.04140465 0.021377511 -0.0003728047 0.02288054 -0.008822583
00000000: e08a 913b 606c afbb d04a ad3b c846 673c
00000010: 724e 05bd bcdf e23c 4275 663d 44a3 aebc
00000020: f041 693c 3073 7f3c 40c8 d8bb d0ae 053d
00000030: 78de 113d 5083 b73c d079 5ebc d4f7 d93c
00000040: f4c9 423d fc38 32bd b897 3f3d 162b 703d
00000050: f878 25bd 1891 b93c 185f 99bc 208f 0f3b
00000060: dc86 e03c 1cc5 0d3d fcca df3c 8010 38ba
00000070: b8ab 743d 5672 303d 9eca 2f3d c277 33bd
00000080: a6a5 0dbd 0a39 6abd 7433 59bd 607a 5fbd
00000090: 80fc 7a3a 8c83 92bc a457 05bd 2ee8 16bd
000000a0: f05c eb3c b62f 5c3d 8caf 1cbd f843 143d
000000b0: c44a bcbc d471 14bd 9073 93bb 0071 6dbd
000000c0: 488e 6a3d d8e6 93bc e468 fcbc b0bc 4fbd
000000d0: c89f 6dbd d82c 533c 38cd 44bd 9219 6d3d
000000e0: 54cd 533d 8e1b 1c3d 58b9 0d3c e849 493d
000000f0: 443c 9abc b875 d83c f8c1 0dbd 488a 56bc
00000100: 6a5b 5abd 88e8 67bd 50c5 4c3c c8fd 4c3c
00000110: 3850 603d 20f6 c63b 5a74 4a3d 209d 87bc
00000120: 0cfb 2b3d b6aa 12bd a086 47bd f062 c4bc
00000130: a66e 68bd 98cb bfbc 6829 52bd 64d4 e1bc
00000140: ba61 1f3d 247e e9bc c2bf 1cbd faab 033d
00000150: 807d d0bb bac0 753d 509a 2b3c 58b2 27bd
00000160: 2099 4dbb 0068 18bd fc50 ea3c d2ef 4dbd
00000170: b65a 6abd 20aa e83c 0032 3139 400d 42bc
00000180: 62f7 03bd c449 aebc e039 8f3b b45c 2d3d
00000190: 603a b83b 18ec 383d fa0b 08bd ae0f 27bd
000001a0: 786b df3c 48e8 523d 64f4 07bd bec4 133d
000001b0: 0064 273a b633 51bd d077 063d 98ca aabc
000001c0: d4a5 b3bc 7048 f8bb a6e5 4e3d 221e 113d
000001d0: b2cb 03bd 40f6 26bc 6cc1 a93c 7820 76bc
000001e0: 707a 87bc c8f5 153d 34b9 393d 601c a6bb
000001f0: 98d0 71bd c049 3f3b 98a6 5f3c 64ec 803c
00000200: b015 2dbc 70d3 95bb 6c0f c9bc 18c9 59bd
00000210: bc18 193d 9061 b4bb 8ac2 463d f0ed 92bb
00000220: 9c1f 02bd 0014 d9bc b8b3 debc 28d2 f93c
00000230: 1817 0c3d b06b d7bc a04f 043b b05a 3e3c
00000240: f0b9 163d 6a86 483d 109c 7ebc 3020 ee3b
00000250: a830 94bc ea7e 423d 2e5c 063d d0c8 b03b
00000260: f07a 04bc a6da 2abd 6e1c 7f3d 8e06 34bd
00000270: 00a0 e2bb 3294 41bd 4c8c 97bc 4484 9f3c
00000280: 1e1b 413d 9837 0bbc a621 19bd a0ef 983b
00000290: ce21 5d3d bc15 5cbd 98fe 583d 9c0a 4c3d
000002a0: 3004 41bc 1c23 1fbd c203 53bd 88df 103d
000002b0: f898 773c 00f2 7f39 c8e0 13bc 14d7 7bbd
000002c0: b2ee 6cbd cc45 d53c 80ad 823b dc26 dbbc
000002d0: 80c1 693d d80e 08bc 507e 403c f693 0b3d
000002e0: eacb 1ebd 80f1 5fbd 4c55 b1bc 2044 f43c
000002f0: 9ebe 143d 602d 62bb faeb 6fbd 0822 74bd
00000300: f8d2 d1bc 48c5 de3c 58b4 ea3c 2462 683d
00000310: d088 773d 2a66 36bd aebf 56bd 58f3 14bd
00000320: d0a8 103d b092 b63c d05c 65bd 0cae d83c
00000330: 741a 173d 7234 113d c0f4 d7ba 00ef 75bb
00000340: 6e55 753d a002 5ebb e427 82bc 4a93 1abd
00000350: b69d 413d 7ca5 debc 5487 61bd 168d 2ebd
00000360: 88bb 393d 8c0d e1bc 309d 0e3c b89a f8bc
00000370: ac2e 22bd 4058 5e3d 42c5 673d a278 5abd
00000380: 6275 3dbd 426b 563d 0e20 283d 842e 3abd
00000390: 0082 6abd 46d4 02bd 00b9 183d b454 943c
000003a0: 8898 2dbc f876 7f3c 38d7 323c 944d aabc
000003b0: 06bc 1fbd 9418 64bd 0c41 b63c a85d 07bc
000003c0: 1415 303d 6895 54bc 82bc 603d c009 54bb
000003d0: d0ea e93b 7647 293d 404e 2e3b 38be 7abd
000003e0: 5844 d43c 24ca d03c e44b 94bc ec97 293d
000003f0: e41f af3c 0075 c3b9 f86f bb3c 988c 10bc

network.4.bias f4 [256]
-0.03669305 -0.03287203 0.032954425 -0.011123754 -0.04567778 -0.016434066 -0.02484344 0.004349105
0.010483868 -0.024106614 -0.04114595 -0.04101205 0.05452305 0.045162305 0.029959857 -0.057222947
-0.023756087 -0.029419973 -0.0239342 0.0012047514 -0.04946012 -0.0532054 -0.03608107 -0.053445533
0.050995804 -0.052489907 -0.0622363 0.0052625984 0.05588623 -0.0077041388 -0.003873609 0.039971896
-0.037570104 -0.015068851 0.032526985 0.036769435 -0.041990638 0.047123678 -0.04481034 0.024843954
-0.007070303 0.033836007 -0.04852695 -0.04575944 -0.039667055 -0.056059323 -0.044995584 0.056944035
0.024095453 -0.050352722 -0.018115148 0.03996318 -0.04016786 0.027642429 0.012301654 0.006099403
-0.033235013 -0.047536872 0.061511815 -0.016046286 -0.03492344 0.05993904 -0.019345522 0.031048812
0.047458462 -0.0037930459 0.00060427934 0.046207637 0.05154191 -0.0128726885 -0.022581667 0.055762403
-0.020667382 -0.041137718 -0.008574739 0.061727345 0.025281526 -0.0615398 -0.057355158 -0.05700326
0.04005692 -0.015766002 -0.0073440075 0.044681445 -0.052585058 0.017474353 -0.05895798 0.032254294
0.021469109 0.03143458 0.036240585 0.026270553 -0.052467152 -0.0005097091 -0.01683861 0.0041667074
-0.029376075 0.03375537 0.034995697 0.01166153 -0.039402954 -0.014249682 -0.024024263 -0.052902333
0.04872001 0.039984383 0.050352186 -0.04970879 -0.032710753 0.036340423 -0.01953946 -0.02679757
0.008577652 0.036793746 -0.01836028 0.042461254 0.053775996 0.0025159568 0.040221535 0.028083116
-0.0014012158 0.048494466 -0.039337732 -0.060223848 -0.042799234 0.013056368 -0.057269335 0.053069137
0.009164348 0.018212646 0.05619333 0.042581 0.054169618 0.024350516 -0.042009264 -0.042274646
-0.035772875 -0.04636704 0.05242964 0.059072673 -0.008362494 0.024221592 -0.041194312 -0.03204129
-0.05980123 0.0023278072 -0.047562666 0.05655557 0.042462334 -0.03642772 -0.004426837 -0.008886017
0.023618646 0.049906515 -0.016551547 -0.032600157 0.0122943595 -0.031638667 -0.05449339 0.019028068
-0.0386047 -0.011231072 -0.047897026 -0.036228962 -8.01757e-05 -0.03457512 0.046069615 -0.056965277
-0.062301688 -0.017977297 0.032003127 0.024722435 0.045058317 0.010967828 -0.03271953 -0.007344365
-0.010156229 -0.0033486634 0.0274432 0.016920209 0.055295743 -0.0047064424 -0.023260646 -0.0046453252
0.028831027 -0.010314368 0.04702311 -0.057670653 -0.034304276 0.018302277 0.03456884 0.020809367
-0.006152779 0.054975905 0.019159175 0.026695393 0.014989056 0.048205905 0.02290117 -0.017611109
0.011236176 -0.043857552 0.043697275 0.01143004 0.020083204 -0.042065844 0.012734354 0.036311552
-0.050640598 0.016980559 -0.04984606 0.04373811 -0.028352499 -0.0499105 0.022500627 -0.028019376
0.029032677 -0.012902029 0.04050502 0.011427857 -0.04500457 -0.0003202483 0.04428882 0.035359062
0.0032008737 -0.04132551 0.017955333 0.0519099 0.049841613 -0.04052563 0.025431953 -0.04664232
-0.043782085 -0.040768474 -0.04410454 -0.014602527 -0.00014580786 0.011939615 0.059996568 -0.015660949
0.018431008 0.032693848 0.023132667 -0.040695973 0.059193738 -0.05409351 -0.008573711 0.008642159
-0.015398428 -0.027717747 0.031093828 0.055131935 0.036235154 0.059522413 0.013174087 0.007861882
00000000: 744b 16bd d2a4 06bd 38fb 063d 6840 36bc
00000010: a018 3bbd bca0 86bc 7884 cbbc f082 8e3b
00000020: 88c4 2b3c 3c7b c5bc a888 28bd 40fc 27bd
00000030: 9053 5f3d 1cfc 383d 606e f53c 9c62 6abd
00000040: 209c c2bc 2802 f1bc a811 c4bc c0e8 9d3a
00000050: b296 4abd e8ed 59bd bec9 13bd b4e9 5abd
00000060: fae0 503d a8ff 56bd 7eeb 7ebd e071 ac3b
00000070: f6e8 643d 0073 fcbb 60dc 7dbb 92b9 233d
00000080: 1ce3 19bd 58e3 76bc 043b 053d 8c9b 163d
00000090: 60fe 2bbd c204 413d 0c8b 37bd 8c85 cb3c
000000a0: 00ae e7bb a097 0a3d 32c4 46bd 406e 3bbd
000000b0: ec79 22bd 769e 65bd 4a4d 38bd 263e 693d
000000c0: d463 c53c a83e 4ebd 3866 94bc 6eb0 233d
000000d0: 0e87 24bd 6072 e23c e08c 493c 80dd c73b
000000e0: 7021 08bd 06b6 42bd d0f3 7b3d 8073 83bc
000000f0: e20b 0fbd a482 753d 807a 9ebc 145a fe3c
00000100: ce63 423d c094 78bb 8068 1e3a 3844 3d3d
00000110: 9c1d 533d f8e7 52bc 30fd b8bc 1e67 643d
00000120: a44e a9bc 0680 28bd 107d 0cbc d0d5 7c3d
00000130: 341b cf3c 2811 7cbd 3eed 6abd 407c 69bd
00000140: ba12 243d b427 81bc 00a6 f0bb e403 373d
00000150: 6e63 57bd 6026 8f3c ec7d 71bd 141d 043d
00000160: fcdf af3c 8cc1 003d 0271 143d 5835 d73c
00000170: cce7 56bd 009e 05ba 20f1 89bc e088 883b
00000180: 18a6 f0bc 1243 0a3d a657 0f3d 0010 3f3c
00000190: fe64 21bd 8077 69bc 88ce c4bc 1eb0 58bd
000001a0: a28e 473d aac6 233d 183e 4e3d 729b 4bbd
000001b0: b6fb 05bd b2d9 143d 3811 a0bc 9486 dbbc
000001c0: 4889 0c3c 0ab5 163d 4c68 96bc daeb 2d3d
000001d0: 3844 5c3d c0e2 243b 56bf 243d 900e e63c
000001e0: 00a9 b7ba 22a2 463d 9a20 21bd 48ad 76bd
000001f0: 404e 2fbd 60ea 553c 4093 6abd 065f 593d
00000200: 1026 163c b032 953c fa2a 663d 6a69 2e3d
00000210: f6e0 5d3d bc7a c73c e811 2cbd 2e28 2dbd
00000220: 9486 12bd 5eeb 3dbd 76c0 563d 30f6 713d
00000230: d802 09bc 5c6c c63c 5ebb 28bd ba3d 03bd
00000240: 22f2 74bd 208e 183b 12d1 42bd d0a6 673d
00000250: fcec 2d3d 3c35 15bd 000f 91bb a896 11bc
00000260: e47b c13c c66a 4c3d 1c97 87bc be87 05bd
00000270: 486e 493c 8c97 01bd 7634 5fbd c0e0 9b3c
00000280: f61f 1ebd 8802 38bc ac2f 44bd d264 14bd
00000290: 0024 a8b8 a49e 0dbd 7eb3 3c3d 6c54 69bd
000002a0: 0e30 7fbd 2045 93bc b615 033d b486 ca3c
000002b0: 128f 383d 68b2 333c ea04 06bd 00a9 f0bb
000002c0: 5066 26bc 4075 5bbb 90d0 e03c 409c 8a3c
000002d0: ca7d 623d 8038 9abb 1c8d bebc d037 98bb
000002e0: 0c2f ec3c 98fd 28bc 4e9b 403d 1038 6cbd
000002f0: a482 0cbd a8ee 953c 0e98 0d3d 6878 aa3c
00000300: 409d c9bb 6a2e 613d b4f3 9c3c 4cb0 da3c
00000310: a894 753c 8e73 453d 3c9b bb3c 2c45 90bc
00000320: f017 383c faa3 33bd eafb 323d 1045 3b3c
00000330: 8885 a43c 3c4d 2cbd c0a3 503c 6cbb 143d
00000340: 846c 4fbd d01a 8b3c 622b 4cbd bc26 333d
00000350: 8043 e8bc f46e 4cbd 3c53 b83c e488 e5bc
00000360: f0d5 ed3c 0863 53bc 98e8 253d e83b 3b3c
00000370: b656 38bd 00e7 a7b9 3268 353d aad4 103d
00000380: c0c5 513b f044 29bd 1017 933c 7a9f 543d
00000390: b826 4c3d 34fe 25bd ac56 d03c 040c 3fbd
000003a0: d854 33bd d8fc 26bd f6a6 34bd 703f 6fbc
000003b0: 00e4 18b9 609e 433c f6be 753d 644b 80bc
000003c0: a0fc 963c fce9 053d b880 bd3c d2b0 26bd
000003d0: 2275 723d 2891 5dbd c078 0cbc d897 0d3c
000003e0: b049 7cbc 5410 e3bc 7cb8 fe3c 06d2 613d
000003f0: 506b 143d c6cd 733d 20d8 573c 20cf 003c

network.6.weight f4 [7, 256]
-0.03504952 0.0008055195 0.047108598 -0.02750738 -0.050142437 -0.04917141 0.011709727 0.03792461
0.0061068684 -0.02059149 0.050771445 0.041152343 -0.04373464 0.054266207 0.018367417 0.046466798
0.013079405 0.022327185 -0.018736854 -0.023594186 0.03704972 -0.04223063 0.021080665 -0.05215773
0.050151408 -0.04829765 -0.049638167 0.02282799 0.014209218 0.018661402 -0.046112612 0.050066218
-0.024045356 -0.044469878 0.026468039 -0.048842005 0.010769792 0.04749863 0.027285986 0.057446316
-0.028513014 -0.035595797 -0.034063347 -0.021264538 -0.026709117 -0.0048151463 0.03494207 -0.05747757
0.024077795 -0.00013431907 -0.04738313 -0.035099126 -0.016106747 0.027261168 -0.04875862 -0.046968475
0.032959387 0.035957687 -0.047750965 -0.06058246 -0.026025027 0.007123165 -0.02197741 0.02112972
0.022061855 -0.036897033 -0.036827326 0.030650698 -0.008885279 -0.06042675 0.00016472489 0.04286267
-0.012870483 0.007887751 -0.0067049935 0.0064369068 -0.009859413 -0.02236294 0.005239308 0.027951315
-0.019843064 0.040125392 -0.03797753 -0.030763261 -0.043683305 0.034811147 0.006414868 0.01499787
-0.035311796 -0.053818583 0.03726723 -0.02566854 0.051081687 -0.038035467 -0.046109423 -0.054636404
-0.004330069 -0.03918586 -0.048568703 0.053219408 -0.041092046 0.033972465 -0.052062333 0.025115028
-0.018686071 0.019388944 0.027490243 -0.03388565 -0.030257605 -0.05986855 -0.042839393 -0.006502919
-0.020416617 0.039040573 0.0081810355 -0.048430495 0.014208473 -0.017911494 0.06172557 -0.02722881
-0.04591964 0.05686356 0.021948203 -0.051878408 0.039928056 -0.042593457 -0.043077767 0.042044632
0.012106568 0.046978742 -0.030261002 -0.033143803 0.0043847114 0.056015626 -0.010411121 0.05116608
0.008617327 0.015057966 -0.022217654 -0.03553456 0.0006681308 0.036051065 0.027286738 -0.0383251
7.1018934e-05 0.006995432 0.037445195 -0.043615073 -0.03420101 -0.049342677 -0.01154124 -0.04942082
0.023921393 -0.0540756 0.05993443 -0.059768654 -0.030109167 0.028321147 -0.030386195 0.06088218
-0.0106723085 0.039422497 0.005425751 -0.024330534 -0.014999628 0.0031191483 0.037515245 0.054497287
-0.043326437 0.050077334 0.030089147 -0.05789131 -0.0049930364 -0.048932657 -0.05573596 -0.0022960678
0.0066918135 -0.03326574 -0.01615087 -0.013404794 0.0369924 0.052920833 0.042886756 -0.03287545
-0.0078436285 -0.061661996 -0.04793942 0.019177578 0.0482046 -0.029927708 -0.01072035 -0.007430345
0.017586052 -0.0025788024 0.007485114 -0.016877413 0.02398128 0.0014444664 -0.050758824 -0.04473585
-0.010656692 0.05238238 0.028104521 0.04168322 -0.031244516 -0.042624056 0.053286538 -0.05480525
-0.011747174 -0.01627212 0.011866838 0.03400229 -0.06223491 0.058409974 -0.020801775 -0.03217636
-0.0044657066 -0.05598396 0.028529167 0.04005743 -0.021465383 -0.002983436 0.024306782 -0.05952309
-0.011936709 -0.032240316 0.06034074 -0.007449247 -0.011520103 0.05247096 0.035836108 0.038242497
-0.014073484 -0.061126664 -0.020242356 -0.031421885 0.02184195 -0.008932285 0.021616802 0.03004004
-0.05925735 -0.04125569 0.0055960566 -0.0052340403 -0.006224707 0.0025810376 -0.020769723 0.035222948
-0.038796313 0.005152039 -0.01777459 -0.022019804 0.05997313 -0.0042708144 0.050384656 -0.055847146
00000000: 1690 0fbd 8029 533a f2f4 403d 2857 e1bc
00000010: 2862 4dbd f667 49bd 28da 3f3c d656 1b3d
00000020: 201c c83b 7caf a8bc b8f5 4f3d 5c8f 283d
00000030: 1823 33bd 3e46 5e3d 4477 963c f853 3e3d
00000040: 004b 563c 80e7 b63c 087e 99bc 9848 c1bc
00000050: 72c1 173d 06fa 2cbd 5cb1 ac3c 58a3 55bd
00000060: 906b 4d3d c2d3 45bd 6451 4bbd c401 bb3c
00000070: c8cd 683c ccdf 983c 94e0 3cbd 3c12 4d3d
00000080: c4fa c4bc 0c26 36bd 80d3 d83c 8e0e 48bd
00000090: c873 303c ec8d 423d dc86 df3c d44c 6b3d
000000a0: 2094 e9bc e6cc 11bd 0286 0bbd f832 aebc
000000b0: 14cd dabc 60c8 9dbb 6a1f 0f3d 9a6d 6bbd
000000c0: cc3e c53c 00d8 0cb9 d014 42bd 1ac4 0fbd
000000d0: 4cf2 83bc d052 df3c 1eb7 47bd 0462 40bd
000000e0: 6c00 073d 5e48 133d 8496 43bd 5025 78bd
000000f0: 7032 d5bc 7069 e93b f809 b4bc 3c18 ad3c
00000100: 10bb b43c 5821 17bd 40d8 16bd 2c17 fb3c
00000110: 9093 11bc 0a82 77bd 00ba 2c39 c490 2f3d
00000120: b8de 52bc a03b 013c 90b5 dbbb b0ec d23b
00000130: 6089 21bc 7c32 b7bc 80ae ab3b 28fa e43c
00000140: ec8d a2bc 865a 243d 548e 1bbd 3c03 fcbc
00000150: 44ed 32bd 2296 0e3d d033 d23b a0b9 753c
00000160: 1aa3 10bd e070 5cbd 86a5 183d d446 d2bc
00000170: 083b 513d 14cb 1bbd 3cdd 3cbd 6cca 5fbd
00000180: 40e3 8dbb 5a81 20bd faef 46bd 98fc 593d
00000190: 2250 28bd b626 0b3d 503f 55bd 08be cd3c
000001a0: 8813 99bc 90d5 9e3c 3833 e13c aecb 0abd
000001b0: ccde f7bc ba38 75bd 5c78 2fbd 7016 d5bb
000001c0: c040 a7bc 02e9 1f3d c009 063c 0e5f 46bd
000001d0: a8ca 683c 20bb 92bc f4d3 7c3d f40e dfbc
000001e0: 3c16 3cbd c4e9 683d b8cc b33c 747e 54bd
000001f0: 9a8b 233d 7a76 2ebd 5072 30bd fe36 2c3d
00000200: a05a 463c c86c 403d ece5 f7bc ccc1 07bd
00000210: a0ad 8f3b a470 653d 6893 2abc 8693 513d
00000220: b02f 0d3c b0b5 763c cc01 b6bc b08c 11bd
00000230: 8025 2f3a 48aa 133d 7088 df3c c8fa 1cbd
00000240: 00f0 9438 f039 e53b 2260 193d b8a5 32bd
00000250: 5c16 0cbd 8c1b 4abd 7817 3dbc 7c6d 4abd
00000260: ccf6 c33c 607e 5dbd ce7d 753d facf 74bd
00000270: 80a7 f6bc c001 e83c 78ec f8bc 985f 793d
00000280: e8da 2ebc 7c79 213d 80ca b13b d450 c7bc
00000290: 00c1 75bc a06a 4c3b 96a9 193d 8c38 5f3d
000002a0: 1077 31bd e41d 4d3d 847d f63c 701f 6dbd
000002b0: a09c a3bb 9c6d 48bd 644b 64bd a079 16bb
000002c0: 0047 db3b a841 08bd d44e 84bc c89f 5bbc
000002d0: 5885 173d 84c3 583d 06aa 2f3d 68a8 06bd
000002e0: 9082 00bc 4a91 7cbd 205c 44bd 4c1a 9d3c
000002f0: 3072 453d f42a f5bc 68a4 2fbc 407a f3bb
00000300: a010 903c 2001 29bb b045 f53b 8042 8abc
00000310: 6474 c43c 4054 bd3a 7ce8 4fbd f03c 37bd
00000320: 6899 2ebc e88e 563d 743b e63c 06bc 2a3d
00000330: 80f4 ffbc 9096 2ebd fc42 5a3d 787b 60bd
00000340: 3877 40bc 1c4d 85bc 206d 423c fc45 0b3d
00000350: 08ea 7ebd 4c3f 6f3d 7c68 aabc 5ccb 03bd
00000360: 1055 92bb 704f 65bd 00b6 e93c 4213 243d
00000370: 2cd8 afbc c085 43bb 041f c73c 7cce 73bd
00000380: 3092 43bc 6c0e 04bd da27 773d d018 f4bb
00000390: d0be 3cbc caeb 563d e2c8 123d 2aa4 1c3d
000003a0: 7894 66bc f45f 7abd 4cd3 a5bc 3cb4 00bd
000003b0: e4ed b23c b858 12bc b815 b13c 8816 f63c
000003c0: d6b7 72bd bafb 28bd 205f b73b 5082 abbb
000003d0: a0f8 cbbb a026 293b 4425 aabc f045 103d
000003e0: e2e8 1ebd 70d2 a83b 049c 91bc e062 b4bc
000003f0: 62a6 753d 30f2 8bbb 2460 4e3d fabf 64bd

network.6.bias f4 [7]
-0.05163829 0.010812983 0.022526748 -0.034746364 -0.050909325 0.002173625 0.020803645
00000000: ac82 53bd f028 313c 048a b83c 3452 0ebd
00000010: 4c86 50bd 6073 0e3b 686c aa3c
