models/berkeley_real_dr_model.pth (torch, 464029 bytes, 18 tensors)

policy.0.weight f4 [256, 15]
00000000: 0016 583e 7f56 b5bd 998b 94bc 9524 253d
00000010: c17e 0f3e 0af2 73be 9b1d 073e d8cd 473c
00000020: 5755 70bd cf65 15bd 7b43 733e a787 ef3c
00000030: 41df 74be 669e a8bd 1527 a1bc 781a 4b3e
00000040: fc1a c1bd f4e8 4ebd b859 60be 8eaa 703e
00000050: a4d6 83be f3de 4ebe 6ab4 293c cde1 3ebe
00000060: 245d 66bc b628 26be 165f 283e 13bb 1c3b
00000070: 0c60 113e d138 6abe 1702 44be 27b3 de3c
00000080: 53b3 49be b5c4 e9bd 1489 6abd 94d9 10be
00000090: d6df 57bd 7fe4 39bd ceff 79be 3c7b 10be
000000a0: a757 a2bc 5bb8 8bbe 8bec 07be 9b40 3ebe
000000b0: 9a56 d43d e604 18be 1098 ef3d f0c9 fd3d
000000c0: 1993 67be 86fa 0e3e 1325 363b 8cc4 673e
000000d0: 5f67 6aba 0b25 c6bd 83cd b73d ded0 d93d
000000e0: fb00 b7bd 847f 763e 49bd 64be d477 7cbd
000000f0: 4e90 d4bc c0f2 6b3e 36ef 573d 3d6d 3fbe
00000100: 5a73 e9bd 9675 23be e895 b3bd 16ba 04be
00000110: 7f89 e5bd 7762 163e bcff ca3c b46b 353e
00000120: 5cfd 07be 3856 5d3b 5e58 f7bd 765c 95bd
00000130: 0567 993d 665f 61bd f4ae 503e 5116 573e
00000140: 1363 723e 5722 923d d512 a73d fc44 76be
00000150: 22a6 e93d 95cf ae3d e8ab cebd 2410 153e
00000160: 3f58 893e 01bf 22be 44a9 3cbd 429a 7c3e
00000170: cd1f c3bc f1e1 713e a0ed ebbb 2c12 7e3d
00000180: d76d 823e 0122 e33c da04 543e 6456 fc3d
00000190: 7e83 0abe eb5e 10be c035 f53d 469b 4fbe
000001a0: 671b 1ebe 4d7b acbc 9b6f 383e 7d78 10be
000001b0: c6f2 41be ab47 433e bbe1 9abd 0251 b0bd
000001c0: dad4 1dbe 94a7 04bd ea34 53ba 91c7 243d
000001d0: f692 863b 5d55 733e 0e84 e3bc be03 7dbe
000001e0: 3300 293e eb27 563d 51c4 623e 09df 7c3e
000001f0: fa53 e63c 1d51 3a3d e2f1 2b3e 5bfc dfbd
00000200: 0cce 77be 9700 693e 6529 c5bd c509 6cbd
00000210: 1212 6c3e 8b9c 8d3c df6f f83d 05d3 3fbe
00000220: 2ffb c8bb b377 093e 68e0 84bd 4c77 503e
00000230: 6fc7 62be 174c f33d 4b65 d1bd e4f6 0a3d
00000240: f4c6 0f3e 203a 003d 20c0 73be 58e6 783e
00000250: 77fb 4ebd 52ba 123e 76bf 143e b561 85bc
00000260: 4817 58be 2473 723d 6e08 533e 2fee 79be
00000270: 8879 25be 1314 6e3d 8ca4 81be b9ce 113e
00000280: 9bfb 98bc 0672 023c 7487 66be d9ad 573e
00000290: 07d6 66be 89c5 f13c e19a 443e 20bd 2cbe
000002a0: 53ff c03d 06bc 24be e474 603e 373f 3b3d
000002b0: 1f19 6f3a b322 0a3e c976 79bd 82f7 7dbe
000002c0: ec23 96bb e992 e6bd 1393 8bbd 1e84 f7bd
000002d0: ad76 be3d 2e48 2f3e ebf6 4a3e e696 f93c
000002e0: ef33 6bbe d8aa 0a3d 0e4d 343e 4d69 773e
000002f0: 0fc5 4e3e 0741 68be 5f2a c43c a163 d63d
00000300: cbcd a43d 2281 fa3c 1886 5d3e 8330 24be
00000310: 79f5 363e 6951 0e3e 9a81 ddbb fb77 6ebe
00000320: 9e8a e6bd ea19 86bd 7ebd 463d fb42 7ebe
00000330: 82ea d0bd e4b2 4ebe aee1 463c ba69 0dbe
00000340: 6e78 a2bd f309 093e 62c5 3c3e 84d7 33be
00000350: 1df3 3dbb f36c 553d 2f93 153e 5e50 e7bb
00000360: 9ff0 543e b2bf 8abd 0be2 6abe f85d c0bd
00000370: ec51 abbc 184a 1fbe 1b15 bcbd 8820 6ebe
00000380: 7f50 2abd fa52 093e 6f0f 34be b706 48be
00000390: f36a 86bc bda2 553e 80d2 653e 0765 aa3c
000003a0: 7d46 4ebe 975e 02be b079 f13d 559a 323e
000003b0: 9243 3a3d 86bc f33d a949 ff3d 0a35 12be
000003c0: c7d8 fc3d bbba c83d 406f fc3c a3de 7ebe
000003d0: 2325 603d 9e9f d03d a085 e7bd baa5 6a3d
000003e0: 5765 35be f117 433d 3440 433e 4049 763e
000003f0: 4310 7b3e 5a5b e13d b749 6abe 5a0e 83be
0.21102142 -0.088543884 -0.018132972 0.04031809 0.14013197 -0.238228 0.13194887 0.012195073
-0.058675136 -0.036474045 0.2375621 0.029239489 -0.2391329 -0.08233337 -0.019671956 0.19834316
-0.09428975 -0.05051513 -0.21909225 0.23502561 -0.25749695 -0.20202236 0.0103579555 -0.18640824
-0.014060292 -0.16226467 0.16442522 0.0023915216 0.14196795 -0.22873236 -0.19141422 0.027185036
-0.19697313 -0.11414472 -0.057259634 -0.141455 -0.0527037 -0.045383926 -0.24413988 -0.1410951
-0.019817187 -0.2728909 -0.13273828 -0.18579333 0.103680804 -0.14845619 0.116989255 0.12392032
-0.22614707 0.13962755 0.0027793094 0.2263357 -0.0008941795 -0.09675034 0.08974745 0.106355414
-0.08935734 0.24072081 -0.22337832 -0.061637715 -0.025947716 0.2304182 0.052718364 -0.18694015
-0.11398955 -0.15962824 -0.08768827 -0.12961611 -0.11207866 0.14685999 0.024780147 0.17716867
-0.13280243 0.0033773314 -0.120774016 -0.07293026 0.074903525 -0.05502262 0.2037924 0.21004607
0.23670606 0.07135456 0.08157889 -0.24049753 0.114086404 0.08535687 -0.10091382 0.14556938
0.2682514 -0.15893175 -0.04605986 0.2466822 -0.023818875 0.23621346 -0.007199958 0.06202905
0.25474426 0.027726175 0.20704976 0.12321165 -0.13526723 -0.14098708 0.119731426 -0.20274076
-0.1544014 -0.021054888 0.18011324 -0.14108463 -0.18940267 0.19070308 -0.07562586 -0.08609201
-0.15413228 -0.032386377 -0.0008056896 0.040229384 0.0041068746 0.23763032 -0.02777293 -0.24708459
0.16503982 0.052284162 0.22145201 0.24694456 0.028116215 0.045487512 0.1679149 -0.10936805
-0.24199694 0.22754131 -0.09627036 -0.057626504 0.23053768 0.01728656 0.12130713 -0.18732841
-0.006133459 0.13424568 -0.064881146 0.20358008 -0.2214639 0.11879747 -0.10224398 0.03392686
0.14040738 0.031305432 -0.23803759 0.24306619 -0.050532784 0.14328888 0.14526162 -0.016281942
-0.21102631 0.059191838 0.20608684 -0.24407266 -0.16159642 0.058124613 -0.25320852 0.14239015
-0.018674662 0.007961756 -0.22512609 0.21062411 -0.22542582 0.029513137 0.19199707 -0.1686902
0.09423699 -0.1608735 0.2191959 0.045714583 0.000912087 0.13489799 -0.060904298 -0.24801448
-0.004581919 -0.1125849 -0.068151616 -0.12085746 0.09299979 0.17117378 0.19820754 0.030467462
-0.2296903 0.033854336 0.17607519 0.24161263 0.2019236 -0.22681056 0.023945985 0.104682215
0.080470644 0.030579153 0.21633184 -0.16034131 0.17867078 0.13898243 -0.0067598345 -0.23287956
-0.11256908 -0.065479115 0.048520558 -0.24830239 -0.10200979 -0.20185429 0.012138767 -0.13809863
-0.079331264 0.13382702 0.1843467 -0.17562681 -0.0028984018 0.052105855 0.14606927 -0.007059141
0.20794915 -0.06774844 -0.22937791 -0.09392923 -0.020913087 -0.15555608 -0.09183713 -0.23254597
-0.041580673 0.1341056 -0.17584012 -0.19533812 -0.01640842 0.20862861 0.2244358 0.020800127
-0.20144077 -0.12731396 0.11790788 0.17441685 0.045474596 0.11901192 0.124652214 -0.14278045
0.123460345 0.09801241 0.030814767 -0.24889617 0.054722916 0.101866946 -0.11304784 0.057286955
-0.1771444 0.047630254 0.1906746 0.2405138 0.24517922 0.11003752 -0.22879682 -0.25596887

policy.0.bias f4 [256]
00000000: f9a5 5bbd de8c 04be ddac 91bc 50cf 80bd
00000010: 845f 083e cec0 82be 633e 16be d38a 7a3e
00000020: d4f5 cd3d 2d19 7a3d eff0 75be cbaa b23d
00000030: 4408 c5bc f12f 7ebc 547c 6a3e 6ab6 9cbd
00000040: d62c 643e f5b3 04be 501d 79bb b2e5 e3bd
00000050: 6857 c5bc 9f90 6d3d 0192 683e cd5e 8cbd
00000060: 2aae e13b 55ff 10be aeac ecbd b66e a3bd
00000070: 32ed ecbd 15d5 ddbc a663 c53d 0e02 c93d
00000080: 2d50 51be 74c6 883d 77aa b73d e6de 283d
00000090: 7d81 44be 707c 7a3e a549 d23d 8155 f63d
000000a0: 5550 4fbe 4738 e6bc 7649 12be 3689 1a3e
000000b0: ded1 243e f56e 28bc 066b fa3d 5e61 2f3d
000000c0: 2f79 1bbe b63a 94bd 1896 d53d c449 1cbe
000000d0: 9b9c 7c3e 5541 0c3d d4f9 f33d 1734 003e
000000e0: c09c 7cbc 1e24 613e f3e7 83be 21bd 163e
000000f0: f78f 0bbe 7254 ee3d f005 d7ba b3f8 133e
00000100: e535 5c3e 6b3a 20be e982 aabc 4940 6fbe
00000110: 94f2 073e fb74 70be 50c7 72bd 2b26 60be
00000120: 55d5 60be b449 793e e45c 913d cad1 4a3e
00000130: a00d f33d 4ed1 3d3e 3c2b d8bd 4735 2f3c
00000140: 0d42 053e 01bf e73c 5b80 75be 4445 513d
00000150: a38b b63c 8932 d2bd 11c2 38bd c930 293e
00000160: 1d20 21bd 08a7 5a3e bb56 aabd d4bf 973d
00000170: c229 813e 2c5b 673e d5f0 063d 688b 4e3e
00000180: d98a 3dbe 5c51 0b3e 437b ff3b ea17 0e3e
00000190: 8c4b e3bb dbeb f43d e79b dfbd aeff b83d
000001a0: 4cdd 2cbe 6fa7 5f3e 69db 87bc c16e 5abe
000001b0: 7fe3 4ebd a7e0 e8bd da01 763e 27f7 733e
000001c0: 5ba8 603e 6b6b cabc 5d2d 2d3d b6a0 c4bd
000001d0: 2ba1 06be 104f 3e3e c62a 213c bf7e 023e
000001e0: 015d cd3c 60d7 aabd 14b0 7b3d b565 403e
000001f0: 339c 1fbd df52 4dbd 9bcf c73c f2bf dbbd
00000200: dfb2 7ebd 0679 71be bef0 0cbd b2d0 69be
00000210: f315 2a3d 283e 373d 4cea 72bd ba20 193c
00000220: c02e 993d 5579 3d3e a466 14be 3086 033e
00000230: ea0e a7bb 77f8 003e 5993 d9bb 9b8a c4bd
00000240: 557c 1cbd 52f2 86bd ea0c b6bd 251d 92bc
00000250: 09ca 5639 99c9 523e d803 a7bc 6f94 08be
00000260: 137b 203e db3f 783d e9ed 563e 84f4 2b3d
00000270: 10e4 7e3e 9ddf 793e 02a5 97bd 3d1b 5b3e
00000280: fa23 a13c 852c 773e 0e4f c83d 3fc5 743e
00000290: 322f a8bd 15ba 39be 9875 ebbd 8526 3bbd
000002a0: d097 8f3b a2c0 f73c f261 38be 3e6a 0fbe
000002b0: 97ff 79be 2640 ad3c 5a07 e8bd 4f1e 6b3e
000002c0: c9bf 023e 4cc6 15be 89aa 3bbe 12b7 0c3e
000002d0: 1d22 0fbe 52ed 74be f931 06be 2573 4dbe
000002e0: c742 0dbc 0dbc 58be 512b c2bd 83ab c5bd
000002f0: 0e75 193d e4b0 97bd e46e 45be 5abf bbbb
00000300: 7f42 dcbd 35e4 7c3e 7968 da3d dba5 02be
00000310: 0fab 493c b59c 16be 9e43 33be 1a8e 113d
00000320: 048a 40be e32d fabc fc84 6a3d b3ac 3bbe
00000330: 18b9 80be 2257 4dbe 35cd 6ebe 4391 83bc
00000340: e189 33be c057 65bd 416d 193e 3160 a13d
00000350: b0df 4dbc 99ea 5bbe 9653 603d 0ee5 3abd
00000360: 90a7 d9bd 4d56 973d 2522 783e fea4 be3d
00000370: 6028 343d 0c1c d8bc 88ac 363e 5adb f93c
00000380: c73a 8dbd ee34 26be 26a8 69be 0763 80be
00000390: 70ca 24be 07c1 3c3e 7a6e 6e3e e710 723e
000003a0: a5c5 df3d 54a4 cbbd 6302 3c3e 1926 0c3e
000003b0: 763d 35be df58 143b af18 8f3d 0b56 423e
000003c0: ffc1 5f3d fbde a83d fbb1 fabc f608 713e
000003d0: e896 14bc 3a36 88bd e102 9f3d 605a f9bd
000003e0: 3bee 243d a418 6abe 3638 e4ba c8a6 3a3e
000003f0: b05c 513d 9ea8 123e 9516 53be 0086 aabd
-0.05362508 -0.12944362 -0.017782623 -0.06289542 0.13317686 -0.25537723 -0.14672236 0.2446702
0.100566536 0.061059166 -0.2401769 0.087239824 -0.024051793 -0.01551436 0.2289899 -0.0765198
0.22282729 -0.12959273 -0.0038011856 -0.11127795 -0.02408953 0.05799925 0.22711946 -0.06854019
0.006887217 -0.14159901 -0.115563735 -0.07980101 -0.11568679 -0.027079144 0.09638147 0.09814845
-0.20440741 0.06678477 0.089680605 0.041228198 -0.19190021 0.24461532 0.10267953 0.12028027
-0.20245488 -0.028103007 -0.14285836 0.15091404 0.16095683 -0.0102803605 0.12227444 0.042817466
-0.15182947 -0.07237761 0.10429019 -0.15262514 0.24669115 0.034241993 0.11912885 0.1251987
-0.0154182315 0.21986434 -0.257629 0.14720584 -0.13629137 0.116372004 -0.0016404968 0.1445034
0.21504934 -0.15647285 -0.020814376 -0.23364367 0.1327613 -0.23482125 -0.05927211 -0.2188956
-0.2195638 0.24344522 0.070977956 0.1980659 0.11867833 0.18536875 -0.10555121 0.010693855
0.13013478 0.02828932 -0.23974745 0.051091447 0.02228338 -0.10263545 -0.04510695 0.16522516
-0.039337266 0.2135278 -0.08317324 0.07409635 0.2522717 0.22593373 0.03294452 0.20170367
-0.18509997 0.13605255 0.0077966764 0.1387631 -0.006936496 0.11959048 -0.10918408 0.09033142
-0.16881293 0.21841215 -0.016584115 -0.21331312 -0.050509926 -0.11370974 0.24024144 0.2382475
0.21939223 -0.024709424 0.04227959 -0.09600966 -0.13147418 0.18584847 0.009836858 0.12743662
0.025068762 -0.08341861 0.061447218 0.18788798 -0.038967323 -0.05012786 0.024390986 -0.1072997
-0.062182304 -0.23581323 -0.034409277 -0.22833517 0.04152484 0.04473701 -0.059305474 0.0093461815
0.0747962 0.18503316 -0.1449228 0.12844157 -0.0050982134 0.12594782 -0.0066398797 -0.095967494
-0.03820451 -0.06589188 -0.08889182 -0.017836163 0.00020483894 0.20584716 -0.020387575 -0.13337873
0.15671949 0.060607772 0.20989193 0.041981235 0.24891686 0.24401708 -0.074045196 0.2139711
0.019670475 0.24138077 0.097807035 0.23903368 -0.08212127 -0.18137391 -0.114970386 -0.045691032
0.004382111 0.030243222 -0.18006113 -0.14005372 -0.24413906 0.021148752 -0.11329527 0.2296078
0.12768473 -0.14626426 -0.18326773 0.13741711 -0.13977857 -0.23918656 -0.13105 -0.20063455
-0.008621878 -0.21165486 -0.09480918 -0.09651854 0.037465148 -0.07406786 -0.19280583 -0.005729598
-0.107548706 0.24696429 0.10664458 -0.12758581 0.01230885 -0.14708216 -0.17506263 0.03553591
-0.18802649 -0.030539459 0.05725573 -0.18327598 -0.25141215 -0.2005277 -0.23320468 -0.016060477
-0.17533065 -0.055991888 0.14983083 0.07879675 -0.012565538 -0.2147621 0.054767214 -0.0456286
-0.10627663 0.073895074 0.24231775 0.093088135 0.043983817 -0.026380561 0.17839253 0.030500103
-0.068959765 -0.16231129 -0.2281805 -0.25075552 -0.16092849 0.18433009 0.23284331 0.2363926
0.109263696 -0.099434525 0.18360285 0.13686408 -0.17699227 0.002263598 0.0698713 0.18978135
0.05462837 0.08245655 -0.030602446 0.23538575 -0.009069182 -0.06650968 0.07764221 -0.12175441
0.040266257 -0.22860962 -0.0017411772 0.18227684 0.051113784 0.14322135 -0.20614083 -0.0832634

policy.2.weight f4 [128, 256]
00000000: ce1b 7cbd a862 0e3c 976f ab3c 2635 803d
00000010: c5c3 783d a71c 56bd d2d2 23bd 70c1 56bd
00000020: c045 15bc 7ac7 19bb 2088 97bc 0054 2e3d
00000030: 34cc 733d c31f 0abb 8865 81bc 529d 71bd
00000040: 3de1 43bd 43e6 0bbd 0612 363d 7dd5 30bd
00000050: 09c5 89bb 0fc4 86bd 89db 2b3d b135 5bbd
00000060: 939d 3bbd a25c e93c 51b1 523d 6075 c43b
00000070: 702d 883b bc7e b0bc 2a6d 23bc f4c6 783d
00000080: cce3 ebbc e8d2 23bd aaca 673d 9de5 fd3c
00000090: fe0d a93c 24f7 d73c e036 7dbd cfcb a9bb
000000a0: 2d5d 803c fd30 40bd adad b8b9 fce4 703d
000000b0: b976 ca3c 0866 393c 60f0 e63b 4eeb 7cbd
000000c0: 5174 15bc 0f5c 85bc 3d57 f93c 00d9 843c
000000d0: 9c08 e9bc b4c1 59bd 404c a03c 2e87 293d
000000e0: c0ce 4d3b 58c5 09bc 1894 38bd f391 b7bc
000000f0: cc7a ac3c aebb 55bd d810 cfbc b025 cebb
00000100: d8f7 af3c 101c 03bd 566f 0c3d 825f 1abd
00000110: c424 38bd 4219 93bb c0d9 7c3b 70e5 a4bb
00000120: 80c4 d83a 554a 4e3d cfea 373d d0b2 49bd
00000130: 44cd c4bc 25f1 dd3c 1054 d0bb a03d 603c
00000140: 64f4 1b3d bccb 6c3d aa09 763d 5606 193d
00000150: 4f11 6abd 568b 5ebd 22cb a6bc e8d7 ac3b
00000160: a015 00bd 012c 583d a2bf 46bd d0f5 843b
00000170: 98ae 283c 5630 ff3c ebce 7ebb 0aaf 593d
00000180: 14f3 4c3d e442 19bd a6b1 34bc a6cd 5bbd
00000190: efbc 4f3c 8ad9 42bd 2c49 78bd 9ce2 873c
000001a0: b221 61bd 814c 62bd e210 56bd 762e 1ebd
000001b0: 8d00 573b befe 373c 0cb4 ddbc e206 e53a
000001c0: ef6e 953c 18f1 283c e292 673d 44c8 cd3c
000001d0: 5022 54bd 1e7d 04bd e3da ee3c e59f 183d
000001e0: 020b 3e3d bbe9 8ebc e6a5 56bd 5cd8 bc3c
000001f0: b00a 823b 5caa 0a3d fe8e 3f3c 0724 d43c
00000200: 58a7 eabb f2b5 0e3d 4fd0 15bd 11ca 60bd
00000210: 384d c33c 0042 c939 644c 5c3d 9282 7f3b
00000220: adcf 803c 747c 843c 64f6 f63c e71a 593d
00000230: 6877 8e3d a6ff c6bc bfa9 773c bc62 913c
00000240: d0fc 493c 5116 123d ac24 bf3c 7458 b9bc
00000250: e087 5ebb ceac 55bd ec0e 253a 83c1 953b
00000260: 6e31 0b3b 4581 903d 3802 dd3c 2b08 443d
00000270: 5f40 5a3c 581b f6bb 2473 91bc 274f b8bc
00000280: 9cf6 543a 545a f4bc c721 20bc f70f a039
00000290: 188e 76bc e15b 553d e69b 083d d5be d6bc
000002a0: 3081 57bc 8ea5 523c 6416 06bd 3652 61bd
000002b0: 50a3 7d3c ba51 353d 6907 463d a21c 6bbd
000002c0: c84e 053d fbee 0c3c 00c8 e239 3db7 56bb
000002d0: 96a0 593d b48b e4bb 877c abbc 5825 103c
000002e0: 2bc5 ee3c f0a3 1b3d d453 da3c 9c5b f8bc
000002f0: aa2d e63a 9321 893c c8f3 6c3d a577 1f3c
00000300: 84a5 6a3d 0470 ea3c 3776 a33b 4a49 50bc
00000310: 3127 513d 1667 1ebd 5af0 46bd 1273 613c
00000320: 99ab 81bd 7918 38bb 06ef 653d 0f40 293d
00000330: f810 a83b 68cb 01bd 24b8 bbbb a2e5 463d
00000340: 2007 35bd 8887 70bc 40c2 463d 2f88 d53c
00000350: f07f 1fbd 686a 8f3c e733 2fbd ce4c c33c
00000360: 9c32 60bd a739 2bbd 8ff7 33bd 64e5 53bc
00000370: f8b5 b63c e343 973c caa6 3e3d 80fb f63a
00000380: bc38 25bb e7b9 fcba 6ec3 88bb f042 0d3d
00000390: c42d 46bd 4221 423d 249d 76bd 80a3 823d
000003a0: c643 6c3d 48ba 6a3d 2c61 01bb cd2a df39
000003b0: ca3f 14bd 4676 91bc 5bd4 6e3d ec13 d83c
000003c0: a5c2 aabc 1a88 393d d820 08bd 59af 6bbd
000003d0: 54cc a8bc 5781 52bd 6434 573d bf4e 023d
000003e0: 8ef5 2a3d 9a18 12bd d06b 673c 7797 8c3c
000003f0: a279 a23a ee00 243d c478 833c 991a acbb
-0.061549954 0.008690514 0.020927234 0.06260137 0.060733575 -0.05227342 -0.039995976 -0.05243057
-0.009110868 -0.0023464845 -0.018497527 0.042560577 0.059520915 -0.002107606 -0.015795484 -0.058987923
-0.047822226 -0.03415514 0.044450782 -0.04317235 -0.0042043966 -0.06580364 0.041957412 -0.053518
-0.04580457 0.028486554 0.051438633 0.0059954375 0.004155807 -0.021544807 -0.009974757 0.06073661
-0.028795145 -0.039996058 0.05658976 0.030993277 0.020636555 0.026362963 -0.06181991 -0.0051817666
0.01566943 -0.04692172 -0.00035224613 0.058812127 0.024714814 0.01131583 0.007047698 -0.06174784
-0.00912197 -0.016279249 0.030437106 0.016216755 -0.028446488 -0.053163245 0.019567609 0.041388683
0.003140375 -0.008408867 -0.04506311 -0.022408461 0.021054648 -0.05218094 -0.025276586 -0.006291114
0.021480486 -0.032009184 0.034285866 -0.03768874 -0.044956937 -0.004489095 0.0038581938 -0.005032234
0.0016538054 0.050363857 0.044901665 -0.049242795 -0.02402366 0.027092526 -0.0063576773 0.013686568
0.038074866 0.057811484 0.06006781 0.037359558 -0.057145413 -0.0543321 -0.020360533 0.0052747615
-0.031270623 0.05277634 -0.0485226 0.0040576234 0.010295533 0.031150978 -0.0038880657 0.053145446
0.050036505 -0.037417307 -0.011028683 -0.05366292 0.012679323 -0.047570743 -0.060616657 0.016587548
-0.054963775 -0.05524874 -0.052262194 -0.038618527 0.0032806725 0.011230169 -0.027063392 0.0017473365
0.018241374 0.0103113875 0.056536563 0.025119908 -0.051790535 -0.032345884 0.029157108 0.037261862
0.046397217 -0.017445436 -0.052404307 0.023052387 0.003968559 0.033853874 0.011691807 0.025896085
-0.007161062 0.034841485 -0.03657561 -0.054880206 0.023840532 0.0003838688 0.05378379 0.0038987738
0.015724028 0.016172625 0.030146785 0.05300417 0.06956369 -0.024291825 0.015116154 0.017747276
0.012328342 0.035665814 0.023332916 -0.022625186 -0.00339555 -0.052166753 0.0006296474 0.0045701875
0.002123918 0.07055906 0.026978597 0.047859352 0.013321011 -0.007510584 -0.017755099 -0.02249868
0.0008123906 -0.029828228 -0.009773678 0.00030529473 -0.015048526 0.052089576 0.0333518 -0.026214043
-0.013153359 0.012856854 -0.032736197 -0.055010043 0.015480831 0.044267394 0.04834691 -0.057400353
0.032545835 0.008601899 0.0004325509 -0.0032763027 0.053131662 -0.0069746617 -0.020933403 0.008797966
0.029146751 0.03799814 0.0266513 -0.03031712 0.0017561216 0.016739642 0.057849675 0.009733115
0.057286754 0.028617866 0.0049884575 -0.012712786 0.051062766 -0.03867253 -0.04856906 0.013760345
-0.06331558 -0.0028090759 0.056136154 0.041320857 0.005128976 -0.031688124 -0.0057287384 0.04855884
-0.044196248 -0.014680751 0.048525095 0.026065914 -0.03894037 0.017506793 -0.042774107 0.023840334
-0.054735765 -0.04180303 -0.043937262 -0.012933109 0.022303566 0.018464988 0.04654578 0.0018843263
-0.0025210818 -0.0019281477 -0.0041736877 0.034487665 -0.04838349 0.047395 -0.060208455 0.063788414
0.05768182 0.057306558 -0.0019741757 0.00042565764 -0.036193646 -0.017756592 0.058307987 0.026376687
-0.020844767 0.045295812 -0.033234447 -0.05754027 -0.020605244 -0.05139288 0.052540198 0.03181338
0.041738085 -0.035667993 0.014124826 0.017162068 0.0012395869 0.04003995 0.016048796 -0.005252194

policy.2.bias f4 [128]
00000000: 52af fdbc 3d48 65bd 89c6 2bbd a487 74ba
00000010: 20d9 1ebb d012 71bd 5062 b6bb d6fe 4abd
00000020: 67b8 49bc a0ee 383c 45a7 c1bc 4576 7dbd
00000030: 7816 53bd 69b9 d93c dd41 99bc 00cf 93bb
00000040: 940c b9bb fc02 cabc de51 73bd e8ac a93c
00000050: 3f93 713d 12bd 3abd 84d0 f73c fc54 173d
00000060: d898 243d e866 6e3c 1cf2 5bbd 90f8 a3bc
00000070: 60bd 9c3c 08b3 31bc 772b 1fbc 4c73 4bbd
00000080: 12fd b5bc f123 5fbd 87de 0abd 79ec 7a3d
00000090: 5e36 a83c ada3 ef3c 7836 3ebd 0021 5abb
000000a0: 69f5 e13c 78ad 373c 40a4 6e3b 84bb 27bd
000000b0: 1081 09bc 7c78 1dbd 0969 6d3d fd16 003d
000000c0: df2b 003d e876 dbbc 08b3 4cbc ca6c 823d
000000d0: ea7a 403d 3854 c9bc b3d0 5e3d 6d82 2d3d
000000e0: 9154 45bd c4c3 bbbc d022 f9bb 8285 68bd
000000f0: cc13 97bc ecb0 02bd f500 19bd 3a71 4b3d
00000100: c0a6 ab3a 2cc5 edbc 971b 0a3d 3a65 7bbd
00000110: a6b3 c8bc 9887 403c 8565 da3c d95b ecba
00000120: c0cc 683b e8ef 513c ce43 45bd edb8 dc3c
00000130: 3446 f3bc dcff 88bc 0dd2 463c 406b ffba
00000140: f605 4cbd 3497 c4bc 6017 c63c ebc3 b23c
00000150: e066 773c fa00 0a3d 5ed5 f1bc f4ae 4ebd
00000160: b204 dfbb a4b2 f2bb 244c 3a3d 34f0 ff3c
00000170: ac2e cc3b 9602 92bc 6a85 013d 7f60 1abd
00000180: b687 303d e97f 5ebd 1824 5e3c 1163 083b
00000190: c600 57bd c8b3 e83c 75af 5b3c ecb1 933c
000001a0: 78c6 003d 09df dbbb 3617 82bc 6a36 92bc
000001b0: 80c9 e9bc f306 9abc 68d1 0dbd 9661 163c
000001c0: 4038 173d 8062 263c e096 0c3d 97f7 a6bc
000001d0: 37e4 aabc 0e4e 513d f47b 083c 4016 e3bc
000001e0: e010 683c 4235 243d 646c 40bd 9a80 74bd
000001f0: b94a 163c 9b57 273d c150 6bbd f768 77bd
-0.030967388 -0.055977095 -0.041937385 -0.00093280734 -0.0024238303 -0.05885583 -0.005565919 -0.049559437
-0.012312031 0.011287361 -0.02363933 -0.06188037 -0.0515351 0.026577668 -0.018708164 -0.0045107603
-0.0056472514 -0.024659626 -0.059404247 0.020712331 0.058978315 -0.045590468 0.030250795 0.03694628
0.040184826 0.014550902 -0.05369769 -0.020015985 0.01913327 -0.010845907 -0.009714953 -0.049670503
-0.0222154 -0.054477636 -0.033903625 0.061260674 0.020533737 0.029252851 -0.046438664 -0.003328383
0.027582841 0.011210792 0.0036413819 -0.040950313 -0.008392587 -0.03844498 0.057961497 0.031271923
0.03129184 -0.026790097 -0.012493856 0.06368406 0.04699222 -0.024576291 0.05439825 0.04236071
-0.048176352 -0.022920497 -0.007603027 -0.056767948 -0.018442057 -0.031907007 -0.03735443 0.04966853
0.001309596 -0.029024683 0.033717718 -0.061375834 -0.024499726 0.011751078 0.026659736 -0.0018032744
0.003552243 0.012813546 -0.048160367 0.026943648 -0.029696561 -0.016723566 0.012135041 -0.0019486919
-0.049810372 -0.02399788 0.024181068 0.021821937 0.015100211 0.033692338 -0.029520687 -0.050459817
-0.0068059796 -0.0074065495 0.04548277 0.031242467 0.0062311497 -0.017823499 0.031621374 -0.037689682
0.043098174 -0.054321203 0.01355841 0.0020811001 -0.052490972 0.028406039 0.013408531 0.018029176
0.031439275 -0.0067099375 -0.015880208 -0.017848212 -0.028538465 -0.018802142 -0.034623533 0.00917854
0.03691888 0.01015532 0.034323573 -0.020381732 -0.020860774 0.05109983 0.008330334 -0.02772057
0.01416418 0.040089853 -0.04697837 -0.059692957 0.009173089 0.04085503 -0.05745006 -0.060402837

policy.4.weight f4 [7, 128]
00000000: c26f c93c 8ea7 493d a363 18bd eb52 073d
00000010: 7717 143d 7511 67bd 7915 8dbd b5ad 873c
00000020: 87ac 5abd 1069 1bbd 3874 9a3d 24c3 49bd
00000030: aee6 d5bc b686 81bd a07f 47bc fb6d e73c
00000040: f44d f13c cfe0 5c3d a358 d7bc 48fe a2bd
00000050: dcc4 55bd 9178 af3d 2477 67bb 309d ad3c
00000060: df3a b1bd f2ee a13d ea37 853d f2ff a9bb
00000070: 5433 75bc 851c 5a3d 64ae 863a 66c2 ae3d
00000080: f7bb 2fbd e49d 2a3d a82a b2bc 5e6c 7f3c
00000090: b7d3 b23d 9c2b dabb 922e 4c3d c718 3c3c
000000a0: 6b5c bd3c e702 b13d 6e30 cb3c d692 c1bb
000000b0: 31df 0b3d e47e 7f3d af88 243d cd26 febc
000000c0: c79d c7bc 011d 923d 3686 4bbd f423 52bd
000000d0: 19d5 2339 84e6 07bd 7d53 1a3d 3cf1 f63c
000000e0: 9368 4bbb c376 a4bd e5e6 97bc f134 b43d
000000f0: d273 eabc d879 28bd 98fc 99bd b486 af3d
00000100: 8c16 923c 40c5 4c3d 1df9 9d3d 0c12 d8bb
00000110: 160d b3bd 07c6 9e3d cb76 023d 2555 48bc
00000120: deb2 933d 989b 9e3c 09c9 4cbd 08f1 ad3b
00000130: 6821 a6bd 71f5 8ebd 6fff 813d a113 643d
00000140: 8079 bf3c 9550 1b3d 8895 e3bb 53d6 8ebd
00000150: 5a13 dcbc 3a93 75bc c78f 93bc 3db8 713d
00000160: 3cc3 55bc 2e0b 8ebd 1cf5 223d 7eb4 81bd
00000170: e0a9 663d c20b eb3c 3fd3 a2bd 87ae fb3a
00000180: dbbc 0f3d b14b 3f3d 8183 8d3d 0bdd 65bd
00000190: d571 1a3d 0e58 813d 9f52 ac3d b7d5 15bc
000001a0: fbc6 d7bc b73b 6fbd 79e5 e0bc 2b0b 64bc
000001b0: 861c 18bd 05d2 a73d 6046 1d3b 29a6 a6bd
000001c0: 4777 073d 9640 01bd c186 cdbb 939b 913d
000001d0: 9807 4fbd 8d97 ac3d 0a43 6ebc 38b0 1abd
000001e0: c830 adbd 68d1 65bd 3349 a43d 6c82 853d
000001f0: abdb a03d e408 3e3d c400 51bd 383e b3bd
00000200: 3c9d a7bd 4b9a a9bd f8c3 aebd f094 633d
00000210: e193 363d 5de6 b53c 52da ac3d 7c8b ab3d
00000220: 4ea2 31bd 6a71 613d d946 e33c 3221 8bbb
00000230: fbb0 4d3d baba 053d b91d aa3d 2a1f c03a
00000240: 91cd 723d 35d0 7d3d 603c 8c3d 3df9 8a3d
00000250: 4464 8ebd a894 893c 8a4b 8a3d 76f7 7bbc
00000260: 6150 00bc b96b 93bc a47b 3c3d 2749 b2bd
00000270: bb94 e03c e9e8 963d 6281 753d 0c7a f73c
00000280: fc14 673c 2ae3 cc3c 202b 0c3d 75ef 653d
00000290: 340f 6ebd 8ace a3bd 6e47 5d3c c015 16bd
000002a0: 7ed5 63bd 76b7 893c f21c 863d 5ba9 2a3d
000002b0: 5775 433d d16e 1cbd d9ad 43bc 93d2 81bd
000002c0: 0646 063d 7fdb 5ebb 8bc7 40bd 2923 c7bb
000002d0: 25e1 a8bd 1207 09bd eb8f b23b 3a0f 93bc
000002e0: aad8 123d 0fc2 9abd 58d2 4e3c 3d80 a63d
000002f0: 9e6c 22bd d1ef 9b3d e676 06bd 0625 84bc
00000300: 2587 0bbc 4c83 acbd e4ac 48bd af2e 2ebd
00000310: 4305 64bd 56a1 4dbd e68d 88ba 4ede 04bd
00000320: f55e 0e3d f6d5 a53d c8d2 77bb cc40 563d
00000330: 5d8c 15bd d461 5cbd 7424 a9bb 067e 993d
00000340: 0100 69bd 9036 9a3d 78d2 c7bc 49f1 aabb
00000350: 88b3 a1bc 45e3 563c 9ee1 b4bb f7c3 9ebd
00000360: 6ab0 b63b a3ef 65bc 99c0 9dbd 4e65 483d
00000370: 96e9 9ebd 109a 633d c67b ff3c e581 b13d
00000380: a412 c43b a187 0e3d 53e7 61bd 7587 5e3d
00000390: 9c7b 1ebd 2bfc 98bd 141b 843d 6d01 5dbc
000003a0: 5525 373c afdd 873d 13b7 4dbd df31 64bd
000003b0: 2adf 713d 7bbe 45bd c4ab 82bb e8a6 223c
000003c0: ad36 7e3d 3502 c03c 7ab4 b43d 4d80 adbd
000003d0: 45b5 e83c e5ef 81bd e43e 4d3a 43ca a8bd
000003e0: 9a88 e43a dc47 4abd a574 913d fdd5 72bd
000003f0: bd54 523c a94f 78bd 39de 23bd 63f8 6e3c
0.024589423 0.04923206 -0.037204396 0.03303806 0.03615519 -0.056413133 -0.06888861 0.016562322
-0.05338719 -0.037941992 0.07541698 -0.049258366 -0.026110973 -0.06324522 -0.012176424 0.028250685
0.029456116 0.05392533 -0.026287382 -0.079586565 -0.052189693 0.08567918 -0.0035318816 0.021193117
-0.08653807 0.07906903 0.065048054 -0.0051879818 -0.014965851 0.053249855 0.0010275361 0.08533172
-0.042903867 0.041654482 -0.021748856 0.015589802 0.08731788 -0.0066580307 0.0498491 0.011480517
0.023115357 0.08643132 0.024803367 -0.005907397 0.0341484 0.06237687 0.040169414 -0.031024361
-0.024367226 0.07134438 -0.04968854 -0.05130382 0.00015624276 -0.03317882 0.037677277 0.030144326
-0.0031037673 -0.080304645 -0.018542716 0.0879916 -0.02861968 -0.041131824 -0.075188816 0.085706145
0.017833017 0.0499928 0.0771353 -0.006593948 -0.0874273 0.077526145 0.03185157 -0.012227331
0.072118506 0.019361302 -0.04999641 0.005308274 -0.081118405 -0.06980408 0.06347548 0.055682782
0.023373365 0.037918646 -0.0069453157 -0.06974473 -0.026864696 -0.014988715 -0.018012894 0.059013594
-0.013047036 -0.06935726 0.039784536 -0.06333254 0.05631435 0.02869213 -0.07950448 0.0019201793
0.035092216 0.046703044 0.06909848 -0.056119006 0.037706215 0.06315623 0.08414196 -0.009145192
-0.026339998 -0.058406558 -0.027453171 -0.013918678 -0.037136577 0.08194355 0.0023998246 -0.08137161
0.033072736 -0.031555735 -0.0062721674 0.071097516 -0.05054435 0.084273435 -0.014542351 -0.03776571
-0.0845657 -0.05610791 0.08021774 0.065190166 0.07854398 0.046395198 -0.05102612 -0.08752102
-0.08184287 -0.08281382 -0.08533472 0.05556196 0.044574622 0.022204572 0.08440079 0.08376214
-0.043367676 0.0550398 0.027743744 -0.0042459005 0.05021761 0.03264878 0.083064504 0.0014657725
0.059278075 0.06196614 0.06847453 0.0678582 -0.06952718 0.016794518 0.06752689 -0.0153788235
-0.007831664 -0.017995702 0.04601635 -0.08705359 0.02741467 0.07368643 0.059937842 0.030209564
0.014104124 0.025010664 0.034220815 0.056136567 -0.058119968 -0.079983786 0.0135058 -0.036641836
-0.055623524 0.016811114 0.0654849 0.041665416 0.047719326 -0.03819162 -0.011943304 -0.06338992
0.032781623 -0.0034005342 -0.0470653 -0.0060771895 -0.08246068 -0.03345401 0.0054492853 -0.017951597
0.03585116 -0.07556545 0.012623392 0.08129928 -0.039654367 0.07614101 -0.032828234 -0.016130935
-0.008516108 -0.084234804 -0.048993006 -0.04252499 -0.05566908 -0.05020269 -0.0010418266 -0.03243857
0.034758527 0.080974504 -0.0037814844 0.05230789 -0.036510814 -0.053804234 -0.0051618163 0.0749474
-0.05688477 0.07529938 -0.024392352 -0.0052167517 -0.019738927 0.013115709 -0.0055200597 -0.07752221
0.0055752294 -0.014034185 -0.07702751 0.048924737 -0.07759397 0.055566847 0.03118695 0.086673535
0.0059836674 0.034797315 -0.05515225 0.0543284 -0.0386921 -0.07469972 0.06450477 -0.013489109
0.011178334 0.0663408 -0.05022342 -0.055711623 0.059050716 -0.04827736 -0.003987761 0.009927489
0.06206386 0.023438552 0.08823486 -0.08471737 0.028406749 -0.063445844 0.0007829501 -0.08241703
0.001743573 -0.049384937 0.07102326 -0.059286106 0.012837586 -0.060622845 -0.04000685 0.014585587

policy.4.bias f4 [7]
00000000: 73f8 ddbc 32b0 aa3d 2f4e 80bc 2168 3a3d
00000010: 229e 64bd d292 2a3d a18b 38bd
-0.027096009 0.08334388 -0.01566228 0.04550946 -0.05581487 0.041643925 -0.045055036

exp_avg f4 [256, 15]
00000000: 0000 0000 0000 0000 0000 0000 0000 0000
00000010: 0000 0000 0000 0000 0000 0000 0000 0000
00000020: 0000 0000 0000 0000 0000 0000 0000 0000
00000030: 0000 0000 0000 0000 0000 0000 0000 0000
00000040: 0000 0000 0000 0000 0000 0000 0000 0000
00000050: 0000 0000 0000 0000 0000 0000 0000 0000
00000060: 0000 0000 0000 0000 0000 0000 0000 0000
00000070: 0000 0000 0000 0000 ff7e 02b8 3ace bcb6
00000080: 8358 e337 9815 20b8 4757 25b7 2ed6 bf37
00000090: 5e2b 4835 4adb c235 3d41 adb6 f3a0 fc36
000000a0: 3362 5b36 05f0 fa34 ee1e 5eb3 b7c4 71b5
000000b0: b0cc 7335 83d5 b0b9 b3ec 0fb9 a26d 6b39
000000c0: 2680 81b9 76af 22b9 9cd5 9939 18d1 3238
000000d0: c4a1 1136 9821 02b7 ffc3 9a38 6eeb 8d38
000000e0: f5ee dc33 04ef 83b5 1e6f b637 eb04 9437
000000f0: 4aed d5b9 fd55 29b9 6571 9239 7785 a2b9
00000100: 7982 44b9 37b5 ba39 1a2e 4e38 61bd 7536
00000110: 6f54 1fb7 8a4c bb38 7681 a838 ec18 5ab5
00000120: f203 eeb5 4062 e137 e782 d337 61d4 1a39
00000130: a0b9 4e38 f906 c3b8 b4f7 f238 f258 9b38
00000140: c5b5 2eb9 2e59 ccb7 5320 0ab7 b460 e736
00000150: b6cb 1bb8 4422 f9b7 da1d 4636 6328 6936
00000160: a4fd f5b7 325b 9ab7 0000 0000 0000 0000
00000170: 0000 0000 0000 0000 0000 0000 0000 0000
00000180: 0000 0000 0000 0000 0000 0000 0000 0000
00000190: 0000 0000 0000 0000 0000 0000 0000 0000
000001a0: 0000 0000 0000 0000 0000 0000 0000 0000
000001b0: 0000 0000 0000 0000 0000 0000 0000 0000
000001c0: 0000 0000 0000 0000 0000 0000 0000 0000
000001d0: 0000 0000 0000 0000 0000 0000 0000 0000
000001e0: 0000 0000 0000 0000 0000 0000 0000 0000
000001f0: 0000 0000 0000 0000 0000 0000 0000 0000
00000200: 0000 0000 0000 0000 0000 0000 0000 0000
00000210: 0000 0000 0000 0000 0000 0000 bc58 4f38
00000220: 15c0 b237 0ed7 18b8 cfb2 2338 f092 c837
00000230: 91c8 4cb8 b723 cbb6 b5da 03b6 9100 3e35
00000240: 1000 34b7 d1d2 43b7 a315 d8b4 eb29 6934
00000250: 4b11 36b7 4b7c 1636 0000 0000 0000 0000
00000260: 0000 0000 0000 0000 0000 0000 0000 0000
00000270: 0000 0000 0000 0000 0000 0000 0000 0000
00000280: 0000 0000 0000 0000 0000 0000 0000 0000
00000290: 0000 0000 3106 04b9 d4f7 23b8 b83a 9738
000002a0: 2572 bab8 0f74 62b8 a9d6 0539 e18a bc37
000002b0: cf2d 9236 22f2 acb6 73dd ef37 4ffe d837
000002c0: afe9 54b5 1a79 57b6 c431 cd36 2f4e 4d37
000002d0: de30 c5b9 54ed 20b9 d940 8939 010b 95b9
000002e0: 6393 37b9 18f9 ac39 45e3 3238 256a 3c36
000002f0: a958 1db7 4fe1 ac38 704e 9738 4803 3eb6
00000300: 6439 e3b4 9164 0538 0b57 e337 8952 68b8
00000310: 9487 93b7 5342 2f38 4423 46b8 40ad cdb7
00000320: aa4f 1f38 cfdf 7736 3cf6 30b6 11ae 3bb6
00000330: 5468 4437 6448 df36 dcfc 3fb6 b60f abb2
00000340: e517 ba36 7525 a637 0000 0000 0000 0000
00000350: 0000 0000 0000 0000 0000 0000 0000 0000
00000360: 0000 0000 0000 0000 0000 0000 0000 0000
00000370: 0000 0000 0000 0000 0000 0000 0000 0000
00000380: 0000 0000 45d7 06b8 1269 0bb7 63d3 ac37
00000390: 5db7 10b8 914c 8fb7 cb8e 0c38 d19e e536
000003a0: cbef 1936 b108 3a35 5f71 b536 9ff8 2037
000003b0: af9c 1c36 2d84 4c36 9d41 98b7 c54e aab6
000003c0: cf64 ed38 cb05 4838 f6d5 a3b8 dd23 af38
000003d0: f7c0 6238 c4c8 dab8 7413 5cb7 4536 a634
000003e0: 587d 15b5 6cb8 dcb7 3762 adb7 27af 6335
000003f0: ac13 ffb4 a202 c2b5 f659 01b6 cee1 5c39
0.0 0.0 0.0 0.0 0.0 0.0 0.0 0.0
0.0 0.0 0.0 0.0 0.0 0.0 0.0 0.0
0.0 0.0 0.0 0.0 0.0 0.0 0.0 0.0
0.0 0.0 0.0 0.0 0.0 0.0 -3.111269e-05 -5.6268445e-06
2.7101725e-05 -3.8167083e-05 -9.855087e-06 2.286871e-05 7.4568914e-07 1.4517948e-06 -5.1633965e-06 7.528922e-06
3.2690702e-06 4.6740766e-07 -5.1716533e-08 -9.0065754e-07 9.0822414e-07 -0.00033728415 -0.0001372572 0.00022452188
-0.00024700275 -0.00015514888 0.00029341585 4.263324e-05 2.1700844e-06 -7.7564255e-06 7.379799e-05 6.767256e-05
1.0288014e-07 -9.829823e-07 2.1747834e-05 1.7645265e-05 -0.0004080332 -0.00016149129 0.00027931776 -0.00030998487
-0.00018740621 0.000356117 4.9157163e-05 3.6618078e-06 -9.496797e-06 8.9311114e-05 8.034978e-05 -8.1247595e-07
-1.773353e-06 2.6867841e-05 2.5214116e-05 0.00014765702 4.9287104e-05 -9.299623e-05 0.000115855975 7.407543e-05
-0.00016661648 -2.4360223e-05 -8.232967e-06 6.895594e-06 -3.71446e-05 -2.969907e-05 2.9521675e-06 3.4743214e-06
-2.9324387e-05 -1.8400697e-05 0.0 0.0 0.0 0.0 0.0 0.0
0.0 0.0 0.0 0.0 0.0 0.0 0.0 0.0
0.0 0.0 0.0 0.0 0.0 0.0 0.0 0.0
0.0 0.0 0.0 0.0 0.0 0.0 0.0 0.0
0.0 0.0 0.0 0.0 0.0 0.0 0.0 0.0
0.0 0.0 0.0 0.0 0.0 0.0 0.0 4.9435286e-05
2.1308699e-05 -3.643991e-05 3.9028757e-05 2.3910281e-05 -4.8824182e-05 -6.054029e-06 -1.9647825e-06 7.078134e-07
-1.0728851e-05 -1.167199e-05 -4.0248878e-07 2.1715066e-07 -1.0852072e-05 2.242409e-06 0.0 0.0
0.0 0.0 0.0 0.0 0.0 0.0 0.0 0.0
0.0 0.0 0.0 0.0 0.0 -0.00012590807 -3.9093036e-05 7.211178e-05
-8.890432e-05 -5.3990687e-05 0.00012763836 2.2476017e-05 4.356472e-06 -5.1541874e-06 2.859414e-05 2.5867628e-05
-7.931621e-07 -3.2107987e-06 6.1152696e-06 1.2237156e-05 -0.00037611177 -0.000153472 0.00026178992 -0.00028427693
-0.00017507146 0.00032991986 4.265017e-05 2.8075967e-06 -9.378572e-06 8.243566e-05 7.214851e-05 -2.8314116e-06
-4.2323802e-07 3.180333e-05 2.7101041e-05 -5.5389977e-05 -1.7586899e-05 4.178502e-05 -4.7239722e-05 -2.451858e-05
3.7982747e-05 3.6936142e-06 -2.636937e-06 -2.7966491e-06 1.1706801e-05 6.6543453e-06 -2.8608401e-06 -1.9914165e-08
5.5460137e-06 1.9806184e-05 0.0 0.0 0.0 0.0 0.0 0.0
0.0 0.0 0.0 0.0 0.0 0.0 0.0 0.0
0.0 -3.2148575e-05 -8.309509e-06 2.0602432e-05 -3.4503046e-05 -1.7082582e-05 3.3511587e-05 6.8432205e-06
2.2938355e-06 6.930305e-07 5.4074185e-06 9.59463e-06 2.3337013e-06 3.0475305e-06 -1.8150366e-05 -5.075565e-06
0.00011319818 4.768911e-05 -7.812299e-05 8.35133e-05 5.406231e-05 -0.000104324456 -1.3117551e-05 3.0959396e-07
-5.5689225e-07 -2.6311922e-05 -2.0668942e-05 8.481897e-07 -4.7511764e-07 -1.4454893e-06 -1.9274862e-06 0.00021064954

exp_avg_sq f4 [256, 15]
00000000: 0000 0000 0000 0000 0000 0000 0000 0000
00000010: 0000 0000 0000 0000 0000 0000 0000 0000
00000020: 0000 0000 0000 0000 0000 0000 0000 0000
00000030: 0000 0000 0000 0000 0000 0000 0000 0000
00000040: 0000 0000 0000 0000 0000 0000 0000 0000
00000050: 0000 0000 0000 0000 0000 0000 0000 0000
00000060: 0000 0000 0000 0000 0000 0000 0000 0000
00000070: 0000 0000 0000 0000 54e6 4434 48e4 9b32
00000080: 3c10 8633 4f71 c733 b452 1633 a81c dc33
00000090: 6c45 8231 d6ab 962f b17c 5a2f 0ff6 e231
000000a0: f05b 0832 eb44 182e 624a b02d 54eb 602f
000000b0: ffe8 7630 0a54 3435 b6f6 c633 3ad5 9834
000000c0: 2c79 d434 e20d 2a34 a0f9 1f35 eaed 7932
000000d0: 7ef1 f530 d7b8 4030 cdd3 0333 a02b 0f33
000000e0: 4395 ee2e bfa9 cc2e 9286 4131 883c 3331
000000f0: 62f1 1136 7dde 9734 722d 6b35 c036 a335
00000100: 8639 0135 e2e1 e335 9fd9 4233 66fa 9731
00000110: 1ef0 0c31 f8fe c633 580b df33 a1d5 c32f
00000120: 8f81 832f 3e29 fd31 4585 cc31 c354 9b34
00000130: 52bc 0833 4d86 ec33 8cd6 4534 b2e3 b833
00000140: ac23 d534 48d8 3332 ca27 2331 2157 1b30
00000150: c872 9032 41bd 9132 0fb1 dc2e 08a4 d42e
00000160: bf08 1f32 e788 0b31 0000 0000 0000 0000
00000170: 0000 0000 0000 0000 0000 0000 0000 0000
00000180: 0000 0000 0000 0000 0000 0000 0000 0000
00000190: 0000 0000 0000 0000 0000 0000 0000 0000
000001a0: 0000 0000 0000 0000 0000 0000 0000 0000
000001b0: 0000 0000 0000 0000 0000 0000 0000 0000
000001c0: 0000 0000 0000 0000 0000 0000 0000 0000
000001d0: 0000 0000 0000 0000 0000 0000 0000 0000
000001e0: 0000 0000 0000 0000 0000 0000 0000 0000
000001f0: 0000 0000 0000 0000 0000 0000 0000 0000
00000200: 0000 0000 0000 0000 0000 0000 0000 0000
00000210: 0000 0000 0000 0000 0000 0000 6273 0e34
00000220: 0ae7 ba32 0b59 7933 34ff 9833 43e1 f532
00000230: 29ab d733 0b94 1d31 84a5 082f 66b8 ab2e
00000240: f44e c131 e90c d531 24a5 762d faa7 552d
00000250: 4ae6 a230 e987 a130 0000 0000 0000 0000
00000260: 0000 0000 0000 0000 0000 0000 0000 0000
00000270: 0000 0000 0000 0000 0000 0000 0000 0000
00000280: 0000 0000 0000 0000 0000 0000 0000 0000
00000290: 0000 0000 706c b934 2345 2633 0b2a 2034
000002a0: e092 8634 2dc1 f033 3a22 0d35 025b 4632
000002b0: 18c7 6731 7032 5730 f8d7 be32 ad03 ae32
000002c0: d0ba c72e aa6a 222f fb56 3f30 8274 ee2f
000002d0: 508e 0136 5f96 8834 05ad 5235 ec24 9135
000002e0: 659f e534 d1e1 cb35 dbe7 2933 3d84 8e31
000002f0: 6418 fb30 06ac b133 4cb0 c533 74fe a52f
00000300: 2800 742f cc5c f831 4263 d131 195b fa34
00000310: 17f8 8933 f75d 4b34 ce0f 8834 ac51 d933
00000320: c886 bc34 a36e 1e32 ac47 4e30 e8d3 db2f
00000330: 2d16 a832 0cdf bc32 2d1b a22e 787c 622e
00000340: 6892 6431 04bc 2131 0000 0000 0000 0000
00000350: 0000 0000 0000 0000 0000 0000 0000 0000
00000360: 0000 0000 0000 0000 0000 0000 0000 0000
00000370: 0000 0000 0000 0000 0000 0000 0000 0000
00000380: 0000 0000 c8b3 8034 a168 0633 12cb e533
00000390: 1af3 3a34 d6a5 a033 79bc be34 4b82 0232
000003a0: acde ff30 36fc f32f 2b71 8332 015e 6f32
000003b0: 63c2 442e 427a cd2e 665a 6c31 fc89 1d30
000003c0: a1a5 dc34 b3c7 7c33 618f 3834 d2f9 7434
000003d0: 7a3e c433 ce48 ae34 37e1 0b32 f31f 4330
000003e0: 7a01 c02f 57da 9832 09ca a832 6a45 8a2e
000003f0: f829 462e 9854 6031 eb46 4431 97a7 b634
0.0 0.0 0.0 0.0 0.0 0.0 0.0 0.0
0.0 0.0 0.0 0.0 0.0 0.0 0.0 0.0
0.0 0.0 0.0 0.0 0.0 0.0 0.0 0.0
0.0 0.0 0.0 0.0 0.0 0.0 1.8337715e-07 1.8148185e-08
6.242814e-08 9.28727e-08 3.4999815e-08 1.0249761e-07 3.7913903e-09 2.7406938e-10 1.9871284e-10 6.6054393e-09
7.937146e-09 3.462201e-11 2.0041916e-11 2.0456287e-10 8.9825386e-10 6.717752e-07 9.26497e-08 2.846735e-07
3.957624e-07 1.5837534e-07 5.959537e-07 1.4547803e-08 1.7894732e-09 7.0111866e-10 3.0693446e-08 3.333446e-08
1.0849501e-10 9.306999e-11 2.816169e-09 2.6082336e-09 2.1747187e-06 2.8287823e-07 8.7610454e-07 1.2160381e-06
4.813995e-07 1.6978559e-06 4.536707e-08 4.4231454e-09 2.0509172e-09 9.266472e-08 1.038631e-07 3.5622086e-10
2.3920818e-10 7.367958e-09 5.9523324e-09 2.8932672e-07 3.1836244e-08 1.10140356e-07 1.8425106e-07 8.609585e-08
3.9700296e-07 1.0468348e-08 2.374224e-09 5.651249e-10 1.6816003e-08 1.6966284e-08 1.00358936e-10 9.6697816e-11
9.257007e-09 2.0304982e-09 0.0 0.0 0.0 0.0 0.0 0.0
0.0 0.0 0.0 0.0 0.0 0.0 0.0 0.0
0.0 0.0 0.0 0.0 0.0 0.0 0.0 0.0
0.0 0.0 0.0 0.0 0.0 0.0 0.0 0.0
0.0 0.0 0.0 0.0 0.0 0.0 0.0 0.0
0.0 0.0 0.0 0.0 0.0 0.0 0.0 1.3266757e-07
2.1758314e-08 5.8055814e-08 7.124473e-08 2.8624191e-08 1.00428515e-07 2.293066e-09 1.2427931e-10 7.8089354e-11
5.626015e-09 6.2005836e-09 1.402015e-11 1.21449465e-11 1.1852503e-09 1.175292e-09 0.0 0.0
0.0 0.0 0.0 0.0 0.0 0.0 0.0 0.0
0.0 0.0 0.0 0.0 0.0 3.4537834e-07 3.8712766e-08 1.4916456e-07
2.506631e-07 1.12110094e-07 5.25764e-07 1.154581e-08 3.3728096e-09 7.828822e-10 2.2217122e-08 2.0257938e-08
9.082657e-11 1.4771709e-10 6.9609e-10 4.3374732e-10 1.9305335e-06 2.5441383e-07 7.848287e-07 1.0814088e-06
4.277055e-07 1.51904e-06 3.955925e-08 4.1477777e-09 1.8269586e-09 8.273496e-08 9.2055956e-08 3.0194125e-10
2.2191726e-10 7.2282997e-09 6.093985e-09 4.663241e-07 6.424687e-08 1.8940032e-07 2.5343473e-07 1.0119706e-07
3.5115795e-07 9.221966e-09 7.5044215e-10 3.9986436e-10 1.9567858e-08 2.198751e-08 7.3717345e-11 5.1497e-11
3.326159e-09 2.3535458e-09 0.0 0.0 0.0 0.0 0.0 0.0
0.0 0.0 0.0 0.0 0.0 0.0 0.0 0.0
0.0 2.3972666e-07 3.1294466e-08 1.0700582e-07 1.741104e-07 7.480746e-08 3.552739e-07 7.596621e-09
1.8616979e-09 4.438065e-10 1.530187e-08 1.3933005e-08 4.473789e-11 9.344038e-11 3.4393906e-09 5.7312355e-10
4.1098704e-07 5.8854948e-08 1.7188496e-07 2.2815155e-07 9.138326e-08 3.2462998e-07 8.142073e-09 7.098599e-10
3.4925646e-10 1.7794418e-08 1.9649649e-08 6.287844e-11 4.5057263e-11 3.2644376e-09 2.8562066e-09 3.402208e-07

exp_avg f4 [256]
00000000: 0000 0000 0000 0000 31ad e536 403e d338
00000010: 280d 0039 db2f 43b8 0000 0000 0000 0000
00000020: 0000 0000 ec9c 89b7 0000 0000 e0f5 1e38
00000030: d824 e738 8e90 5d37 0000 0000 ed26 2437
00000040: b190 0bb8 3909 77b8 ff7e 8137 a302 aeb8
00000050: 5760 3338 504d 80b8 7f25 5338 1bc6 88b7
00000060: 88ad 1438 72a0 ef38 1065 cab8 0000 0000
00000070: 0000 0000 0400 0000 233c 1838 0000 0000
00000080: 0000 0000 c6c6 8b37 5492 ea37 a8ba 9bb8
00000090: 3bc8 f536 0000 0000 0000 0000 7e04 27b7
000000a0: 5502 9e38 c75e 3eb8 a4bc 55b8 0000 0000
000000b0: 21a6 cdb7 0000 0000 0000 0000 fa38 d2b5
000000c0: 716e 7f38 e056 85b8 ada2 6eb8 0000 0000
000000d0: 0000 0000 5059 45b8 0000 0000 e1e6 5638
000000e0: 0000 0000 0000 0000 0000 0000 50f6 ba38
000000f0: 0000 0000 0000 0000 0000 0000 0000 0000
00000100: 0000 0000 1557 b4b8 0000 0000 f44f 3ab8
00000110: 0000 0000 332b 4ab8 0000 0000 42d0 1137
00000120: 0000 0000 4435 5a38 3875 6e36 3994 deb6
00000130: 0000 0000 93f5 b2b6 0000 0000 0000 0000
00000140: 1857 e238 0000 0000 0725 66b5 0000 0000
00000150: 534e 85b7 0000 0000 725c 11b8 677a 6637
00000160: 0000 0000 ee08 3f38 27e0 84b8 0000 0000
00000170: 0000 0000 58c1 48b8 eae8 d737 0000 0000
00000180: 0000 0000 0000 0000 26b8 d8b6 0000 0000
00000190: b632 4fb8 0000 0000 0000 0000 0000 0000
000001a0: 0000 0000 1da5 4c37 fbbd c3b6 0000 0000
000001b0: 0548 afb6 e69d b7b6 0185 7d38 0400 0000
000001c0: 1f90 c3b8 0000 0000 0000 0000 0000 0000
000001d0: c957 b037 2375 6838 ca45 f737 029d 28b8
000001e0: 9d00 6a38 2b18 9a37 0000 0000 4726 a538
000001f0: 0000 0000 0000 0000 ca37 81b8 d4ac 41b8
00000200: afab 5238 2e42 0938 b063 4e38 107c 19b8
00000210: 0000 0000 0000 0000 0000 0000 02b3 f7b8
00000220: 90c2 7937 3946 94b6 0000 0000 d2f6 20b7
00000230: 46a6 8638 983d f135 f08b cb38 0000 0000
00000240: 0000 0000 d046 bcb7 58c4 1737 0000 0000
00000250: 0000 0000 0000 0000 3bf7 57b7 39d3 67b8
00000260: b1b5 cf38 3b4e 8d36 0000 0000 e5ba 4334
00000270: 5080 8bb7 675f a3b7 0000 0000 0778 efb8
00000280: fe56 7fb8 0000 0000 0e34 e2b7 2a89 1737
00000290: 0000 0000 a3a8 f2b7 0000 0000 3d32 04b8
000002a0: b680 9bb8 76e2 dd37 0400 0000 0000 0000
000002b0: 0000 0000 0c16 7cb8 24ba 79b7 a3e9 0d37
000002c0: 171a a938 125d 8e38 0000 0000 b325 83b8
000002d0: ec61 fdb7 ac18 6438 af4c 14b8 0000 0000
000002e0: 33a7 8938 0000 0000 856f 25b8 0000 0000
000002f0: d184 c338 66f6 9238 0000 0000 ede8 f1b7
00000300: 9512 6db8 0000 0000 ee93 1738 e1c5 3d38
00000310: 3b97 2a35 3e1b 08b8 0000 0000 8783 3c38
00000320: 2b2d 28b8 8a91 70b8 0000 0000 0d2a 03b7
00000330: 4a23 5b38 faa1 3137 73e5 3038 bc4a 9837
00000340: 0000 0000 0000 0000 29fc ca38 30d0 9137
00000350: 0000 0000 d93f 2838 e730 8338 3d4d 21b8
00000360: 0000 0000 0400 0000 d4dc 9838 5f6c 8e36
00000370: b7ea c4b8 9d0c b137 0000 0000 0000 0000
00000380: 75aa 4538 7701 2eb7 0181 9637 1437 f1b7
00000390: 0000 0000 6bcc 10b8 0000 0000 9e61 05b8
000003a0: b5c9 7138 1a6f 9037 936d 1136 ab7e 0c37
000003b0: 0000 0000 1a9d cdb7 bcec 6f37 c814 ec36
000003c0: 1a7d d4b4 0000 0000 0000 0000 a468 5b38
000003d0: 7808 bc37 c6fa 7837 5d51 ef37 0e5d eab7
000003e0: 0000 0000 670f a037 0000 0000 a71e 0638
000003f0: be22 6738 6b59 edb8 0000 0000 7233 5437
0.0 0.0 6.844894e-06 0.00010072859 0.00012211932 -4.653619e-05 0.0 0.0
0.0 -1.6404745e-05 0.0 3.7899124e-05 0.00011021801 1.3206283e-05 0.0 9.784225e-06
-3.3274937e-05 -5.889798e-05 1.5437136e-05 -8.297458e-05 4.276665e-05 -6.117916e-05 5.034124e-05 -1.6304713e-05
3.5447563e-05 0.00011426293 -9.650935e-05 0.0 0.0 6e-45 3.629563e-05 0.0
0.0 1.6662652e-05 2.7963113e-05 -7.4257434e-05 7.324879e-06 0.0 0.0 -9.955022e-06
7.5344615e-05 -4.53878e-05 -5.0958843e-05 0.0 -2.4515264e-05 0.0 0.0 -1.5662802e-06
6.0899594e-05 -6.358116e-05 -5.6895125e-05 0.0 0.0 -4.705164e-05 0.0 5.12366e-05
0.0 0.0 0.0 8.9150504e-05 0.0 0.0 0.0 0.0
0.0 -8.599289e-05 0.0 -4.4420318e-05 0.0 -4.8200785e-05 0.0 8.691162e-06
0.0 5.2024858e-05 3.5532994e-06 -6.633371e-06 0.0 -5.333402e-06 0.0 0.0
0.00010792742 0.0 -8.573556e-07 0.0 -1.5891308e-05 0.0 -3.465679e-05 1.3737567e-05
0.0 4.5546265e-05 -6.336002e-05 0.0 0.0 -4.786378e-05 2.5738456e-05 0.0
0.0 0.0 -6.4587393e-06 0.0 -4.9399874e-05 0.0 0.0 0.0
0.0 1.2197791e-05 -5.8335695e-06 0.0 -5.2237906e-06 -5.472207e-06 6.044377e-05 6e-45
-9.325169e-05 0.0 0.0 0.0 2.1021713e-05 5.5422202e-05 2.9477193e-05 -4.0200546e-05
5.579052e-05 1.8369485e-05 0.0 7.874943e-05 0.0 0.0 -6.161591e-05 -4.6175745e-05
5.0227794e-05 3.272498e-05 4.920707e-05 -3.6593585e-05 0.0 0.0 0.0 -0.000118112206
1.4886857e-05 -4.4189187e-06 0.0 -9.5942105e-06 6.420589e-05 1.7973825e-06 9.70586e-05 0.0
0.0 -2.2444321e-05 9.046016e-06 0.0 0.0 0.0 -1.28725615e-05 -5.527141e-05
9.904372e-05 4.2112347e-06 0.0 1.8228782e-07 -1.6629841e-05 -1.947554e-05 0.0 -0.00011418765
-6.0877755e-05 0.0 -2.696554e-05 9.032237e-06 0.0 -2.8927176e-05 0.0 -3.151804e-05
-7.41495e-05 2.6450707e-05 6e-45 0.0 0.0 -6.0102015e-05 -1.4884896e-05 8.458653e-06
8.0634076e-05 6.788423e-05 0.0 -6.253589e-05 -3.0205549e-05 5.4382414e-05 -3.5357367e-05 0.0
6.563812e-05 0.0 -3.9442926e-05 0.0 9.3230636e-05 7.007718e-05 0.0 -2.8837903e-05
-5.652251e-05 0.0 3.6138976e-05 4.52454e-05 6.3550004e-07 -3.2450298e-05 0.0 4.4945187e-05
-4.0096387e-05 -5.7356003e-05 0.0 -7.817999e-06 5.2246534e-05 1.0587735e-05 4.217536e-05 1.8154613e-05
0.0 0.0 9.679079e-05 1.7382292e-05 0.0 4.0113784e-05 6.2556755e-05 -3.8457325e-05
0.0 6e-45 7.289057e-05 4.244546e-06 -9.389727e-05 2.1105918e-05 0.0 0.0
4.712721e-05 -1.0371549e-05 1.7941466e-05 -2.8755087e-05 0.0 -3.4522654e-05 0.0 -3.1800584e-05
5.7646732e-05 1.7217873e-05 2.1670464e-06 8.374142e-06 0.0 -2.451106e-05 1.4300629e-05 7.0357673e-06
-3.95791e-07 0.0 0.0 5.2311123e-05 2.241529e-05 1.484034e-05 2.8528908e-05 -2.7938306e-05
0.0 1.9080659e-05 0.0 3.1976637e-05 5.5107048e-05 -0.00011317696 0.0 1.2648163e-05
