models/berkeley_real_dr_model_best.pth (torch, 464179 bytes, 18 tensors)

policy.0.weight f4 [256, 15]
0.21102142 -0.088543884 -0.018132972 0.04031809 0.14013197 -0.238228 0.13194887 0.012195073
-0.058675136 -0.036474045 0.2375621 0.029239489 -0.2391329 -0.08233337 -0.019671956 0.19834316
-0.09428975 -0.05051513 -0.21909225 0.23502561 -0.25749695 -0.20202236 0.0103579555 -0.18640824
-0.014060292 -0.16226467 0.16442522 0.0023915216 0.14196795 -0.22873236 -0.19084777 0.027797213
-0.19737138 -0.11377821 -0.056588486 -0.14188094 -0.053571504 -0.043479677 -0.2450923 -0.14151084
-0.020652918 -0.26901904 -0.13388273 -0.18481453 0.104645245 -0.14859422 0.11683161 0.124023296
-0.22624905 0.13962911 0.0027732868 0.22637576 -0.0013117198 -0.096864134 0.08982515 0.106342
-0.08667111 0.24235287 -0.22333868 -0.061523378 -0.026003452 0.23032074 0.052773327 -0.18696055
-0.113956444 -0.15962675 -0.087724954 -0.12962937 -0.1119541 0.14690255 0.024654157 0.17958285
-0.1324588 0.0034864175 -0.12020016 -0.072736934 0.07520816 -0.055334955 0.20403399 0.21030147
0.23645519 0.07128534 0.0817739 -0.24068217 0.11372138 0.085306205 -0.0998832 0.1456835
0.26826778 -0.1587385 -0.04605986 0.2466822 -0.023818875 0.23621346 -0.007199958 0.06202905
0.25474426 0.027726175 0.20704976 0.12321165 -0.13526723 -0.14098708 0.119731426 -0.20274076
-0.1544014 -0.021054888 0.18011324 -0.14108463 -0.18940267 0.19070308 -0.07562586 -0.08609201
-0.15413228 -0.032386377 -0.0008056896 0.040229384 0.0041068746 0.23763032 -0.02777293 -0.24708459
0.16503982 0.052284162 0.22145201 0.24694456 0.028116215 0.045487512 0.1679149 -0.10936805
-0.24199694 0.22754131 -0.09627036 -0.057626504 0.23053768 0.01728656 0.12130713 -0.18716124
-0.005860667 0.13407205 -0.06480378 0.20366211 -0.22159672 0.118791565 -0.10269824 0.033448655
0.14031571 0.031186683 -0.23983927 0.2438402 -0.05081391 0.14316146 0.14526162 -0.016281942
-0.21102631 0.059191838 0.20608684 -0.24407266 -0.16159642 0.058124613 -0.25320852 0.14239015
-0.018674662 0.007961756 -0.22512609 0.21062411 -0.22542582 0.029858653 0.19235817 -0.16917972
0.094680585 -0.1602182 0.2186219 0.045443695 -0.00046139065 0.1359122 -0.061304264 -0.24859473
-0.001697159 -0.11164648 -0.06593181 -0.11951954 0.092978925 0.17112575 0.19820394 0.030476479
-0.22965527 0.033859998 0.17611237 0.24167109 0.20200457 -0.22680964 0.023800846 0.10757844
0.081940696 0.030558972 0.2166318 -0.16042817 0.17866431 0.13901837 -0.006849222 -0.23303486
-0.11247426 -0.06535161 0.048330326 -0.24855223 -0.10191689 -0.20193864 0.012533221 -0.13655747
-0.07938598 0.13414031 0.1843467 -0.17562681 -0.0028984018 0.052105855 0.14606927 -0.007059141
0.20794915 -0.06774844 -0.22937791 -0.09392923 -0.020913087 -0.15555608 -0.09183713 -0.23254597
-0.041580673 0.13415413 -0.17547965 -0.19553885 -0.01642673 0.20863879 0.22438109 0.02088198
-0.20119612 -0.1277459 0.11779518 0.17442933 0.045688353 0.11897283 0.12510552 -0.13995369
0.12349534 0.098041244 0.030831989 -0.24894886 0.054721136 0.10182587 -0.113200605 0.057570703
-0.17769948 0.047512237 0.19080028 0.23794846 0.24580139 0.11018851 -0.22861198 -0.25590196
00000000: 0016 583e 7f56 b5bd 998b 94bc 9524 253d
00000010: c17e 0f3e 0af2 73be 9b1d 073e d8cd 473c
00000020: 5755 70bd cf65 15bd 7b43 733e a787 ef3c
00000030: 41df 74be 669e a8bd 1527 a1bc 781a 4b3e
00000040: fc1a c1bd f4e8 4ebd b859 60be 8eaa 703e
00000050: a4d6 83be f3de 4ebe 6ab4 293c cde1 3ebe
00000060: 245d 66bc b628 26be 165f 283e 13bb 1c3b
00000070: 0c60 113e d138 6abe 996d 43be fbb6 e33c
00000080: b91b 4abe 8d04 e9bd 54c9 67bd 3d49 11be
00000090: cb6d 5bbd bf17 32bd 7af9 7abe 38e8 10be
000000a0: 4f30 a9bc ddbc 89be 8e18 09be 0540 3dbe
000000b0: 3f50 d63d 1529 18be 6945 ef3d edff fd3d
000000c0: d5ad 67be effa 0e3e 08c0 353b 0ccf 673e
000000d0: 03ee abba b460 c6bd 40f6 b73d d6c9 d93d
000000e0: 9f80 b1bd 5a2b 783e e5b2 64be f0ff 7bbd
000000f0: 3105 d5bc 33d9 6b3e d828 583d 9672 3fbe
00000100: ff61 e9bd 3275 23be 24a9 b3bd 90bd 04be
00000110: 3148 e5bd 9f6d 163e 84f7 c93c 91e4 373e
00000120: 48a3 07be 617c 643b 802b f6bd 1af7 94bd
00000130: bc06 9a3d e8a6 62bd 49ee 503e 4559 573e
00000140: 4f21 723e 0cfe 913d 1379 a73d 6375 76be
00000150: c1e6 e83d 05b5 ae3d 908f ccbd 0e2e 153e
00000160: 655a 893e 588c 22be 44a9 3cbd 429a 7c3e
00000170: cd1f c3bc f1e1 713e a0ed ebbb 2c12 7e3d
00000180: d76d 823e 0122 e33c da04 543e 6456 fc3d
00000190: 7e83 0abe eb5e 10be c035 f53d 469b 4fbe
000001a0: 671b 1ebe 4d7b acbc 9b6f 383e 7d78 10be
000001b0: c6f2 41be ab47 433e bbe1 9abd 0251 b0bd
000001c0: dad4 1dbe 94a7 04bd ea34 53ba 91c7 243d
000001d0: f692 863b 5d55 733e 0e84 e3bc be03 7dbe
000001e0: 3300 293e eb27 563d 51c4 623e 09df 7c3e
000001f0: fa53 e63c 1d51 3a3d e2f1 2b3e 5bfc dfbd
00000200: 0cce 77be 9700 693e 6529 c5bd c509 6cbd
00000210: 1212 6c3e 8b9c 8d3c df6f f83d 32a7 3fbe
00000220: d70a c0bb 2f4a 093e d8b7 84bd cd8c 503e
00000230: 40ea 62be fe48 f33d 7453 d2bd 7501 093d
00000240: ecae 0f3e 377b ff3c 6d98 75be 3fb1 793e
00000250: 3f22 50bd eb98 123e 76bf 143e b561 85bc
00000260: 4817 58be 2473 723d 6e08 533e 2fee 79be
00000270: 8879 25be 1314 6e3d 8ca4 81be b9ce 113e
00000280: 9bfb 98bc 0672 023c 7487 66be d9ad 573e
00000290: 07d6 66be 229a f43c 8af9 443e 733d 2dbe
000002a0: e5e7 c13d 3d10 24be 6bde 5f3e 2b23 3a3d
000002b0: cee6 f1b9 912c 0b3e 2e1a 7bbd 9e8f 7ebe
000002c0: 3573 deba e9a6 e4bd 4207 87bd a9c6 f4bd
000002d0: bc6b be3d 973b 2f3e f9f5 4a3e cfa9 f93c
000002e0: c02a 6bbe c8b0 0a3d cd56 343e a078 773e
000002f0: 49da 4e3e c940 68be fef9 c23c 1652 dc3d
00000300: 86d0 a73d cf56 fa3c bad4 5d3e 4847 24be
00000310: c7f3 363e d55a 0e3e 706f e0bb b1a0 6ebe
00000320: e858 e6bd 11d7 85bd 05f6 453d 7a84 7ebe
00000330: cdb9 d0bd 01c9 4ebe 2458 4d3c b9d5 0bbe
00000340: 1e95 a2bd 145c 093e 62c5 3c3e 84d7 33be
00000350: 1df3 3dbb f36c 553d 2f93 153e 5e50 e7bb
00000360: 9ff0 543e b2bf 8abd 0be2 6abe f85d c0bd
00000370: ec51 abbc 184a 1fbe 1b15 bcbd 8820 6ebe
00000380: 7f50 2abd b35f 093e f0b0 33be 563b 48be
00000390: 5a91 86bc 68a5 553e 28c4 653e b010 ab3c
000003a0: 5b06 4ebe d2cf 02be 993e f13d 9a9d 323e
000003b0: b623 3b3d 07a8 f33d a91b 003e 0550 0fbe
000003c0: 20eb fc3d d9c9 c83d 5e93 fc3c 73ec 7ebe
000003d0: 4523 603d 158a d03d b8d5 e7bd 42cf 6b3d
000003e0: daf6 35be 319c 423d 2661 433e c3a8 733e
000003f0: 5cb3 7b3e 83aa e13d 4219 6abe 9505 83be

policy.0.bias f4 [256]
-0.05362508 -0.12944362 -0.018523192 -0.06290267 0.13314599 -0.255548 -0.14672236 0.2446702
0.100566536 0.06086692 -0.2401769 0.0868116 -0.024117462 -0.015502355 0.2289899 -0.076573156
0.22276533 -0.12951519 -0.0036949774 -0.111289896 -0.024171822 0.05746973 0.22697169 -0.068368
0.0071355146 -0.14154331 -0.11532204 -0.07980101 -0.11568679 -0.027079144 0.09655032 0.09814845
-0.20440741 0.06704819 0.089846775 0.041440874 -0.192085 0.24461532 0.10267953 0.1206182
-0.20225687 -0.027728861 -0.14269514 0.15091404 0.16109407 -0.0102803605 0.12227444 0.04202969
-0.15188107 -0.07203791 0.10433717 -0.15262514 0.24669115 0.034704864 0.11912885 0.1251824
-0.0154182315 0.21986434 -0.257629 0.14698566 -0.13629137 0.116372004 -0.0016404968 0.1445034
0.21504934 -0.1568239 -0.020814376 -0.23332022 0.1327613 -0.23464943 -0.05927211 -0.219239
-0.2195638 0.2433679 0.07073008 0.1985519 0.11867833 0.18550596 -0.10555121 0.010693855
0.13022074 0.02828932 -0.23966306 0.051091447 0.022625979 -0.10263545 -0.04499412 0.16572766
-0.039337266 0.213502 -0.082958825 0.07409635 0.2522717 0.22626951 0.03297564 0.20170367
-0.18509997 0.13605255 0.0083135525 0.1387631 -0.007131947 0.11959048 -0.10918408 0.09033142
-0.16881293 0.21862873 -0.017991403 -0.21331312 -0.049748935 -0.113788985 0.24067286 0.2382475
0.22028492 -0.024709424 0.04227959 -0.09600966 -0.1314136 0.18577407 0.009803968 0.1278906
0.024889166 -0.08354093 0.061447218 0.18792716 -0.038967323 -0.05012786 0.024671005 -0.10709036
-0.06204101 -0.2356621 -0.034401342 -0.22824372 0.04152484 0.04473701 -0.059305474 0.009499444
0.07509546 0.18457015 -0.1449228 0.12853877 -0.005594763 0.1263081 -0.006677463 -0.095967494
-0.03820451 -0.06587565 -0.088903315 -0.017836163 0.00020483894 0.20584716 -0.02004843 -0.13307072
0.15650938 0.06025875 0.20989193 0.04228262 0.24943155 0.2447708 -0.074045196 0.21416599
0.0193597 0.24138077 0.09813375 0.23905404 -0.08212127 -0.18105268 -0.114970386 -0.04520245
0.0046401843 0.030133775 -0.18006113 -0.14005372 -0.24413906 0.021171529 -0.11319227 0.2295879
0.12769438 -0.14631501 -0.18326773 0.13738923 -0.13971986 -0.23931168 -0.13092698 -0.20063455
-0.0085854065 -0.21165486 -0.0946675 -0.09651854 0.037332587 -0.074112035 -0.19280583 -0.005834464
-0.10719975 0.24696429 0.106927924 -0.12756072 0.0127925845 -0.146929 -0.17506263 0.035563365
-0.18796457 -0.030312842 0.05725573 -0.18304244 -0.2514723 -0.20064554 -0.23311049 -0.016146528
-0.17533065 -0.055991888 0.14977361 0.07885411 -0.012565538 -0.21479078 0.05474694 -0.04581932
-0.10627663 0.073895074 0.24219507 0.09292658 0.04384579 -0.026458023 0.17839253 0.030500103
-0.06902773 -0.16176172 -0.22825816 -0.25089166 -0.16092849 0.18478444 0.23284331 0.23653075
0.109210536 -0.099144906 0.1840363 0.13678125 -0.17699227 0.0022488981 0.069830775 0.19011378
0.055016827 0.08245655 -0.030602446 0.2353266 -0.009100548 -0.06650002 0.07750767 -0.121266104
0.040266257 -0.22790982 -0.0017411772 0.18245615 0.05124318 0.14333169 -0.20614083 -0.08270353
00000000: f9a5 5bbd de8c 04be f3bd 97bc 1dd3 80bd
00000010: 6c57 083e 30d7 82be 633e 16be d38a 7a3e
00000020: d4f5 cd3d 974f 793d eff0 75be 48ca b13d
00000030: fc91 c5bc 97fd 7dbc 547c 6a3e 63d2 9cbd
00000040: 981c 643e a19f 04be 6f27 72bb f5eb e3bd
00000050: fc03 c6bc 6165 6b3d 446b 683e 8604 8cbd
00000060: 09d1 e93b bbf0 10be f62d ecbd b66e a3bd
00000070: 32ed ecbd 15d5 ddbc 2dbc c53d 0e02 c93d
00000080: 2d50 51be 9050 893d 9601 b83d e8bd 293d
00000090: eeb1 44be 707c 7a3e a549 d23d ad06 f73d
000000a0: 6d1c 4fbe a327 e3bc ad1e 12be 3689 1a3e
000000b0: d8f5 243e f56e 28bc 066b fa3d 5327 2c3d
000000c0: b686 1bbe 9d88 93bd baae d53d c449 1cbe
000000d0: 9b9c 7c3e b026 0e3d d4f9 f33d d12f 003e
000000e0: c09c 7cbc 1e24 613e f3e7 83be 6983 163e
000000f0: f78f 0bbe 7254 ee3d f005 d7ba b3f8 133e
00000100: e535 5c3e 7296 20be e982 aabc 7feb 6ebe
00000110: 94f2 073e f147 70be 50c7 72bd 3080 60be
00000120: 55d5 60be 6f35 793e efda 903d 3051 4b3e
00000130: a00d f33d 46f5 3d3e 3c2b d8bd 4735 2f3c
00000140: 9658 053e 01bf e73c 3c6a 75be 4445 513d
00000150: 1e5a b93c 8932 d2bd c14b 38bd 83b4 293e
00000160: 1d20 21bd 45a0 5a3e 51e6 a9bd d4bf 973d
00000170: c229 813e 32b3 673e 7711 073d 688b 4e3e
00000180: d98a 3dbe 5c51 0b3e 9135 083c ea17 0e3e
00000190: 1cb3 e9bb dbeb f43d e79b dfbd aeff b83d
000001a0: 4cdd 2cbe 36e0 5f3e b562 93bc c16e 5abe
000001b0: 8ac5 4bbd 330a e9bd f272 763e 27f7 733e
000001c0: 5f92 613e 6b6b cabc 5d2d 2d3d b6a0 c4bd
000001d0: 4991 06be 8f3b 3e3e d2a0 203c c1f5 023e
000001e0: 5de4 cb3c 8217 abbd 14b0 7b3d fa6f 403e
000001f0: 339c 1fbd df52 4dbd d91a ca3c 3152 dbbd
00000200: b71e 7ebd 6851 71be 6ce8 0cbd b9b8 69be
00000210: f315 2a3d 283e 373d 4cea 72bd 8ea3 1b3c
00000220: a6cb 993d f5ff 3c3e a466 14be ab9f 033e
00000230: 4654 b7bb e956 013e 9fce dabb 9b8a c4bd
00000240: 557c 1cbd d0e9 86bd f112 b6bd 251d 92bc
00000250: 09ca 5639 99c9 523e 9b3c a4bc b143 08be
00000260: ff43 203e e1d1 763d e9ed 563e 8a30 2d3d
00000270: fc6a 7f3e 32a5 7a3e 02a5 97bd 544e 5b3e
00000280: 3c98 9e3c 852c 773e 59fa c83d 95ca 743e
00000290: 322f a8bd e065 39be 9875 ebbd 3426 39bd
000002a0: b00c 983b 1bdb f63c f261 38be 3e6a 0fbe
000002b0: 97ff 79be ea6f ad3c 59d1 e7bd 1719 6b3e
000002c0: 51c2 023e 9ad3 15be 89aa 3bbe c3af 0c3e
000002d0: b912 0fbe 1f0e 75be b911 06be 2573 4dbe
000002e0: cea9 0cbc 0dbc 58be 09e1 c1bd 83ab c5bd
000002f0: 0eea 183d 0dc8 97bd e46e 45be 082f bfbb
00000300: 8b8b dbbd 35e4 7c3e 07fd da3d 479f 02be
00000310: fd97 513c 8e74 16be 9e43 33be e4aa 113d
00000320: c979 40be a352 f8bc fc84 6a3d 7a6f 3bbe
00000330: fac0 80be 0676 4dbe 84b4 6ebe b945 84bc
00000340: e189 33be c057 65bd 415e 193e 437e a13d
00000350: b0df 4dbc 1df2 5bbe 543e 603d 0aad 3bbd
00000360: 90a7 d9bd 4d56 973d fc01 783e 4a50 be3d
00000370: a597 333d 7fbe d8bc 88ac 363e 5adb f93c
00000380: 695e 8dbd dda4 25be 82bc 69be df74 80be
00000390: 70ca 24be 2238 3d3e 7a6e 6e3e 1e35 723e
000003a0: c6a9 df3d 7c0c cbbd 0374 3c3e 6210 0c3e
000003b0: 763d 35be 4062 133b 7003 8f3d 30ad 423e
000003c0: 5359 613d fbde a83d fbb1 fabc 75f9 703e
000003d0: 771a 15bc 2a31 88bd 57bc 9e3d 5d5a f8bd
000003e0: 3bee 243d 3161 69be 3638 e4ba c9d5 3a3e
000003f0: 5ee4 513d 8bc5 123e 9516 53be 7860 a9bd

policy.2.weight f4 [128, 256]
-0.061549954 0.008690514 0.020218838 0.06266718 0.060826257 -0.051750842 -0.039995976 -0.05243057
-0.009110868 -0.0021234693 -0.018497527 0.041460954 0.05932978 -0.0020887929 -0.015795484 -0.057759702
-0.047803737 -0.03353944 0.04442863 -0.042163458 -0.0050328784 -0.06371243 0.041954476 -0.05362868
-0.0461139 0.028527834 0.05143521 0.0059954375 0.004155807 -0.021544807 -0.010001702 0.06073661
-0.028795145 -0.04024153 0.05654904 0.030826591 0.020684125 0.026362963 -0.06181991 -0.0052297404
0.015667923 -0.046945974 8.492635e-05 0.058812127 0.024711546 0.01131583 0.007047698 -0.06173935
-0.009030935 -0.016336506 0.030708961 0.016216755 -0.028446488 -0.053159546 0.019567609 0.040714357
0.003140375 -0.008408867 -0.04506311 -0.022387827 0.021054648 -0.05218094 -0.025276586 -0.006291114
0.021480486 -0.031560272 0.034285866 -0.03754539 -0.044956937 -0.0029527638 0.0038581938 -0.0065751965
0.0016538054 0.0502259 0.04488897 -0.049712703 -0.02402366 0.0270387 -0.0063576773 0.013686568
0.03802934 0.057811484 0.058581114 0.037359558 -0.057123117 -0.0543321 -0.020297451 0.0066374093
-0.031270623 0.05273829 -0.048525877 0.0040576234 0.010295533 0.031148814 -0.004168528 0.053145446
0.050036505 -0.037417307 -0.010891552 -0.05366292 0.012123255 -0.047570743 -0.060616657 0.016587548
-0.054963775 -0.05534641 -0.048972353 -0.038618527 0.004001689 0.012244059 -0.027069425 0.0017473365
0.019655157 0.0103113875 0.056536563 0.025119908 -0.051793452 -0.03210645 0.029060388 0.037228253
0.046375696 -0.017466657 -0.052404307 0.0229122 0.003968559 0.033853874 0.011652488 0.025868528
-0.007215981 0.033846974 -0.03665835 -0.054875538 0.023840532 0.0003838688 0.05378379 0.0039554564
0.015745418 0.016783426 0.030146785 0.053324774 0.06831989 -0.024153994 0.015076063 0.017747276
0.012328342 0.035877977 0.02353764 -0.022625186 -0.00339555 -0.052166753 0.0006440219 0.004624619
0.0020928215 0.06939182 0.026978597 0.04776854 0.0132033415 -0.006009773 -0.017755099 -0.022483738
0.00088877446 -0.029828228 -0.0097577125 0.00018513038 -0.015048526 0.052198406 0.0333518 -0.026202464
-0.0131469965 0.012879081 -0.032736197 -0.055010043 0.015480831 0.04574356 0.04841941 -0.056717172
0.032546762 0.008617042 0.0004325509 -0.0033982797 0.05323327 -0.00678086 -0.020916333 0.008797966
0.02912694 0.03799814 0.02683773 -0.03031712 0.0017318993 0.016626121 0.057849675 0.009717693
0.057275824 0.028617866 0.004704692 -0.012731329 0.051415313 -0.0386505 -0.04856906 0.013724456
-0.062851764 -0.002813888 0.056136154 0.041425526 0.0054883594 -0.03167908 -0.005560631 0.04819563
-0.044196248 -0.014680751 0.048491925 0.026039686 -0.03894037 0.017389497 -0.04273548 0.023863504
-0.054735765 -0.04180303 -0.0441014 -0.012767855 0.022250392 0.017881135 0.04654578 0.0018843263
-0.0026222796 0.0005904068 -0.004029598 0.035816967 -0.04838349 0.04743537 -0.060208455 0.06375953
0.057753444 0.056851678 -0.0019147061 -0.0025438014 -0.036193646 -0.017498659 0.058915883 0.02466975
-0.020834317 0.045295812 -0.033234447 -0.05778391 -0.020609463 -0.051322963 0.052288674 0.032024622
0.041738085 -0.035595242 0.014124826 0.016143784 0.0013092387 0.040030755 0.016048796 -0.0054990533
00000000: ce1b 7cbd a862 0e3c faa1 a53c a757 803d
00000010: f424 793d b1f8 53bd d2d2 23bd 70c1 56bd
00000020: c045 15bc e729 0bbb 2088 97bc f6d2 293d
00000030: c903 733d 21e4 08bb 8865 81bc 7095 6cbd
00000040: dacd 43bd a760 09bd ccfa 353d 97b3 2cbd
00000050: d8ea a4bb aa7b 82bd 75d8 2b3d bfa9 5bbd
00000060: eee1 3cbd 34b3 e93c baad 523d 6075 c43b
00000070: 702d 883b bc7e b0bc 2ede 23bc f4c6 783d
00000080: cce3 ebbc 4dd4 24bd f79f 673d 0c88 fc3c
00000090: c171 a93c 24f7 d73c e036 7dbd 3e5e abbb
000000a0: 045a 803c 6c4a 40bd 7d1a b238 fce4 703d
000000b0: de6f ca3c 0866 393c 60f0 e63b 67e2 7cbd
000000c0: 7df6 13bc 23d4 85bc 5c91 fb3c 00d9 843c
000000d0: 9c08 e9bc d3bd 59bd 404c a03c 19c4 263d
000000e0: c0ce 4d3b 58c5 09bc 1894 38bd ad66 b7bc
000000f0: cc7a ac3c aebb 55bd d810 cfbc b025 cebb
00000100: d8f7 af3c 5845 01bd 566f 0c3d 32c9 19bd
00000110: c424 38bd 2883 41bb c0d9 7c3b bf74 d7bb
00000120: 80c4 d83a acb9 4d3d 7fdd 373d 8c9f 4bbd
00000130: 44cd c4bc 4480 dd3c 1054 d0bb a03d 603c
00000140: a7c4 1b3d bccb 6c3d c0f2 6f3d 5606 193d
00000150: eef9 69bd 568b 5ebd d746 a6bc a07e d93b
00000160: a015 00bd 1b04 583d 12c3 46bd d0f5 843b
00000170: 98ae 283c cc2b ff3c 2698 88bb 0aaf 593d
00000180: 14f3 4c3d e442 19bd 7b72 32bc a6cd 5bbd
00000190: 9ea0 463c 8ad9 42bd 2c49 78bd 9ce2 873c
000001a0: b221 61bd ebb2 62bd 3c97 48bd 762e 1ebd
000001b0: 9a20 833b 4e9b 483c b3c0 ddbc e206 e53a
000001c0: da03 a13c 18f1 283c e292 673d 44c8 cd3c
000001d0: 5f25 54bd 0e82 03bd 0d10 ee3c a77c 183d
000001e0: 71f4 3d3d 3c16 8fbc e6a5 56bd 5eb2 bb3c
000001f0: b00a 823b 5caa 0a3d 14ea 3e3c 3cea d33c
00000200: 0974 ecbb 20a3 0a3d 1127 16bd 2cc5 60bd
00000210: 384d c33c 0042 c939 644c 5c3d c69c 813b
00000220: 89fc 803c 657d 893c 64f6 f63c 146b 5a3d
00000230: 4ceb 8b3d 99de c5bc 9701 773c bc62 913c
00000240: d0fc 493c c9f4 123d 02d2 c03c 7458 b9bc
00000250: e087 5ebb ceac 55bd 94d3 283a 1e8a 973b
00000260: b827 093b 4c1d 8e3d 3802 dd3c f2a8 433d
00000270: d452 583c a1ed c4bb 2473 91bc d12f b8bc
00000280: a5fc 683a 545a f4bc d0de 1fbc 8f1f 4239
00000290: 188e 76bc ffcd 553d e69b 083d 8da6 d6bc
000002a0: 8066 57bc c802 533c 6416 06bd 3652 61bd
000002b0: 50a3 7d3c 995d 3b3d 6e53 463d 4450 68bd
000002c0: c14f 053d 7e2e 0d3c 00c8 e239 acb5 5ebb
000002d0: 210b 5a3d fa31 debb bb58 abbc 5825 103c
000002e0: 9f9b ee3c f0a3 1b3d cdda db3c 9c5b f8bc
000002f0: e600 e33a 8133 883c c8f3 6c3d f536 1f3c
00000300: 0e9a 6a3d 0470 ea3c d129 9a3b 1097 50bc
00000310: dd98 523d fd4f 1ebd 5af0 46bd 8adc 603c
00000320: 6db8 80bd 3569 38bb 06ef 653d d0ad 293d
00000330: b2d7 b33b ecc1 01bd f435 b6bb c868 453d
00000340: 2007 35bd 8887 70bc 789f 463d 2e51 d53c
00000350: f07f 1fbd 6b74 8e3c 660b 2fbd 657d c33c
00000360: 9c32 60bd a739 2bbd aba3 34bd 4430 51bc
00000370: 7446 b63c 757b 923c caa6 3e3d 80fb f63a
00000380: 8dda 2bbb 88c5 1a3a b80a 84bb d0b4 123d
00000390: c42d 46bd 974b 423d 249d 76bd 5b94 823d
000003a0: e08e 6c3d 4edd 683d e0f6 faba e8b5 26bb
000003b0: ca3f 14bd 5959 8fbc c851 713d 3718 ca3c
000003c0: bbac aabc 1a88 393d d820 08bd d2ae 6cbd
000003d0: 2dd5 a8bc 0738 52bd a62c 563d 402c 033d
000003e0: 8ef5 2a3d 51cc 11bd d06b 673c f83f 843c
000003f0: c39a ab3a 4af7 233d c478 833c 6731 b4bb

policy.2.bias f4 [128]
-0.031079393 -0.055937335 -0.042137202 -0.00063990126 -0.0024238303 -0.05885583 -0.005565919 -0.04967765
-0.012292699 0.011287361 -0.023618026 -0.06265264 -0.0515351 0.026384695 -0.018708164 -0.0045107603
-0.005830757 -0.024659626 -0.059542567 0.020712331 0.059096858 -0.045590468 0.030193686 0.036801614
0.040184826 0.014550902 -0.05369769 -0.020015985 0.01913327 -0.010845907 -0.009701152 -0.049670503
-0.022269068 -0.05443838 -0.033853307 0.061326094 0.020399595 0.029763635 -0.046438664 -0.003328383
0.02750205 0.011334644 0.0036413819 -0.040950313 -0.008392587 -0.03844498 0.057961497 0.031271923
0.03125316 -0.026790097 -0.012493856 0.06356202 0.046761036 -0.024576291 0.054372128 0.042318158
-0.048219305 -0.022920497 -0.007603027 -0.056714077 -0.018442057 -0.031907007 -0.037195377 0.04966853
0.001309596 -0.029024683 0.03330726 -0.061375834 -0.024654089 0.011751078 0.026830276 -0.0015585087
0.003552243 0.012813546 -0.048150543 0.026943648 -0.029696561 -0.016723566 0.012059069 -0.0019486919
-0.048888817 -0.02399788 0.024181068 0.021821937 0.015100211 0.033692338 -0.029447302 -0.050459817
-0.0067858 -0.0075465506 0.045377526 0.031242467 0.006087636 -0.017762832 0.031621374 -0.03751221
0.043225944 -0.05441313 0.013788475 0.0022831883 -0.052490972 0.028406039 0.0135599235 0.018029176
0.031439275 -0.0065270853 -0.015997272 -0.018023646 -0.028538465 -0.018881733 -0.034296446 0.009276385
0.03691888 0.009976082 0.034323573 -0.020247083 -0.021015437 0.05109983 0.008411801 -0.027549611
0.01416418 0.040089853 -0.046972852 -0.059692957 0.0089566205 0.04064648 -0.05727966 -0.060534164
00000000: 369a febc 8c1e 65bd 0f98 2cbd 0cbf 27ba
00000010: 20d9 1ebb d012 71bd 5062 b6bb cb7a 4bbd
00000020: 5167 49bc a0ee 383c 977a c1bc 0750 80bd
00000030: 7816 53bd b724 d83c dd41 99bc 00cf 93bb
00000040: ef0f bfbb fc02 cabc e8e2 73bd e8ac a93c
00000050: 8c0f 723d 12bd 3abd c058 f73c 4abd 163d
00000060: d898 243d e866 6e3c 1cf2 5bbd 90f8 a3bc
00000070: 60bd 9c3c 08b3 31bc 95f1 1ebc 4c73 4bbd
00000080: 9f6d b6bc c7fa 5ebd c4a9 0abd 1231 7b3d
00000090: 0d1d a73c ded2 f33c 7836 3ebd 0021 5abb
000000a0: fb4b e13c f1b4 393c 40a4 6e3b 84bb 27bd
000000b0: 1081 09bc 7c78 1dbd 0969 6d3d fd16 003d
000000c0: 5003 003d e876 dbbc 08b3 4cbc ce2c 823d
000000d0: 8088 3f3d 3854 c9bc 4fb5 5e3d ce55 2d3d
000000e0: 9b81 45bd c4c3 bbbc d022 f9bb 054d 68bd
000000f0: cc13 97bc ecb0 02bd 2e5a 18bd 3a71 4b3d
00000100: c0a6 ab3a 2cc5 edbc 326d 083d 3a65 7bbd
00000110: 5ff7 c9bc 9887 403c 2bcb db3c e046 ccba
00000120: c0cc 683b e8ef 513c 8139 45bd edb8 dc3c
00000130: 3446 f3bc dcff 88bc 6793 453c 406b ffba
00000140: a43f 48bd 3497 c4bc 6017 c63c ebc3 b23c
00000150: e066 773c fa00 0a3d 783b f1bc f4ae 4ebd
00000160: 6b5b debb 0e49 f7bb c9dd 393d 34f0 ff3c
00000170: cb7a c73b 5c83 91bc 6a85 013d 67a6 19bd
00000180: b00d 313d 4de0 5ebd 0ee9 613c 8ba1 153b
00000190: c600 57bd c8b3 e83c 712a 5e3c ecb1 933c
000001a0: 78c6 003d 29e1 d5bb b60c 83bc 53a6 93bc
000001b0: 80c9 e9bc ddad 9abc 6e7a 0cbd fbfb 173c
000001c0: 4038 173d b872 233c e096 0c3d 36dd a5bc
000001d0: 9128 acbc 0e4e 513d a7d1 093c b9af e1bc
000001e0: e010 683c 4235 243d 9b66 40bd 9a80 74bd
000001f0: cabe 123c ec7c 263d 149e 6abd acf2 77bd

policy.4.weight f4 [7, 128]
0.02468407 0.04921651 -0.03724625 0.03246532 0.03615519 -0.056413133 -0.06888861 0.016722849
-0.05342098 -0.037941992 0.07542075 -0.04965698 -0.026110973 -0.06297416 -0.012176424 0.028250685
0.029895125 0.05392533 -0.02636363 -0.079586565 -0.052317906 0.08567918 -0.0035242448 0.02128123
-0.08653807 0.07906903 0.065048054 -0.0051879818 -0.014965851 0.053249855 0.0010273596 0.08533172
-0.04291093 0.041675813 -0.021730915 0.015617815 0.08742143 -0.0066381665 0.0498491 0.011480517
0.023521937 0.086365 0.024803367 -0.005907397 0.0341484 0.06237687 0.040169414 -0.031024361
-0.024403712 0.07134438 -0.04968854 -0.051376622 0.00063688774 -0.03317882 0.038713012 0.030094242
-0.003117281 -0.080304645 -0.018542716 0.08812242 -0.02861968 -0.041131824 -0.075277254 0.085706145
0.017833017 0.0499928 0.07720973 -0.006593948 -0.08736738 0.077526145 0.03192856 -0.012560502
0.072118506 0.019361302 -0.050085906 0.005308274 -0.081118405 -0.06980408 0.063499965 0.055682782
0.023374127 0.037918646 -0.0069453157 -0.06974473 -0.026864696 -0.014988715 -0.017930327 0.059013594
-0.01304673 -0.06931846 0.039818976 -0.06333254 0.056536745 0.028688958 -0.07950448 0.0019164927
0.035108417 0.046700187 0.06926172 -0.056131735 0.037706215 0.06315623 0.08427126 -0.009145192
-0.026339998 -0.0584691 -0.027521966 -0.014152262 -0.037136577 0.082026824 0.0023216414 -0.08134021
0.033072736 -0.0315296 -0.0062721674 0.07105956 -0.04999863 0.084273435 -0.014555402 -0.037821777
-0.0845657 -0.05610791 0.080181405 0.065190166 0.078617066 0.04638553 -0.051260117 -0.08743527
-0.08184306 -0.08311563 -0.08553247 0.055529013 0.044574622 0.022204572 0.08440079 0.08394709
-0.043369338 0.0550398 0.027748419 -0.0036227885 0.05021761 0.033044286 0.083064504 0.0014657725
0.05979411 0.06196614 0.068543844 0.0678582 -0.06989413 0.016794518 0.06760958 -0.0150580425
-0.007831664 -0.017995702 0.04601635 -0.08705359 0.02741467 0.07368643 0.05993799 0.030209564
0.014111706 0.024835289 0.03417391 0.056180757 -0.058093287 -0.080149874 0.0135058 -0.036641836
-0.055153012 0.01669931 0.0654849 0.041665416 0.047719326 -0.03819162 -0.011943304 -0.06338992
0.032782048 -0.0034005342 -0.0470653 -0.005992647 -0.082757704 -0.03345401 0.004383713 -0.017778207
0.035897262 -0.07556545 0.012623392 0.08128521 -0.039654367 0.07614101 -0.03290004 -0.016130935
-0.008516108 -0.084234804 -0.04957554 -0.04252499 -0.05580138 -0.05020269 -0.00094894075 -0.032747936
0.034758527 0.080974504 -0.0036883461 0.05230789 -0.036510814 -0.053804234 -0.0050258716 0.0749474
-0.05688475 0.07529938 -0.024392352 -0.0052167517 -0.019738927 0.013115709 -0.0056790314 -0.07752221
0.0056069675 -0.014019665 -0.07702581 0.048924737 -0.0775879 0.055558793 0.03118695 0.08671357
0.006470863 0.034741372 -0.055241577 0.054347582 -0.0386921 -0.07469972 0.06504292 -0.013489109
0.011178334 0.06662755 -0.050211612 -0.056368183 0.059050716 -0.04828166 -0.004028696 0.0099385455
0.06206386 0.023610994 0.08823486 -0.08487471 0.029845795 -0.063445844 0.0007869557 -0.08260553
0.001743573 -0.049384937 0.071012065 -0.059286106 0.0128752645 -0.06063744 -0.040145718 0.01474237
00000000: 3f36 ca3c 4097 493d 868f 18bd 5bfa 043d
00000010: 7717 143d 7511 67bd 7915 8dbd 5bfe 883c
00000020: f5cf 5abd 1069 1bbd 3276 9a3d 1e65 4bbd
00000030: aee6 d5bc 99f8 80bd a07f 47bc fb6d e73c
00000040: 9fe6 f43c cfe0 5c3d 8af8 d7bc 48fe a2bd
00000050: 4d4b 56bd 9178 af3d 04f7 66bb f955 ae3c
00000060: df3a b1bd f2ee a13d ea37 853d f2ff a9bb
00000070: 5433 75bc 851c 5a3d 78a8 863a 66c2 ae3d
00000080: 5fc3 2fbd 42b4 2a3d 0805 b2bc dde1 7f3c
00000090: 020a b33d fa84 d9bb 922e 4c3d c718 3c3c
000000a0: 14b1 c03c 22e0 b03d 6e30 cb3c d692 c1bb
000000b0: 31df 0b3d e47e 7f3d af88 243d cd26 febc
000000c0: 4bea c7bc 011d 923d 3686 4bbd 4b70 52bd
000000d0: d0f4 263a 84e6 07bd 8991 1e3d 3388 f63c
000000e0: 4c4b 4cbb c376 a4bd e5e6 97bc 8779 b43d
000000f0: d273 eabc d879 28bd f62a 9abd b486 af3d
00000100: 8c16 923c 40c5 4c3d 2320 9e3d 0c12 d8bb
00000110: abed b2bd 07c6 9e3d 86c7 023d 90ca 4dbc
00000120: deb2 933d 989b 9e3c e126 4dbd 08f1 ad3b
00000130: 6821 a6bd 71f5 8ebd 450c 823d a113 643d
00000140: 197b bf3c 9550 1b3d 8895 e3bb 53d6 8ebd
00000150: 5a13 dcbc 3a93 75bc 9fe2 92bc 3db8 713d
00000160: f4c1 55bc d6f6 8dbd 3919 233d 7eb4 81bd
00000170: 1393 673d 1b05 eb3c 3fd3 a2bd d332 fb3a
00000180: d8cd 0f3d b248 3f3d 17d9 8d3d 64ea 65bd
00000190: d571 1a3d 0e58 813d 6996 ac3d b7d5 15bc
000001a0: fbc6 d7bc 4c7d 6fbd bf75 e1bc e4de 67bc
000001b0: 861c 18bd aefd a73d ae26 183b b295 a6bd
000001c0: 4777 073d 2f25 01bd c186 cdbb ad87 913d
000001d0: 5dcb 4cbd 8d97 ac3d c879 6ebc 02eb 1abd
000001e0: c830 adbd 68d1 65bd 2636 a43d 6c82 853d
000001f0: fc01 a13d c1fe 3d3d 21f6 51bd 4311 b3bd
00000200: 569d a7bd 8738 aabd a62b afbd 6472 633d
00000210: e193 363d 5de6 b53c 52da ac3d 74ec ab3d
00000220: 0ca4 31bd 6a71 613d a750 e33c 4e6c 6dbb
00000230: fbb0 4d3d 7259 073d b91d aa3d 2a1f c03a
00000240: abea 743d 35d0 7d3d b760 8c3d 3df9 8a3d
00000250: a724 8fbd a894 893c e476 8a3d 02b6 76bc
00000260: 6150 00bc b96b 93bc a47b 3c3d 2749 b2bd
00000270: bb94 e03c e9e8 963d 8a81 753d 0c7a f73c
00000280: c934 673c 6073 cb3c f1f9 0b3d cb1d 663d
00000290: 3af3 6dbd 9e25 a4bd 6e47 5d3c c015 16bd
000002a0: 20e8 61bd fecc 883c f21c 863d 5ba9 2a3d
000002b0: 5775 433d d16e 1cbd d9ad 43bc 93d2 81bd
000002c0: 7846 063d 7fdb 5ebb 8bc7 40bd f75d c4bb
000002d0: df7c a9bd 1207 09bd 40a5 8f3b 9aa3 91bc
000002e0: 0209 133d 0fc2 9abd 58d2 4e3c dc78 a63d
000002f0: 9e6c 22bd d1ef 9b3d 31c2 06bd 0625 84bc
00000300: 2587 0bbc 4c83 acbd b90f 4bbd af2e 2ebd
00000310: fd8f 64bd 56a1 4dbd 56c2 78ba b322 06bd
00000320: f55e 0e3d f6d5 a53d 2eb8 71bb cc40 563d
00000330: 5d8c 15bd d461 5cbd 11b0 a4bb 067e 993d
00000340: fcff 68bd 9036 9a3d 78d2 c7bc 49f1 aabb
00000350: 88b3 a1bc 45e3 563c 2b17 babb f7c3 9ebd
00000360: a7ba b73b bdb2 65bc b5bf 9dbd 4e65 483d
00000370: 68e6 9ebd 9e91 633d c67b ff3c e296 b13d
00000380: 8809 d43b f84c 0e3d fe44 62bd 929b 5e3d
00000390: 9c7b 1ebd 2bfc 98bd 3935 853d 6d01 5dbc
000003a0: 5525 373c 0674 883d b1aa 4dbd 53e2 66bd
000003b0: 2adf 713d fdc2 45bd 2703 84bb 48d5 223c
000003c0: ad36 7e3d d86b c13c 7ab4 b43d cbd2 adbd
000003d0: 2b7f f43c e5ef 81bd b44b 4e3a 172d a9bd
000003e0: 9a88 e43a dc47 4abd c66e 913d fdd5 72bd
000003f0: c6f2 523c f75e 78bd d66f 24bd fb89 713c

policy.4.bias f4 [7]
-0.027124066 0.08342688 -0.015778549 0.045635458 -0.056086116 0.0416744 -0.045206156
00000000: 4a33 debc b6db aa3d 0442 81bc 3fec 3a3d
00000010: 8eba 65bd c7b2 2a3d 172a 39bd

exp_avg f4 [256, 15]
0.0 0.0 0.0 0.0 0.0 0.0 0.0 0.0
0.0 0.0 0.0 0.0 0.0 0.0 0.0 0.0
0.0 0.0 0.0 0.0 0.0 0.0 0.0 0.0
0.0 0.0 0.0 0.0 0.0 0.0 -8.602712e-05 -2.0063891e-05
5.1754185e-05 -6.969542e-05 -3.7755904e-05 7.158156e-05 1.0323664e-05 -1.171191e-06 -6.909287e-06 1.7943064e-05
1.555285e-05 1.376736e-06 -4.9774707e-07 2.0561681e-06 -2.6569253e-06 -0.00012696098 -3.5070334e-05 6.99617e-05
-9.9635996e-05 -5.020578e-05 0.00010210427 1.7240473e-05 -5.299188e-06 -7.4130703e-06 2.68777e-05 2.1079504e-05
2.358215e-06 2.587087e-06 -7.0790843e-06 -9.32103e-06 -0.0001577367 -2.4413946e-05 7.762654e-05 -0.00012832684
-6.151965e-05 0.00012910287 2.3026205e-05 -8.708942e-06 -1.3216249e-05 3.479399e-05 2.3915525e-05 2.6238072e-06
2.0508583e-06 7.609629e-06 4.3720684e-06 9.924801e-05 3.3763423e-05 -7.4028816e-05 9.9393605e-05 5.9799255e-05
-0.0001482616 -1.9487488e-05 -1.4412045e-05 6.191679e-06 -2.9389355e-05 -2.6225762e-05 -1.4295112e-07 -2.5459707e-07
-1.4350978e-05 -1.7302122e-05 0.0 0.0 0.0 0.0 0.0 0.0
0.0 0.0 0.0 0.0 0.0 0.0 0.0 0.0
0.0 0.0 0.0 0.0 0.0 0.0 0.0 0.0
0.0 0.0 0.0 0.0 0.0 0.0 0.0 0.0
0.0 0.0 0.0 0.0 0.0 0.0 0.0 0.0
0.0 0.0 0.0 0.0 0.0 0.0 0.0 -0.00010972647
-4.643139e-05 7.3544295e-05 -8.143719e-05 -5.2934156e-05 9.768057e-05 1.5651807e-05 1.7792311e-06 -1.981726e-06
2.2998052e-05 2.4113084e-05 6.8956183e-07 4.791948e-07 3.4862412e-06 5.577057e-06 0.0 0.0
0.0 0.0 0.0 0.0 0.0 0.0 0.0 0.0
0.0 0.0 0.0 0.0 0.0 -3.0371113e-05 -8.984969e-06 2.8361405e-06
-2.1065835e-05 -4.619821e-06 2.1568268e-05 1.0840533e-05 -2.9362875e-06 2.3362975e-06 4.520554e-06 5.983608e-06
4.9261735e-06 2.0526084e-06 5.3568097e-06 -2.2913678e-06 -0.000111348665 -1.4749386e-05 4.689438e-05 -8.583081e-05
-4.096633e-05 8.928811e-05 1.5682604e-05 -8.028315e-06 -9.753451e-06 2.306292e-05 1.6597527e-05 5.393529e-06
3.5939272e-06 -9.724819e-08 5.152978e-06 -3.8023896e-05 -4.3066457e-06 1.2975784e-05 -2.5864503e-05 -1.8647077e-05
3.3155357e-05 5.264703e-06 -3.7210866e-06 -3.0221897e-06 8.562965e-06 6.5975532e-06 9.700882e-07 2.147869e-06
-1.088752e-06 9.407651e-06 0.0 0.0 0.0 0.0 0.0 0.0
0.0 0.0 0.0 0.0 0.0 0.0 0.0 0.0
0.0 0.00020629236 8.342325e-05 -0.00014801369 0.0001779045 0.00011461354 -0.0002534429 -3.2696855e-05
-1.6943024e-05 7.2552407e-06 -5.4198525e-05 -4.9468046e-05 -3.0988764e-07 -1.3395355e-06 -3.193955e-05 -5.896367e-06
1.1382763e-05 -1.1585468e-05 3.9338206e-06 1.1865696e-05 2.2660556e-06 -6.67851e-06 -4.2869e-06 2.4669332e-06
3.4457578e-06 -3.1917425e-06 -3.3723344e-07 -2.2023798e-06 2.6466033e-08 -9.221088e-06 -1.9075642e-05 0.000167777
00000000: 0000 0000 0000 0000 0000 0000 0000 0000
00000010: 0000 0000 0000 0000 0000 0000 0000 0000
00000020: 0000 0000 0000 0000 0000 0000 0000 0000
00000030: 0000 0000 0000 0000 0000 0000 0000 0000
00000040: 0000 0000 0000 0000 0000 0000 0000 0000
00000050: 0000 0000 0000 0000 0000 0000 0000 0000
00000060: 0000 0000 0000 0000 0000 0000 0000 0000
00000070: 0000 0000 0000 0000 7569 b4b8 e14e a8b7
00000080: a212 5938 7229 92b8 185c 1eb8 0f1e 9638
00000090: cd33 2d37 d131 9db5 53d6 e7b6 7084 9637
000000a0: 7e77 8237 4ac8 b835 eb9c 05b5 b3fc 0936
000000b0: a14d 32b6 d420 05b9 7c18 13b8 67b8 9238
000000c0: abf3 d0b8 0c94 52b8 d020 d638 a29f 9037
000000d0: aecf b1b6 cabd f8b6 6c77 e137 e4d3 b037
000000e0: d341 1e36 d19d 2d36 df88 edb6 8561 1cb7
000000f0: 1f66 25b9 8dcc ccb7 6ecb a238 798f 06b9
00000100: 1c04 81b8 ca5f 0739 6628 c137 9f1c 12b7
00000110: 5bbb 5db7 c3ef 1138 339e c837 aa14 3036
00000120: 7aa1 0936 3756 ff36 c8b3 9236 5f23 d038
00000130: 339d 0d38 eb3f 9bb8 8971 d038 f6d0 7a38
00000140: ac76 1bb9 1079 a3b7 43cb 71b7 1ec2 cf36
00000150: 2989 f6b7 65ff dbb7 1b7e 19b4 8eaf 88b4
00000160: fbc4 70b7 0624 91b7 0000 0000 0000 0000
00000170: 0000 0000 0000 0000 0000 0000 0000 0000
00000180: 0000 0000 0000 0000 0000 0000 0000 0000
00000190: 0000 0000 0000 0000 0000 0000 0000 0000
000001a0: 0000 0000 0000 0000 0000 0000 0000 0000
000001b0: 0000 0000 0000 0000 0000 0000 0000 0000
000001c0: 0000 0000 0000 0000 0000 0000 0000 0000
000001d0: 0000 0000 0000 0000 0000 0000 0000 0000
000001e0: 0000 0000 0000 0000 0000 0000 0000 0000
000001f0: 0000 0000 0000 0000 0000 0000 0000 0000
00000200: 0000 0000 0000 0000 0000 0000 0000 0000
00000210: 0000 0000 0000 0000 0000 0000 f31c e6b8
00000220: 53bf 42b8 cb3b 9a38 42c9 aab8 9e05 5eb8
00000230: dbd9 cc38 004c 8337 eacd ee35 cbfd 04b6
00000240: f1eb c037 7446 ca37 541a 3935 04a2 0035
00000250: 2bf5 6936 8e22 bb36 0000 0000 0000 0000
00000260: 0000 0000 0000 0000 0000 0000 0000 0000
00000270: 0000 0000 0000 0000 0000 0000 0000 0000
00000280: 0000 0000 0000 0000 0000 0000 0000 0000
00000290: 0000 0000 78c5 feb7 26be 16b7 8654 3e36
000002a0: 89b6 b0b7 f603 9bb6 81ed b437 bcdf 3537
000002b0: 090d 45b6 49c9 1c36 43af 9736 cdc6 c836
000002c0: 824b a536 8bbf 0936 a5be b336 66c5 19b6
000002d0: dc83 e9b8 2174 77b7 75b0 4438 1100 b4b8
000002e0: 43d3 2bb8 3040 bb38 238e 8337 5ab1 06b7
000002f0: c1a2 23b7 3e77 c137 eb3a 8b37 10fa b436
00000300: 332f 7136 c2d6 d0b3 bee7 ac36 d97b 1fb8
00000310: ce81 90b6 91b2 5937 99f7 d8b7 4b6c 9cb7
00000320: 4b10 0b38 74a7 b036 c8b7 79b6 d3d0 4ab6
00000330: a8a9 0f37 8d60 dd36 fa33 8235 1c24 1036
00000340: 3c21 92b5 8ed5 1d37 0000 0000 0000 0000
00000350: 0000 0000 0000 0000 0000 0000 0000 0000
00000360: 0000 0000 0000 0000 0000 0000 0000 0000
00000370: 0000 0000 0000 0000 0000 0000 0000 0000
00000380: 0000 0000 2f50 5839 84f3 ae38 1f34 1bb9
00000390: e08b 3a39 ad5c f038 88e0 84b9 fb23 09b8
000003a0: de20 8eb7 0b72 f336 3953 63b8 e97b 4fb8
000003b0: a25e a6b4 17ca b3b5 d5f6 05b8 68d9 c5b6
000003c0: 98f8 3e37 355f 42b7 43ff 8336 c712 4737
000003d0: 8a12 1836 f717 e0b6 31d8 8fb6 978d 2536
000003e0: ab3d 6736 b831 56b6 030d b5b4 99cc 13b6
000003f0: 6c57 e332 45b4 1ab7 a104 a0b7 4ced 2f39

exp_avg_sq f4 [256, 15]
0.0 0.0 0.0 0.0 0.0 0.0 0.0 0.0
0.0 0.0 0.0 0.0 0.0 0.0 0.0 0.0
0.0 0.0 0.0 0.0 0.0 0.0 0.0 0.0
0.0 0.0 0.0 0.0 0.0 0.0 1.4492987e-07 1.4368943e-08
4.9521965e-08 7.356319e-08 2.7676823e-08 8.088579e-08 2.9608778e-09 2.0375146e-10 1.596291e-10 5.2278692e-09
6.2806946e-09 2.6083222e-11 1.5381118e-11 1.7968098e-10 7.8784124e-10 6.471521e-07 9.026486e-08 2.7502023e-07
3.807662e-07 1.5243484e-07 5.743648e-07 1.3938553e-08 1.7284149e-09 6.6801925e-10 2.957229e-08 3.2099084e-08
1.0276314e-10 9.07396e-11 2.7903735e-09 2.5796472e-09 2.1135595e-06 2.7631262e-07 8.527635e-07 1.1808195e-06
4.6740286e-07 1.6477285e-06 4.3825107e-08 4.2969797e-09 1.9865924e-09 8.9740006e-08 1.0090404e-07 3.4008904e-10
2.3078126e-10 7.459292e-09 5.841565e-09 2.786474e-07 3.096659e-08 1.0708475e-07 1.7823342e-07 8.296885e-08
3.8248658e-07 9.954478e-09 2.258541e-09 5.311467e-10 1.6258184e-08 1.6313216e-08 9.164335e-11 8.750985e-11
9.041342e-09 1.9370157e-09 0.0 0.0 0.0 0.0 0.0 0.0
0.0 0.0 0.0 0.0 0.0 0.0 0.0 0.0
0.0 0.0 0.0 0.0 0.0 0.0 0.0 0.0
0.0 0.0 0.0 0.0 0.0 0.0 0.0 0.0
0.0 0.0 0.0 0.0 0.0 0.0 0.0 0.0
0.0 0.0 0.0 0.0 0.0 0.0 0.0 1.3153459e-07
2.140075e-08 5.7373274e-08 7.059484e-08 2.8379167e-08 9.95066e-08 2.2756466e-09 1.2192433e-10 7.8913515e-11
5.563728e-09 6.1391585e-09 1.372654e-11 1.2087896e-11 1.1857479e-09 1.173393e-09 0.0 0.0
0.0 0.0 0.0 0.0 0.0 0.0 0.0 0.0
0.0 0.0 0.0 0.0 0.0 2.9177983e-07 3.2691975e-08 1.2588013e-07
2.118231e-07 9.42757e-08 4.4401366e-07 9.742235e-09 2.8434244e-09 6.575299e-10 1.8797616e-08 1.7040543e-08
7.317517e-11 1.3013543e-10 6.911955e-10 4.1249595e-10 1.8578622e-06 2.4580038e-07 7.564057e-07 1.041675e-06
4.122498e-07 1.4649572e-06 3.7962767e-08 3.954767e-09 1.7540417e-09 7.9636784e-08 8.866094e-08 2.8479874e-10
2.1486907e-10 7.430024e-09 5.8836807e-09 4.6918314e-07 6.488546e-08 1.9070657e-07 2.549839e-07 1.0194267e-07
3.5393913e-07 9.25295e-09 7.395447e-10 3.9446532e-10 1.9701744e-08 2.209609e-08 7.069675e-11 5.0638983e-11
3.4122278e-09 2.363402e-09 0.0 0.0 0.0 0.0 0.0 0.0
0.0 0.0 0.0 0.0 0.0 0.0 0.0 0.0
0.0 1.981054e-07 2.5768053e-08 8.807947e-08 1.4392504e-07 6.2124315e-08 2.9366979e-07 6.299334e-09
1.5088087e-09 3.5926734e-10 1.2665495e-08 1.1526297e-08 3.7245595e-11 6.9285806e-11 2.9662168e-09 4.8004256e-10
4.0721184e-07 5.8316804e-08 1.7041427e-07 2.2658053e-07 9.070652e-08 3.2301284e-07 8.0839815e-09 7.159133e-10
3.503833e-10 1.7629121e-08 1.9521536e-08 6.29663e-11 4.451958e-11 3.3746048e-09 2.7956402e-09 3.131383e-07
00000000: 0000 0000 0000 0000 0000 0000 0000 0000
00000010: 0000 0000 0000 0000 0000 0000 0000 0000
00000020: 0000 0000 0000 0000 0000 0000 0000 0000
00000030: 0000 0000 0000 0000 0000 0000 0000 0000
00000040: 0000 0000 0000 0000 0000 0000 0000 0000
00000050: 0000 0000 0000 0000 0000 0000 0000 0000
00000060: 0000 0000 0000 0000 0000 0000 0000 0000
00000070: 0000 0000 0000 0000 059e 1b34 48db 7632
00000080: fab1 5433 cbf9 9d33 fabd ed32 6fb3 ad33
00000090: 5078 4b31 f006 602f 9983 2f2f d3a0 b331
000000a0: 93cd d731 326e e52d 334b 872d b38f 452f
000000b0: 668f 5830 f4b7 2d35 a2d7 c133 7ea6 9334
000000c0: 1c6c cc34 f8ac 2334 0c2e 1a35 6876 6f32
000000d0: 318d ed30 ad9f 3730 2706 fe32 51dd 0933
000000e0: 81fa e12e db89 c72e c5c0 3f31 a245 3131
000000f0: add6 0d36 1e58 9434 76e9 6435 a67c 9e35
00000100: 5cef fa34 8527 dd35 373a 3c33 a2a4 9331
00000110: 8184 0831 17b7 c033 95b0 d833 47f7 ba2f
00000120: 26bf 7d2f 5026 0032 f3b6 c831 0299 9534
00000130: 2000 0533 77f6 e533 6e60 3f34 9c2c b233
00000140: 8e58 cd34 4204 2b32 ac34 1b31 2000 1230
00000150: 20a8 8b32 2421 8c32 9f86 c92e aa6f c02e
00000160: 3e54 1b32 571c 0531 0000 0000 0000 0000
00000170: 0000 0000 0000 0000 0000 0000 0000 0000
00000180: 0000 0000 0000 0000 0000 0000 0000 0000
00000190: 0000 0000 0000 0000 0000 0000 0000 0000
000001a0: 0000 0000 0000 0000 0000 0000 0000 0000
000001b0: 0000 0000 0000 0000 0000 0000 0000 0000
000001c0: 0000 0000 0000 0000 0000 0000 0000 0000
000001d0: 0000 0000 0000 0000 0000 0000 0000 0000
000001e0: 0000 0000 0000 0000 0000 0000 0000 0000
000001f0: 0000 0000 0000 0000 0000 0000 0000 0000
00000200: 0000 0000 0000 0000 0000 0000 0000 0000
00000210: 0000 0000 0000 0000 0000 0000 f43b 0d34
00000220: bfd4 b732 956a 7633 ec99 9733 73c6 f332
00000230: 55b0 d533 9961 1c31 a60e 062f 5c88 ad2e
00000240: 122b bf31 9cf0 d231 d77a 712d 0ba7 542d
00000250: ccf7 a230 1945 a130 0000 0000 0000 0000
00000260: 0000 0000 0000 0000 0000 0000 0000 0000
00000270: 0000 0000 0000 0000 0000 0000 0000 0000
00000280: 0000 0000 0000 0000 0000 0000 0000 0000
00000290: 0000 0000 eaa5 9c34 3569 0c33 ab29 0734
000002a0: 7e71 6334 9d74 ca33 c660 ee34 cd5e 2732
000002b0: 0d66 4331 8ebd 3430 6578 a132 8d60 9232
000002c0: f5e9 a02e de15 0f2f 8ffe 3d30 a5c5 e22f
000002d0: a95b f935 8cf6 8334 ce0b 4b35 aecf 8b35
000002e0: 2e53 dd34 8c9f c435 810c 2333 80e2 8731
000002f0: db12 f130 c904 ab33 de65 be33 dc91 9c2f
00000300: 4440 6c2f 2f4b ff31 6729 ca31 0ae4 fb34
00000310: 2957 8b33 06c5 4c34 b8e4 8834 93eb da33
00000320: 0605 be34 e8f6 1e32 d548 4b30 0fdc d82f
00000330: 983c a932 d1cd bd32 bb76 9b2e 6db6 5e2e
00000340: 8c7c 6a31 6869 2231 0000 0000 0000 0000
00000350: 0000 0000 0000 0000 0000 0000 0000 0000
00000360: 0000 0000 0000 0000 0000 0000 0000 0000
00000370: 0000 0000 0000 0000 0000 0000 0000 0000
00000380: 0000 0000 ccb6 5434 8c58 dd32 3326 bd33
00000390: d089 1a34 3469 8533 aba9 9d34 8771 d831
000003a0: 7d5e cf30 6282 c52f 7097 5932 3105 4632
000003b0: d0ce 232e 715c 982e 3dd6 4b31 fef3 0330
000003c0: c59e da34 0178 7a33 1efb 3634 fb49 7334
000003d0: 70ca c233 8c6a ad34 bae1 0a32 ebc9 4430
000003e0: 11a0 c02f d96e 9732 50b0 a732 e076 8a2e
000003f0: 97cc 432e ade6 6731 6c1d 4031 661d a834

exp_avg f4 [256]
0.0 0.0 2.287405e-05 3.41698e-05 4.136188e-05 -3.8486327e-05 0.0 0.0
0.0 3.4013705e-05 0.0 9.515552e-06 2.7291968e-05 9.316477e-06 0.0 -7.218856e-05
-3.6544013e-06 -4.932868e-05 1.30191875e-05 -6.544529e-05 5.7235e-05 -3.2856467e-05 3.839473e-05 9.601245e-06
6.811281e-06 9.2808215e-05 -5.810267e-05 0.0 0.0 6e-45 2.5463446e-06 0.0
0.0 4.1307125e-05 1.3021417e-05 -3.7975067e-05 -2.8982744e-05 0.0 0.0 1.2242838e-05
-5.9673553e-06 1.9870426e-05 -1.5442487e-05 0.0 6.3559964e-05 0.0 0.0 -1.0853085e-07
-8.434695e-06 -2.5162128e-05 -1.5389189e-05 0.0 0.0 -8.9367795e-06 0.0 1.4865239e-05
0.0 0.0 0.0 5.7243462e-05 0.0 0.0 0.0 0.0
0.0 -0.000113400005 0.0 -4.3076725e-05 0.0 -5.3152773e-05 0.0 1.4309904e-05
0.0 2.9846427e-05 2.4837486e-06 -3.1392194e-06 0.0 1.8850576e-05 0.0 0.0
2.780974e-06 0.0 4.4240605e-07 0.0 -1.5683006e-05 0.0 -3.0093026e-05 1.7106619e-05
0.0 2.2088869e-05 -2.3066152e-05 0.0 0.0 -3.9542956e-05 1.3179373e-05 0.0
0.0 0.0 -7.627935e-06 0.0 -2.3868797e-05 0.0 0.0 0.0
0.0 2.8438144e-05 -6.221864e-06 0.0 3.9255403e-05 -1.143769e-05 3.1470732e-05 6e-45
-1.8387464e-05 0.0 0.0 0.0 3.9480616e-05 7.799682e-05 2.386559e-05 -4.2902197e-05
1.3029277e-05 4.329925e-05 0.0 3.4024888e-05 0.0 0.0 -3.5372566e-05 -6.713301e-05
5.4322878e-05 1.5505862e-05 7.608945e-05 -1.7241961e-06 0.0 0.0 0.0 -1.0332936e-06
1.1038907e-06 -2.6430778e-06 0.0 4.53235e-05 1.9607358e-05 -3.376951e-07 3.050441e-05 0.0
0.0 -1.2056804e-05 1.4298114e-05 0.0 0.0 0.0 -4.061977e-05 -2.5748497e-05
3.107283e-05 1.3794737e-05 0.0 5.075331e-06 -5.0112692e-05 1.4181949e-05 0.0 -9.890926e-05
-3.1649906e-05 0.0 2.0501917e-05 2.3449855e-05 0.0 -5.0707267e-06 0.0 -5.2171505e-05
-2.8138344e-05 6.0037273e-05 6e-45 0.0 0.0 -0.00010252415 4.754892e-05 -5.362601e-05
3.0379693e-05 9.948803e-06 0.0 -4.0523464e-06 1.3418993e-05 1.5709464e-05 2.2799652e-05 0.0
1.611739e-05 0.0 -3.491112e-05 0.0 2.254562e-05 6.253015e-05 0.0 1.7083243e-05
-4.8649454e-05 0.0 2.3077819e-05 3.243719e-05 -2.89695e-06 -2.06026e-05 0.0 6.423752e-05
-4.166909e-05 -5.9528335e-05 0.0 7.1934987e-06 4.220108e-06 1.4204039e-05 5.677292e-05 3.0611638e-05
0.0 0.0 4.204688e-05 -2.9754665e-05 0.0 9.553469e-05 2.978555e-05 4.1278276e-05
0.0 6e-45 5.449977e-05 2.520885e-05 -2.2872262e-05 6.058818e-06 0.0 0.0
-3.0607126e-07 -5.912737e-06 2.7892162e-05 -3.0254932e-05 0.0 -4.4366836e-05 0.0 4.0078783e-05
4.305716e-05 1.0617964e-05 2.2116237e-05 1.1485092e-05 0.0 -5.0108098e-05 -2.7117034e-05 2.0174725e-06
-2.6348603e-06 0.0 0.0 1.0175337e-05 3.151796e-05 5.273975e-05 4.599584e-06 -1.2859191e-05
0.0 -9.579664e-06 0.0 5.5497974e-05 3.9404986e-05 -6.935226e-05 0.0 1.2271653e-05
00000000: 0000 0000 0000 0000 a6e1 bf37 8b51 0f38
00000010: fb7b 2d38 616c 21b8 0000 0000 0000 0000
00000020: 0000 0000 f0a9 0e38 0000 0000 fca4 1f37
00000030: 0ef1 e437 f74d 1c37 0000 0000 f063 97b8
00000040: 233e 75b6 44e6 4eb8 fc6c 5a37 ac3f 89b8
00000050: 9d0f 7038 5dcf 09b8 070a 2138 0915 2137
00000060: 758c e436 08a2 c238 44b3 73b8 0000 0000
00000070: 0000 0000 0400 0000 dee1 2a36 0000 0000
00000080: 0000 0000 3041 2d38 8f76 5a37 6b47 1fb8
00000090: f81f f3b7 0000 0000 0000 0000 9766 4d37
000000a0: 313b c8b6 6aaf a637 7d8a 81b7 0000 0000
000000b0: 7f4b 8538 0000 0000 0000 0000 7711 e9b3
000000c0: bd82 0db7 4213 d3b7 0818 81b7 0000 0000
000000d0: 0000 0000 2def 15b7 0000 0000 b765 7937
000000e0: 0000 0000 0000 0000 0000 0000 b318 7038
000000f0: 0000 0000 0000 0000 0000 0000 0000 0000
00000100: 0000 0000 2ad1 edb8 0000 0000 48ad 34b8
00000110: 0000 0000 5bf0 5eb8 0000 0000 9214 7037
00000120: 0000 0000 b75e fa37 7aae 2636 61ab 52b6
00000130: 0000 0000 4e21 9e37 0000 0000 0000 0000
00000140: c5a0 3a36 0000 0000 d383 ed34 0000 0000
00000150: 008f 83b7 0000 0000 4870 fcb7 2f80 8f37
00000160: 0000 0000 7c4b b937 2f7e c1b7 0000 0000
00000170: 0000 0000 edda 25b8 fa1c 5d37 0000 0000
00000180: 0000 0000 0000 0000 76f3 ffb6 0000 0000
00000190: da39 c8b7 0000 0000 0000 0000 0000 0000
000001a0: 0000 0000 738e ee37 68c5 d0b6 0000 0000
000001b0: 2ba6 2438 81e4 3fb7 71ff 0338 0400 0000
000001c0: c73e 9ab7 0000 0000 0000 0000 0000 0000
000001d0: fd97 2538 3992 a338 f732 c837 e2f1 33b8
000001e0: 5298 5a37 379c 3538 0000 0000 f2b5 0e38
000001f0: 0000 0000 0000 0000 015d 14b8 c3c9 8cb8
00000200: bfd8 6338 9612 8237 3692 9f38 ed6a e7b5
00000210: 0000 0000 0000 0000 0000 0000 b3af 8ab5
00000220: 6529 9435 bb5f 31b6 0000 0000 bd19 3e38
00000230: 7b7a a437 764c b5b4 b9e3 ff37 0000 0000
00000240: 0000 0000 9447 4ab7 efe1 6f37 0000 0000
00000250: 0000 0000 0000 0000 255f 2ab8 7afe d7b7
00000260: 3254 0238 f26f 6737 0000 0000 c34c aa36
00000270: 1830 52b8 02ef 6d37 0000 0000 816d cfb8
00000280: d4bf 04b8 0000 0000 88fb ab37 2eb6 c437
00000290: 0000 0000 3625 aab6 0000 0000 bad2 5ab8
000002a0: a20a ecb7 88d0 7b38 0400 0000 0000 0000
000002b0: 0000 0000 3c02 d7b8 446f 4738 7dec 60b8
000002c0: e5d7 fe37 c9e9 2637 0000 0000 64f9 87b6
000002d0: 2322 6137 d1c7 8337 e141 bf37 0000 0000
000002e0: d533 8737 0000 0000 886d 12b8 0000 0000
000002f0: 5a20 bd37 9e22 8338 0000 0000 fc4d 8f37
00000300: f40c 4cb8 0000 0000 3d97 c137 2b0d 0838
00000310: 3969 42b6 bfd3 acb7 0000 0000 42b7 8638
00000320: d8c5 2eb8 10ae 79b8 0000 0000 af5f f136
00000330: 749a 8d36 e24d 6e37 751f 6e38 ff64 0038
00000340: 0000 0000 0000 0000 7e5b 3038 a899 f9b7
00000350: 0000 0000 cc59 c838 fbdb f937 3622 2d38
00000360: 0000 0000 0400 0000 af96 6438 9877 d337
00000370: cfdd bfb7 da4c cb36 0000 0000 0000 0000
00000380: 1d52 a4b4 0666 c6b6 f6f9 e937 f9cb fdb7
00000390: 0000 0000 8716 3ab8 0000 0000 441a 2838
000003a0: 4698 3438 cf23 3237 4286 b937 18b0 4037
000003b0: 0000 0000 292b 52b8 6379 e3b7 ea63 0736
000003c0: 8ed2 30b6 0000 0000 0000 0000 bdb6 2a37
000003d0: 2732 0438 e034 5d38 2056 9a36 cebd 57b7
000003e0: 0000 0000 58b8 20b7 0000 0000 7fc6 6838
000003f0: c846 2538 3671 91b8 0000 0000 59e2 4d37
