models/dr_fair_model_best.pth (torch, 463653 bytes, 18 tensors)

policy.0.weight f4 [256, 15]
0	0xbdb043f8	-0.08606714
1	0x3d930e9c	0.07180521
2	0x3d7d2704	0.061804786
3	0xbe4b0565	-0.19826277
4	0x3e843277	0.25819752
5	0xbd7feb8c	-0.062480494
6	0xbc6d7237	-0.014492563
7	0xbe26b86e	-0.16281292
8	0x3e3daa8f	0.18522094
9	0x3dec2ba0	0.11531758
10	0xbe2223f5	-0.15834029
11	0x3d8aef02	0.06783868
12	0x3e3c3f0e	0.18383428
13	0xbe5c1b30	-0.21494746
14	0xbe12d464	-0.14338833
15	0xbdd02f3a	-0.10165258
16	0x3e2e6832	0.17031935
17	0x3c9232dd	0.01784652
18	0x3e6c5c77	0.23082148
19	0xbe7609f0	-0.24027228
20	0x3d9ab145	0.07553343
21	0x3da0d497	0.07853048
22	0x3d903c4c	0.07042751
23	0x3cb47f97	0.022033496
24	0x3e72e5a2	0.2372041
25	0x3e55f333	0.20893554
26	0xbe4198b0	-0.18905902
27	0xbc8da217	-0.017289205
28	0x3e147164	0.1449638
29	0x3d8bc87b	0.06825348
30	0x3de41433	0.11136665
31	0x3daf7629	0.08567459
32	0x3d7cf82a	0.061760105
33	0xbd79db1a	-0.060999967
34	0xbe4caa4f	-0.19986843
35	0x3e63b7c5	0.22238071
36	0x3d8112de	0.06302427
37	0x3e421439	0.18953027
38	0x3e7e084d	0.24807854
39	0x3e09c6e6	0.1345478
40	0x3de3028d	0.11084471
41	0x3e76dbe3	0.24107318
42	0xbdb84cc1	-0.08999015
43	0x3dc50efe	0.09622
44	0xbe5a5b67	-0.2132393
45	0x3d729c08	0.059230834
46	0xbc9aaa0a	-0.018879909
47	0x3e04b599	0.12959899
48	0x3e55b6fe	0.20870587
49	0x3db1eece	0.086881265
50	0xbdbc2e01	-0.09188462
51	0x3da95a4b	0.08269175
52	0xbdcb626f	-0.09930884
53	0x3dd64ee2	0.104642645
54	0xbe6d2c8b	-0.23161523
55	0x3e3a055c	0.18166107
56	0x3dd9f58d	0.10642538
57	0x3e2598f1	0.16171624
58	0xbc193aaf	-0.00935237
59	0xbe0f1313	-0.1397212
60	0x3d5f06ae	0.05444973
61	0xbd448940	-0.047982454
62	0xbdcd18d7	-0.100145034
63	0x3e44137a	0.19148055
64	0x3e422828	0.18960631
65	0x3e0f3d8b	0.1398832
66	0x3e549972	0.2076166
67	0xbe0d58db	-0.13803427
68	0xbe131ca2	-0.14366391
69	0x3e149b2d	0.1451232
70	0x3e816735	0.25274053
71	0xbd9ff389	-0.078101225
72	0xbe2aabf7	-0.16667162
73	0xbdd9c0a4	-0.106324464
74	0x3d3982f9	0.04529092
75	0x3d730869	0.059334192
76	0xbe48c1e2	-0.1960521
77	0xbe523bfa	-0.20530692
78	0x3e3b3b1b	0.18284266
79	0x3d8ad925	0.06779698
80	0x3e780d1f	0.24223755
81	0x3e358f1e	0.17730376
82	0xbdc95853	-0.098313
83	0xbe83396c	-0.25629747
84	0x3e357ebf	0.17724131
85	0xbdf74e7b	-0.12075516
86	0x3dc1f1f4	0.09469977
87	0xbcbb36d0	-0.022853285
88	0x3d715c41	0.05892587
89	0xbe5581a5	-0.20850237
90	0x3b8efdf9	0.004363772
91	0x3d9576c5	0.07298044
92	0x3e16cdc4	0.14726931
93	0x3e053231	0.13007428
94	0x3db4fdd1	0.08837474
95	0xbe229f1a	-0.15881005
96	0x3de671cb	0.11252173
97	0xbc8fd95d	-0.017559702
98	0x3e2283d5	0.15870602
99	0xbc8e7a24	-0.017392226
100	0xbe69107a	-0.22760192
101	0xbc3b6944	-0.0114386715
102	0x3e6d6fe1	0.2318721
103	0x3e6f2ca5	0.23356874
104	0x3d163c2c	0.036678478
105	0x3e83fcb7	0.25778744
106	0xbe27a84b	-0.16372792
107	0x3e4c2a2b	0.19937961
108	0x3c6b27f2	0.014352785
109	0x3cacdc03	0.021101004
110	0xbe285995	-0.16440423
111	0x3e5fd411	0.2185824
112	0xbe60178d	-0.21883984
113	0x3df26c5f	0.118370764
114	0x3a8c7e00	0.0010718703
115	0xbe79dac5	-0.2439986
116	0x3dfc1df4	0.123104006
117	0x3e12bc07	0.14329539
118	0xbe3f950b	-0.18709199
119	0x3dd6fcc3	0.10497429
120	0xbe3a537a	-0.18195906
121	0xbe1cbe61	-0.15306999
122	0x3e66c75d	0.22536989
123	0x3da63f95	0.08117596
124	0xbd477f4e	-0.04870539
125	0xbdf7466b	-0.12073978
126	0xbccdf525	-0.025141308
127	0x3e83e37e	0.257595
128	0xbd319dc1	-0.043363336
129	0xbdf3ff37	-0.11913913
130	0x3e6de73c	0.2323274
131	0x3dfcb985	0.123400725
132	0x3d4242f4	0.047427133
133	0x3d83c976	0.0643491
134	0x3e1a9107	0.15094386
135	0x3cbdf09f	0.023186026
136	0xbe61abd2	-0.220382
137	0xbda740df	-0.0816667
138	0x3e3e4657	0.1858152
139	0x3e1239ed	0.1427991
140	0x3e1822f4	0.14857084
141	0x3ddf502b	0.10903963
142	0xbe33dd0f	-0.17564796
143	0x3e22f679	0.15914334
144	0x3e506daf	0.20354341
145	0xbe04da55	-0.12973912
146	0xbe7a4bea	-0.24443021
147	0xbe04f986	-0.1298581
148	0xbe601c60	-0.21885824
149	0x3e4bba12	0.19895199
150	0xbdb11123	-0.08645847
151	0x3e3d5aa3	0.18491606
152	0xbe0d6f3d	-0.13811965
153	0xbe4f1586	-0.20223054
154	0x3e3057c7	0.17220984
155	0xbe42c535	-0.19020541
156	0x3e26ad64	0.16277081
157	0x3e2926cb	0.16518705
158	0xbddc4844	-0.10755971
159	0xbe39c3fe	-0.18141171
160	0xbe8348d5	-0.25641504
161	0xbe3ecd42	-0.18632987
162	0x3d6e5397	0.058185186
163	0x3e5b17f9	0.21395864
164	0xbe6a60d9	-0.22888507
165	0xbe14d3ab	-0.1453387
166	0xbe8360f5	-0.2565991
167	0xbe10857b	-0.14113419
168	0x3e1b911f	0.15192078
169	0x3c0ddb6a	0.008658269
170	0x3d01abc2	0.03165794
171	0x3c72e47d	0.014824984
172	0x3e15b432	0.1461952
173	0x3d912c8d	0.070885755
174	0xbdcda8ff	-0.10041999
175	0xbdee728f	-0.11642944
176	0xbdcd6f5f	-0.10031008
177	0xbe45b65f	-0.1930785
178	0xbe4d0e49	-0.2002498
179	0x3e705438	0.23469627
180	0xbe8028ea	-0.25031215
181	0xbdeb92de	-0.11502622
182	0x3e3abd9d	0.18236394
183	0xbd2e4029	-0.042541657
184	0xbdd7d760	-0.105391264
185	0x3e18023a	0.148446
186	0x3d320cb4	0.043469146
187	0x3e0b1439	0.13581933
188	0x3d9d84c4	0.07691339
189	0x3d7ca668	0.061682135
190	0xbe06f88f	-0.13180755
191	0xbe3cb03b	-0.18426602
192	0xbe5b8281	-0.21436502
193	0x3e010f69	0.12603535
194	0x3e794fa5	0.24346788
195	0x3e0885a9	0.13332237
196	0x3d0e8172	0.034791417
197	0x3dfd7d7f	0.12377452
198	0xbe4aab92	-0.19792011
199	0xbe04701a	-0.12933388
200	0xbdda023d	-0.10644958
201	0xbde24a38	-0.11049312
202	0x3d3a63c7	0.04550531
203	0x3cec6ccb	0.02886047
204	0x3da159db	0.07878467
205	0xbd3e9aeb	-0.04653446
206	0x3e0b6844	0.13613993
207	0x3e175d32	0.14781645
208	0xbe2bde4b	-0.16784017
209	0x3dbe0520	0.09278321
210	0xbe1bac41	-0.15202428
211	0xbe5277ce	-0.20553514
212	0x3de6a3ba	0.11261697
213	0x3ce90758	0.028445885
214	0x3d2eb1bb	0.042649966
215	0x3e25cefa	0.16192237
216	0xbc03af16	-0.008037349
217	0x3dc7377e	0.09727381
218	0xbe35baa3	-0.17746978
219	0xbdab3466	-0.083596036
220	0x3c9fbf37	0.019500358
221	0x3e32f85b	0.17477553
222	0xbe315bd8	-0.17320192
223	0xbd2eb15c	-0.04264961
224	0xbe5f49e5	-0.21805532
225	0xbdedf63c	-0.11619231
226	0x3e50c711	0.20388438
227	0xbda8e4f8	-0.08246797
228	0x3dcacfe0	0.0990293
229	0x3e5d2b58	0.21598566
230	0x3e23ec25	0.1600805
231	0xbdf083cd	-0.11743889
232	0x3dd0fa01	0.102039345
233	0x3e1c1c9f	0.15245293
234	0xbe5d2291	-0.21595217
235	0xbda64ad1	-0.08119739
236	0xbe54f8c3	-0.2079802
237	0xbe716323	-0.23572974
238	0x3e46552a	0.19368425
239	0x3e7fe3c9	0.24989237
240	0x3df48fc5	0.11941484
241	0x3e40b1c6	0.18817815
242	0x3e61bd58	0.22044885
243	0x3d59b11e	0.053147428
244	0x3e2dcdac	0.16972989
245	0x3dace28b	0.08441647
246	0xbe3d560c	-0.18489856
247	0xbe6b1c83	-0.22960095
248	0x3e576ef2	0.21038416
249	0x3e45fbaf	0.19334291
250	0xbe24bffc	-0.16088861
251	0xbe18838b	-0.1489393
252	0x3d8ea0f8	0.06964296
253	0x3d939f37	0.07208102
254	0x3e71349a	0.23555222
255	0x3df50bbe	0.1196513

policy.0.bias f4 [256]
0	0xbe5e8459	-0.21730174
1	0xbd474705	-0.048651714
2	0xbe654f02	-0.2239342
3	0x3e57bffe	0.21069333
4	0x3cdb304c	0.026756428
5	0x3dd25233	0.102695845
6	0x3bbc4461	0.005745456
7	0xbe454b1a	-0.1926693
8	0x3dc0f0fc	0.09420964
9	0x3ddf7f03	0.109128974
10	0x3d9a442e	0.075325355
11	0xbd79aa5c	-0.060953483
12	0xbe720f48	-0.23638642
13	0x3df280cc	0.11840972
14	0xbe5ad4b1	-0.21370198
15	0xbe2f49a3	-0.17117934
16	0x3d5b78b0	0.053581893
17	0xbd402e8a	-0.046919383
18	0xbe3be04a	-0.18347278
19	0x3e55020d	0.20801564
20	0x3d222f80	0.03959608
21	0xbc3d8cef	-0.011569246
22	0xbe78ceb6	-0.24297604
23	0x3d63e4b7	0.05563804
24	0xbc6c59cf	-0.014425709
25	0xbde8e2f3	-0.11371412
26	0x3e02780a	0.12741104
27	0xbcb0c653	-0.021578943
28	0x3e73d3a5	0.23811205
29	0x3e48643e	0.1956949
30	0xbd80bbfb	-0.062858544
31	0xbca4e426	-0.02012832
32	0xbcf6d925	-0.03013284
33	0x3d7b0bc5	0.06129052
34	0xbe6e174c	-0.23251075
35	0xbe4b397f	-0.19846152
36	0x3dfd1487	0.12357431
37	0x3e36f86f	0.17868207
38	0x3dd2d8e8	0.10295278
39	0xbe5522b2	-0.20814016
40	0xbe423f00	-0.18969345
41	0x3d1ae3cd	0.037814904
42	0xbe663520	-0.22481203
43	0x3daf4a12	0.0855905
44	0xbe4f8717	-0.20266376
45	0xbe1b2f92	-0.15154865
46	0xbd4dcb67	-0.050242808
47	0xbe263fcd	-0.16235276
48	0x3e14d778	0.1453532
49	0xbe2a83d1	-0.16651846
50	0x3e146b3b	0.1449403
51	0xbde59d1d	-0.112116076
52	0x3db3ff9d	0.08788989
53	0x3e5d1896	0.2159141
54	0x3de2f1e2	0.11081292
55	0xbe801859	-0.25018576
56	0xbe34e042	-0.17663673
57	0xbcccf4ce	-0.025019076
58	0xbe21840d	-0.1577303
59	0xbc326d6d	-0.010890347
60	0x3de0daa5	0.10979203
61	0xbdfe75c1	-0.124248035
62	0xbe006541	-0.12538625
63	0xbe2af70b	-0.16695802
64	0xbd05a67a	-0.032629468
65	0x3e66cd5f	0.2253928
66	0x3e233689	0.15938772
67	0xbe50483b	-0.20340054
68	0x3d02b849	0.03191403
69	0x3e0cbfc1	0.13745023
70	0xbdbccdd1	-0.09218944
71	0xbe548ca3	-0.20756774
72	0xbc5dff20	-0.013549596
73	0xbe7b938f	-0.24568008
74	0x3d94ab8e	0.07259284
75	0x3d2019d4	0.03908713
76	0x3e3cc6b8	0.1843518
77	0xbe3efa25	-0.1865011
78	0x3e3b5111	0.18292643
79	0x3d81c121	0.063356645
80	0xbcae367e	-0.021266218
81	0x3e3ea1e7	0.18616448
82	0xba39717b	-0.00070741
83	0xbd74a439	-0.059726927
84	0x3dd40440	0.10352373
85	0x3cac06a9	0.02099927
86	0xbd2e626b	-0.042574327
87	0xbc834aa7	-0.016026808
88	0x3e7310a0	0.2373681
89	0x3e2576b4	0.16158563
90	0x3e731365	0.23737867
91	0xbddb4d71	-0.1070813
92	0x3de9e1c2	0.11420013
93	0xbd9e0885	-0.07716469
94	0xbe0e0f36	-0.1387299
95	0xbe15452d	-0.1457717
96	0xbe2171d1	-0.15766074
97	0x3e12ed1f	0.14348267
98	0x3e70da48	0.23520768
99	0x3e1899fe	0.14902493
100	0x3e5d1547	0.21590148
101	0x3e2cfe4d	0.16893883
102	0xbd1ea654	-0.03873284
103	0xbcd60c18	-0.026128814
104	0x3dace5bf	0.08442258
105	0x3cb3f597	0.021967692
106	0x3e14d353	0.14533739
107	0xbdf2eaf8	-0.11861223
108	0x3dd3d233	0.10342827
109	0xbdb97dcb	-0.09057196
110	0xbd984da5	-0.074366845
111	0xbe7ab8b5	-0.24484523
112	0xbcdd7816	-0.0270348
113	0xbe286a6f	-0.16446851
114	0x3d7d019c	0.061769113
115	0x3e1e2e1d	0.15447278
116	0xbd6647db	-0.05622087
117	0xbe2478c6	-0.16061696
118	0x3e6e63d8	0.23280275
119	0x3e63a2d9	0.2223009
120	0x3e10c8b9	0.1413907
121	0xbd9af1b0	-0.075656295
122	0x3e43ea66	0.19132385
123	0x3e185005	0.14874275
124	0x3e2954ec	0.16536301
125	0x3dc1308c	0.09433088
126	0x3ca3962e	0.019969072
127	0xbe2f2aa5	-0.17106111
128	0xbdbfe41d	-0.09369681
129	0xbd9d7eeb	-0.07690223
130	0x3df8eaa5	0.1215413
131	0xbd60d76d	-0.054892946
132	0x3e2de31b	0.16981165
133	0x3d66adb7	0.05631801
134	0x3e59bd17	0.21263538
135	0xbd60620e	-0.054781012
136	0xbd894730	-0.06703031
137	0xbd95ca26	-0.073139474
138	0x3e144cd0	0.14482427
139	0xbd549a95	-0.051905233
140	0x3c98f1dc	0.018670015
141	0xbe59525f	-0.21222828
142	0xbdb76642	-0.08955051
143	0xbe3ff730	-0.18746638
144	0x3e6fb757	0.23409782
145	0xbd294405	-0.041324634
146	0xbdf605f4	-0.12012854
147	0x3dcd37ad	0.10020385
148	0x3e7665b4	0.24062234
149	0xbe1e07a4	-0.15432602
150	0x3e67f653	0.22652559
151	0xbd98fecd	-0.074704744
152	0x3e5ebbee	0.21751377
153	0xbda78c16	-0.08181016
154	0xbddb41e3	-0.10705926
155	0xbe6ca466	-0.23109588
156	0x3cfd9af4	0.030957676
157	0xbe24c2f5	-0.16089995
158	0xbe6a64fc	-0.22890085
159	0x3d984d47	0.074366145
160	0xbe05cd07	-0.13066493
161	0xbd5df945	-0.0541928
162	0x3dd4a801	0.10383607
163	0xbd31ba3f	-0.04339051
164	0x3e6e2050	0.23254514
165	0xbe374e83	-0.17901044
166	0x3e11f47a	0.14253417
167	0xbdc756d2	-0.097333565
168	0x3d64ffe9	0.055908117
169	0xbe68bf80	-0.22729301
170	0x3e21be1d	0.15795179
171	0x3d4382f3	0.047732305
172	0x3da5ab37	0.08089297
173	0x3c7bad26	0.015361106
174	0x3c39efa2	0.011348637
175	0x3df56ad3	0.11983266
176	0xbe8384fd	-0.256874
177	0x3d4f6e92	0.050642557
178	0xbe52d670	-0.20589614
179	0xbe1bd0e5	-0.15216406
180	0x3cf67db3	0.030089235
181	0x3e4098f0	0.18808341
182	0x3e4d110c	0.20026034
183	0x3e4f5295	0.20246346
184	0x3de5b7af	0.112166755
185	0x3e7b91b1	0.24567296
186	0xbe79ed08	-0.24406826
187	0x3de45678	0.11149305
188	0x3d9bbcde	0.07604383
189	0x3de6ba99	0.112660594
190	0x3dfc21ae	0.123111114
191	0xbd8a2d2f	-0.06746899
192	0x3e424dec	0.18975037
193	0xbe6101ba	-0.21973315
194	0xbcd98ada	-0.026555467
195	0x3c3f0078	0.011657827
196	0x3ba88c64	0.005143689
197	0x3e356fed	0.17718478
198	0xbe801223	-0.25013837
199	0xbe6f5fe0	-0.23376417
200	0xbe1cf1eb	-0.1532666
201	0xbde1ce62	-0.110256925
202	0x3e542d74	0.20720464
203	0xbe41cf44	-0.18926722
204	0xbe360b7f	-0.17777823
205	0xbe521aed	-0.20518084
206	0x3e542b1f	0.20719574
207	0xbcf18ccf	-0.029486088
208	0xbe5a295f	-0.21304844
209	0x3e3d15bd	0.18465324
210	0x3e21f78a	0.15817085
211	0xbe4275d6	-0.18990263
212	0xbcad692b	-0.021168312
213	0xbc28fc31	-0.010314033
214	0xbde9a110	-0.11407673
215	0x3d56172d	0.052268196
216	0xbe35fba8	-0.1777178
217	0x3d3925dc	0.04520212
218	0xbdd8192c	-0.10551676
219	0x3e171ee4	0.14757878
220	0x3d680168	0.056641966
221	0xbdb2fa58	-0.087391555
222	0xbca80de0	-0.020514429
223	0xbe4cdedc	-0.20006889
224	0xbe5d00f3	-0.21582393
225	0x3d45a662	0.04825438
226	0x3d44199c	0.047875986
227	0x3b98876b	0.004654815
228	0x3e4406e5	0.19143255
229	0x3c4fcaa8	0.012682594
230	0x3de63163	0.112398885
231	0x3e6c01b7	0.23047529
232	0xbe57f387	-0.21088992
233	0x3e280f6f	0.16412137
234	0xbe7c4904	-0.24637228
235	0x3e3fa4a1	0.18715145
236	0x3dcfa7f8	0.10139459
237	0xbe305053	-0.17218141
238	0x3d416c62	0.047222503
239	0xbdca350d	-0.098734
240	0xbdc02e9f	-0.09383892
241	0x3e50f908	0.20407498
242	0xbd148904	-0.03626348
243	0x3e701ce0	0.23448515
244	0x3d15ce11	0.036573473
245	0x3cd9d660	0.02659148
246	0x3e6ed2c6	0.23322591
247	0x3e4f6efd	0.20257182
248	0x3cb92f1b	0.02260547
249	0x3e564262	0.2092376
250	0xbd61b379	-0.0551028
251	0xbd2a263b	-0.041540366
252	0xbe10e944	-0.14151484
253	0x3e11d5ce	0.14241716
254	0xbc8e5b5a	-0.017377544
255	0x3d5524ec	0.052037165

policy.2.weight f4 [128, 256]
0	0xbbe76530	-0.007061623
1	0xbc2047b8	-0.009782724
2	0xbcb0d2c8	-0.021584883
3	0x3cf41298	0.029794022
4	0xbb07db60	-0.0020730123
5	0xbc5f7940	-0.013639748
6	0x3d08eab0	0.03342694
7	0x3be9da40	0.007136613
8	0x3cf0e934	0.029408075
9	0x3d2de7d6	0.042457424
10	0x3d58477a	0.05280254
11	0xbd5b06b6	-0.053473197
12	0x3d399378	0.045306653
13	0xbbc2f060	-0.005949065
14	0x3c560338	0.013062291
15	0xbc60bfc0	-0.013717592
16	0x3c8a2d24	0.016867228
17	0x3c70f2a0	0.014706284
18	0xbd093a8c	-0.0335031
19	0xbc2f9eb0	-0.010718986
20	0x3d4bac3a	0.049724795
21	0x3c12bee8	0.008956648
22	0xbd0e6306	-0.034762405
23	0xbcc4e030	-0.024032682
24	0x3d309e34	0.043119624
25	0xbd7a3b8e	-0.061091952
26	0xbca84990	-0.02054289
27	0x3c370658	0.011170946
28	0xbc60c7b0	-0.013719484
29	0xbc8ffb78	-0.017575964
30	0x3c960db0	0.018317074
31	0xbd4fd028	-0.050735623
32	0xbd454a08	-0.048166305
33	0x3d17258e	0.03690105
34	0x3d4dbf40	0.05023122
35	0x3cc7ad84	0.02437473
36	0xbd65e9a2	-0.056131013
37	0xbc769178	-0.015049331
38	0x3d233540	0.039845705
39	0x3d248bfe	0.04017257
40	0x3c8943e0	0.016755998
41	0xbcd338e8	-0.025783971
42	0x3c144da0	0.00905171
43	0xb9971a00	-0.00028820336
44	0x3d6859e2	0.056726344
45	0xbc61e2a0	-0.013786942
46	0xbd0172a6	-0.031603478
47	0x3cbf9150	0.02338472
48	0xbc42acd0	-0.011882022
49	0x3c829c2c	0.01594361
50	0x3c34c038	0.011032157
51	0x3be60fb0	0.007020913
52	0xbcf5d4a8	-0.030008629
53	0xbbb81f00	-0.00561893
54	0x3c31d910	0.010854974
55	0xbb036e40	-0.0020054728
56	0xb9de5000	-0.00042402744
57	0x3bd44190	0.006477542
58	0xbcefbbd0	-0.02926436
59	0x3d1b607c	0.03793381
60	0xbc987328	-0.018609598
61	0x3d53f378	0.05174586
62	0x3b856ac0	0.0040715635
63	0xbd550b6e	-0.052012853
64	0xbc24be40	-0.010055125
65	0x3d06b026	0.032882832
66	0xbd3d486c	-0.046211645
67	0x3c4443f8	0.011979096
68	0x3c83b5c8	0.016077891
69	0xbb5ac660	-0.00333824
70	0xbd4e6584	-0.05038978
71	0x3c1ba290	0.009499207
72	0xbc86c0c0	-0.016449332
73	0x3c9307c4	0.017948039
74	0xbbca21e0	-0.006168589
75	0xbcf934a4	-0.030420609
76	0x3d01a350	0.031649888
77	0xbd6104f6	-0.05493637
78	0x3c15b778	0.009137981
79	0xbc987884	-0.018612154
80	0x3d53f772	0.051749654
81	0xbd7d5c08	-0.061855346
82	0xbc2c6d20	-0.010524064
83	0xbd24a022	-0.040191777
84	0xbd76bce0	-0.06023872
85	0xbd5a2ea4	-0.053267136
86	0x3cd0ac78	0.025472865
87	0x3bde6be0	0.006787762
88	0xbd3706d6	-0.044684254
89	0xbcc52d6c	-0.02406951
90	0xbcf6c050	-0.030120999
91	0xbd02485e	-0.031807296
92	0x3cb53660	0.022120655
93	0x3d618ec6	0.0550678
94	0x3d57a2c2	0.052645452
95	0xbd2233a8	-0.039600044
96	0xbd367822	-0.04454816
97	0xbc6183d0	-0.013764337
98	0xba8ed000	-0.0010895729
99	0x3d2a143a	0.041523196
100	0x3ccb222c	0.024796568
101	0x3ca37ee8	0.019957975
102	0x3a63f600	0.00086960196
103	0x3d7ca4a4	0.06168045
104	0x3ca4ee24	0.020133086
105	0xbd099498	-0.033588976
106	0x3d5500d4	0.052002743
107	0x3c5fded8	0.01366397
108	0x3c8cb870	0.01717779
109	0x3c88d434	0.016702749
110	0x3baefaa0	0.0053399354
111	0x3d1fdd4e	0.039029412
112	0xbd71c620	-0.059026837
113	0x3d508418	0.050907224
114	0xbcf0e3a0	-0.029405415
115	0xbd6b4b34	-0.057444766
116	0x3bc90420	0.006134525
117	0xbd25e6ae	-0.040503196
118	0x3ce5fb04	0.028073795
119	0xbd6ed9be	-0.058313124
120	0x3d06eb1a	0.032939054
121	0xbcd90ce4	-0.026495405
122	0xbcea40c4	-0.028595336
123	0x3d74b5dc	0.059743747
124	0xba730580	-0.0009270534
125	0x3b5bb6a0	0.00335256
126	0xbc36e8c0	-0.01116389
127	0xbc6b7c40	-0.014372885
128	0x3d1c2d34	0.038129047
129	0x3cd4109c	0.025886826
130	0xbd3c6a18	-0.045999616
131	0x3d5451f0	0.051835954
132	0x3d7ffb1e	0.062495343
133	0x3b65bf40	0.003505662
134	0xbce4ca34	-0.02792845
135	0xbd42aace	-0.047526173
136	0x3d673238	0.056444377
137	0x3d09fd8a	0.03368906
138	0x3b623100	0.003451407
139	0x3c99b270	0.018761843
140	0x3d7c7de6	0.061643504
141	0x3d10366e	0.03520816
142	0x3bbf2fe0	0.0058345646
143	0xbc1d8cc8	-0.009616084
144	0xbc9778f0	-0.018490285
145	0x3c1921b8	0.009346418
146	0xbd6910b0	-0.05690068
147	0x3cc56470	0.024095744
148	0x3d7b4526	0.061345242
149	0x3b6653e0	0.0035145208
150	0x3d0b8d12	0.034070082
151	0xbd2ac4e2	-0.04169167
152	0x3cfd8d94	0.030951299
153	0xbb8bd300	-0.0042670965
154	0x3d522c52	0.0513118
155	0xbd4f7e12	-0.05065734
156	0xbce80f68	-0.028327659
157	0xbbf4dfc0	-0.007472962
158	0x3cb28c70	0.021795481
159	0xbb23d4a0	-0.002499856
160	0x3c151048	0.00909812
161	0x3cbffc28	0.023435667
162	0xbcf30084	-0.029663332
163	0xbbf4fa20	-0.0074761063
164	0x3d2ad6f4	0.0417089
165	0xbc49fd18	-0.012328409
166	0xbd3c50b0	-0.045975387
167	0xbbf91b10	-0.007602103
168	0xbd4b6b6c	-0.049662992
169	0xbd1262de	-0.03573882
170	0x3d5e6444	0.05429484
171	0xbd7f7bd2	-0.062373944
172	0x3cdd6050	0.027023464
173	0xbbdd7010	-0.0067577437
174	0x3d5c5a80	0.053797245
175	0xbc393e18	-0.011306308
176	0x3a1d1f00	0.0005993694
177	0xbd3a767c	-0.04552315
178	0xbcc673ac	-0.024225079
179	0xbd6846de	-0.05670821
180	0xbccebd00	-0.025236607
181	0x3d166840	0.036720514
182	0x3bb783b0	0.005600415
183	0xbc2291d0	-0.00992246
184	0xbd4cccc8	-0.049999982
185	0xbd697ce2	-0.057003863
186	0x3d127590	0.035756648
187	0x3d0512fa	0.0324888
188	0xbd09c438	-0.033634394
189	0x3cb6d8dc	0.022320203
190	0xbd1b755c	-0.03795372
191	0xbd608238	-0.054811686
192	0xbcf0e914	-0.029408015
193	0x3c0367f0	0.008020386
194	0xbd615b1a	-0.05501852
195	0xbaf204c0	-0.001846455
196	0xbd40adf8	-0.04704091
197	0x3b0b9260	0.0021296963
198	0xbd2fd93a	-0.042931773
199	0xbd3f2bea	-0.04667274
200	0xbd18e21c	-0.03732501
201	0xbcbab72c	-0.022792421
202	0xbca162c4	-0.019700415
203	0xbd0c7e64	-0.034300223
204	0x3cb39048	0.021919385
205	0x3c94fa0c	0.018185638
206	0xbd1d6b5e	-0.03843247
207	0xb8013000	-3.08007e-05
208	0xbced1b60	-0.028943717
209	0xbd57b514	-0.052662924
210	0xbd251596	-0.04030379
211	0xbd3b0f0a	-0.04566864
212	0x3d28903c	0.041153178
213	0x3c81d654	0.01584927
214	0x3d53d180	0.051713467
215	0x3bdc7d00	0.0067287683
216	0x3d6593fc	0.056049332
217	0x3c109068	0.008823492
218	0x3c2be2e0	0.010491103
219	0xbd7360d6	-0.05941852
220	0xbcd3e938	-0.025868043
221	0xbd002972	-0.031289525
222	0xbd4c59a8	-0.04989019
223	0x3d53b564	0.05168666
224	0xbcf7b96c	-0.030239783
225	0xbd5b7e9c	-0.05358754
226	0xbcdb0ea8	-0.026740387
227	0xbd518f98	-0.051162332
228	0x3d33405a	0.043762542
229	0x3d6b9352	0.057513542
230	0xbbb132e0	-0.005407676
231	0xbc9367f8	-0.017993912
232	0x3d314ca8	0.043285996
233	0xbbdd3ad0	-0.0067513958
234	0x3cac7604	0.021052368
235	0x3d7eb9f6	0.062189065
236	0xbd2fca64	-0.042917624
237	0x3cca5238	0.024697408
238	0x3d2414c4	0.040058866
239	0xbd644700	-0.055731773
240	0x3d3262d4	0.04355128
241	0xbd52a73c	-0.05142902
242	0xbd7930aa	-0.060837425
243	0xbd117b94	-0.035518244
244	0x3c91c954	0.017796196
245	0x3d7bfea2	0.061522134
246	0x3bb75880	0.005595267
247	0x3c275828	0.010213889
248	0xbc77c638	-0.015122943
249	0xbd4b202c	-0.04959123
250	0x3d0233da	0.03178773
251	0x3d074802	0.033027656
252	0x3ba4c720	0.0050286204
253	0x3d1757cc	0.036948964
254	0x3cf64054	0.03005997
255	0xbcc25138	-0.023720369

policy.2.bias f4 [128]
0	0xbd7681aa	-0.06018225
1	0xbd2b1d76	-0.041776143
2	0xbd5d9adc	-0.054102764
3	0xbd25abf6	-0.040447198
4	0x3cd77b1b	0.026303818
5	0xbb5b5477	-0.0033467093
6	0xbd59c7a2	-0.0531689
7	0xbd3327a2	-0.04373897
8	0xbd66d2a8	-0.05635324
9	0x3cec8e7c	0.028876536
10	0x3d789ef1	0.060698453
11	0x3d331ae1	0.043726806
12	0xbd479de4	-0.04873456
13	0x3d561618	0.052267164
14	0x3c66c0fa	0.014084095
15	0x3d2f39fa	0.0427799
16	0x3bd44ef0	0.0064791366
17	0xbd1b67c4	-0.037940755
18	0xbc1f753c	-0.009732541
19	0x3d35ef74	0.044417813
20	0x3d5bfb82	0.053706653
21	0x3b6257c7	0.0034537183
22	0x3d540546	0.05176284
23	0xbcae1a68	-0.021252826
24	0x3c568ca1	0.013095052
25	0x3c4d0ef1	0.012515769
26	0xbc2383da	-0.009980166
27	0x3d0b1888	0.03395894
28	0xbcedde00	-0.029036522
29	0xbcbf6dec	-0.023367845
30	0xbd21b038	-0.039474696
31	0x3d5ad640	0.05342698
32	0x3d568bd4	0.052379444
33	0x3d6b31b9	0.057420466
34	0x3d0daadc	0.034586772
35	0x3d022ec5	0.031782884
36	0xbcc5ce53	-0.024146235
37	0xbd0c38a6	-0.03423371
38	0x3a453ef3	0.0007524334
39	0xbd3efaff	-0.046626087
40	0x3c80a71c	0.015704684
41	0x3c959a84	0.018262155
42	0xbc45ff44	-0.012084786
43	0x363a0000	2.771616e-06
44	0xbd135b12	-0.035975523
45	0xbd28ed73	-0.041242074
46	0x3d206359	0.039157245
47	0xbd1d051e	-0.03833496
48	0x3d30bb34	0.04314728
49	0x3cf92482	0.030412916
50	0x3d24ab27	0.040202286
51	0x3b43444a	0.0029795342
52	0x3ca57e55	0.020201841
53	0x3d165962	0.036706336
54	0x3bad5410	0.005289562
55	0x3c458f3a	0.012058074
56	0xbcf2306a	-0.029564101
57	0xbd701ba4	-0.05862011
58	0xbd6cb1de	-0.057786815
59	0x3cd921ba	0.02650534
60	0x3d2b4d51	0.04182178
61	0xbc975ae7	-0.018475963
62	0xbd6009c2	-0.054696806
63	0xbd125b46	-0.035731576
64	0x3d26c76d	0.04071753
65	0x3d7a0995	0.061044294
66	0x3ca2319b	0.019799044
67	0xbd0b050b	-0.033940356
68	0x3d09de26	0.033659123
69	0x3d670a9a	0.056406595
70	0xbd36e332	-0.044650264
71	0x3ccb7a25	0.024838516
72	0x3c96b5f4	0.018397309
73	0x3cd8c8e8	0.026462987
74	0xbd0ea9c2	-0.034829862
75	0x3d62dc7e	0.05538606
76	0xbcf88bc1	-0.030340077
77	0xbd1c1fda	-0.038116314
78	0xbc65cadb	-0.014025415
79	0x3b0daee0	0.0021619126
80	0x3d805c80	0.06267643
81	0xbce4fec8	-0.02795352
82	0x3ca431d4	0.020043291
83	0xbc85ca24	-0.01633174
84	0x3c702838	0.014658026
85	0xbd3d8af6	-0.0462751
86	0xbd499746	-0.04921653
87	0x3cd3c6c8	0.025851622
88	0x3d3e002d	0.046386886
89	0xbd540c34	-0.05176945
90	0x3d45c2d5	0.04828151
91	0xbd61bc8a	-0.055111445
92	0x3cceda54	0.025250591
93	0xbcfba0d0	-0.03071633
94	0xbc4b2b59	-0.012400472
95	0xbd13e9ce	-0.036111645
96	0xbca0da64	-0.019635387
97	0x3b855aba	0.0040696533
98	0xbaf267b9	-0.0018494047
99	0x3bbcf6cb	0.0057667247
100	0xbd677c5e	-0.05651509
101	0xbd328dfb	-0.043592434
102	0x3d0648d2	0.03278429
103	0x3c9422ba	0.018082965
104	0x3be5943e	0.0070061972
105	0x3ccbbfd2	0.02487174
106	0xbd25b0fe	-0.040451996
107	0x3ce981bc	0.028504245
108	0xbc28e244	-0.010307852
109	0x3ccfe2a4	0.025376625
110	0x3cfe974e	0.031078007
111	0x3cd812c0	0.026376128
112	0x3d4a981a	0.04946146
113	0xbd01afa0	-0.03166163
114	0x3d786e24	0.060651913
115	0xbc143b20	-0.0090473
116	0x3d4b51e6	0.04963865
117	0xbd645dd2	-0.055753537
118	0xbd5bbb7e	-0.053645603
119	0x3c891f7c	0.016738646
120	0xbd0c6c5c	-0.034283027
121	0xbbc07230	-0.005872987
122	0x3d730b43	0.059336912
123	0xbd4ba73e	-0.04972004
124	0x3c17b708	0.009259947
125	0xbcefb5b0	-0.02926144
126	0x3c74ec98	0.0149489865
127	0xbc984ccb	-0.018591305

policy.4.weight f4 [7, 128]
0	0xbda27a8b	-0.079335295
1	0xbcddf283	-0.027093178
2	0xbcd284df	-0.025698123
3	0x3d8ca68a	0.06867702
4	0x3d3396d9	0.04384503
5	0xb89f1ae5	-7.58672e-05
6	0x3d794107	0.06085303
7	0xbd046a8b	-0.03232817
8	0x3c8a1910	0.016857654
9	0x3c012a09	0.007883557
10	0xbd99e810	-0.075149655
11	0xbd55f213	-0.052232813
12	0x3d8d87b1	0.06910647
13	0x3bb91ce2	0.005649195
14	0x3d0cfe61	0.034422282
15	0xbcb8170e	-0.02247193
16	0xbd20ae83	-0.039228927
17	0x3da4e30e	0.0805112
18	0xbc1db541	-0.009625734
19	0xbdb14a93	-0.08656802
20	0x3c579828	0.0131588355
21	0x3d44c84d	0.048042584
22	0xbcddf095	-0.027092258
23	0x3d2e1354	0.0424989
24	0x3db3a5f4	0.087718874
25	0xbcd5dc8a	-0.026106138
26	0xbce973d1	-0.028497608
27	0x3d689924	0.05678667
28	0x3d39532c	0.045245335
29	0x3d882d2a	0.06649239
30	0xbbb3582d	-0.005473158
31	0xbd2c2e21	-0.04203618
32	0xbda4f4ac	-0.0805448
33	0x3d918129	0.071047135
34	0x3c4387a5	0.011934196
35	0x3d8a9317	0.067663364
36	0xbd6b38c2	-0.057427175
37	0xbd9c5ade	-0.07634519
38	0xbd047c5d	-0.032345165
39	0xbd2f7de7	-0.04284468
40	0x3c1e40d8	0.009659015
41	0x3cb76527	0.0223871
42	0xbda5e205	-0.080997504
43	0x3cb6e0ad	0.02232393
44	0xbd66f135	-0.056382377
45	0xbcc03304	-0.023461826
46	0x3c2d1174	0.010563243
47	0xbda1599a	-0.07878418
48	0xbd06732c	-0.03282468
49	0x3d36ce62	0.044630416
50	0xbca57bcb	-0.02020063
51	0xbc8756cf	-0.016520886
52	0xbd94d40d	-0.07267008
53	0x3ce1719b	0.027519992
54	0xbcd88ebd	-0.02643525
55	0xbd2a00f0	-0.0415048
56	0x3d7e50a6	0.06208863
57	0xbd99c89e	-0.07508968
58	0xbb819d24	-0.0039555
59	0x3b7efbc2	0.0038907384
60	0xbdaba0e2	-0.08380295
61	0xbcdffca9	-0.027342157
62	0xbd89eb00	-0.06734276
63	0xbca2e07f	-0.019882439
64	0xbda1408c	-0.078736395
65	0x3d859a0b	0.06523522
66	0xbd89331c	-0.066992015
67	0xbce2dc34	-0.027692892
68	0x3d6da3cf	0.05801755
69	0xbcad6b16	-0.021169227
70	0xbd75c2ed	-0.06000035
71	0x3d97c92a	0.07411416
72	0x3da21f85	0.07916168
73	0x3cbeb093	0.023277557
74	0xbd885b49	-0.06658036
75	0xbdabdd48	-0.083918154
76	0xbb8adefa	-0.0042380067
77	0xbcb4fa41	-0.022091987
78	0x3b88244f	0.004154719
79	0xbcb354e8	-0.021891072
80	0xbbd68a41	-0.006547243
81	0x3d6ef5af	0.05833977
82	0xbd6b1321	-0.05739129
83	0xbdacbefd	-0.084348656
84	0xbc39de96	-0.0113445725
85	0x3c3fe35f	0.011711924
86	0x3d7420aa	0.059601463
87	0xbd8e090f	-0.069353215
88	0xbc8ea123	-0.01741082
89	0xbd9bbfa0	-0.07604909
90	0x3d9d3e7c	0.076779336
91	0xbd98ec76	-0.07466976
92	0x3cc6c06c	0.024261676
93	0xbd9a7c89	-0.075432844
94	0xbd319f86	-0.043365024
95	0xbccd28e3	-0.02504391
96	0x38678329	5.5196844e-05
97	0x3cc35ecd	0.023848915
98	0x3d263dc6	0.040586255
99	0x3d1b84b2	0.037968345
100	0x3ce7c8fa	0.028294075
101	0x3da71093	0.08157458
102	0xbd4b0b39	-0.04957125
103	0x3d87b2eb	0.06625923
104	0xbda9e469	-0.08295519
105	0x3c2d9a47	0.010595865
106	0xbcf97b4c	-0.0304543
107	0x3d9a3c49	0.0753103
108	0xbd0d432d	-0.034487892
109	0xbd7f1d0e	-0.062283568
110	0xb9e7d23f	-0.000442164
111	0x3ca0f382	0.019647364
112	0xbb6271ac	-0.0034552617
113	0x3d1c5830	0.03817004
114	0x3d9109b7	0.07081931
115	0xbcbbb4d5	-0.022913376
116	0xbd4a9eca	-0.04946784
117	0xbc9c052f	-0.01904544
118	0xbda61313	-0.08109107
119	0xbcbbdc52	-0.022932205
120	0xbd96e4da	-0.07367869
121	0x3cc36324	0.023850985
122	0x3db31992	0.087451115
123	0xbb103bb4	-0.0022008242
124	0xbcc48111	-0.023987325
125	0x3cf94501	0.030428411
126	0x3d92a559	0.07160444
127	0x3d64df36	0.055876933
128	0xbc82b0ab	-0.015953382
129	0x3d4c307e	0.049850933
130	0xbd9015e5	-0.07035426
131	0xbd9f6e42	-0.07784702
132	0xbd539859	-0.051658962
133	0xbbf286d6	-0.0074013276
134	0x3da29896	0.0793926
135	0x3d67f76c	0.056632444
136	0xbd13c803	-0.036079418
137	0x388582b6	6.366281e-05
138	0xbd99a630	-0.07502401
139	0xbda2b082	-0.079438224
140	0xbb44a8ee	-0.0030007917
141	0xbb9352f4	-0.004495973
142	0xbda58ab5	-0.08083097
143	0x3d61eb8b	0.055156272
144	0xbda782c7	-0.08179241
145	0xbc14e1b8	-0.009087019
146	0x3d9c8374	0.0764226
147	0xbd57ad35	-0.052655417
148	0x3d2adb32	0.041712947
149	0x3d5294bd	0.05141138
150	0xbd8d0fcf	-0.06887781
151	0x3cbe8f79	0.023261772
152	0x3d97f320	0.07419419
153	0xbd8dac90	-0.06917679
154	0x3d5f8efa	0.054579712
155	0xbccbffa9	-0.024902182
156	0x3cd91d99	0.026503371
157	0x3cd50a98	0.026006028
158	0x3dad9d25	0.084772386
159	0xbd134d00	-0.035962105
160	0x3bcb259b	0.0061995513
161	0x3b493d51	0.0030706713
162	0xbcca61b7	-0.024704797
163	0xbc1ce064	-0.009574983
164	0x3c8418ba	0.016125072
165	0x3d6deb13	0.058085512
166	0xbd9de262	-0.07709195
167	0xbdac92b6	-0.084264204
168	0x3c86633e	0.016404744
169	0xbc6423cb	-0.013924549
170	0x3d9a33a8	0.07529384
171	0x3d1a061c	0.037603483
172	0x3ca71807	0.0203972
173	0x3b51f5a7	0.003203729
174	0xbcad6678	-0.021167025
175	0xbd982d5a	-0.07430525
176	0x3c5774c2	0.013150396
177	0x3d5f0379	0.05444667
178	0xbd706894	-0.058693483
179	0x3cfece5b	0.031104257
180	0xbdb006e7	-0.085950665
181	0xbc0edc17	-0.008719466
182	0xbd924e37	-0.071438245
183	0x3d64c4b6	0.05585166
184	0x3d8f2aa4	0.06990555
185	0xbd466008	-0.048431426
186	0x3d2bd9e7	0.041955855
187	0x3d264065	0.040588755
188	0xbd53a55a	-0.051671363
189	0xbd8a44f6	-0.067514345
190	0xbd38bda2	-0.045102723
191	0xbc32126c	-0.01086865
192	0x3d0e6db5	0.034772594
193	0x3cbedc1f	0.023298321
194	0x3d7a5c3b	0.061123114
195	0x3d57f794	0.052726343
196	0xbd98ac43	-0.07454731
197	0x3d8a1b81	0.06743527
198	0x3d0f16ff	0.03493404
199	0xbd398a4e	-0.045297913
200	0xbcc70eaf	-0.024298994
201	0xbdb129fd	-0.08650587
202	0x3b80dc48	0.0039325096
203	0xbd937a87	-0.072011046
204	0x3cc2a8e7	0.02376218
205	0x3ab73e2c	0.0013980321
206	0xbd8ac86c	-0.06776509
207	0xbd87c6d8	-0.06629723
208	0x3bf9e539	0.0076262024
209	0xbd4e3d7a	-0.050351597
210	0xbdae32b9	-0.08505768
211	0xbcc9c626	-0.024630617
212	0x3c6b156a	0.014348367
213	0xb9d9192e	-0.00041408226
214	0x3d9b165a	0.075726226
215	0x3da577bd	0.08079479
216	0x3db6453d	0.08899925
217	0x3daa8d52	0.08327736
218	0xbd3ea420	-0.04654324
219	0xbd8d45b2	-0.06898059
220	0xbc2043ec	-0.009781819
221	0xbd8562c0	-0.06512976
222	0xbbe98a32	-0.00712707
223	0x3c908f62	0.017646495
224	0xbca0754d	-0.019587183
225	0x3c2e7654	0.010648329
226	0xb9caf4d4	-0.00038710854
227	0x3cbffcc3	0.023435956
228	0x3c2f1ca0	0.010687977
229	0xbcbc38ca	-0.022976298
230	0x3d4e5687	0.050375488
231	0xbda4aa5d	-0.08040307
232	0x3cd2fdbc	0.025755756
233	0x3d7c751f	0.061635133
234	0xbd5ef36a	-0.054431356
235	0x3b0b9c2e	0.0021302807
236	0xbca9c67f	-0.020724533
237	0x3d46b3ea	0.048511423
238	0x3c9960b7	0.018722875
239	0xbc2a6c4e	-0.010401798
240	0xbcf91cfd	-0.03040933
241	0xbda57438	-0.080788076
242	0xbc9d55cf	-0.019205956
243	0xbd3199ba	-0.043359496
244	0xbd7362c7	-0.059420373
245	0xbd492a80	-0.049112797
246	0xbd9356b2	-0.0719427
247	0x3d87c056	0.06628482
248	0x3d8925b5	0.06696645
249	0x381938a0	3.653078e-05
250	0xbd82d40a	-0.063880995
251	0xbce5cebb	-0.028052678
252	0xbd3df101	-0.046372417
253	0x3b45c09a	0.0030174614
254	0x3d2357ff	0.03987884
255	0xbc6a8a68	-0.014315225

policy.4.bias f4 [7]
0	0x3dae6317	0.08514994
1	0x3ca23532	0.019800756
2	0x3c1008aa	0.008791128
3	0xbd0f8d32	-0.035046764
4	0x3dab3e90	0.08361542
5	0xbd3c6fb7	-0.046004977
6	0x3b88ad20	0.0041710287

exp_avg f4 [256, 15]
0	0x00000000	0.0
1	0x00000000	0.0
2	0x00000000	0.0
3	0x00000000	0.0
4	0x00000000	0.0
5	0x00000000	0.0
6	0x00000000	0.0
7	0x00000000	0.0
8	0x00000000	0.0
9	0x00000000	0.0
10	0x00000000	0.0
11	0x00000000	0.0
12	0x00000000	0.0
13	0x00000000	0.0
14	0x00000000	0.0
15	0x39426184	0.00018537609
16	0xb97ed16f	-0.00024301348
17	0x398fa05c	0.00027394562
18	0xb91a820c	-0.0001473503
19	0xb99b2b71	-0.0002959627
20	0x37e34c7f	2.709613e-05
21	0x38994b9d	7.3096926e-05
22	0x3785762c	1.5909864e-05
23	0x36c5be0f	5.8931832e-06
24	0xb8b8bb94	-8.808743e-05
25	0x389dec2f	7.530336e-05
26	0x386736c9	5.5125714e-05
27	0x39b9d941	0.00035447816
28	0x398c5d03	0.0002677218
29	0x38b33c32	8.5465974e-05
30	0xb700c621	-7.675525e-06
31	0x3a2ae566	0.00065191684
32	0xba8480b9	-0.0010109163
33	0x39a19225	0.000308172
34	0x3a7039a5	0.0009163863
35	0xb824dbff	-3.9305534e-05
36	0xb72c6672	-1.0275851e-05
37	0xb70fae79	-8.564087e-06
38	0xb69a76e3	-4.603398e-06
39	0xb87e3b99	-6.0613824e-05
40	0x382c1d62	4.103536e-05
41	0xb825a2b4	-3.9490595e-05
42	0xb9c5adb1	-0.00037704178
43	0x3871cebe	5.765142e-05
44	0xb90efa07	-0.00013635318
45	0xb9ac7818	-0.00032895873
46	0xba8efb03	-0.0010908548
47	0x3b00a12a	0.0019627311
48	0xb9f5ef8d	-0.0004690852
49	0xbadd8ccf	-0.0016902926
50	0xb8b3126e	-8.538818e-05
51	0xb90117ea	-0.00012311307
52	0x370c09db	8.346945e-06
53	0xb7b60880	-2.1700049e-05
54	0x39633e61	0.00021671645
55	0xb998dfb6	-0.00029158377
56	0xb85796d1	-5.1400453e-05
57	0x3975b439	0.00023432159
58	0xb9b3d518	-0.00034300308
59	0x39220dc9	0.0001545466
60	0x00000000	0.0
61	0x00000000	0.0
62	0x00000000	0.0
63	0x00000000	0.0
64	0x00000000	0.0
65	0x00000000	0.0
66	0x00000000	0.0
67	0x00000000	0.0
68	0x00000000	0.0
69	0x00000000	0.0
70	0x00000000	0.0
71	0x00000000	0.0
72	0x00000000	0.0
73	0x00000000	0.0
74	0x00000000	0.0
75	0x00000000	0.0
76	0x00000000	0.0
77	0x00000000	0.0
78	0x00000000	0.0
79	0x00000000	0.0
80	0x00000000	0.0
81	0x00000000	0.0
82	0x00000000	0.0
83	0x00000000	0.0
84	0x00000000	0.0
85	0x00000000	0.0
86	0x00000000	0.0
87	0x00000000	0.0
88	0x00000000	0.0
89	0x00000000	0.0
90	0x38b87379	8.795312e-05
91	0xb91fbab6	-0.00015232977
92	0x38df3aa0	0.000106443884
93	0xb7a0a802	-1.9151721e-05
94	0xb912ea6c	-0.00014010974
95	0x374f9773	1.23734235e-05
96	0x38846883	6.313717e-05
97	0x37bbac97	2.2372506e-05
98	0x370b7952	8.313293e-06
99	0xb8794479	-5.9429996e-05
100	0x38b3fbce	8.5822874e-05
101	0xb797c560	-1.8092513e-05
102	0x3952d06e	0.00020104807
103	0x391846c8	0.00014522218
104	0x388aa124	6.6103676e-05
105	0xb966d240	-0.00022012834
106	0xb9302c25	-0.00016801113
107	0x39e611a6	0.00043882168
108	0xb8775cb0	-5.897571e-05
109	0xb9d16712	-0.0003994038
110	0xb839126b	-4.412459e-05
111	0xb88a1b5f	-6.585451e-05
112	0xb717768e	-9.0279045e-06
113	0x377e1e94	1.5146699e-05
114	0x38e20f5d	0.000107793814
115	0xb91e9c6e	-0.00015126329
116	0xb8183ac6	-3.629436e-05
117	0xb932ff8c	-0.00017070601
118	0xb9a383cb	-0.00031187976
119	0xb79cc82f	-1.8689867e-05
120	0x3981e92c	0.00024778524
121	0x3a8483cb	0.0010110078
122	0xbaecff47	-0.001808145
123	0x39f45007	0.00046598932
124	0x3ac8d9cd	0.0015323699
125	0x38877ae8	6.460195e-05
126	0x38e9c983	0.0001114784
127	0xb7329e9c	-1.0646556e-05
128	0x377a8c4d	1.49338275e-05
129	0xb94a1a03	-0.00019273911
130	0x398db82d	0.00027030837
131	0x378cd2b6	1.678742e-05
132	0xb980cdac	-0.000245673
133	0x399d95c2	0.00030056952
134	0xb9032b10	-0.00012509176
135	0x3440374a	1.7901507e-07
136	0xb74f84ee	-1.2369112e-05
137	0x378e6c38	1.6978112e-05
138	0xb66cf74e	-3.531069e-06
139	0xb73ef2b6	-1.1381393e-05
140	0xb351e4bb	-4.8869634e-08
141	0x333a7bc0	4.341905e-08
142	0xb59255b4	-1.090279e-06
143	0xb4b5365e	-3.3753435e-07
144	0x33a051f0	7.465485e-08
145	0xb4bca209	-3.5135625e-07
146	0xb41ba27d	-1.4494613e-07
147	0x36b61edb	5.4276147e-06
148	0xb3043a4a	-3.078666e-08
149	0x364063a3	2.8668226e-06
150	0x00000000	0.0
151	0x00000000	0.0
152	0x00000000	0.0
153	0x00000000	0.0
154	0x00000000	0.0
155	0x00000000	0.0
156	0x00000000	0.0
157	0x00000000	0.0
158	0x00000000	0.0
159	0x00000000	0.0
160	0x00000000	0.0
161	0x00000000	0.0
162	0x00000000	0.0
163	0x00000000	0.0
164	0x00000000	0.0
165	0x00000000	0.0
166	0x00000000	0.0
167	0x00000000	0.0
168	0x00000000	0.0
169	0x00000000	0.0
170	0x00000000	0.0
171	0x00000000	0.0
172	0x00000000	0.0
173	0x00000000	0.0
174	0x00000000	0.0
175	0x00000000	0.0
176	0x00000000	0.0
177	0x00000000	0.0
178	0x00000000	0.0
179	0x00000000	0.0
180	0x39c6227a	0.0003779119
181	0x3ad12ac0	0.0015958175
182	0xbb374365	-0.0027963754
183	0x3a3489d7	0.0006886995
184	0x3b1bcb53	0.0023772314
185	0x390aaf4b	0.00013226007
186	0x39216ae4	0.00015393976
187	0x37772e54	1.4733134e-05
188	0x370471e2	7.8943285e-06
189	0xb97ee702	-0.00024309385
190	0x39b04d07	0.00033626726
191	0x3844a596	4.6884255e-05
192	0xb9e1ee8e	-0.0004309308
193	0x39dcb31c	0.00042095117
194	0xb9887ae2	-0.00026031496
195	0xb78f316d	-1.7069944e-05
196	0x3972b2af	0.00023145483
197	0xb9c5c4a1	-0.00037721268
198	0x3914eed9	0.00014203358
199	0x39cd2b55	0.00039132932
200	0xb78d0f12	-1.6815527e-05
201	0xb794063d	-1.764588e-05
202	0xb680a7be	-3.834225e-06
203	0xb70014b8	-7.6342185e-06
204	0xb701603f	-7.711408e-06
205	0x36afbf33	5.237665e-06
206	0xb89b9398	-7.4184674e-05
207	0xb91ebf73	-0.00015139375
208	0xb828b615	-4.02239e-05
209	0xb84ad81e	-4.8361828e-05
210	0xb5f58851	-1.8293596e-06
211	0xb6a7279b	-4.9815985e-06
212	0xb7fcb683	-3.012573e-05
213	0x385224e3	5.0102255e-05
214	0x384409f2	4.6739304e-05
215	0xb5ec269c	-1.7594607e-06
216	0xb6e96cc0	-6.9566013e-06
217	0xb7fc7e6e	-3.0099614e-05
218	0x3730aa1c	1.0530024e-05
219	0xb7153ad7	-8.894792e-06
220	0x37650491	1.3650527e-05
221	0xb7a11bd8	-1.9205661e-05
222	0xb73f2dcb	-1.1395149e-05
223	0x36930b09	4.382226e-06
224	0x3765677b	1.3673557e-05
225	0x00000000	0.0
226	0x00000000	0.0
227	0x00000000	0.0
228	0x00000000	0.0
229	0x00000000	0.0
230	0x00000000	0.0
231	0x00000000	0.0
232	0x00000000	0.0
233	0x00000000	0.0
234	0x00000000	0.0
235	0x00000000	0.0
236	0x00000000	0.0
237	0x00000000	0.0
238	0x00000000	0.0
239	0x00000000	0.0
240	0x39730a75	0.00023178181
241	0x3a9e65e1	0.0012084806
242	0xbb0e8950	-0.0021749325
243	0x3a1adbd3	0.000590739
244	0x3aec6850	0.0018036459
245	0x38598114	5.1857045e-05
246	0x39153696	0.00014230082
247	0xb8a270e1	-7.745787e-05
248	0xb78bb9a9	-1.6656546e-05
249	0xb9510fac	-0.00019937631
250	0x39c57d10	0.00037667947
251	0xb7cea8c2	-2.4635698e-05
252	0xb9b5837b	-0.0003462097
253	0x39631958	0.00021657848
254	0xb8c188b1	-9.228418e-05
255	0x00000000	0.0

exp_avg_sq f4 [256, 15]
0	0x00000000	0.0
1	0x00000000	0.0
2	0x00000000	0.0
3	0x00000000	0.0
4	0x00000000	0.0
5	0x00000000	0.0
6	0x00000000	0.0
7	0x00000000	0.0
8	0x00000000	0.0
9	0x00000000	0.0
10	0x00000000	0.0
11	0x00000000	0.0
12	0x00000000	0.0
13	0x00000000	0.0
14	0x00000000	0.0
15	0x3088cbab	9.953188e-10
16	0x32053fba	7.756109e-09
17	0x32a02984	1.864533e-08
18	0x30c450c0	1.4283827e-09
19	0x327cf6b9	1.4724429e-08
20	0x2e5c6b02	5.011725e-11
21	0x2f2d6fcc	1.5773977e-10
22	0x2df06b1d	2.7332409e-11
23	0x2d91a010	1.6555673e-11
24	0x2f85a0cf	2.430682e-10
25	0x2faefa27	3.182816e-10
26	0x2efc162d	1.14635725e-10
27	0x3182c396	3.8057335e-09
28	0x30eb6c54	1.7129289e-09
29	0x2fd70b15	3.9116146e-10
30	0x2e10939c	3.2872913e-11
31	0x328c5176	1.633519e-08
32	0x3320d0e4	3.7442888e-08
33	0x31743a9b	3.5539987e-09
34	0x33115a13	3.3842365e-08
35	0x2ea5cff9	7.540275e-11
36	0x2dbd5166	2.152296e-11
37	0x2ca01ce8	4.5506827e-12
38	0x2cf5ca69	6.985791e-12
39	0x2efb8a7d	1.1438759e-10
40	0x2e271923	3.799373e-11
41	0x2e79fbc9	5.6839675e-11
42	0x31d158c6	6.092793e-09
43	0x2efa07a6	1.13700424e-10
44	0x3068b7d5	8.466235e-10
45	0x315babe0	3.1966394e-09
46	0x337abb0f	5.837779e-08
47	0x3431b12e	1.6548867e-07
48	0x3239cb4d	1.08146425e-08
49	0x3407bc18	1.2641283e-07
50	0x2f5fe869	2.03643e-10
51	0x2ff09593	4.3762025e-10
52	0x2d85f07a	1.5227142e-11
53	0x2e3879f9	4.194509e-11
54	0x30c85cfe	1.4578345e-09
55	0x311e89f1	2.3070437e-09
56	0x2f2d8cad	1.5784236e-10
57	0x320fb3f7	8.364615e-09
58	0x317d6436	3.6873309e-09
59	0x30f77a8c	1.8006445e-09
60	0x00000000	0.0
61	0x00000000	0.0
62	0x00000000	0.0
63	0x00000000	0.0
64	0x00000000	0.0
65	0x00000000	0.0
66	0x00000000	0.0
67	0x00000000	0.0
68	0x00000000	0.0
69	0x00000000	0.0
70	0x00000000	0.0
71	0x00000000	0.0
72	0x00000000	0.0
73	0x00000000	0.0
74	0x00000000	0.0
75	0x00000000	0.0
76	0x00000000	0.0
77	0x00000000	0.0
78	0x00000000	0.0
79	0x00000000	0.0
80	0x00000000	0.0
81	0x00000000	0.0
82	0x00000000	0.0
83	0x00000000	0.0
84	0x00000000	0.0
85	0x00000000	0.0
86	0x00000000	0.0
87	0x00000000	0.0
88	0x00000000	0.0
89	0x00000000	0.0
90	0x30031b90	4.769669e-10
91	0x31b96566	5.3957363e-09
92	0x322c50a2	1.00300515e-08
93	0x309cf3ba	1.1419765e-09
94	0x3222ef39	9.484034e-09
95	0x2d657394	1.3042806e-11
96	0x2f3410ff	1.6376943e-10
97	0x2de6033e	2.6149412e-11
98	0x2da56942	1.8805072e-11
99	0x2f21fc0d	1.4732411e-10
100	0x2f74279a	2.220574e-10
101	0x2e8256fe	5.9271685e-11
102	0x319e9bfa	4.6161377e-09
103	0x3094830c	1.0805663e-09
104	0x3005a307	4.8616794e-10
105	0x30924ace	1.0644159e-09
106	0x32d1f74d	2.4443262e-08
107	0x33807084	5.980931e-08
108	0x31a3aa27	4.7632684e-09
109	0x3353ea87	4.9340567e-08
110	0x2e4fbf46	4.7236236e-11
111	0x2ee73af2	1.05151346e-10
112	0x2d18b27b	8.67983e-12
113	0x2d5ee582	1.26702e-11
114	0x2fa40752	2.9836628e-10
115	0x301505a8	5.421392e-10
116	0x2e5e3578	5.0524446e-11
117	0x320cee58	8.203266e-09
118	0x31178dc8	2.2053985e-09
119	0x30a68b12	1.2117616e-09
120	0x31080b9c	1.9797204e-09
121	0x32df1c3c	2.5973456e-08
122	0x33aa0417	7.916986e-08
123	0x31b7df31	5.351375e-09
124	0x3378607c	5.782975e-08
125	0x2f0cbf0f	1.2800803e-10
126	0x2fc8ef58	3.6549852e-10
127	0x2d258798	9.409272e-12
128	0x2dbb605b	2.1302229e-11
129	0x30847f7f	9.640501e-10
130	0x30f5309e	1.7839914e-09
131	0x2ea7dc9d	7.6334696e-11
132	0x316880ea	3.3833722e-09
133	0x314bb757	2.9644605e-09
134	0x301ecf60	5.777476e-10
135	0x286b8b04	1.3075265e-14
136	0x2e8931a1	6.2388546e-11
137	0x2f014864	1.17582e-10
138	0x2cb301fa	5.0877054e-12
139	0x2e687214	5.2852014e-11
140	0x268c5617	9.737786e-16
141	0x265dbce6	7.6930783e-16
142	0x2b087071	4.847295e-13
143	0x29514bc7	4.647305e-14
144	0x2723e852	2.2746735e-15
145	0x2962b1c5	5.033627e-14
146	0x281a6354	8.570256e-15
147	0x2d5343af	1.200899e-11
148	0x25defa68	3.8680543e-16
149	0x2c6bc884	3.3506817e-12
150	0x00000000	0.0
151	0x00000000	0.0
152	0x00000000	0.0
153	0x00000000	0.0
154	0x00000000	0.0
155	0x00000000	0.0
156	0x00000000	0.0
157	0x00000000	0.0
158	0x00000000	0.0
159	0x00000000	0.0
160	0x00000000	0.0
161	0x00000000	0.0
162	0x00000000	0.0
163	0x00000000	0.0
164	0x00000000	0.0
165	0x00000000	0.0
166	0x00000000	0.0
167	0x00000000	0.0
168	0x00000000	0.0
169	0x00000000	0.0
170	0x00000000	0.0
171	0x00000000	0.0
172	0x00000000	0.0
173	0x00000000	0.0
174	0x00000000	0.0
175	0x00000000	0.0
176	0x00000000	0.0
177	0x00000000	0.0
178	0x00000000	0.0
179	0x00000000	0.0
180	0x3165e13f	3.3451923e-09
181	0x33dcb27f	1.02770166e-07
182	0x3498c4d1	2.845541e-07
183	0x32a5f471	1.9319687e-08
184	0x34669b0c	2.1476825e-07
185	0x2fecec5f	4.3096102e-10
186	0x301ae3dd	5.6348687e-10
187	0x2df5afb7	2.7931308e-11
188	0x2e493ad6	4.5754366e-11
189	0x30d56bed	1.5528464e-09
190	0x313ca87c	2.7453373e-09
191	0x2f250e56	1.5011756e-10
192	0x3297aa66	1.7656202e-08
193	0x318d76fc	4.117167e-09
194	0x3180a10c	3.743599e-09
195	0x2e35f04d	4.1368065e-11
196	0x3133ab8f	2.6145448e-09
197	0x31eb2531	6.8436283e-09
198	0x3057aea0	7.84647e-10
199	0x31d8bc45	6.307831e-09
200	0x2d86b46d	1.5314161e-11
201	0x2d2c13db	9.781477e-12
202	0x2c854512	3.7877557e-12
203	0x2ccdbc1c	5.8473348e-12
204	0x2d97eb63	1.7271245e-11
205	0x2d9c26dc	1.7752404e-11
206	0x2f1eb902	1.4435744e-10
207	0x308cb342	1.0237289e-09
208	0x2f0d9c10	1.287932e-10
209	0x2f180a44	1.3827967e-10
210	0x2a27a03e	1.4888175e-13
211	0x2fd5ffe7	3.8926304e-10
212	0x308181ca	9.422874e-10
213	0x2f550f9b	1.9377781e-10
214	0x302fda23	6.397462e-10
215	0x2a70b87e	2.138029e-13
216	0x2bcbadb3	1.4472229e-12
217	0x2df026df	2.7302103e-11
218	0x2cd30a42	5.9981195e-12
219	0x2c501fff	2.957634e-12
220	0x2cf8c514	7.070464e-12
221	0x2d4873da	1.1394408e-11
222	0x2f00f031	1.1726865e-10
223	0x2b478b1e	7.0892066e-13
224	0x2d80c2bd	1.4638396e-11
225	0x00000000	0.0
226	0x00000000	0.0
227	0x00000000	0.0
228	0x00000000	0.0
229	0x00000000	0.0
230	0x00000000	0.0
231	0x00000000	0.0
232	0x00000000	0.0
233	0x00000000	0.0
234	0x00000000	0.0
235	0x00000000	0.0
236	0x00000000	0.0
237	0x00000000	0.0
238	0x00000000	0.0
239	0x00000000	0.0
240	0x30bb856f	1.3643965e-09
241	0x332bf9f9	4.004139e-08
242	0x34036664	1.2237575e-07
243	0x321b4048	9.036803e-09
244	0x33b4aa86	8.412921e-08
245	0x2ebb9c1e	8.5315074e-11
246	0x300bb1f4	5.082079e-10
247	0x2f0571a9	1.213666e-10
248	0x2d8be339	1.5903378e-11
249	0x30822adb	9.470925e-10
250	0x316175b4	3.2808716e-09
251	0x2e6d0155	5.3888744e-11
252	0x31ad48d8	5.043244e-09
253	0x30b541c9	1.318818e-09
254	0x301a7246	5.6187266e-10
255	0x00000000	0.0

exp_avg f4 [256]
0	0x00000000	0.0
1	0x392e6839	0.00016632759
2	0xba2d24a0	-0.0006604884
3	0x3a9d215c	0.0011988091
4	0x00000000	0.0
5	0x00000000	0.0
6	0x38972424	7.206973e-05
7	0x399170b3	0.00027740523
8	0xba8ea971	-0.0010884238
9	0x370e6c38	8.489056e-06
10	0x00000000	0.0
11	0x00000000	0.0
12	0xbaddf40a	-0.0016933691
13	0xb98b44f9	-0.00026563535
14	0xb801fc11	-3.0990752e-05
15	0x00000000	0.0
16	0xbaa35d12	-0.001246365
17	0x00000000	0.0
18	0xba69e006	-0.0008921627
19	0xb8ade23e	-8.291424e-05
20	0x3a55d3b5	0.0008156852
21	0xb9f6701e	-0.0004700431
22	0xba964bbc	-0.0011466662
23	0x00000000	0.0
24	0xba818a64	-0.0009883163
25	0xba9bada9	-0.0011877316
26	0x3956d64e	0.00020488465
27	0x00000000	0.0
28	0xbaa09252	-0.0012250638
29	0xba410209	-0.0007362669
30	0xb8746dcf	-5.82764e-05
31	0x3a549090	0.00081086997
32	0x00000000	0.0
33	0xb9b21a6d	-0.00033970494
34	0xb986abe1	-0.0002568653
35	0x00000000	0.0
36	0xba56dcc2	-0.00081963476
37	0x00000000	0.0
38	0x3a1884d1	0.0005818131
39	0x00000000	0.0
40	0x00000000	0.0
41	0x38faefe5	0.00011965613
42	0xba9c6a5a	-0.0011933551
43	0xb902fa55	-0.00012491022
44	0x00000000	0.0
45	0x37d0a907	2.4874242e-05
46	0xbae3f3e6	-0.0017391413
47	0x00000000	0.0
48	0xbb2da753	-0.0026497438
49	0xba211033	-0.00061440765
50	0xba8b6ef9	-0.0010637931
51	0xb92b3059	-0.00016325842
52	0xba94a153	-0.0011339582
53	0xba0699b2	-0.0005134597
54	0x3ace98db	0.0015762107
55	0x00000000	0.0
56	0x00000000	0.0
57	0x3b1f6a3f	0.0024324802
58	0x00000000	0.0
59	0x3a0532b5	0.00050811033
60	0x3ac5d090	0.0015092064
61	0x00000000	0.0
62	0x3ab5f24d	0.0013881415
63	0x00000000	0.0
64	0x39e9ae18	0.00044570933
65	0xba752d94	-0.00093528
66	0xbac3780c	-0.0014913096
67	0x39cd1ed8	0.00039123627
68	0x00000000	0.0
69	0xba6aa9ea	-0.0008951711
70	0x3b26b44f	0.0025437062
71	0x38c11ed3	9.2086986e-05
72	0x00000000	0.0
73	0x00000000	0.0
74	0xb95779ed	-0.00020549419
75	0xbab8d9a8	-0.0014102953
76	0xba3a5a42	-0.00071087864
77	0xbb0f3a5b	-0.002185485
78	0xba8fddd0	-0.001097614
79	0xbaa00f7e	-0.0012211648
80	0xba2996ff	-0.00064693386
81	0x396f1bed	0.0002280322
82	0x00000000	0.0
83	0x3a9098bf	0.001103185
84	0x3ac9d5ff	0.0015398859
85	0x00000000	0.0
86	0xbb0b2889	-0.0021233878
87	0x00000000	0.0
88	0xbb300858	-0.0026860442
89	0x39b718f9	0.00034923086
90	0xba502f80	-0.00079416484
91	0xbae05942	-0.0017116445
92	0x00000000	0.0
93	0x3999fcd0	0.00029370794
94	0x3a9fc845	0.0012190422
95	0x00000000	0.0
96	0x00000000	0.0
97	0xb982c505	-0.00024942323
98	0x00000000	0.0
99	0x38cb3898	9.690336e-05
100	0xbb22ef46	-0.0024861856
101	0x3aa97259	0.0012927755
102	0x00000000	0.0
103	0xb9388f1d	-0.00017600921
104	0xba9288d8	-0.0011179699
105	0x00000000	0.0
106	0xb9bac682	-0.00035624584
107	0xba962272	-0.0011454357
108	0xba0ce191	-0.0005374188
109	0x00000000	0.0
110	0x00000000	0.0
111	0x3a065642	0.0005124548
112	0x00000000	0.0
113	0xbb08fc71	-0.002090242
114	0x00000000	0.0
115	0x00000000	0.0
116	0xba09b331	-0.0005252837
117	0x00000000	0.0
118	0x39ceb716	0.00039427791
119	0x3b1d8ece	0.0024041417
120	0x38ca6a2e	9.651888e-05
121	0x38888e48	6.511487e-05
122	0x3a9111a7	0.0011067883
123	0x00000000	0.0
124	0x39fa4fdf	0.00047743224
125	0x379ca149	1.8671753e-05
126	0x00000000	0.0
127	0xbab7cafd	-0.0014022287
128	0x00000000	0.0
129	0x00000000	0.0
130	0x00000000	0.0
131	0xba15c6bb	-0.0005713512
132	0xbae13cf4	-0.0017184303
133	0xb9f1f720	-0.00046151225
134	0xb9895736	-0.00026195653
135	0x00000000	0.0
136	0x39c6018f	0.00037766664
137	0x3ac9a047	0.0015382849
138	0xbafa18bd	-0.0019080859
139	0x00000000	0.0
140	0x00000000	0.0
141	0x00000000	0.0
142	0x00000000	0.0
143	0x00000000	0.0
144	0x3af44bcc	0.0018638312
145	0xb8ae978d	-8.325195e-05
146	0x39ad84c8	0.0003309606
147	0x39591ac7	0.00020704708
148	0x3a1438ac	0.0005654197
149	0x00000000	0.0
150	0xbb4c0767	-0.0031132342
151	0x00000000	0.0
152	0x3aa27296	0.0012393768
153	0x3a56fb11	0.0008200864
154	0x00000000	0.0
155	0x00000000	0.0
156	0xba7e8fe5	-0.0009710773
157	0x00000000	0.0
158	0x3ae853c9	0.0017725165
159	0xbb2e9203	-0.0026637323
160	0x00000000	0.0
161	0x3a05d1e6	0.00051048247
162	0xba91b87f	-0.0011117606
163	0xba96c44b	-0.0011502592
164	0x399ea17f	0.00030256432
165	0x00000000	0.0
166	0xbb4b3cb2	-0.003101152
167	0xba43609e	-0.0007453057
168	0xb86656ba	-5.4917044e-05
169	0xb96c243a	-0.0002252021
170	0x00000000	0.0
171	0xb8de8b6c	-0.00010611754
172	0xb72158ed	-9.6170525e-06
173	0x3a0dce9e	0.00054095115
174	0xba16a62e	-0.00057468086
175	0xba91bc3a	-0.0011118718
176	0x394bc8c8	0.00019434385
177	0xba5c216d	-0.0008397315
178	0x00000000	0.0
179	0x00000000	0.0
180	0xb9b18b0a	-0.00033863663
181	0x38c9d3bc	9.6238655e-05
182	0x3a94e37e	0.0011359302
183	0x00000000	0.0
184	0x00000000	0.0
185	0x00000000	0.0
186	0xb9a4c303	-0.00031425813
187	0x39e4c4d5	0.000436342
188	0xb889b7c7	-6.5669e-05
189	0x3931820e	0.00016928485
190	0x38e00902	0.0001068283
191	0x00000000	0.0
192	0xbb28cdd0	-0.002575744
193	0x00000000	0.0
194	0x00000000	0.0
195	0xb93d63d9	-0.00018061641
196	0x00000000	0.0
197	0xba09b5a4	-0.0005253202
198	0xbad6b9e2	-0.0016382302
199	0x3ad02567	0.0015880287
200	0x00000000	0.0
201	0x379cda44	1.8698287e-05
202	0xb99243b1	-0.00027897724
203	0x00000000	0.0
204	0x00000000	0.0
205	0x00000000	0.0
206	0x39ad972c	0.00033109763
207	0xb99e91d4	-0.0003024476
208	0x00000000	0.0
209	0x00000000	0.0
210	0xb7dd3319	-2.6369047e-05
211	0x00000000	0.0
212	0x00000000	0.0
213	0x3a8d3325	0.0010772689
214	0x00000000	0.0
215	0x391df841	0.00015065169
216	0xbad40d3b	-0.0016178259
217	0x00000000	0.0
218	0x3a11bb68	0.0005559237
219	0x39a43863	0.0003132253
220	0x3a9f4b0b	0.0012153102
221	0x00000000	0.0
222	0x3a8b8369	0.0010644022
223	0x00000000	0.0
224	0xba03f45d	-0.00050336664
225	0xbaab898c	-0.0013087257
226	0x00000000	0.0
227	0x00000000	0.0
228	0x3a70bc50	0.0009183334
229	0x39bcf79d	0.0003604264
230	0xbb5e9593	-0.0033963665
231	0x00000000	0.0
232	0xb79f53b5	-1.8993256e-05
233	0x39924ef3	0.00027906112
234	0x00000000	0.0
235	0x00000000	0.0
236	0x3aa8c3e3	0.0012875762
237	0xb8acec45	-8.245608e-05
238	0x00000000	0.0
239	0x00000000	0.0
240	0xb9aa984d	-0.000325384
241	0x3ac210ab	0.0014805993
242	0x3b464bbe	0.0030257548
243	0x00000000	0.0
244	0x3af632a0	0.0018783398
245	0x3a6dcd5a	0.0009071432
246	0xb980dbf7	-0.0002457795
247	0x3b62038b	0.0034486975
248	0xbaca7795	-0.0015447015
249	0x00000000	0.0
250	0xbac7c69b	-0.0015241684
251	0x3a79f717	0.00095354154
252	0x00000000	0.0
253	0xba86404a	-0.0010242548
254	0x00000000	0.0
255	0xba0dde22	-0.00054118235
