models/dr_fair_model.pth (torch, 463503 bytes, 18 tensors)

policy.0.weight f4 [256, 15]
0	0xbdb043f8	-0.08606714
1	0x3d930e9c	0.07180521
2	0x3d7d2704	0.061804786
3	0xbe4b0565	-0.19826277
4	0x3e843277	0.25819752
5	0xbd7feb8c	-0.062480494
6	0xbc6d7237	-0.014492563
7	0xbe26b86e	-0.16281292
8	0x3e3daa8f	0.18522094
9	0x3dec2ba0	0.11531758
10	0xbe2223f5	-0.15834029
11	0x3d8aef02	0.06783868
12	0x3e3c3f0e	0.18383428
13	0xbe5c1b30	-0.21494746
14	0xbe12d464	-0.14338833
15	0xbdd1b8e2	-0.10240342
16	0x3e2ef29b	0.17084734
17	0x3c8e9987	0.017407192
18	0x3e6cff70	0.23144317
19	0xbe758cb3	-0.23979454
20	0x3d998707	0.074964575
21	0x3d9f52e9	0.07779486
22	0x3d8f87de	0.070083365
23	0x3cb2829c	0.021790795
24	0x3e73a3d6	0.23792967
25	0x3e554f78	0.20831096
26	0xbe424a23	-0.18973593
27	0xbc93b54f	-0.01803079
28	0x3e13a439	0.14418115
29	0x3d8a6e84	0.067593604
30	0x3de3e218	0.11127108
31	0x3dae71c7	0.08517795
32	0x3d7f135d	0.062274326
33	0xbd7befa5	-0.06150784
34	0xbe4d2932	-0.20035246
35	0x3e64331e	0.22285125
36	0x3d813b9a	0.06310196
37	0x3e429648	0.1900264
38	0x3e7e0fb3	0.24810676
39	0x3e0a67cf	0.13516162
40	0x3de179e0	0.11009574
41	0x3e7769fd	0.24161525
42	0xbdb76087	-0.08953958
43	0x3dc3b679	0.09556288
44	0xbe59eafa	-0.21281043
45	0x3d75505d	0.059891094
46	0xbc982f2f	-0.018577186
47	0x3e0454ef	0.12923025
48	0x3e560aa4	0.20902497
49	0x3db2abc5	0.08724169
50	0xbdbae9da	-0.09126635
51	0x3daab133	0.08334579
52	0xbdcbe0fb	-0.09955021
53	0x3dd7030a	0.104986265
54	0xbe6dcb19	-0.23222007
55	0x3e3aafcb	0.18231122
56	0x3dda9e8d	0.106747724
57	0x3e25a48a	0.16176048
58	0xbc0e63c0	-0.008690774
59	0xbe0f32e2	-0.13984254
60	0x3d5f06ae	0.05444973
61	0xbd448940	-0.047982454
62	0xbdcd18d7	-0.100145034
63	0x3e44137a	0.19148055
64	0x3e422828	0.18960631
65	0x3e0f3d8b	0.1398832
66	0x3e549972	0.2076166
67	0xbe0d58db	-0.13803427
68	0xbe131ca2	-0.14366391
69	0x3e149b2d	0.1451232
70	0x3e816735	0.25274053
71	0xbd9ff389	-0.078101225
72	0xbe2aabf7	-0.16667162
73	0xbdd9c0a4	-0.106324464
74	0x3d3982f9	0.04529092
75	0x3d730869	0.059334192
76	0xbe48c1e2	-0.1960521
77	0xbe523bfa	-0.20530692
78	0x3e3b3b1b	0.18284266
79	0x3d8ad925	0.06779698
80	0x3e780d1f	0.24223755
81	0x3e358f1e	0.17730376
82	0xbdc95853	-0.098313
83	0xbe83396c	-0.25629747
84	0x3e357ebf	0.17724131
85	0xbdf74e7b	-0.12075516
86	0x3dc1f1f4	0.09469977
87	0xbcbb36d0	-0.022853285
88	0x3d715c41	0.05892587
89	0xbe5581a5	-0.20850237
90	0x3b8184a8	0.0039525814
91	0x3d95f6a0	0.073224306
92	0x3e16a70e	0.14712164
93	0x3e054aee	0.13016865
94	0x3db55712	0.08854498
95	0xbe22ed99	-0.15910949
96	0x3de57177	0.11203282
97	0xbc9333b1	-0.017968984
98	0x3e227569	0.15865101
99	0xbc8aad28	-0.01692827
100	0xbe699d93	-0.22814016
101	0xbc37a74f	-0.011209323
102	0x3e6d1ce5	0.23155554
103	0x3e6eba89	0.23313345
104	0x3d14f944	0.03637053
105	0x3e846186	0.25855654
106	0xbe27be06	-0.16381082
107	0x3e4c25c2	0.19936278
108	0x3c69a089	0.014259466
109	0x3cacf2f3	0.021111941
110	0xbe27a42c	-0.1637122
111	0x3e60988a	0.21933189
112	0xbe5faa35	-0.21842273
113	0x3df1ad98	0.118006885
114	0x39c5c880	0.00037724152
115	0xbe791ced	-0.2432744
116	0x3dfd1e8f	0.12359344
117	0x3e132998	0.14371336
118	0xbe3ecd13	-0.18632917
119	0x3dd78fd1	0.10525478
120	0xbe3afc1d	-0.18260236
121	0xbe1d6337	-0.15369879
122	0x3e6772d5	0.22602399
123	0x3da4eec2	0.08053352
124	0xbd4a2936	-0.049355708
125	0xbdf888b0	-0.12135446
126	0xbcd353ad	-0.025796736
127	0x3e841785	0.25799194
128	0xbd3309d7	-0.043710556
129	0xbdf29c67	-0.11846238
130	0x3e6d3200	0.23163605
131	0x3dfc3635	0.12315027
132	0x3d4392d7	0.04774746
133	0x3d8277b3	0.06370487
134	0x3e1b0d1c	0.1514172
135	0x3cba68e7	0.0227551
136	0xbe6139b2	-0.21994665
137	0xbda8251f	-0.08210205
138	0x3e3eb869	0.18625034
139	0x3e12ac09	0.14323439
140	0x3e1890f4	0.14899045
141	0x3dde7530	0.108621955
142	0xbe336b1d	-0.17521329
143	0x3e2367fe	0.15957639
144	0x3e4ffe4c	0.2031185
145	0xbe0468ca	-0.12930599
146	0xbe79db37	-0.2440003
147	0xbe056ba0	-0.13029337
148	0xbe5fb0ae	-0.21844742
149	0x3e4b4800	0.19851685
150	0xbdb11123	-0.08645847
151	0x3e3d5aa3	0.18491606
152	0xbe0d6f3d	-0.13811965
153	0xbe4f1586	-0.20223054
154	0x3e3057c7	0.17220984
155	0xbe42c535	-0.19020541
156	0x3e26ad64	0.16277081
157	0x3e2926cb	0.16518705
158	0xbddc4844	-0.10755971
159	0xbe39c3fe	-0.18141171
160	0xbe8348d5	-0.25641504
161	0xbe3ecd42	-0.18632987
162	0x3d6e5397	0.058185186
163	0x3e5b17f9	0.21395864
164	0xbe6a60d9	-0.22888507
165	0xbe14d3ab	-0.1453387
166	0xbe8360f5	-0.2565991
167	0xbe10857b	-0.14113419
168	0x3e1b911f	0.15192078
169	0x3c0ddb6a	0.008658269
170	0x3d01abc2	0.03165794
171	0x3c72e47d	0.014824984
172	0x3e15b432	0.1461952
173	0x3d912c8d	0.070885755
174	0xbdcda8ff	-0.10041999
175	0xbdee728f	-0.11642944
176	0xbdcd6f5f	-0.10031008
177	0xbe45b65f	-0.1930785
178	0xbe4d0e49	-0.2002498
179	0x3e705438	0.23469627
180	0xbe808ddb	-0.25108227
181	0xbdec5327	-0.115392976
182	0x3e3b2eaa	0.1827952
183	0xbd2fbb64	-0.04290332
184	0xbdd8ad74	-0.105799586
185	0x3e174992	0.14774159
186	0x3d2ef100	0.042710304
187	0x3e0ab171	0.13544251
188	0x3d9cfb86	0.07665162
189	0x3d7f81ae	0.06237953
190	0xbe07b4ca	-0.1325256
191	0xbe3d3438	-0.18476951
192	0xbe5b8664	-0.21437985
193	0x3e004388	0.12525761
194	0x3e7982b9	0.24366273
195	0x3e08c2ae	0.13355514
196	0x3d0d304b	0.034469884
197	0x3dfe276f	0.12409865
198	0xbe4b12e4	-0.19831425
199	0xbe04d493	-0.12971716
200	0xbdd8c2e4	-0.105840474
201	0xbde1085b	-0.10987922
202	0x3d3b4b06	0.045725845
203	0x3cee3c45	0.029081473
204	0x3da215aa	0.07914288
205	0xbd3ea862	-0.0465473
206	0x3e0c091d	0.13675351
207	0x3e17bd44	0.14818293
208	0xbe2b8ab4	-0.1675213
209	0x3dbe9efb	0.09307667
210	0xbe1b2a74	-0.15152913
211	0xbe5261d4	-0.20545131
212	0x3de6c4df	0.11268019
213	0x3ce5d70b	0.028056642
214	0x3d2dfd05	0.042477626
215	0x3e2640f6	0.16235718
216	0xbbf291a1	-0.007402614
217	0x3dc889e4	0.097919255
218	0xbe363726	-0.17794475
219	0xbdaa079d	-0.08302233
220	0x3c9b1fbf	0.018936036
221	0x3e339dbf	0.17540644
222	0xbe3147f5	-0.17312606
223	0xbd310543	-0.04321791
224	0xbe5fbf13	-0.21850233
225	0xbdedf63c	-0.11619231
226	0x3e50c711	0.20388438
227	0xbda8e4f8	-0.08246797
228	0x3dcacfe0	0.0990293
229	0x3e5d2b58	0.21598566
230	0x3e23ec25	0.1600805
231	0xbdf083cd	-0.11743889
232	0x3dd0fa01	0.102039345
233	0x3e1c1c9f	0.15245293
234	0xbe5d2291	-0.21595217
235	0xbda64ad1	-0.08119739
236	0xbe54f8c3	-0.2079802
237	0xbe716323	-0.23572974
238	0x3e46552a	0.19368425
239	0x3e7fe3c9	0.24989237
240	0x3df3152f	0.11869275
241	0x3e402511	0.1876414
242	0x3e6256b5	0.22103389
243	0x3d57577d	0.05257367
244	0x3e2d3226	0.16913661
245	0x3dabae3f	0.08382844
246	0xbe3e0ac4	-0.18558794
247	0xbe6a4ef0	-0.22881675
248	0x3e5802c4	0.21094805
249	0x3e46b2b1	0.19404103
250	0xbe2579bd	-0.1615972
251	0xbe181855	-0.14853032
252	0x3d8f2720	0.069898844
253	0x3d922daa	0.07137616
254	0x3e714ca3	0.23564391
255	0x3df50bbe	0.1196513

policy.0.bias f4 [256]
0	0xbe5e8459	-0.21730174
1	0xbd4914da	-0.04909215
2	0xbe64cb70	-0.2234323
3	0x3e575f32	0.21032408
4	0x3cdb304c	0.026756428
5	0x3dd25233	0.102695845
6	0x3bb73494	0.0055909846
7	0xbe4550ab	-0.19269054
8	0x3dc24797	0.09486311
9	0x3dde9aca	0.108693674
10	0x3d9a442e	0.075325355
11	0xbd79aa5c	-0.060953483
12	0xbe719fa6	-0.23596057
13	0x3df347bf	0.11878919
14	0xbe5aacd3	-0.2135499
15	0xbe2f49a3	-0.17117934
16	0x3d5ddb31	0.054164115
17	0xbd402e8a	-0.046919383
18	0xbe3b2ed4	-0.18279582
19	0x3e550345	0.20802028
20	0x3d213ab9	0.039362643
21	0xbc39dda9	-0.011344352
22	0xbe783f09	-0.24242796
23	0x3d63e4b7	0.05563804
24	0xbc62fe8c	-0.013854634
25	0xbde7fed7	-0.11327904
26	0x3e020a46	0.12699232
27	0xbcb0c653	-0.021578943
28	0x3e74590a	0.2386209
29	0x3e48c79e	0.19607398
30	0xbd8086f7	-0.062757425
31	0xbca8c78e	-0.020602968
32	0xbcf6d925	-0.03013284
33	0x3d7be943	0.061501753
34	0xbe6dba95	-0.23215707
35	0xbe4b397f	-0.19846152
36	0x3dfe7a12	0.12425627
37	0x3e36f86f	0.17868207
38	0x3dd2aa00	0.10286331
39	0xbe5522b2	-0.20814016
40	0xbe423f00	-0.18969345
41	0x3d188761	0.037238482
42	0xbe65a019	-0.22424354
43	0x3db020fe	0.08600043
44	0xbe4f8717	-0.20266376
45	0xbe1afb48	-0.15134919
46	0xbd4b719f	-0.049668904
47	0xbe263fcd	-0.16235276
48	0x3e155cc9	0.14586176
49	0xbe2a08a9	-0.16604866
50	0x3e1507ad	0.1455371
51	0xbde46fcb	-0.11154135
52	0x3db4b44b	0.08823451
53	0x3e5dafac	0.21649045
54	0x3de23f97	0.11047285
55	0xbe801859	-0.25018576
56	0xbe34e042	-0.17663673
57	0xbcd31d2b	-0.025770744
58	0xbe21840d	-0.1577303
59	0xbc39b4f1	-0.011334644
60	0x3de03306	0.10947232
61	0xbdfe75c1	-0.124248035
62	0xbe00da84	-0.12583357
63	0xbe2af70b	-0.16695802
64	0xbd07da9a	-0.03316746
65	0x3e6773e0	0.22602797
66	0x3e23b21f	0.15985917
67	0xbe509a08	-0.20371258
68	0x3d02b849	0.03191403
69	0x3e0d6753	0.13808946
70	0xbdbdf0d2	-0.092744485
71	0xbe551e02	-0.20812228
72	0xbc5dff20	-0.013549596
73	0xbe7b938f	-0.24568008
74	0x3d94e77c	0.07270715
75	0x3d21689c	0.039406404
76	0x3e3d6363	0.18494944
77	0xbe3e84b9	-0.18605317
78	0x3e3bbf40	0.18334675
79	0x3d82b730	0.063825965
80	0xbca9e4de	-0.020739015
81	0x3e3e87fe	0.18606564
82	0xba39717b	-0.00070741
83	0xbd7608a5	-0.060066838
84	0x3dd35d9e	0.103205904
85	0x3cac06a9	0.02099927
86	0xbd2c84f2	-0.042118974
87	0xbc834aa7	-0.016026808
88	0x3e73922c	0.23786229
89	0x3e24eaa2	0.1610513
90	0x3e739e52	0.23790863
91	0xbdda336f	-0.106543414
92	0x3de9e1c2	0.11420013
93	0xbd9f308e	-0.07772933
94	0xbe0e8e01	-0.13921358
95	0xbe15452d	-0.1457717
96	0xbe2171d1	-0.15766074
97	0x3e139206	0.14411172
98	0x3e70da48	0.23520768
99	0x3e181d1c	0.14854854
100	0x3e5d6ff4	0.21624738
101	0x3e2cb0c2	0.16864303
102	0xbd1ea654	-0.03873284
103	0xbcd33472	-0.025781844
104	0x3dae287c	0.085038155
105	0x3cb3f597	0.021967692
106	0x3e15286e	0.14566204
107	0xbdf196c4	-0.117963344
108	0x3dd546b8	0.10413879
109	0xbdb97dcb	-0.09057196
110	0xbd984da5	-0.074366845
111	0xbe7b2c5b	-0.24528639
112	0xbcdd7816	-0.0270348
113	0xbe279c27	-0.16368161
114	0x3d7d019c	0.061769113
115	0x3e1e2e1d	0.15447278
116	0xbd636c33	-0.05552311
117	0xbe2478c6	-0.16061696
118	0x3e6e3e73	0.2326601
119	0x3e635072	0.22198656
120	0x3e10d7a5	0.14144762
121	0xbd9a7d10	-0.07543385
122	0x3e43574a	0.19076267
123	0x3e185005	0.14874275
124	0x3e291995	0.16513665
125	0x3dc13f65	0.0943592
126	0x3ca3962e	0.019969072
127	0xbe2e88c4	-0.1704436
128	0xbdbfe41d	-0.09369681
129	0xbd9d7eeb	-0.07690223
130	0x3df8eaa5	0.1215413
131	0xbd5eeb26	-0.054423474
132	0x3e2e79c7	0.17038642
133	0x3d686875	0.056740243
134	0x3e5a7806	0.21334848
135	0xbd60620e	-0.054781012
136	0xbd8a158e	-0.067423925
137	0xbd968df3	-0.073512934
138	0x3e14e7c8	0.14541543
139	0xbd549a95	-0.051905233
140	0x3c98f1dc	0.018670015
141	0xbe59525f	-0.21222828
142	0xbdb76642	-0.08955051
143	0xbe3ff730	-0.18746638
144	0x3e6f3d0c	0.23363131
145	0xbd28ec7d	-0.041241158
146	0xbdf66ed1	-0.12032855
147	0x3dcd0932	0.100115195
148	0x3e7636d1	0.24044348
149	0xbe1e07a4	-0.15432602
150	0x3e68693a	0.22696391
151	0xbd98fecd	-0.074704744
152	0x3e5e0d74	0.2168482
153	0xbda846d7	-0.08216637
154	0xbddb41e3	-0.10705926
155	0xbe6ca466	-0.23109588
156	0x3d005565	0.03133144
157	0xbe24c2f5	-0.16089995
158	0xbe6ad088	-0.22931111
159	0x3d992b22	0.0747893
160	0xbe05cd07	-0.13066493
161	0xbd5fd3b5	-0.05464526
162	0x3dd5ac5d	0.10433266
163	0xbd2f8f0c	-0.04286103
164	0x3e6dc183	0.2321835
165	0xbe374e83	-0.17901044
166	0x3e128f5b	0.14312498
167	0xbdc656cd	-0.09684525
168	0x3d6808ec	0.056649134
169	0xbe680f8b	-0.22662179
170	0x3e21be1d	0.15795179
171	0x3d43d8e5	0.04781427
172	0x3da5bb2d	0.080923416
173	0x3c78d39e	0.015187172
174	0x3c41984a	0.011816094
175	0x3df68e3c	0.12038848
176	0xbe83bb85	-0.25729004
177	0x3d50bcd6	0.050961338
178	0xbe52d670	-0.20589614
179	0xbe1bd0e5	-0.15216406
180	0x3cfb1e1d	0.030654008
181	0x3e404031	0.18774487
182	0x3e4cb586	0.1999112
183	0x3e4f5295	0.20246346
184	0x3de5b7af	0.112166755
185	0x3e7b91b1	0.24567296
186	0xbe791f3d	-0.24328323
187	0x3de3f09b	0.11129876
188	0x3d9c1738	0.07621616
189	0x3de55ddd	0.111995436
190	0x3dfb7865	0.12278823
191	0xbd8a2d2f	-0.06746899
192	0x3e42c3de	0.1902003
193	0xbe6101ba	-0.21973315
194	0xbcd98ada	-0.026555467
195	0x3c46b49e	0.012128023
196	0x3ba88c64	0.005143689
197	0x3e361215	0.17780335
198	0xbe7f89d5	-0.24954922
199	0xbe6fd742	-0.23421958
200	0xbe1cf1eb	-0.1532666
201	0xbde1b851	-0.11021484
202	0x3e54f32f	0.20795892
203	0xbe41cf44	-0.18926722
204	0xbe360b7f	-0.17777823
205	0xbe521aed	-0.20518084
206	0x3e53f1a2	0.20697644
207	0xbcf1597e	-0.029461619
208	0xbe5a295f	-0.21304844
209	0x3e3d15bd	0.18465324
210	0x3e223243	0.15839486
211	0xbe4275d6	-0.18990263
212	0xbcad692b	-0.021168312
213	0xbc3124d6	-0.010812005
214	0xbde9a110	-0.11407673
215	0x3d544d80	0.051831722
216	0xbe3573a0	-0.17719889
217	0x3d3925dc	0.04520212
218	0xbdd94657	-0.106091194
219	0x3e16cd16	0.14726672
220	0x3d65e12f	0.056122955
221	0xbdb2fa58	-0.087391555
222	0xbcac74cf	-0.021051792
223	0xbe4cdedc	-0.20006889
224	0xbe5c8f23	-0.21538977
225	0x3d4792c6	0.04872396
226	0x3d44199c	0.047875986
227	0x3b98876b	0.004654815
228	0x3e43ac11	0.19108607
229	0x3c48c5bd	0.012254176
230	0x3de7324f	0.112888925
231	0x3e6c01b7	0.23047529
232	0xbe580232	-0.21094587
233	0x3e27c239	0.16382684
234	0xbe7c4904	-0.24637228
235	0x3e3fa4a1	0.18715145
236	0x3dceb094	0.10092273
237	0xbe30639f	-0.17225502
238	0x3d416c62	0.047222503
239	0xbdca350d	-0.098734
240	0xbdbea9e7	-0.0930975
241	0x3e505805	0.20346077
242	0xbd16400f	-0.036682185
243	0x3e701ce0	0.23448515
244	0x3d141993	0.036157202
245	0x3cd63202	0.026146892
246	0x3e6f7e26	0.23387966
247	0x3e4efd8d	0.2021391
248	0x3cbef257	0.023308916
249	0x3e564262	0.2092376
250	0xbd5fd04a	-0.054642
251	0xbd2b990d	-0.041894007
252	0xbe10e944	-0.14151484
253	0x3e125f6a	0.1429421
254	0xbc8e5b5a	-0.017377544
255	0x3d567334	0.05235596

policy.2.weight f4 [128, 256]
0	0xbbe76530	-0.007061623
1	0xbc2047b8	-0.009782724
2	0xbcb0d2c8	-0.021584883
3	0x3cf41298	0.029794022
4	0xbb07db60	-0.0020730123
5	0xbc5f7940	-0.013639748
6	0x3d08eab0	0.03342694
7	0x3be9da40	0.007136613
8	0x3cf0e934	0.029408075
9	0x3d2de7d6	0.042457424
10	0x3d58477a	0.05280254
11	0xbd5b06b6	-0.053473197
12	0x3d399378	0.045306653
13	0xbbc2f060	-0.005949065
14	0x3c560338	0.013062291
15	0xbc60bfc0	-0.013717592
16	0x3c8a2d24	0.016867228
17	0x3c70f2a0	0.014706284
18	0xbd093a8c	-0.0335031
19	0xbc2f9eb0	-0.010718986
20	0x3d4bac3a	0.049724795
21	0x3c12bee8	0.008956648
22	0xbd0e6306	-0.034762405
23	0xbcc4e030	-0.024032682
24	0x3d309e34	0.043119624
25	0xbd7a3b8e	-0.061091952
26	0xbca84990	-0.02054289
27	0x3c370658	0.011170946
28	0xbc60c7b0	-0.013719484
29	0xbc8ffb78	-0.017575964
30	0x3c960db0	0.018317074
31	0xbd4fd028	-0.050735623
32	0xbd454a08	-0.048166305
33	0x3d17258e	0.03690105
34	0x3d4dbf40	0.05023122
35	0x3cc7ad84	0.02437473
36	0xbd65e9a2	-0.056131013
37	0xbc769178	-0.015049331
38	0x3d233540	0.039845705
39	0x3d248bfe	0.04017257
40	0x3c8943e0	0.016755998
41	0xbcd338e8	-0.025783971
42	0x3c144da0	0.00905171
43	0xb9971a00	-0.00028820336
44	0x3d6859e2	0.056726344
45	0xbc61e2a0	-0.013786942
46	0xbd0172a6	-0.031603478
47	0x3cbf9150	0.02338472
48	0xbc42acd0	-0.011882022
49	0x3c829c2c	0.01594361
50	0x3c34c038	0.011032157
51	0x3be60fb0	0.007020913
52	0xbcf5d4a8	-0.030008629
53	0xbbb81f00	-0.00561893
54	0x3c31d910	0.010854974
55	0xbb036e40	-0.0020054728
56	0xb9de5000	-0.00042402744
57	0x3bd44190	0.006477542
58	0xbcefbbd0	-0.02926436
59	0x3d1b607c	0.03793381
60	0xbc987328	-0.018609598
61	0x3d53f378	0.05174586
62	0x3b856ac0	0.0040715635
63	0xbd550b6e	-0.052012853
64	0xbc24be40	-0.010055125
65	0x3d06b026	0.032882832
66	0xbd3d486c	-0.046211645
67	0x3c4443f8	0.011979096
68	0x3c83b5c8	0.016077891
69	0xbb5ac660	-0.00333824
70	0xbd4e6584	-0.05038978
71	0x3c1ba290	0.009499207
72	0xbc86c0c0	-0.016449332
73	0x3c9307c4	0.017948039
74	0xbbca21e0	-0.006168589
75	0xbcf934a4	-0.030420609
76	0x3d01a350	0.031649888
77	0xbd6104f6	-0.05493637
78	0x3c15b778	0.009137981
79	0xbc987884	-0.018612154
80	0x3d53f772	0.051749654
81	0xbd7d5c08	-0.061855346
82	0xbc2c6d20	-0.010524064
83	0xbd24a022	-0.040191777
84	0xbd76bce0	-0.06023872
85	0xbd5a2ea4	-0.053267136
86	0x3cd0ac78	0.025472865
87	0x3bde6be0	0.006787762
88	0xbd3706d6	-0.044684254
89	0xbcc52d6c	-0.02406951
90	0xbcf6c050	-0.030120999
91	0xbd02485e	-0.031807296
92	0x3cb53660	0.022120655
93	0x3d618ec6	0.0550678
94	0x3d57a2c2	0.052645452
95	0xbd2233a8	-0.039600044
96	0xbd367822	-0.04454816
97	0xbc6183d0	-0.013764337
98	0xba8ed000	-0.0010895729
99	0x3d2a143a	0.041523196
100	0x3ccb222c	0.024796568
101	0x3ca37ee8	0.019957975
102	0x3a63f600	0.00086960196
103	0x3d7ca4a4	0.06168045
104	0x3ca4ee24	0.020133086
105	0xbd099498	-0.033588976
106	0x3d5500d4	0.052002743
107	0x3c5fded8	0.01366397
108	0x3c8cb870	0.01717779
109	0x3c88d434	0.016702749
110	0x3baefaa0	0.0053399354
111	0x3d1fdd4e	0.039029412
112	0xbd71c620	-0.059026837
113	0x3d508418	0.050907224
114	0xbcf0e3a0	-0.029405415
115	0xbd6b4b34	-0.057444766
116	0x3bc90420	0.006134525
117	0xbd25e6ae	-0.040503196
118	0x3ce5fb04	0.028073795
119	0xbd6ed9be	-0.058313124
120	0x3d06eb1a	0.032939054
121	0xbcd90ce4	-0.026495405
122	0xbcea40c4	-0.028595336
123	0x3d74b5dc	0.059743747
124	0xba730580	-0.0009270534
125	0x3b5bb6a0	0.00335256
126	0xbc36e8c0	-0.01116389
127	0xbc6b7c40	-0.014372885
128	0x3d1c2d34	0.038129047
129	0x3cd4109c	0.025886826
130	0xbd3c6a18	-0.045999616
131	0x3d5451f0	0.051835954
132	0x3d7ffb1e	0.062495343
133	0x3b65bf40	0.003505662
134	0xbce4ca34	-0.02792845
135	0xbd42aace	-0.047526173
136	0x3d673238	0.056444377
137	0x3d09fd8a	0.03368906
138	0x3b623100	0.003451407
139	0x3c99b270	0.018761843
140	0x3d7c7de6	0.061643504
141	0x3d10366e	0.03520816
142	0x3bbf2fe0	0.0058345646
143	0xbc1d8cc8	-0.009616084
144	0xbc9778f0	-0.018490285
145	0x3c1921b8	0.009346418
146	0xbd6910b0	-0.05690068
147	0x3cc56470	0.024095744
148	0x3d7b4526	0.061345242
149	0x3b6653e0	0.0035145208
150	0x3d0b8d12	0.034070082
151	0xbd2ac4e2	-0.04169167
152	0x3cfd8d94	0.030951299
153	0xbb8bd300	-0.0042670965
154	0x3d522c52	0.0513118
155	0xbd4f7e12	-0.05065734
156	0xbce80f68	-0.028327659
157	0xbbf4dfc0	-0.007472962
158	0x3cb28c70	0.021795481
159	0xbb23d4a0	-0.002499856
160	0x3c151048	0.00909812
161	0x3cbffc28	0.023435667
162	0xbcf30084	-0.029663332
163	0xbbf4fa20	-0.0074761063
164	0x3d2ad6f4	0.0417089
165	0xbc49fd18	-0.012328409
166	0xbd3c50b0	-0.045975387
167	0xbbf91b10	-0.007602103
168	0xbd4b6b6c	-0.049662992
169	0xbd1262de	-0.03573882
170	0x3d5e6444	0.05429484
171	0xbd7f7bd2	-0.062373944
172	0x3cdd6050	0.027023464
173	0xbbdd7010	-0.0067577437
174	0x3d5c5a80	0.053797245
175	0xbc393e18	-0.011306308
176	0x3a1d1f00	0.0005993694
177	0xbd3a767c	-0.04552315
178	0xbcc673ac	-0.024225079
179	0xbd6846de	-0.05670821
180	0xbccebd00	-0.025236607
181	0x3d166840	0.036720514
182	0x3bb783b0	0.005600415
183	0xbc2291d0	-0.00992246
184	0xbd4cccc8	-0.049999982
185	0xbd697ce2	-0.057003863
186	0x3d127590	0.035756648
187	0x3d0512fa	0.0324888
188	0xbd09c438	-0.033634394
189	0x3cb6d8dc	0.022320203
190	0xbd1b755c	-0.03795372
191	0xbd608238	-0.054811686
192	0xbcf0e914	-0.029408015
193	0x3c0367f0	0.008020386
194	0xbd615b1a	-0.05501852
195	0xbaf204c0	-0.001846455
196	0xbd40adf8	-0.04704091
197	0x3b0b9260	0.0021296963
198	0xbd2fd93a	-0.042931773
199	0xbd3f2bea	-0.04667274
200	0xbd18e21c	-0.03732501
201	0xbcbab72c	-0.022792421
202	0xbca162c4	-0.019700415
203	0xbd0c7e64	-0.034300223
204	0x3cb39048	0.021919385
205	0x3c94fa0c	0.018185638
206	0xbd1d6b5e	-0.03843247
207	0xb8013000	-3.08007e-05
208	0xbced1b60	-0.028943717
209	0xbd57b514	-0.052662924
210	0xbd251596	-0.04030379
211	0xbd3b0f0a	-0.04566864
212	0x3d28903c	0.041153178
213	0x3c81d654	0.01584927
214	0x3d53d180	0.051713467
215	0x3bdc7d00	0.0067287683
216	0x3d6593fc	0.056049332
217	0x3c109068	0.008823492
218	0x3c2be2e0	0.010491103
219	0xbd7360d6	-0.05941852
220	0xbcd3e938	-0.025868043
221	0xbd002972	-0.031289525
222	0xbd4c59a8	-0.04989019
223	0x3d53b564	0.05168666
224	0xbcf7b96c	-0.030239783
225	0xbd5b7e9c	-0.05358754
226	0xbcdb0ea8	-0.026740387
227	0xbd518f98	-0.051162332
228	0x3d33405a	0.043762542
229	0x3d6b9352	0.057513542
230	0xbbb132e0	-0.005407676
231	0xbc9367f8	-0.017993912
232	0x3d314ca8	0.043285996
233	0xbbdd3ad0	-0.0067513958
234	0x3cac7604	0.021052368
235	0x3d7eb9f6	0.062189065
236	0xbd2fca64	-0.042917624
237	0x3cca5238	0.024697408
238	0x3d2414c4	0.040058866
239	0xbd644700	-0.055731773
240	0x3d3262d4	0.04355128
241	0xbd52a73c	-0.05142902
242	0xbd7930aa	-0.060837425
243	0xbd117b94	-0.035518244
244	0x3c91c954	0.017796196
245	0x3d7bfea2	0.061522134
246	0x3bb75880	0.005595267
247	0x3c275828	0.010213889
248	0xbc77c638	-0.015122943
249	0xbd4b202c	-0.04959123
250	0x3d0233da	0.03178773
251	0x3d074802	0.033027656
252	0x3ba4c720	0.0050286204
253	0x3d1757cc	0.036948964
254	0x3cf64054	0.03005997
255	0xbcc25138	-0.023720369

policy.2.bias f4 [128]
0	0xbd7681aa	-0.06018225
1	0xbd2d1ff9	-0.04226682
2	0xbd5d9adc	-0.054102764
3	0xbd25abf6	-0.040447198
4	0x3cdc8831	0.02692041
5	0xbb495411	-0.0030720273
6	0xbd59c7a2	-0.0531689
7	0xbd3327a2	-0.04373897
8	0xbd66d2a8	-0.05635324
9	0x3cec8e7c	0.028876536
10	0x3d7a8603	0.06116296
11	0x3d318178	0.04333636
12	0xbd47e6b7	-0.04880401
13	0x3d561618	0.052267164
14	0x3c6dcc8a	0.014514098
15	0x3d2f39fa	0.0427799
16	0x3bd44ef0	0.0064791366
17	0xbd1b67c4	-0.037940755
18	0xbc223f2a	-0.009902755
19	0x3d37f918	0.04491529
20	0x3d5bfb82	0.053706653
21	0x3b6e90eb	0.0036402296
22	0x3d540546	0.05176284
23	0xbcae1a68	-0.021252826
24	0x3c54c54b	0.012986491
25	0x3c4c424f	0.012466981
26	0xbc1ccc5d	-0.009570208
27	0x3d0cc74f	0.034369763
28	0xbcf15df7	-0.029463751
29	0xbcbf6dec	-0.023367845
30	0xbd21b038	-0.039474696
31	0x3d5ad640	0.05342698
32	0x3d5591cd	0.052141
33	0x3d69388d	0.056938697
34	0x3d0daadc	0.034586772
35	0x3d04322b	0.032274406
36	0xbcc254c7	-0.023722066
37	0xbd0c38a6	-0.03423371
38	0x3994936b	0.00028338595
39	0xbd3edeed	-0.046599317
40	0x3c80a71c	0.015704684
41	0x3c93aaf2	0.018025849
42	0xbc3de7ba	-0.011590892
43	0x363a0000	2.771616e-06
44	0xbd135b12	-0.035975523
45	0xbd26edb6	-0.040754043
46	0x3d1e7057	0.038681354
47	0xbd1b6f52	-0.03794796
48	0x3d30bb34	0.04314728
49	0x3cfa32a6	0.03054173
50	0x3d257d90	0.04040295
51	0x3b2459a6	0.0025077849
52	0x3ca88892	0.020572934
53	0x3d174eb9	0.03694031
54	0x3bad5410	0.005289562
55	0x3c4c5389	0.012471088
56	0xbceeaf8f	-0.029136447
57	0xbd701ba4	-0.05862011
58	0xbd6d1d0b	-0.057889026
59	0x3cdd065e	0.026980575
60	0x3d2b22db	0.041781288
61	0xbc955b55	-0.018232027
62	0xbd6009c2	-0.054696806
63	0xbd1461a4	-0.03622593
64	0x3d28d0a3	0.041214596
65	0x3d7c7448	0.061634332
66	0x3ca55c75	0.020185689
67	0xbd0c78a4	-0.03429474
68	0x3d09de26	0.033659123
69	0x3d64b4cd	0.055836488
70	0xbd34e066	-0.044159316
71	0x3ccfce02	0.025366787
72	0x3c9ac02d	0.018890465
73	0x3cd8c8e8	0.026462987
74	0xbd0d92c3	-0.03456379
75	0x3d639ea3	0.05557121
76	0xbcf7f48d	-0.030267978
77	0xbd1c1fda	-0.038116314
78	0xbc5e1d12	-0.013556736
79	0x3b0daee0	0.0021619126
80	0x3d808028	0.06274444
81	0xbce4fec8	-0.02795352
82	0x3ca08d5e	0.01959866
83	0xbc85ca24	-0.01633174
84	0x3c702838	0.014658026
85	0xbd3d8af6	-0.0462751
86	0xbd46ea5d	-0.04856335
87	0x3cd3c6c8	0.025851622
88	0x3d3bd7f8	0.04586026
89	0xbd542479	-0.051792596
90	0x3d47c682	0.048773296
91	0xbd6394e2	-0.055561908
92	0x3ccb2de8	0.024802163
93	0xbcfba0d0	-0.03071633
94	0xbc424ab9	-0.011858636
95	0xbd13e9ce	-0.036111645
96	0xbca3c52d	-0.019991482
97	0x3b807d5a	0.003921193
98	0xbabc8126	-0.0014381751
99	0x3bb50952	0.0055247927
100	0xbd677c5e	-0.05651509
101	0xbd30cf7e	-0.04316663
102	0x3d07fe03	0.03320123
103	0x3c92bf74	0.017913558
104	0x3beb0985	0.0071727657
105	0x3cd0636c	0.025438033
106	0xbd25b0fe	-0.040451996
107	0x3ce981bc	0.028504245
108	0xbc22cdb0	-0.009936735
109	0x3ccfe2a4	0.025376625
110	0x3cfb00d3	0.030640041
111	0x3cd6189d	0.026134783
112	0x3d4a981a	0.04946146
113	0xbd01afa0	-0.03166163
114	0x3d77c0f2	0.06048674
115	0xbc143b20	-0.0090473
116	0x3d4b51e6	0.04963865
117	0xbd661189	-0.056169067
118	0xbd59937e	-0.053119175
119	0x3c891f7c	0.016738646
120	0xbd0a4dd6	-0.033765636
121	0xbbc07230	-0.005872987
122	0x3d757b53	0.059932064
123	0xbd4ba73e	-0.04972004
124	0x3c12608b	0.00893415
125	0xbcefb5b0	-0.02926144
126	0x3c74ec98	0.0149489865
127	0xbc936403	-0.017992025

policy.4.weight f4 [7, 128]
0	0xbda27a8b	-0.079335295
1	0xbcdc477b	-0.026889553
2	0xbcd284df	-0.025698123
3	0x3d8ca68a	0.06867702
4	0x3d3362df	0.043795463
5	0x398340cc	0.00025034545
6	0x3d794107	0.06085303
7	0xbd046a8b	-0.03232817
8	0x3c8a1910	0.016857654
9	0x3c012a09	0.007883557
10	0xbd9960e9	-0.07489187
11	0xbd5557d3	-0.05208571
12	0x3d8d6b7c	0.06905267
13	0x3bb91ce2	0.005649195
14	0x3d0f7d97	0.03503188
15	0xbcb8170e	-0.02247193
16	0xbd20ae83	-0.039228927
17	0x3da4e30e	0.0805112
18	0xbc1efe98	-0.009704255
19	0xbdb086c1	-0.08619452
20	0x3c579828	0.0131588355
21	0x3d47b136	0.048752986
22	0xbcddf095	-0.027092258
23	0x3d2e1354	0.0424989
24	0x3db3ae90	0.087735295
25	0xbcd630ff	-0.02614641
26	0xbce55f95	-0.027999679
27	0x3d69fe01	0.057127003
28	0x3d39329b	0.045214277
29	0x3d882d2a	0.06649239
30	0xbbb3582d	-0.005473158
31	0xbd2c2e21	-0.04203618
32	0xbda49367	-0.08035927
33	0x3d91d884	0.07121375
34	0x3c4387a5	0.011934196
35	0x3d8b15f2	0.06791295
36	0xbd6a0a01	-0.057138447
37	0xbd9c5ade	-0.07634519
38	0xbd041073	-0.03224225
39	0xbd2e83ce	-0.042606167
40	0x3c1e40d8	0.009659015
41	0x3cb60988	0.022221342
42	0xbda4d975	-0.08049289
43	0x3cb6e0ad	0.02232393
44	0xbd66f135	-0.056382377
45	0xbcbe14c5	-0.023203263
46	0x3c2f69a3	0.010706338
47	0xbda0663e	-0.07832001
48	0xbd06732c	-0.03282468
49	0x3d39c0a7	0.045349743
50	0xbca65ea4	-0.0203088
51	0xbc8611b9	-0.016365873
52	0xbd940af3	-0.07228651
53	0x3ce6453d	0.028109187
54	0xbcd88ebd	-0.02643525
55	0xbd28000f	-0.04101568
56	0x3d80062a	0.06251176
57	0xbd99c89e	-0.07508968
58	0xbb83f6ca	-0.0040272223
59	0x3b88aefe	0.0041712513
60	0xbdaba27c	-0.08380601
61	0xbcdb49ba	-0.026768554
62	0xbd89eb00	-0.06734276
63	0xbca1b619	-0.019740151
64	0xbda0b409	-0.07846839
65	0x3d862a1e	0.06551002
66	0xbd88fedb	-0.06689235
67	0xbce28710	-0.027652293
68	0x3d6da3cf	0.05801755
69	0xbcacaa79	-0.021077381
70	0xbd743e28	-0.05962959
71	0x3d9863b3	0.07440891
72	0x3da2b153	0.07943978
73	0x3cbeb093	0.023277557
74	0xbd875ba4	-0.06609276
75	0xbdab305a	-0.08358832
76	0xbb94985c	-0.004534764
77	0xbcb4fa41	-0.022091987
78	0x3b965f52	0.004589
79	0xbcb354e8	-0.021891072
80	0xbbc08fde	-0.0058765253
81	0x3d6ef5af	0.05833977
82	0xbd6a85db	-0.05725656
83	0xbdacbefd	-0.084348656
84	0xbc39de96	-0.0113445725
85	0x3c3fe35f	0.011711924
86	0x3d74a952	0.05973179
87	0xbd8e090f	-0.069353215
88	0xbc8d9eb8	-0.017287597
89	0xbd9a34aa	-0.07529576
90	0x3d9e8a4e	0.07741223
91	0xbd98a515	-0.07453362
92	0x3cc8355f	0.024439512
93	0xbd9a7c89	-0.075432844
94	0xbd307251	-0.04307777
95	0xbccd28e3	-0.02504391
96	0x39049adc	0.0001264619
97	0x3cc29015	0.023750344
98	0x3d26a6d8	0.04068646
99	0x3d1afe4d	0.037840176
100	0x3ce7c8fa	0.028294075
101	0x3da76e2e	0.08175312
102	0xbd499269	-0.049211893
103	0x3d882eb1	0.06649531
104	0xbdab012d	-0.08349834
105	0x3c3171e5	0.010830377
106	0xbcf97b4c	-0.0304543
107	0x3d9a3c49	0.0753103
108	0xbd0bc3ff	-0.034122463
109	0xbd7f1d0e	-0.062283568
110	0xb9a53d9c	-0.00031517155
111	0x3ca5731c	0.02019649
112	0xbb6271ac	-0.0034552617
113	0x3d1c5830	0.03817004
114	0x3d914a7d	0.07094286
115	0xbcbbb4d5	-0.022913376
116	0xbd4a9eca	-0.04946784
117	0xbc994b14	-0.018712558
118	0xbda4ef8d	-0.08053503
119	0xbcbbdc52	-0.022932205
120	0xbd964885	-0.07338051
121	0x3cc36324	0.023850985
122	0x3db3953d	0.08768699
123	0xbb103bb4	-0.0022008242
124	0xbcc55277	-0.024087174
125	0x3cf94501	0.030428411
126	0x3d92a559	0.07160444
127	0x3d6724ef	0.056431707
128	0xbc82b0ab	-0.015953382
129	0x3d4df391	0.05028111
130	0xbd9015e5	-0.07035426
131	0xbd9f6e42	-0.07784702
132	0xbd508094	-0.05090387
133	0xbbded568	-0.0068003424
134	0x3da29896	0.0793926
135	0x3d67f76c	0.056632444
136	0xbd13c803	-0.036079418
137	0x388582b6	6.366281e-05
138	0xbd987a32	-0.07445182
139	0xbda22b1e	-0.0791838
140	0xbb414615	-0.0029491235
141	0xbb9352f4	-0.004495973
142	0xbda41104	-0.08011058
143	0x3d61eb8b	0.055156272
144	0xbda782c7	-0.08179241
145	0xbc14e1b8	-0.009087019
146	0x3d9cae8b	0.07650479
147	0xbd554650	-0.05206901
148	0x3d2adb32	0.041712947
149	0x3d559d78	0.052152127
150	0xbd8d0fcf	-0.06887781
151	0x3cbe8f79	0.023261772
152	0x3d9822d2	0.074285164
153	0xbd8d97d5	-0.06913725
154	0x3d623cac	0.055233642
155	0xbcc8078f	-0.024417667
156	0x3cdb03af	0.026735155
157	0x3cd50a98	0.026006028
158	0x3dad9d25	0.084772386
159	0xbd134d00	-0.035962105
160	0x3bde7fdb	0.006790144
161	0x3b671614	0.0035260962
162	0xbcca61b7	-0.024704797
163	0xbc14c968	-0.009081222
164	0x3c8947cb	0.016757866
165	0x3d6deb13	0.058085512
166	0xbd9d3107	-0.07675367
167	0xbdab8075	-0.083741106
168	0x3c86633e	0.016404744
169	0xbc5fa1c0	-0.013649404
170	0x3d9ba648	0.07600075
171	0x3d1a061c	0.037603483
172	0x3ca71807	0.0203972
173	0x3b7d3a57	0.003863951
174	0xbcaa2bde	-0.02077287
175	0xbd96e4f8	-0.07367891
176	0x3c5774c2	0.013150396
177	0x3d6183cc	0.055057332
178	0xbd6ef5ca	-0.05833987
179	0x3d014079	0.031555627
180	0xbdaec8c5	-0.085343875
181	0xbc0764e0	-0.008263797
182	0xbd924e37	-0.071438245
183	0x3d67a042	0.056549318
184	0x3d907bf6	0.07054894
185	0xbd466008	-0.048431426
186	0x3d2c34ef	0.04204267
187	0x3d287ca4	0.04113449
188	0xbd51dca1	-0.0512358
189	0xbd893aac	-0.06700644
190	0xbd38bda2	-0.045102723
191	0xbc2b2bb9	-0.010447436
192	0x3d10c8ef	0.035347875
193	0x3cc3c70f	0.02389863
194	0x3d7cd1d8	0.06172356
195	0x3d58d12a	0.05293385
196	0xbd98ac43	-0.07454731
197	0x3d8ac7d3	0.06776395
198	0x3d11a6c5	0.035559434
199	0xbd373b3e	-0.044734232
200	0xbcc26979	-0.023731934
201	0xbdb129fd	-0.08650587
202	0x3b937099	0.0044995067
203	0xbd925d59	-0.07146711
204	0x3cc5276e	0.024066653
205	0x3ab73e2c	0.0013980321
206	0xbd89272e	-0.06696926
207	0xbd87c6d8	-0.06629723
208	0x3c09315e	0.008373586
209	0xbd4e3d7a	-0.050351597
210	0xbdad420f	-0.08459865
211	0xbcc9c626	-0.024630617
212	0x3c6b156a	0.014348367
213	0xb9d9192e	-0.00041408226
214	0x3d9caf90	0.076506734
215	0x3da577bd	0.08079479
216	0x3db6baa5	0.08922318
217	0x3dab9bbf	0.083793156
218	0xbd3ba268	-0.04580918
219	0xbd8c72f5	-0.06857864
220	0xbc19094b	-0.0093405945
221	0xbd8562c0	-0.06512976
222	0xbbd76394	-0.00657315
223	0x3c908f62	0.017646495
224	0xbc9d3e7e	-0.019194838
225	0x3c30593e	0.0107634645
226	0x3990a5d2	0.00027589366
227	0x3cc106b5	0.023562768
228	0x3c2f1ca0	0.010687977
229	0xbcb85333	-0.02250061
230	0x3d508f1c	0.05091773
231	0xbda3d129	-0.079988785
232	0x3cd77a25	0.02630336
233	0x3d7eb802	0.062187202
234	0xbd5ef36a	-0.054431356
235	0x3b0b9c2e	0.0021302807
236	0xbca551cb	-0.020180603
237	0x3d46b3ea	0.048511423
238	0x3c9d36bf	0.019191144
239	0xbc2b1fed	-0.010444623
240	0xbcf91cfd	-0.03040933
241	0xbda57438	-0.080788076
242	0xbc99a9af	-0.01875767
243	0xbd3199ba	-0.043359496
244	0xbd7362c7	-0.059420373
245	0xbd479b4d	-0.04873209
246	0xbd91bb11	-0.07115758
247	0x3d87c056	0.06628482
248	0x3d8a5579	0.06754584
249	0x381938a0	3.653078e-05
250	0xbd81c5f8	-0.06336588
251	0xbce5cebb	-0.028052678
252	0xbd3d434a	-0.04620675
253	0x3b45c09a	0.0030174614
254	0x3d2357ff	0.03987884
255	0xbc5d737c	-0.013516303

policy.4.bias f4 [7]
0	0x3daed152	0.085360184
1	0x3ca668f8	0.020313725
2	0x3c0b9517	0.0085194325
3	0xbd0ce247	-0.034395482
4	0x3daa3af7	0.08312028
5	0xbd3b6c5f	-0.045757648
6	0x3b98fdff	0.0046689506

exp_avg f4 [256, 15]
0	0x00000000	0.0
1	0x00000000	0.0
2	0x00000000	0.0
3	0x00000000	0.0
4	0x00000000	0.0
5	0x00000000	0.0
6	0x00000000	0.0
7	0x00000000	0.0
8	0x00000000	0.0
9	0x00000000	0.0
10	0x00000000	0.0
11	0x00000000	0.0
12	0x00000000	0.0
13	0x00000000	0.0
14	0x00000000	0.0
15	0x39c784c4	0.00038055156
16	0xba3039bf	-0.0006722472
17	0x3a506bf2	0.00079506554
18	0xb9becf81	-0.00036394226
19	0xba4a7c0a	-0.0007724172
20	0x387483d7	5.829692e-05
21	0x390aecb2	0.00013248881
22	0x377c2b83	1.5030501e-05
23	0x36859844	3.981435e-06
24	0xb926ac6b	-0.00015895224
25	0x3922ef0c	0.00015538576
26	0x38bbe67e	8.9597874e-05
27	0x3a5621a6	0.0008168466
28	0x3a045de4	0.0005049391
29	0x396a1954	0.00022325414
30	0x37913a58	1.7312515e-05
31	0x39f90b65	0.0004750147
32	0xba46ff9c	-0.00075911894
33	0x397155f1	0.00023015567
34	0x3a2dbdd1	0.0006627711
35	0xb80d6f82	-3.372087e-05
36	0x3630d6dc	2.6351108e-06
37	0xb7418cb5	-1.1536457e-05
38	0x3614d6a5	2.2178658e-06
39	0xb87900f9	-5.9367132e-05
40	0x38548642	5.0669776e-05
41	0xb8122436	-3.4842837e-05
42	0xb980b440	-0.0002454836
43	0x38a6220f	7.921841e-05
44	0xb8b157f0	-8.456397e-05
45	0xb9c83a3b	-0.00038190358
46	0xb9c7fc96	-0.0003814443
47	0x3a7757fd	0.00094354135
48	0xb943bb1a	-0.0001866635
49	0xba50b804	-0.0007961991
50	0xb8ad844c	-8.273925e-05
51	0xb90e5d9a	-0.00013577045
52	0x374773c9	1.1888283e-05
53	0xb7435993	-1.1643761e-05
54	0x395976a3	0.00020738928
55	0xb998a2cf	-0.00029113
56	0xb7c7c6b9	-2.3815186e-05
57	0xb95d7706	-0.00021120542
58	0xb9de93b5	-0.0004245319
59	0xb79f96c8	-1.902449e-05
60	0x00000000	0.0
61	0x00000000	0.0
62	0x00000000	0.0
63	0x00000000	0.0
64	0x00000000	0.0
65	0x00000000	0.0
66	0x00000000	0.0
67	0x00000000	0.0
68	0x00000000	0.0
69	0x00000000	0.0
70	0x00000000	0.0
71	0x00000000	0.0
72	0x00000000	0.0
73	0x00000000	0.0
74	0x00000000	0.0
75	0x00000000	0.0
76	0x00000000	0.0
77	0x00000000	0.0
78	0x00000000	0.0
79	0x00000000	0.0
80	0x00000000	0.0
81	0x00000000	0.0
82	0x00000000	0.0
83	0x00000000	0.0
84	0x00000000	0.0
85	0x00000000	0.0
86	0x00000000	0.0
87	0x00000000	0.0
88	0x00000000	0.0
89	0x00000000	0.0
90	0x388ca9ca	6.707346e-05
91	0xb8f5cd41	-0.00011720742
92	0x38ab9779	8.1821294e-05
93	0xb7567783	-1.278322e-05
94	0xb8c02984	-9.163006e-05
95	0x3722406f	9.670955e-06
96	0x38506953	4.9689155e-05
97	0x3784ab7a	1.5815476e-05
98	0xb676b724	-3.6763458e-06
99	0xb830f47a	-4.2189356e-05
100	0x387c18d4	6.0104605e-05
101	0xb783aacb	-1.5695949e-05
102	0x391f500f	0.00015193246
103	0x38dc3d20	0.00010501803
104	0x383fb1b3	4.5703444e-05
105	0xb999ac55	-0.0002931083
106	0x39919b45	0.0002777224
107	0xb93924a9	-0.00017656632
108	0x38fd2770	0.00012071326
109	0x3937c8f2	0.00017527098
110	0xb8548d53	-5.0676357e-05
111	0xb8c27969	-9.273255e-05
112	0xb74f9de2	-1.2374921e-05
113	0x379462d9	1.7689004e-05
114	0x38fa5026	0.00011935858
115	0xb9387b82	-0.00017593618
116	0xb7b4835a	-2.1518837e-05
117	0xba04a2fb	-0.00050596864
118	0xb9da365f	-0.0004162071
119	0xb9118916	-0.00013879346
120	0x39988b8a	0.00029095664
121	0x3a6b723f	0.00089815626
122	0xbad9a22e	-0.001660412
123	0x39de1018	0.0004235513
124	0x3ab9962b	0.0014159133
125	0x3891837e	6.938631e-05
126	0x39039d9c	0.00012551848
127	0xb79fe6c2	-1.9061732e-05
128	0x370b62eb	8.308077e-06
129	0xb951fa2e	-0.00020024992
130	0x3992681e	0.00027924863
131	0x3792a03c	1.7479171e-05
132	0xb90e01dd	-0.0001354287
133	0x39bae1ab	0.0003564482
134	0xb8c33f31	-9.310095e-05
135	0x356cfb9f	8.828301e-07
136	0xb87fd13a	-6.0991595e-05
137	0x38af9697	8.3727e-05
138	0xb7921246	-1.7413066e-05
139	0xb86b6653	-5.6123663e-05
140	0xb4815f13	-2.4097298e-07
141	0x3465eca9	2.1413383e-07
142	0xb6b45b2c	-5.375032e-06
143	0xb5df69d0	-1.664559e-06
144	0x34c5b33b	3.6824517e-07
145	0xb5e889cb	-1.732545e-06
146	0xb53fdd57	-7.1475137e-07
147	0x37e06f0a	2.6754587e-05
148	0xb4231491	-1.518804e-07
149	0x376d292c	1.4135887e-05
150	0x00000000	0.0
151	0x00000000	0.0
152	0x00000000	0.0
153	0x00000000	0.0
154	0x00000000	0.0
155	0x00000000	0.0
156	0x00000000	0.0
157	0x00000000	0.0
158	0x00000000	0.0
159	0x00000000	0.0
160	0x00000000	0.0
161	0x00000000	0.0
162	0x00000000	0.0
163	0x00000000	0.0
164	0x00000000	0.0
165	0x00000000	0.0
166	0x00000000	0.0
167	0x00000000	0.0
168	0x00000000	0.0
169	0x00000000	0.0
170	0x00000000	0.0
171	0x00000000	0.0
172	0x00000000	0.0
173	0x00000000	0.0
174	0x00000000	0.0
175	0x00000000	0.0
176	0x00000000	0.0
177	0x00000000	0.0
178	0x00000000	0.0
179	0x00000000	0.0
180	0x3a16e4a4	0.0005756116
181	0x3a478816	0.0007611526
182	0xbada4bf9	-0.0016654722
183	0x39ac68a6	0.00032884366
184	0x3aae21c3	0.0013285208
185	0x39226889	0.00015488466
186	0x3968e2ac	0.00022209686
187	0x37818737	1.5440963e-05
188	0x3751dfb7	1.2509458e-05
189	0xb9948955	-0.0002833108
190	0x39d10be9	0.0003987246
191	0x387f6300	6.088894e-05
192	0x398b80b1	0.0002660803
193	0x3a303ab1	0.0006722613
194	0xb7e7a5f7	-2.761463e-05
195	0xb6ca51f9	-6.029612e-06
196	0x38a19597	7.7049415e-05
197	0xb90ce24e	-0.00013435745
198	0x38898e3d	6.559163e-05
199	0x39352409	0.00017274929
200	0xb7f78708	-2.9507573e-05
201	0xb792f7a3	-1.7519871e-05
202	0xb6ab6c59	-5.1088105e-06
203	0xb6a3242b	-4.861989e-06
204	0xb7a611f6	-1.9797106e-05
205	0xb5f3e14e	-1.8170483e-06
206	0xb88409a5	-6.296047e-05
207	0xb87d0068	-6.032028e-05
208	0xb79b6212	-1.8523107e-05
209	0xb7853f70	-1.5884376e-05
210	0xb5edbe1b	-1.7713204e-06
211	0xb7ae2780	-2.076081e-05
212	0xb7529aaa	-1.2552986e-05
213	0x3857d509	5.14584e-05
214	0x381fd72b	3.8108945e-05
215	0xb60a21c9	-2.0583268e-06
216	0xb6ff7464	-7.613142e-06
217	0xb812782b	-3.4921028e-05
218	0x373de6e6	1.1319038e-05
219	0xb7242e40	-9.78593e-06
220	0x377600b5	1.4662907e-05
221	0xb7b40e21	-2.1464251e-05
222	0xb6cc9ad4	-6.097698e-06
223	0x369e1680	4.7113863e-06
224	0x379d5e71	1.8759836e-05
225	0x00000000	0.0
226	0x00000000	0.0
227	0x00000000	0.0
228	0x00000000	0.0
229	0x00000000	0.0
230	0x00000000	0.0
231	0x00000000	0.0
232	0x00000000	0.0
233	0x00000000	0.0
234	0x00000000	0.0
235	0x00000000	0.0
236	0x00000000	0.0
237	0x00000000	0.0
238	0x00000000	0.0
239	0x00000000	0.0
240	0x399f92c0	0.0003043618
241	0x3a644cc0	0.00087089464
242	0xbae3e63b	-0.001738734
243	0x39f0b033	0.00045907646
244	0x3ac30d2f	0.0014881248
245	0x38818814	6.176546e-05
246	0x3922b468	0.0001551673
247	0xb8d05907	-9.9347955e-05
248	0xb81b15f0	-3.697531e-05
249	0xb954c184	-0.00020289986
250	0x39cf98c0	0.00039595924
251	0xb80f0172	-3.4095203e-05
252	0xb8ca1e4f	-9.637756e-05
253	0x399776ed	0.0002888957
254	0x35989a2d	1.1369754e-06
255	0x00000000	0.0

exp_avg_sq f4 [256, 15]
0	0x00000000	0.0
1	0x00000000	0.0
2	0x00000000	0.0
3	0x00000000	0.0
4	0x00000000	0.0
5	0x00000000	0.0
6	0x00000000	0.0
7	0x00000000	0.0
8	0x00000000	0.0
9	0x00000000	0.0
10	0x00000000	0.0
11	0x00000000	0.0
12	0x00000000	0.0
13	0x00000000	0.0
14	0x00000000	0.0
15	0x315a53c5	3.1770793e-09
16	0x32900c9f	1.6769546e-08
17	0x330a657a	3.222292e-08
18	0x3185ca97	3.8938412e-09
19	0x32e79ba0	2.696271e-08
20	0x2ef5279b	1.11483454e-10
21	0x2fdfa733	4.0682266e-10
22	0x2e0fc7da	3.269194e-11
23	0x2de5500e	2.6069837e-11
24	0x302317d7	5.9332933e-10
25	0x303a18b3	6.7701506e-10
26	0x2f794bb1	2.2673309e-10
27	0x32829822	1.5203174e-08
28	0x31b963ba	5.3955462e-09
29	0x30b6a889	1.3290143e-09
30	0x2e491bb6	4.572672e-11
31	0x3294a1dd	1.7303075e-08
32	0x332bf6a6	4.0038366e-08
33	0x31825762	3.7934322e-09
34	0x33195b64	3.5706208e-08
35	0x2eb3fa48	8.1844365e-11
36	0x2dcf8aba	2.3594782e-11
37	0x2cd7b30f	6.130547e-12
38	0x2d078a1e	7.70453e-12
39	0x2f18674e	1.386102e-10
40	0x2e895408	6.244966e-11
41	0x2e8b24e8	6.327544e-11
42	0x31d98e57	6.3317134e-09
43	0x2f493aa6	1.830168e-10
44	0x306f68fd	8.709689e-10
45	0x3199b5b0	4.4735415e-09
46	0x33804f9e	5.974947e-08
47	0x343368ed	1.6708846e-07
48	0x323dd9e1	1.1050788e-08
49	0x34095e82	1.2793501e-07
50	0x2f8d67a7	2.57214e-10
51	0x3021c05d	5.8844823e-10
52	0x2da8cae2	1.9189487e-11
53	0x2e5a2afd	4.9605643e-11
54	0x30edbe7c	1.7298158e-09
55	0x3145cf3a	2.8785068e-09
56	0x2f2dde3c	1.5813212e-10
57	0x3247f224	1.1638381e-08
58	0x31bba57f	5.461231e-09
59	0x3110602c	2.1009425e-09
60	0x00000000	0.0
61	0x00000000	0.0
62	0x00000000	0.0
63	0x00000000	0.0
64	0x00000000	0.0
65	0x00000000	0.0
66	0x00000000	0.0
67	0x00000000	0.0
68	0x00000000	0.0
69	0x00000000	0.0
70	0x00000000	0.0
71	0x00000000	0.0
72	0x00000000	0.0
73	0x00000000	0.0
74	0x00000000	0.0
75	0x00000000	0.0
76	0x00000000	0.0
77	0x00000000	0.0
78	0x00000000	0.0
79	0x00000000	0.0
80	0x00000000	0.0
81	0x00000000	0.0
82	0x00000000	0.0
83	0x00000000	0.0
84	0x00000000	0.0
85	0x00000000	0.0
86	0x00000000	0.0
87	0x00000000	0.0
88	0x00000000	0.0
89	0x00000000	0.0
90	0x30094fd5	4.995376e-10
91	0x31c01fc3	5.5915463e-09
92	0x3230ee23	1.0298694e-08
93	0x30a04bc8	1.166307e-09
94	0x3226b150	9.702788e-09
95	0x2d725358	1.3774613e-11
96	0x2f3ed0f2	1.7354632e-10
97	0x2decb7d5	2.6911732e-11
98	0x2db44f0d	2.0498736e-11
99	0x2f272846	1.520287e-10
100	0x2f7e47cc	2.3126673e-10
101	0x2e856c61	6.067392e-11
102	0x31a4125e	4.7751163e-09
103	0x309a4a21	1.1226043e-09
104	0x30090594	4.9848237e-10
105	0x3107df0b	1.977187e-09
106	0x32f2b9a5	2.825693e-08
107	0x338b131b	6.476167e-08
108	0x31bbfce0	5.471165e-09
109	0x336776c1	5.3891885e-08
110	0x2ea4be53	7.491665e-11
111	0x2f6200db	2.0554884e-10
112	0x2d56514c	1.2182543e-11
113	0x2dac75df	1.9606481e-11
114	0x2fe5e949	4.1820616e-10
115	0x305f7b0d	8.1301793e-10
116	0x2e73201a	5.5280315e-11
117	0x3262c27b	1.3199151e-08
118	0x318c15b4	4.0770036e-09
119	0x30e80249	1.6880871e-09
120	0x313d6673	2.7561355e-09
121	0x33047108	3.0836446e-08
122	0x33ce669f	9.611289e-08
123	0x31e01d0f	6.5225616e-09
124	0x3397cd7a	7.0688614e-08
125	0x2f40d290	1.7537105e-10
126	0x300a7d94	5.0382565e-10
127	0x2d9f3740	1.8100743e-11
128	0x2df3825b	2.7683791e-11
129	0x30add4b5	1.2647862e-09
130	0x3121a8d2	2.3524547e-09
131	0x2eb7e19f	8.361955e-11
132	0x3184b94a	3.8627705e-09
133	0x318f9414	4.1786823e-09
134	0x30322ff0	6.4824146e-10
135	0x29099f73	3.055841e-14
136	0x2f2057f8	1.4583168e-10
137	0x2f97176a	2.7483377e-10
138	0x2d512791	1.188906e-11
139	0x2f07ce4c	1.235147e-10
140	0x27240715	2.2763411e-15
141	0x27018cea	1.7978736e-15
142	0x2b9f6a3c	1.1327115e-12
143	0x29f49bb6	1.0862788e-13
144	0x27bf8d22	5.3166166e-15
145	0x2a047d55	1.1767438e-13
146	0x28b4679d	2.002895e-14
147	0x2df6da24	2.8063836e-11
148	0x2682524c	9.042869e-16
149	0x2d09cc5c	7.832925e-12
150	0x00000000	0.0
151	0x00000000	0.0
152	0x00000000	0.0
153	0x00000000	0.0
154	0x00000000	0.0
155	0x00000000	0.0
156	0x00000000	0.0
157	0x00000000	0.0
158	0x00000000	0.0
159	0x00000000	0.0
160	0x00000000	0.0
161	0x00000000	0.0
162	0x00000000	0.0
163	0x00000000	0.0
164	0x00000000	0.0
165	0x00000000	0.0
166	0x00000000	0.0
167	0x00000000	0.0
168	0x00000000	0.0
169	0x00000000	0.0
170	0x00000000	0.0
171	0x00000000	0.0
172	0x00000000	0.0
173	0x00000000	0.0
174	0x00000000	0.0
175	0x00000000	0.0
176	0x00000000	0.0
177	0x00000000	0.0
178	0x00000000	0.0
179	0x00000000	0.0
180	0x31fbfd0c	7.3338295e-09
181	0x33e04358	1.04430626e-07
182	0x349bcf7a	2.902196e-07
183	0x32aa1dd2	1.9804165e-08
184	0x346b383f	2.1906543e-07
185	0x30364a1d	6.6316536e-10
186	0x309b99fd	1.13215e-09
187	0x2e3c16cf	4.276651e-11
188	0x2e9a7a77	7.024863e-11
189	0x311bbcb9	2.2662745e-09
190	0x318e711e	4.145604e-09
191	0x2f601156	2.037884e-10
192	0x32d5ca79	2.4888537e-08
193	0x322a9050	9.928115e-09
194	0x318eb8a8	4.153737e-09
195	0x2e3ded82	4.3184574e-11
196	0x313918af	2.6935074e-09
197	0x31f02348	6.9889303e-09
198	0x3059b69d	7.920365e-10
199	0x31db972c	6.390925e-09
200	0x2df31db5	2.7639094e-11
201	0x2d55f779	1.2162598e-11
202	0x2c93fb85	4.2059156e-12
203	0x2ce3e93e	6.477623e-12
204	0x2dd76844	2.4488973e-11
205	0x2da67eb8	1.892829e-11
206	0x2f338121	1.6325831e-10
207	0x3090eeef	1.0545288e-09
208	0x2f130d9f	1.3374411e-10
209	0x2f1c95a4	1.424128e-10
210	0x2a455697	1.7527157e-13
211	0x2ff412d9	4.4396734e-10
212	0x308e8cce	1.0371879e-09
213	0x2f7294c3	2.2062623e-10
214	0x303fe76f	6.981428e-10
215	0x2a939868	2.6218199e-13
216	0x2c06313c	1.9069876e-12
217	0x2e26ba30	3.7909398e-11
218	0x2cfaec3c	7.1316546e-12
219	0x2c838900	3.738454e-12
220	0x2d1a5943	8.773707e-12
221	0x2d8524b9	1.5136658e-11
222	0x2f0d637e	1.2859222e-10
223	0x2b8297d9	9.279202e-13
224	0x2db19a78	2.0191168e-11
225	0x00000000	0.0
226	0x00000000	0.0
227	0x00000000	0.0
228	0x00000000	0.0
229	0x00000000	0.0
230	0x00000000	0.0
231	0x00000000	0.0
232	0x00000000	0.0
233	0x00000000	0.0
234	0x00000000	0.0
235	0x00000000	0.0
236	0x00000000	0.0
237	0x00000000	0.0
238	0x00000000	0.0
239	0x00000000	0.0
240	0x3120222f	2.3302495e-09
241	0x3336e37c	4.2582073e-08
242	0x3410e590	1.349456e-07
243	0x322a6c09	9.919867e-09
244	0x33ca9cc6	9.434875e-08
245	0x2f10c3ac	1.316624e-10
246	0x304109f9	7.0227163e-10
247	0x2f726a70	2.2047586e-10
248	0x2e3718f7	4.1631556e-11
249	0x30ac95a1	1.2557174e-09
250	0x3198a665	4.442699e-09
251	0x2e9dde54	7.179027e-11
252	0x31c20cfa	5.6476184e-09
253	0x311b1b01	2.2570819e-09
254	0x303f727e	6.96481e-10
255	0x00000000	0.0

exp_avg f4 [256]
0	0x00000000	0.0
1	0x39f6d279	0.0004707759
2	0xba016d52	-0.00049372495
3	0x3a19d1da	0.0005867757
4	0x00000000	0.0
5	0x00000000	0.0
6	0x3863383f	5.41734e-05
7	0xb8d0841f	-9.942822e-05
8	0xba83e94f	-0.0010064038
9	0x382f9697	4.18635e-05
10	0x00000000	0.0
11	0x00000000	0.0
12	0xba833133	-0.0010009169
13	0xb8fbf4bb	-0.00012014197
14	0xb7ca6346	-2.4126504e-05
15	0x00000000	0.0
16	0xba839c3c	-0.0010041068
17	0x00000000	0.0
18	0xba4c833e	-0.0007801539
19	0x38179333	3.6138295e-05
20	0x399d325a	0.00029982888
21	0xb93dc258	-0.00018096843
22	0xba7f3f11	-0.00097368757
23	0x00000000	0.0
24	0xba2225b9	-0.00061854307
25	0xba42b068	-0.0007426799
26	0x3a71b01f	0.00092196645
27	0x00000000	0.0
28	0xba5cbaf6	-0.00084201933
29	0xba15f229	-0.00057199836
30	0xb89ed54a	-7.573755e-05
31	0x3a1fc24f	0.0006094323
32	0x00000000	0.0
33	0xb97d6b13	-0.00024167848
34	0xb98ff153	-0.00027454886
35	0x00000000	0.0
36	0xba37ed47	-0.0007016253
37	0x00000000	0.0
38	0xb8f46b41	-0.00011654804
39	0x00000000	0.0
40	0x00000000	0.0
41	0x38a3888b	7.797879e-05
42	0xba45ac4b	-0.0007540627
43	0xb9633239	-0.00021667116
44	0x00000000	0.0
45	0xba0a166a	-0.0005267622
46	0xba9a2585	-0.0011760449
47	0x00000000	0.0
48	0xbacf70ca	-0.001582646
49	0xb9b40b79	-0.00034340823
50	0xba3e92d9	-0.0007269807
51	0xb9349a26	-0.00017223562
52	0xba1d9276	-0.0006010899
53	0xb9deb2df	-0.0004247641
54	0x3a0d83e5	0.0005398377
55	0x00000000	0.0
56	0x00000000	0.0
57	0x3b46908f	0.0030298566
58	0x00000000	0.0
59	0x399b5bd5	0.00029632324
60	0x3a574dce	0.0008213193
61	0x00000000	0.0
62	0x3a813dd2	0.0009860343
63	0x00000000	0.0
64	0x39b7c047	0.00035047738
65	0xba40fb76	-0.00073616893
66	0xba610875	-0.0008584329
67	0x38ea69fb	0.0001117773
68	0x00000000	0.0
69	0xba4bfe61	-0.0007781741
70	0x3afb7798	0.0019185422
71	0x3a01081c	0.0004922168
72	0x00000000	0.0
73	0x00000000	0.0
74	0xb88228d9	-6.2064915e-05
75	0xba3d7b02	-0.00072281074
76	0xba4f948f	-0.00079185603
77	0xbab3ec16	-0.0013726975
78	0xba17a887	-0.00057853054
79	0xba5ac299	-0.00083450373
80	0xb9f719db	-0.00047130775
81	0x388ce403	6.718191e-05
82	0x00000000	0.0
83	0x3a0fd309	0.0005486464
84	0x3a3eb9fb	0.0007275638
85	0x00000000	0.0
86	0xbaaabbe5	-0.0013025968
87	0x00000000	0.0
88	0xbafe0032	-0.001937872
89	0x3a955e27	0.0011395857
90	0xba19d600	-0.00058683753
91	0xbaa238b6	-0.001237652
92	0x00000000	0.0
93	0x39822259	0.00024821123
94	0x3a4e37cf	0.00078665925
95	0x00000000	0.0
96	0x00000000	0.0
97	0xb9cd7f0e	-0.0003919531
98	0x00000000	0.0
99	0x389e4e6f	7.5486365e-05
100	0xbaad9f61	-0.0013246351
101	0x3a152485	0.0005689341
102	0x00000000	0.0
103	0xb9cf847f	-0.00039580834
104	0xba5710a0	-0.00082040764
105	0x00000000	0.0
106	0xb9a48af6	-0.00031384052
107	0xba910ac1	-0.0011065827
108	0xba2d616d	-0.0006613944
109	0x00000000	0.0
110	0x00000000	0.0
111	0x39966625	0.00028686333
112	0x00000000	0.0
113	0xbb431746	-0.002976851
114	0x00000000	0.0
115	0x00000000	0.0
116	0xba0edd6f	-0.00054498663
117	0x00000000	0.0
118	0x3807219b	3.2217806e-05
119	0x3a9eda9b	0.0012119593
120	0xb81de8f2	-3.7648664e-05
121	0xb951707d	-0.00019973698
122	0x3a55cbfc	0.0008155701
123	0x00000000	0.0
124	0x38f0eb18	0.000114878814
125	0xb8784e72	-5.9200866e-05
126	0x00000000	0.0
127	0xbaa442e3	-0.0012532141
128	0x00000000	0.0
129	0x00000000	0.0
130	0x00000000	0.0
131	0xb9e4c47f	-0.0004363395
132	0xbaa0cbb8	-0.0012267744
133	0xb9c92f2a	-0.00038372847
134	0xb9a1aac7	-0.00030835552
135	0x00000000	0.0
136	0x39f06938	0.0004585476
137	0x3a5095f6	0.0007956916
138	0xbab1e312	-0.00135717
139	0x00000000	0.0
140	0x00000000	0.0
141	0x00000000	0.0
142	0x00000000	0.0
143	0x00000000	0.0
144	0x3aab88d4	0.0013087043
145	0xb7978d8c	-1.8066516e-05
146	0x38b26b48	8.507684e-05
147	0xb69407fc	-4.411673e-06
148	0x3959fc04	0.00020788616
149	0x00000000	0.0
150	0xbaf5f8b6	-0.0018766138
151	0x00000000	0.0
152	0x3a8cd2bd	0.0010743957
153	0x399f0701	0.00030332062
154	0x00000000	0.0
155	0x00000000	0.0
156	0xb9cfa5ba	-0.00039605593
157	0x00000000	0.0
158	0x3a96b04b	0.0011496631
159	0xbad2cb29	-0.0016082275
160	0x00000000	0.0
161	0x39dbe2e2	0.00041939976
162	0xba23e527	-0.0006252103
163	0xba4f9d63	-0.0007919876
164	0x399cafe1	0.0002988568
165	0x00000000	0.0
166	0xbb167c5c	-0.0022962308
167	0xba128d1f	-0.00055904867
168	0xb9107f37	-0.00013780301
169	0xb97387f0	-0.00023224927
170	0x00000000	0.0
171	0x38c21157	9.253871e-05
172	0x37f615d2	2.9335646e-05
173	0x38b8578f	8.790113e-05
174	0xb97c6d05	-0.00024073206
175	0xba4e9f3e	-0.00078820053
176	0x3915d4b7	0.0001428899
177	0xb9d6c4c6	-0.00040963868
178	0x00000000	0.0
179	0x00000000	0.0
180	0xb9c5f02c	-0.0003775371
181	0xb7a122f5	-1.9208974e-05
182	0x3a5c582f	0.00084054744
183	0x00000000	0.0
184	0x00000000	0.0
185	0x00000000	0.0
186	0xb9fe0692	-0.0004845155
187	0x38ffbe24	0.00012194764
188	0xb9e96d8c	-0.00044522842
189	0x394888d6	0.00019124462
190	0x38aa4c6a	8.120465e-05
191	0x00000000	0.0
192	0xbad7b0ef	-0.0016455929
193	0x00000000	0.0
194	0x00000000	0.0
195	0xb92fa74c	-0.00016751623
196	0x00000000	0.0
197	0xba187484	-0.0005815702
198	0xba97925d	-0.0011564005
199	0x3a84e5de	0.0010139307
200	0x00000000	0.0
201	0xb7c13c4d	-2.3035473e-05
202	0xba0c10d9	-0.00053430867
203	0x00000000	0.0
204	0x00000000	0.0
205	0x00000000	0.0
206	0x3913b10a	0.00014084965
207	0x389b0992	7.3927586e-05
208	0x00000000	0.0
209	0x00000000	0.0
210	0xb9c1e819	-0.00036984755
211	0x00000000	0.0
212	0x00000000	0.0
213	0x3a1ca310	0.0005975226
214	0x00000000	0.0
215	0x39856d24	0.00025449053
216	0xba9c798d	-0.001193808
217	0x00000000	0.0
218	0x3a103d1a	0.0005502269
219	0x39a2d2e3	0.0003105617
220	0x3a535c22	0.000806274
221	0x00000000	0.0
222	0x3a280778	0.00064098043
223	0x00000000	0.0
224	0xb9c01699	-0.0003663793
225	0xba5115fd	-0.0007975994
226	0x00000000	0.0
227	0x00000000	0.0
228	0x3a0176f2	0.00049386837
229	0x39e03e3f	0.00042770986
230	0xbb0f151d	-0.0021832653
231	0x00000000	0.0
232	0x38fbe5cd	0.000120114164
233	0x38cb5ef0	9.697478e-05
234	0x00000000	0.0
235	0x00000000	0.0
236	0x3a5c6419	0.00084072497
237	0x391c1355	0.00014884521
238	0x00000000	0.0
239	0x00000000	0.0
240	0xba0da2e7	-0.00054029975
241	0x3a953402	0.0011383297
242	0x3ade7802	0.0016973021
243	0x00000000	0.0
244	0x3a8611e2	0.0010228718
245	0x3a0d2881	0.00053847587
246	0xb9ac7eec	-0.0003290096
247	0x3b0653f9	0.002049683
248	0xbab62b85	-0.0013898468
249	0x00000000	0.0
250	0xba5277e7	-0.0008028731
251	0x3a3bb826	0.0007160924
252	0x00000000	0.0
253	0xba560fa6	-0.0008165784
254	0x00000000	0.0
255	0xb99540a4	-0.00028467656
